inventory/ark_material.onnx (onnx, 648490 bytes, 8 tensors)

35 f4 [8, 3, 5, 5]
000000 ac cd c5 bd 16 1c 9f be f2 24 8f be 2a 9a 2d 3e
       -0.096583694 -0.31076115 -0.27957875 0.1695334
000010 e8 40 f7 3d 44 9b d7 be 57 a5 b4 be 69 76 7f bd
       0.12072927 -0.42110646 -0.35282394 -0.062368784
000020 6f 87 0a 3e 80 2a d8 bd 94 09 ac bd 4e 37 ba be
       0.13528226 -0.10554981 -0.084002644 -0.3637032
000030 8a 94 83 3e a1 66 b4 3e ea 2d b7 3e 9c a6 fb be
       0.25699264 0.3523455 0.35777217 -0.4915055
000040 dd 6a 9a be 29 99 a0 3e c3 3e ef 3d 96 8e 8b be
       -0.30159655 0.31366852 0.11681893 -0.27257222
000050 20 47 54 3c e3 f0 a6 be d6 21 90 3d 72 1b e5 bd
       0.012956411 -0.32605657 0.07037704 -0.111868754
000060 ad 35 01 bd b9 b9 7c be 43 0f b0 bd 6d 30 ae 3e
       -0.03154533 -0.24680223 -0.08596661 0.3402132
000070 48 6c d4 3e 12 3c a7 3d 8c 87 ba be e8 70 8b bd
       0.41488862 0.081657544 -0.3643154 -0.068086445
000080 df b0 31 3d a9 6a fd bd 0e f9 6f be ba a6 64 3e
       0.043381568 -0.123738594 -0.2343485 0.22329226
000090 19 2d d5 be 1b e0 ae 3e fd 43 53 be 99 2f d1 3e
       -0.4163597 0.34155354 -0.20631404 0.40856627
0000a0 8d dc b7 be 72 d8 a1 3e 2d d1 2f be 96 27 48 be
       -0.35910454 0.31610447 -0.17169638 -0.19546351
0000b0 10 df b0 3e 56 96 ea be d8 fd 70 3e 1e 2f 25 be
       0.34545183 -0.45817822 0.23534334 -0.16131255
0000c0 8c 02 1a be 7f 53 8a 3e 43 ec d2 3e d9 4d 98 bd
       -0.15040034 0.27016827 0.41195878 -0.07436723
0000d0 47 9f db 3e 1e f0 1c 3f d8 f0 b2 3c f9 eb d8 3e
       0.42894956 0.6130389 0.021843359 0.42367533
0000e0 f6 c6 97 3e b7 40 e7 3e b6 75 ae 3e 4d dc 00 bd
       0.29643983 0.4516656 0.3407418 -0.031460095
0000f0 13 2f b9 bd 96 62 82 3c 95 02 07 be f9 fb a1 3c
       -0.09042182 0.01591615 -0.13184579 0.01977347
000100 ee 39 e8 3e 0f 0e 1e be c3 f4 4f 3c 83 b2 6a be
       0.45356697 -0.1543505 0.012692633 -0.2291966
000110 cb fd e3 3e 15 f2 ae be d4 79 cd be e1 be e5 b8
       0.44529566 -0.3416907 -0.4013201 -0.00010955125
000120 00 eb 24 bd da 5c 74 be 9b 5b ef 3e d0 0f 7d be
       -0.040263176 -0.23863545 0.46749577 -0.24713063
000130 77 d9 aa be 52 24 19 3d 0c c4 0f bf e3 17 81 be
       -0.33369038 0.037388153 -0.5615852 -0.25213537
000140 7a 46 40 3d 59 a2 6b be b5 45 10 3e a0 46 d8 3c
       0.04694221 -0.2301115 0.14089091 0.026400864
000150 e7 da 2c bf dd 32 55 be 69 9c a3 be 8a 73 5c 3e
       -0.6752152 -0.20820184 -0.3195527 0.2152845
000160 2b b3 a0 3e ab 82 0a bf cf f5 c0 3d 33 96 82 3e
       0.31386694 -0.54105633 0.09421884 0.25505218
000170 b0 43 d3 be 19 13 ec 3e b9 7b c7 be 17 f9 e7 3e
       -0.4126258 0.4610832 -0.3896158 0.45307228
000180 4f 2b c8 3e cb a2 12 3f 83 36 70 3c a4 5e 8e be
       0.39095542 0.5727965 0.014661434 -0.2780658
000190 c7 22 76 be 07 19 32 3e 5d f0 39 3f 6d d0 1c 3f
       -0.24036704 0.1739236 0.7263239 0.6125553
0001a0 c1 76 82 3c 0e f9 f7 bc cd e4 2d be bc 52 ed 3e
       0.015925767 -0.030270126 -0.16981812 0.46352184
0001b0 25 ba 5a 3e c0 eb 1e bf 02 d5 96 3e f6 9a 50 3e
       0.21360071 -0.62078476 0.29459387 0.20371613
0001c0 67 a5 cb 3e e1 af e6 bd 1d 04 19 be 7c 53 98 be
       0.3977463 -0.11264015 -0.14942975 -0.29751194
0001d0 17 e8 00 3f 0a c8 95 3e 04 8d 3f bd 2c 45 b1 be
       0.5035414 0.2925418 -0.046765342 -0.34623086
0001e0 8d d7 05 bf b1 3c 6d 3d 7a 19 ea 3e 2f 46 28 3e
       -0.5228203 0.057919208 0.45722562 0.16433023
0001f0 5b 70 d7 3e 31 ea 86 3e 82 ae 0e bf 9c ce 5f be
       0.42077908 0.2635055 -0.5573503 -0.21856159
000200 ab e1 a1 be 6b 77 7d be 4a 4f fa be 5f 1a ab be
       -0.31617483 -0.24752586 -0.48888618 -0.33418557
000210 67 7f 0d bf 26 5a 8b bd 06 f1 c7 3d 87 f4 1f 3c
       -0.55272526 -0.06804304 0.097627684 0.00976289
000220 dc 77 d5 3e c4 58 90 3e 6c 6b 8b be 0b 67 a9 be
       0.41693008 0.28192723 -0.27230394 -0.33086428
000230 a2 1c 37 3e 36 c3 05 3e 8c c4 a1 bc fb 83 d1 3e
       0.17882016 0.13062748 -0.019747041 0.40921006
000240 51 db 94 be 15 4c a5 3e 1f 99 fb 3e 26 f8 1f 3f
       -0.29073575 0.32284608 0.4914026 0.6248802
000250 df 49 8f 3d fc 8b f1 3e 74 82 98 3d 58 c5 20 3e
       0.06996512 0.47177112 0.07446757 0.1570028
000260 24 9d 18 3f 9b 1b 87 3e d6 9b 5a 3e 49 43 ba bd
       0.5961478 0.2638825 0.21348509 -0.09094865
000270 00 c3 87 be f0 eb 32 be 2c 31 6e 3e 45 fd 2a bd
       -0.2651596 -0.17472816 0.23260945 -0.041745443
000280 29 f7 42 bd a3 ae 52 bd c7 4c 59 be f8 ce 8c 3e
       -0.04759899 -0.051436078 -0.21220694 0.27501655
000290 53 6f ff bd 3b f5 36 3e 2c b8 0c bf d4 d1 c8 3b
       -0.12472405 0.17866985 -0.54968524 0.006128529
0002a0 97 1e 85 3d 4d 33 09 bf 3c 5f 8b bd 78 35 0c 3e
       0.06499975 -0.53593904 -0.06805274 0.13692272
0002b0 37 86 f5 be dd 61 74 be 4d ee 10 3e ad ba 5b 3e
       -0.4795396 -0.23865457 0.14153405 0.2145793
0002c0 3f 6b cc 3b f2 1b c1 3e a8 67 b5 bd 15 fb f6 3e
       0.0062383707 0.37716633 -0.088576615 0.48238435
0002d0 af 1f 8d 3e 8e c7 d8 3e 3b 34 18 3e 94 3a 98 3e
       0.27563235 0.42339748 0.14863674 0.29732192
0002e0 39 9f 68 be 4a 13 d7 be a1 51 64 bc bd fc 27 be
       -0.22716989 -0.42006904 -0.0139354775 -0.16405006
0002f0 6a 26 d5 3e ca dd 5e bd f6 99 e0 be 4c b4 93 3e
       0.4163087 -0.054410733 -0.43867463 0.28848493
000300 69 aa 1b bf 48 bd 49 be 5e 17 0f bd 32 6a 1f 3f
       -0.608069 -0.19701111 -0.034934394 0.62271416
000310 55 cb 72 be 3c 8b 50 3e 78 df b1 be 3a 84 15 bf
       -0.23710378 0.20365614 -0.34740806 -0.58404887
000320 13 70 6a be 57 9b f3 3e 5b 2a d6 3e 91 c1 c0 bd
       -0.22894315 0.47579452 0.4182919 -0.0941192
000330 1e 02 c4 3e 83 5f 93 be 53 df 7c 3e f7 f4 d8 be
       0.38282865 -0.28783807 0.24694566 -0.42374393
000340 67 73 87 3e 96 7d 95 3c 3a 72 89 be b8 d7 a6 3d
       0.26455233 0.01824836 -0.2684496 0.08146614
000350 27 42 4f 3d 78 09 41 be 35 4d 02 3f ca 0a f3 be
       0.050600197 -0.18851268 0.5089906 -0.4746917
000360 b1 e1 b4 be ba b9 da be 1a 4e 44 be ce 88 de bd
       -0.3532844 -0.42719823 -0.19170418 -0.10865937
000370 09 9f 88 bd 8e 75 80 3e 0a 9a 72 be a8 93 b9 be
       -0.066709585 0.25089687 -0.23691574 -0.36245465
000380 91 1f cb be 71 ab 09 3e 48 31 c2 3e e4 78 b3 3e
       -0.3967252 0.13444306 0.37928224 0.3505317
000390 22 a7 d5 3d d6 ab de 3e a8 6a 45 3d d8 f0 16 3e
       0.10432269 0.43490475 0.04819742 0.14740312
0003a0 cf c8 b4 3e ce e3 b2 3e d6 7e d6 3d 44 09 98 bd
       0.35309455 0.34939426 0.10473411 -0.07423642
0003b0 e7 4c 06 3e 59 7a 18 be 32 cd 68 3e 88 97 c9 3e
       0.13115273 -0.14890422 0.22734526 0.39373422
0003c0 51 b5 0d bd 20 81 12 3e d3 56 82 be 50 f5 b6 3d
       -0.034596745 0.1430707 -0.25456867 0.089335084
0003d0 02 4d 88 bd 05 05 ba bd fb 71 90 3e f2 86 63 bc
       -0.06655313 -0.09082989 0.2821196 -0.013887154
0003e0 17 0b cd 3d 87 bb 28 3c 0a 0f 42 3e 1e e4 3d 3b
       0.10011881 0.010298616 0.1895105 0.002897508
0003f0 a6 8f 1e 3e fd 7f 0c 3d d3 74 09 be 8b 59 20 bd
       0.15484485 0.034301747 -0.13423471 -0.039147895

36 f4 [8]
000000 88 16 09 bf ab b4 2c bf 1d 23 66 3f 28 75 b9 bf
       -0.53550005 -0.6746318 0.8989733 -1.4488878
000010 c4 d9 06 40 58 2c b9 bf 29 d9 c3 3f ea b4 a2 3e
       2.1070414 -1.4466658 1.5300647 0.3177865

38 f4 [16, 8, 3, 3]
000000 af 07 47 be 25 c7 9f 3e 4e 7b 32 be f7 42 05 bf
       -0.19436525 0.31206623 -0.1742985 -0.52055305
000010 8c 5b c0 bf 43 db 4f 3d 31 67 a7 3e 84 7f aa bf
       -1.5027938 0.050746214 0.32695916 -1.3320165
000020 ee 7e 16 be 0e 76 6e 3f 58 06 50 3f 62 f4 9e 3f
       -0.14696857 0.9314889 0.8125968 1.241833
000030 14 b6 89 be d0 2d c9 bf 1b 23 3c 3f d5 a2 06 3f
       -0.26896727 -1.5717106 0.73491067 0.5259221
000040 a6 b7 53 3e 49 67 6b bf f6 10 80 3f e7 97 05 c0
       0.20675525 -0.91954476 1.0005176 -2.0873964
000050 7a 84 66 bf 4b 71 3e 3f ec 2a cc 3c ee 5d 29 bf
       -0.90045893 0.7439162 0.02492281 -0.6615895
000060 3b 04 a3 be 22 e3 01 3f 38 45 b8 bf 64 9f c8 bd
       -0.31839165 0.507372 -1.4396124 -0.09796026
000070 22 40 2a 3d 38 ca 17 3f cf ce 7a bd ef 3d b8 bf
       0.041565068 0.59292936 -0.061232384 -1.4393901
000080 7d 2d 52 bf 04 81 b5 be a9 fe 30 be 0f 31 16 bf
       -0.8210066 -0.35449994 -0.17284645 -0.5866861
000090 c2 85 ec 3e a1 da ba 3f 3e bf 19 bf c6 b6 0a 3f
       0.461958 1.459797 -0.6005744 0.5418514
0000a0 3e bf 98 bf cd 9e 01 3e 37 37 07 bf 28 6b 31 3f
       -1.1933362 0.12658234 -0.52818626 0.6930413
0000b0 42 4d aa bf 5f 8f cd be bc 4c 2e 3f 46 f1 34 bf
       -1.3304827 -0.40148446 0.6808584 -0.70680654
0000c0 2f 97 db 3e 1e be 99 3f 64 81 64 3f e7 80 bc bf
       0.4288878 1.2011144 0.89259934 -1.4726838
0000d0 fb 0e 6e 3f 43 47 7a 3f 6f e3 58 bf 31 f9 30 bf
       0.9299161 0.97764987 -0.84722036 -0.69130236
0000e0 5b fc a1 be 2c 78 ac 3f 82 9a a5 3f 1d 17 a1 3e
       -0.31637844 1.3474174 1.2937777 0.31462947
0000f0 17 67 18 bf 18 29 07 3f f8 a4 9a bd 55 a0 cf 3e
       -0.595323 0.5279708 -0.075509965 0.4055201
000100 e8 46 8d 3f 18 4e 97 3e 8b 13 0a 3f bd 73 b5 bf
       1.1037264 0.29551768 0.5393607 -1.4175946
000110 de 69 70 bf 28 06 b6 bd f8 31 2c be a5 7f 16 be
       -0.9391154 -0.08887893 -0.16815937 -0.1469713
000120 57 57 30 3f b4 4b 90 3d 76 c1 16 bf 4e a5 26 3f
       0.6888327 0.07045689 -0.5888895 0.65095985
000130 57 92 9c 3f e3 6a 46 3e 96 bd 94 be 1c d1 7c bf
       1.2232159 0.19376712 -0.29050893 -0.98756576
000140 7c 78 82 be 0e 9a d2 be c6 03 04 3f fc 2b b2 3d
       -0.25482547 -0.4113316 0.5156826 0.086997956
000150 be df 80 3e aa 0e ff 3e f8 ee 84 bf cd e0 a9 3e
       0.25170702 0.49815875 -1.0385427 0.33179322
000160 61 75 29 bd 79 f0 88 bf 2c 45 29 be fc f2 7e be
       -0.041371707 -1.0698386 -0.16530293 -0.24897379
000170 c7 94 d2 3e 00 79 40 3c bb ee 66 3f db 64 01 3f
       0.41129133 0.011747599 0.90208024 0.5054452
000180 94 db 8f bd 82 79 9c 3c e9 e0 75 bf 9e c6 c7 be
       -0.07024303 0.019100908 -0.9604631 -0.3901872
000190 a0 b0 6d 3e 2c 11 21 bf 3e ff 14 be 00 94 49 3f
       0.23211908 -0.6291683 -0.14550492 0.78741455
0001a0 a8 04 39 bf 24 e3 37 3f 0b f2 37 3f e3 3e f5 3d
       -0.7227273 0.71830964 0.71853703 0.11974885
0001b0 ea 09 80 3e 37 a4 38 bf 57 6d 67 bc 91 d0 64 3c
       0.25007564 -0.7212557 -0.01412519 0.013965742
0001c0 34 74 9f 3f d7 2f 98 be 7a 5c f0 3e 8f fc 87 3f
       1.2457337 -0.29724 0.46945554 1.062395
0001d0 51 2f 1e bf c5 bf fa 3e 3e f2 ad be f9 89 1a 3f
       -0.6179095 0.48974434 -0.3397388 0.6036678
0001e0 2e 33 86 bf c9 6c 1d 3f 39 b0 59 3f e6 ca 0c 3f
       -1.0484369 0.6149412 0.8503452 0.549971
0001f0 1d 37 8f bf 17 c1 0d 3f e4 52 de 3e ec 83 cd 3e
       -1.1188694 0.55372757 0.43422616 0.4013971
000200 bc 07 05 bf f7 fe 50 be b8 01 8e 3f 56 68 ab bf
       -0.51964927 -0.20409761 1.1094275 -1.3391216
000210 a3 57 24 be de 73 b5 3e d1 5a d4 bf 2f 8a b3 bf
       -0.16049056 0.35439962 -1.6590215 -1.4026545
000220 fb 69 52 bf 49 66 a6 3e 1d 85 68 be 1a 76 f9 3f
       -0.82192963 0.32499912 -0.22707029 1.9489167
000230 10 da a6 3f 70 a8 cb 3e a9 70 f8 3e ab 1d b6 bf
       1.3035297 0.39776945 0.48523453 -1.4227804
000240 a8 b5 78 3f 7e 63 6c be 6f c1 00 3e cf bb cb 3e
       0.97152185 -0.23084828 0.12573789 0.39791724
000250 a1 b9 11 3f 5a 6c 21 3d 64 47 57 bf 5c 0c 02 3f
       0.5692387 0.039409973 -0.8409331 0.5080011
000260 78 63 3b 3f 93 2f b2 3e a4 c0 00 3e de 4c 95 bf
       0.7319865 0.3480192 0.12573487 -1.1664083
000270 37 c8 47 3e 0e 84 e9 3e 63 93 08 be 7c b3 5e bf
       0.1950997 0.45608562 -0.13337474 -0.8699262
000280 14 0c 46 bf 4e 08 61 bd 49 e6 36 3f 87 77 26 3f
       -0.7736218 -0.05493956 0.7144514 0.65026134
000290 3f 9b 92 bf 86 78 bf 3f b1 58 92 3f d1 72 8f 3c
       -1.1453627 1.4958656 1.1433316 0.017510803
0002a0 f1 4b e5 be 4e 98 5b be 93 5a e2 bd 6e fd 13 3e
       -0.447845 -0.21444818 -0.11052432 0.14452145
0002b0 d0 ad b4 be 66 55 9a be b2 e3 12 bf 89 c8 22 3f
       -0.35288858 -0.3014328 -0.57378685 0.6358724
0002c0 31 ef d5 3e 41 11 a7 bf 3b ea a3 3f 44 e9 eb be
       0.4178405 -1.305214 1.2805856 -0.46076405
0002d0 b5 a3 4c bf 6d 88 a2 bf fb 0d fd 3e 95 83 19 bf
       -0.799373 -1.2697884 0.4942473 -0.59966403
0002e0 84 43 44 be 2b 1e be 3f 6d 3b a5 be 6c 4f 81 3f
       -0.1916638 1.4852957 -0.322719 1.0102363
0002f0 88 82 14 3f 14 5f aa be 15 48 25 bf ee 00 63 3b
       0.58011675 -0.33275664 -0.64563113 0.0034638005
000300 10 30 41 3f 16 85 40 3f 9f b0 05 bf 52 93 57 3f
       0.7546396 0.75203073 -0.5222263 0.8420917
000310 f3 e7 a5 be 43 4c 13 bf 1e b8 df 3e a3 18 f7 3f
       -0.32403526 -0.5753824 0.43695158 1.9304394
000320 b6 2b af be 7b 94 60 3f fd 61 45 3f 2d bc de be
       -0.34213036 0.87726563 0.77102643 -0.43502942
000330 29 d4 48 bf 0d bc 68 3f a6 68 a3 bf 58 48 13 be
       -0.7844873 0.9091194 -1.2766311 -0.14383066
000340 d5 30 a6 3f 88 71 91 bf 6e 29 4a 3f f6 7d 10 be
       1.2983652 -1.1362772 0.78969467 -0.1411055
000350 f2 70 01 bf ab d5 56 3f 27 eb ea be 43 4c 9f bf
       -0.50562966 0.8391978 -0.45882532 -1.2445148
000360 93 b0 de 3d e9 67 a3 be 55 02 30 bf 75 84 c2 3e
       0.108735226 -0.31915215 -0.6875356 0.37991682
000370 0d 04 fd be 60 1d ae bf 13 ad a3 3f 03 47 32 be
       -0.49417153 -1.3602715 1.2787193 -0.17409901
000380 d1 34 ae 3e 07 8c 17 bf 79 56 2a be 77 aa f8 bd
       0.3402467 -0.5919804 -0.16634549 -0.121418886
000390 62 32 5a 3f 57 4a 83 3f 6b 72 be bd ab d8 7d 3f
       0.8523313 1.0257062 -0.09299167 0.99158734
0003a0 72 d6 c2 3e 6b f5 7c be 2d 06 fe 3e d0 66 44 bf
       0.38054234 -0.24702995 0.49614087 -0.7671938
0003b0 2b 97 4c 3e e6 f4 c9 3b db 2f 88 bd 99 72 98 3e
       0.19979541 0.0061632274 -0.06649753 0.2977493
0003c0 db df 7a 3f 56 96 02 bf 2d 62 30 3f e0 24 c9 be
       0.97997826 -0.51010644 0.68899804 -0.39285946
0003d0 b8 de 9d 3f 4d bf 2c bf 58 80 d1 bf bd 8b e9 3f
       1.2333593 -0.674794 -1.6367292 1.824577
0003e0 68 33 3d bf 68 54 4b 3e 1a 91 b2 bd 4a e2 88 bf
       -0.73906565 0.19856417 -0.08719082 -1.0694058
0003f0 59 99 5b bf 33 d6 9e 3f 0f 51 57 3f 48 cb 2b bf
       -0.85780865 1.2409118 0.8410806 -0.6710706

39 f4 [16]
000000 76 34 24 40 e9 10 4d bf 32 44 b7 bf de be f2 be
       2.565702 -0.8010393 -1.4317687 -0.47411245
000010 8c 2c c4 3f 9d 19 f5 3f 76 05 14 bf 19 87 10 c0
       1.5326095 1.9148442 -0.5782083 -2.2582457
000020 eb b6 4b c0 4e 9b 55 40 4f b7 1d 40 7c 8a 36 40
       -3.1830394 3.337604 2.4643133 2.8522024
000030 bb 62 99 be c8 7f 93 bf 90 56 9e 40 45 61 0f 3f
       -0.29958138 -1.1523371 4.9480667 0.56007797

fc.0.bias f4 [496]
000000 92 a5 d5 3d 02 aa e3 bc 92 8c 85 bd eb b4 a8 bd
       0.10431971 -0.027791027 -0.06520952 -0.08237632
000010 00 d5 6f bc 82 eb 1e bc ad f1 4e 3c 58 39 d7 3d
       -0.0146381855 -0.009699704 0.012630862 0.10508984
000020 d8 32 5c 3d 29 57 fd bc 07 24 90 3d b4 dc 6a bd
       0.053759426 -0.03092535 0.07038122 -0.057339385
000030 95 47 19 3e df 8b a9 bc c4 35 60 3d 44 42 0b 3d
       0.14968713 -0.020696579 0.054738775 0.033998743
000040 94 c9 c3 bc b2 bb ae 3d 9c fd 17 3e 22 ad d4 3d
       -0.02389983 0.08531894 0.14842838 0.10384585
000050 11 53 57 bd c5 ca 1d 3d dc 6d 99 3d 83 c0 16 3d
       -0.052569453 0.038523454 0.07491657 0.036804687
000060 25 5d 00 3e 79 a6 49 bd c2 99 cd 3d ca bb c9 3d
       0.12535532 -0.049231026 0.100390926 0.09850271
000070 d1 05 94 bd 7c 0f ac bc 4f 78 00 bd b1 6c 92 3d
       -0.07227672 -0.021003477 -0.031364735 0.071496375
000080 a2 87 24 3c ff 2b 8a bd 5f 26 75 3c fe ce 27 3d
       0.010042103 -0.06746673 0.014962762 0.040968888
000090 e7 01 8f 3d 2a 62 54 3d 8c e7 fb ba 39 06 11 3d
       0.06982785 0.05185143 -0.0019218787 0.035406325
0000a0 a9 d9 e7 bb 9c a9 9b 3d da 10 51 3d bc a7 7d 3c
       -0.0070755077 0.0760071 0.05104146 0.0154818855
0000b0 69 91 e5 3d c5 6e cc 3d 23 a5 14 bc 35 2e 59 3d
       0.112093754 0.09982065 -0.009072575 0.053022582
0000c0 30 5d 07 3e 60 b5 d2 3c 57 53 9c 3c 80 cb e6 3d
       0.13219142 0.025721252 0.019082708 0.11269283
0000d0 95 60 34 bd 77 d6 cb 3d 0d ec 5f bd b7 39 09 bd
       -0.04403742 0.09953015 -0.054668475 -0.033502307
0000e0 ac 8c b5 3d d8 6f 26 3d c6 ef 36 bd b3 2a d7 3d
       0.08864722 0.040634006 -0.04466226 0.10506191
0000f0 09 fa 31 bd 77 f5 89 3d c2 e1 38 3d 16 9d 02 3e
       -0.043451343 0.06736272 0.045137174 0.12755236
000100 a2 b1 17 3d f1 cc f2 3c 2c a5 66 3d 37 70 91 3d
       0.03703464 0.02963874 0.056309864 0.071014814
000110 d5 01 c3 3c df 26 3b bd 0a 04 80 3d 36 d9 46 3d
       0.023804585 -0.045691367 0.062507704 0.048546992
000120 fb 8f b4 3c 2c 98 f1 3c 67 ed 9f bc ef e3 82 3d
       0.022041311 0.029491507 -0.019522382 0.06391131
000130 c8 b1 89 3d da e5 5c 3d 95 7e ab 3d b5 05 be 3c
       0.06723362 0.05393014 0.08373753 0.02319608
000140 5e 81 db 3d 48 fa 34 bd 65 f1 d0 3d aa 43 be 3b
       0.10718034 -0.044184 0.10202292 0.005806406
000150 f6 c9 b9 3c 8b fe 82 3c fb 32 94 bc 7e 7c 21 37
       0.02267931 0.015990516 -0.018090716 9.625333e-06
000160 c0 c7 e7 3c 29 a6 8e 3d 68 2d a5 3d 91 26 f2 3d
       0.02829349 0.06965286 0.08065301 0.11823762
000170 fd 46 b4 bd 1b 68 99 3b 6e 50 09 3e ab cd cf 3d
       -0.088026024 0.0046816 0.13409588 0.1014665
000180 db ca fc bc 9c 0b 09 3d d4 4e d5 3d e6 95 b6 bc
       -0.030858448 0.033458337 0.10415426 -0.022288274
000190 71 3e e9 3d a5 7d f1 3d 90 8a c2 3d f1 8c e1 3d
       0.11388863 0.11791543 0.09499085 0.110132106
0001a0 5a 31 8c 3d 8e b7 67 bc 88 a3 83 3d 4f 05 be 3d
       0.068453506 -0.014142884 0.064276755 0.09278356
0001b0 1d ae c1 3c 6f 3b 1a 3e d7 48 95 3d 64 e2 10 3e
       0.023642594 0.15061735 0.07289284 0.14148861
0001c0 2f 89 55 bd 68 a9 ab bd 02 fa 7b bd 85 48 37 bc
       -0.05213278 -0.08381921 -0.061517723 -0.011186724
0001d0 c5 54 90 3c cb 79 13 bc cd a7 32 3d 5c 8e 75 bd
       0.017618546 -0.009001206 0.04361706 -0.059950218
0001e0 38 a0 4a ba ca 17 83 3c 32 4a 12 bd 79 db 7c 3d
       -0.0007729563 0.016002554 -0.03571529 0.061732743
0001f0 d2 9e 02 bc 31 cd c4 3c c3 2c 13 3e 72 a2 aa 3d
       -0.007972436 0.024023624 0.14372544 0.08331765
000200 a5 0a 4d bc 48 b3 0a 3e 32 c1 f1 3b 17 4e 55 3d
       -0.012514745 0.13544953 0.007377767 0.052076425
000210 f3 dc d1 3d eb 66 cb 3c 15 fa d0 3d d6 51 39 bd
       0.10247221 0.024829349 0.10203949 -0.04524406
000220 f1 d4 52 3c ed e1 fb 3d c9 e7 81 3d 96 2c c5 3d
       0.012868152 0.12298951 0.06343038 0.09627645
000230 82 ef e4 3d e3 48 17 bc 17 71 97 bc 78 a3 d9 3d
       0.11178495 -0.009233686 -0.018486543 0.10626882
000240 79 da c7 3d b1 d3 87 bd dc 0b 92 3d 3e 33 92 3d
       0.09758467 -0.06632174 0.07131168 0.0713868
000250 d4 53 f0 bc 10 38 5b 3d d2 b1 99 3d 11 ae fa 3d
       -0.029336847 0.053520262 0.0750462 0.12240232
000260 b3 e2 c1 bc ee 34 2e 3d ed 8e 31 3e e1 5c b1 bd
       -0.023667669 0.042530946 0.17339678 -0.08660293
000270 87 2f a8 3d 8a 38 47 3d b7 49 38 3d 2b bd 89 3d
       0.0821219 0.048637904 0.044992175 0.06725534
000280 5a 27 9d 39 dd 5a 51 bd 13 7a 21 3d a8 f8 00 3e
       0.00029974693 -0.051112045 0.03942306 0.12594855
000290 5c 63 e4 3d 26 39 6d bd 46 2a ea bc 1e 71 75 3d
       0.11151764 -0.05791583 -0.02858461 0.05992233
0002a0 8e ca 75 3d 02 0e 10 3d a4 5e aa 3d 7f 51 84 bc
       0.060007624 0.03516961 0.083188325 -0.016152142
0002b0 e4 b3 98 bd e7 66 f4 3c ec 29 0f 3d d2 7d 09 bd
       -0.074561864 0.029834224 0.03495209 -0.033567257
0002c0 d8 38 7e bc dc 0d cf bc b1 04 e1 3d 2d ce f7 3b
       -0.015516482 -0.025275163 0.10987223 0.00756242
0002d0 44 1e 13 3d ed 8b 12 3b 98 7b c1 3d 6c 01 fc 3d
       0.035917535 0.0022361234 0.09447402 0.12304959
0002e0 a4 8b 03 3e 4b 21 dd 3d 0f c0 0f bc 35 20 01 3e
       0.12846237 0.10797366 -0.008773818 0.12609942
0002f0 c3 92 87 3d af bf ec 3d 70 7f 02 3e 48 f1 bb 3c
       0.066197895 0.11559998 0.12743926 0.0229422
000300 16 eb 8a 3b a7 14 57 bd 62 7b 84 3c c2 1e cd 3c
       0.00423945 -0.05250993 0.016172115 0.02503908
000310 08 d9 b7 3d a6 b9 de bc af d0 ae 3d 61 38 2c bd
       0.08976942 -0.027188133 0.08535897 -0.042045955
000320 00 de 03 3d 2b c3 94 3c 57 21 04 3e 8b 3a a0 3c
       0.032194138 0.01815947 0.12903343 0.019559165
000330 13 d5 97 3d 34 ad ef 3b b5 31 b0 3d 62 45 47 3d
       0.074136876 0.0073143486 0.08603231 0.048650153
000340 23 29 1a bd 9c 2c e0 3c 83 8c 2c 3d a0 9d e0 bb
       -0.037636887 0.027365021 0.04212619 -0.006854728
000350 b8 68 85 bd fd d1 a8 3d a5 29 83 3d 63 d0 d0 3d
       -0.06514114 0.08243177 0.064044274 0.101959966
000360 0d a4 b8 bc d5 16 de 3c 78 d1 99 bc ae ab b0 39
       -0.022539163 0.027110497 -0.01877664 0.00033697247
000370 94 44 e9 3d 2a 33 05 bd 7d ae 13 3d 26 3d 2a 3d
       0.11390033 -0.032519497 0.036055077 0.041562222
000380 f0 54 4c 3d 07 07 4d 3d ac 82 69 bd f0 81 98 3d
       0.04988569 0.05005553 -0.057009384 0.074466586
000390 6c eb 43 bc 94 d0 07 3d 41 36 22 bd 71 40 63 3d
       -0.011957984 0.0331579 -0.03960252 0.055481378
0003a0 60 b0 6d 39 77 ea 9d 3c ee 1c 6d 3b 32 99 42 bd
       0.00022667786 0.01927684 0.0036180574 -0.04750938
0003b0 8e 23 b7 3d 33 3a de bc 04 ac b3 3b 17 b3 24 bd
       0.089423284 -0.02712736 0.0054831523 -0.040209856
0003c0 11 41 00 3d f3 11 2b bd 36 af 1f bd c3 91 43 3d
       0.031312052 -0.041765165 -0.038985454 0.04774643
0003d0 1d ed b2 3b 7f 4b a2 3d 2f b2 ee 3d 78 4e 59 bc
       0.005460395 0.07924556 0.116550796 -0.013263337
0003e0 50 8a fd 3c c9 07 c3 3d 83 79 7f bd 6f 67 06 3e
       0.030949742 0.09522969 -0.062371742 0.13125394
0003f0 b5 f1 8c 3d 34 b0 86 3d 42 e8 32 3d fe 54 61 bd
       0.068820395 0.06576577 0.04367853 -0.055012695

fc.0.weight f4 [496, 64]
000000 a5 da 36 bb 80 5a f2 3c 0d 4f 7a 3c 85 1e eb bd
       -0.0027901318 0.02958417 0.015277636 -0.114804305
000010 d7 5f c0 bd e5 d6 ab bd 78 87 14 be 15 cd be 3c
       -0.0939328 -0.08390597 -0.14504802 0.02329115
000020 da d9 8d 3d 7d 74 4b 3d 3b 73 83 bd d5 e1 c5 bd
       0.069263175 0.04967164 -0.06418463 -0.09662215
000030 1f e0 ba bc 0e 7c bf 3d 26 85 ad bd 54 a6 69 bd
       -0.022811947 0.093498334 -0.08472662 -0.05704339
000040 33 0a 14 3a 24 cd 15 bd 17 60 c9 3d 8f 6e d2 bd
       0.0005647272 -0.03657259 0.09832781 -0.10274994
000050 96 41 56 3d 2a 31 f2 3c 97 9c 85 3c 3a 9b 38 3e
       0.05230864 0.029564459 0.01631002 0.18027964
000060 82 c1 8c 3d 1a 04 d7 3d 47 b1 78 3d 00 72 82 3d
       0.06872846 0.10498829 0.06071594 0.063694
000070 e1 26 e4 3c aa 15 46 bd c1 d0 97 bd a7 2d 9c 3b
       0.02785057 -0.048360504 -0.074128635 0.0047661844
000080 cd 54 9d bc 84 db ad 3d fb f2 56 bc ed 87 14 bd
       -0.019205475 0.08489135 -0.0131194545 -0.03626244
000090 38 88 cf 3d 7e d6 c2 bc a0 d3 02 3e 57 a8 19 3c
       0.101334035 -0.023783918 0.12776041 0.009378514
0000a0 8f 16 b5 3d b2 0a ab bd fe 37 74 bd 72 de bc bd
       0.08842193 -0.08351649 -0.05962371 -0.092221156
0000b0 b3 9f ed 3c c5 29 b8 bd 46 94 f2 3d 39 ad 17 3e
       0.029006815 -0.08992342 0.11844687 0.14812173
0000c0 90 09 d1 3d 90 33 1d 3e ba ff f5 bc f0 05 be 3d
       0.10206902 0.15351701 -0.030029166 0.09278476
0000d0 a4 79 ab bd 55 52 c0 3d b6 4d ff 3d 21 75 44 bc
       -0.083728105 0.093907036 0.12465994 -0.011990816
0000e0 45 2d 89 3d a2 bc 4b 3e bd a2 0b 3d fb 80 41 3c
       0.066980876 0.19896176 0.034090746 0.0118105365
0000f0 20 df ad bd ba e4 e6 bd 15 f5 32 3d b1 06 f4 3d
       -0.08489823 -0.11274095 0.04369076 0.11915339
000100 db 9c eb 3d a6 1b 70 bd 47 62 f5 3d 0c 4e 04 be
       0.11504527 -0.058620118 0.119816355 -0.12920398
000110 16 81 68 3c 53 5d f2 bd ca 82 73 3d 22 46 3f 39
       0.014190933 -0.118342064 0.059450902 0.00018241306
000120 4c 54 b8 bd 33 13 8c 3d 68 d0 06 bd 67 cc 6e bb
       -0.09000453 0.068395995 -0.032913595 -0.0036437751
000130 26 95 a8 3c 6c ae 5b bd 8d f3 af bc e2 6e f0 bd
       0.020578932 -0.05363314 -0.021478439 -0.11739899
000140 88 0d 0d be 66 15 0c 3d 3f c5 ff bc b9 cc 27 3c
       -0.13774693 0.034200095 -0.031221984 0.010241681
000150 33 65 d6 3d c8 87 74 3d 19 75 2a 3e 8e e0 18 3e
       0.10468521 0.059699804 0.16646232 0.14929411
000160 a7 c0 3e bd 8a 03 9e bc 91 20 5d bd d0 4f 98 bc
       -0.046570446 -0.019288797 -0.053986136 -0.018592745
000170 84 43 a4 3c 16 0a ba 3d 13 57 5a 3d 32 14 0c 3c
       0.020051725 0.09083955 0.053305697 0.008549737
000180 d1 79 bb bd ae 79 63 bd 66 12 27 bd 67 c1 4d 3d
       -0.09154094 -0.055535965 -0.04078903 0.05023327
000190 89 81 d6 3d 29 4c 37 3d 78 27 f6 3d 88 a8 79 bc
       0.104739256 0.044750366 0.12019247 -0.015237935
0001a0 c8 72 82 3b 85 ee e4 bd 79 e5 ee 3d 1a 6e fa 3c
       0.003980968 -0.111783065 0.11664862 0.030570079
0001b0 af 48 d7 3d bd 1d 11 bd ec 9b 53 3d 5c b1 2d 3c
       0.1051191 -0.03542875 0.05166237 0.010601368
0001c0 0e 6e a8 3c d2 9d b9 bc fc 3c 2f bc 04 1d 81 bd
       0.02056029 -0.022658262 -0.010695692 -0.063043624
0001d0 42 6c 64 3c f3 f8 27 3d fd e0 b4 bd b9 50 a6 bc
       0.013941826 0.0410089 -0.088319756 -0.020302163
0001e0 86 25 56 bd ff fb c0 3c dc 4f 35 3b 68 db d5 3d
       -0.05228188 0.023557661 0.0027666008 0.10442239
0001f0 be 0c 04 3d d0 e1 09 3e 91 85 71 3d f0 4a 7c bc
       0.032238714 0.13465047 0.05896527 -0.015398726
000200 4c 32 88 3d cb 9d 9b bc 5a 0f 39 bd b0 34 12 3e
       0.06650218 -0.01899614 -0.045180656 0.14277911
000210 b9 98 a3 bd 52 f6 64 3d 26 60 83 bd 73 8f 19 bd
       -0.07988114 0.05589897 -0.06414823 -0.03749032
000220 3e d6 bc 3d 3b 5c cf 3d cb 73 df 3d 16 ef 21 be
       0.09220551 0.101250134 0.10910758 -0.1581386
000230 27 0f c4 3d 08 e0 09 3c f4 91 a0 3d d7 9e 53 3d
       0.095732026 0.00841523 0.07840338 0.051665153
000240 d8 12 35 3e 28 2e cb 3d 85 55 b9 bc ff fa 1c 3e
       0.1768297 0.09920913 -0.022623787 0.15330122
000250 be 60 1f 3c 67 ba 66 bd 85 23 39 bc aa 3a 8a 3c
       0.009727655 -0.05633011 -0.011299972 0.016873676
000260 94 05 0e 3d 3c 70 d9 bd 1f de 9c bb f8 96 51 3d
       0.03467329 -0.1061711 -0.004787221 0.051169366
000270 b5 a4 dc 3c 1b d9 6d bd 36 2c ba bd a7 90 7c 3d
       0.026934007 -0.058068376 -0.09090464 0.06166139
000280 39 30 50 3c 1d 43 36 3d 1c 66 7a bc 9d b7 e9 ba
       0.01270681 0.044497598 -0.015283134 -0.001783121
000290 a5 3c 84 3d 4e 78 2c 3d f9 33 2f bd 1f a3 f4 bb
       0.064568795 0.04210692 -0.042774174 -0.0074657346
0002a0 44 6f 08 3c f9 c2 aa 3c 19 a6 1b 3d c8 26 99 3d
       0.008327309 0.020844923 0.0380002 0.074781
0002b0 a2 08 ce bd 45 e3 11 3d 5f 7e 40 3d 49 0c 31 bc
       -0.1006024 0.03561713 0.046995517 -0.010806152
0002c0 c9 2a fe 3c f5 a9 cd bc 83 20 20 bc b9 0e 5c bd
       0.03102626 -0.025105456 -0.009773376 -0.053724978
0002d0 13 16 29 3d 2b e8 62 3c 80 6b b5 bd 33 95 13 3d
       0.041280817 0.0138492985 -0.088583946 0.03603096
0002e0 2c bb 8e 3d f8 f3 d3 3d d2 9f 1a 3e 2e 70 b0 3d
       0.06969294 0.10349268 0.15100029 0.086151466
0002f0 96 df c3 3d 15 35 9a 3d 73 20 df 3d 79 a7 64 bd
       0.0956413 0.07529656 0.10894861 -0.055823777
000300 19 90 e4 bd 0c 8d 45 3d dc a8 07 3e 04 cf a2 bd
       -0.11160297 0.048230216 0.13248008 -0.07949641
000310 b3 25 b2 3d f4 92 97 3a 9e 5e ef 3d e2 97 8e 3d
       0.08698597 0.0011564181 0.11687969 0.06962563
000320 4d d8 07 3d 84 9f 04 3d 2d 0f c3 3d e8 f3 12 3e
       0.033165265 0.03237869 0.09524379 0.14350855
000330 48 b3 d9 3c 66 05 de 3c c4 41 bd 3d 8e 3d 84 bd
       0.026574746 0.027102184 0.092410594 -0.06457053
000340 dd 66 e4 3d ed db dd 3d fc d2 b5 3b 69 9f c6 3c
       0.11152432 0.10832963 0.005548833 0.024245935
000350 6e 4b 73 3d 9d bc 5d bd 35 92 25 be df d0 90 3d
       0.059398107 -0.054134954 -0.16169055 0.07071089
000360 f7 62 93 bd 58 48 21 3b 17 f5 f6 3d b9 e7 46 bc
       -0.071966104 0.002460977 0.12058466 -0.012140208
000370 d1 59 4f 3c 4a 17 1d 3d b0 a4 fa bc 0a 99 c3 3d
       0.012655691 0.03835229 -0.030596107 0.09550674
000380 aa a9 af bd 0c fe 9c 3d 0b 66 0e 3e 77 99 25 3d
       -0.08577283 0.07665643 0.13906114 0.04042956
000390 05 29 98 3c ef e5 40 bc 05 6b c0 3d 14 d4 f7 bc
       0.018574247 -0.01177357 0.09395412 -0.030252494
0003a0 ec e6 d7 bd fa 96 c6 3d e7 31 90 bd 9f 28 87 3d
       -0.10542092 0.09696765 -0.07040768 0.06599545
0003b0 65 37 a7 bd 1c 71 87 3d e0 09 5a be b1 8b d3 bc
       -0.081648625 0.06613371 -0.2129283 -0.025823446
0003c0 e9 b2 0d be 1e 45 3d 3c 95 09 c1 3d 6d 3e b2 3c
       -0.1383778 0.011552123 0.09425656 0.021758283
0003d0 cb 0d b1 bc eb 7b 9b 3d 54 d2 a1 bd 20 8e d3 3d
       -0.021613022 0.07591995 -0.07901445 0.103298426
0003e0 84 d4 4c 3c b5 66 04 3e 4d 0a 3d bd f7 b7 be bd
       0.01250184 0.12929805 -0.0461524 -0.09312432
0003f0 ed 90 9f bd 5c fe 23 bc 22 37 8b 3b ed d3 25 3d
       -0.07791314 -0.0100093745 0.0042485157 0.04048531

fc.3.bias f4 [248]
000000 ed 20 ab 3c 74 f2 1f bd 40 9f 0a bd d1 d3 85 bb
       0.020889724 -0.03904958 -0.03384328 -0.0040840884
000010 00 4c bc 3c 05 30 0c bd 2b 9a 18 bc 38 e4 9a bb
       0.022985458 -0.034225482 -0.0093141 -0.004726913
000020 0d e6 ff bc 87 85 de 3b 39 10 96 bc 2d 11 d8 bc
       -0.031237626 0.00679082 -0.018318282 -0.026375378
000030 dc b4 97 3c 8a 3b 39 bc 2b bf 64 3c 5c 2a d0 bb
       0.018518858 -0.011305699 0.013961594 -0.006352706
000040 9d c0 b7 3c 6a 0f fd bc 77 22 8c bc 20 8d ed bb
       0.022430712 -0.030891139 -0.017106278 -0.0072494894
000050 16 29 0d bd 72 7d f2 bb b0 e2 59 3d f3 11 80 3d
       -0.03446301 -0.007400208 0.0531947 0.062534235
000060 e3 7d d2 bc 23 86 6c 3c 01 d9 44 bc 75 e3 a7 3c
       -0.025694793 0.014436278 -0.012014628 0.020494202
000070 17 54 2c bc 3e 19 6b 3c f1 6e 92 3c fb b5 0a bd
       -0.010518095 0.01434928 0.017875167 -0.033864956
000080 00 f5 c2 bc df 7b ad 3b e1 52 17 3d a3 5e ba 3c
       -0.023798466 0.0052943076 0.036944274 0.022750204
000090 4f ed 6c bd fe f3 83 3c 1c 5c 40 bc e8 a0 07 3d
       -0.057843503 0.016107555 -0.011740711 0.033112437
0000a0 e0 3d 22 bd 4a 60 58 bd 5b 93 82 bd e2 eb 5d bd
       -0.03960979 -0.052826203 -0.06375762 -0.054180034
0000b0 c6 f0 11 3d d5 77 66 3c f4 3b 68 bc 27 9e 04 ba
       0.03563001 0.014066656 -0.01417445 -0.0005058967
0000c0 60 15 88 bc ae bc d7 bc 4b ae e5 bb 95 21 a4 3c
       -0.016611755 -0.026335087 -0.0070093027 0.020035544
0000d0 e3 93 f6 3b e3 3f ce bc b5 a8 13 bc 3c b8 02 3d
       0.0075249537 -0.025176948 -0.009012391 0.03191398
0000e0 8b d1 c0 3c 53 2b aa bc cb ea 06 3c 54 4d d8 3c
       0.023537418 -0.020772612 0.00823469 0.02640406
0000f0 b1 88 c3 bc 56 bb d1 bc ce aa 03 bd ae 3c 2b bb
       -0.02386889 -0.025602024 -0.032145314 -0.0026128697
000100 3f fa 26 bc f5 b5 79 bc fa b4 d6 3c aa 30 ec bc
       -0.010191499 -0.015241136 0.026209343 -0.028831799
000110 1c d1 67 bd e6 73 0a bd 90 c1 78 3c 95 a3 70 bc
       -0.056595907 -0.033801936 0.015182868 -0.0146874385
000120 ce 16 ba bb 8a 68 7c bd cb 05 60 bd bc 83 8d bc
       -0.005678988 -0.061623134 -0.054693025 -0.01727473
000130 ae f3 0e 3c 55 f9 70 bc 53 0f 29 bd 82 9f 5e 3b
       0.00872509 -0.014707883 -0.04127438 0.0033969586
000140 cd 9b b0 bc 39 e5 61 bb 1b 73 c8 3b 7e b4 f8 bb
       -0.021558667 -0.0034468903 0.0061172373 -0.0075898757
000150 19 57 ff 3c 59 5f e0 3c c7 30 31 bd 0f d2 d2 3c
       0.031169461 0.027389215 -0.04325941 0.02573493
000160 e5 3d 87 bc 2f 54 a3 bc 8c e7 88 bc 9e 6a b4 3c
       -0.016509006 -0.019937603 -0.016711973 0.022023495
000170 12 33 35 bc 7d 1f d9 bc 73 6f 88 3c f9 1e 1e bd
       -0.011059539 -0.026504273 0.016654706 -0.038603757
000180 ee 7e 29 bd 45 6e 4a bc f2 2c 84 bb 1b 89 ac bc
       -0.041380815 -0.012355392 -0.004033678 -0.02106147
000190 f0 a5 0f bc 32 d2 04 bc b9 66 58 3c b4 54 a3 3b
       -0.00876759 -0.008106755 0.013208085 0.0049844626
0001a0 ef a5 b2 3c e5 43 76 bc 71 75 f7 bc bc 7e ed 3c
       0.021807639 -0.015030836 -0.030207368 0.028991096
0001b0 d9 73 95 3d 60 fd a2 3c 64 73 b1 3c d2 61 0f 3d
       0.07297487 0.01989621 0.021661468 0.035005398
0001c0 73 fb 83 bc b3 ec 4c bc a6 f3 ce bc 02 7d 00 bc
       -0.016111111 -0.012507605 -0.025262665 -0.007842304
0001d0 ae 5e 18 3d 42 c6 81 bb 12 65 a6 3c f5 1f 1f 3d
       0.03719967 -0.0039604018 0.020311866 0.038848836
0001e0 85 b8 a2 bc 45 4e fb bb 34 c9 c0 bc c6 95 34 bb
       -0.019863376 -0.0076692426 -0.023533441 -0.0027555092
0001f0 ef 0b 66 3c a5 41 90 bc 05 64 f2 3b 5c a4 3c 3b
       0.014040931 -0.017609427 0.007397177 0.002878449
000200 8f 4f 86 bc 5c a5 7f b9 43 e0 0f bd f7 c7 db bc
       -0.016395358 -0.00024380296 -0.035125982 -0.02682875
000210 c1 b9 09 bd d2 96 43 bc 0b 95 45 bc 72 34 a6 bb
       -0.033624414 -0.011937814 -0.01205946 -0.00507217
000220 e1 3b 4d bd 4b 4c 0c 3d c8 0b 73 3d b4 3b 45 3c
       -0.050105933 0.034252446 0.059337407 0.01203816
000230 1b 1e 05 bd 7b b7 34 bc cd 80 aa 3a d3 bc 31 bd
       -0.032499414 -0.011030073 0.0013008356 -0.043392967
000240 77 ec ec 3a 7d 1c b2 3c c8 c5 23 bc 54 88 e0 bb
       0.0018075843 0.0217421 -0.009995885 -0.006852189
000250 bc 50 f7 b8 81 4b 02 bd 55 ff 57 3d 25 fd 13 b9
       -0.00011792916 -0.031810287 0.052733738 -0.00014113316
000260 df e7 03 bd 5c 79 a0 b8 ce 64 4a bb 0b ac a3 3d
       -0.03220355 -7.6519995e-05 -0.0030882838 0.07991799
000270 9e df 33 bc 6b b6 b1 3c b0 be ca 3c 22 46 92 3c
       -0.010978607 0.021693429 0.02474913 0.017855708
000280 2e 73 69 bc ae 2e 79 bc 4f 16 43 bc 07 98 e7 bc
       -0.014248652 -0.015208883 -0.011907174 -0.028270734
000290 89 76 46 bc 63 5c 9c 3c f5 0f bb ba 63 91 a9 bc
       -0.012113222 0.019087022 -0.0014271723 -0.020699209
0002a0 bb 78 17 bc 04 71 df bc 6c e5 26 bd 85 4a 20 bc
       -0.009245093 -0.02727557 -0.040746137 -0.009783392
0002b0 35 c5 56 3c 4b d4 ee bc e7 94 59 bd 23 7b 5e 3d
       0.013108541 -0.029153964 -0.05312052 0.05431665
0002c0 91 8f 90 3c 6c 35 50 3c 8c d7 dc bc ab 20 ed bb
       0.017646583 0.012708049 -0.02695825 -0.0072365603
0002d0 db 26 1c 3b 6f 8a ef 3b 52 48 99 3a aa b7 7e bc
       0.002382687 0.0073102037 0.0011694527 -0.015546719
0002e0 62 28 b4 3a 3d 54 ad bc 21 58 4f bb 28 2e 60 3b
       0.0013744945 -0.021158332 -0.0031638222 0.0034207199
0002f0 ee 7a 80 bc 32 ba 3a bd 28 8d 39 bc 07 b9 50 bc
       -0.015683617 -0.045587726 -0.011325158 -0.012739426
000300 1b b6 17 3d 93 b1 87 ba 2d a1 8e 3c 8d 15 03 bd
       0.037038904 -0.0010352604 0.017410839 -0.032002974
000310 7c 25 5a 3c cd 19 2f 3c 18 4e 82 bb fb 51 cd 3b
       0.013314601 0.010687304 -0.0039765947 0.0062658763
000320 1e ad 45 bc 71 c8 16 bd cb da 47 bc e5 cb 73 3c
       -0.0120652 -0.03681225 -0.01219816 0.014880155
000330 24 ea 5a 3c 8c af ca bc d2 e0 9f bb 09 a4 08 bd
       0.013361488 -0.02474191 -0.0048790956 -0.03335956
000340 70 95 89 3c b8 0f 4c bc f9 ee 09 bd 03 fe 0e 3c
       0.01679489 -0.0124549195 -0.033675168 0.008727553
000350 f5 ce 64 bd ef 9b 60 3c 6d 0e 11 3d 76 06 40 3d
       -0.055861432 0.0137090525 0.035414148 0.04688116
000360 5a 46 90 3d 3f d7 8e 3b 77 f3 61 3b 9b f4 34 bd
       0.070446685 0.0043591554 0.0034477392 -0.044178586
000370 33 af f8 3c c0 3a 92 bb 4f d5 57 bc 4d 7c d0 3c
       0.030356979 -0.00446257 -0.013173415 0.025449896
000380 a4 3f 51 3b 68 8f 18 3d e6 6d 0c 3d b9 07 2a bc
       0.0031928802 0.037246138 0.034284495 -0.010377818
000390 17 16 44 bd 12 da 7a bc 0e fb eb bc cd 6d 84 bc
       -0.04787263 -0.015310781 -0.028806236 -0.016165638
0003a0 ec 62 52 3d b9 16 df 3b 6b 5c 15 bd 87 0f fb 3b
       0.05136387 0.0068081287 -0.03646509 0.007661763
0003b0 dc ab 12 bd 20 5a 14 bc 17 dd 2f 3b 52 96 20 bd
       -0.03580843 -0.009054691 0.002683466 -0.039205857
0003c0 c3 f9 27 bd d0 98 8e bb 24 b0 9d bb bf 1e de 3b
       -0.041009676 -0.0043517128 -0.0048122574 0.0067785676
0003d0 c7 30 45 3d 99 09 8b bd 43 05 04 bd e4 2d 2a bd
       0.04814222 -0.0678894 -0.03223158 -0.04154767

fc.3.weight f4 [248, 496]
000000 be ea 08 bd 11 ca c9 bc e2 3a b2 bc a3 0e c9 bc
       -0.033426993 -0.024632486 -0.021756593 -0.024543112
000010 29 aa f0 3c 7f af 01 bd 5b 09 67 bc 7a a2 51 ba
       0.029378014 -0.031661507 -0.014101352 -0.0007996928
000020 85 8d 27 bd 87 9d 86 bd 67 84 4a 3c 10 20 e3 bb
       -0.040906448 -0.06573015 0.012360669 -0.0069313124
000030 5a db 90 bd bb 88 41 bd 7a 4d 96 3d b2 99 af bd
       -0.07073088 -0.047249537 0.07338996 -0.08574237
000040 ae 9d 2c bd 22 95 03 3a f9 c9 c4 3d 1b 95 83 bd
       -0.042142563 0.0005019476 0.09608836 -0.06424924
000050 7b 2f 50 bd bf 0b eb 3c 97 7d c5 bc 25 0d a7 bd
       -0.05082653 0.028692124 -0.024107737 -0.08156804
000060 35 67 48 bd a5 55 ef bc 47 67 60 bb e0 74 01 3d
       -0.04892655 -0.029215643 -0.0034241246 0.0316056
000070 e0 d0 63 bd 95 e6 87 bd b1 ab dd 3c 82 9c 80 bd
       -0.05561912 -0.06635777 0.027059408 -0.062798515
000080 5d 4b 24 bd da ca 9e bc 31 32 87 3d 27 68 1e 3d
       -0.040110935 -0.019383837 0.0660137 0.038673546
000090 05 65 07 bd 01 d3 5c 3b 1c 65 2e bd 16 78 2c bd
       -0.033055324 0.0033695104 -0.042576894 -0.04210671
0000a0 2e 5f 41 3d 50 e5 56 3d b2 5b 8a 3d b1 b9 cf 3c
       0.04720991 0.052464783 0.06755771 0.0253571
0000b0 57 4d 4a bc 8e 2d 15 bd 7e 2e 2e 3d 3d 3f c9 bc
       -0.012347541 -0.036420397 0.042524807 -0.024566287
0000c0 22 5f 04 3d 4a 9a b5 bc 9d 03 57 3c 5c 4c 27 bd
       0.03231729 -0.022168297 0.01312342 -0.040844306
0000d0 fa 17 ce 3b 3e 24 ea bd 9c 73 6f bc 53 32 21 bd
       0.0062894793 -0.11432694 -0.014614966 -0.039354634
0000e0 84 c1 4d bd de ac 7e 3d ed 31 4c 3c 55 1e 20 bd
       -0.05023338 0.062176578 0.012463075 -0.039091427
0000f0 90 b0 97 3c 2c 2b 19 bd f2 58 89 3c 95 c5 a2 bc
       0.018516809 -0.037394688 0.016766045 -0.019869605
000100 af 37 4a 3d 97 c8 00 bc c0 47 8f 3d ee be 7a 3d
       0.04936951 -0.007860324 0.06996107 0.06121724
000110 ad f6 0b 3d 4d 94 47 3d 1c 7e 3c bd 83 0c 9e bd
       0.034170795 0.048725415 -0.046018705 -0.0771723
000120 dc e7 cf bc 85 68 bf bc 8c a9 6f 3c 4f 0b 47 3d
       -0.025379114 -0.023365268 0.0146278255 0.04859477
000130 42 63 34 3d 27 7b 97 bd 4f 54 36 3d a2 76 bf bb
       0.044039972 -0.07396536 0.044513997 -0.0058429996
000140 7b 54 11 bd ca e5 88 bc 21 b4 09 3d 41 40 2e 3d
       -0.035480957 -0.016711134 0.03361905 0.042541746
000150 2b db 7b bd f7 3c cd bc ab 1d d5 bc ce 8c ab 3d
       -0.06148831 -0.025053484 -0.026015123 0.08376466
000160 89 11 0c bd e8 ae ea 3c ac ba 12 bd 3d 55 08 3b
       -0.03419641 0.028647855 -0.035822555 0.002080276
000170 53 2d 26 bd 42 27 75 bd cb 5b 01 bd 1f 5e 5a bc
       -0.04057057 -0.059851892 -0.03158168 -0.013328104
000180 de 39 d4 3c cb a0 b8 3d ef 01 a5 3b 58 5c 62 bd
       0.0259065 0.09015044 0.005035631 -0.055263847
000190 7f 14 32 3d bf 14 ce bb c1 19 5c 3c f2 bc 59 3d
       0.043476578 -0.006289094 0.013433875 0.053158708
0001a0 e3 6d b6 bb a7 38 a5 3d 30 0a 01 bc 62 97 80 3c
       -0.0055672987 0.08067446 -0.007875964 0.015697185
0001b0 02 a2 4e bd 09 17 1c 3d 5e 32 7e 3c b2 07 0f 3d
       -0.05044747 0.038107906 0.015514938 0.03491945
0001c0 73 a0 1c bc d2 4b 93 3c 60 28 34 bd c8 13 8c 3c
       -0.009559738 0.01798049 -0.043983817 0.017099276
0001d0 b5 7c 1e bd 2d c9 2a bd 6e a8 00 3d 73 42 bb bc
       -0.03869315 -0.041695762 0.031410627 -0.022858834
0001e0 74 c0 87 bc d8 c4 5b bc 86 1e 75 bd c9 31 c6 3c
       -0.016571261 -0.01341363 -0.059843563 0.024193661
0001f0 d2 90 b9 bd 34 eb 2d bd 64 b0 8f 3a 72 58 b2 3b
       -0.090608254 -0.042460635 0.0010962603 0.0054426724
000200 39 52 86 bc e9 b5 66 3d fa bb 5c 3c 02 3e e0 3c
       -0.016396629 0.056325827 0.0134725515 0.027373318
000210 34 13 da bc ff 8d d4 3b 75 ab 25 bd 47 c9 bd 3c
       -0.026620485 0.006486654 -0.040446717 0.023167266
000220 8a 1f 7c 3a 0a fd 33 bd 72 cc 9d 3c 3f 34 8a bd
       0.0009617737 -0.04394249 0.019262526 -0.067482464
000230 f8 e6 b1 bc 45 6e 50 bd c8 19 5c bd d1 89 8d bd
       -0.02171658 -0.05088641 -0.053735524 -0.06911052
000240 0b 8c 04 3d 50 13 9f 3d bd de d0 bd fb 7e 07 3d
       0.032360118 0.077673554 -0.10198734 0.033080082
000250 9f d4 5e 3d d9 e6 a2 bc bb 1f 0a bd ea 8c 90 3d
       0.05440199 -0.019885467 -0.033721667 0.07058127
000260 22 27 2a bd 0d 0a 4e bd 50 fb 8f bd fc e3 27 bc
       -0.041541226 -0.050302554 -0.07030356 -0.010247227
000270 23 87 19 3d 35 f5 a1 3d 8b 40 16 3d 92 be ba 3b
       0.037482392 0.07908098 0.036682647 0.0056989873
000280 50 f9 5c 3b df 62 96 bc e2 a7 14 3c fb 75 be bc
       0.0033717938 -0.018357692 0.0090732295 -0.023249617
000290 ea 37 0c bc 2e 16 aa 3c 61 df 75 3d 32 0f b7 3b
       -0.008558253 0.02076253 0.060027484 0.005586528
0002a0 b0 ab 82 3c 7b 6c ac bd 06 9d 46 bb 26 ab 6c 3d
       0.015951008 -0.084191285 -0.0030305996 0.057780407
0002b0 b5 81 59 bd 82 66 69 3d 98 30 09 3d 32 e2 c0 bd
       -0.053102214 0.056982525 0.03349361 -0.09418143
0002c0 ae 35 59 3d a5 80 91 3b 6b 00 88 bd 51 b3 c3 3c
       0.05302971 0.0044403845 -0.06640705 0.023889216
0002d0 26 f0 b8 3c 76 d0 cd 3c a4 f9 4b bd cb 22 6c 3d
       0.02257545 0.025123816 -0.049798623 0.05765037
0002e0 e5 1e f4 bd 18 11 ab bd 44 b6 92 3d 58 c2 2e bd
       -0.11919955 -0.0835287 0.07163671 -0.04266581
0002f0 96 4c 92 3d 40 ec 46 bd 55 ec ad bd ba 12 9f bc
       0.07143514 -0.04856515 -0.084923424 -0.01941811
000300 cf 40 41 bc 6a 8b 9b 3c 10 2c 87 3d 39 dd 1f bd
       -0.011795237 0.018987376 0.06600201 -0.039029334
000310 b3 a7 8d 3d 71 ed 98 3c 49 6e b4 3b 78 b3 79 bd
       0.06916752 0.018667908 0.005506311 -0.06096217
000320 b2 d6 16 bc df 8b e9 3c 27 23 3d bd ec 9b 4d bc
       -0.009206461 0.028509079 -0.046176102 -0.012549382
000330 b7 77 74 3d b7 da 7b bd 68 47 32 3d 8a 83 89 bc
       0.05968448 -0.06148788 0.04352513 -0.016786356
000340 d9 03 fc 3c 78 95 64 bd c6 7d 6f 3c 1a dc b3 bb
       0.030763553 -0.055806607 0.014617389 -0.0054888846
000350 21 80 6f 3d 9f 90 80 bd 0e 32 85 3c 9d e4 4f 3c
       0.058471803 -0.06277584 0.01625922 0.012688783
000360 38 92 6d 3d 19 08 68 bd cd 5b 16 bd 60 2f 80 bd
       0.058000773 -0.056648348 -0.03670864 -0.06259036
000370 0e 4e 07 bd 6c f0 54 3d a3 2b 33 3c 57 17 3e bd
       -0.033033423 0.051987097 0.010935697 -0.046408977
000380 52 2c 49 3d a3 c2 78 bc 62 7e 27 bb 6b 51 54 3d
       0.049114533 -0.015183124 -0.0025557508 0.05183546
000390 c8 c5 0f bd f6 7d 90 bc f9 05 de 3c 9e b5 c4 bc
       -0.03510073 -0.017638188 0.027102457 -0.024012383
0003a0 cb a7 39 bd 32 60 bb bc 20 03 0c 3d c9 74 6c 3c
       -0.045326035 -0.022873018 0.034182668 0.014432141
0003b0 6c 36 a4 bd 42 29 1c bd 4a da 1c bd 12 ea a7 3d
       -0.08018193 -0.038125284 -0.038294114 0.08198942
0003c0 f2 e0 92 3c 27 ef 4c 3d 87 f3 1f bc f4 bf 41 bd
       0.017929528 0.05003276 -0.009762651 -0.0473022
0003d0 ed 06 9f 3d a5 e5 6e 3c 4b 12 aa 3c b7 0a 48 bc
       0.07764993 0.014581119 0.020760676 -0.012209586
0003e0 b1 c8 40 bd 6c 65 6e 3d 2e 26 b6 3c 65 06 6d 3c
       -0.047066394 0.058202192 0.022235002 0.014466857
0003f0 86 bf b5 3d 52 bf b7 bc b5 61 81 bd 09 c1 20 bd
       0.08874421 -0.022430096 -0.06317464 -0.039246593
