inventory/ark_material.onnx (onnx, 539041 bytes, 8 tensors)

35 f4 [8, 3, 5, 5]
0.18055333 -0.0056326287 -0.07934176 -0.38841566 0.08062138 0.29083768 -0.028524175 0.02825334
-0.00060909684 -0.075555265 0.562758 0.47500098 0.09893642 -0.41433832 0.22200605 0.020929366
-0.07265349 0.19939792 0.3979061 0.15763925 0.02811671 -0.110698506 0.31010792 0.045531277
0.1278968 0.24021336 0.04935803 -0.24078302 -0.09486788 -0.08768913 -0.53879476 -0.5163903
-0.40137014 0.015303387 -0.36570603 -0.2405605 0.20488915 0.40544808 0.053207617 -0.16776247
-0.25754902 0.13773827 -0.3549685 -0.10836056 0.05630967 0.13643704 -0.26083493 -0.18315756
-0.4115113 -0.4480257 0.11483401 -0.043804668 0.21003006 -0.35350937 0.029111763 0.25535974
0.3667683 -0.26459432 -0.16905957 -0.1978365 0.07904458 -0.3678033 -0.50883377 -0.44995677
-0.2547745 -0.27404234 -0.10735354 0.26101863 -0.3252901 -0.5152935 0.09956664 0.2809124
-0.059300464 0.016358806 0.023735352 -0.1571404 -0.034086246 -0.5146163 0.16163443 -0.13657096
-0.03618879 0.08860544 0.38311118 -0.020884417 -0.46350348 0.5666137 0.13864018 -0.22333542
-0.45537782 -0.00345231 0.12655762 -0.2607906 0.25597528 -0.2557741 -0.40168512 0.35569975
0.4473717 0.21133488 -0.5388249 0.053814873 -0.45308477 -0.15057763 0.044534277 -0.24657792
0.42928576 0.396026 -0.17742556 -0.09430513 -0.47841737 -0.6484531 0.47968405 0.044884205
-0.08129704 -0.48985407 0.063769795 0.42373207 0.38895014 0.15065566 0.04620419 -0.6893127
0.6367158 -0.17080848 0.46343946 0.22969374 0.079519846 0.46252307 0.43956605 0.4039109
-0.13560335 0.25713864 -0.4786487 0.27884033 -0.3740782 -0.4741859 0.4104534 0.14723487
0.07879335 -0.072247654 -0.27890614 -0.5123906 0.339912 0.23366271 0.33563283 0.18105756
-0.66651815 -0.34565696 0.03175748 0.08422476 0.1482879 -0.67030716 0.42474952 -0.14068337
0.10077245 -0.5138724 -0.09367446 0.27935034 0.19106726 0.33019817 -0.010158186 0.1785285
0.08655033 -0.14686464 -0.028636225 -0.45932427 -0.020062758 0.0281726 -0.29777363 -0.5316953
0.19586393 0.063590884 0.26456326 -0.19411507 -0.24993253 -0.6245959 -0.36107555 -0.03898156
0.45397058 -0.33787087 0.13215508 -0.5067227 -0.2751879 0.36740535 -0.23151268 -0.34295782
-0.19869782 0.42020324 0.21916908 -0.21947026 0.1569295 -0.008299386 0.36763784 -0.25729713
0.40851 -0.37451646 0.39014322 0.26273057 0.35933423 -0.12183076 0.27604002 0.004392187
0.0048996103 0.32977 0.23112898 -0.2228484 -0.11423051 0.09146857 -0.29489908 -0.21743391
0.024965683 0.10791749 0.4312435 0.07881111 0.44465733 -0.2589853 0.037859373 0.4311292
0.37182936 0.37343937 -0.50842834 -0.19472623 0.61623985 0.2203842 0.039531875 -0.21178676
0.052565906 0.20327027 -0.13363059 0.006079734 -0.21651939 -0.4466908 0.17916779 -0.031917274
0.22198352 -0.09676929 -0.100476176 -0.5020219 0.31482866 0.24095638 0.28259972 0.032338515
-0.10938025 -0.14458333 -0.15974787 -0.10931275 -0.35436156 -0.4487152 -0.38025323 -0.23060845
0.0031409324 0.42359006 0.5559962 -0.086768046 0.38899666 -0.18311137 -0.34961805 0.20774083
00000000: f9e2 383e ea91 b8bb ef7d a2bd 6bde c6be
00000010: d21c a53d ade8 943e 88ab e9bc 8c73 e73c
00000020: ccab 1fba b8bc 9abd e910 103f 5433 f33e
00000030: 2e9f ca3d 2724 d4be 8e55 633e 1074 ab3c
00000040: 5acb 94bd f82e 4c3e 59ba cb3e 2f6c 213e
00000050: 0455 e63c e6b5 e2bd 77c6 9e3e 017f 3a3d
00000060: 61f7 023e 7efa 753e a52b 4a3d d38f 76be
00000070: 174a c2bd 5c96 b3bd 74ee 09bf 2832 04bf
00000080: 6380 cdbe 0fbb 7a3c d23d bbbe 7e55 76be
00000090: 76ce 513e e496 cf3e 3bf0 593d edc9 2bbe
000000a0: 77dd 83be 430b 0d3e 6ebe b5be 24ec ddbd
000000b0: f8a4 663d 27b6 0b3e 288c 85be a88d 3bbe
000000c0: 9cb1 d2be a063 e5be 182e eb3d 866c 33bd
000000d0: 1f12 573e 2eff b4be cb7b ee3c 83be 823e
000000e0: 0ec9 bb3e e878 87be f41d 2dbe a795 4abe
000000f0: 20e2 a13d b750 bcbe ee42 02bf bc60 e6be
00000100: ce71 82be 474f 8cbe 2cdc dbbd 3ca4 853e
00000110: 6d8c a6be 46ea 03bf 98e9 cb3d c0d3 8f3e
00000120: 0be5 72bd e702 863c a470 c23c 6ae9 20be
00000130: 059e 0bbd e5bd 03bf 7f83 253e 42d9 0bbe
00000140: b23a 14bd c576 b53d 2627 c43e cc15 abbc
00000150: 5450 edbe 980d 113f b1f7 0d3e 0ab2 64be
00000160: 4827 e9be 2740 62bb 5298 013e 5886 85be
00000170: 310f 833e d3f4 82be aca9 cdbe 471e b63e
00000180: e70d e53e 2c68 583e 6ef0 09bf fc6c 5c3d
00000190: bafa e7be 0631 1abe 9369 363d ec7e 7cbe
000001a0: 58cb db3e ebc3 ca3e 0caf 35be 0c23 c1bd
000001b0: 1ff3 f4be 0601 26bf 2699 f53e 80d8 373d
000001c0: 107f a6bd 27ce fabe bd99 823d 69f3 d83e
000001d0: 7924 c73e 7a45 1a3e 9b40 3d3d cc76 30bf
000001e0: cfff 223f 6be8 2ebe f047 ed3e d634 6b3e
000001f0: 4ddb a23d d3cf ec3e cd0e e13e 69cd ce3e
00000200: 9bdb 0abe ada7 833e 7111 f5be 29c4 8e3e
00000210: 2e87 bfbe 7fc8 f2be f326 d23e bdc4 163e
00000220: 685e a13d 94f6 93bd c9cc 8ebe 082c 03bf
00000230: f208 ae3e 4745 6f3e 11d8 ab3e 2767 393e
00000240: efa0 2abf f3f9 b0be 2214 023d 087e ac3d
00000250: c9d8 173e 4099 2bbf c578 d93e 4d0f 10be
00000260: c961 ce3d 248d 03bf 65d8 bfbd 0207 8f3e
00000270: 23a7 433e bc0f a93e 856e 26bc 2dd0 363e
00000280: 4d41 b13d af63 16be 8496 eabc 8d2c ebbe
00000290: a75a a4bc 39ca e63c c975 98be 2f1d 08bf
000002a0: 8e90 483e f03b 823d d674 873e 1ac6 46be
000002b0: 50ee 7fbe 84e5 1fbf e5de b8be 21ab 1fbd
000002c0: d56e e83e 69fd acbe a953 073e 94b8 01bf
000002d0: 6ee5 8cbe 8e1c bc3e a911 6dbe 2b98 afbe
000002e0: 7177 4bbe e124 d73e dc6d 603e d0bc 60be
000002f0: 20b2 203e 26fa 07bc 073b bc3e 73bc 83be
00000300: 3928 d13e 9fc0 bfbe dac0 c73e 9f84 863e
00000310: a8fa b73e 6882 f9bd 1e55 8d3e 56ec 8f3b
00000320: e98c a03b 9dd7 a83e 13ad 6c3e 5f32 64be
00000330: b0f1 e9bd e053 bb3d 03fd 96be ffa6 5ebe
00000340: d584 cc3c d803 dd3d f3cb dc3e b867 a13d
00000350: 20aa e33e b999 84be 6e12 1b3d f7bc dc3e
00000360: 6b60 be3e 7233 bf3e 5c28 02bf 5066 47be
00000370: e5c1 1d3f 65ac 613e 2dec 213d a1de 58be
00000380: 594f 573d 1526 503e 75d6 08be 8138 c73b
00000390: 42b7 5dbe a8b4 e4be c377 373e b0bb 02bd
000003a0: a64f 633e fa2e c6bd 74c6 cdbd 8284 00bf
000003b0: 3931 a13e 45bd 763e e9b0 903e 6475 043d
000003c0: c102 e0bd a70d 14be f294 23be 5ddf dfbd
000003d0: e16e b5be 00be e5be 8db0 c2be 9f24 6cbe
000003e0: 1ad8 4d3b cce0 d83e c455 0e3f 72b3 b1bd
000003f0: 922a c73e 8c81 3bbe 2301 b3be 03ba 543e

36 f4 [8]
1.6729591 0.25470567 -0.6063665 -1.3802489 -1.006501 -1.0668854 -0.4464265 1.7568802
00000000: 8623 d63f c868 823e d63a 1bbf ffab b0bf
00000010: 06d5 80bf b38f 88bf 0492 e4be 73e1 e03f

38 f4 [16, 8, 3, 3]
0.10022472 0.5703107 -0.642152 -0.22493161 -0.45901847 -0.1278703 -0.40318984 -0.58952683
0.22473983 0.57457244 1.089459 0.41124082 -0.936351 -1.3117425 -0.3334524 -0.4269123
-0.15126202 -0.46489346 1.0222656 0.21728276 0.01483332 -0.49792916 -0.026837772 -0.22898296
-0.334355 -0.25119868 0.89567447 -0.28422198 0.46309376 0.16366711 0.7886237 -0.19992352
-0.49390775 -0.838383 0.8295147 1.0335021 -0.23566857 1.0540355 -0.3073925 0.5818104
0.23079206 0.8660104 -0.24435653 0.64768016 1.0118484 -0.52066505 0.26456445 -0.4390262
0.80958253 -0.5953389 -0.031055162 0.47109503 0.04409635 0.70252347 0.45112094 -0.7579463
-0.36919972 -0.19278722 0.3261397 -1.3314679 -0.7902543 -0.49060786 0.59307057 -0.6309236
-0.54510343 -0.88318026 0.5418911 0.6773419 1.0674257 0.32120135 0.84204346 1.9495155
-0.30004418 1.9153879 -0.97658694 0.2972244 0.56168926 -0.6774506 -0.5447447 -1.6781884
-0.9243978 -1.1210257 -0.6213695 0.3510685 -0.854893 0.5179621 -0.026243916 0.05422102
0.8437428 0.68790114 -0.62614655 1.7069663 -0.486093 0.21179704 1.3108457 0.3126465
0.81002337 1.245149 -0.5918726 -0.45672223 -1.5289975 0.5427713 0.33405116 -0.30945125
0.4933274 -0.9682195 -0.97390807 -0.7697599 0.30219108 0.25160012 -0.17686886 0.37293857
-0.28481126 -0.6474069 -0.053977046 -0.9812699 0.35580263 -0.74490297 0.2022574 0.33984116
-0.054278936 0.18506771 -0.5940474 0.3527147 -0.09067045 -0.30277798 1.3325504 -1.384892
-0.05523565 0.14412309 -1.9178127 -0.06853896 0.56573135 -1.6675968 -0.19407402 0.43481997
-1.2624135 -0.69116515 0.32595578 -1.6288046 -0.38761154 -0.02019108 0.98292625 0.5756847
-0.47242665 -0.06577252 0.0014522696 0.94981134 -0.35143417 0.8126789 0.6923565 0.86084926
0.27570158 0.13268097 0.50236505 -0.31580243 0.67352575 1.1823492 -0.07540463 1.6332622
1.2101033 0.2955511 0.35744035 0.3644584 0.97005767 0.7956552 -0.53701663 -0.018658156
-0.4321401 0.79571944 0.14336836 0.80530137 -0.34661737 -0.30134982 0.19586065 -0.0975627
-0.022930298 0.06836074 0.27287534 -0.49872074 -0.53919184 0.12122544 0.34268942 0.2896724
-0.6845743 0.48309025 -0.7222094 1.1795188 -0.1444899 -0.2546365 0.6667431 -0.018255759
0.19229469 -0.82177156 0.6468791 0.25138688 0.0904422 -0.9367069 -0.7382992 0.61990166
-0.58009595 0.01197394 0.76427674 0.2609535 0.74107546 -1.2555573 0.7869876 -0.69419414
0.04953261 -0.87039626 -1.2518636 -0.025242582 -0.47005343 -1.4688525 1.2942133 -0.62458324
0.09320226 -0.9391553 0.7150598 -0.9598482 -2.1290781 0.80207586 1.2632378 -0.36852273
0.725395 -0.6184735 -0.46344674 -0.71368366 0.8784484 0.45379847 0.7545888 0.13176201
-0.2592482 -0.43664518 0.42136642 -0.98160225 -0.49488717 0.2291174 0.91613764 -0.08503362
0.1748864 -0.3651303 0.17783263 -0.5515132 0.8135721 -0.3078998 0.89194715 -1.0490301
-1.1486151 -0.45787376 0.23127548 -0.5230741 -0.15770558 0.71434975 -0.49847633 -0.7255975
00000000: 9e42 cd3d e2ff 113f 1364 24bf 7954 66be
00000010: 7804 ebbe 6ff0 02be e66e cebe 3beb 16bf
00000020: 3322 663e 2e17 133f 6473 8b3f 288e d23e
00000030: b3b4 6fbf 2ee7 a7bf 46ba aabe 4094 dabe
00000040: 6ee4 1abe 8406 eebe 99d9 823f 5f7f 5e3e
00000050: 7407 733c 92f0 febe e3da dbbc 827a 6abe
00000060: 9430 abbe 1d9d 80be ec4a 653f 8b85 91be
00000070: a01a ed3e 5a98 273e 3ee3 493f c0b8 4cbe
00000080: 7ae1 fcbe 45a0 56bf 135b 543f cc49 843f
00000090: 1a53 71be a3ea 863f 8d62 9dbe 87f1 143f
000000a0: c154 6c3e dcb2 5d3f 9938 7abe 5ece 253f
000000b0: 4084 813f 4e4a 05bf fe74 873e 0bc8 e0be
000000c0: cd40 4f3f 2168 18bf 6567 febc 5e33 f13e
000000d0: 609e 343d 94d8 333f 53f9 e63e c508 42bf
000000e0: bf07 bdbe 036a 45be c8fb a63e 8a6d aabf
000000f0: 1b4e 4abf f430 fbbe 79d3 173f 3684 21bf
00000100: e68b 0bbf 1a18 62bf 60b9 0a3f 4766 2d3f
00000110: 68a1 883f 8174 a43e 2990 573f b989 f93f
00000120: 649f 99be 6e2b f53f 9a01 7abf cc2d 983e
00000130: deca 0f3f 676d 2dbf 6374 0bbf e1ce d6bf
00000140: 56a5 6cbf c57d 8fbf 1212 1fbf 40bf b33e
00000150: 45da 5abf 2a99 043f 7bfd d6bc dc16 5e3d
00000160: 87ff 573f 4a1a 303f 244b 20bf df7d da3f
00000170: 2fe1 f8be 53e1 583e cbc9 a73f 3413 a03e
00000180: b15d 4f3f 0b61 9f3f f684 17bf 7fd7 e9be
00000190: 31b6 c3bf 0ff3 0a3f c108 ab3e 6570 9ebe
000001a0: 6995 fc3e 3cdd 77bf 0a52 79bf fc0e 45bf
000001b0: cab8 9a3e bbd1 803e 1c1d 35be cef1 be3e
000001c0: c8d2 91be 75bc 25bf 0917 5dbd 8134 7bbf
000001d0: c32b b63e f6b1 3ebf 901c 4f3e a9ff ad3e
000001e0: 9753 5ebd 6482 3d3e 7e13 18bf 0597 b43e
000001f0: 6eb1 b9bd b705 9bbe 0391 aa3f 2444 b1bf
00000200: c73e 62bd 0195 133e e37a f5bf 275e 8cbd
00000210: c5d3 103f d073 d5bf 57bb 46be b9a0 de3e
00000220: c496 a1bf 33f0 30bf ade3 a63e ab7c d0bf
00000230: 0575 c6be c467 a5bc 0ea1 7b3f 1360 133f
00000240: e8e1 f1be beb3 86bd 155a be3a d626 733f
00000250: 2eef b3be b90b 503f 473e 313f 9e60 5c3f
00000260: c228 8d3e 85dd 073e ff9a 003f dbb0 a1be
00000270: 2f6c 2c3f 3857 973f be6d 9abd bc0e d13f
00000280: aae4 9a3f 7952 973e 6c02 b73e 4b9a ba3e
00000290: b355 783f 0fb0 4b3f ec79 09bf fdd8 98bc
000002a0: 7841 ddbe 45b4 4b3f 28cf 123e 3b28 4e3f
000002b0: d577 b1be 864a 9abe b28f 483e f4ce c7bd
000002c0: 52d8 bbbc b700 8c3d 51b6 8b3e 5358 ffbe
000002d0: 7a08 0abf 0b45 f83d fd74 af3e f14f 943e
000002e0: 4340 2fbf 9b57 f73e b7e2 38bf 79fa 963f
000002f0: 29f5 13be b75f 82be adaf 2a3f 1a8d 95bc
00000300: e6e8 443e 9f5f 52bf de99 253f c8b5 803e
00000310: c339 b93d 06cc 6fbf 2d01 3dbf e0b1 1e3f
00000320: 2b81 14bf 582e 443c a4a7 433f b29b 853e
00000330: 1fb7 3d3f 1ab6 a0bf 0578 493f b5b6 31bf
00000340: b5e2 4a3d 4ad2 5ebf 113d a0bf 88c9 cebc
00000350: d8aa f0be 5c03 bcbf c8a8 a53f b0e4 1fbf
00000360: d4e0 be3d 7b6c 70bf 290e 373f 9db8 75bf
00000370: d142 08c0 d854 4d3f c7b1 a13f 03af bcbe
00000380: 7db3 393f 4754 1ebf e448 edbe f9b3 36bf
00000390: ffe1 603f 4658 e83e bb2c 413f 9fec 063e
000003a0: 2ebc 84be f58f dfbe 57bd d73e 494a 7bbf
000003b0: da61 fdbe c09d 6a3e ff87 6a3f 1b26 aebd
000003c0: 6c15 333e 5cf2 babe c219 363e f82f 0dbf
000003d0: 4346 503f 0ba5 9dbe a656 643f 9e46 86bf
000003e0: d205 93bf 6e6e eabe 7bd3 6c3e 2fe8 05bf
000003f0: 927d 21be a0df 363f 4a38 ffbe c2c0 39bf

39 f4 [16]
-1.7526058 3.2268288 -1.8745083 1.9110465 0.92605394 0.39505452 0.5894083 0.83154845
0.45241153 -0.95494366 0.7285752 4.444815 2.1350677 -1.4273694 -0.7969681 0.8634721
00000000: 6355 e0bf 5d84 4e40 e3ef efbf 2c9d f43f
00000010: df11 6d3f 9644 ca3e 76e3 163f 5ce0 543f
00000020: 7ca2 e73e 3077 74bf e883 3a3f ed3b 8e40
00000030: f3a4 0840 0ab4 b6bf 1a06 4cbf 820c 5d3f

fc.0.bias f4 [446]
0.002003158 0.1265808 0.09695822 0.009410827 0.038205426 0.09101632 0.06832326 0.0042793774
-0.0737983 0.007951654 0.01771557 0.058144804 -0.05243049 -0.014061326 -0.053334568 0.08498892
-0.026950711 -0.017061122 0.03527931 0.052611407 0.017420406 0.03438524 0.012746221 0.079879016
-0.03413925 0.081759 0.03737304 0.07584629 0.0038201257 0.1041952 0.027293773 0.07384972
0.054243337 0.0030589283 0.11478054 0.08622608 0.10654006 0.11027385 0.09196451 0.019798392
0.030815944 -0.03928542 0.08034102 0.016329587 0.021950357 0.03893418 0.035244342 -0.015060891
-0.015787138 -0.011592158 0.004882241 -0.05048984 0.023441471 0.14072326 0.002960441 0.037023634
-0.08722939 0.026871255 -0.013870761 0.13205653 0.07857133 0.034584675 -0.030331368 -0.011493199
-0.068056114 0.13018715 0.027849637 0.040271785 0.055539396 0.043284424 0.0965157 0.025972124
0.12701823 -0.06579227 0.018979086 0.0007676362 -0.02290906 0.13372041 -0.078322716 0.06717433
0.0024272315 -0.055957332 0.11380719 0.115705 -0.027883003 -0.01973633 0.0007196724 0.022006286
0.13530234 0.10894432 0.06059783 0.07796292 0.06426088 0.12044526 -0.009154023 -0.041525427
-0.0021873913 0.044920526 0.09376348 0.13173981 0.04810972 0.12472058 0.06679751 -0.06694005
0.06967438 0.079370566 0.14273769 0.068261325 0.13896587 0.07515509 0.09672352 0.114671
0.07600615 -0.016082732 -0.09044187 -0.005465634 0.08501577 -0.023768103 -0.019547023 -0.052313037
-0.04069909 -0.011555685 0.01010724 -0.047915746 0.0114998 0.13106681 -0.012740556 0.084504716
-0.004999161 -0.04029817 0.04348977 0.015096056 0.08058119 -0.01529796 0.08764167 0.03155457
0.0151471365 -0.033760518 0.09668473 0.097770475 0.12116527 0.08450789 0.049928576 0.09118405
-0.020805007 -0.021874411 -0.017679835 0.018613325 0.081312664 -0.03525334 -0.04395385 -0.086576596
0.014556123 0.076435775 -0.04014491 0.04525566 -0.02146586 0.042992465 0.033015776 0.020297818
-0.073346734 -0.026349973 0.03834075 0.04083762 -0.038615372 -0.04273206 0.0069816997 0.068359144
0.09048219 0.021635225 0.025121376 0.003376087 0.13339143 0.12455466 0.048529442 0.121430494
-0.003422606 0.08143374 0.1195483 0.06024379 0.10176337 0.050171223 0.033540037 0.019864911
0.14739318 0.024272911 -0.031321995 -0.036383525 0.05644133 0.061805442 -0.034104552 -0.048718214
-0.021500908 0.13387568 -0.043919403 0.019109745 -0.024948893 0.07893581 0.0017917261 0.0087705515
0.03300355 0.11204984 0.09062355 -0.04677681 0.11130476 0.018803218 -0.024518443 0.11596111
-0.035267036 0.07171495 0.02322894 0.11472284 -0.05733754 -0.006286195 0.09897821 -0.070303276
-0.07216271 0.07318685 0.062566936 0.046697658 0.009615226 0.1368454 -0.0025267028 0.05811743
0.027895594 -0.020637482 -0.02015723 0.05245151 -0.067744404 -0.020801933 0.057650607 0.04140589
-0.04030209 0.018137667 0.07805247 -0.040768944 0.087116055 -0.018749215 0.011933418 0.0023554892
-0.045827672 0.04453997 0.1256275 0.061527357 0.10798045 0.025944646 -0.0018203884 0.05158504
0.0115367295 0.027559705 0.09918178 -0.08726995 0.096233495 0.05233301 0.08970585 0.112620756
00000000: 6a47 033b 669e 013e 0892 c63d df2f 1a3c
00000010: 4b7d 1c3d c466 ba3d 11ed 8b3d 053a 8c3b
00000020: 9023 97bd a747 023c 3e20 913c 3f29 6e3d
00000030: 5ac1 56bd 7a61 66bc 5975 5abd ac0e ae3d
00000040: bdc7 dcbc c4c3 8bbc 0a81 103d 0f7f 573d
00000050: 3db5 8e3c 8ad7 0c3d 87d5 503c 9c97 a33d
00000060: 99d5 0bbd 4371 a73d 7914 193d 4d55 9b3d
00000070: 135b 7a3b 4b64 d53d 3197 df3c 863e 973d
00000080: 432e 5e3d 4d78 483b 0f12 eb3d 4d97 b03d
00000090: ad31 da3d 42d7 e13d e457 bc3d 3d30 a23c
000000a0: b871 fc3c c0e9 20bd d589 a43d a0c5 853c
000000b0: 3cd1 b33c 7279 1f3d 5f5c 103d f5c1 76bc
000000c0: 0754 81bc 09ed 3dbc 35fb 9f3b 6fce 4ebd
000000d0: 5408 c03c c219 103e f503 423b 18a6 173d
000000e0: 53a5 b2bd 1b21 dc3c 3042 63bc d439 073e
000000f0: 01ea a03d a9a8 0d3d 7d79 f8bc f84d 3cbc
00000100: 0161 8bbd c84f 053e ec24 e43c 07f4 243d
00000110: 477d 633d 024b 313d 06aa c53d 7ec3 d43c
00000120: 1111 023e 19be 86bd 077a 9b3c 313b 493a
00000130: c8ab bbbc 01ee 083e a967 a0bd b292 893d
00000140: 3012 1f3b 8433 65bd be13 e93d bef6 ec3d
00000150: e56a e4bc 15ae a1bc 66a8 3c3a 8746 b43c
00000160: b28c 0a3e 331e df3d 6e35 783d 06ab 9f3d
00000170: 359b 833d 01ac f63d c1fa 15bc 9116 2abd
00000180: 565a 0fbb 96fe 373d 1107 c03d cde6 063e
00000190: b30e 453d 816d ff3d 22cd 883d dd17 89bd
000001a0: 71b1 8e3d 098d a23d d429 123e 98cc 8b3d
000001b0: 124d 0e3e e9ea 993d fb16 c63d a1d8 ea3d
000001c0: 1da9 9b3d efbf 83bc 9639 b9bd 1019 b3bb
000001d0: bf1c ae3d 53b5 c2bc 1421 a0bc 3246 56bd
000001e0: 17b4 26bd 0e54 3dbc d698 253c 4d43 44bd
000001f0: a869 3c3c 6136 063e c4bd 50bc cf10 ad3d
00000200: 01d0 a3bb b20f 25bd 5422 323d 7355 773c
00000210: c007 a53d 4ba4 7abc 7a7d b33d 5d3f 013d
00000220: b22b 783c 7848 0abd a502 c63d e33b c83d
00000230: 7f25 f83d 7912 ad3d e881 4c3d b4be ba3d
00000240: 436f aabc f731 b3bc 4dd5 90bc f97a 983c
00000250: 4187 a63d ce65 10bd f408 34bd 124f b1bd
00000260: ce7c 6e3c 5c8a 9c3d fd6e 24bd 005e 393d
00000270: 2cd9 afbc de18 303d 8d3b 073d 9c47 a63c
00000280: d036 96bd e6db d7bc 310b 1d3d 5945 273d
00000290: 272b 1ebd d007 2fbd bec6 e43b e1ff 8b3d
000002a0: ba4e b93d 5b3c b13c 58cb cd3c 5741 5d3b
000002b0: c397 083e 8316 ff3d cfc6 463d 8db0 f83d
000002c0: cd4d 60bb bcc6 a63d bdd5 f43d 31c2 763d
000002d0: 5069 d03d 5780 4d3d 4761 093d bdbb a23c
000002e0: 3dee 163e fcd7 c63c 7e4b 00bd e406 15bd
000002f0: 062f 673d b427 7d3d 37b1 0bbd c08c 47bd
00000300: ac22 b0bc b516 093e d5e4 33bd 0a8c 9c3c
00000310: 9f61 ccbc 19a9 a13d 5ad8 ea3a 5cb2 0f3c
00000320: bb2e 073d 637a e53d d798 b93d 0a99 3fbd
00000330: c0f3 e33d 3509 9a3c e7da c8bc 057d ed3d
00000340: 2b74 10bd 4adf 923d 9e4a be3c cff3 ea3d
00000350: c5da 6abd 6dfc cdbb 16b5 ca3d 2afb 8fbd
00000360: 0bca 93bd fde2 953d 1823 803d 0b46 3f3d
00000370: 2e89 1d3c 3321 0c3e 0a97 25bb 8b0c 6e3d
00000380: 4d85 e43c f00f a9bc c620 a5bc 65d7 563d
00000390: 94bd 8abd d168 aabc 0b23 6c3d 3999 293d
000003a0: ce13 25bd 7295 943c f9d9 9f3d 56fd 26bd
000003b0: e769 b23d f497 99bc 6284 433c 8d5e 1a3b
000003c0: ccb5 3bbd 8b6f 363d 7fa4 003e 1c04 7c3d
000003d0: db24 dd3d de89 d43c 199a eeba d64a 533d
000003e0: 8d04 3d3c e4c4 e13c d11f cb3d 96ba b2bd
000003f0: 1116 c53d 235b 563d b3b7 b73d b6a5 e63d

fc.0.weight f4 [446, 64]
0.06773294 -0.110828094 0.10591324 0.0643798 0.06726703 0.16966991 0.009977789 0.046073668
0.09833485 0.1326163 0.030429495 -0.093319125 0.06729466 0.018757202 -0.028147213 -0.009666514
-0.10888009 0.09932249 0.05141527 -0.091234066 -0.160729 0.10746934 0.1703452 0.19313101
-0.051026538 0.09783331 0.0053801886 0.036221538 0.024530716 0.061719 0.12380081 -0.0069834692
-0.0626698 0.001768998 -0.16556826 0.058370724 -0.053861685 -0.015855383 0.06748095 -0.06416313
0.048537087 0.06664846 -0.028036054 0.032108977 0.034297533 -0.079843566 -0.036043193 -0.13322459
0.034721013 0.029016847 -0.0053317137 0.02571173 0.040940497 0.10540398 0.1673296 0.047511745
0.11698302 0.08576698 -0.0615523 -0.016554391 -0.011480394 -0.11399589 -0.1630182 -0.052534994
0.052661575 -0.07171571 -0.065701365 -0.05769773 -0.10266984 0.07929987 -0.1868833 0.07293643
-0.004509302 -0.04094786 0.003459406 0.062261026 0.004910118 -0.014773818 0.034675937 0.15750352
-0.02125608 0.08537962 -0.068313286 0.059656072 0.12302829 0.02798836 0.06266657 0.076228924
-0.028966524 0.07153237 0.03911526 0.037439954 0.027446292 -0.021259893 0.117639095 -0.14600961
0.06746704 -0.06708436 0.07841353 -0.06774157 0.061912913 -0.0376397 0.056800347 -0.0749453
0.0891896 0.056370713 0.040356845 0.070774265 0.001976063 -0.092777595 0.024380717 0.09383703
0.02307137 0.047579326 -0.114022836 0.019470064 -0.026132671 -0.10662474 -0.07082078 0.05620333
-0.035553016 0.07955303 -0.029306088 0.14234942 0.06261571 -0.06497182 0.09985788 0.043678906
-0.017386585 0.13197139 -0.033669423 0.009422023 0.020663528 0.061734162 -0.05248877 -0.06917491
-0.0029370398 0.06314093 -0.064503364 0.13553007 0.12097654 -0.11773268 0.0018933411 0.00957451
0.024515502 0.07356427 -0.04838486 0.010565125 0.0055542514 0.05883012 0.07983563 0.08300488
0.010036556 -0.08404548 -0.14165245 0.015509404 0.12762433 0.00041756663 0.05195274 0.10790786
0.0069966307 0.006676939 0.015925393 0.14259091 -0.029168453 0.01764558 0.04364314 0.041886512
-0.09485731 -0.11120626 0.0022019583 0.12448107 0.09996163 0.106143646 0.09090058 0.068436526
-0.06763004 -0.033951823 -0.029209737 -0.034396578 0.0669619 0.058154978 0.037280146 0.13683951
-0.06552563 0.038941268 0.012241892 -0.1299224 0.056000046 0.043523043 0.018738262 -0.08734095
-0.06416646 -0.08167951 0.09195639 -0.08071675 0.024612343 0.10163798 -0.10005913 -0.07043311
0.02122911 0.062564395 -0.00426172 0.058719873 0.1444658 -0.0473177 0.04694138 -0.11880086
0.19414438 0.17119801 -0.006101994 0.07257025 -0.04306472 0.13213612 0.07237752 0.17876214
-0.07769719 0.18352339 0.05125744 0.12539434 0.11419323 0.047518972 0.03157659 -0.16187528
0.034160968 -0.04793182 -0.088180915 -0.09754682 -0.08331301 0.092849836 -0.061147653 -0.077246
0.07062482 0.20274502 -0.02809863 0.00021363559 -0.012190423 0.09130924 0.067178085 -0.066204794
0.0010087066 -0.06404504 0.09301652 0.022645265 0.09721592 0.15587367 0.026592685 0.14244412
-0.1001011 -0.01836121 -0.08140331 -0.06623927 0.07010416 0.14657132 -0.016390745 0.116515934
00000000: 91b7 8a3d d7f9 e2bd 0ae9 d83d 8ed9 833d
00000010: 4cc3 893d f3bd 2d3e e179 233c beb7 3c3d
00000020: c863 c93d 91cc 073e 4747 f93c 191e bfbd
00000030: c8d1 893d b4a8 993c fc94 e6bc 4c60 1ebc
00000040: 86fc debd 9769 cb3d d198 523d edd8 babd
00000050: 2596 24be e318 dc3d f96e 2e3e 23c4 453e
00000060: 3401 51bd d55c c83d 4b4c b03b 095d 143d
00000070: a4f4 c83c 10cd 7c3d 478b fd3d 96d5 e4bb
00000080: 0659 80bd b9dd e73a ba8a 29be 2416 6f3d
00000090: 129e 5cbd 26e3 81bc 7433 8a3d f667 83bd
000000a0: d3ce 463d fd7e 883d deab e5bc b484 033d
000000b0: 927b 0c3d 0685 a3bd 07a2 13bd 076c 08be
000000c0: 9f37 0e3d bdb4 ed3c a8b5 aebb 68a1 d23c
000000d0: 39b1 273d 0bde d73d 7358 2b3e ad9b 423d
000000e0: cb94 ef3d 99a6 af3d 441e 7cbd 139d 87bc
000000f0: 4318 3cbc ad76 e9bd 3eee 26be ef2e 57bd
00000100: aab3 573d b0df 92bd 708e 86bd 7454 6cbd
00000110: 9144 d2bd f867 a23d 565e 3fbe b25f 953d
00000120: c4c2 93bb f1b8 27bd 34b7 623b 6b05 7f3d
00000130: 0ee5 a03b e20d 72bc 5b08 0e3d 9a48 213e
00000140: 3b21 aebc 83db ae3d d6e7 8bbd ed59 743d
00000150: 42f6 fb3d d847 e53c 5557 803d e91d 9c3d
00000160: 344b edbc 907f 923d 5337 203d a35a 193d
00000170: 0cd7 e03c 3a29 aebc c4ec f03d 8b83 15be
00000180: 292c 8a3d 8663 89bd 4697 a03d 18bc 8abd
00000190: 6598 7d3d 162c 1abd 7ba7 683d ec7c 99bd
000001a0: 09a9 b63d fae4 663d 384d 253d 19f2 903d
000001b0: d680 013b 2e02 bebd 12ba c73c a12d c03d
000001c0: 2b00 bd3c 8ae2 423d ce84 e9bd af7f 9f3c
000001d0: 2f14 d6bc 125e dabd 7c0a 91bd 7735 663d
000001e0: 0aa0 11bd b3ec a23d 5213 f0bc 0cc4 113e
000001f0: aa3c 803d f20f 85bd 4a82 cc3d a7e8 323d
00000200: 506e 8ebc 8223 073e f3e8 09bd d45e 1a3c
00000210: 8f46 a93c f6dc 7c3d 77fe 56bd 93ab 8dbd
00000220: 5a7b 40bb 0850 813d 571a 84bd 65c8 0a3e
00000230: 8cc2 f73d d51d f1bd fc29 f83a 68de 1c3c
00000240: bcd4 c83c dda8 963d 342f 46bd 5919 2d3c
00000250: 7000 b63b daf7 703d dd80 a33d 76fe a93d
00000260: 5e70 243c 0920 acbd 570d 11be 281b 7e3c
00000270: f4af 023e d8ec da39 65cc 543d ccfe dc3d
00000280: fe43 e53b 39ca da3b f875 823c 5a03 123e
00000290: aef2 eebc 778d 903c 26c3 323d 3191 2b3d
000002a0: 8d44 c2bd 1cc0 e3bd bb4e 103b eeef fe3d
000002b0: afb8 cc3d d761 d93d 152a ba3d 7328 8c3d
000002c0: 9e81 8abd 1111 0bbd 4249 efbc 6de3 0cbd
000002d0: 5223 893d ea33 6e3d 11b3 183d a81f 0c3e
000002e0: 4d32 86bd e180 1f3d 3792 483c 610a 05be
000002f0: 4e60 653d 3845 323d fc80 993c d0df b2bd
00000300: b469 83bd 9647 a7bd a253 bc3d d34e a5bd
00000310: d39f c93c 9327 d03d cdeb ccbd 3c3f 90bd
00000320: ace8 ad3c c321 803d e6a5 8bbb 4084 703d
00000330: d8ee 133e 34d0 41bd 9b45 403d de4d f3bd
00000340: c9cd 463e 884e 2f3e 3cf3 c7bb b69f 943d
00000350: a264 30bd b14e 073e aa3a 943d 6c0d 373e
00000360: b41f 9fbd 8eed 3b3e 52f3 513d 6067 003e
00000370: 24de e93d 41a3 423d 7456 013d a2c2 25be
00000380: 5fec 0b3d 2854 44bd 3298 b4bd a1c6 c7bd
00000390: 03a0 aabd 0e28 be3d f675 7abd 2733 9ebd
000003a0: bfa3 903d 649c 4f3e 192f e6bc 5e03 6039
000003b0: 57ba 47bc 5700 bb3d aa94 893d 6196 87bd
000003c0: 9436 843a 0c2a 83bd 727f be3d 9082 b93c
000003d0: 2419 c73d 599d 1f3e e7d8 d93c dfdc 113e
000003e0: ce01 cdbd 406a 96bc c7b6 a6bd 74a8 87bd
000003f0: c592 8f3d cb16 163e e245 86bc e89f ee3d

fc.3.bias f4 [223]
-0.005742264 -0.030808048 -0.02158021 -0.013752139 0.02608107 -0.022508552 -0.0088034235 -0.037403267
0.0007967124 -0.02953908 -0.021426942 -0.054556336 -0.0017529137 -0.014065703 0.017565196 -0.027500667
-0.0053461175 -0.02723325 -0.008883735 -0.018764805 0.032805584 6.2170846e-05 0.009325145 0.01014083
0.0067856507 0.020045094 0.00068466755 0.0092946775 -0.020086752 0.03446015 -0.011330636 -0.025489701
-0.030296842 0.050902344 -0.025173763 0.029583704 -0.04619934 -0.00011538787 -0.043812823 0.030976396
-0.059971638 -0.00635587 -0.0050181933 -0.018360682 0.059176553 0.024257915 0.00076850964 -0.0027719885
0.026376557 -0.035706718 0.008383508 -0.045531623 0.015539114 -0.01629529 -0.008249112 0.012296175
-0.014867848 -0.023492483 -0.0017159507 0.006093534 0.0032679215 -0.031656165 0.029344015 -0.012421617
-0.040693726 -0.00085268356 -0.017762791 0.009997753 -0.0028112794 -0.020979218 -0.05553542 -0.026055552
-0.013587726 0.039848726 -0.011237483 -0.025337856 -0.013549434 -0.009060273 0.007711149 0.008465698
-0.0033108245 -0.011268145 -0.01010925 0.00047202373 0.023581386 -0.029891772 0.008110095 0.02474967
-0.010065136 -0.013149335 0.012205977 -0.009301183 -0.06835255 -0.024758449 0.0009909302 -0.002434401
-0.01334136 -0.05100178 -0.008567452 -0.038018834 -0.015518967 -0.01628177 -0.00190705 0.027913053
0.08145 -0.025349647 0.013845575 0.03519917 -0.0037106548 -0.030893523 -0.00965156 0.0028604886
0.0023251926 -0.01522189 -0.02482278 0.012394181 -0.032068674 -0.022606213 -0.027487183 0.0008309307
0.018332798 -0.054254398 0.0015733802 0.03366995 0.0029440634 -0.010158724 -0.013198701 0.010447137
0.024934076 -0.035272192 0.02188859 0.002506344 0.022446081 -0.0045574857 0.015814178 -0.044888705
-0.004364683 -0.02857754 -0.0027137513 0.05850349 0.021822415 -0.009902641 0.016455116 -0.050170586
-0.010818446 0.00013040578 0.030018492 0.019575777 -0.003951137 -0.03947264 -0.0011032574 -0.019216385
-0.05730832 -0.051208146 0.03135203 0.034795612 -0.0056565166 -0.012066733 -0.02400606 -0.011166206
0.0019821324 0.006566969 0.08306026 0.013355581 -0.0021309576 0.0071822423 0.01559059 -0.027398312
0.012418335 -0.010925214 0.024146771 -0.05827101 -0.0008809861 0.004609266 0.03236959 0.058835376
-0.008488954 -0.0060002003 -0.06122922 0.034459103 0.007111485 -0.017092329 -0.034661047 -0.03546667
0.010623645 0.008536099 -0.021421518 0.013293843 0.014799395 6.073367e-05 -0.004056867 -0.016179794
0.023277605 0.054530885 0.017371718 0.029946625 0.012823875 -0.029544007 -0.023319567 0.029601218
0.016264515 -0.039418668 -0.0041439333 0.005074611 0.00916286 -0.039431874 -0.024622994 0.00021003035
-0.029423278 -0.0018766106 -0.00987255 -0.01406673 -0.055134848 -0.025341744 0.0068133147 -0.04809726
-0.03642198 -0.02249365 0.0029397851 0.0062744827 -0.039118737 -0.027611665 -0.018579943
00000000: 9a29 bcbb 2961 fcbc fbc8 b0bc a750 61bc
00000010: f8a7 d53c db63 b8bc 3c3c 10bc 2b34 19bd
00000020: 77da 503a f1fb f1bc 8e87 afbc 7776 5fbd
00000030: 06c2 e5ba d673 66bc e3e4 8f3c 1449 e1bc
00000040: 7c2e afbb 4418 dfbc 168d 11bc a6b8 99bc
00000050: 265f 063d b861 8238 7ec8 183c b925 263c
00000060: 2a5a de3b 9c35 a43c 437b 333a b448 183c
00000070: f98c a4bc 1626 0d3d 22a4 39bc c7cf d0bc
00000080: 1531 f8bc fa7e 503d 3539 cebc 8659 f23c
00000090: 853b 3dbd 64fc f1b8 1375 33bd 36c2 fd3c
000000a0: d2a4 75bd e744 d0bb a86f a4bb 2469 96bc
000000b0: 1d63 723d 89b8 c63c cf75 493a 40aa 35bb
000000c0: a613 d83c 3541 12bd fb5a 093c 5e7f 3abd
000000d0: c597 7e3c b37d 85bc 4927 07bc e575 493c
000000e0: 4698 73bc 4f73 c0bc c0e9 e0ba 45ac c73b
000000f0: a02a 563b e5a9 01bd dc62 f03c 0a84 4bbc
00000100: 77ae 26bd a086 5fba 4683 91bc 9ecd 233c
00000110: 713d 38bb 9cdc abbc 1c79 63bd 7472 d5bc
00000120: 0e9f 5ebc 6b38 233d 6b1d 38bc 5691 cfbc
00000130: 72fe 5dbc 8a71 14bc cead fc3b b6b3 0a3c
00000140: 6bfa 58bb 079e 38bc 45a1 25bc f479 f739
00000150: c02d c13c 97df f4bc 34e0 043c d2bf ca3c
00000160: 3de8 24bc 4f70 57bc 94fb 473c fd63 18bc
00000170: 6cfc 8bbd 3bd2 cabc 1ae2 813a 798a 1fbb
00000180: b895 5abc 3ee7 50bd 805e 0cbc a3b9 1bbd
00000190: 4443 7ebc 5961 85bc fbf5 f9ba eaa9 e43c
000001a0: 42cf a63d 10aa cfbc 8dd8 623c 012d 103d
000001b0: 752e 73bb 6a14 fdbc 9421 1ebc 0977 3b3b
000001c0: 4262 183b 3c65 79bc 2559 cbbc f710 4b3c
000001d0: 715a 03bd aa30 b9bc cd2c e1bc d1d2 593a
000001e0: aa2e 963c dc39 5ebd e139 ce3a 80e9 093d
000001f0: 30f1 403b c770 26bc 5d3f 58bc 782a 2b3c
00000200: 8c42 cc3c 9379 10bd b34f b33c 7a41 243b
00000210: d8e0 b73c f656 95bb bc8c 813c 38dd 37bd
00000220: 9d05 8fbb 721b eabc 31d9 31bb 5ba1 6f3d
00000230: ecc4 b23c b03e 22bc e1cc 863c ac7f 4dbd
00000240: da3f 31bc 89bd 0839 57e9 f53c 615d a03c
00000250: 8a78 81bb 10ae 21bd 2d9b 90ba ae6b 9dbc
00000260: 21bc 6abd a2bf 51bd fc6a 003d d885 0e3d
00000270: 4d5a b9bb 8cb3 45bc 5ba8 c4bc 76f2 36bc
00000280: aae6 013b bb2f d73b 7f1b aa3d 5ed1 5a3c
00000290: 89a7 0bbb 0459 eb3b ad6f 7f3c 6d72 e0bc
000002a0: 4676 4b3c abff 32bc 73cf c53c 95ad 6ebd
000002b0: faf1 66ba 5309 973b fa95 043d 5dfd 703d
000002c0: 4115 0bbc 549d c4bb 7ecb 7abd fd24 0d3d
000002d0: 7607 e93b 3605 8cbc bef8 0dbd 8045 11bd
000002e0: cc0e 2e3c ffda 0b3c 2e7c afbc 6bce 593c
000002f0: 2979 723c 48bc 7e38 78ef 84bb 7d8b 84bc
00000300: adb0 be3c c75b 5f3d 224f 8e3c a052 f53c
00000310: 3b1b 523c 4606 f2bc ad08 bfbc 417e f23c
00000320: 293d 853c 7875 21bd d5c9 87bb ec48 a63b
00000330: d21f 163c 5183 21bd 29b6 c9bc 983b 5c39
00000340: 1609 f1bc 9af8 f5ba 7ac0 21bc 2478 66bc
00000350: 14d5 61bd 7d99 cfbc 3a42 df3b a201 45bd
00000360: 372f 15bd 9a44 b8bc 69a9 403b 2d9a cd3b
00000370: f83a 20bd dc31 e2bc f734 98bc

fc.3.weight f4 [223, 446]
0.029612565 -0.047453396 -0.050510187 -0.08856353 -0.006156191 -0.059982583 0.04890653 -0.021785432
-0.039834898 -0.08386919 -0.11166539 -0.0047614435 -0.053983115 -0.057114802 0.004093062 0.027101351
-0.04483846 -0.043870494 0.05803402 0.071641736 -0.053368382 0.038092226 0.004625721 0.06767422
0.05695817 -0.052362382 -0.055687323 -0.065353766 -0.052393865 -0.013752364 0.037222866 -0.008672635
0.06311923 0.030457942 0.06855334 0.01035203 0.019682938 0.008921466 0.063194565 -0.0880989
-0.04777605 -0.0017957077 -0.06523776 0.015980659 0.022889568 0.04966683 -0.046146765 0.00021192315
0.020163352 0.018626813 0.018244034 -0.027067063 0.014547659 -0.049344167 -0.07248779 -0.024523037
0.082283586 -0.095007725 0.01445626 0.013529722 -0.032390833 -0.041790776 0.01920291 -0.026373247
0.027276672 -0.015287562 0.008805733 -0.033455085 0.022594465 0.039421942 -0.004542518 -0.026672868
-0.06918143 -0.054370854 -0.011317383 -0.0953102 -0.040751945 -0.051392697 0.019205375 -0.046174604
-0.03222706 -0.042211026 0.036481675 0.029516162 0.0016996863 0.016760522 0.021391138 -0.07782862
-0.034811947 -0.06449464 0.069120504 0.013500759 0.059654318 -0.03355668 0.021055076 -0.04999408
0.060216527 -0.031588934 0.05457021 -0.042505432 -0.06100437 -0.07978471 0.06556574 0.006854572
0.04471883 -0.037687954 -0.03977462 -0.055742987 -0.06391161 0.0069786715 -0.029269356 0.026169201
0.0472979 -0.058079343 -0.035479594 0.07455181 -0.06063627 0.064432494 0.06014153 0.07926005
-0.046958663 -0.050866753 -0.030922916 0.022676548 0.0060969843 -0.003178781 -0.083174184 -0.03422599
0.046629526 0.06236892 -0.04897175 0.021851681 0.06086492 0.08118596 0.056892864 -0.031120738
-0.053452082 0.07264365 0.057375263 0.05586561 -0.006860109 -0.03198762 0.0071317605 -0.038087625
0.07069389 0.019144267 -0.038791385 -0.05289766 -0.018547371 0.00661031 -0.035669003 0.0043694433
-0.04995157 -0.066279374 -0.069240704 -0.044817545 -0.024543384 0.022133783 -0.056187924 -0.016025582
-0.042464793 0.012081702 0.03247326 -0.06646778 0.067474365 0.04778429 -0.043230277 0.038897783
0.04169698 0.02339465 -0.055600874 0.033087235 -0.0071831034 -0.017806282 -0.06442249 -0.018585376
0.017526971 -0.04428519 -0.077306 -0.041691087 0.020731704 -0.052290633 -0.016052822 -0.014792297
0.025863329 -0.041754354 -0.004671251 -0.025469158 -0.055639397 -0.009914235 -0.033926703 -0.047146857
-0.061920732 0.06673785 -0.03570323 -0.042915355 -0.01158018 -0.031302422 -0.038101915 -0.042044275
0.046246786 -0.053557303 0.021563439 -0.059084043 -0.08178279 0.039586294 0.057815805 -0.029515745
0.023343574 0.03263227 0.027485786 0.030289084 0.068028495 -0.0100708585 -0.061092738 -0.024184998
-0.03932924 -0.068011224 -0.048079766 0.04293427 -0.06342108 -0.05626614 0.0071070287 0.048038658
0.05152562 0.011945682 0.02722643 0.029891422 -0.006481575 -0.08600918 0.017628008 -0.050743673
0.034217764 -0.007489958 0.059183154 -0.035470504 0.026798269 -0.07303566 -0.04826703 -0.0055013695
-0.012702917 0.023508247 -0.051253054 0.048404075 0.07534824 0.055903792 -0.006480716 -0.031430133
0.032001376 0.10724289 0.05475831 -0.065939546 0.077350534 0.01370859 0.015554848 -0.07993308
00000000: 0d96 f23c 7e5e 42bd c5e3 4ebd cc60 b5bd
00000010: e0b9 c9bb 4cb0 75bd 3752 483d 5d77 b2bc
00000020: eb29 23bd 9cc3 abbd d3b0 e4bd e205 9cbb
00000030: 661d 5dbd 36f1 69bd 181f 863b a703 de3c
00000040: 88a8 37bd 8cb1 33bd 15b5 6d3d e7b8 923d
00000050: ce98 5abd 9806 1c3d 5c93 973b c898 8a3d
00000060: f84c 693d f079 56bd 6418 64bd 32d8 85bd
00000070: f39a 56bd 9851 61bc 0177 183d ab17 0ebc
00000080: a844 813d ef82 f93c b265 8c3d 909b 293c
00000090: 1d3e a13c 572b 123c 276c 813d 326d b4bd
000000a0: d2b0 43bd f45d ebba 609b 85bd dfe9 823c
000000b0: e782 bb3c 726f 4b3d 6404 3dbd b037 5e39
000000c0: 9d2d a53c 4297 983c 8374 953c bfbb ddbc
000000d0: 4e59 6e3c 1c1d 4abd 7a74 94bd 89e4 c8bc
000000e0: 4c84 a83d 6993 c2bd f3d9 6c3c c4ab 5d3c
000000f0: 40ac 04bd ce2c 2bbd 6c4f 9d3c b50c d8bc
00000100: 5473 df3c af78 7abc ec45 103c 3308 09bd
00000110: 0718 b93c e778 213d 67d9 94bb 0f81 dabc
00000120: feae 8dbd f9b3 5ebd 8b6c 39bc fe31 c3bd
00000130: 83eb 26bd 2681 52bd 9754 9d3c 9521 3dbd
00000140: 8600 04bd 78e5 2cbd cf6d 153d e1cb f13c
00000150: 02c8 de3a 5d4d 893c 783c af3c 9d64 9fbd
00000160: f996 0ebd c415 84bd 0d8f 8d3d 4a32 5d3c
00000170: 1658 743d bb72 09bd b27b ac3c 98c6 4cbd
00000180: 9ba5 763d 6663 01bd 0385 5f3d 2d1a 2ebd
00000190: b8df 79bd 2b66 a3bd 5547 863d 519c e03b
000001a0: 182b 373d af5e 1abd b6ea 22bd c252 64bd
000001b0: 17e4 82bd 57ad e43b 4ac6 efbc cb60 d63c
000001c0: 71bb 413d 9be4 6dbd 0d53 11bd 9fae 983d
000001d0: bd5d 78bd 2ff5 833d f756 763d 1853 a23d
000001e0: ba57 40bd a859 50bd 0e52 fdbc 2bc4 b93c
000001f0: 36c9 c73b 1853 50bb 3a57 aabd 8d30 0cbd
00000200: 9afe 3e3d 8d76 7f3d 9a96 48bd 4c02 b33c
00000210: 7f4d 793d d344 a63d 7e08 693d ebf0 febc
00000220: 92f0 5abd 32c6 943d 5302 6b3d 56d3 643d
00000230: c4ca e0bb 7305 03bd 8bb1 e93b c501 1cbd
00000240: f5c7 903d 70d4 9c3c b7e3 1ebd 37ab 58bd
00000250: a8f0 97bc 4d9b d83b a919 12bd 8c2d 8f3b
00000260: 049a 4cbd 7bbd 87bd 12ce 8dbd 9a92 37bd
00000270: 350f c9bc e851 b53c 4f25 66bd 1548 83bc
00000280: 90ef 2dbd 55f2 453c ae02 053d 4220 88bd
00000290: 0030 8a3d 76b9 433d 3b12 31bd 4853 1f3d
000002a0: 74ca 2a3d 23a6 bf3c bebd 63bd 7b86 073d
000002b0: 3d60 ebbb 7bde 91bc f0ef 83bd 5c40 98bc
000002c0: b994 8f3c 6364 35bd 9c52 9ebd 46c4 2abd
000002d0: 89d5 a93c b42e 56bd 3581 83bc 645b 72bc
000002e0: 55df d33c 9d06 2bbd 4b11 99bb b2a4 d0bc
000002f0: 23e6 63bd 516f 22bc baf6 0abd 101d 41bd
00000300: 98a0 7dbd dbad 883d 8d3d 12bd 03c8 2fbd
00000310: ccba 3dbc f836 00bd c110 1cbd 9e36 2cbd
00000320: 456d 3d3d e75e 5bbd cfa5 b03c 1c02 72bd
00000330: bc7d a7bd 3d25 223d 44d0 6c3d 01cb f1bc
00000340: 063b bf3c 6aa9 053d df29 e13c d020 f83c
00000350: 8652 8b3d 3e00 25bc 613c 7abd 9e1f c6bc
00000360: b217 21bd 7849 8bbd 4aef 44bd d8db 2f3d
00000370: e9e2 81bd 5377 66bd 14e2 e83b 2fc4 443d
00000380: 870c 533d d2b7 433c f609 df3c dbde f43c
00000390: 6463 d4bb 9525 b0bd 9d68 903c 99d8 4fbd
000003a0: ed27 0c3d 526e f5bb 096a 723d 8549 11bd
000003b0: 0b88 db3c b893 95bd a6b3 45bd d544 b4bb
000003c0: e51f 50bc 5e94 c03c b9ee 51bd 5a43 463d
000003d0: 2e50 9a3d 60fb 643d 305c d4bb e2bc 00bd
000003e0: e013 033d 29a2 db3d 404a 603d 500b 87bd
000003f0: f569 9e3d fe99 603c c3d9 7e3c f4b3 a3bd
