inventory/ark_material.onnx (onnx, 404169 bytes, 8 tensors)

35 f4 [32, 3, 5, 5]
0	0x3e9df12e	0.30848068
1	0xbddbad42	-0.10726406
2	0x3e460e25	0.19341333
3	0xbe78e1a5	-0.24304827
4	0xbcf3fb56	-0.029782932
5	0x3ecc1882	0.39862448
6	0xbcca841a	-0.024721194
7	0x3f052a34	0.5201752
8	0x3cc8676b	0.024463376
9	0x3cb072ba	0.02153908
10	0x3e164309	0.1467401
11	0xbd90981e	-0.07060264
12	0xbeb00185	-0.3437616
13	0x3e8f1a73	0.27949867
14	0x3e9312c9	0.2872527
15	0x3dead708	0.11466795
16	0xbd77e45a	-0.060520507
17	0x3ed74db3	0.42051467
18	0x3dbff4b5	0.09372846
19	0x3e344723	0.17605262
20	0x3ec57099	0.38562468
21	0xbeaa0670	-0.33208036
22	0xbea48070	-0.3212924
23	0x3d575d1a	0.052579023
24	0x3d328066	0.04357948
25	0xbe6e216a	-0.23254934
26	0xbed8580e	-0.4225468
27	0x3d27ec6d	0.040996958
28	0xbe3b3375	-0.18281348
29	0x3c26c52f	0.010178848
30	0x3eb41f80	0.35180283
31	0x3e2148f0	0.1575048
32	0xbe0691a6	-0.13141498
33	0xbe07f1a2	-0.1327577
34	0x3ebfc352	0.37453705
35	0xbd8626d8	-0.065503776
36	0x3e888b7d	0.2666892
37	0x3d34a537	0.044102874
38	0x3e8b40fa	0.2719801
39	0x3e272891	0.16324069
40	0xbea6be09	-0.3256686
41	0xbe0b00df	-0.13574551
42	0x3db3a550	0.08771765
43	0xbeaa3b0b	-0.3324817
44	0x3d4b3482	0.049610622
45	0xbc5187f4	-0.012788761
46	0xbe28e221	-0.16492511
47	0xbe6bdb8f	-0.23032974
48	0x3d93a9a4	0.07210091
49	0x3eb5b8d4	0.35492575
50	0x3e458116	0.19287524
51	0x3e3e8463	0.18605189
52	0x3e3ec2bf	0.18628977
53	0xbe46a0c1	-0.1939726
54	0x3e1a2413	0.15052824
55	0x3e747152	0.23871353
56	0x3d6785b5	0.056523997
57	0x3eccedcf	0.40025184
58	0x3f02fe05	0.51168853
59	0x3da5dc28	0.08098632
60	0xbe02c73b	-0.12771313
61	0x3de0438f	0.10950386
62	0xbe6db3ce	-0.23213121
63	0x3e21f581	0.15816309
64	0x3e472e62	0.19451287
65	0x3e9e8ca6	0.3096668
66	0xbe9c8e48	-0.30577302
67	0x3ec8a847	0.39190885
68	0xbec0251e	-0.37528318
69	0x3e8489d5	0.25886407
70	0x3e21c7f0	0.15798926
71	0xbe72c6aa	-0.23708597
72	0x3eb4e074	0.35327494
73	0xbdc679bb	-0.09691187
74	0x3e324e23	0.1741262
75	0x3f6234f5	0.88362056
76	0xbd9b83b0	-0.07593477
77	0x3ea5acf5	0.32358518
78	0x3f40174f	0.75035566
79	0xbe52a03c	-0.20568937
80	0xbf03205b	-0.51221246
81	0xbe4747c7	-0.19460975
82	0xbeae98ea	-0.3410104
83	0x3e9914b6	0.29898614
84	0x3f6d29f5	0.92642146
85	0xbf64c92c	-0.89369464
86	0xbe89bb68	-0.26900792
87	0xbf1d6359	-0.6147972
88	0x3ec4fc27	0.38473627
89	0x3f46c264	0.77640367
90	0xbe508c65	-0.20366056
91	0xbe118498	-0.14210737
92	0xbf82a5ac	-1.0206809
93	0xbef74213	-0.48292598
94	0x3f62580b	0.8841559
95	0x3f06b2f0	0.52616787
96	0x3f44b22b	0.7683436
97	0xbf5c1dce	-0.8598298
98	0xbe22e942	-0.15909293
99	0x3c21bcdd	0.009871689
100	0xbe9a1f69	-0.3010209
101	0xbdc0b2f9	-0.09409136
102	0x3e5ee1d5	0.21765836
103	0xbe478278	-0.19483364
104	0x3e151805	0.14559944
105	0xbe72cd34	-0.23711091
106	0x3d0f82af	0.03503674
107	0xbefdd52d	-0.49576703
108	0xbe8e2899	-0.2776535
109	0xbf397d9b	-0.72457284
110	0xbf5dea72	-0.8668586
111	0xbf007c67	-0.5018982
112	0x3e53fc90	0.20701814
113	0x3f8445ae	1.0333765
114	0xbe8b4107	-0.2719805
115	0x3e9ed98a	0.31025344
116	0xbc47377b	-0.012159224
117	0x3ebde04d	0.3708519
118	0x3d374a9d	0.04474889
119	0x3ee32b14	0.44368804
120	0x3dea1b6d	0.11431012
121	0x3edcf6e4	0.43157113
122	0x3ec48a6a	0.38386852
123	0xbf33fef4	-0.703109
124	0x3f5d108b	0.8635337
125	0xbee7e629	-0.45292786
126	0xbf20e615	-0.6285108
127	0x3f57acbd	0.8424795
128	0xbeb8c881	-0.36090472
129	0xbeb5a11e	-0.35474485
130	0xbf897dd3	-1.0741524
131	0xbeaeaf48	-0.34118104
132	0x3f67ce70	0.90549374
133	0xbebe7f82	-0.37206656
134	0x3f763da2	0.96187794
135	0xbf2593c5	-0.64678603
136	0x3ed681a6	0.4189579
137	0x3d6e30b7	0.058151927
138	0x3f693c45	0.9110759
139	0x3e854c43	0.26034746
140	0x3f559d84	0.83443475
141	0xbf4bd702	-0.7962495
142	0x3f0101a9	0.5039316
143	0x3f8677fa	1.0505364
144	0xbe989cd0	-0.29807138
145	0xbe4be984	-0.19913298
146	0xbf979144	-1.1841207
147	0x3f18e8ad	0.59730035
148	0x3da25a4d	0.0792738
149	0xbe1bcbd1	-0.15214469
150	0x3e89072c	0.26763284
151	0x3e5afdf4	0.21385938
152	0xbe351216	-0.1768268
153	0x3ee21835	0.44159093
154	0x3d075ef1	0.033049528
155	0xbef54eea	-0.4791177
156	0xbe86c7f1	-0.26324418
157	0xbec5d494	-0.38638747
158	0xbebf7a11	-0.37397817
159	0x3ed0ed9b	0.4080628
160	0xbe293828	-0.16525328
161	0xbe918f34	-0.28429568
162	0x3dc45fcb	0.095885836
163	0xbe837438	-0.25674605
164	0x3e52e8fa	0.20596686
165	0xbe0abcf5	-0.13548644
166	0xbe32edd8	-0.17473543
167	0xbe58eba3	-0.21183638
168	0xbe72f948	-0.23727906
169	0x3e294146	0.16528806
170	0xbef6abfe	-0.48178095
171	0x3e89b1c4	0.26893437
172	0xbdd7d25e	-0.10538171
173	0xbe43a377	-0.19105326
174	0xbea44dc2	-0.32090575
175	0x3eda753e	0.42667574
176	0x3e2a8c83	0.16655163
177	0xbbdb1a5c	-0.006686492
178	0xbd908619	-0.07056827
179	0xbe0118cb	-0.12607114
180	0xbe8140e1	-0.2524481
181	0xbed778c0	-0.42084312
182	0xbe765cc6	-0.24058828
183	0xbeab14ef	-0.3341441
184	0xbea9fa41	-0.3319874
185	0xbe5c1080	-0.21490669
186	0xbdc42e97	-0.09579199
187	0xbd90a1f8	-0.07062143
188	0xbecb6936	-0.39728707
189	0x3eb564b0	0.3542838
190	0x3e378ed6	0.17925581
191	0xbdcb6ce7	-0.09932881
192	0xbee7e4bf	-0.45291707
193	0xbd8b52e1	-0.06802917
194	0xbe9451c1	-0.28968623
195	0xbe955101	-0.29163364
196	0xbe3cc91a	-0.18436089
197	0xbc53807a	-0.012909049
198	0x3dd45db8	0.10369438
199	0xbec29550	-0.3800454
200	0x3ec6d45d	0.38833895
201	0xbe996709	-0.29961422
202	0x3e19959e	0.1499848
203	0xbe78c912	-0.24295452
204	0x3e0c3c06	0.13694772
205	0x3eca4f83	0.39513788
206	0xbecdc1a8	-0.4018681
207	0xbe8777a7	-0.26458475
208	0xbdee5d1d	-0.11638854
209	0xbe1a7bb5	-0.15086253
210	0xbeba1daf	-0.36350772
211	0x3ebf12fb	0.37319168
212	0x3e52c87e	0.20584294
213	0x3e6349ed	0.22196169
214	0x3ea74708	0.3267138
215	0x3e566a61	0.20939018
216	0x3ecfee84	0.4061166
217	0xbea01cc1	-0.31271937
218	0x3ec48ec0	0.3839016
219	0x3e382ef7	0.17986666
220	0x3e6f944a	0.23396412
221	0xbd407eb9	-0.046995852
222	0xbd9058de	-0.070482
223	0x3ee0b0fa	0.43885022
224	0xbe79af53	-0.24383287
225	0x3e679829	0.22616638
226	0xbf149b54	-0.5804951
227	0xbe7831a4	-0.24237686
228	0x3d669515	0.05629452
229	0xbf40def8	-0.75340223
230	0x3e821af4	0.2541119
231	0xbe6fbeb6	-0.23412594
232	0xbea90f06	-0.33019274
233	0x3e52a0b5	0.20569117
234	0xbecb1284	-0.39662564
235	0x3f39c822	0.72571003
236	0xbd915397	-0.070960216
237	0xbe1e44e1	-0.15455963
238	0xbf5a0d21	-0.85176283
239	0xbedc9105	-0.4307939
240	0xbf110e48	-0.56662416
241	0xbf1948e9	-0.5987688
242	0xbf162811	-0.58654886
243	0x3d8e8ce9	0.0696047
244	0xbee91daa	-0.45530444
245	0xbe013931	-0.12619473
246	0xbe93bb01	-0.2885361
247	0x3ed1ad36	0.40952462
248	0xbe9a8c10	-0.30184984
249	0xbde49375	-0.11160938
250	0x3f4118e7	0.7542862
251	0x3ee3acdb	0.44467816
252	0x3f162304	0.5864718
253	0xbee56449	-0.44803074
254	0xbe8aeb2b	-0.27132544
255	0x3efbb959	0.49164847

36 f4 [32]
0	0xbff7fa2f	-1.9373225
1	0xbf2ac66e	-0.6670903
2	0x3fc9ce9f	1.5766181
3	0x3f9ab9cf	1.2087954
4	0x3fea04e0	1.8282738
5	0x3e1aad74	0.1510523
6	0x3f1ab652	0.6043445
7	0xbee46cb8	-0.44614196
8	0x3fcd3f8e	1.603502
9	0x3f86c6e1	1.0529443
10	0x3fdab9e8	1.7087984
11	0x3f9fc7ca	1.2482846
12	0xbf8f18ad	-1.1179405
13	0xbeeb6705	-0.45977035
14	0x3e824e68	0.25450444
15	0xbf3b7681	-0.732277
16	0xbffadece	-1.9599245
17	0xbffca90a	-1.9739087
18	0x3e6e12f1	0.23249413
19	0xbf69c37c	-0.9131391
20	0x3e0f6f94	0.14007407
21	0x3f855457	1.0416363
22	0x3fa0a2c5	1.2549673
23	0xbfa6b1d9	-1.3023025
24	0x3f6fca9f	0.9366855
25	0x3e8b3a87	0.2719309
26	0xbdc7a0ea	-0.09747489
27	0x3ff6183b	1.9226145
28	0xbc8dd480	-0.017313242
29	0xbfde32b2	-1.7359221
30	0xbf2d217a	-0.67629206
31	0xbfe07f36	-1.7538822

38 f4 [32, 32, 3, 3]
0	0x3ca03a01	0.019558908
1	0x3e6d8ae1	0.2319751
2	0x3e81f49f	0.25381944
3	0xbec042be	-0.3755092
4	0x3ec51d60	0.38498974
5	0x3e9ee25b	0.3103207
6	0xbac1d52d	-0.0014788263
7	0x3c9134ac	0.017725311
8	0xbd8d8c9c	-0.06911585
9	0xbd8e3fdd	-0.06945775
10	0x3e05f8c2	0.13083175
11	0x3e12dcdc	0.14342064
12	0xbe05b6f5	-0.13058074
13	0x3f3755c5	0.7161525
14	0x3e444b8d	0.19169445
15	0x39e79990	0.00044174166
16	0x3eca85d8	0.3955524
17	0xbdb63b58	-0.08898038
18	0xbec3c728	-0.38237882
19	0x3da536d0	0.08067095
20	0x3d61337e	0.054980747
21	0xbea2a057	-0.31762955
22	0xbe648096	-0.22314677
23	0x3d89fe22	0.06737925
24	0x3d607922	0.05480302
25	0x3e4eb6f2	0.20186976
26	0x3de5df02	0.11224176
27	0x3da25637	0.079266004
28	0x3f221dd9	0.63326794
29	0xbe737f1b	-0.23778956
30	0xbe73311c	-0.23749202
31	0xbe84b865	-0.25921932
32	0xbefa58df	-0.48895928
33	0xbf0830e9	-0.5319963
34	0xbdb74e12	-0.089504376
35	0xbe6d9721	-0.23202182
36	0xbef0b19e	-0.4701051
37	0xbe263184	-0.16229826
38	0x3d96c1eb	0.07361206
39	0x3ea90b30	0.33016348
40	0x3e1ee7fc	0.15518183
41	0xbdb8bec6	-0.09020762
42	0x3e2ebdd0	0.17064595
43	0xbeb3b137	-0.35096142
44	0x3d5f49a5	0.054513592
45	0xbed02baa	-0.40658313
46	0xbdc09fed	-0.094055034
47	0xbe5a1bf4	-0.21299726
48	0xbdc6df1b	-0.09710523
49	0x3ddc794f	0.10765325
50	0xbe6037eb	-0.21896331
51	0x3e5b31db	0.21405737
52	0x3ed576e7	0.41692278
53	0x3f285060	0.6574764
54	0x3d1906b5	0.037359912
55	0xbe266601	-0.16249849
56	0x3dabddac	0.0839189
57	0x3e2fd489	0.1717092
58	0x3ea592bb	0.3233851
59	0x3e442efb	0.19158547
60	0x3d131a36	0.03591367
61	0x3d6499c4	0.055810705
62	0xbd933991	-0.07188714
63	0xbdeb8b54	-0.11501184
64	0x3e94fcbc	0.2909907
65	0x3dd00502	0.10157205
66	0x3e52be73	0.20580463
67	0xbe51a1f5	-0.20471938
68	0xbf29c810	-0.66320896
69	0xbe668553	-0.22511797
70	0xbf2e98c5	-0.6820186
71	0xbe706814	-0.23477203
72	0xbd825e2f	-0.0636562
73	0xbd746e6d	-0.059675623
74	0xbeb6278e	-0.35577053
75	0x3c6157f3	0.013753879
76	0xbe375640	-0.17903996
77	0x3e46342c	0.1935584
78	0x3a9521c9	0.0011377867
79	0x3f0333d3	0.5125095
80	0x3e84670f	0.25859877
81	0xbd8dc6fa	-0.069227174
82	0xbdf17afe	-0.11791037
83	0xbd528d3e	-0.05140423
84	0xbea3ada3	-0.31968412
85	0x3eac180f	0.33612105
86	0xbd8333e1	-0.064063795
87	0x3ec46c80	0.3836403
88	0x3e485cf8	0.19566715
89	0x3f0ce727	0.5504021
90	0xbe55d747	-0.20882903
91	0xbe8b1535	-0.27164617
92	0xbddb5512	-0.10709585
93	0x3e05be03	0.13060765
94	0xbdeeb7a6	-0.11656122
95	0x3e424463	0.189714
96	0x3ea8a8da	0.32941324
97	0x3eaaf065	0.3338653
98	0x3e94621d	0.28981104
99	0x3e68879e	0.22707984
100	0x3e661832	0.22470167
101	0xbe3cc880	-0.1843586
102	0xbc756d51	-0.014979676
103	0xbdcc6acb	-0.09981307
104	0xbdf2ada7	-0.11849528
105	0x3ce21d95	0.027601996
106	0x3e3496d1	0.17635657
107	0x3eb8cbb6	0.3609292
108	0xbeda5e4c	-0.42650068
109	0xbeb5edd4	-0.3553301
110	0x3dbbdec2	0.09173347
111	0x3e87cd88	0.26523995
112	0x3dc6d299	0.09708137
113	0x3d853f57	0.06506222
114	0xbe8c4dbc	-0.27403057
115	0xbd723164	-0.059129134
116	0x3e5e358b	0.21700113
117	0x3cca0782	0.024661783
118	0xbdbe4bec	-0.09291825
119	0xbe4d5b6c	-0.20054406
120	0x3ec7a5ff	0.38993832
121	0xbef13237	-0.47108623
122	0xbea209cc	-0.316481
123	0x3e286bb2	0.16447333
124	0xbf1f2440	-0.6216469
125	0xbeba9db6	-0.3644845
126	0xbe0200ad	-0.1269557
127	0xbe9681f4	-0.2939602
128	0xbe13f7e0	-0.14450026
129	0xbe5e16df	-0.21688412
130	0xbe20b085	-0.15692337
131	0x3df49348	0.11942154
132	0x3b796863	0.0038056604
133	0x3c9241ac	0.01785358
134	0x3e5b0b2a	0.21390978
135	0xbea38b2f	-0.31942126
136	0x3dde66e6	0.1085947
137	0x3cd09096	0.025459569
138	0x3be66e77	0.0070322114
139	0x3c766549	0.015038797
140	0x3efed6ba	0.49773198
141	0x3e682e20	0.22673845
142	0xbd0af6c5	-0.033926744
143	0x3ea2cb8b	0.31795916
144	0x3e22c131	0.15894009
145	0xbe234aa7	-0.15946446
146	0xbc897b0b	-0.016782304
147	0x3e1c6cad	0.15275832
148	0x3e73388e	0.23752043
149	0xbcb9c6fb	-0.02267789
150	0xbe7a019e	-0.2441468
151	0xbb9714bc	-0.004610626
152	0x3e017ea9	0.12645973
153	0x3e235449	0.15950121
154	0xbea8cd29	-0.32969025
155	0xbe0bb4d3	-0.13643198
156	0x3ea89835	0.32928625
157	0xbe35b2ff	-0.17744063
158	0xbdb22f9a	-0.087004855
159	0x3eada2cf	0.33913276
160	0x3f0e5cd3	0.5561039
161	0x3d5c57f8	0.05379483
162	0x3e9bf73b	0.3046206
163	0x3e990960	0.29889965
164	0x3e98db33	0.29854736
165	0xbe15b290	-0.14618897
166	0xbd79a46c	-0.06094782
167	0xbe8ca153	-0.2746683
168	0xbdbe5b81	-0.09294797
169	0x3e6ad4ed	0.22932787
170	0x3d640397	0.055667486
171	0x3e90483c	0.2818011
172	0x3cc76c50	0.02434364
173	0x3d7f06e4	0.06226243
174	0x3ed53c00	0.4164734
175	0xbe7c7440	-0.24653721
176	0x3cc70979	0.02429651
177	0xbdb3a424	-0.08771542
178	0xbe907694	-0.28215468
179	0xbe6e49bd	-0.23270316
180	0xbe4a54a3	-0.19758849
181	0x3ea066c4	0.31328404
182	0xbeb9fcdd	-0.36325732
183	0x3e55fb3e	0.20896623
184	0xbe18c909	-0.14920439
185	0x3eeb621b	0.45973286
186	0x3ee4fb76	0.447231
187	0x3e6ecaa2	0.23319486
188	0x3eacd780	0.33758163
189	0x3eb2f910	0.34955645
190	0xbda8f094	-0.08249012
191	0xbde830eb	-0.11337455
192	0xbbc5b76f	-0.00603383
193	0x3eb00472	0.34378392
194	0x3e8fcbf5	0.28085294
195	0x3e873c02	0.2641297
196	0x3edc1fcf	0.42993018
197	0x3ed07c63	0.407199
198	0xbe288f0c	-0.16460818
199	0x3e8aee35	0.27134863
200	0x3d860a19	0.06544895
201	0xbf018389	-0.5059133
202	0xbdd1c01e	-0.102417216
203	0x3f0ef1de	0.5583781
204	0x3dc354d3	0.09537663
205	0xbe0d3875	-0.13791068
206	0x3eb223c1	0.34792903
207	0x3d90d897	0.07072561
208	0x3e7f4557	0.24928795
209	0x3e13d856	0.14437994
210	0x3e9ebe01	0.31004336
211	0x3e0031c1	0.1251898
212	0x3e1ed014	0.15509063
213	0x3cc946f4	0.024569966
214	0x3ec8136c	0.39077318
215	0x3e18ba64	0.14914852
216	0x3ef592d1	0.47963575
217	0x3e1c3b47	0.15256988
218	0x3c54192f	0.012945457
219	0x3e1b9d25	0.15196665
220	0xbeb9b044	-0.36267292
221	0xbe1a1a6d	-0.15049143
222	0x3ec191ba	0.37806493
223	0xbdb1d8e4	-0.08683947
224	0xbeb7ca69	-0.35896614
225	0x3d6e864d	0.058233548
226	0x3c81cab0	0.01584372
227	0x3eb9cb49	0.36287907
228	0xbe0cb183	-0.1373959
229	0xbe13ba32	-0.14426497
230	0x3eaf06d9	0.34184912
231	0xbe04e3cc	-0.12977523
232	0xbde24123	-0.1104758
233	0x3ddbe605	0.10737232
234	0xbd936cdb	-0.07198497
235	0x3e6f71ee	0.23383304
236	0x3ecf4826	0.40484732
237	0x3d98a65b	0.07453605
238	0x3d0aa8ea	0.033852495
239	0xbd8879f7	-0.06663888
240	0xbda355b7	-0.07975333
241	0xbd919b74	-0.071097285
242	0x3e174719	0.14773215
243	0x3e58e80a	0.21182266
244	0x3e90dc46	0.28293055
245	0xbecdac39	-0.40170458
246	0x3df9ea3e	0.12202881
247	0x3f06c148	0.52638674
248	0x3dd3f9c3	0.10350373
249	0x3e7e0a4c	0.24808615
250	0x3eb5dc33	0.3551956
251	0xbe908312	-0.28225
252	0xbe3d0698	-0.18459547
253	0xbc33a170	-0.010963783
254	0xbea0dce3	-0.31418523
255	0x3e720cd7	0.2363771

39 f4 [32]
0	0xc032b6c5	-2.7924054
1	0x3f069f36	0.52586687
2	0x3fdf302a	1.7436574
3	0x403d4203	2.957154
4	0xc01fd4d5	-2.4973652
5	0x3f478d3c	0.7794988
6	0xbd83d946	-0.06437926
7	0x3f798b50	0.974782
8	0x3ff6fab8	1.9295263
9	0xc0610439	-3.5158827
10	0xbfcb2822	-1.5871623
11	0x3e55db52	0.20884445
12	0x402d448e	2.7073092
13	0x3ee26c20	0.44223118
14	0x3fa5a7cd	1.2941834
15	0x40250e82	2.5790105
16	0x3f4d00ce	0.8007935
17	0x4052323b	3.2843158
18	0xc028df68	-2.6386356
19	0x3eeceb3e	0.46273226
20	0xbeb874be	-0.36026567
21	0xbe940df6	-0.289169
22	0x4057e2a1	3.3732073
23	0x3fb1c9bb	1.3889688
24	0xbfc9588a	-1.5730145
25	0xbf9e7bd7	-1.2381543
26	0xbfb9e1af	-1.4521998
27	0x3f613492	0.8797084
28	0x401479ae	2.3199267
29	0xbdca4d24	-0.09877995
30	0xbe0854c2	-0.13313583
31	0x3f8a87aa	1.0822651

fc.0.bias f4 [312]
0	0xbd4a1ff1	-0.049346868
1	0xbd135f3c	-0.035979494
2	0x3dfdddc3	0.12395813
3	0x3bfcd3b4	0.0077156667
4	0x3bfefa21	0.0077812825
5	0x3d8d69fb	0.0690498
6	0x3d651118	0.055924505
7	0x3dbc3305	0.09189419
8	0xbc341005	-0.0109901475
9	0x3bfcb6be	0.0077122143
10	0x3bc792cd	0.006090498
11	0xbd0f2356	-0.03494581
12	0x3dab5a01	0.08366776
13	0x3d54b146	0.051926874
14	0xbb82451c	-0.0039755236
15	0x3b3a9e6d	0.0028475777
16	0x3de06463	0.10956647
17	0xbd36c77f	-0.044623848
18	0x3ca92e08	0.020651832
19	0x3d536bb9	0.051616404
20	0x3d73c672	0.059515424
21	0x3dbb6101	0.091493614
22	0x3dc7ae88	0.09750086
23	0x3d749f7b	0.059722405
24	0xbc10b03f	-0.008831083
25	0x3e0e9ad2	0.13926247
26	0xbc6f378f	-0.014600649
27	0x3c70d650	0.014699534
28	0xbd339d65	-0.043851275
29	0x3dc0d3eb	0.0941542
30	0x3d91e840	0.07124376
31	0x3cdd886d	0.027042592
32	0xba5571c2	-0.00081422564
33	0x3dc00162	0.09375264
34	0x3d8abc3a	0.067741826
35	0xbcb7d6ea	-0.022441346
36	0xb9e52660	-0.00043706875
37	0xbba3d05e	-0.0049992045
38	0x3bed639c	0.0072445404
39	0x3ccf8766	0.025333118
40	0xbc0330b5	-0.008007218
41	0x3dc6dafe	0.09709738
42	0x3dd555f4	0.10416785
43	0xbd4ed935	-0.050500114
44	0x3d3eb51a	0.04655943
45	0x3d8de824	0.06929043
46	0x3c4bf539	0.012448602
47	0x3c17a289	0.00925506
48	0x3ce1216e	0.02748176
49	0x3c845aee	0.01615664
50	0xbd19a221	-0.037508134
51	0x3ddd9480	0.1081934
52	0x3d9a8413	0.075447224
53	0x3d8ec443	0.06971028
54	0xbd138f07	-0.036025073
55	0x3d7624a3	0.060093533
56	0x3dcc3c2b	0.09972414
57	0xbd3a600e	-0.04550176
58	0x3de4523b	0.11148497
59	0x3c99ea7d	0.01878857
60	0x3d9e4f20	0.07729936
61	0xbc0417a7	-0.00806228
62	0xbd08b508	-0.03337577
63	0x3dae38ec	0.08506951
64	0x3e0b5aa6	0.13608798
65	0x3c8f9036	0.01752482
66	0xbca1800e	-0.019714382
67	0x3d57f1c0	0.052720785
68	0x3cdcd011	0.026954683
69	0x3dade128	0.08490211
70	0x3d4721c8	0.0486162
71	0x3d0d3739	0.034476493
72	0x3d9b80e3	0.075929426
73	0x3d4bec68	0.049786
74	0x3c94a332	0.018144224
75	0xbd048aaf	-0.03235882
76	0x3d06e774	0.032935575
77	0xbca39e54	-0.019972958
78	0x3daae784	0.08344939
79	0x3dc48486	0.09595589
80	0xbd122cb5	-0.035687167
81	0x3d351be8	0.044216067
82	0x3dd85ba3	0.10564353
83	0x3d039239	0.03212187
84	0x3dd881c2	0.10571624
85	0x3be4ae96	0.00697882
86	0x3d107aa5	0.035273213
87	0x3c72db12	0.014822738
88	0x3b9c7265	0.004774379
89	0x3de74b55	0.11293665
90	0x3d9bb21f	0.07602333
91	0x3ddf851d	0.10914061
92	0xbb27cb58	-0.002560338
93	0x3e019c31	0.12657239
94	0x3b05408a	0.0020332658
95	0xbc9eed51	-0.01940027
96	0x3d818658	0.06324452
97	0x3de57a33	0.11204948
98	0x3d7ddf9b	0.061980825
99	0x3c8d3d09	0.017241018
100	0xbd51cd4e	-0.051221184
101	0x3d441d0e	0.04787927
102	0x3d95c416	0.07312791
103	0x3d67e39e	0.056613557
104	0x3dc359cd	0.095386125
105	0x3d8a91c5	0.067660846
106	0xbc1ec5ae	-0.009690685
107	0x3ce7e59e	0.028307732
108	0x3ce67590	0.02813223
109	0x3cf9636f	0.030442921
110	0xbcf5b5aa	-0.02999385
111	0x3d455cf5	0.048184354
112	0x3d082da8	0.033246666
113	0x3daa591d	0.08317778
114	0xbc83ff73	-0.016113019
115	0x3ca12283	0.019669777
116	0x3d7f5739	0.06233904
117	0x3a38915b	0.00070407026
118	0x3dafd95c	0.0858638
119	0x3d0d862b	0.03455178
120	0x3d8ef6c9	0.06980664
121	0xbcda53b6	-0.026651245
122	0x3d56e7f9	0.05246732
123	0xbbb71f23	-0.0055884286
124	0x3db68ba1	0.08913351
125	0x3dc329e3	0.09529474
126	0x3d5ffb67	0.054683115
127	0x3cdb8c65	0.026800344
128	0x3d217299	0.03941593
129	0x3d8754e8	0.066079915
130	0x3d6b3a62	0.057428725
131	0x3c591ec2	0.013251962
132	0x3d60a33c	0.054843172
133	0x38ddba40	0.00010572793
134	0x3d2013c2	0.039081343
135	0x3dc76e9d	0.09737895
136	0x3da1242e	0.07868229
137	0x3c0b29ae	0.008493824
138	0x3d00809d	0.031372655
139	0x3c2732f0	0.010205016
140	0x3db8741d	0.09006522
141	0x3db5791e	0.08860992
142	0x3ce4c45d	0.027925665
143	0x3d6de9d6	0.05808433
144	0x3bf1a05e	0.0073738536
145	0x3d45a9ca	0.048257627
146	0x3db549ae	0.08851944
147	0xbabf2263	-0.0014582392
148	0xbc908aab	-0.017644247
149	0xbc27e78a	-0.010248074
150	0xbc73dc63	-0.014884087
151	0x3b64cf2c	0.0034913523
152	0xbd0005d1	-0.031255547
153	0x3cb4d320	0.022073328
154	0x3dd36449	0.10321862
155	0x3df2a0cb	0.11847075
156	0x3dd88ac9	0.10573346
157	0x3e027722	0.12740758
158	0x3d3469db	0.044046264
159	0x3cefc41f	0.029268323
160	0x3c06dc11	0.008231179
161	0x3dee3324	0.11630848
162	0x3d2016bb	0.039084177
163	0xbd042d4e	-0.03226977
164	0x3d464c61	0.048412684
165	0x3c7a7933	0.015287685
166	0x3dba91d8	0.09109849
167	0x3d95d6b5	0.07316343
168	0x3d1b046d	0.037846018
169	0xbd738358	-0.05945143
170	0x3d750235	0.059816558
171	0x3de40ad1	0.111348756
172	0x3daff554	0.085917145
173	0x3daeff79	0.08544821
174	0x39ac50ad	0.00032866505
175	0xbce2a3bb	-0.027665963
176	0x3da2678c	0.07929906
177	0xbc5d3379	-0.013501042
178	0x3bbe4cd2	0.0058074975
179	0x3c770a26	0.015078103
180	0x3dbd5515	0.09244744
181	0x3da0891c	0.078386515
182	0x3b4fedf6	0.003172753
183	0x3de82f8b	0.11337193
184	0xbd0068d3	-0.03134997
185	0x3d948b9a	0.072531894
186	0xbbf35733	-0.0074261664
187	0x3d3f2490	0.046665728
188	0xbd723997	-0.059136953
189	0x3bd64119	0.006538522
190	0x3deed008	0.116607726
191	0x3b186358	0.0023252573
192	0x3d7718dc	0.060326442
193	0x3ccfe4d9	0.025377678
194	0x3d89b077	0.06723111
195	0x3d62e84e	0.055397324
196	0xbbf248f7	-0.007393952
197	0x3d287c96	0.04113444
198	0xbca340e2	-0.0199284
199	0x3d9f9ac1	0.07793189
200	0xbd021a0c	-0.03176312
201	0x3d92df2c	0.07171473
202	0x3dd69cd0	0.10479128
203	0xbd761959	-0.060082767
204	0xbd259ae6	-0.040430926
205	0x3ca8f019	0.0206223
206	0x3d55151d	0.05202209
207	0x3dd612df	0.10452818
208	0x3d95bda9	0.073115654
209	0x3e03e169	0.12878956
210	0xbc98a74f	-0.018634466
211	0xbd40aae2	-0.047037967
212	0x3d9902c4	0.074712306
213	0x3a62978f	0.00086438
214	0xbd39a887	-0.045326736
215	0xbd1ce05b	-0.0382999
216	0x3bf15b8b	0.007365649
217	0x3db88834	0.09010354
218	0x3dbfbcbb	0.09362169
219	0x3d417d0f	0.047238406
220	0xba4cfe86	-0.00078199094
221	0x3d801c53	0.062554024
222	0x3ca69db8	0.020338878
223	0x3a0758ee	0.0005163093
224	0x3dc76c05	0.097374
225	0x3ca7e015	0.020492593
226	0xbb9f3bb4	-0.004859412
227	0xbd160218	-0.03662309
228	0x3d0f4f92	0.034987994
229	0x3da7f2a5	0.08200578
230	0xbd591929	-0.05300251
231	0xbd125b1c	-0.03573142
232	0x3cf77341	0.030206325
233	0x3cdeb03c	0.027183644
234	0xbc9b8e2f	-0.018988697
235	0x3ca9db46	0.02073444
236	0x3d9e7495	0.0773708
237	0xbcb8c006	-0.022552501
238	0x3daf683a	0.085648015
239	0x3d6a6111	0.057221476
240	0x3ddf77b0	0.109115005
241	0x3d80b1ba	0.06283899
242	0x3d7f646c	0.06235163
243	0x3cace9b1	0.021107526
244	0xbbd8bbbd	-0.006614177
245	0xbd1de9ee	-0.03855317
246	0xbcd8e8fd	-0.026478285
247	0xbc46c1b8	-0.012131147
248	0x3d8b01fe	0.06787489
249	0x3d94546f	0.07242667
250	0x3dc60acb	0.09670027
251	0xb9f047dc	-0.00045829907
252	0x3cf8cd0d	0.030371213
253	0x3dfc8cc6	0.12331538
254	0x3da983b3	0.08277073
255	0x3de2b232	0.11069144

fc.0.weight f4 [312, 128]
0	0xbde83150	-0.113375306
1	0xbdcd3be5	-0.100211896
2	0x3dfbeb14	0.12300697
3	0xbdabb14c	-0.08383426
4	0x3d0a737b	0.033801537
5	0xbc104211	-0.008804814
6	0xbd689257	-0.056780186
7	0x3d9c0f8b	0.07620152
8	0x3e0bdfd9	0.1365961
9	0xbdbd9962	-0.09257771
10	0x3dcb4660	0.09925532
11	0x3dc618fb	0.096727334
12	0x3db5df79	0.08880515
13	0xbb8de2ea	-0.004330029
14	0x3ddf4ea3	0.10903671
15	0x3db48bf7	0.08815759
16	0xbc982e2c	-0.018576704
17	0x3cdfd129	0.027321415
18	0x3da0255d	0.078196265
19	0x3c0e49aa	0.008684555
20	0xbd5725c9	-0.05252627
21	0x3d8d544e	0.069008455
22	0x3df8d678	0.12150282
23	0xbde646ac	-0.11243948
24	0x3cfad47a	0.030618895
25	0x3ddec8d4	0.10878149
26	0xbdb4c71c	-0.088270396
27	0x3d392b4c	0.045207307
28	0x3da85df1	0.08221043
29	0xbd64c9b8	-0.055856436
30	0x3de27cd4	0.11058965
31	0x3d87d092	0.066315785
32	0x3dc8452e	0.0977882
33	0x3dfdb3f2	0.123878375
34	0x3ccc30ce	0.024925616
35	0x3ce42c71	0.027853223
36	0xbdc378d5	-0.09544531
37	0xbe04f921	-0.1298566
38	0xbdf17635	-0.11790124
39	0xbdd7c41a	-0.1053545
40	0xbd4a0472	-0.049320646
41	0x3b1633ad	0.0022918985
42	0xbcc135c4	-0.023585208
43	0x3dd5f16e	0.1044644
44	0xbb1e8cb5	-0.0024192755
45	0x3c563ea0	0.013076454
46	0x3da71515	0.08158318
47	0x3dc04e61	0.093899496
48	0x3d1e15e4	0.038595095
49	0x3d8d04a9	0.068856545
50	0x3e284888	0.16433918
51	0x3e088c70	0.13334823
52	0x3df4431a	0.11926861
53	0x3d7b7b5e	0.06139695
54	0xbd5c949f	-0.053852674
55	0x3d366f97	0.044540014
56	0x3a820487	0.0009919562
57	0x3d7b3a7f	0.061335083
58	0xbd287317	-0.041125383
59	0xbd8daedc	-0.069181174
60	0xbd58f161	-0.052964572
61	0x3dcaf9bb	0.099109136
62	0xb9f36d38	-0.00046429946
63	0xbd1765a7	-0.036962178
64	0xbdeae88e	-0.114701375
65	0x3e05b080	0.1305561
66	0xbc9d4ecd	-0.019202614
67	0x3d01f68f	0.031729277
68	0x3e1acfa7	0.15118276
69	0x3d6e86b2	0.058233924
70	0x3d5f7643	0.054556143
71	0x3d59389f	0.053032514
72	0xbd8b422e	-0.06799732
73	0xbda8b8a3	-0.08238342
74	0x3d0afc0c	0.033931777
75	0x3d7dbe50	0.061949074
76	0x3d4be5ee	0.049779825
77	0xbd5adb21	-0.053431634
78	0x3d9f4165	0.07776145
79	0x3d9298ad	0.07158027
80	0xbb33edfd	-0.0027455084
81	0x3d0c56b1	0.034262363
82	0x3e0795d7	0.13240753
83	0x3d454def	0.048170026
84	0x3d62184a	0.055198945
85	0xbc2cd587	-0.010548956
86	0xbd246aa9	-0.04014078
87	0xbcabb171	-0.020958634
88	0x3dcf8cb0	0.10134256
89	0x3df86005	0.12127689
90	0x3e0bde1b	0.13658945
91	0x3ca9843f	0.020692943
92	0xbc1a9bb4	-0.009436537
93	0x3c532eda	0.012889588
94	0x3dc4bc6c	0.09606251
95	0x3ccd5a41	0.02506745
96	0x3d110d98	0.035413355
97	0xbd7920ac	-0.060822174
98	0x3dbaa0c5	0.091126956
99	0xbcae6b9f	-0.021291552
100	0x3c4306dc	0.011903491
101	0xbde1e396	-0.11029737
102	0x3d84b605	0.0648003
103	0xbc1a30d1	-0.009411053
104	0xbd28255e	-0.04105126
105	0xbe1961a1	-0.14978649
106	0xbc830cc4	-0.015997298
107	0xbbe10fc0	-0.0068683326
108	0x3cf8b7a6	0.030361008
109	0x3e1576d4	0.1459611
110	0x3d86467a	0.06556411
111	0xbd9b938c	-0.07596502
112	0x3a6770b7	0.00088287465
113	0x3db6d5d0	0.089275
114	0xbd7bf754	-0.061515167
115	0x3e254cda	0.16142598
116	0x3d9f7a64	0.07787016
117	0x3dbc9c4d	0.092094995
118	0x3b0d125d	0.0021525838
119	0xbc65432b	-0.013993065
120	0xbc2c9e75	-0.010535826
121	0xbd12d891	-0.035851065
122	0xbd26e81d	-0.040748704
123	0x3d5ffe5c	0.054685935
124	0xbcf9b7ce	-0.030483153
125	0x3dbbe434	0.09174386
126	0xbcfaae12	-0.030600581
127	0xb924c9c6	-0.00015715425
128	0xbd16f6d8	-0.036856502
129	0x3d1f2bf9	0.038860295
130	0xbe1e022a	-0.15430513
131	0xbd966a83	-0.07344534
132	0x3c0c8ca9	0.008578458
133	0xbdb6da23	-0.08928325
134	0x3dbf9a8e	0.09355651
135	0x3d050072	0.032471128
136	0x3de7f8f9	0.11326785
137	0x3d825964	0.06364706
138	0x3db3638d	0.08759222
139	0xbdbeb923	-0.09312656
140	0x3dee6274	0.11639872
141	0x3de20ea2	0.11037947
142	0x3e0c0169	0.13672413
143	0x3c70b377	0.014691225
144	0xbd1e208d	-0.03860526
145	0x3d1811ea	0.03712646
146	0x3d888bc6	0.06667285
147	0x3cf5ba0b	0.029995939
148	0xbdcb9932	-0.09941329
149	0xbd066fd9	-0.03282151
150	0xbdde3e46	-0.108517215
151	0xbdf7ab43	-0.120932125
152	0xbd968a30	-0.07350576
153	0xbcba91ab	-0.022774538
154	0x3d859cf1	0.06524075
155	0x3dbc6295	0.091984905
156	0xbda05f6b	-0.078306995
157	0xbc0a2d1a	-0.008433605
158	0x3e4757f7	0.1946715
159	0x3de64d32	0.112451926
160	0xbd29b7f2	-0.04143519
161	0x3e16fb59	0.14744319
162	0xbd2ad047	-0.041702535
163	0x3b39cbe5	0.002835029
164	0xbe0e40dc	-0.1389193
165	0xbe08562f	-0.13314126
166	0xbda72694	-0.08161655
167	0x3ca2c8a1	0.019871058
168	0xbd0b3b96	-0.033992372
169	0x3c5574f6	0.013028374
170	0xbd90cdae	-0.0707048
171	0x3c80a5ca	0.015704054
172	0xbd2187d1	-0.039436165
173	0xbd3d757a	-0.046254613
174	0x3d9fa223	0.07794597
175	0xbd6dadbd	-0.058027018
176	0x3e0b340b	0.13594072
177	0x3da253c7	0.079261355
178	0x3d9172ec	0.07101998
179	0xbd9a609f	-0.0753796
180	0x3c8ec44f	0.017427592
181	0x3d658b78	0.05604121
182	0x3b0fba0c	0.002193096
183	0x3ccce1ff	0.025010107
184	0x3d9e5510	0.07731068
185	0x3d437853	0.047722172
186	0x3cbcb14e	0.023033764
187	0x3dce3832	0.10069312
188	0xbd6dc938	-0.058053225
189	0xbda6b761	-0.081404455
190	0x3dacd008	0.08438116
191	0x3e041878	0.12899959
192	0x3cbf8763	0.023379987
193	0xbdf1312f	-0.11776959
194	0x3d2e1496	0.0425001
195	0x3e05bae5	0.13059576
196	0x3ddc46af	0.10755669
197	0x3dbd31f0	0.092380404
198	0x3d620c8e	0.055187754
199	0xbd5eb134	-0.054368213
200	0x3d94e979	0.07271094
201	0xbc264047	-0.010147161
202	0x3d3fc954	0.04682286
203	0xbd9bd140	-0.07608271
204	0x3d1836bb	0.03716157
205	0x3cc665ba	0.024218429
206	0x3e146204	0.14490515
207	0x3d39443e	0.045231096
208	0x3c0d365c	0.008618917
209	0x3d999be7	0.07500439
210	0xbd4c56a8	-0.04988733
211	0x3d7509b9	0.059823725
212	0xbc8fe2a8	-0.017564133
213	0xbe07de7d	-0.13268466
214	0x3daba915	0.08381859
215	0xbce8a276	-0.02839778
216	0x3d496412	0.0491677
217	0x3e05d850	0.13070798
218	0x3d29f3c1	0.041492227
219	0xbd6a310e	-0.05717569
220	0x3cc245e6	0.02371497
221	0xbcf1fe72	-0.029540274
222	0x3db965d9	0.09052629
223	0xbb936be1	-0.004498944
224	0x3db2d4fe	0.08732031
225	0x3dde6bf2	0.10860433
226	0xbdde9463	-0.10868146
227	0x3d5fe39f	0.054660436
228	0x3d130538	0.03589365
229	0x3d254e4f	0.040357884
230	0x3d809aa9	0.06279499
231	0xbda31bed	-0.07964311
232	0xbdcbcd19	-0.09951229
233	0xbd9937a6	-0.07481317
234	0x3dce741d	0.100807406
235	0x3dc6bb85	0.09703735
236	0xbb3753b7	-0.0027973482
237	0x3c4e80c4	0.012603942
238	0x3d9c1e63	0.07622983
239	0xbcf96c2d	-0.03044709
240	0xbcd7bcee	-0.026335206
241	0x3da7fabf	0.08202123
242	0x3ddc85e4	0.10767725
243	0x3de754d6	0.11295478
244	0x3c3c29fc	0.011484619
245	0x3dda4450	0.10657561
246	0xbd5c8384	-0.05383636
247	0x3df99cd3	0.12188115
248	0xb9c451d4	-0.00037445
249	0x3cafbd85	0.021452675
250	0xbd7f1ec5	-0.062285203
251	0xbdcfc0ed	-0.101442195
252	0x3d6f1fc9	0.058379922
253	0x3dfc4c3f	0.1231923
254	0x3e01c347	0.12672149
255	0x3cf5dea8	0.030013397

fc.2.bias f4 [156]
0	0xbaf3ffaf	-0.0018615628
1	0xbcca686e	-0.024708
2	0x3c0de72f	0.0086610755
3	0x3b8a02bf	0.004211753
4	0xbd0ecd38	-0.03486368
5	0xbc21aaa6	-0.009867346
6	0x3d7410a0	0.059586167
7	0xbc4f2062	-0.012641998
8	0x3d11cbb1	0.035594646
9	0xbdca69ae	-0.09883438
10	0xbd6f2c73	-0.058392
11	0xbd07048e	-0.032963328
12	0x3c4fd85a	0.01268586
13	0xbcbc7f96	-0.023010056
14	0xbd50fbdf	-0.051021453
15	0x3c96eb6a	0.018422801
16	0x3d4f6d56	0.05064138
17	0xbc029749	-0.0079706395
18	0xbc0e513a	-0.008686358
19	0x3ce10993	0.027470386
20	0xbd28036c	-0.04101889
21	0x3c474f12	0.012164848
22	0x3c69a1d1	0.014259771
23	0x3d7063c9	0.058688913
24	0x3d75ce19	0.060011003
25	0xbd2c3bc4	-0.042049184
26	0x3cc84a5b	0.024449518
27	0xbda40a79	-0.0800981
28	0xbb3df795	-0.0028986682
29	0xbbc97740	-0.006148249
30	0xbb959886	-0.0045653014
31	0xbca84954	-0.020542778
32	0x3c943fd4	0.018096842
33	0x3dcb69da	0.09932299
34	0x3cdefe70	0.027220935
35	0xbd552190	-0.05203396
36	0x3b3762e3	0.0027982525
37	0xba7e75a8	-0.0009706863
38	0xbd7a37ac	-0.06108825
39	0xbd223a8f	-0.039606627
40	0xbb2363f5	-0.0024931405
41	0xbd25c872	-0.040474363
42	0xbdafb66c	-0.08579716
43	0xba54104c	-0.00080895866
44	0x3d1713a0	0.03688395
45	0x3c1f5215	0.00972416
46	0xbd214b4c	-0.03937845
47	0x3b839fbe	0.0040168455
48	0x3d2dee3b	0.042463522
49	0xbd1e5585	-0.038655777
50	0xbc12bbae	-0.008955879
51	0xbd737cd2	-0.05944521
52	0xbc950b26	-0.018193793
53	0xbcf91536	-0.030405622
54	0xbd272008	-0.04080203
55	0x3dac7a2b	0.08421739
56	0x3cc6ffed	0.024291957
57	0xbd1b77af	-0.037955936
58	0xbbacfd49	-0.0052792174
59	0x3d316e9b	0.043318372
60	0xbd3da5bc	-0.046300635
61	0xbce43892	-0.027859006
62	0x3d05e63f	0.032690283
63	0xbdb900a9	-0.09033329
64	0xbc4a3301	-0.012341262
65	0xbce66450	-0.028124005
66	0xbc2fe5c2	-0.010735931
67	0xbd040d07	-0.032238986
68	0x3bba2f1e	0.0056818863
69	0xbd06d77e	-0.032920353
70	0xbd3544c4	-0.044255033
71	0x3d2f04bf	0.042729136
72	0x3c9c0e88	0.019049898
73	0x3d2a92e4	0.041643992
74	0x3d2855ca	0.04109744
75	0xbcabe413	-0.020982778
76	0xbc2913cc	-0.010319661
77	0x3d73011b	0.059327226
78	0xbd654150	-0.05597049
79	0xbd01748d	-0.031605292
80	0x3cb8db3b	0.022565475
81	0x3d08242a	0.033237614
82	0xbd6e9bab	-0.058253925
83	0x3dac58c2	0.08415367
84	0xbdad0916	-0.08448999
85	0xbd81b0db	-0.06332561
86	0xbdb4cbca	-0.08827932
87	0x3bffc75e	0.007805749
88	0xbc9ec6ae	-0.019381847
89	0x3bd5960f	0.0065181325
90	0xbd8172d0	-0.06320727
91	0x3d217827	0.039421227
92	0x3c49f07d	0.012325403
93	0xbd41588d	-0.04720359
94	0xbd8ffb68	-0.07030374
95	0xbd53d71e	-0.051718824
96	0xbd1e31f2	-0.03862185
97	0x3bb91096	0.005647729
98	0x3d2d5514	0.042317465
99	0x3dcaef80	0.09908962
100	0xbde1ee76	-0.11031811
101	0xbd871ff9	-0.06597895
102	0xbda60f45	-0.08108381
103	0x3d84c63f	0.06483125
104	0x3c965881	0.018352749
105	0x3aacb806	0.0013177402
106	0xbd64cc97	-0.055859175
107	0xbb339a84	-0.002740533
108	0xbd48f5eb	-0.04906265
109	0xbd6d7f34	-0.05798264
110	0x3c0d9f6a	0.008643964
111	0xbdbb7f31	-0.09155119
112	0xbdc7b1ab	-0.09750684
113	0xbd15dd09	-0.03658775
114	0x3dab402f	0.083618514
115	0xbd83526d	-0.06412206
116	0xbb8c4daa	-0.004281719
117	0x3c94d971	0.01817009
118	0x3d489ba9	0.048976574
119	0xbd6e560d	-0.058187533
120	0xbd83c158	-0.06433362
121	0x3cb02a83	0.021504646
122	0x3cdeda12	0.027203593
123	0xbcc7b7e5	-0.02437968
124	0x3b909953	0.004412809
125	0x3b63efe3	0.0034780435
126	0x3d06e0a5	0.03292908
127	0x3c59b17d	0.013286945
128	0xbccea1fd	-0.025223726
129	0x3d006266	0.03134384
130	0xbd4c0abd	-0.04981493
131	0xbd00b960	-0.031426787
132	0x3d4a5263	0.049394976
133	0xbd914d1f	-0.07094788
134	0x3cd35bdb	0.025800636
135	0xbc1f9a1e	-0.009741334
136	0xbd20b3c4	-0.039233938
137	0xbd4714da	-0.04860387
138	0xbdc58d25	-0.09646062
139	0xbd57cbe5	-0.052684683
140	0x3d81468e	0.06312285
141	0xbd8b2d8a	-0.06795795
142	0xbd4d2059	-0.050079677
143	0x3cb511fb	0.0221033
144	0xbcfb9348	-0.030709878
145	0x3c2325be	0.009957729
146	0x3dac6355	0.084173836
147	0xbc351e74	-0.011054624
148	0x3ce1bdde	0.027556356
149	0x3c86ccd1	0.016455086
150	0xbdc74e89	-0.09731776
151	0xbca5406e	-0.020172324
152	0xbd26aef2	-0.040694185
153	0xbd97471c	-0.0738661
154	0x38bdb901	9.046682e-05
155	0xbb2c22a9	-0.0026265776

fc.2.weight f4 [156, 312]
0	0xbdf06e6d	-0.11739812
1	0xbdc745d4	-0.097301155
2	0x3c49513b	0.012287433
3	0x3b8e77d9	0.004347783
4	0xbdac4eb7	-0.08413451
5	0xbdf65963	-0.12028768
6	0xbc8cf72c	-0.017207704
7	0x3cde28cc	0.027119063
8	0xbca5f260	-0.020257175
9	0x3dc73408	0.09726721
10	0xbdae5345	-0.08511976
11	0xbb1389b2	-0.0022512493
12	0xbd648588	-0.055791408
13	0x3d1b288c	0.037880465
14	0x3df81e0c	0.12115106
15	0xbe3ef7e3	-0.18649249
16	0xbca443a9	-0.020051794
17	0xbd29063b	-0.041265707
18	0xbd93bc1e	-0.07213615
19	0x3d0de613	0.034643244
20	0xbd00a826	-0.03141036
21	0x3dd31b55	0.103079475
22	0x3d0152e5	0.031573195
23	0xbdc151c8	-0.09439427
24	0xbd8961c9	-0.06708104
25	0xbdd5ae60	-0.1043365
26	0xbdaa6745	-0.08320478
27	0xbcc9e9ff	-0.02464771
28	0xbe14f40a	-0.14546219
29	0xbc97cc80	-0.01853013
30	0x3c7c571d	0.015401629
31	0xb9e6d932	-0.00044030842
32	0xbcfc666f	-0.030810563
33	0xbd02a404	-0.0318947
34	0xbd8407a2	-0.06446768
35	0x3d3d06f0	0.046149194
36	0x3b796179	0.0038052483
37	0xbdd4d450	-0.10392058
38	0xbcc456ea	-0.023967225
39	0x3d7ee17d	0.06222676
40	0xbcca1eff	-0.024672983
41	0x3d577c39	0.052608702
42	0x3dcec60e	0.1009637
43	0x3df778bd	0.12083576
44	0xbdb7e101	-0.08978463
45	0xbd1fa274	-0.038973287
46	0x3aeb8f82	0.0017971846
47	0xbe3b8ab4	-0.1831463
48	0xbba0ff69	-0.0049132598
49	0x3d09a8c0	0.0336082
50	0xbb434058	-0.002979299
51	0x3daa913f	0.08328485
52	0xbe0504be	-0.1299009
53	0xbdb674b7	-0.0890898
54	0xbddb79f8	-0.10716623
55	0x3cd6fe8d	0.026244426
56	0x3ca7836b	0.020448407
57	0x3cb3bb4d	0.021939898
58	0xbc9544d9	-0.018221306
59	0x3d8bd4ff	0.06827735
60	0x3b2e9711	0.0026640336
61	0x3d957908	0.072984755
62	0xbdb87360	-0.09006381
63	0x3d84ed1b	0.06490537
64	0xbd57b4d6	-0.052662693
65	0xbdf4c525	-0.11951665
66	0xbdb793c7	-0.08963733
67	0x3d1ac384	0.037784114
68	0x3d44c995	0.048043806
69	0x3d49c686	0.049261592
70	0x3d2b8acb	0.04188041
71	0xbd6c3ac7	-0.057673242
72	0xbbdb8c7e	-0.0067000976
73	0x3dac514c	0.08413944
74	0x3c1116a1	0.008855493
75	0x3daa8e6b	0.08327945
76	0xbd8ed2a4	-0.0697377
77	0xbdef54bb	-0.11686083
78	0x3d56124d	0.052263547
79	0xbce8efc5	-0.028434644
80	0x3d626326	0.055270337
81	0xbd795eb9	-0.06088135
82	0xbc0446b4	-0.008073498
83	0xbcfc7b66	-0.03082056
84	0x3d2d794c	0.042352006
85	0xbe2dbf3f	-0.16967486
86	0x3cffae54	0.031211056
87	0x39cff25f	0.00039662697
88	0xbde4d838	-0.11174053
89	0x3d8d2657	0.06892078
90	0xbdb9c692	-0.090710774
91	0x3bf2e9ad	0.00741311
92	0x3b40c8ba	0.0029416517
93	0xbd0527cb	-0.032508653
94	0x3d5321c9	0.051545892
95	0x3dacccc6	0.08437495
96	0xbcae0e66	-0.0212471
97	0xbd57b3ab	-0.05266158
98	0x3c0011f5	0.007816781
99	0xbdad04d8	-0.084481895
100	0x3da1d48b	0.079018675
101	0xbda28266	-0.07935028
102	0xbd31d40c	-0.043415114
103	0x3dad46d1	0.08460773
104	0x3d7ecdb6	0.0622079
105	0x3d650fbb	0.055923205
106	0xbdbe5dd0	-0.09295237
107	0xbcc94f28	-0.024573877
108	0xbc49f2ad	-0.012325925
109	0x3c28e6c4	0.010308925
110	0xbd5230f4	-0.051316217
111	0xbdb9ca83	-0.09071829
112	0x3bc9e36c	0.006161144
113	0x3d98d4ea	0.07462485
114	0xbd489bd0	-0.04897672
115	0x3d2b7a12	0.041864462
116	0xbdc7a068	-0.09747392
117	0x3dc7b96e	0.09752165
118	0xbd16c925	-0.03681292
119	0xbd90c7e2	-0.070693746
120	0xbd050835	-0.03247853
121	0xbddfed18	-0.10933894
122	0xbd90941e	-0.07059501
123	0xbd9c07d0	-0.076186776
124	0xbdddf17b	-0.10837074
125	0x3d872c71	0.066002734
126	0x3ca593d9	0.0202121
127	0xbc9247d6	-0.01785652
128	0x3d6b2ae1	0.05741394
129	0x3c3381b1	0.010956214
130	0x3d831a1d	0.06401465
131	0x3db31e42	0.087460056
132	0x3b3fe863	0.00292828
133	0xbd9527ba	-0.07282968
134	0xbdd1d0c3	-0.10244896
135	0xbd05915b	-0.032609325
136	0xbb3e2ea3	-0.0029019497
137	0xbafb03e8	-0.0019150944
138	0xbb3eb661	-0.0029100406
139	0xba9837f8	-0.001161336
140	0x3d2749e6	0.04084196
141	0x3dc9ba59	0.09849996
142	0xbd6b649b	-0.05746899
143	0xbd1a2058	-0.0376285
144	0x3d437b69	0.047725115
145	0xbd69f0eb	-0.057114523
146	0x3d71629e	0.05893194
147	0xbcd21600	-0.025645256
148	0xbd3efbf8	-0.046627015
149	0xbd61cb28	-0.055125386
150	0xbde9f908	-0.11424452
151	0x3d28905c	0.041153297
152	0xbd4cfe69	-0.050047312
153	0xbc8bc26a	-0.017060477
154	0x3d82a232	0.063785926
155	0xbc485ff9	-0.012229913
156	0xbe0ef7aa	-0.13961664
157	0x3d182865	0.0371479
158	0xbd4dfbab	-0.050288837
159	0xbd9b368e	-0.07578765
160	0xbcddd37c	-0.027078383
161	0x3d3e72ad	0.046496082
162	0x3de218c7	0.11039882
163	0xbd4752d5	-0.04866298
164	0xbd9dacbd	-0.07698963
165	0x3d084328	0.03326717
166	0x3cda81dc	0.02667325
167	0x3c9881ee	0.018616643
168	0x3d495cb6	0.04916068
169	0x3d281095	0.04103144
170	0xbce91be3	-0.02845568
171	0xbdbf7fe2	-0.093505636
172	0x3d92ac79	0.07161803
173	0x3d3fafc9	0.0467985
174	0xbdda48e9	-0.10658438
175	0xbd8d6a6a	-0.069050625
176	0x3db65b33	0.089041136
177	0xbd3d8d2a	-0.046277203
178	0x3db1eacd	0.08687363
179	0x3cbe55a9	0.023234205
180	0x3da4d6ff	0.0804882
181	0xbd2b4d5d	-0.041821826
182	0xbd42b123	-0.047532212
183	0x3d227a0a	0.039667167
184	0xbd0a84aa	-0.033817925
185	0x3c84cf62	0.01621217
186	0x3d3ba801	0.045814518
187	0xbc69743f	-0.014248907
188	0x3c56e6c6	0.013116544
189	0xbd89a4b8	-0.06720871
190	0xbd5609d4	-0.052255467
191	0xbdf52eb3	-0.11971798
192	0x3c463361	0.012097211
193	0x3d19ffb5	0.037597377
194	0xbd8db5a1	-0.069194086
195	0xbd8c7e25	-0.06859998
196	0xbd3aeb63	-0.04563464
197	0x3d654a55	0.05597909
198	0xbc8a369c	-0.016871743
199	0x3c08ad9f	0.008342176
200	0x3cf2fd0d	0.02966168
201	0x3dc0a53c	0.09406516
202	0xbc9df81d	-0.019283349
203	0x3d19fef7	0.03759667
204	0x3d0e91b6	0.03480693
205	0x3d0646f7	0.03278252
206	0xbddf2e71	-0.1089753
207	0x3bfdb83a	0.007742909
208	0x3db629a4	0.08894661
209	0xbdbd850b	-0.092538916
210	0x3dec634b	0.11542376
211	0xbbb290f8	-0.0054494105
212	0xbd8954ee	-0.06705652
213	0xbbf0cc3d	-0.007348566
214	0x3c4f3743	0.012647453
215	0x3d27823a	0.040895678
216	0x3c96dc90	0.01841572
217	0x3c3a34dc	0.011365142
218	0xbd157067	-0.03648415
219	0xba8e82d5	-0.0010872731
220	0xbcbbcbf2	-0.022924397
221	0x3d9cc871	0.07655419
222	0xbdb4a67d	-0.088208176
223	0xbdcf9349	-0.10135514
224	0x3cad4b71	0.021154137
225	0xbd9f7c5d	-0.07787392
226	0xbd28e4f6	-0.04123398
227	0xbd4fb26a	-0.05070726
228	0xbb8e5380	-0.00434345
229	0xbc9d2378	-0.019181952
230	0xbb591199	-0.0033122061
231	0xbd15091a	-0.036385633
232	0x3dba6ab7	0.091023855
233	0xbb9c9da7	-0.004779536
234	0x3dee3e71	0.116330035
235	0xbcdae923	-0.026722496
236	0xbde0d012	-0.10977186
237	0xbf2f5ab9	-0.68497807
238	0xbd9a2807	-0.07527166
239	0xbc9f3436	-0.019434076
240	0xbd63ec50	-0.055645287
241	0xbcccc47d	-0.024996037
242	0xbdab99da	-0.08378954
243	0x3db6a034	0.08917275
244	0xbdde8bcd	-0.10866509
245	0xbd66ac9e	-0.056316964
246	0xbda468b4	-0.08027783
247	0xbc11f794	-0.008909125
248	0xbd523f23	-0.051329743
249	0x3ddbe88d	0.10737715
250	0xbdc792cd	-0.09744797
251	0xbd164e46	-0.03669574
252	0xbd8c6fab	-0.068572365
253	0xbdb5cb89	-0.08876712
254	0x3a83965a	0.0010039315
255	0xbde222f7	-0.11041825
