inventory/ark_material.onnx (onnx, 397137 bytes, 8 tensors)

35 f4 [32, 3, 5, 5]
0	0xbf3fa64e	-0.74863136
1	0x3f1bcaa1	0.6085606
2	0xbdc05184	-0.09390548
3	0xbec1ed98	-0.37876582
4	0x3f13722d	0.57596093
5	0xbf1bb84a	-0.6082808
6	0x3f1ad1fa	0.6047665
7	0x3ebccb58	0.3687389
8	0xbe211521	-0.15730716
9	0xbed2f636	-0.4120347
10	0x3e83634a	0.2566169
11	0xbeca4f50	-0.39513636
12	0x3f1e5230	0.6184416
13	0x3f04f796	0.51940286
14	0x3e30622e	0.17224953
15	0xbe0dc7a1	-0.13845684
16	0xbf055879	-0.52088124
17	0xbf62eb64	-0.8864043
18	0xbd18dfe6	-0.0373229
19	0x3f3a065a	0.7266594
20	0xbf8cc5b9	-1.099784
21	0xbd383b0a	-0.04497818
22	0xbef3972f	-0.4757628
23	0xbf480c22	-0.78143513
24	0xbf1e1872	-0.6175605
25	0xbe87c983	-0.2652093
26	0xbe193cab	-0.14964549
27	0x3f32b389	0.698052
28	0x3f23922e	0.6389493
29	0xbf458a7d	-0.7716444
30	0xbe85f2b5	-0.26161733
31	0xbbed65cb	-0.0072448007
32	0x3f12bcdd	0.5731943
33	0xbe799f79	-0.2437724
34	0x3ef7a2a7	0.4836628
35	0xbf794c7f	-0.9738235
36	0xbefa45bd	-0.4888133
37	0x3df0b3db	0.11753055
38	0xbdb8dea0	-0.09026837
39	0xbf39c3dc	-0.7256448
40	0xbf489f51	-0.783681
41	0xbecf30dd	-0.40466967
42	0x3f21e264	0.6323607
43	0xbe72568c	-0.23665828
44	0x3f1fede8	0.6247239
45	0xbdfca7fe	-0.123367295
46	0x3f62e831	0.88635546
47	0x3f42e44d	0.7612961
48	0x3f7940a9	0.9736429
49	0x3f221da1	0.6332646
50	0x3e1c1711	0.15243174
51	0x3e37000a	0.17871109
52	0xbf45552c	-0.77083087
53	0x3f080a94	0.5314114
54	0xbf3dc868	-0.7413392
55	0xbe6777ea	-0.22604337
56	0xbeffb972	-0.4994617
57	0x3f340096	0.70313394
58	0xbf621104	-0.88307214
59	0x3f0a8324	0.54106355
60	0x3d3a75f9	0.045522664
61	0x3eb31cf7	0.34983036
62	0x3f32f46b	0.699042
63	0x3f66e569	0.901938
64	0xbf5db744	-0.86607766
65	0x3f34e65c	0.70664
66	0x3f7c9377	0.98662513
67	0xbe8c457b	-0.2739676
68	0x3ea42ea6	0.3206684
69	0x3f2b4f0b	0.66917485
70	0xbda13a70	-0.07872474
71	0x3f5d3c6c	0.8642032
72	0xbe196b56	-0.14982352
73	0xbed9b0f3	-0.42517814
74	0x3dd6ce0b	0.10488518
75	0x3e9aa34b	0.30202708
76	0xbe60cf2f	-0.21954034
77	0x3e93f4c6	0.28897685
78	0x3e577398	0.2104019
79	0x3f0e53ba	0.55596507
80	0x3e5a2384	0.2130261
81	0xbeaa2e0f	-0.33238265
82	0xbeacc6d5	-0.33745447
83	0x3ed9ad8c	0.42515218
84	0x3e0cf8c4	0.13766772
85	0x3e91de82	0.28490072
86	0x3c96d953	0.018414175
87	0x3e6fe938	0.2342881
88	0xbe995bb7	-0.29952785
89	0x3ed5faa6	0.41792792
90	0xbd90903d	-0.07058761
91	0xbd958358	-0.073004425
92	0x3ea9dc39	0.3317583
93	0x3ea1d942	0.31611067
94	0x3e9385d5	0.28813043
95	0x3de3f55a	0.111307815
96	0xbe156b0d	-0.14591618
97	0xbf039a65	-0.5140746
98	0xbdc1041a	-0.094246104
99	0xbe38ee7e	-0.18059728
100	0xbe21db1c	-0.1580624
101	0xbd79ab4d	-0.06095438
102	0x3e5ff7d0	0.21871877
103	0xbd38f229	-0.045152817
104	0x3de01a71	0.10942543
105	0x3dedee0d	0.1161767
106	0x3e99f1d8	0.30067325
107	0x3dde0ead	0.10842643
108	0x3ef48cf7	0.47763798
109	0x3ed5d655	0.41765085
110	0x3e8ef18e	0.27918667
111	0x3ebc16c5	0.36736122
112	0xbf0fd010	-0.56176853
113	0xbefd7203	-0.49501047
114	0x3e3b965c	0.18319076
115	0x3e212fc6	0.1574088
116	0x3d4bc46a	0.049747862
117	0x3de185a7	0.1101182
118	0xbd2f8367	-0.042849924
119	0x3e47a5a5	0.19496782
120	0x3eca47f4	0.3950802
121	0x3f0c039e	0.5469302
122	0xbe958f52	-0.29210907
123	0x3e2f50fa	0.17120734
124	0x3e06b92f	0.1315658
125	0x3e0fc617	0.14040409
126	0xbd3b33e1	-0.045703772
127	0xbda91f3e	-0.08257912
128	0x3e506fdc	0.20355171
129	0xbe5981ef	-0.21240972
130	0xbd432bec	-0.04764931
131	0x3ba6d0aa	0.0050907927
132	0xbda9a5a0	-0.082835436
133	0xbe9ea22f	-0.3098311
134	0xbe702ced	-0.23454638
135	0xbdaf282d	-0.08552585
136	0xbee78ee3	-0.452262
137	0x3ea86428	0.32888913
138	0x3de86cfb	0.113489114
139	0x3e3c4940	0.18387318
140	0x3ea9ca1c	0.3316201
141	0x3dd7f5db	0.1054494
142	0x3dcbfd38	0.09960407
143	0xbeae51e4	-0.34046853
144	0x3e53ec6c	0.20695657
145	0x3e5fdd90	0.21861863
146	0xbcdf2100	-0.027237415
147	0xbc682182	-0.014168145
148	0xbee70581	-0.45121387
149	0x3eaec579	0.34135035
150	0x3f044fb8	0.5168414
151	0x3ea505bc	0.32230937
152	0x3e7999b1	0.24375035
153	0xbf6c7d96	-0.9237913
154	0x3db1fd20	0.08690858
155	0xbebc8990	-0.36823702
156	0xbf07e5e1	-0.5308514
157	0xbda8e12d	-0.08246074
158	0xbf77c962	-0.9679166
159	0xbd813f80	-0.0631094
160	0x3f3cbc0a	0.73724425
161	0x3ed78207	0.4209139
162	0x3ef25571	0.47330812
163	0x3e1afa2b	0.15134494
164	0xbefc74ab	-0.4930776
165	0x3f24997a	0.64296687
166	0xbc4d9e96	-0.012550017
167	0x3ecbf786	0.39837283
168	0x3f20b8eb	0.6278216
169	0x3d368c31	0.04456729
170	0xbdae649f	-0.08515286
171	0x3f2279f9	0.63467366
172	0x3e6df472	0.2323778
173	0xbf1ad95d	-0.6048792
174	0xbe783822	-0.24240163
175	0x3e85a1ba	0.2609995
176	0x3f1abeac	0.6044719
177	0x3f2a9462	0.66632664
178	0x3f04044e	0.5156907
179	0x3e24e7e9	0.16104092
180	0x3ee7f11f	0.45301148
181	0x3e865c83	0.26242456
182	0xbef79934	-0.48359072
183	0x3ec3136b	0.38100752
184	0x3bed1a02	0.0072357664
185	0x3d37c1ee	0.04486268
186	0xbcdd8335	-0.027040103
187	0x3eaef756	0.34173077
188	0xbe8cf856	-0.27533215
189	0xbf082b23	-0.5319082
190	0xbd7d56f5	-0.061850507
191	0x3f1dcddc	0.6164224
192	0xbdd01477	-0.10160153
193	0xbef192c0	-0.47182274
194	0x3de687ce	0.112563714
195	0x3e5ec11d	0.21753354
196	0x3f2e0f0c	0.6799171
197	0x3ed279bf	0.4110851
198	0xbf0ccff9	-0.5500484
199	0xbf45fb40	-0.773365
200	0xbeb8a9aa	-0.36066943
201	0x3e29cb07	0.16581355
202	0xbf183b4c	-0.5946548
203	0xbeba3f42	-0.36376387
204	0x3d90b3d3	0.07065549
205	0xbe6e88bd	-0.23294349
206	0x3e58fc82	0.21190074
207	0x3ece8802	0.4033814
208	0x3c129260	0.008946031
209	0xbf24eaa5	-0.6442054
210	0x3deac7ff	0.114639275
211	0xbea17abf	-0.3153896
212	0x3e1a5169	0.15070118
213	0x3e625294	0.22101814
214	0xbe2bd2e7	-0.16779672
215	0x3db71ffd	0.08941648
216	0x3e1687ea	0.14700285
217	0xbf179165	-0.5920623
218	0xbe9b610a	-0.30347472
219	0x3e03deb8	0.12877929
220	0xbce30ce6	-0.027716111
221	0xbea92fd1	-0.33044294
222	0xbe258536	-0.16164097
223	0xbe519c38	-0.20469749
224	0xbeee18c4	-0.4650327
225	0xbf80e980	-1.0071259
226	0xbf16a2e5	-0.5884231
227	0x3f8b5da5	1.0887953
228	0x3f987758	1.1911421
229	0xbf8e0896	-1.109637
230	0x3b52afe5	0.0032148298
231	0x3f7de4da	0.99177325
232	0x3f15c167	0.58498234
233	0xbf7f442e	-0.9971341
234	0xbb930524	-0.004486697
235	0xbf708620	-0.9395466
236	0x3f8ebdb8	1.1151648
237	0x3faab073	1.3335098
238	0x3d86ee59	0.0658843
239	0xbe1491e4	-0.14508778
240	0xbf953d98	-1.1659422
241	0xbf8c7653	-1.097361
242	0x3f5a234b	0.852101
243	0x3f8e0c51	1.1097509
244	0x3e48d234	0.19611436
245	0xbf97a285	-1.1846472
246	0x3f90e6a1	1.1320382
247	0xbe49640b	-0.1966707
248	0xbeb883f3	-0.3603817
249	0xbef30428	-0.47464108
250	0xbe4c6f7f	-0.19964407
251	0x3f9568c4	1.1672597
252	0x3e927299	0.28603056
253	0xbf1162c5	-0.56791335
254	0xbf47b774	-0.780143
255	0x3f87e435	1.0616518

36 f4 [32]
0	0xbf5ef75d	-0.87096196
1	0xbfeb7d04	-1.8397527
2	0xbdc21b10	-0.09477818
3	0xbf42805c	-0.7597711
4	0xc0082b21	-2.1276324
5	0x3fb3e32a	1.40537
6	0x3fc10e0e	1.5082414
7	0x3fbbcd0d	1.4671952
8	0x3f908a0b	1.1292127
9	0x3f624ca5	0.883982
10	0x3f89ce49	1.0766078
11	0x3ffd1c00	1.977417
12	0xbfda3289	-1.7046672
13	0x3f5dc37c	0.8662641
14	0x3eaac13e	0.33350557
15	0x3e6c2822	0.23062184
16	0x3f63ba89	0.88956505
17	0x3eacb77e	0.33733743
18	0xbf0e757b	-0.5564801
19	0xbe701654	-0.23446018
20	0xbd9b6bff	-0.07588958
21	0x3ee5d8d3	0.44891986
22	0xbe4c9520	-0.19978762
23	0x3ed408e6	0.4141304
24	0x40007e42	2.0077062
25	0xbeae48c3	-0.34039888
26	0x3cf67a7c	0.030087702
27	0xbfe6b059	-1.8022567
28	0xbda06046	-0.07830863
29	0x3ff18a85	1.8870398
30	0xbfdf2a50	-1.7434788
31	0x3eeec950	0.46637964

38 f4 [32, 32, 3, 3]
0	0xbc94fd58	-0.01818721
1	0x3e9f537e	0.31118387
2	0xbed32616	-0.41239995
3	0xbd87ba62	-0.066273466
4	0xbe8be0b0	-0.2731986
5	0x3e1dab52	0.15397385
6	0xbed184a1	-0.409215
7	0xbda98fe0	-0.08279395
8	0x3ec7ceb5	0.39024892
9	0xbed798a9	-0.42108658
10	0x3eb8c9ff	0.3609161
11	0xbef62350	-0.48073816
12	0xbc08402f	-0.008316084
13	0xbe73b1b1	-0.23798253
14	0xbe4e53aa	-0.20149103
15	0xbed34cf4	-0.41269648
16	0xbd2be4ad	-0.04196613
17	0x3eae2581	0.34012988
18	0xbe696690	-0.2279303
19	0xbe855b5a	-0.26046258
20	0x3d9b54f1	0.07584561
21	0x3dcc90ea	0.09988578
22	0xbe0e9881	-0.13925363
23	0x3f0d996b	0.5531222
24	0x3e86c77d	0.26324072
25	0x3ec69d10	0.38791704
26	0xbe90bdea	-0.28269893
27	0x3eaf222b	0.34205756
28	0x3f11077e	0.5665206
29	0x3d84cc7c	0.06484315
30	0xbe928172	-0.28614384
31	0x3e15bbc4	0.14622408
32	0x3d89b2f7	0.06723588
33	0xbe54653d	-0.20741744
34	0xbe9a1813	-0.30096492
35	0xbe3bd98d	-0.18344708
36	0xbc7ae544	-0.01531345
37	0xbd7e3b1b	-0.062068086
38	0xbd901c8b	-0.07036694
39	0xbe946e50	-0.28990412
40	0x3d41d825	0.047325272
41	0xbe77e234	-0.24207383
42	0x3ee0fca4	0.4394275
43	0xbea608ed	-0.32428685
44	0x3e5abcc0	0.21361065
45	0xbe2f8e57	-0.17144142
46	0x3eb6b52d	0.356851
47	0xbe017f06	-0.12646112
48	0xbe9d6c18	-0.3074653
49	0xbdc56ca4	-0.09639862
50	0x3f09ec1c	0.538759
51	0xbee5bca7	-0.44870493
52	0x3e4a22cd	0.19739838
53	0x3e1e67ab	0.15469234
54	0xbeee99f7	-0.4660184
55	0xbd82b21a	-0.063816264
56	0xbde8d65a	-0.11369009
57	0x3d12b50c	0.03581719
58	0x3ebecb7f	0.3726463
59	0xbe63c144	-0.22241694
60	0x3ed2df03	0.4118577
61	0xbd07e538	-0.033177584
62	0x3eb97774	0.36223948
63	0xbeac064c	-0.33598554
64	0x3e96d857	0.2946193
65	0xbed46f12	-0.4149099
66	0x3eb6e109	0.35718563
67	0x3d1cbbd7	0.038265076
68	0xbed454a0	-0.41470814
69	0xbd4fcbd0	-0.05073148
70	0xbec04975	-0.37556043
71	0x3d0a22b1	0.03372449
72	0x3ede4c1d	0.43417445
73	0x3e0a8eb9	0.13531007
74	0xbc01a776	-0.007913461
75	0xbeba9f94	-0.36449873
76	0xbea29f10	-0.3176198
77	0xbea63690	-0.32463503
78	0xbee3533d	-0.44399443
79	0xbd46e9cb	-0.048562806
80	0x3e024a44	0.12723643
81	0x3e503bf0	0.20335364
82	0x3d316098	0.04330501
83	0xbe0f3003	-0.13983159
84	0x3eb87b49	0.3603156
85	0xbed75688	-0.42058206
86	0xbf0512f4	-0.51982045
87	0xbc9c2ed4	-0.019065298
88	0x3e2ba0b4	0.16760522
89	0x3e3b7923	0.18307929
90	0xbe5aa290	-0.21351075
91	0xbe5583f1	-0.20851113
92	0x3e81f0f5	0.25379148
93	0x3efbd7d4	0.491881
94	0xbeaa709f	-0.33289048
95	0xbee3325f	-0.44374368
96	0x3c841da8	0.016127422
97	0xbe9919c4	-0.2990247
98	0xbc83ecb6	-0.016104084
99	0x3eba2272	0.36354405
100	0xbe50c1dd	-0.20386453
101	0xbda71798	-0.08158797
102	0x3ea2b216	0.31776494
103	0xbe25fce5	-0.16209753
104	0x3e6ff8fb	0.23434822
105	0xbec065d9	-0.37577704
106	0xbea8175b	-0.3283032
107	0x3ea90a5c	0.33015716
108	0xbef14861	-0.47125533
109	0x3ea69392	0.32534462
110	0x3db153f0	0.08658588
111	0xbf0bef20	-0.5466175
112	0x3e198872	0.14993456
113	0x3bed0a6a	0.0072339075
114	0x3ded7e86	0.11596398
115	0x3da04a13	0.078266285
116	0x3e00fa47	0.12595473
117	0x3da97b42	0.08275463
118	0x3e628fa2	0.22125104
119	0xbee2ce5f	-0.44298074
120	0x3eb3359a	0.35001832
121	0x3ec1bec3	0.37840852
122	0xbf045a77	-0.5170054
123	0x3ec09eb5	0.37621084
124	0x3c8b544f	0.017007975
125	0xbf0a6ea8	-0.540751
126	0x3e0b7a75	0.13620932
127	0xbea6d330	-0.32582998
128	0xbef2a314	-0.47390044
129	0xbe1309d4	-0.14359218
130	0xbd35320f	-0.044237193
131	0x3ebc7dd8	0.3681476
132	0xbdf61e2d	-0.12017474
133	0xbe1ca97e	-0.15299031
134	0x3d62c54e	0.055363946
135	0x3e165bb2	0.14683416
136	0x3f236d97	0.63839096
137	0x3e1da12f	0.15393518
138	0xbe0f304c	-0.13983268
139	0xbd1aff00	-0.037840843
140	0xbedb1d9b	-0.42796025
141	0x3e8ced95	0.2752501
142	0x3e23b05b	0.15985243
143	0x3e75d072	0.24005297
144	0xbf279121	-0.65455824
145	0x3d2a1109	0.041520152
146	0x3e41b6e3	0.18917422
147	0xbdf9a71d	-0.121900775
148	0xbe5a908a	-0.213442
149	0x3dfb28ef	0.12263667
150	0xbe8ef24e	-0.2791924
151	0xbe13e672	-0.14443377
152	0x3ccd85b3	0.025088167
153	0xbdc20402	-0.09473421
154	0x3f110aed	0.56657296
155	0xbee1bf31	-0.4409118
156	0xbe3d372c	-0.18478078
157	0xbe19b28b	-0.15009515
158	0xbef345b7	-0.47514126
159	0x3e566ca3	0.20939879
160	0x3d066b7d	0.032817353
161	0x3e025ac0	0.12729931
162	0x3eaf4d7e	0.3423881
163	0x3f11c538	0.56941557
164	0x3e3aec24	0.18254143
165	0x3f2fc2b1	0.6865645
166	0x3f041508	0.5159459
167	0xbd166edb	-0.036726814
168	0x3f1d00a8	0.61329126
169	0x3ce68af0	0.028142422
170	0xbefea2b8	-0.4973352
171	0x3cab0688	0.020877138
172	0x3d889830	0.066696525
173	0x3dba2c81	0.0909052
174	0xbe4926aa	-0.19643655
175	0xbebe526a	-0.37172252
176	0x3e8785e1	0.2646933
177	0x3ddbaf63	0.10726812
178	0xbe0115e0	-0.12606001
179	0x3ea8782c	0.32904184
180	0xbe619a98	-0.22031629
181	0x3c66a604	0.014077667
182	0x3e46f648	0.19429886
183	0x3f073034	0.5280793
184	0x3ccf3e03	0.025298124
185	0xbda1e554	-0.07905069
186	0xbe4c1e58	-0.1993345
187	0xbb790035	-0.0037994508
188	0x3e9e670a	0.30937988
189	0x3f229d85	0.63521606
190	0x3e36a0c6	0.17834768
191	0xbe4ae732	-0.19814757
192	0xbec18c75	-0.37802473
193	0xbe111002	-0.14166263
194	0x3d3510ff	0.044205662
195	0xbd7bd007	-0.061477687
196	0x3ef83bd0	0.48483133
197	0x3e912dc5	0.28355232
198	0xbef15ef4	-0.47142756
199	0xbe6214e3	-0.2207828
200	0xbf02aebb	-0.5104787
201	0xbdcbe91d	-0.09956572
202	0x3f09aefc	0.5378263
203	0xbe1a942b	-0.15095584
204	0x3e82385a	0.25433618
205	0xbdd1cc93	-0.102440976
206	0xbef237d0	-0.47308207
207	0xbee7f4ad	-0.4530386
208	0xbd9e0b92	-0.077170506
209	0xbbde37cb	-0.0067815534
210	0xbe9da44a	-0.30789405
211	0x3f1e1d0c	0.6176307
212	0x3d79beac	0.060972854
213	0x3e49dc13	0.19712858
214	0x3e52b957	0.20578514
215	0x3d9cbefb	0.07653614
216	0xbe724784	-0.23660094
217	0x3eb55581	0.35416797
218	0x3ea59124	0.32337296
219	0xbdb58a84	-0.088643104
220	0xbea213b6	-0.31655663
221	0x3f12cd72	0.57344735
222	0xbee22f7f	-0.44176862
223	0xbec5bac3	-0.3861905
224	0xbe718853	-0.2358716
225	0xbe4029f4	-0.18766004
226	0xbd28f98c	-0.04125361
227	0xbf202687	-0.6255879
228	0xbe2792bc	-0.16364568
229	0x3f0bca78	0.5460582
230	0xbea02201	-0.31275943
231	0xbe95747a	-0.29190427
232	0xbe776dc7	-0.2416297
233	0xbef72d80	-0.482769
234	0xbd74be3d	-0.059751738
235	0x3f20b47c	0.627754
236	0xbecb737e	-0.3973655
237	0xbd852ab4	-0.065022856
238	0x3f26962c	0.65072894
239	0xbe7d8b98	-0.24760282
240	0xbe8d96e2	-0.27654177
241	0xbea231d8	-0.31678653
242	0xbf0f89ce	-0.5606965
243	0x3dfc9574	0.123331934
244	0xbdc984a4	-0.09839752
245	0xbe20ff3e	-0.15722367
246	0xbcc2dc16	-0.023786586
247	0x3eb9aa77	0.36262867
248	0xbee3ac69	-0.44467476
249	0x3e26bb90	0.16282487
250	0xbe4f805b	-0.20263807
251	0x3c814f01	0.015784742
252	0x3e9be8f0	0.30451155
253	0xbf096831	-0.5367461
254	0xbd946bcb	-0.072471224
255	0x3d9fad58	0.077967346

39 f4 [32]
0	0x3e983d16	0.29734105
1	0x3f405938	0.75136137
2	0xbfd34d9c	-1.650806
3	0xbfecc7e6	-1.8498504
4	0x3f6c814b	0.92384785
5	0x4001030a	2.0158105
6	0xbf0d9074	-0.5529854
7	0x3fb92dae	1.4467065
8	0xbe5722e2	-0.210094
9	0x3d459deb	0.048246305
10	0xbf96995c	-1.1765552
11	0xbeb2aa8a	-0.34895736
12	0x40394005	2.8945324
13	0xbfd2dfec	-1.6474586
14	0xbc546b58	-0.012965046
15	0xbe2fbf62	-0.1716285
16	0xbfa75f34	-1.3075929
17	0x4034e55b	2.8264987
18	0x3f52799a	0.822168
19	0x3d99d645	0.07511572
20	0xbfdcaf4c	-1.7240996
21	0x400d0078	2.2031536
22	0x3fb8ae1c	1.4428134
23	0xbf22c46e	-0.6358098
24	0xc029628c	-2.6466398
25	0x3fb717cc	1.4304137
26	0x3f0d7a0a	0.5526434
27	0x401b7572	2.4290433
28	0xbe440b94	-0.19145042
29	0xc00e4893	-2.2231796
30	0xbe588510	-0.2114451
31	0x4080b7c1	4.022431

fc.0.bias f4 [308]
0	0x3d8be1f3	0.06830206
1	0x3aecfaf8	0.0018080166
2	0x3dd32fef	0.10311877
3	0x3d3366e2	0.04379929
4	0x3de04478	0.109505594
5	0xbd5276ae	-0.051382713
6	0x3df20d85	0.11818985
7	0xbd2ce1fe	-0.04220771
8	0x3ddb946b	0.10721668
9	0x3d1f8506	0.03894522
10	0x3e084f4c	0.133115
11	0xbce53c91	-0.027982982
12	0x3e069dab	0.13146083
13	0x3dc2b78c	0.09507665
14	0x3d653556	0.05595907
15	0x3d774a87	0.06037381
16	0x3d7ee44a	0.062229432
17	0x3c858672	0.01629946
18	0x3e0d8d3f	0.13823412
19	0xbcfebc20	-0.031095564
20	0x3d35308a	0.044235744
21	0x3cab1578	0.02088426
22	0x3df53149	0.11972291
23	0x3db89930	0.09013593
24	0x3b917ee0	0.0044401735
25	0x3c7d6e48	0.015468188
26	0x3c2b90e7	0.010471559
27	0x3d2dc4cd	0.042424012
28	0x3d79ae3c	0.06095718
29	0x3dc2630e	0.094915494
30	0x3da44b80	0.08022213
31	0x3c83c70c	0.016086124
32	0x3d02ec48	0.031963617
33	0x3ce7a49c	0.028276734
34	0x3d9a0bc3	0.075217746
35	0x3d1fea50	0.039041817
36	0x3d9b91f3	0.07596197
37	0x3cfe9124	0.031075068
38	0x3da535a9	0.080668755
39	0x3dadb302	0.08481409
40	0x3dc2c692	0.095105305
41	0x3d97191d	0.07377837
42	0x3bd2f66b	0.0064380667
43	0xbd4739af	-0.048638996
44	0x3dceef00	0.101041794
45	0xbd80fa56	-0.06297748
46	0x3d5d7a3a	0.054071642
47	0x3dcb3a40	0.0992322
48	0x3c835c0d	0.016035104
49	0xbbde35b7	-0.0067813057
50	0x3ce6e306	0.028184425
51	0x3d4c6b65	0.049907107
52	0x3cd8090b	0.0263715
53	0x3def8121	0.11694551
54	0xbc8c98c7	-0.017162694
55	0x3ddb7764	0.10716131
56	0x3d7f6223	0.06234945
57	0x3db12f68	0.0865162
58	0x3df76a88	0.12080866
59	0x3d3174ad	0.04332416
60	0x3df87165	0.12131003
61	0x3d0a2705	0.03372862
62	0x3c8cc862	0.017185394
63	0x3c87ad1c	0.016562037
64	0xbd53b024	-0.051681653
65	0xbd508359	-0.050906513
66	0x3e012bff	0.1261444
67	0x3d2eadb2	0.042646118
68	0x3de9df88	0.11419588
69	0x3e136b65	0.14396437
70	0xbbada6a8	-0.005299408
71	0x3dcf0742	0.10108806
72	0x3ce2057a	0.027590502
73	0x3cab80c9	0.020935433
74	0x3d2d2245	0.04226901
75	0x3d04ef36	0.03245469
76	0x3c637ea4	0.013885174
77	0xbc3cb380	-0.0115174055
78	0x3d8b9e32	0.06817283
79	0x3df06dc8	0.11739689
80	0x3dcaac61	0.0989616
81	0x3d93f967	0.07225304
82	0xbcf51794	-0.02991847
83	0x3da046ab	0.07825979
84	0x3cfffa40	0.031247258
85	0x3d93bc15	0.07213608
86	0x3d9447e8	0.072402775
87	0xba619dd3	-0.00086065865
88	0x3d254bfd	0.04035567
89	0x3d244bcd	0.04011135
90	0xbcad08a3	-0.021122282
91	0x3cbb7a19	0.02288537
92	0xbc2bdd14	-0.010489721
93	0xbd1dbb61	-0.038508777
94	0x3daf0959	0.08546705
95	0x3dcd9495	0.100381054
96	0x3de476b0	0.1115545
97	0x3c9da2bb	0.019242635
98	0x3d2338e8	0.039849192
99	0x3d29a00e	0.041412406
100	0x3d966ce0	0.07344985
101	0x3dac28f5	0.084062494
102	0xbd85c941	-0.06532527
103	0x3cddc038	0.027069196
104	0xbc900e03	-0.017584806
105	0x3d2d6a4c	0.0423377
106	0x3cd68bbd	0.02618968
107	0x3d9397da	0.07206698
108	0x3dd2d4dc	0.10294506
109	0x3d053b8a	0.032527484
110	0x3da737f7	0.08164971
111	0x3d06fcd8	0.032955974
112	0xbc0db0a7	-0.008648074
113	0x3df1f376	0.118140146
114	0x3df2de10	0.11858761
115	0x3d08abab	0.03336684
116	0x3d99332e	0.07480465
117	0x3d177883	0.036980163
118	0x3d9b75f9	0.07590861
119	0x3c39afe4	0.0113334395
120	0x3ddfdbfa	0.10930629
121	0x3c9276ec	0.017878972
122	0x3d34a167	0.044099238
123	0x3d9069f3	0.07051458
124	0x3d13b239	0.03605864
125	0xbd044efd	-0.03230189
126	0x3c42cbf2	0.011889445
127	0x3d28a2c1	0.04117084
128	0x3da3b50e	0.07993518
129	0x3cbc2f7b	0.02297186
130	0x3c5868a2	0.01320854
131	0x3d8a9227	0.067661576
132	0x3d163a0f	0.036676463
133	0x3dc38b8d	0.095481016
134	0x3d946c5d	0.07247231
135	0xbad320fb	-0.0016107851
136	0x3dc0285b	0.09382697
137	0x3e00db30	0.12583613
138	0x3d740807	0.059577968
139	0x3da5a6aa	0.08088429
140	0xbd0313eb	-0.032001417
141	0x3ded34e9	0.115823574
142	0xbd08f34f	-0.033435162
143	0x3d368291	0.04455811
144	0xbc7cb9a1	-0.015425117
145	0x3c1ef652	0.009702282
146	0x3ddce926	0.10786657
147	0x3dab9f87	0.08380037
148	0x3de08a85	0.109639205
149	0x3d5cf33b	0.0539429
150	0x3d9a8be8	0.07546216
151	0xbcce11e1	-0.02515501
152	0xbca77f01	-0.020446302
153	0x3d2f527e	0.04280328
154	0xbc9d0a7a	-0.019170035
155	0x3d90681a	0.07051106
156	0x3d9abcfd	0.07555578
157	0x3d1f58f7	0.038903203
158	0x3d771961	0.060326938
159	0x3dba2add	0.09090207
160	0x3dcbdd35	0.09954301
161	0x3d47ef8b	0.04881243
162	0x3d85fa15	0.0654184
163	0xbc886956	-0.01665179
164	0x3ba7ddad	0.0051228614
165	0x3d0696d4	0.032858685
166	0xbb97fefc	-0.004638551
167	0xbb9cf06c	-0.0047894027
168	0x3d33e2a2	0.043917306
169	0x3c8347b3	0.0160254
170	0xba97bdf0	-0.0011576992
171	0xbc7e024e	-0.015503479
172	0x3decadc5	0.115565814
173	0x3d8a4125	0.067507066
174	0x3dde06fd	0.10841177
175	0x3d7ffa36	0.06249448
176	0x3d09e4c6	0.03366544
177	0x3d933e50	0.071896195
178	0x3d9d172a	0.07670434
179	0x3c1cbb70	0.009566173
180	0x3d20dd1b	0.039273363
181	0x3d03a451	0.032139126
182	0xbd711d9b	-0.058866125
183	0x3cc5c416	0.024141353
184	0x3cb33a13	0.021878278
185	0x3d533e47	0.051573064
186	0xbc5df035	-0.013546039
187	0x3d350fc9	0.044204507
188	0x3b8c0df9	0.0042741266
189	0x3cd4dde5	0.025984714
190	0xbc599254	-0.013279516
191	0x3cc3b0d7	0.023888035
192	0xbc589c47	-0.013220853
193	0x3dc1b88d	0.094590284
194	0x3cd7b5c1	0.026331784
195	0x3d95b4b2	0.073098555
196	0x3dade834	0.08491555
197	0xbcd042ed	-0.025422538
198	0x3c99ab6c	0.018758498
199	0x3aab7772	0.0013081862
200	0x3ddba096	0.10723989
201	0x3d0efb5f	0.034907695
202	0x3d03322b	0.032030266
203	0x3d8d9846	0.069138095
204	0x3d908fa2	0.07058646
205	0xbce07304	-0.027398594
206	0x3d833ff7	0.06408685
207	0x3c467af5	0.012114276
208	0x3d86ab9a	0.06575699
209	0x3d30e071	0.043182794
210	0x3db52acd	0.08846054
211	0x3d4a47ef	0.049385007
212	0x3ddf8cb9	0.109155126
213	0x3d83160e	0.06400691
214	0xbcc5b4aa	-0.024133999
215	0x3cda4c58	0.026647732
216	0x3dcb9600	0.099407196
217	0xbd02d808	-0.031944305
218	0x3df18246	0.11792426
219	0x3da7dc78	0.08196348
220	0x3d1b37e4	0.0378951
221	0x3ced45f8	0.028964028
222	0x3db80ba4	0.08986595
223	0x3d464e4e	0.04841452
224	0x3dbc0efb	0.09182545
225	0xbd09e6e5	-0.033667464
226	0x3d432c7f	0.047649857
227	0x3d6bdd10	0.05758387
228	0xbc9442d3	-0.01809827
229	0xbd0d1c3b	-0.03445075
230	0x3e0e4b20	0.13895845
231	0xbcc01511	-0.023447545
232	0x3bcf245f	0.0063214744
233	0x3d96ae45	0.07357458
234	0x3dc6515a	0.09683485
235	0xbd157a9a	-0.036493875
236	0xbcbbe5d4	-0.022936739
237	0xbc68cc86	-0.014208918
238	0x3d057af6	0.032587968
239	0x3d65cb76	0.05610224
240	0x3e0b5d6d	0.13609858
241	0x3d68d674	0.056845143
242	0xbd2af16f	-0.041734155
243	0x3dda91d1	0.106723435
244	0x3daa051b	0.08301755
245	0x3da4a492	0.08039202
246	0xbbb499e8	-0.005511511
247	0x3b9a4340	0.004707724
248	0xbc0e11d7	-0.008671246
249	0x3dc74f1e	0.09731887
250	0x3d58a587	0.052892234
251	0x3cb8b01f	0.022544919
252	0x3ac207b6	0.0014803323
253	0xbb40ca4a	-0.0029417449
254	0x3cd36139	0.025803195
255	0xbc69324c	-0.014233183

fc.0.weight f4 [308, 128]
0	0xbd56d749	-0.052451406
1	0xbe08d42d	-0.13362189
2	0xbd9a125a	-0.075230315
3	0xbcf8f9af	-0.030392496
4	0xbbb225a1	-0.0054366146
5	0xbd8ccbfa	-0.06874843
6	0x3c128f4b	0.0089452965
7	0xbdfee44c	-0.12445888
8	0x3dd7f2f1	0.10544384
9	0x3cbf7e87	0.023375763
10	0x3d517d40	0.05114484
11	0x3e0b27b7	0.13589369
12	0x3dc218fa	0.0947742
13	0x3de3efae	0.111297
14	0xbc5cc786	-0.0134753045
15	0x3d8fb8b7	0.070176534
16	0x3e0884aa	0.13331857
17	0x3db81e2c	0.0899013
18	0x3cb2252b	0.021746239
19	0x3e01ad23	0.12663703
20	0x3d392998	0.045205683
21	0x3db0e9bb	0.086383305
22	0xbde8393b	-0.11339041
23	0xbdc75553	-0.09733071
24	0xbb54c74c	-0.0032467423
25	0xbc1872ea	-0.009304741
26	0x3cf2c916	0.0296369
27	0x3d5bddc3	0.053678285
28	0xbd75fc01	-0.060054783
29	0xbc9720e9	-0.01844831
30	0xbd79701b	-0.060897928
31	0xbe1d3f16	-0.15356097
32	0x3d91ab07	0.07112699
33	0x3d1a2eff	0.037642475
34	0x3cdcd041	0.026954772
35	0x3d190bea	0.037364878
36	0xbd88c10b	-0.06677445
37	0xbcb5de08	-0.0222006
38	0xbcf32ea3	-0.029685324
39	0x3d9b1581	0.07572461
40	0xbc34c7dd	-0.011033979
41	0x3de6c78b	0.112685286
42	0x3d518919	0.051156137
43	0x3c3139f6	0.010817042
44	0x3c130951	0.008974389
45	0x3dbddd2b	0.092707
46	0x3dbbcca7	0.09169894
47	0xbdaae91b	-0.083452426
48	0x3e14f8a7	0.14547978
49	0x3df7a032	0.12091102
50	0xbc8589ba	-0.016301025
51	0x3d230bd8	0.039806217
52	0x3d85a92b	0.06526407
53	0xbcb5ee5f	-0.02220839
54	0xbd13298a	-0.035928287
55	0x3d201ddb	0.039090972
56	0xbe2514d0	-0.1612122
57	0xbd137ce1	-0.036007766
58	0xbe0f4169	-0.13989796
59	0xbc355c00	-0.011069298
60	0x3d1fca0f	0.039011057
61	0xbd3bdbb2	-0.045863815
62	0x3db82b90	0.08992684
63	0xbd2f9631	-0.042867843
64	0x3e11ba3e	0.14231202
65	0x3e191d65	0.1495262
66	0x3da524d1	0.08063663
67	0x3c4033d0	0.011731103
68	0xbdc16ad2	-0.094442025
69	0x3db08199	0.08618469
70	0xbd3ca88e	-0.046059184
71	0x3d1af4e3	0.0378312
72	0xbd6a349c	-0.05717908
73	0x3d9109c4	0.07081941
74	0xbd4baa55	-0.04972299
75	0xbdd2e6ff	-0.10297965
76	0x3d79c656	0.060980164
77	0x3dcf4553	0.101206444
78	0x3d9bdf81	0.07610989
79	0xbd119600	-0.03554344
80	0x3dc4ad7c	0.09603402
81	0xbccdfce4	-0.025145002
82	0x3d0baf4c	0.034102723
83	0x3d600a84	0.05469753
84	0x3db1e4d2	0.08686222
85	0xbcdcfa89	-0.026974933
86	0x3e1d354f	0.15352367
87	0x3c0496a8	0.00809256
88	0xbdbd3bdb	-0.09239932
89	0x3d06f90f	0.032952365
90	0xbb24b890	-0.0025134422
91	0xbc0717fb	-0.0082454635
92	0x3da09cb4	0.07842389
93	0x3da94012	0.082641736
94	0x3d1e9595	0.03871687
95	0x3daa720c	0.08322534
96	0x3da68224	0.08130291
97	0x3ccf17f8	0.025279984
98	0xbb9bd1f1	-0.0047552516
99	0x3c3085bd	0.010774073
100	0x3a38c3c9	0.0007048217
101	0xbce06414	-0.027391471
102	0x3cc864f6	0.024462204
103	0x3cb48d27	0.022039963
104	0x3da7fc5a	0.08202429
105	0x3de4de27	0.11175185
106	0x3c50343f	0.012707769
107	0x3da0a9cb	0.078448854
108	0x3e081e0f	0.13292716
109	0x3d7503ea	0.059818186
110	0x3d9cd2b6	0.076573774
111	0xbd0a408a	-0.033752955
112	0x3d4768cc	0.048683926
113	0x3dd4d0ae	0.10391365
114	0xbd8e32d8	-0.069432914
115	0x3a474b27	0.0007602446
116	0xbc4edf12	-0.012626426
117	0xbca544b6	-0.020174365
118	0xbd58cb76	-0.05292841
119	0x3cf370f6	0.02971695
120	0xbdd95e70	-0.10613716
121	0x3bf17910	0.007369168
122	0xbdbabbde	-0.09117864
123	0x3de55aca	0.11198957
124	0x3df03157	0.11728161
125	0x3d80eb00	0.06294823
126	0x3daf666d	0.08564458
127	0xbd3ceb7e	-0.04612302
128	0x3e114f3b	0.1419038
129	0xbd52731d	-0.05137931
130	0xbdd0637e	-0.10175227
131	0x3deedc85	0.116631545
132	0x3d92fc61	0.07177044
133	0x3da663b3	0.08124485
134	0xbe0be0b9	-0.13659944
135	0xbdc88c0a	-0.09792335
136	0xbd09e14d	-0.03366213
137	0x3ac27761	0.0014836603
138	0xbcb64fd0	-0.022254854
139	0x3d998d46	0.07497649
140	0xbd8e0cd7	-0.06936043
141	0x3d8f8783	0.07008269
142	0xbe227f26	-0.15868816
143	0xbe07e966	-0.13272628
144	0x3de68b8d	0.11257086
145	0x3e03cc3d	0.1287088
146	0xbe1bdd78	-0.15221202
147	0xbe213e03	-0.15746312
148	0x3e24f9a0	0.1611085
149	0x3dc66982	0.09688093
150	0x3de9a774	0.11408892
151	0xbdab8f7d	-0.083769776
152	0x3cdc0617	0.026858373
153	0x3d3615fa	0.044454552
154	0xbe098b44	-0.13432032
155	0xbe0662c7	-0.13123618
156	0x3d01df04	0.031706825
157	0xbd8467dd	-0.06465123
158	0xbd66d09d	-0.056351293
159	0xbdd7dff0	-0.105407596
160	0xbb953fdf	-0.004554733
161	0x3dacc329	0.08435661
162	0x3d224d76	0.039624654
163	0x3cbed6fa	0.023295868
164	0x3e05a09c	0.13049549
165	0x3dd56b18	0.10420817
166	0xbdd2da67	-0.10295563
167	0xbce83899	-0.0283473
168	0xbd40d3f9	-0.047077153
169	0x3da6e305	0.08148769
170	0x3dfdb7b5	0.12388555
171	0xbd652969	-0.055947695
172	0x3e1205ae	0.14259979
173	0x3e1f559f	0.15560006
174	0x3e1fba60	0.1559844
175	0xbdebf105	-0.1152058
176	0x3ddc7e41	0.107662685
177	0x3d980be3	0.07424142
178	0x3d46a4e0	0.04849708
179	0x3c7e1478	0.01550781
180	0x3e1dcf89	0.154112
181	0x3c9acdb3	0.018896913
182	0x3c6d7833	0.01449399
183	0x3c997fec	0.018737756
184	0x3dc91d4c	0.09820041
185	0x3db1b2ea	0.08676703
186	0x3db2c3c1	0.08728743
187	0x3d4817d6	0.048850857
188	0x3ddffb2f	0.10936581
189	0xbb944ca5	-0.0045257383
190	0x3cc686ac	0.024234138
191	0xbdc41f14	-0.0957624
192	0x3d6a581e	0.05721294
193	0x3dbaf508	0.09128767
194	0x3bef4844	0.007302316
195	0xbce3b779	-0.027797448
196	0xbd2b089e	-0.041756265
197	0x3d2fad3b	0.042889815
198	0x3c9c163b	0.019053569
199	0x3d375075	0.044754464
200	0xbdd52e8c	-0.10409269
201	0xbccb1897	-0.024791999
202	0xbccf31ee	-0.025292363
203	0x3d8a5345	0.06754164
204	0x3e107805	0.14108284
205	0x3b18f159	0.0023337214
206	0x3d965271	0.07339943
207	0xbd6f47c7	-0.05841806
208	0x3e06f343	0.13178734
209	0x3d6509f0	0.05591768
210	0xbdd9905f	-0.1062324
211	0x3dc95d75	0.09832279
212	0x3cade1ad	0.021225775
213	0x3d5abd4f	0.053403195
214	0xbd2f8860	-0.042854667
215	0x3e0861ff	0.13318633
216	0x3d496cc1	0.04917598
217	0x3e20a5f9	0.15688314
218	0xbde49283	-0.111607574
219	0x3d422e30	0.04740733
220	0xbbabef31	-0.0052470197
221	0xbc56bf81	-0.0131071815
222	0xbe45e818	-0.19326818
223	0xbe0f2ac3	-0.13981156
224	0xbc14c5bd	-0.009080348
225	0x3e082099	0.13293685
226	0x3cdaa148	0.026688233
227	0xbd1e41f5	-0.03863712
228	0x3e13b4cb	0.14424436
229	0x3e139a47	0.14414321
230	0xbdd3ffaa	-0.103514984
231	0x3e1a3891	0.15060641
232	0x3e042b76	0.12907204
233	0xbce094d9	-0.027414726
234	0x3d25c340	0.040469408
235	0x3c9dbaf3	0.019254183
236	0x3d305368	0.043048292
237	0xbdc0739f	-0.09397053
238	0x3ce3b60a	0.027796764
239	0xbd4755a9	-0.048665676
240	0x3dc2bf69	0.09509165
241	0x3d226a23	0.039652
242	0x3ce28110	0.027649432
243	0x3bbd43d8	0.00577591
244	0xbd74cb23	-0.05976404
245	0x3e48da9c	0.19614643
246	0x3de64fdf	0.11245703
247	0x3c31db43	0.010855499
248	0xbcda2e0b	-0.026633283
249	0x3da6360d	0.08115778
250	0xbca50999	-0.020146178
251	0x3d442667	0.047888186
252	0xbdfefc38	-0.12450451
253	0xbe3a1728	-0.18172896
254	0x3df45b2d	0.11931453
255	0x3d889928	0.06669837

fc.2.bias f4 [154]
0	0xbc2e60b8	-0.010643177
1	0xbc53f647	-0.012937135
2	0xbd260a8d	-0.040537406
3	0xbd98cb8c	-0.074606985
4	0x3d9ef8ce	0.077622995
5	0x3ca56e43	0.020194178
6	0x3c5e758f	0.013577833
7	0x3d7e3443	0.06206156
8	0x3d9de640	0.07709932
9	0xbda6918f	-0.08133232
10	0xbd7014f1	-0.05861372
11	0xbdbd47d9	-0.092422195
12	0x3c8d17ad	0.017223204
13	0x3d21e3ea	0.039523996
14	0x3c79d489	0.015248426
15	0xbbfbb985	-0.0076820278
16	0x3d530527	0.051518586
17	0xbc366f46	-0.011134928
18	0x3d898389	0.067145415
19	0x3b2f4cae	0.0026748586
20	0xbc2d0d74	-0.0105622895
21	0x3d367c50	0.044552147
22	0x3c7cb80b	0.015424739
23	0x3db86917	0.09004419
24	0x3d5435cd	0.05180912
25	0x3cb12bad	0.021627272
26	0x3b3f749b	0.002921379
27	0xbd7eacc6	-0.06217649
28	0xbdbf5441	-0.09342242
29	0x3d81d9df	0.06340384
30	0xbd768d71	-0.060193483
31	0xbc89bdf7	-0.016814215
32	0x3d47703a	0.048691012
33	0xbd2fe515	-0.04294308
34	0xbd884501	-0.066537865
35	0xbb26091a	-0.0025335015
36	0xbcadbf46	-0.02120937
37	0x3cd2cbaa	0.02573188
38	0x3d0935f5	0.033498723
39	0x3d056781	0.032569412
40	0x3d17bca7	0.037045147
41	0xbda2cf6e	-0.0794972
42	0xbd1811d0	-0.037126362
43	0x3cfd5bdc	0.030927591
44	0x3d84cc45	0.06484274
45	0x3d89b747	0.067244105
46	0xbd99b413	-0.075050496
47	0x3d66f6e4	0.056387797
48	0xbc936e99	-0.017997073
49	0xbce63463	-0.028101152
50	0xbd9068b5	-0.07051221
51	0xbdb7be5a	-0.089718536
52	0xbc63992a	-0.013891498
53	0xbc98fede	-0.018676218
54	0x3b05ab41	0.0020396265
55	0x3bcb7cb5	0.0062099346
56	0xbcafe0c9	-0.02146949
57	0xba2e9f85	-0.00066613435
58	0xbd178fcd	-0.037002373
59	0x3d3c8c62	0.046032317
60	0xbd8b9c41	-0.068169124
61	0xbd7f3bc7	-0.062312867
62	0x3d427180	0.047471523
63	0xbb09c2f5	-0.0021020744
64	0xbdb2ee9e	-0.08736919
65	0xbab81462	-0.001404416
66	0xbd7468cf	-0.059670266
67	0xbd551eb0	-0.05203122
68	0x3bd10e3e	0.0063798716
69	0xbd0c939a	-0.03432045
70	0x3b02fbbc	0.001998647
71	0x3daf5e09	0.08562858
72	0xbd388dae	-0.04505699
73	0x3c131b4c	0.008978676
74	0x3d84bffe	0.06481932
75	0xbc11f04b	-0.008907388
76	0x3cc7d61b	0.024394086
77	0x3d0ef2c1	0.034899477
78	0xbda35ec7	-0.07977062
79	0x3c366195	0.011131664
80	0x3c8ec82d	0.017429436
81	0x3cfc15ea	0.030772168
82	0xbd2d4006	-0.042297386
83	0x3d58dc79	0.052944634
84	0xbd97b0c6	-0.07406764
85	0xbd85a426	-0.065254495
86	0xbdbb3eae	-0.091428146
87	0xbd44efac	-0.04808013
88	0x3c1f36fa	0.009717697
89	0xbd8ce0dc	-0.06878826
90	0xbcd6f8da	-0.026241709
91	0x3d1f0d6d	0.038831163
92	0xbb07abe8	-0.002070183
93	0xbd257f89	-0.04040483
94	0xbcfb2afe	-0.030660149
95	0xbbe04bb3	-0.0068449616
96	0x3ca12af6	0.019673806
97	0xbd50c0f7	-0.050965276
98	0x3c544379	0.01295554
99	0x3da1c6ab	0.07899221
100	0xbd73409f	-0.0593878
101	0xbc580b21	-0.013186247
102	0xbd59256e	-0.05301421
103	0x3c77a43c	0.01511484
104	0x3c277cf1	0.010222659
105	0x3d955902	0.072923675
106	0xbc0a30fc	-0.00843453
107	0x3cbbf518	0.022944018
108	0x3c50e04f	0.012748792
109	0xbd2e4931	-0.04255027
110	0xbd96b707	-0.073591284
111	0xbd71832e	-0.058962993
112	0x3d841637	0.0644955
113	0xbd2eef7a	-0.04270885
114	0xbd913cea	-0.070916966
115	0xbc953ec5	-0.018218407
116	0x3d967f72	0.07348527
117	0x3bd32fc4	0.006444903
118	0xbcf92220	-0.03041178
119	0x3d37e6ba	0.044897772
120	0x3d3f2332	0.046664424
121	0xbd48ca12	-0.049020834
122	0xbd99b168	-0.07504541
123	0xbd501860	-0.050804496
124	0xbda5b297	-0.08090704
125	0x3c32f374	0.010922302
126	0xbd8246fb	-0.06361195
127	0x3cbd0746	0.023074757
128	0xbd3ae3a0	-0.045627236
129	0xbd44e005	-0.048065204
130	0xbd06b59a	-0.032888032
131	0xbc4604a7	-0.01208607
132	0xbd72d3ce	-0.059284024
133	0x3c2d303c	0.010570582
134	0x3d023e9c	0.03179799
135	0xbc243990	-0.01002349
136	0x3a7ebb7c	0.00097172684
137	0x3cf498af	0.029857961
138	0x3d4bc02d	0.04974382
139	0xbd180ac2	-0.037119634
140	0xbcf95bfa	-0.030439366
141	0x3d6ad136	0.057328425
142	0x3dc0809b	0.093995295
143	0x3cbc272b	0.022967895
144	0x3d4d8507	0.050175693
145	0xbd8a37bc	-0.06748912
146	0xbc2a1283	-0.01038039
147	0xbce83df5	-0.028349856
148	0xbd2f3d8f	-0.042783316
149	0xbd3923b3	-0.04520006
150	0x3cb3e567	0.021959973
151	0xbcde09b4	-0.027104236
152	0xbdb44e73	-0.088040255
153	0x3d84cd1a	0.064844325

fc.2.weight f4 [154, 308]
0	0xbc7211a2	-0.014774712
1	0xbdb751d6	-0.08951156
2	0xbd187c15	-0.03722771
3	0x3d445b8b	0.047938865
4	0xbd8e3314	-0.06943336
5	0x3ccaf95e	0.02477711
6	0xbc66cd10	-0.014086977
7	0xbd0eb2fc	-0.03483866
8	0xbda67285	-0.081273116
9	0xbdaa673b	-0.08320471
10	0xbb68a2f0	-0.003549751
11	0xbd1a5b4f	-0.037684735
12	0xbd82eddf	-0.063930266
13	0x3d9e5762	0.07731511
14	0x3bf611a0	0.0075094253
15	0x3d714614	0.058904722
16	0x3d01dcae	0.031704597
17	0xbcbbb70b	-0.02291443
18	0x3da347d0	0.079726815
19	0x3d1ef19d	0.03880464
20	0xbd9c5cb2	-0.07634868
21	0xbd25b081	-0.04045153
22	0xbd229e47	-0.039701726
23	0x3dd7c40e	0.10535441
24	0x3d958356	0.07300441
25	0xbd88fdd3	-0.06689038
26	0x3dabf996	0.08397214
27	0xbd6fe251	-0.05856544
28	0xbcd463cb	-0.025926491
29	0xbdd532f2	-0.10410108
30	0x3c9f402d	0.019439781
31	0xbd882a95	-0.06648747
32	0x3d857897	0.06517141
33	0xbcfb6771	-0.030688973
34	0x3d2ee41f	0.042698022
35	0xbda8827e	-0.082280144
36	0xbdbaa8dc	-0.091142386
37	0xbd55f7a9	-0.05223814
38	0xbda7a27e	-0.0818529
39	0x3d63d95d	0.055627216
40	0xbdfea18c	-0.12433156
41	0x3d9053c6	0.070472285
42	0x3a61b783	0.0008610414
43	0xbcae0258	-0.021241352
44	0x3dd1bd1d	0.102411486
45	0xbd8a6ece	-0.067594156
46	0x3d9d8314	0.07691017
47	0xbdad0188	-0.08447558
48	0xbdb54917	-0.088518314
49	0xbb795438	-0.0038044583
50	0x3d31eb3c	0.043437228
51	0xbdd85213	-0.105625294
52	0xbc934611	-0.017977746
53	0x3d46b76c	0.04851477
54	0xbd3fb2cc	-0.046801373
55	0xbd6b06dc	-0.05737959
56	0xbdcf0d20	-0.10109925
57	0xbdc3d0a7	-0.09561282
58	0x3da4c2db	0.08044978
59	0xbc6e341c	-0.014538791
60	0xbcf56e0f	-0.029959707
61	0x3d46ef96	0.04856833
62	0xbd7ec55f	-0.062199946
63	0x3dabd575	0.08390323
64	0x3c9e41a0	0.019318402
65	0xbd22ff1c	-0.039794073
66	0xbb82c8a3	-0.003991203
67	0xbdfa52b7	-0.12222808
68	0x3d86bde4	0.065791875
69	0xbd336664	-0.04379882
70	0xbdb62fc2	-0.08895828
71	0xbd4c7082	-0.049911983
72	0x3d997d54	0.074946076
73	0xbd8049e7	-0.06264096
74	0x3d0f8c0b	0.035045665
75	0x3d673043	0.05644251
76	0xbce93a18	-0.028470084
77	0xbd039f97	-0.03213462
78	0xbd96a3ea	-0.07355483
79	0xbdae6d82	-0.08516981
80	0xbc0f336f	-0.00874029
81	0x3dacfeb9	0.08447022
82	0xbdc7ef3d	-0.09762428
83	0xbde8f690	-0.11375153
84	0xbe071f23	-0.13195471
85	0x3d6faeac	0.05851619
86	0x3d9c437c	0.07630059
87	0xbdb5e2c0	-0.0888114
88	0xbd6f10c6	-0.058365606
89	0xbd2fffda	-0.04296861
90	0x3d03c755	0.03217252
91	0xbd919dc8	-0.071101725
92	0xbde15bd4	-0.11003843
93	0x3dd40753	0.103529595
94	0xbd331c94	-0.043728426
95	0xbdde9f60	-0.10870242
96	0xbc715c9e	-0.014731554
97	0x3da84f0a	0.082182005
98	0xbdc685ba	-0.09693475
99	0x3e088753	0.13332872
100	0x3d8c2e42	0.068447605
101	0x3d575a96	0.052576624
102	0xbd7ca842	-0.0616839
103	0xba51d59a	-0.00080045464
104	0xbcd37c31	-0.025816055
105	0xbb5f6498	-0.0034087058
106	0x3ca123a9	0.019670324
107	0xbc949821	-0.018138947
108	0x3cf37016	0.029716533
109	0xbc92a266	-0.017899703
110	0x3d65f6aa	0.05614344
111	0xbc0838f5	-0.008314361
112	0x3de48d5a	0.11159773
113	0x3d8253ed	0.06363664
114	0xbd27c35d	-0.040957797
115	0xbdd2f5fa	-0.103008226
116	0xbcc1a519	-0.023638295
117	0xbc1a5ccd	-0.0094215395
118	0x3ddbeabd	0.10738132
119	0x3b137740	0.0022501498
120	0xbc6a93fb	-0.014317508
121	0x3dc54fbc	0.09634349
122	0xbd83ddf5	-0.06438819
123	0xbda20eb8	-0.07912964
124	0x3d386d52	0.04502613
125	0xbdb73634	-0.08945885
126	0xbd8af3bc	-0.0678477
127	0xbc109ba0	-0.008826166
128	0xbcbc5881	-0.02299142
129	0x3cac8936	0.021061521
130	0x3d716913	0.058938097
131	0xbe06a38c	-0.13148326
132	0xbdd583c4	-0.10425523
133	0xbd447a49	-0.047968183
134	0xbd84e5e0	-0.06489158
135	0x3d2fc4ba	0.042912222
136	0x3cadd869	0.021221356
137	0xbdd556cf	-0.10416948
138	0x3d7016ea	0.058615603
139	0xbc889754	-0.016673721
140	0x3cfa6907	0.030567659
141	0x3d9cca2f	0.07655751
142	0xbde199e3	-0.1101568
143	0xbd94225f	-0.07233118
144	0xbde8d3a4	-0.11368492
145	0x3d2aa42b	0.04166047
146	0x3af6ebb5	0.0018838557
147	0xbdd212da	-0.10257502
148	0xbda100a8	-0.07861453
149	0xbddce16a	-0.10785182
150	0xbd541371	-0.051776353
151	0x3df59299	0.11990852
152	0xbe003926	-0.125218
153	0x3d58257f	0.052770134
154	0xbd7fef5d	-0.062484134
155	0x3dbf1426	0.09330015
156	0xbde6ec57	-0.11275547
157	0x3c431eef	0.011909231
158	0x3ddd4d95	0.10805813
159	0x3d9493c2	0.07254745
160	0x3c15e9aa	0.009149948
161	0x3d5e0a1b	0.054208856
162	0xbd8147b6	-0.06312506
163	0xbd122917	-0.035683718
164	0xbbb2c8c7	-0.0054560634
165	0xbd97244a	-0.073799685
166	0x3d09c322	0.03363336
167	0x3c414d4a	0.011798212
168	0x3d963c7a	0.07335754
169	0x3baf40fb	0.0053483224
170	0x3d86b299	0.065770335
171	0x3dc436c3	0.095807575
172	0x3db61c93	0.08892169
173	0x3d60d3c5	0.05488946
174	0xbd2d56bc	-0.042319044
175	0x3c45127b	0.012028332
176	0xbd24f3fa	-0.040271737
177	0xbdcc5f63	-0.09979131
178	0xbdb27561	-0.087137945
179	0xbdb1025f	-0.086430304
180	0x3daabe33	0.08337059
181	0xbbb52ae4	-0.0055287946
182	0xbd19a270	-0.037508428
183	0xbcff1353	-0.031137144
184	0xbc4071bb	-0.011745865
185	0x3dbf1cad	0.09331641
186	0x3da9a764	0.0828388
187	0xbc46f668	-0.012143709
188	0x3be32bec	0.006932726
189	0xbd4eac73	-0.05045743
190	0x3c8aeaf7	0.016957743
191	0xbdaf5db1	-0.08562792
192	0xba72fe03	-0.0009269418
193	0xbceecbc8	-0.029149905
194	0x3d276b25	0.040873665
195	0xbd5b843b	-0.0535929
196	0xbdea77b1	-0.114486106
197	0xbddedb69	-0.10881693
198	0x3d188fb4	0.03724642
199	0xbd2a3495	-0.041554052
200	0x3a930f68	0.0011219801
201	0x3d4b69fc	0.04966162
202	0x3d3fc5f8	0.046819657
203	0xbdb40cd7	-0.087915115
204	0xbdd97adc	-0.10619137
205	0xbde32184	-0.11090377
206	0xbb165db4	-0.0022944035
207	0xbd57c731	-0.052680198
208	0xbd77a110	-0.060456336
209	0xbdf3394e	-0.118761644
210	0xbe048d6d	-0.12944575
211	0xbd6a6fed	-0.057235647
212	0xbc1283a1	-0.008942516
213	0xbdc4fc69	-0.09618456
214	0xbcafcc62	-0.021459762
215	0xbd422d59	-0.04740653
216	0x3d4c8ac0	0.04993701
217	0xbd54da62	-0.05196608
218	0xbddbc398	-0.10730666
219	0x3dceb99a	0.100939944
220	0xbdff01e0	-0.124515295
221	0x39dd6f9c	0.0004223556
222	0x3db2125f	0.0869491
223	0x3d75c7d8	0.06000504
224	0xbdbc8a93	-0.092061184
225	0xbd830a04	-0.06398395
226	0xbe24d6e7	-0.16097604
227	0x3cedf629	0.029048042
228	0xbd94d18b	-0.0726653
229	0xbc217955	-0.009855588
230	0x3dca2348	0.098700106
231	0x3c3484d7	0.011018
232	0xbcd5fa84	-0.026120432
233	0x3c574795	0.013139625
234	0x3d4de438	0.050266474
235	0xbd080c8e	-0.033215098
236	0x3da55742	0.08073284
237	0xbd3ca914	-0.046059683
238	0xbca2cd28	-0.019873217
239	0x3dbf0610	0.09327328
240	0xbd177f08	-0.03698638
241	0x3dc27f87	0.0949698
242	0xbd992e6d	-0.07479558
243	0x3dd1a4fd	0.10236547
244	0xbd5c9b0e	-0.05385881
245	0xbdde7d5b	-0.108637534
246	0xbdb466af	-0.08808648
247	0x3df1fb25	0.1181548
248	0x3d8f6f13	0.070036076
249	0xbccdb0ad	-0.02510866
250	0x3df5a40d	0.11994181
251	0xbdc967e1	-0.098342665
252	0x3b77d042	0.003781334
253	0xbc813886	-0.015774023
254	0x3d20ab73	0.039226007
255	0xbcc58a97	-0.024113936
