inventory/ark_material.onnx (onnx, 788324 bytes, 8 tensors)

35 f4 [8, 3, 5, 5]
0.17345376 0.039198343 0.11880281 -0.044073846 -0.27145427 0.10387376 -0.2280053 0.2013152
0.28259638 -0.10956999 0.17666633 0.37870118 -0.16822468 -0.078798704 0.1463268 -0.030012848
-0.22437358 -0.047254413 0.2950967 -0.030017102 -0.15819256 0.0042441636 -0.008887924 -0.07514758
-0.26349473 -0.03502023 0.0071626566 -0.40789646 -0.27220282 -0.30058858 0.080482945 0.13038993
-0.49773204 -0.32810894 -0.08425123 -0.008082243 -0.13142021 -0.10566425 -0.04579819 -0.40663725
-0.2896275 0.33999935 -0.38441262 -0.16875811 -0.31315494 -0.3515563 -0.079369515 -0.16664809
0.22629865 0.13974684 0.35947245 0.1123077 0.3108481 0.16297604 0.111281745 -0.23601596
0.27191833 -0.08397701 0.016979326 -0.059399765 0.20455928 -0.254303 0.03392469 -0.27449724
-0.007680409 -0.06553591 0.0022033742 -0.2440884 -0.09633358 0.15150008 -0.35515594 -0.10380876
-0.30893508 -0.22045465 -0.11044468 -0.18384288 0.36825806 0.06784703 0.5645688 -0.1903718
-0.07108671 0.3735471 0.28834957 0.565341 0.17308286 -0.04439204 0.29911682 -0.24148268
-0.1327122 -0.27536377 0.010548799 -0.4749943 0.13440362 -0.1590862 0.05110008 0.07572712
0.057261072 -0.24151053 -0.12051055 0.20407012 0.30325615 0.37445194 0.4759518 -0.28060064
0.32484123 0.4232465 0.47499055 0.020230766 -0.1350417 0.024066117 0.15709296 -0.41692653
0.022305485 0.28299972 0.13410558 0.24101421 -0.08699807 -0.23006183 0.1378889 0.24759091
-0.22967294 0.08826443 0.045505453 -0.05088987 -0.31584442 0.44572163 0.43198204 -0.13615324
-0.2926313 0.23467089 -0.3310104 0.02083403 0.25700343 -0.34240708 0.15727001 0.21711203
0.06005531 0.21677116 -0.3693388 -0.4327491 -0.49858245 -0.5673176 0.13602388 0.06036334
0.32806057 -0.45280668 -0.37465763 -0.25908557 -0.07353533 0.0786666 -0.39351177 0.29544967
0.01511212 0.08619884 0.38986707 -0.2282236 0.074742906 -0.37837976 -0.22676514 -0.24485755
0.30745494 0.54311043 0.3347359 -0.21366759 -0.39831203 0.2062337 0.52853876 0.55849004
-0.41791248 0.074536666 0.7799005 -0.0953348 0.45480233 0.45875567 0.3525285 -0.2426296
-0.20037733 -0.24647625 0.21799259 -0.28331262 0.04475701 -0.63477457 0.06629258 -0.3176525
-0.39508313 0.039293185 -0.1561857 0.00036852618 -0.3079 -0.12623028 0.15960306 0.07677042
-0.393158 0.2921529 -0.8475637 -0.03827861 0.5455298 -0.034227036 0.05385357 -0.44757268
-0.31398055 -0.079577096 0.14505547 0.14218633 -0.13442855 0.3394293 -0.0031869048 0.094275214
0.0467347 -0.070069104 0.28753552 0.026072226 -0.20149466 -0.12781699 -0.26391608 0.60444957
-0.077218205 -0.09950668 0.29217884 -0.0058135786 -0.1747841 0.47763452 0.4269787 -0.16682987
0.455107 -0.116420306 -0.21468385 -0.55385953 -0.059018318 0.3270633 -0.06894608 0.106978476
-0.64840055 -0.34267852 -0.08397993 -0.19292666 0.12944151 0.28875864 -0.077322096 -0.3110845
0.3319906 -0.1085746 -0.14153521 -0.15752651 0.46747997 -0.29278466 0.31738886 0.41051123
0.18311767 -0.088824496 -0.0013928385 0.26129955 0.24105409 -0.31622577 -0.697621 0.29607078
00000000: dd9d 313e 718e 203d e34e f33d c786 34bd
00000010: 0efc 8abe c4bb d43d 397a 69be 9225 4e3e
00000020: 79b0 903e 3b66 e0bd 05e8 343e 1fe5 c13e
00000030: 1743 2cbe 3761 a1bd b1d6 153e 81dd f5bc
00000040: 30c2 65be d88d 41bd ea16 973e 6de6 f5bc
00000050: 3bfd 21be a012 8b3b a89e 11bc f9e6 99bd
00000060: c8e8 86be 5f71 0fbd b8b4 ea3b ced7 d0be
00000070: 2b5e 8bbe bfe6 99be 3ed4 a43d f084 053e
00000080: bcd6 febe e5fd a7be e98b acbd 626b 04bc
00000090: 0593 06be 8066 d8bd e296 3bbd c232 d0be
000000a0: 0e4a 94be 6514 ae3e bbd1 c4be edce 2cbe
000000b0: d855 a0be 30ff b3be 7c8c a2bd cca5 2abe
000000c0: d5ba 673e cc19 0f3e c60c b83e 9401 e63d
000000d0: 7b27 9f3e 31e3 263e afe7 e33d 2bae 71be
000000e0: e138 8b3e 23fc abbd 3a18 8b3c 2b4d 73bd
000000f0: fd77 513e 0134 82be 9ef4 0a3d e78a 8cbe
00000100: f1ab fbbb b137 86bd 7c66 103b 4ff2 79be
00000110: 8a4a c5bd d622 1b3e 00d7 b5be b099 d4bd
00000120: bd2c 9ebe ddbe 61be d230 e2bd 4f41 3cbe
00000130: 528c bc3e 62f3 8a3d 9587 103f d3f0 42be
00000140: e995 91bd 9141 bf3e 8ea2 933e 30ba 103f
00000150: a23c 313e 6ed4 35bd d725 993e 3c47 77be
00000160: b5e5 07be 7bfc 8cbe dfd4 2c3c 7432 f3be
00000170: 1aa1 093e 7ee7 22be 514e 513d d216 9b3d
00000180: 968a 6a3d 894e 77be 3cce f6bd c2f7 503e
00000190: 6444 9b3e 2ab8 bf3e f4af f33e e3aa 8fbe
000001a0: 9751 a63e c4b3 d83e f631 f33e feba a53c
000001b0: 5f48 0abe 4e26 c53c fadc 203e 6577 d5be
000001c0: feb9 b63c 57e5 903e f952 093e 6ecc 763e
000001d0: 0b2c b2bd 5495 6bbe bf32 0d3e 7988 7d3e
000001e0: 622f 6bbe fbc3 b43d ed63 3a3d e571 50bd
000001f0: 5cb6 a1be a035 e43e c02c dd3e c16b 0bbe
00000200: c5d3 95be 914d 703e 327a a9be 21ac aa3c
00000210: f495 833e fb4f afbe 640b 213e 9e52 5e3e
00000220: 8ffc 753d 42f9 5d3e fa19 bdbe 4a91 ddbe
00000230: 3346 ffbe ba3b 11bf d849 0b3e 8d3f 773d
00000240: 8ef7 a73e 47d6 e7be 20d3 bfbe dda6 84be
00000250: b199 96bd f41b a13d 607a c9be 2e45 973e
00000260: d398 773c 0489 b03d a89c c73e 73b3 69be
00000270: cf12 993d feba c1be 1f35 68be f0bb 7abe
00000280: bc6a 9d3e 4909 0b3f 8162 ab3e adcb 5abe
00000290: 8eef cbbe ed2e 533e 514e 073f 34f9 0e3f
000002a0: a0f8 d5be aea6 983d 8fa7 473f e43e c3bd
000002b0: dadb e83e 06e2 ea3e 9e7e b43e e573 78be
000002c0: b72f 4dbe 4564 7cbe 7339 5f3e 5a0e 91be
000002d0: 2053 373d 9680 22bf 67c4 873d 59a3 a2be
000002e0: 5648 cabe e4f1 203d 25ef 1fbe bf36 c139
000002f0: 12a5 9dbe 8342 01be fc6e 233e cf39 9d3d
00000300: 014c c9be 1195 953e eff9 58bf 08ca 1cbd
00000310: d7a7 0b3f a631 0cbd 9095 5c3d 3f28 e5be
00000320: 0fc2 a0be 51f9 a2bd 6c89 143e 4b99 113e
00000330: a3a7 09be adc9 ad3e 64db 50bb 5d13 c13d
00000340: e36c 3f3d 6480 8fbd db37 933e 6c95 d53c
00000350: 9e54 4ebe 75e2 02be 0220 87be 35bd 1a3f
00000360: 9424 9ebd 29ca cbbd 7798 953e d57f bebb
00000370: 9afa 32be 838c f43e f49c da3e 73d5 2abe
00000380: c903 e93e c56d eebd 15d6 5bbe bdc9 0dbf
00000390: 31bd 71bd d774 a73e 9a33 8dbd 8817 db3d
000003a0: 94fd 25bf 8f73 afbe abfd abbd 918e 45be
000003b0: 518c 043e 2cd8 933e 0c5b 9ebd 7846 9fbe
000003c0: acfa a93e 5c5c debd 9bee 10be a14e 21be
000003d0: 8959 ef3e dfe7 95be cb80 a23e 872e d23e
000003e0: 3383 3b3e 9ee9 b5bd e88f b6ba 0ec9 853e
000003f0: e2d6 763e 58e8 a1be 4a97 32bf 9796 973e

36 f4 [8]
1.9486043 -0.5261468 -0.48014542 -1.465651 -0.36645526 1.7823863 -1.8297106 1.1538522
00000000: de6b f93f 8fb1 06bf 9fd5 f5be 749a bbbf
00000010: 06a0 bbbe 3c25 e43f f533 eabf 6eb1 933f

38 f4 [16, 8, 3, 3]
-0.5670135 0.64537156 -0.34284025 0.6674428 0.079267055 -0.55515534 -0.0648562 -0.022702899
0.030387482 0.31373605 -0.7834871 0.32315823 -0.021260299 0.37894455 0.29800174 0.33205754
0.14168353 -0.34255427 -0.37186402 0.6400466 -0.7148648 0.28933677 1.1954372 0.21656892
-0.76872045 -0.7644594 -0.23385787 0.29354 -0.24877587 0.13283311 -0.15440416 -0.0030325071
-0.66609186 0.17099857 -0.7423555 -0.28137502 0.032984566 0.0016196095 -0.20409828 0.0056078555
-0.9637253 -0.58395344 0.6920722 -0.26034096 -0.9962694 0.63759434 -0.48444268 -0.44894922
0.05755271 0.40277258 0.3293893 0.12895751 0.20720083 -0.19426192 -0.10198559 0.21887663
-0.7359687 -0.6549662 1.9691086 1.5881112 -0.76954633 1.0919234 0.14192052 -0.5360634
-0.1597664 1.0488997 -0.56751716 -0.82769173 -0.6570132 -0.07366617 0.76361847 -0.16625156
0.5675433 -0.19588822 0.15245107 0.7842275 -1.7736518 -1.5034293 0.11187279 -0.7448344
0.58945525 -0.5512495 -0.2980538 0.40470192 -1.0693694 1.0609639 -0.33699927 0.17972408
1.0094672 -0.045303322 0.013426681 -0.15309027 -0.5070634 -0.5572371 -0.56177783 0.40773514
-0.58569765 0.06088842 0.7341963 -0.17364717 -0.48305666 0.8188551 0.48692265 -2.1279066
-0.9662203 0.29456115 -0.64826596 -0.43634832 0.913442 0.44001582 0.042221695 -1.1486852
-1.3395823 -1.6256194 0.8432853 0.57097906 0.6328713 -0.4628139 0.6830872 0.7545582
0.18963921 -0.9021045 -0.081456 0.23613803 0.56051844 0.39081216 0.27777123 -0.20988896
-0.34467125 0.09479851 -0.9211551 -0.56220126 0.090564415 0.005855806 1.0786226 -0.24794285
0.115668535 0.31633174 -0.14975207 0.59219986 -0.2701858 -0.35827363 -0.6064159 -1.359478
-0.115480565 0.49632224 0.08216609 0.5307322 -1.7987462 -0.4015794 0.16190499 0.7005939
-0.2132898 -0.20117806 0.67408514 -0.12298215 1.8633507 1.4231907 1.4377779 0.22287235
0.319761 1.4125367 1.0719006 0.63377416 -0.39888975 0.52485985 -1.9218053 -0.12425743
-0.11165206 -1.020182 -0.4839279 0.51887506 -0.5424479 0.57590103 -0.31532413 -0.3424972
1.2739412 -0.11211215 1.3646505 1.0999504 0.26457676 -0.28916836 0.10762309 -1.5160435
-2.0617614 0.51545906 -1.271821 -0.8188968 -0.22034587 -0.21533324 0.18567465 0.40350732
0.87955135 -0.9071579 0.6571291 -0.5457104 0.10865229 0.30714357 -1.124198 -0.44520864
-0.42472303 -0.5319748 -0.67999685 -0.30300996 0.3123603 0.22761713 -0.40432265 0.8896814
-0.44946882 -1.5407512 -0.06812055 0.32105023 0.2511266 -2.0518658 -0.3997366 1.2271852
0.98303014 0.22489361 -1.9091781 1.4164736 1.9243826 -0.3090791 -1.141569 -1.785068
-0.3740161 0.77445006 -0.15000685 0.565574 -0.27988043 0.24032584 -0.5153201 0.59165454
-0.944006 0.16632348 -0.28475508 0.8296058 -0.28698346 1.4816562 0.3264541 0.6829111
-0.4481505 -1.4108607 -1.1523334 0.09656911 0.67449534 -0.72282493 0.33105883 1.4440035
-0.332736 0.4750684 -0.32219803 0.7551568 0.50316423 1.9438381 -0.4307357 -0.44427544
00000000: cc27 11bf 1237 253f c288 afbe 88dd 2a3f
00000010: c456 a23d a91e 0ebf 54d3 84bd 6efb b9bc
00000020: 2bef f83c 03a2 a03e 9c92 48bf ff74 a53e
00000030: 142a aebc 0505 c23e af93 983e 7203 aa3e
00000040: 7d15 113e 4663 afbe f664 bebe 18da 233f
00000050: 6101 37bf f323 943e 1604 993f 3ec4 5d3e
00000060: ddca 44bf 9cb3 43bf 7078 6fbe e04a 963e
00000070: 1abf 7ebe 6705 083e 201c 1ebe 07bd 46bb
00000080: ff84 2abf 401a 2f3e 030b 3ebf 6310 90be
00000090: d31a 073d 1449 d43a 24ff 50be 1ac2 b73b
000000a0: b4b6 76bf f97d 15bf a52b 313f 694b 85be
000000b0: 830b 7fbf 6239 233f df08 f8be acdc e5be
000000c0: 64bc 6b3d 3538 ce3e b7a5 a83e 700d 043e
000000d0: 742c 543e 99ec 46be d2dd d0bd 3221 603e
000000e0: 7268 3cbf ddab 27bf c00b fc3f 3a47 cb3f
000000f0: fd00 45bf 25c4 8b3f 9d53 113e 733b 09bf
00000100: ce99 23be 5842 863f ce48 11bf 9be3 53bf
00000110: 0432 28bf 4ade 96bd 807c 433f d93d 2abe
00000120: 854a 113f ec96 48be 221c 1c3e 22c3 483f
00000130: 0607 e3bf 5f70 c0bf 901d e53d 78ad 3ebf
00000140: 8ae6 163f b01e 0dbf 829a 98be 1735 cf3e
00000150: 19e1 88bf aacd 873f 2b8b acbe 9709 383e
00000160: 3936 813f fa8f 39bd 95fb 5b3c b2c3 1cbe
00000170: e8ce 01bf 17a7 0ebf acd0 0fbf a9c2 d03e
00000180: 48f0 15bf 2366 793d 4af4 3b3f 90d0 31be
00000190: 3453 f7be 7da0 513f ed4d f93e 9f2f 08c0
000001a0: 375a 77bf b8d0 963e c2f4 25bf 0c69 dfbe
000001b0: 56d7 693f c149 e13e a8f0 2c3d 1e08 93bf
000001c0: 6f77 abbf 4c14 d0bf 8ce1 573f af2b 123f
000001d0: db03 223f f2f5 ecbe cede 2e3f ba2a 413f
000001e0: c830 423e 52f0 66bf 67d2 a6bd 2bce 713e
000001f0: 237e 0f3f 8818 c83e 0838 8e3e 22ed 56be
00000200: c078 b0be b925 c23d d2d0 6bbf 6cec 0fbf
00000210: d679 b93d 10e2 bf3b 4e10 8a3f bbe4 7dbe
00000220: a0e3 ec3d 3cf6 a13e 9b58 19be 699a 173f
00000230: cb55 8abe a46f b7be 133e 1bbf 6003 aebf
00000240: 1381 ecbd f31d fe3e b246 a83d 11de 073f
00000250: 513d e6bf d19b cdbe 6cca 253e 1f5a 333f
00000260: a468 5abe 9f01 4ebe d890 2c3f 11de fbbd
00000270: 4782 ee3f 1d2b b63f 1b09 b83f a638 643e
00000280: b7b7 a33e 01ce b43f 0a34 893f 063f 223f
00000290: 473b ccbe 375d 063f b7fd f5bf ae7a febd
000002a0: d6a9 e4bd 5395 82bf 66c5 f7be ffd4 043f
000002b0: dedd 0abf 406e 133f 2a72 a1be cb5b afbe
000002c0: 8110 a33f 0e9b e5bd deac ae3f 2dcb 8c3f
000002d0: 9b76 873e e00d 94be 7f69 dc3d b70d c2bf
000002e0: e6f3 03c0 20f5 033f 08cb a2bf 38a3 51bf
000002f0: 59a2 61be 5180 5cbe 7f21 3e3e 8398 ce3e
00000300: 472a 613f 803b 68bf 9d39 283f adb3 0bbf
00000310: 1885 de3d ec41 9d3e b8e5 8fbf 63f2 e3be
00000320: 4c75 d9be 802f 08bf 4614 2ebf 1f24 9bbe
00000330: b0ed 9f3e 7714 693e 6103 cfbe 29c2 633f
00000340: c720 e6be 5637 c5bf c982 8bbd b260 a43e
00000350: aa93 803e c551 03c0 47aa ccbe 6814 9d3f
00000360: dda7 7b3f 834a 663e f35f f4bf 024f b53f
00000370: 2b52 f63f 9e3f 9ebe ef1e 92bf 1c7d e4bf
00000380: 0a7f bfbe 5c42 463f 659b 19be 75c9 103f
00000390: 7d4c 8fbe fa17 763e 05ec 03bf ac76 173f
000003a0: 61aa 71bf b450 2a3e 6bcb 91be 0c61 543f
000003b0: 7fef 92be e9a6 bd3f fe24 a73e 43d3 2e3f
000003c0: fb73 e5be 1597 b4bf a97f 93bf 07c6 c53d
000003d0: baab 2c3f 0e0b 39bf 8b80 a93e 1bd5 b83f
000003e0: 5f5c aabe 2a3c f33e 24f7 a4be f551 413f
000003f0: 5fcf 003f b0cf f83f 6489 dcbe 1278 e3be

39 f4 [16]
0.503162 3.526926 1.0648596 -0.47877425 1.7094488 -0.8753312 1.4049824 2.8046322
-1.7546089 0.98239315 -2.1189163 -2.227981 -0.9448632 4.7243814 2.4123056 -1.1985385
00000000: 3acf 003f 28b9 6140 524d 883f e621 f5be
00000010: 38cf da3f b515 60bf 77d6 b33f 187f 3340
00000020: 0697 e0bf 1e7e 7b3f 539c 07c0 3e97 0ec0
00000030: 8ee2 71bf 222e 9740 3763 1a40 b669 99bf

fc.0.bias f4 [554]
-0.005595158 -0.026100421 0.04618329 0.08825948 0.06791486 -0.025464062 -0.0032294411 0.043289345
-0.011857854 0.034933273 -0.00249481 0.07550866 -0.0073355013 0.08088246 -0.021924576 0.06652119
0.0615156 0.0952621 0.07884997 0.00849635 0.07007247 0.008156871 0.009447189 0.034841165
-0.04638734 0.09602467 0.057680357 0.049758215 0.008928119 0.11995513 0.065840796 0.02454628
-0.016957216 0.10765836 0.12410418 0.009244393 -0.0028763686 0.038633022 0.033438563 -0.013127166
0.033388507 0.094746225 0.09489952 0.06388618 -0.024731617 0.0065790997 0.033134267 -0.02525079
0.09679467 0.06988609 -0.0020429315 0.067719586 -0.0486692 0.017434156 0.11168334 0.088888235
-0.008928137 0.05863485 -0.016601117 0.06291653 -0.03762465 0.019638583 0.11425142 -0.0007354578
0.036248438 -0.05180501 0.049238525 0.028079035 0.013056026 0.023214856 -0.036812898 0.10709515
0.025908045 0.06487149 -0.060110252 0.0013730724 0.008134991 0.056318257 -0.017353998 -0.07618452
0.07664506 0.11554829 0.12098279 0.124450475 0.07080737 0.06776897 0.074512936 0.03372413
-0.015149597 0.039650626 0.06388779 0.061908007 0.00295516 -0.005646835 0.105101906 -0.086624205
0.08967435 0.08205566 0.12070666 0.025829278 0.12572245 0.05932781 0.018415056 0.048149835
0.08925249 -0.0023742719 0.033896975 0.07913859 -0.02263535 0.08736991 -0.05506549 -0.008099247
-0.072384104 -0.039583094 -0.031682275 0.103648774 0.025620578 0.020899173 0.09969179 -0.02131309
0.08019576 0.10293104 -0.05182829 -0.010609445 0.012549495 -0.010101667 -0.01718619 0.09792602
-0.015494653 -0.010656336 0.14817272 -0.00053591904 -0.026142448 0.08161654 0.087702505 0.038818404
0.050833642 -0.02948936 0.11878536 0.034190793 0.050653197 0.103968754 0.00977497 0.007893399
0.10213568 0.11968716 0.06331578 0.0513123 0.015708776 0.049447376 -0.016453112 0.08973639
-0.031233765 -0.019869793 0.12168241 0.059515614 0.071719185 0.04044717 -0.009021841 0.018512072
-0.019567763 -0.028957717 -0.0075750398 0.10085467 0.055596896 0.034309827 0.065696 0.09898546
0.07297776 0.04308267 0.05729543 -0.055712715 0.08465268 0.12731591 0.059438284 0.035890177
-0.011836769 0.0050491057 0.00018310825 0.11081962 0.1377062 0.055330887 0.091739185 0.016776878
0.113969244 0.097981684 0.041853882 0.022368789 0.035411887 0.12563254 0.04359608 0.052127097
0.0020547055 0.06510029 -0.007809795 -0.045511976 0.048753623 0.0069972887 0.0913143 0.034281608
0.10555975 0.010973866 -0.03444614 0.066120595 0.043885354 0.04358974 0.046487328 -0.050280463
0.07877724 0.06789079 -0.06398151 -0.0081054615 0.13493857 0.021319006 0.07311352 -0.019548878
0.03966165 -0.013915243 0.0068894485 -0.02804354 0.09284287 0.04332329 0.045836452 -0.02231124
0.032128286 0.05489123 -0.044692744 0.100436255 -0.01445016 0.038757816 0.08590706 0.11960517
0.033308405 -0.01788951 0.012477504 0.033617232 0.01700926 0.05190905 -0.014256408 -0.026846
0.048438516 0.072176404 0.09584328 0.060602497 0.008964505 0.055442445 0.026667265 0.034968313
0.13239866 0.024133204 -0.010893309 -0.029398836 0.070462674 0.1161659 0.06473473 -0.043316405
00000000: 9657 b7bb 8dd0 d5bc b12a 3d3d 63c1 b43d
00000010: f216 8b3d 029a d0bc 08a5 53bb 2b50 313d
00000020: 7247 42bc 3116 0f3d f77f 23bb 49a4 9a3d
00000030: a55e f0bb b4a5 a53d 2b9b b3bc 433c 883d
00000040: c8f7 7b3d c718 c33d 187c a13d 4634 0b3c
00000050: 2882 8f3d 66a4 053c 62c8 1a3c 9cb5 0e3d
00000060: a700 3ebd 95a8 c43d 3d42 6c3d 45cf 4b3d
00000070: 3f47 123c 09ab f53d 8ad7 863d 4815 c93c
00000080: dce9 8abc fc7b dc3d 552a fe3d cb75 173c
00000090: 7581 3cbb a93d 1e3d e0f6 083d 5313 57bc
000000a0: 63c2 083d 4f0a c23d ae5a c23d c2d6 823d
000000b0: f699 cabc 7d95 d73b ccb7 073d bfda cebc
000000c0: 493c c63d 7020 8f3d b4e2 05bb 91b0 8a3d
000000d0: 5b59 47bd 13d2 8e3c 3cba e43d 090b b63d
000000e0: 5247 12bc 192b 703d 11ff 87bc 62da 803d
000000f0: 4e1c 1abd 18e1 a03c a6fc e93d bdcb 40ba
00000100: 3e79 143d 7d31 54bd 56ae 493d 0106 e63c
00000110: f1e8 553c 152d be3c 1fc9 16bd b454 db3d
00000120: 1c3d d43c 58db 843d 2b36 76bd aaf8 b33a
00000130: a048 053c f9ad 663d f929 8ebc a106 9cbd
00000140: 16f8 9c3d 95a4 ec3d d3c5 f73d e4df fe3d
00000150: 7403 913d 75ca 8a3d 3d9a 983d 5022 0a3d
00000160: 0436 78bc b268 223d 9ad7 823d 4093 7d3d
00000170: 5cab 413b 1609 b9bb ab3f d73d 0868 b1bd
00000180: 30a7 b73d cc0c a83d 0e35 f73d ec97 d33c
00000190: 63bd 003e b801 733d 2cdb 963c c338 453d
000001a0: 02ca b63d ac99 1bbb 8ed7 0a3d 6a13 a23d
000001b0: c56d b9bc ffee b23d 5a8c 61bd b4b2 04bc
000001c0: 1e3e 94bd e221 22bd 46c5 01bd cf45 d43d
000001d0: 3fe2 d13c be34 ab3c 362b cc3d ca98 aebc
000001e0: ad3d a43d 82cd d23d e749 54bd 3dd3 2dbc
000001f0: 669c 4d3c 7681 25bc 0dca 8cbc 708d c83d
00000200: 49dd 7dbc ea97 2ebc 97ba 173e eb7c 0cba
00000210: b028 d6bc 9326 a73d 5f9d b33d 0c00 1f3d
00000220: f036 503d ac93 f1bc bd45 f33d a50b 0c3d
00000230: ba79 4f3d 92ed d43d 3227 203c 5153 013c
00000240: 832c d13d 8b1e f53d b4ab 813d d92c 523d
00000250: b1af 803c 5589 4a3d adc8 86bc b6c7 b73d
00000260: f4dd ffbc fac5 a2bc a134 f93d a5c6 733d
00000270: 82e1 923d efab 253d 58d0 13bc a1a6 973c
00000280: 934c a0bc bc38 edbc 0a38 f8bb e58c ce3d
00000290: 92b9 633d 7688 0c3d a08b 863d e4b8 ca3d
000002a0: 5d75 953d 7477 303d 9dae 6a3d 0433 64bd
000002b0: 625e ad3d 1a5f 023e 8f75 733d 9401 133d
000002c0: 02ef 41bc f872 a53b bf00 4039 66f5 e23d
000002d0: db02 0d3e a4a2 623d c1e1 bb3d aa6f 893c
000002e0: b568 e93d 9faa c83d fa6e 2b3d c03e b73c
000002f0: 0e0c 113d d1a5 003e ce91 323d 3983 553d
00000300: 3da8 063b 4d53 853d 4fe9 ffbb c46a 3abd
00000310: e1b1 473d 8349 e53b fe02 bb3d df6a 0c3d
00000320: b62f d83d bbcb 333c 6517 0dbd 3c6a 873d
00000330: 21c1 333d 288b 323d 7f69 3e3d e3f2 4dbd
00000340: f655 a13d 540a 8b3d bd08 83bd c5cc 04bc
00000350: 562d 0a3e 32a5 ae3c 8bbc 953d f824 a0bc
00000360: 4174 223d c2fc 63bc e2c0 e13b 91bb e5bc
00000370: 6724 be3d c373 313d 01bf 3b3d 10c6 b6bc
00000380: f398 033d a0d5 603d bd0f 37bd 86b1 cd3d
00000390: 5dc0 6cbc 84c0 1e3d 0af0 af3d 8ef3 f43d
000003a0: 656e 083d 068d 92bc 726e 4c3c 39b2 093d
000003b0: 0157 8b3c 969e 543d b693 69bc 25ec dbbc
000003c0: 7767 463d 39d1 933d 7b49 c43d 533a 783d
000003d0: dcdf 123c 9e17 633d 4f75 da3c ef3a 0f3d
000003e0: 8493 073e ffb2 c53c d979 32bc d4d5 f0bc
000003f0: bc4e 903d 63e8 ed3d a493 843d 8b6c 31bd

fc.0.weight f4 [554, 64]
0.08991551 0.028144546 -0.044165477 0.016717209 0.0003164169 -0.06667306 -0.12439757 0.03284706
-0.069882914 -0.018887129 -0.10387295 -0.069375716 0.09145242 0.10455962 0.10898124 0.12953769
0.0718236 -0.09091639 0.06791172 0.10901701 -0.0970318 -0.08163422 0.011067634 0.0813891
0.12980711 0.078886695 -0.08146831 -0.05533764 0.10575748 0.0848322 -0.057095468 0.052560136
-0.0964778 -0.008193281 0.095483206 0.03280201 0.07653331 0.029342031 0.10420213 0.07393967
-0.0015655196 0.06490931 0.08971541 0.112632364 0.07353246 0.028732877 0.044701807 0.06502367
0.068628825 0.04336867 0.027728803 -0.007590564 -0.059235204 0.00014612758 -0.06884914 -0.1077461
-0.020629982 0.0005958715 -0.015578672 0.100709915 0.016719658 0.020323817 0.08974943 0.13445698
0.15729277 -0.083001174 0.1591683 0.025293553 -0.0042859255 -0.081158474 0.060025755 0.06998845
0.001548006 -0.14319554 0.005882527 -0.030448722 -0.027029004 0.12414185 -0.006869665 0.01728407
-0.11023733 -0.010021459 0.07211149 -0.07363906 0.0032107937 -0.048074383 -0.11659168 0.06017055
0.10278854 -0.03199479 0.023665484 -0.015880285 0.04926498 0.07614317 -0.025304811 0.019734535
-0.030609816 -0.08887914 -0.085258774 -0.0043643066 0.0059059975 0.09354769 0.08905771 -0.015876526
0.056652747 0.19069117 0.031249998 0.10213364 0.15628761 0.1777015 0.15783228 0.004750137
0.13697119 0.10633312 0.058841612 0.11138929 0.1546043 0.01139893 0.09605496 -0.041743327
0.006821648 -0.13250408 0.07031697 -0.06760475 -0.064001374 0.052201223 0.011879955 0.097127184
0.012610117 -0.14742808 -0.07876883 0.04083182 0.009021912 -0.03722296 0.11453784 -0.009850338
0.0030766623 -0.033699926 0.12843683 -0.046219338 0.098812096 0.07367758 0.026243895 0.10614255
0.12066728 0.023793323 0.1488225 0.0015325643 0.024534384 0.03834488 0.113547556 0.090446725
-0.098463446 -0.0635886 -0.08452785 0.09125504 -0.0038457282 -0.022056641 -0.019202517 0.0098390635
-0.01148136 0.033012163 -0.025725955 -0.081259705 -0.04259312 -0.029739145 -0.09728604 -0.07655193
-0.009603665 0.011816086 0.08661239 0.18036412 -0.027556013 -0.025729438 -0.07686055 0.1858288
-0.11931233 0.06860808 -0.035371926 -0.0764561 0.21142301 -0.009910835 -0.011141039 -0.109402224
0.12487588 0.0042223334 0.15546763 0.066862606 0.09480918 0.14669935 0.15465155 2.5148858e-05
0.08667547 0.019080767 0.03705337 0.043054897 0.075227804 0.007928545 0.011606066 0.0026191035
0.119200766 -0.03790556 0.091853105 0.06784538 -0.08058718 0.055398524 0.04788951 0.049611583
-0.007710505 0.07162108 -0.031057222 -0.11633841 -0.081157215 -0.11547507 0.03363359 -0.0057496005
0.08314117 0.006108107 -0.10214433 0.098562 -0.08063483 0.087074526 -0.039612934 0.014929024
0.0064583938 -0.10790896 0.13994853 0.0115348 -0.11449791 -0.04358085 -0.00847042 0.0835968
0.026500428 0.011402508 -0.012125915 0.040965505 -0.059914727 0.09201136 0.120340586 0.022149134
-0.053318143 0.11725804 -0.05671816 0.092145085 0.107596815 -0.11418855 0.030509213 -0.11585931
0.08544331 0.08617218 0.07519216 -0.06420542 0.011720882 0.10124328 -0.06802823 -0.07234013
00000000: 9f25 b83d 648f e63c dce6 34bd 87f2 883c
00000010: c2e4 a539 e38b 88bd 27c4 febd a48a 063d
00000020: c61e 8fbd 2eb9 9abc 57bb d4bd db14 8ebd
00000030: 684b bb3d 5b23 d63d 8e31 df3d 87a5 043e
00000040: 4018 933d 5f32 babd 4d15 8b3d 4f44 df3d
00000050: 9cb8 c6bd d82f a7bd 0655 353c 54af a63d
00000060: 28ec 043e 598f a13d dbd8 a6bd b9a9 62bd
00000070: 6197 d83d 81bc ad3d f0dc 69bd 4c49 573d
00000080: 2796 c5bd 1c3d 06bc b38c c33d 675b 063d
00000090: 7fbd 9c3d b35e f03c ed67 d53d af6d 973d
000000a0: 1f32 cdba 2cef 843d b6bc b73d ccab e63d
000000b0: 3098 963d 3661 eb3c 3e19 373d 212b 853d
000000c0: 458d 8c3d 59a3 313d 8427 e33c 44ba f8bb
000000d0: 9da0 72bd d339 1939 c700 8dbd fda9 dcbd
000000e0: 3500 a9bc 4234 1c3a b03d 7fbc 0041 ce3d
000000f0: aaf7 883c 227e a63c 8dce b73d 17af 093e
00000100: 5b11 213e 85fc a9bd 04fd 223e 6d34 cf3c
00000110: f370 8cbb 6a36 a6bd 91dd 753d 1b56 8f3d
00000120: 76e6 ca3a daa1 12be 37c2 c03b 996f f9bc
00000130: ee6b ddbc 153e fe3d ed1a e1bb 5297 8d3c
00000140: 1cc4 e1bd 0c31 24bc 30af 933d 13d0 96bd
00000150: 2e6c 523b a5e9 44bd 9ec7 eebd 6575 763d
00000160: cc82 d23d f80c 03bd 1ede c13c 5f17 82bc
00000170: 13ca 493d f3f0 9b3d 094c cfbc 52aa a13c
00000180: 70c1 fabc 4406 b6bd 279c aebd 7502 8fbb
00000190: 1987 c13b ee95 bf3d e363 b63d 7d0f 82bc
000001a0: b60c 683d 8c44 433e ffff ff3c 712b d13d
000001b0: dc09 203e 62f7 353e c99e 213e 0aa7 9b3b
000001c0: 2d42 0c3e 2ec5 d93d e703 713d 1120 e43d
000001d0: 9750 1e3e 94c2 3a3c 76b8 c43d 0dfb 2abd
000001e0: 2288 df3b 26af 07be 5802 903d 5c74 8abd
000001f0: 2713 83bd f3d0 553d 25a4 423c 9eea c63d
00000200: aa9a 4e3c 63f7 16be 8d51 a1bd 443f 273d
00000210: a4d0 133c 1a77 18bd d192 ea3d 5063 21bc
00000220: d4a1 493b ef08 0abd f284 033e 7d50 3dbd
00000230: ff5d ca3d 45e4 963d 70fd d63c 4461 d93d
00000240: 6820 f73d 37ea c23c ed64 183e 53e0 c83a
00000250: 55fc c83c 850f 1d3d 9f8b e83d 223c b93d
00000260: 34a7 c9bd bd3a 82bd f01c adbd ece3 ba3d
00000270: 9d08 7cbb 21b0 b4bc 994e 9dbc 0634 213c
00000280: 501c 3cbc c337 073d 3dbf d2bc 7d6b a6bd
00000290: 2076 2ebd 829f f3bc e73d c7bd 42c7 9cbd
000002a0: b158 1dbc 4298 413c d661 b13d 5fb1 383e
000002b0: 26bd e1bc 8bc6 d2bc 1069 9dbd e849 3e3e
000002c0: 065a f4bd 6582 8c3d 27e2 10bd 0495 9cbd
000002d0: 467f 583e 0e61 22bc e888 36bc 460e e0bd
000002e0: edbe ff3d 805b 8a3b e832 1f3e 43ef 883d
000002f0: 512b c23d 5b38 163e fa5c 1e3e c3f6 d237
00000300: e982 b13d 454f 9c3c 46c5 173d 555a 303d
00000310: 0911 9a3d bae6 013c 5e27 3e3c 44a5 2b3b
00000320: 881f f43d dc42 1bbd 7b1d bc3d 85f2 8a3d
00000330: e40a a5bd 90e9 623d ca27 443d 8435 4b3d
00000340: 67a8 fcbb 13ae 923d b76b febc d542 eebd
00000350: c135 a6bd 327e ecbd 60c3 093d 2567 bcbb
00000360: eb45 aa3d 8426 c83b 0c31 d1bd e0da c93d
00000370: e023 a5bd 2154 b23d 2c41 22bd dd98 743c
00000380: efa0 d33b 5fff dcbd ab4e 0f3e 75fc 3c3c
00000390: e17d eabd d581 32bd 84c7 0abc cd34 ab3d
000003a0: 6d17 d93c 96d1 3a3c c6ab 46bc 72cb 273d
000003b0: 2569 75bd 7470 bc3d 2075 f63d 1a72 b53c
000003c0: 2064 5abd fc24 f03d 4d51 68bd 90b6 bc3d
000003d0: b85b dc3d b0db e9bd 75ee f93c a547 edbd
000003e0: e7fc ae3d 0a7b b03d 59fe 993d 227e 83bd
000003f0: f108 403c a358 cf3d 6252 8bbd 1027 94bd

fc.3.bias f4 [277]
0.0054049343 -0.02446852 0.0042998656 -0.016667133 0.005625151 -0.023257403 0.00027545958 -0.0080764275
0.00488008 -0.0069291475 -0.046210542 -0.027658472 0.023232957 -0.013452926 -0.011474799 -0.0035538948
0.023049692 -0.020438952 -0.017185431 -0.02733769 -0.010616058 -0.012828636 0.012502215 0.032665055
0.03865305 0.013172661 0.010546959 0.018061282 0.013609628 0.02023253 -0.021461904 0.004873852
-0.011685176 0.022955185 -0.0025475924 -0.0061698756 -0.010224519 0.009945291 0.017105605 -0.00573444
-0.047480147 -0.029293796 -0.028361306 -0.03414497 0.028915849 0.016889315 -0.010940451 -0.049761005
0.016687663 -0.012668683 -0.00038921068 -0.0045888424 0.0006292992 -0.025554836 -0.0032788934 0.018402277
0.01855211 0.0139115015 0.0037168127 -0.006436589 -0.014979959 -0.049671147 -0.026226612 0.011253633
-0.011375715 -0.0150988065 0.010823364 -0.00936457 -0.020578152 -0.0017134852 -0.007028822 -0.008537337
-0.0026260612 -0.0052238638 -0.013455534 -0.026126353 0.032554507 -0.020065637 -0.0073999474 -0.024964863
-0.015913442 -0.007917031 -0.0011706937 -0.020239118 -0.0117521575 0.016060302 0.015661472 0.0009873613
0.023115464 -0.019263044 -0.032582838 0.044456847 -0.00325595 -0.04377608 0.032695305 -0.016877906
-0.013333422 -0.01940526 -0.012237823 -0.019886728 -0.00063068565 0.0044812 -0.014152418 -0.015944505
-0.013677155 -0.012315932 -0.003848314 -0.0036971609 0.030665303 -0.037874665 0.03790118 0.026921466
-0.010535905 -0.021504069 -0.035407506 0.043306742 -0.00792231 0.0066175354 -0.017913463 0.008019852
-0.010811414 -0.027251342 -0.030207267 0.017842865 0.009440497 -0.029295279 0.0012188599 0.015081938
0.00678549 -0.0054566227 -0.008020751 0.006533137 -0.03567685 0.030583194 -0.0019121262 0.0030370774
0.007702367 0.026866008 0.01322392 0.0034468404 0.0067681754 -0.008969499 -0.028586227 0.0051072994
-0.027464256 0.014723102 -0.036740895 0.009094464 0.00841932 0.054090448 -0.009930871 -0.039831664
0.0032740205 0.0016603201 -0.020417124 -0.04116179 0.004419378 0.012734604 -0.023231784 -0.007399107
0.0027904373 0.051221535 0.0008109904 0.02453173 -0.0061230413 -0.043515906 0.020118136 0.0070319492
-0.00038417848 -0.030192232 -0.017891213 0.003892016 -0.006399355 0.05321229 -0.022886513 -0.018832494
-0.012456392 -0.0055108666 -0.0091409795 0.014453736 0.039520275 -0.017830936 0.011814455 0.008440731
-0.0028620102 -0.014725354 -0.01379519 0.007921912 0.03532829 -0.00085621525 -0.012882915 -0.0035207926
-0.00595517 -0.036877275 0.007111359 0.032816663 -0.0144844325 0.0022714538 -0.016020471 0.00028879382
-0.015691772 -0.01203278 -0.018367762 -0.0015037443 0.013965829 -0.011434955 -0.012985724 0.007189536
0.010114392 -0.008679382 0.007147378 0.013809761 -0.028155873 0.01634768 -0.008225118 -0.018045336
0.011495828 -0.007317753 -0.00787425 -0.021535257 -0.004228433 -0.0155613525 -0.00078975264 0.0042269165
0.0005313833 -0.025814386 0.023342952 0.0001736493 -0.047593113 0.0076203947 -0.011020272 0.010584975
-0.027869472 -0.0009340136 0.026493186 -0.02408647 0.04386131 0.0017332769 -0.00023535946 -0.013715714
0.041703787 0.010370097 0.016889516 0.036844876 -0.02994822 -0.0047658603 0.0018638913 0.021416437
-0.00862062 0.005840387 -0.006841045 0.03651763 0.01976909 -0.014895735 -0.016316706 0.008928934
00000000: e01b b13b 3572 c8bc e3e5 8c3b 8389 88bc
00000010: 3053 b83b 4f86 bebc 8f6b 9039 fe52 04bc
00000020: 14e9 9f3b e70d e3bb 4447 3dbd 0594 e2bc
00000030: 0b53 be3c a969 5cbc cc00 3cbc 76e8 68bb
00000040: b5d2 bc3c 976f a7bc 76c8 8cbc 4bf3 dfbc
00000050: f9ee 2dbc 332f 52bc 17d6 4c3c cbcb 053d
00000060: a952 1e3d 25d2 573c 27cd 2c3c 41f5 933c
00000070: ebfa 5e3c b1be a53c e0d0 afbc d5b4 9f3b
00000080: 2e73 3fbc 830c bc3c 82f5 26bb ab2c cabb
00000090: be84 27bc 93f1 223c 0e21 8c3c f8e7 bbbb
000000a0: 8b7a 42bd 8bf9 efbc f855 e8bc 99db 0bbd
000000b0: eee0 ec3c 765b 8a3c 943f 33bc 32d2 4bbd
000000c0: 91b4 883c 4f90 4fbc f90e ccb9 005e 96bb
000000d0: 8ef7 243a 6058 d1bc b4e2 56bb 5fc0 963c
000000e0: 98fa 973c 11ed 633c c595 733b 06ea d2bb
000000f0: 816e 75bc f973 4bbd 31d9 d6bc 2861 383c
00000100: 3561 3abc fc60 77bc 7b54 313c da6d 19bc
00000110: 8393 a8bc 0697 e0ba 0852 e6bb 30e0 0bbc
00000120: ff19 2cbb f22c abbb 9a74 5cbc ef06 d6bc
00000130: e057 053d b160 a4bc 427b f2bb 1d83 ccbc
00000140: e85c 82bc 6fb6 01bc f671 99ba 82cc a5bc
00000150: 1f8c 40bc e590 833c 7d4c 803c 596a 813a
00000160: a45c bd3c 88cd 9dbc 9575 05bd 6218 363d
00000170: c761 55bb 8c4e 33bd 83eb 053d 8943 8abc
00000180: 6d74 5abc c8f7 9ebc 2681 48bc 7ee9 a2bc
00000190: 9954 25ba 08d7 923b 8bdf 67bc 0d9e 82bc
000001a0: 2516 60bc c3c8 49bc ff33 7cbb 114c 72bb
000001b0: cd35 fb3c 7722 1bbd 453e 1b3d 688a dc3c
000001c0: ca9e 2cbc 4d29 b0bc 7607 11bd 6962 313d
000001d0: 94cc 01bc e9d7 d83b 41bf 92bc b365 033c
000001e0: 5b22 31bc 353e dfbc 3b75 f7bc 332b 923c
000001f0: 50ac 1a3c a7fc efbc 27c2 9f3a 3c1a 773c
00000200: d158 de3b 78cd b2bb 7869 03bc ed13 d63b
00000210: e321 12bd 9b89 fa3c 4fa0 faba b409 473b
00000220: 2364 fc3b 1a16 dc3c 24a9 583c 63e4 613b
00000230: 92c7 dd3b cef4 12bc aa2d eabc 225b a73b
00000240: b8fc e0bc 2a39 713c 9f7d 16bd f200 153c
00000250: 30f1 093c f28d 5d3d 18b5 22bc 8726 23bd
00000260: f390 563b 199f d93a d041 a7bc 4499 28bd
00000270: 6ed0 903b cda4 503c 9550 bebc 3574 f2bb
00000280: c5df 363b accd 513d a598 543a c4f6 c83c
00000290: cba3 c8bb bc3d 32bd cace a43c 446c e63b
000002a0: 906b c9b9 b355 f7bc 9890 92bc 3111 7f3b
000002b0: aeb1 d1bb 21f5 593d 7f7c bbbc 9a46 9abc
000002c0: e515 4cbc 8094 b4bb 0cc4 15bc 5dcf 6c3c
000002d0: 03e0 213d 2f12 92bc 6a91 413c fe4a 0a3c
000002e0: 9090 3bbb 9c42 71bc 3805 62bc e8ca 013c
000002f0: 66b4 103d a273 60ba dd12 53bc 19bd 66bb
00000300: 9623 c3bb a00c 17bd 6706 e93b c46a 063d
00000310: 1d50 6dbc acdc 143b 5d3d 83bc 4069 9739
00000320: 088c 80bc 2325 45bc fd77 96bc 4919 c5ba
00000330: efd0 643c ad59 3bbc 13c2 54bc 3396 eb3b
00000340: d6b6 253c f733 0ebc 8d34 ea3b 5642 623c
00000350: 25a7 e6bc 92eb 853c a5c2 06bc d0d3 93bc
00000360: ff58 3c3c c3c9 efbb 0003 01bc b56a b0bc
00000370: ab8e 8abb 0bf5 7ebc 6707 4fba f281 8a3b
00000380: 884c 0b3a b178 d3bc b839 bf3c a115 3639
00000390: fff0 42bd 81b4 f93b 5f8e 34bc 9a6c 2d3c
000003a0: 854e e4bc 97d8 74ba 3d08 d93c fd50 c5bc
000003b0: eba7 333d 1f2f e33a d3ca 76b9 e0b7 60bc
000003c0: 97d1 2a3d 57e7 293c e25b 8a3c a7ea 163d
000003d0: f855 f5bc ef2a 9cbb d04d f43a 8671 af3c
000003e0: 803d 0dbc b860 bf3b d82a e0bb 8393 153d
000003f0: c9f2 a13c 3e0d 74bc 9daa 85bc aa4a 123c

fc.3.weight f4 [277, 554]
0.014160013 0.041187245 0.035426043 -0.025085088 -0.028230993 0.04496469 -0.061517134 -0.04870381
-0.047394138 0.028597305 -0.022871973 -0.008718552 0.03865239 0.08267418 0.04794012 0.0581893
0.03417395 0.013519162 0.05370554 0.04245531 0.018041484 0.0062241578 -0.0065654903 -0.0061501735
-0.030208299 -0.005446187 0.02738905 -0.068623014 -0.02508321 0.026494624 0.040094085 0.0064511425
-0.033934895 -0.0010247417 0.07292679 0.06595938 0.017397355 0.035152394 -0.018547693 0.046715852
0.04190114 0.0617788 0.030715052 0.054849103 0.07811105 0.019599877 -0.07772706 -0.04628313
0.018144693 -0.009749078 -0.04211224 -0.057118837 0.024666617 0.050217293 0.018213743 0.032438748
-0.0017959302 -0.00019347089 0.0021214848 -0.0750173 0.05740403 -0.05379519 0.05953244 0.032130793
-0.018447341 -0.03420911 0.031062772 -0.060538564 -0.015183862 0.012871392 0.062360965 -0.05332412
0.026794177 0.0027421995 0.0327579 0.017033624 0.011073094 0.0121845305 0.067568965 -0.03289536
-0.07142832 0.014155381 -0.058855154 -0.038269818 0.026319839 0.02581268 -0.078107804 0.049167156
0.015618445 0.033732366 0.057469647 -0.011244213 -0.055427995 -0.016978865 -0.0505221 -0.008929017
-0.015081542 0.0014570496 0.045133717 -0.01894855 0.0024137045 0.045368876 -0.034026247 -0.018432608
0.0074809073 -0.054872163 -0.035753038 -0.044898853 0.046532467 0.042092737 0.011656322 0.04465745
0.0034472966 -0.013856436 0.01583481 0.09537931 0.064854875 -0.06205848 0.024204368 -0.061355244
0.05629204 0.019585297 0.0088660335 -0.027475694 0.023482053 -0.06068014 -0.05262208 0.025513172
0.0028344893 0.046393745 -0.066447735 0.007146906 0.0005345787 -0.04749818 -0.023925371 0.06198442
0.05995113 -0.037134368 -0.00512356 -0.050336424 -0.0077261413 0.007947724 -0.044467673 -0.017606907
-0.09108199 -0.056696508 -0.07782828 0.054418664 0.068149686 0.05297525 0.029857984 -0.0086534405
0.017230047 -0.04386306 0.07238556 -0.021983275 -0.014848729 -0.06262738 0.001036991 -0.03606849
-0.035688113 -0.020779362 0.03649861 -0.040250376 0.028788688 0.04020713 0.0076413252 0.007869535
-0.028324524 0.07133818 0.04358719 0.03549147 -0.056502894 -0.048280437 -0.007859372 -0.023134664
0.04619436 -0.044574454 0.059854783 -0.009034195 -0.01502479 -0.013647688 0.03060956 -0.044158272
0.07703576 0.048491515 -0.028266564 -0.024040245 -0.015188034 -0.0018458916 0.062114295 -0.018733652
-0.07471465 0.036067877 0.06957149 -0.054870162 0.06674138 -0.053355332 -0.0053468416 -0.0706919
-0.09525008 -0.035951935 0.050227102 0.04236082 -0.025170013 -0.05517556 -0.06465699 0.00838409
-0.03601119 -0.007134462 0.00021646309 0.08225728 -0.008670508 -0.025324713 0.06724555 -0.06531397
-0.04270656 -0.026625855 0.014309058 0.0531835 0.008323096 -0.0013421722 0.013008364 0.020886397
-0.07945856 0.054676265 -0.048519865 -0.06119025 -0.03504588 0.03609602 -0.05736415 -0.056807443
-0.06605445 0.016514717 0.021144299 -0.016657766 0.064684264 -0.066986665 0.026489155 -0.057573974
0.08386819 -0.056656387 0.010126188 0.059155345 -0.052288674 -0.05141022 -0.037766997 0.039546855
-0.015031199 0.015798364 0.010183112 0.008543912 -0.074617244 0.014385884 -0.056182247 0.0057269847
00000000: 66ff 673c f5b3 283d e61a 113d 3e7f cdbc
00000010: af44 e7bc e52c 383d 64f9 7bbd a57d 47bd
00000020: 5b20 42bd e544 ea3c 015e bbbc 42d8 0ebc
00000030: f851 1e3d 1551 a93d dc5c 443d e757 6e3d
00000040: fcf9 0b3d 7a7f 5d3c 57fa 5b3d 9ee5 2d3d
00000050: bccb 933c 05f4 cb3b 5323 d7bb 6587 c9bb
00000060: 6577 f7bc ee75 b2bb 005f e03c 398a 8cbd
00000070: 4e7b cdbc 410b d93c b239 243d 1b64 d33b
00000080: 51ff 0abd a050 86ba a45a 953d b615 873d
00000090: e684 8e3c f5fb 0f3d 55f1 97bc 1f59 3f3d
000000a0: 88a0 2b3d c40b 7d3d 229e fb3c 74a9 603d
000000b0: b0f8 9f3d ec8f a03c 5d2f 9fbd 6193 3dbd
000000c0: 2ea4 943c 99ba 1fbc e27d 2cbd 71f5 69bd
000000d0: a511 ca3c a6b0 4d3d fd34 953c 7ede 043d
000000e0: 6b65 ebba 72de 4ab9 9c08 0b3b aca2 99bd
000000f0: 7d20 6b3d 5858 5cbd 4ad8 733d 949b 033d
00000100: e11e 97bc da1e 0cbd 5b77 fe3c 49f7 77bd
00000110: bcc5 78bc 88e2 523c 366e 7f3d 646a 5abd
00000120: 767f db3c 79b6 333b 262d 063d 198a 8b3c
00000130: ec6b 353c a0a1 473c 9961 8a3d 49bd 06bd
00000140: 0349 92bd f9eb 673c 1a12 71bd d0c0 1cbd
00000150: b49c d73c 1d75 d33c fcf6 9fbd 8063 493d
00000160: 82e4 7f3c f32a 0a3d 4b65 6b3d a639 38bc
00000170: 7708 63bd 4317 8bbc 43f0 4ebd 034b 12bc
00000180: 9218 77bc 79fa be3a 22de 383d fd39 9bbc
00000190: 3e2f 1e3b b7d4 393d 1b5f 0bbd fbff 96bc
000001a0: 6622 f53b a2c1 60bd c771 12bd dce7 37bd
000001b0: d498 3e3d 6f69 2c3d 28fa 3e3c bbea 363d
000001c0: 0aec 613b 1b06 63bc 01b8 813c 3a56 c33d
000001d0: a2d2 843d 0831 7ebd 3d48 c63c a34f 7bbd
000001e0: 7b92 663d 5871 a03c d742 113c b514 e1bc
000001f0: 6f5d c03c bd8b 78bd 408a 57bd 0001 d13c
00000200: d7c2 393b 5e07 3e3d c015 88bd 9830 ea3b
00000210: f822 0c3a 748d 42bd 24ff c3bc 60e3 7d3d
00000220: 518f 753d 351a 18bd 89e3 a7bb 912d 4ebd
00000230: 922b fdbb 2c37 023c bc23 36bd 5c3c 90bc
00000240: 3289 babd 993a 68bd 6f64 9fbd 1be6 5e3d
00000250: 1092 8b3d 93fc 583d bb98 f43c 29c7 0dbc
00000260: 0726 8d3c c1a9 33bd e13e 943d 4516 b4bc
00000270: 1548 73bc c942 80bd a5eb 873a 8ebc 13bd
00000280: b32d 12bd 7b39 aabc 917f 153d 94dd 24bd
00000290: 41d6 eb3c 3bb0 243d 1564 fa3b 39ef 003c
000002a0: d508 e8bc c019 923d 7b88 323d 815f 113d
000002b0: 946f 67bd b5c1 45bd 98c4 00bc e884 bdbc
000002c0: 4c36 3d3d b493 36bd 4a2a 753d 2904 14bc
000002d0: 892a 76bc 8d9a 5fbc e6c0 fa3c 4edf 34bd
000002e0: edc4 9d3d 0a9f 463d 488f e7bc 0cf0 c4bc
000002f0: 3bd7 78bc d8f1 f1ba 8f6b 7e3d 5177 99bc
00000300: ff03 99bd e9bb 133d 7f7b 8e3d 89bf 60bd
00000310: b4af 883d 1f8b 5abd 8f34 afbb eac6 90bd
00000320: 7912 c3bd 5642 13bd efba 4d3d 8a82 2d3d
00000330: 5831 cebc c5ff 61bd e26a 84bd 6c5d 093c
00000340: 7880 13bd 34c8 e9bb 5efa 6239 8176 a83d
00000350: bf0e 0ebc c675 cfbc 09b8 893d 55c3 85bd
00000360: 13ed 2ebd 771e dabc 8a70 6a3c f1d6 593d
00000370: 985d 083c d3eb afba 0821 553c f319 ab3c
00000380: 2bbb a2bd 38f4 5f3d c4bc 46bd a1a2 7abd
00000390: 458c 0fbd 6cd9 133d acf6 6abd ecae 68bd
000003a0: 8e47 87bd df49 873c cf36 ad3c de75 88bc
000003b0: 2f79 843d 4e30 89bd c9ff d83c b0d2 6bbd
000003c0: 16c3 ab3d 8710 68bd 50e8 253c e04c 723d
000003d0: a62c 56bd 8693 52bd 91b1 1abd e2fb 213d
000003e0: 6b45 76bc 926b 813c 11d7 263c c4fb 0b3c
000003f0: edd0 98bd c5b2 6b3c 5b1f 66bd 6ea9 bb3b
