inventory/ark_material.onnx (onnx, 783276 bytes, 8 tensors)

35 f4 [8, 3, 5, 5]
0	0xbe251432	-0.16120985
1	0x3e80f171	0.25184205
2	0x3e1b54f2	0.15169123
3	0xbe60bae7	-0.21946298
4	0x3dc41c84	0.095757514
5	0x3e91821d	0.2841958
6	0x3e9d1a7e	0.30684274
7	0xbef51d18	-0.4787376
8	0xbe81f62b	-0.25383124
9	0x3d3af607	0.045644786
10	0x3d19e532	0.037572093
11	0xbbf654ef	-0.007517449
12	0x3dbd1f6a	0.092345074
13	0xbeb7388b	-0.35785326
14	0x3d20f5bb	0.039296847
15	0xbda4bd8e	-0.08043967
16	0xbdfdda67	-0.123951726
17	0x3d610a65	0.054941554
18	0xbec83076	-0.39099473
19	0xbefc6ca9	-0.4930165
20	0xbeca0b3f	-0.39461705
21	0xbc42d37e	-0.011891244
22	0xbe94389d	-0.28949443
23	0xbee97edd	-0.45604602
24	0xbea06a51	-0.31331113
25	0x3e3354ce	0.17512819
26	0x3e84aab6	0.25911492
27	0x3d73d786	0.05953171
28	0x3e7b3700	0.245327
29	0x3e115604	0.14192969
30	0x3ecfccca	0.4058593
31	0x3e0bb8cc	0.13644713
32	0xbbfadcef	-0.007655732
33	0x3e614bb9	0.22001542
34	0x3df267d4	0.1183621
35	0xbe335d68	-0.175161
36	0x3da11902	0.07866098
37	0xbda5cd98	-0.080958545
38	0x3e7975bf	0.24361323
39	0xbda1db1c	-0.0790312
40	0xbd9b0e73	-0.07571115
41	0xbc96e2d6	-0.01841871
42	0xbcdffe54	-0.027342953
43	0x3d41f85a	0.047355987
44	0xbd5d5952	-0.05404026
45	0x3e8135de	0.2523641
46	0x3eec244a	0.46121436
47	0xbcc376b0	-0.023860306
48	0xbe586984	-0.21134001
49	0xbea93267	-0.33046266
50	0xbf2c7f2f	-0.67381567
51	0xbe0b5071	-0.13604905
52	0xbd8715ee	-0.0659598
53	0x3d471463	0.048603427
54	0xbee42e93	-0.44566783
55	0xbf10021c	-0.5625322
56	0xbee8a110	-0.4543538
57	0x3e937b92	0.28805214
58	0xbe2b7f3a	-0.16747752
59	0x3bd80c47	0.0065932604
60	0xbe8ed436	-0.2789628
61	0xbeb38357	-0.35061142
62	0xbecb755a	-0.3973797
63	0xbe2cae77	-0.16863428
64	0x3d11a37a	0.035556294
65	0x3bf4ba98	0.007468533
66	0xbe13f0c0	-0.14447308
67	0x3e0ebbff	0.13938902
68	0x3ec149e9	0.377517
69	0x3ee764bb	0.4519404
70	0xbe28745f	-0.16450642
71	0xbee20463	-0.44143972
72	0xbe345371	-0.17609955
73	0x3e894ea7	0.2681782
74	0xbe1fd89a	-0.1560997
75	0x3d68c194	0.056825235
76	0xbe5f7ea7	-0.21825658
77	0x3dcb7fe4	0.099365026
78	0x3ef8102c	0.48449838
79	0x3f3917a4	0.723017
80	0x3cf56535	0.029955486
81	0x3d1873f0	0.03721994
82	0xbed6c71f	-0.41948792
83	0x3ce04f4b	0.02738156
84	0x3f0bd7bd	0.54626065
85	0x3e43faa4	0.1913858
86	0xbe9f18a8	-0.310735
87	0x3f133f11	0.57518107
88	0x3ea60378	0.3242452
89	0x3ea7b94b	0.32758555
90	0xbd603a6c	-0.054743215
91	0xbd9469c3	-0.07246735
92	0xbe3d3c08	-0.18479931
93	0x3d7ba827	0.06143966
94	0xbea5bb42	-0.3236943
95	0xbec65816	-0.3873908
96	0xbe32858b	-0.17433755
97	0xbd4ec20c	-0.050478026
98	0x3e8492fb	0.25893387
99	0x3e6da093	0.23205785
100	0x3d6e0319	0.058108423
101	0xbf1b370d	-0.60630876
102	0x3e37956b	0.17928092
103	0xbd73b32f	-0.059497055
104	0xbd0d4d15	-0.03449734
105	0xbc29b65a	-0.010358417
106	0x3dc7af99	0.097502895
107	0x3cba7b4a	0.022763867
108	0xbebcd0d7	-0.36878082
109	0xbeb47662	-0.3524657
110	0xbe260755	-0.16213734
111	0xbe0f9d8c	-0.14024943
112	0xbe356fd8	-0.17718446
113	0xbcf4ee88	-0.029898897
114	0x3ee53ab2	0.44771343
115	0x3edc7c62	0.43063647
116	0x3e5c6c0a	0.21525589
117	0x3e7f144d	0.24910088
118	0xbe80fb42	-0.25191694
119	0x3e3f859d	0.18703313
120	0x3f318596	0.6934446
121	0x3ecaf91a	0.39643174
122	0x3f10c115	0.5654462
123	0xbeaf7fbf	-0.3427715
124	0x3e620df5	0.22075637
125	0xbef41248	-0.47670197
126	0x3ebdb811	0.37054494
127	0x3e906872	0.28204685
128	0x3ecbbbab	0.39791617
129	0x3ea057a4	0.31316864
130	0xbd4bf65e	-0.0497955
131	0x3eb97e08	0.36228967
132	0xbea6d864	-0.32586968
133	0xbdec2c99	-0.11531944
134	0xbe3057d4	-0.17221004
135	0xbe183d0b	-0.14867036
136	0x3cd7e760	0.026355445
137	0x3eac986d	0.33710042
138	0x3e3e1019	0.18560828
139	0x3eb1ed29	0.3475125
140	0x3e9e0739	0.30864885
141	0xbe0d9a08	-0.1382829
142	0x3e33b8e0	0.17550993
143	0xbe07aad3	-0.13248758
144	0xbf1665fb	-0.5874936
145	0x3f25bcbb	0.64741105
146	0x3f24a2e8	0.64311075
147	0xbe11a598	-0.14223325
148	0xbefd202e	-0.49438614
149	0xbf1497b9	-0.5804401
150	0xbe2425ce	-0.16030046
151	0x3e079795	0.13241418
152	0x3f073b80	0.52825165
153	0x3f045f8f	0.5170831
154	0x3e6a838e	0.22901747
155	0xbf8247da	-1.0178177
156	0x3f0cd579	0.55013233
157	0x3ee87f00	0.45409393
158	0x3dbc7bcb	0.09203299
159	0xbed25fe1	-0.41088775
160	0xbf40d664	-0.75327134
161	0xbf1dbb9d	-0.616144
162	0x3f7d0202	0.9883119
163	0x3e7a6a35	0.24454577
164	0x3ee4be7c	0.44676578
165	0xbf4ba2dd	-0.79545385
166	0x3ee87e2e	0.45408767
167	0xbf19440c	-0.59869456
168	0x3e26af7e	0.16277882
169	0xbe4f2957	-0.20230614
170	0xbe6f7ef3	-0.23388271
171	0xbe837b5d	-0.25680056
172	0xbd847267	-0.06467133
173	0x3f461b60	0.7738552
174	0x3f88b94a	1.0681546
175	0x3e3478bb	0.1762418
176	0x3f7d92e7	0.9905228
177	0x3f3a73dd	0.72833043
178	0xbe6cef03	-0.2313805
179	0xbf44f14f	-0.7693071
180	0xbe0e56ad	-0.13900252
181	0x3da03b99	0.07823867
182	0x3f1b3c95	0.60639316
183	0x3eb46d4b	0.35239634
184	0x3c0b96d0	0.008519843
185	0xbe995817	-0.2995002
186	0x3d876ed6	0.06612937
187	0x3cf63b37	0.030057533
188	0xbc4a15ee	-0.01233433
189	0xbf3ddd11	-0.74165446
190	0xbf689d52	-0.9086505
191	0x3da7d212	0.081943646
192	0x3ec7e1ba	0.39039403
193	0x3eb8a4e8	0.36063313
194	0xbee8711c	-0.45398796
195	0x3e7383ea	0.2378079
196	0x3eab46ed	0.3345255
197	0x3f38e937	0.7223086
198	0x3ea711fa	0.32630903
199	0x3d96d9f8	0.07365793
200	0xbe9822a1	-0.2971392
201	0xbc9c33eb	-0.019067725
202	0xbce48b85	-0.02789856
203	0xbf2b1e7d	-0.66843396
204	0xbe18e0fc	-0.14929575
205	0xbe8d5730	-0.2760558
206	0xbe251a37	-0.16123281
207	0xbcaafd4f	-0.02087274
208	0xbf2dc7d6	-0.6788305
209	0xbf3a0215	-0.72659427
210	0x3f3982b8	0.72465086
211	0x3eed392a	0.46332675
212	0x3e2c4184	0.16821867
213	0x3e39a656	0.18129858
214	0x3f1d695f	0.6148891
215	0x3f1b5a42	0.606846
216	0x3e0bb312	0.13642529
217	0xbf2e9aef	-0.6820516
218	0x3f3be516	0.7339643
219	0x3e27bc9e	0.16380545
220	0x3e4f8d4c	0.20268744
221	0xbf5f61fb	-0.8725888
222	0xbf69530b	-0.9114234
223	0xbdd39e62	-0.103329435
224	0x3f3018d5	0.6878789
225	0xbefe6a20	-0.49690342
226	0xbdfc0787	-0.12306123
227	0xbbb8b581	-0.0056368713
228	0x3ebab6e9	0.36467674
229	0x3de7a548	0.11310822
230	0xbd4ff228	-0.050768048
231	0x3dfe2b82	0.12410642
232	0x3e824fea	0.25451595
233	0x3edae69a	0.4275406
234	0xbe9ea7ab	-0.30987296
235	0x3f310ce1	0.69160277
236	0xbdca1309	-0.09866912
237	0x3ec1b0f0	0.37830305
238	0x3f06e6c2	0.5269586
239	0xbf057467	-0.5213074
240	0x3ed33e02	0.41258246
241	0x3f135a86	0.5756
242	0x3ea42523	0.32059583
243	0xbd192e1e	-0.037397496
244	0xbdbbe842	-0.09175159
245	0xbe2853d8	-0.16438234
246	0x3ef759e7	0.48310778
247	0xbe86b7af	-0.26312014
248	0xbe8ef2eb	-0.27919707
249	0xbdd26975	-0.102740206
250	0xbe32a6b8	-0.1744641
251	0xbdff7cfe	-0.12475012
252	0x3e45a907	0.1930276
253	0x3e917a14	0.2841345
254	0x3eab94a9	0.33511856
255	0xbc0f52a0	-0.008747727

36 f4 [8]
0	0x3ff2bb2f	1.8963374
1	0xbfded426	-1.7408493
2	0xbfa08ba2	-1.2542613
3	0x3fb61fb9	1.4228431
4	0x3fe8a5e2	1.8175623
5	0xbfd4b613	-1.6618065
6	0xbb1db860	-0.0024066195
7	0xbf4e7d34	-0.80659795

38 f4 [16, 8, 3, 3]
0	0x3f3cf3e7	0.73809665
1	0xbea84711	-0.3286672
2	0xbc86a517	-0.016436143
3	0x3c603cfe	0.013686417
4	0xbfd457f7	-1.6589345
5	0xbdf8343a	-0.121193364
6	0x3e2db8f4	0.16965085
7	0xbf95551e	-1.1666601
8	0xbf264e8c	-0.64963603
9	0xbf34003b	-0.7031285
10	0x3fba9f74	1.4579911
11	0x3dc31b3a	0.095266774
12	0x3e949fe3	0.29028234
13	0x3e8f4794	0.27984297
14	0xbea8c9b2	-0.3296638
15	0xbf64a6da	-0.89317095
16	0xbda69e1c	-0.08135626
17	0x3ea6e299	0.32594755
18	0x3ee25994	0.44208968
19	0x3f2d1b09	0.6761938
20	0xbe5f55be	-0.21810052
21	0x3ec6e299	0.38844755
22	0xbddad570	-0.10685241
23	0x3eb742fd	0.35793296
24	0xbdb8ea66	-0.09029083
25	0xbe363dc7	-0.17797004
26	0xbf1b194e	-0.60585487
27	0xbf8e15b1	-1.110037
28	0x3b31d508	0.0027135033
29	0x3e78ae72	0.24285296
30	0x3f12a622	0.5728475
31	0x3f061729	0.5237909
32	0xbe3cb3a6	-0.18427905
33	0x3f6c9543	0.92415255
34	0x3f82aabe	1.0208356
35	0x3d88bd59	0.0667674
36	0xbe82bc6c	-0.2553438
37	0x3eccc0fd	0.39990988
38	0xbee69dae	-0.45042175
39	0x3f0e5f59	0.5561424
40	0x3e96be6a	0.2944215
41	0x3f9237f9	1.1423331
42	0xbf8c4964	-1.0959897
43	0x3f750eb3	0.95725554
44	0x3ef0f02b	0.47058234
45	0x3f0c27d4	0.5474827
46	0x3f27c736	0.65538347
47	0xbf8937c8	-1.0720148
48	0xbe6aad2f	-0.22917627
49	0xbf506d5e	-0.8141688
50	0x3efe1332	0.4962402
51	0x3f35f032	0.71069634
52	0xbeb14e46	-0.3463003
53	0xbf16c7d7	-0.5889868
54	0xbf82ee43	-1.0228962
55	0xbd1be12d	-0.03805654
56	0xbe75d112	-0.24005535
57	0xbf082a9b	-0.5319001
58	0x3b85ddd8	0.0040852837
59	0x3f3385ed	0.7012623
60	0xbdbc1b94	-0.091849476
61	0xbea892c8	-0.32924485
62	0xbeab89a2	-0.33503443
63	0xbe7bdc17	-0.24595676
64	0xbe7717dc	-0.24130195
65	0x3e59ab0d	0.21256657
66	0xbf85cf8b	-1.0453962
67	0xbdb85aab	-0.090016685
68	0x3ed89b04	0.42305768
69	0x3f281a1f	0.6566486
70	0xbe6f808f	-0.23388885
71	0xbda6381c	-0.08116171
72	0xbeac58a7	-0.33661386
73	0x3f9465a9	1.1593524
74	0xbf85a11f	-1.0439795
75	0x3f0391bd	0.51394254
76	0xbfbcc38b	-1.4747175
77	0x3eab9e9c	0.33519447
78	0xbf141d5e	-0.5785731
79	0xbdde2e41	-0.10848666
80	0x3f2633c0	0.64922714
81	0xbf71376e	-0.94225204
82	0x3fc88236	1.5664737
83	0xbf81605d	-1.0107533
84	0x3ee76ea3	0.45201597
85	0xbf8fe7e3	-1.1242641
86	0x3f462551	0.7740069
87	0xbfb82eac	-1.4389243
88	0x3fa2886a	1.269788
89	0x3f60e976	0.87856233
90	0x3e9e7735	0.30950323
91	0x3f6b759b	0.91976327
92	0xbe7db879	-0.24777402
93	0xbe9cbe7e	-0.30614084
94	0xbf3dd379	-0.74150807
95	0xbf85e017	-1.0459012
96	0x3f5bba5c	0.85831237
97	0x3f4714b4	0.77765965
98	0x3c9ba8b0	0.019001335
99	0x3e9a9fe4	0.30200112
100	0x3e9fc7b2	0.31207043
101	0x3f1117a0	0.56676674
102	0x3ec2027a	0.37892514
103	0xbf06f1cc	-0.527127
104	0x3f86fc2e	1.0545709
105	0xbf38d5a8	-0.72201014
106	0xbf4bec84	-0.7965777
107	0xbed70d0f	-0.4200215
108	0x3f1f2a30	0.6217375
109	0x3f7714be	0.96516025
110	0xbf7a6ff9	-0.97827107
111	0xbf97d003	-1.1860355
112	0xbfadfb0a	-1.3592236
113	0xbf07ab69	-0.52995926
114	0xbea2c885	-0.3179361
115	0x3ccae781	0.024768593
116	0x3f149beb	0.5805041
117	0x3f1a5744	0.60289407
118	0xbf43aad8	-0.7643256
119	0xbe1b062e	-0.15139076
120	0x3eae9440	0.3409748
121	0xbf1363ac	-0.5757396
122	0xbe7cea53	-0.24698763
123	0xbfc36829	-1.5266162
124	0xbeb1c172	-0.347179
125	0xbf921620	-1.1413002
126	0x3e4e4c89	0.20146383
127	0xbe200176	-0.15625557
128	0xbf8b1f5a	-1.0868943
129	0x3f991b21	1.1961404
130	0xbd3bebab	-0.045879047
131	0xbf1f698a	-0.62270415
132	0x3d967f1e	0.073484644
133	0xbf82610e	-1.0185869
134	0x3f3346c2	0.7002984
135	0x3ec604e6	0.38675612
136	0xbf774a2b	-0.96597546
137	0x3e153d3b	0.14574139
138	0x3f7d2d36	0.9889711
139	0xbf6778f1	-0.90418917
140	0xbe9b76ff	-0.30364224
141	0xbe9e9f99	-0.30981138
142	0xbdcf14b0	-0.10111368
143	0xbf99d7b2	-1.201895
144	0xbf8ff91f	-1.1247901
145	0xbe9e704d	-0.30945054
146	0xbecf94e6	-0.40543288
147	0x3e8df341	0.2772465
148	0xbe89b594	-0.26896346
149	0xbf3d3209	-0.7390447
150	0xbeb21589	-0.34782055
151	0xbf93cb61	-1.1546441
152	0x3ef1c988	0.4722407
153	0x3dd79524	0.10526493
154	0xbeadad6e	-0.3392138
155	0x3f6b396e	0.91884506
156	0xbf06747a	-0.5252148
157	0xbfdb55b5	-1.7135531
158	0x3ea8d075	0.3297154
159	0xbe9d4ca2	-0.3072253
160	0x3e7da88f	0.24771331
161	0xbef228dc	-0.47296798
162	0x3f85e107	1.0459298
163	0x3fc8eeae	1.5697839
164	0xbe393a1c	-0.18088573
165	0x3da66662	0.08124997
166	0x3e97f551	0.2967935
167	0xbf4e888e	-0.80677116
168	0x3f46fccd	0.77729493
169	0x3f4f8d42	0.8107492
170	0xbf28a084	-0.6586993
171	0x3f0cd62c	0.550143
172	0x3e8c111b	0.273568
173	0xbee6c097	-0.4506881
174	0x3f8659f7	1.0496205
175	0xbfbdbe88	-1.482377
176	0xbecc86e4	-0.39946663
177	0xbe56bf19	-0.20971335
178	0xbf7667af	-0.9625196
179	0x3f56af17	0.83860916
180	0x3e6a3f00	0.22875595
181	0x3a7802e3	0.00094608794
182	0x3f0c5377	0.5481486
183	0xbf84727e	-1.034744
184	0xbf80b5c6	-1.0055473
185	0xbe869cb1	-0.2629142
186	0x3f42624d	0.75931245
187	0x3f26b8e4	0.6512587
188	0xbef2b9bb	-0.47407326
189	0xbf9ef6fd	-1.2419125
190	0xbf69ba3d	-0.912998
191	0xbf7c5858	-0.985723
192	0x3fb3444f	1.4005221
193	0xbfdd6942	-1.7297747
194	0xbf5f9cdf	-0.8734874
195	0x3faf4f19	1.3696014
196	0xbfc99b69	-1.5750552
197	0x3f2f0267	0.6836304
198	0x3e8c42fa	0.2739485
199	0x3f1f0823	0.6212179
200	0x3f366523	0.7124807
201	0xbf6f3486	-0.9343952
202	0x3f5b2cbc	0.85615134
203	0xbef4bb3f	-0.47799107
204	0xbe72c582	-0.23708156
205	0x3f9d0aba	1.2268898
206	0x3da3e0ff	0.08001899
207	0xbf30d178	-0.69069624
208	0xbe18f2b5	-0.14936335
209	0xbdaa05a5	-0.08301858
210	0xbeecaf65	-0.46227565
211	0x3f9b6cd2	1.2142584
212	0x3e46a9c9	0.19400705
213	0xbf39b893	-0.7254726
214	0xbe4545e2	-0.1926494
215	0x3f0c8b40	0.5489998
216	0xbdac950f	-0.08426868
217	0xbf43f590	-0.76546574
218	0x3cb64aaf	0.022252409
219	0x3dc85b5b	0.0978305
220	0xbee52e14	-0.44761717
221	0x3ecc8423	0.39944562
222	0xbf11213b	-0.5669133
223	0x3f9c5029	1.2211963
224	0xbea748c8	-0.32672715
225	0xbcb21c02	-0.02174187
226	0xbe1adbbd	-0.15122886
227	0x3e171e99	0.14757766
228	0x3d0b2665	0.033972163
229	0x3ed67bc7	0.4189131
230	0xbec28365	-0.3799087
231	0x3ee6b628	0.4506085
232	0xbf06f2b7	-0.52714103
233	0x3f88571e	1.0651586
234	0x3f49f9de	0.7889689
235	0x3fa83c3a	1.314338
236	0xbf6b0c87	-0.9181599
237	0xbf43368a	-0.76255095
238	0xbe8b48a7	-0.27203867
239	0xbf28da9b	-0.65958565
240	0x3ce11eae	0.02748045
241	0xbe9dd206	-0.30824298
242	0x3fae7e28	1.363225
243	0x3eeca9c0	0.4622326
244	0x3f9bf2fa	1.2183526
245	0xbf7fdd6f	-0.99947256
246	0xbf3a6c20	-0.72821236
247	0x3f2bac8d	0.67060167
248	0xbe74bc97	-0.23900066
249	0x3ea7b933	0.32758483
250	0xbf501db9	-0.81295353
251	0x3e21b69b	0.15792315
252	0xbe903e7e	-0.28172678
253	0xbdfa4030	-0.12219274
254	0xbebf6207	-0.37379476
255	0xbeae3299	-0.34022978

39 f4 [16]
0	0x3ec94b54	0.39315283
1	0x4068589b	3.630408
2	0x4034c417	2.8244684
3	0xbdb6c0c2	-0.089234844
4	0xbfe5d440	-1.7955399
5	0xbf2bd747	-0.6712536
6	0xbd9a2e18	-0.07528323
7	0x3f2e0105	0.67970306
8	0x3f408fe4	0.7521956
9	0xc004f63a	-2.0775285
10	0x4017f5c7	2.374376
11	0x4009f665	2.1556637
12	0x3d21ec7c	0.03953217
13	0xbfba39c9	-1.4548885
14	0x3e0a8727	0.13528119
15	0xbf8ff92c	-1.1247916

fc.0.bias f4 [552]
0	0x3bfaf5ea	0.00765871
1	0x3debd1cf	0.11514627
2	0x3ce4d6cc	0.027934454
3	0xbad6a548	-0.0016376162
4	0xbd86231a	-0.06549664
5	0x3bb3d7ba	0.005488363
6	0x3e10db7e	0.1414623
7	0x3d026126	0.03183093
8	0x3d424ef0	0.047438562
9	0x3d34e431	0.044162933
10	0x3d60e88f	0.054909285
11	0xbcba01d6	-0.022705954
12	0x3c666c17	0.014063857
13	0x3d82cc76	0.06386654
14	0xbba502cc	-0.005035734
15	0xbd896986	-0.0670958
16	0xbd036b93	-0.032085013
17	0x3dbac852	0.09120239
18	0x3c80984e	0.015697625
19	0x3c88e2b6	0.016709667
20	0x3dac44b9	0.08411545
21	0x3de12d12	0.109949246
22	0x3dd1b3f1	0.10239399
23	0xbca2797c	-0.019833319
24	0x3beb6afc	0.0071843844
25	0x3b2092a4	0.0024501467
26	0xbdbc9a1e	-0.09209083
27	0xbc633371	-0.013867245
28	0xbdb43ed0	-0.08801043
29	0x3daafc95	0.083489574
30	0xbd1f31a1	-0.03886569
31	0xbcccdea1	-0.025008501
32	0x3dd86840	0.10566759
33	0x3e04b27c	0.12958711
34	0xbc4be7a2	-0.012445362
35	0x3d27e85d	0.040993083
36	0xbd34fa29	-0.044183884
37	0x3d310c51	0.043224636
38	0x3c0b265f	0.008493035
39	0xbc9084ca	-0.017641444
40	0x3d8c697f	0.06856059
41	0x3e00a909	0.12564482
42	0xbc1c7fcb	-0.009551953
43	0xbd34601a	-0.044036962
44	0x3da46061	0.08026195
45	0x3bc598ce	0.0060301786
46	0x3e0b91b9	0.13629808
47	0x3db20d64	0.0869396
48	0xbc978f28	-0.01850088
49	0x3dce0e68	0.100613415
50	0x3c69149f	0.014226108
51	0xbc32ec76	-0.0109206345
52	0xbd04fc60	-0.032467246
53	0xbc4fe36e	-0.012688501
54	0x3c8a2c45	0.016866812
55	0x3d303012	0.043014593
56	0x3d8bfb4e	0.06835042
57	0xbdb2f359	-0.08737821
58	0x3cd77e2b	0.026305279
59	0x3d699d4d	0.05703478
60	0xbd7c2e89	-0.061567817
61	0x3ad8b707	0.0016534039
62	0x3d83bf30	0.064329505
63	0x3dcd4d1f	0.10024475
64	0xbbe89481	-0.007097781
65	0xbc5cd889	-0.01347936
66	0x3cb38834	0.021915533
67	0xbd7248c2	-0.05915142
68	0x3d8acb56	0.067770645
69	0x3a89db0c	0.0010517552
70	0x3db87bf9	0.09008021
71	0x3d6053c5	0.05476739
72	0xbcdf67ea	-0.02727123
73	0xbc94ebac	-0.018178783
74	0x3d6f2c3c	0.058391795
75	0x3d9d4866	0.076798245
76	0x3dff4b57	0.12465542
77	0x3ddc3628	0.10752517
78	0xbcbaeba3	-0.022817438
79	0x3dc102ca	0.0942436
80	0x3cac78d6	0.021053713
81	0x3e00bbc4	0.12571627
82	0x3ddba96d	0.10725675
83	0xbca043a9	-0.019563513
84	0x3df50482	0.119637504
85	0x3dc17b8d	0.094473936
86	0x3e0611bb	0.13092701
87	0x3c884ad1	0.016637238
88	0x3da150f8	0.07876772
89	0x3d8a0440	0.06739092
90	0x3bf03453	0.0073304563
91	0x3c74d384	0.014943007
92	0x3dc18eb2	0.09451045
93	0x3c077d44	0.008269612
94	0xbc98fcfe	-0.018675324
95	0x3bbf61e7	0.0058405283
96	0x3c03656e	0.008019788
97	0x3dfa3af8	0.12218279
98	0x3d3269bc	0.043557867
99	0x3e279fdf	0.1636958
100	0x3da4b39c	0.0804207
101	0x3d1294a9	0.035786305
102	0x3da9ac26	0.08284788
103	0xbda2b03f	-0.079437725
104	0x3de72c92	0.11287798
105	0x3d8eeabb	0.06978365
106	0x3ddd5bfc	0.1080856
107	0xbbc30fbf	-0.005952805
108	0x3d6819ed	0.05666535
109	0x3db49e96	0.0881931
110	0x3d05a89f	0.032631513
111	0x3d96caa1	0.07362867
112	0x3d7d9703	0.061911594
113	0x3d0f3e5e	0.034971587
114	0xbd52b380	-0.051440716
115	0x3d7a8f57	0.061171856
116	0xbccf0152	-0.025269184
117	0xbc4e2b0b	-0.012583504
118	0xbda04587	-0.07825761
119	0x3bb0d2b4	0.0053962115
120	0x3b98b95e	0.0046607694
121	0x3c599f45	0.013282602
122	0x3d949722	0.07255389
123	0x3c4245af	0.011857434
124	0x3d8c7aa5	0.0685933
125	0x3d91253a	0.070871785
126	0x3e0c10d8	0.136783
127	0xbdb5399f	-0.08848881
128	0x398c7e11	0.00026796808
129	0xbc6b664c	-0.014367651
130	0x3b8718d6	0.0041228337
131	0x3d24e9f2	0.04026217
132	0x3c053567	0.008130408
133	0x3d14afc4	0.036300436
134	0x3e059701	0.13045885
135	0xbdbc690d	-0.09199724
136	0x3d20c24a	0.03924779
137	0xbd73ebd9	-0.059551094
138	0xbd7028a3	-0.058632504
139	0x3e2cfb26	0.1689268
140	0x3cc368f7	0.023853762
141	0x3e16eaff	0.14738081
142	0x3ddcc58d	0.10779867
143	0x3c6f449e	0.014603762
144	0xbd395ec3	-0.045256387
145	0xbcc6b5fc	-0.024256699
146	0x3e0a02ca	0.13477626
147	0x3c2a049b	0.010377075
148	0xbbe91a2d	-0.007113716
149	0xbd34d0c8	-0.04414442
150	0x3dbcca5e	0.09218286
151	0xbd62b9d2	-0.055352993
152	0x3d471e10	0.048612654
153	0xbcb6475d	-0.022250826
154	0x3d932878	0.07185453
155	0x3c1e456f	0.009660109
156	0x3c5ef8d6	0.013609132
157	0xbd371ca2	-0.04470504
158	0x3dcc1bd3	0.099662445
159	0xbc1750f2	-0.009235607
160	0x3e00d9ee	0.12583134
161	0xbc6b056c	-0.014344554
162	0xbb84a174	-0.004047567
163	0x3e067fc1	0.13134672
164	0x3cfe0083	0.031006103
165	0x3d4eea8b	0.050516646
166	0x3df5b69b	0.1199772
167	0xbcf1fa36	-0.029538255
168	0x3d897da1	0.06713415
169	0xbcf62d94	-0.03005103
170	0x3c99115b	0.018685034
171	0x3e09cbdb	0.13456671
172	0xbbdd97b0	-0.0067624673
173	0x3c8c05f7	0.017092688
174	0x3db1a18d	0.086733915
175	0xbdce1f51	-0.10064567
176	0xbc7e6fc9	-0.015529581
177	0xbd92a03b	-0.07159468
178	0x3d9666a2	0.073437944
179	0x3c14ba28	0.009077586
180	0x3df04bf5	0.11733238
181	0x3d2d8cb1	0.042370502
182	0x3de71670	0.112835765
183	0x3ccb8400	0.024843216
184	0x3c235800	0.009969711
185	0x3c2d9021	0.010593445
186	0x3e009883	0.12558179
187	0x3df4d6a5	0.11955003
188	0x3dcd9243	0.10037663
189	0xbd7cc344	-0.061709657
190	0x3dd90f1e	0.105985865
191	0xbcf00f4c	-0.02930417
192	0xbd9f2e36	-0.07772486
193	0x3e0959e8	0.13413203
194	0x3d62b18f	0.055345114
195	0xbce30ebd	-0.027716989
196	0x3da0e607	0.07856374
197	0x3c27fcc2	0.010253133
198	0x3e2111be	0.15729424
199	0x3d8a7279	0.06760115
200	0xbd867d68	-0.06566888
201	0x3b688094	0.003547703
202	0x3d38fb1a	0.045161344
203	0x3acdc2d8	0.0015698327
204	0xbd9c8d81	-0.07644177
205	0xbbdd373c	-0.006750969
206	0x3e148430	0.1450355
207	0x3c1639b5	0.009169032
208	0x3d5c222a	0.05374352
209	0x3e187579	0.14888562
210	0x3cc26e7a	0.02373432
211	0x3d92e0cb	0.07171782
212	0x3d48b123	0.048997056
213	0xbd352402	-0.044223793
214	0x3d1f6719	0.03891668
215	0x3c8eb50f	0.01742032
216	0xbd3609e3	-0.044443022
217	0xbc3faf2e	-0.011699481
218	0xbd60eb3d	-0.05491184
219	0x3d5b94d2	0.053608723
220	0xbd0ed687	-0.034872558
221	0xbbbbe0c4	-0.0057335813
222	0xbd6576dd	-0.05602156
223	0xbbd3d748	-0.0064648725
224	0xbd4b28e9	-0.04959956
225	0x3bfd4ab8	0.0077298544
226	0xbdae242a	-0.085029915
227	0x3e12d66e	0.14339611
228	0xbca11d43	-0.019667273
229	0xbca22cfb	-0.019796839
230	0x3cfd3261	0.030907812
231	0x3dc10c00	0.09426117
232	0x3d95635d	0.07294343
233	0x3da09178	0.07840246
234	0x3e0a5918	0.13510549
235	0xbda00cf4	-0.078149706
236	0x3d6a57c5	0.05721261
237	0xbc8307a0	-0.015994847
238	0x3e219ddd	0.15782876
239	0x3dc6651f	0.09687256
240	0x3dc34ad5	0.095357575
241	0xbd4dd91d	-0.050255883
242	0x3c2fbfdb	0.010726894
243	0x3ce604b5	0.028078416
244	0xbda24bea	-0.07924636
245	0x3d03ddef	0.032194074
246	0xbcbe4e6b	-0.023230752
247	0xbd64de49	-0.05587605
248	0x3da5bc0f	0.0809251
249	0x3dad41c4	0.084598094
250	0x3deec400	0.11658478
251	0x3d47ea0f	0.0488072
252	0x3dbb2538	0.09137958
253	0x3d115cf4	0.035489038
254	0x3e13d58a	0.14436927
255	0xbc7fc4c3	-0.0156108765

fc.0.weight f4 [552, 64]
0	0xbd827b55	-0.0637118
1	0xbdf90eb7	-0.1216101
2	0xbd211ceb	-0.03933422
3	0x3e3d1d7c	0.18468279
4	0x3dd5f2ac	0.104466766
5	0xbbfd3301	-0.0077270274
6	0xbe472991	-0.1944945
7	0x3dd5c13d	0.10437248
8	0x3e0805f5	0.13283522
9	0x3e07e51d	0.13270994
10	0xbe2d90d7	-0.16949783
11	0xbd5e98be	-0.054344885
12	0x3df17e60	0.11791682
13	0x3d18ad50	0.03727466
14	0xbd48a53a	-0.048985697
15	0xbe197ec4	-0.14989763
16	0xbc843ab1	-0.016141267
17	0x3ddf44d8	0.10901803
18	0xbdd3ec04	-0.10347751
19	0xbd022b7c	-0.03177975
20	0x3dd87b75	0.105704226
21	0x3dab941e	0.083778605
22	0x3d6e67a3	0.058204304
23	0xbc2d86be	-0.010591207
24	0xbd34d9de	-0.044153087
25	0x3c35b079	0.011089438
26	0xbce79e3c	-0.028273694
27	0xbdc9d47b	-0.098549806
28	0xbc9a8d77	-0.018866284
29	0x3d915e5a	0.07098074
30	0xbd690177	-0.056886163
31	0x3de8078f	0.11329567
32	0x3a6d8e5e	0.0009062047
33	0xbe05408c	-0.13012904
34	0x3da28d1d	0.079370715
35	0xbce2e5cb	-0.027697464
36	0x3c6642af	0.014053985
37	0x3d753501	0.059865
38	0xbd3c3aba	-0.045954444
39	0x3cd55f6d	0.02604648
40	0xbc0230f3	-0.007946241
41	0xbd230249	-0.0397971
42	0x3d0ab6fd	0.033865917
43	0x3df1b91d	0.11802886
44	0x3e2047f8	0.15652454
45	0xbda0672f	-0.07832181
46	0xbdd4e523	-0.10395267
47	0x3e10458f	0.14089034
48	0x3e0c3234	0.13691026
49	0x3da659d9	0.08122606
50	0x39834410	0.00025036978
51	0x3e039450	0.12849545
52	0x3dcf8908	0.101335585
53	0x3e0db0bf	0.13836955
54	0x3e648937	0.22317968
55	0x3d68b478	0.056812733
56	0xbde5c8ff	-0.112199776
57	0x3db921fb	0.090396844
58	0xbc9d5eda	-0.019210268
59	0x3c48d842	0.012258591
60	0x3e86f744	0.26360524
61	0xbdfdb3ef	-0.12387835
62	0x3e2e86c6	0.170436
63	0x3da5cfb3	0.08096256
64	0xbd33c81a	-0.043892004
65	0xbdc660c5	-0.09686426
66	0x3d137cee	0.036007814
67	0xbda379be	-0.07982205
68	0x3db3d553	0.08780923
69	0x3d6d6d58	0.057965606
70	0xbd9b3db4	-0.07580128
71	0x3e20147a	0.15632811
72	0x3e2c91e4	0.16852528
73	0xbb1b6c94	-0.002371584
74	0x3e158b6f	0.14603971
75	0x3dd717e7	0.10502606
76	0xbde68472	-0.11255731
77	0x3e0fed81	0.14055444
78	0xbd165788	-0.03670457
79	0xbdc4e594	-0.09614101
80	0xbdb31102	-0.08743478
81	0x3dead6ca	0.11466749
82	0x3c3be931	0.011469171
83	0x3e27a565	0.16371687
84	0xbd4cd2fa	-0.05000589
85	0x3d91d97a	0.071215585
86	0x3d7f65ed	0.062353063
87	0x3da28581	0.0793562
88	0xbd8295f6	-0.06376259
89	0xbd5fae3f	-0.054609533
90	0xbd4541b9	-0.04815838
91	0xbd4a9181	-0.04945517
92	0x3dbe7937	0.09300464
93	0xbd21fc8c	-0.039547488
94	0x3e1041ba	0.14087573
95	0xbda96d33	-0.08272781
96	0x3c5eca13	0.013597983
97	0x3e26ff4b	0.16308324
98	0x3cb6b44e	0.022302773
99	0xbdfa4a08	-0.122211516
100	0xbcb04f05	-0.021522054
101	0xbccb4632	-0.024813745
102	0xbe096373	-0.13416843
103	0x3da33c35	0.07970468
104	0xbd08764f	-0.033315953
105	0xbd835230	-0.064121604
106	0x3d52b827	0.051445153
107	0xbc9fbaa9	-0.019498186
108	0x3d7fdf9c	0.06246911
109	0xbc2c14e5	-0.0105030285
110	0x3e27df39	0.16393746
111	0x3e506465	0.20350797
112	0x3c772d53	0.01508649
113	0x3d189277	0.037249055
114	0xbd928f9c	-0.071562976
115	0x3d2bd3f2	0.041950174
116	0x3c65c3c7	0.014023728
117	0xbd02b67a	-0.031912304
118	0x3d4ab666	0.049490355
119	0x3db88cf7	0.09011262
120	0x3da2cec7	0.07949596
121	0xbd979679	-0.07401747
122	0x3d7e53f6	0.06209179
123	0xbd1d1eae	-0.038359337
124	0x3ccbd5c2	0.024882201
125	0xbd6c0415	-0.05762108
126	0x3d9bb0ba	0.07602067
127	0x3d1c8824	0.03821577
128	0xbd2fe964	-0.042947188
129	0xbcb71e4a	-0.02235331
130	0x3c45f3f7	0.0120820915
131	0xbd394a8f	-0.04523712
132	0x3d2e970e	0.042624526
133	0xbd1fe539	-0.039036963
134	0xbd63cd00	-0.055615425
135	0x3cfe3a1e	0.031033572
136	0xbcb89ef1	-0.022536727
137	0x3dd68f4f	0.10476553
138	0x3dab092d	0.083513595
139	0xbd25d2ea	-0.040484346
140	0x3d20e87e	0.03928422
141	0xbdbe050c	-0.09278306
142	0xbcb36ffb	-0.021903982
143	0x3d874c21	0.06606317
144	0x3dabced2	0.08389057
145	0xbdf6134e	-0.12015401
146	0xbbaab6fb	-0.0052098013
147	0xba54b31a	-0.00081138464
148	0xbccac877	-0.024753792
149	0xbddd82a2	-0.10815932
150	0x3c9551c6	0.01822747
151	0x3dae22dc	0.08502743
152	0x3cd51fd2	0.02601615
153	0x3cd1ed6a	0.025625903
154	0xbdccc1de	-0.09997915
155	0xbd1aba71	-0.03777546
156	0x3b3a2db9	0.00284086
157	0xbcb87ae8	-0.022519544
158	0x3de1a298	0.110173404
159	0xbd277b42	-0.040889032
160	0x3da96c2e	0.08272587
161	0x3dcbba38	0.09947628
162	0xbd6badc5	-0.057538766
163	0xbc529339	-0.012852483
164	0xbdc5859b	-0.09644624
165	0xbcb23b64	-0.021756835
166	0xbc2334bf	-0.009961306
167	0xbdbac6b7	-0.09119933
168	0x3e077889	0.13229574
169	0xbdd3d0d5	-0.10342566
170	0xbdd1947a	-0.10233398
171	0x3e306be8	0.17228663
172	0x3d253c1a	0.04034052
173	0x3e1be1b4	0.15222818
174	0x3d2183db	0.039432388
175	0x3c0aec2a	0.008479157
176	0x3df70552	0.12061562
177	0x3e1ba7e5	0.15200765
178	0x3e15c600	0.14626312
179	0xbdcc8b09	-0.09987456
180	0x3d5b415a	0.05352912
181	0x3cfc4d6b	0.030798635
182	0x3cb5b5b3	0.022181368
183	0x3dd2d661	0.10294796
184	0x3dad57fd	0.08464048
185	0x3d3cdff3	0.046112012
186	0x3e1d00e1	0.15332367
187	0x3da6f1fe	0.08151625
188	0xbdc30dc0	-0.09524107
189	0x3d8e47d4	0.06947294
190	0xbd8ee5d2	-0.069774285
191	0x3ce4e007	0.027938856
192	0xbc6d1fcf	-0.014472916
193	0xbd065929	-0.032799874
194	0x3e52598f	0.20541976
195	0x3cd874bd	0.026422853
196	0x3e0b2249	0.13587297
197	0xbdc4592f	-0.09587323
198	0x3dbf62c8	0.09345013
199	0x3d10e6b7	0.035376277
200	0x3dd7118b	0.10501393
201	0xbd4254c3	-0.047444116
202	0x3e075313	0.13215284
203	0xbcfbce8f	-0.030738143
204	0xbda3a264	-0.07989958
205	0x3e0fd0d0	0.140445
206	0x3daf2782	0.085524574
207	0xbd9072c5	-0.070531406
208	0xbc932224	-0.017960615
209	0x3cab103f	0.02088177
210	0x3dc4b56b	0.09604915
211	0x3cd6aa87	0.02620436
212	0xbd8b1250	-0.06790602
213	0x3e3f7d5b	0.18700163
214	0x3d2fd6fa	0.042929627
215	0x3e64d0c3	0.22345261
216	0xbb70db6b	-0.0036751877
217	0x3d95c4f8	0.073129594
218	0xbd929050	-0.07156432
219	0x3e3f9a16	0.18711123
220	0x3db3e3b7	0.087836675
221	0xbd5a294e	-0.053262047
222	0x3ce8b8fc	0.02840852
223	0xbd692ffd	-0.05693053
224	0xbdb9235a	-0.09039946
225	0x3dc8d434	0.098060995
226	0x3cba2779	0.0227239
227	0x3d063e07	0.032773998
228	0x3cc881ca	0.02447595
229	0xbd4c9a29	-0.049951706
230	0x3d90729b	0.07053109
231	0x3de978ba	0.1139998
232	0xbe40ee88	-0.18840992
233	0x3d8fd4d7	0.07023018
234	0xbd8378ae	-0.06419502
235	0x3e54104a	0.20709339
236	0x3dcab6e7	0.09898167
237	0xbdd8e377	-0.105902605
238	0xbd9270b6	-0.07150404
239	0xbda983df	-0.082771055
240	0x3daa6728	0.08320457
241	0xbdf42180	-0.11920452
242	0xbd8338e0	-0.064073324
243	0xbbc8149b	-0.006105972
244	0x3ddf1e0c	0.10894403
245	0xbe2ae916	-0.16690478
246	0xbd2f89e5	-0.042856116
247	0xbd94fea4	-0.07275131
248	0x3da1637e	0.07880305
249	0x3dc93e26	0.09826307
250	0xbd357209	-0.044298206
251	0xbe051264	-0.12995297
252	0x3e0a8a63	0.13529353
253	0x3d7717bf	0.06032538
254	0xbd4542da	-0.048159458
255	0xbd4d9445	-0.05019023

fc.3.bias f4 [276]
0	0xbcc69c70	-0.024244517
1	0xbcf382cf	-0.02972546
2	0xbd0b38a3	-0.03398956
3	0xbcf5c88d	-0.030002857
4	0x3ca3bdac	0.019987904
5	0x3b5e21ea	0.0033894726
6	0x3caea9de	0.021321233
7	0xbc609f9e	-0.013709931
8	0x3cd894a0	0.026438057
9	0xbc7ae610	-0.01531364
10	0xbc2e97cf	-0.010656311
11	0xbd488bab	-0.048961323
12	0x3d03a3de	0.032138698
13	0xbcedd4e4	-0.029032178
14	0xbc725df6	-0.01479291
15	0xbc179af4	-0.009253252
16	0xbcd2077c	-0.025638334
17	0xbb03e2c4	-0.0020124177
18	0xbcecf7fb	-0.02892684
19	0xbce54435	-0.027986625
20	0xbd198b75	-0.037486512
21	0x3c421fca	0.011848399
22	0x3d2d6e81	0.042341713
23	0x3c883de1	0.016631069
24	0x3c4f7428	0.012661971
25	0x3b3f281b	0.0029168192
26	0x3ccba9fc	0.024861328
27	0xbcb5cb4b	-0.022191664
28	0xbc1dcb36	-0.009630969
29	0x3b9dc917	0.0048152315
30	0xbce7a45e	-0.028276619
31	0xbba48f40	-0.0050219595
32	0xbd1f60a3	-0.03891052
33	0xbbb2d83e	-0.005457907
34	0xbb9b4746	-0.004738721
35	0xbc7b84f8	-0.015351526
36	0xbc203ec3	-0.009780589
37	0x3c91bb08	0.017789379
38	0x3c7d38cb	0.015455435
39	0x3c50f422	0.012753518
40	0xbcabe517	-0.020983262
41	0xbd59f76b	-0.05321447
42	0xbd08f932	-0.033440776
43	0xbd839bb0	-0.064261794
44	0x3cd096d0	0.025462538
45	0x3cacd188	0.021096006
46	0x3c5b1906	0.013372665
47	0xbc9ffe59	-0.019530462
48	0xbd201bab	-0.039088886
49	0xbcb10368	-0.02160807
50	0xbce40e52	-0.02783886
51	0xbce5d0b7	-0.028053625
52	0xbcdef77d	-0.027217621
53	0xbd902277	-0.07037824
54	0xbd0443ad	-0.032291103
55	0x3d60ccf2	0.05488295
56	0x3cff45c1	0.031161191
57	0xbc1b0d2d	-0.009463591
58	0xbc848dd9	-0.01618092
59	0x3bd410f3	0.006471747
60	0xbce7f861	-0.028316678
61	0xbd81363a	-0.06309171
62	0xbb30186c	-0.0026870025
63	0x3c369b1d	0.01114538
64	0xbcf2c094	-0.029632844
65	0x3cb60bd8	0.022222444
66	0x3d4a68ce	0.049416356
67	0xbc85c45d	-0.016328985
68	0xbd1579cf	-0.03649312
69	0xbcf9d3ce	-0.030496504
70	0x3a988f77	0.0011639436
71	0xbcc54eff	-0.02408552
72	0xb990348e	-0.00027504977
73	0xbc65f2f6	-0.014034977
74	0xbd9849fc	-0.074359864
75	0xbd527501	-0.051381115
76	0x3cc3e267	0.023911668
77	0xbbb381bd	-0.0054781125
78	0x3bc4dd9e	0.006007864
79	0x3b2e4fd4	0.0026597874
80	0xbbf1788f	-0.007369108
81	0xbceafa73	-0.028683877
82	0x3cb7cce1	0.022436561
83	0xbd1c48bc	-0.038155302
84	0x3cf4b38a	0.029870767
85	0x3d2737ca	0.04082469
86	0xbb960216	-0.0045778854
87	0x3d656b9c	0.056010827
88	0x3d049530	0.03236884
89	0xbd18404d	-0.037170697
90	0x3b2401d3	0.0025025501
91	0x3d5fda71	0.05465168
92	0xbb493515	-0.0030701805
93	0xbd4742ed	-0.04864781
94	0x3d74a4ec	0.059727594
95	0xbcd2a95a	-0.025715519
96	0xbcc2b91d	-0.02376991
97	0xbd3baccd	-0.045819093
98	0xbc96ce7c	-0.018409006
99	0xbcb0970c	-0.0215564
100	0xb945276e	-0.00018802073
101	0xbb311402	-0.0027019982
102	0xbcd67291	-0.026177676
103	0xbb8b2f2d	-0.004247567
104	0xbd29fa2c	-0.041498348
105	0xbd2b7021	-0.04185498
106	0x3c4fbee1	0.012679786
107	0x3c4ef60f	0.012631907
108	0x3d566700	0.052344322
109	0xbcdd1a14	-0.026989974
110	0x3d113899	0.035454366
111	0x3c34f58f	0.011044874
112	0xbc7eb286	-0.015545493
113	0xbd164627	-0.036687996
114	0x3c857a47	0.016293658
115	0x3c203ca0	0.009780079
116	0xbc150894	-0.009096283
117	0xbb390420	-0.0028231218
118	0xbbe17a84	-0.00688106
119	0xbb7cf039	-0.0038595332
120	0xbd254ef9	-0.040358517
121	0xbcd34719	-0.025790738
122	0xbd8f477a	-0.06996055
123	0xbc00ce5b	-0.007861699
124	0xbca98050	-0.020691067
125	0xbd5b9b14	-0.05361469
126	0xbab9c056	-0.00141717
127	0xbcca6082	-0.024704222
128	0x3d918805	0.07106022
129	0x3cad72d0	0.02117291
130	0xbc3eedc0	-0.011653364
131	0xbbc14ad2	-0.005898812
132	0xbd7c8af2	-0.061655946
133	0x3d3a95da	0.045553066
134	0xbbcae7aa	-0.0061921673
135	0xbd6ff286	-0.058580898
136	0x3d35811d	0.044312585
137	0xbba5d158	-0.005060356
138	0x3c513a88	0.012770303
139	0x3b38ff16	0.0028228215
140	0x3d00ca40	0.03144288
141	0xbc958029	-0.018249588
142	0xbbafbd69	-0.0053631556
143	0xbd1dd88b	-0.03853659
144	0xbd1c626d	-0.038179804
145	0xbca0a0bf	-0.0196079
146	0xbc1bf94b	-0.009519885
147	0xbad11b75	-0.0015953617
148	0x3d1360c6	0.035980962
149	0x3d796617	0.060888376
150	0xbcde6cd8	-0.02715151
151	0xbd538548	-0.05164078
152	0xbc266712	-0.01015641
153	0x3c8dd26b	0.01731225
154	0xbbda955e	-0.006670638
155	0xbd2ccc5f	-0.04218709
156	0x3d028fbb	0.031875353
157	0x3bb002d2	0.00537143
158	0xbd38d220	-0.045122266
159	0xbb86bbd9	-0.0041117487
160	0x3c57ef2e	0.0131795835
161	0x3d217540	0.03941846
162	0x3bbbf4e4	0.0057359803
163	0x3c9f4ac4	0.01944483
164	0x3d2255e5	0.039632697
165	0xbd8590b6	-0.06521742
166	0xba386220	-0.0007033665
167	0x3c00f31f	0.007870465
168	0xbc93c12f	-0.018036453
169	0xbd61946d	-0.05507319
170	0xbcb0f136	-0.021599393
171	0x3c0b1a85	0.0084902095
172	0xbd04b685	-0.032400627
173	0x3cf85780	0.03031516
174	0xbc5fba16	-0.013655206
175	0xbc0a8401	-0.008454324
176	0xbc65fc94	-0.01403727
177	0xbd043400	-0.032276154
178	0xbc447df6	-0.011992922
179	0xbbe2f3eb	-0.00692605
180	0xbc92bd9c	-0.017912678
181	0xbcb15aef	-0.021649806
182	0xbc8a0ab3	-0.016850805
183	0xbc7a302e	-0.015270276
184	0xbcc3d31f	-0.023904381
185	0xbd533bfc	-0.051570877
186	0xbccb64f7	-0.024828417
187	0xbbfb02b4	-0.0076602343
188	0x3cfaef37	0.030631645
189	0xbb7bbe28	-0.0038412903
190	0x3c446b4d	0.011988473
191	0x3b97699c	0.004620744
192	0x3d1c80bf	0.03820872
193	0x3d1ae897	0.03781947
194	0xbca41f40	-0.020034432
195	0xbc34a469	-0.011025527
196	0xbce8c4aa	-0.02841409
197	0x3d130d18	0.03590116
198	0xbca1629a	-0.019700337
199	0x3cdaa733	0.026691055
200	0xbae33fe7	-0.001733777
201	0x3c229ee6	0.00992558
202	0xbc65ec0f	-0.014033332
203	0xbc380954	-0.011232693
204	0x3c9e5b2c	0.019330584
205	0x3ceb523a	0.028725732
206	0x3c68e24b	0.014214109
207	0xbbabd479	-0.0052438346
208	0xbcb8e4b4	-0.022569992
209	0xbd207ede	-0.03918349
210	0xbd20079f	-0.039069768
211	0xbbfa62bf	-0.007641166
212	0x3cbf0351	0.023317011
213	0x3c7ba385	0.01535881
214	0xbd2f78ba	-0.042839743
215	0xbd438739	-0.04773638
216	0x3ce097bd	0.027416104
217	0x3cd22a4b	0.025654932
218	0x3c726c88	0.014796384
219	0x3c885660	0.01664275
220	0xbd794757	-0.06085905
221	0xbc536ba1	-0.012904079
222	0x3d305673	0.043051194
223	0x3d521ad8	0.05129513
224	0xbd89dcde	-0.0673158
225	0xbcaac19f	-0.020844279
226	0xbcf497e5	-0.029857585
227	0x3d04e929	0.03244892
228	0x3a9ed369	0.0012117448
229	0x3cb34c9a	0.021887112
230	0x3d248859	0.040169094
231	0x3a010758	0.0004922054
232	0xbbe1e196	-0.006893347
233	0x3d2ac309	0.041689906
234	0xbcb27b0c	-0.021787189
235	0xbbb6fdb0	-0.005584441
236	0xbd0a9ff7	-0.03384396
237	0xbbd3fbf7	-0.0064692455
238	0x3c937bae	0.018003311
239	0x3cd70291	0.026246341
240	0x3cd9a804	0.026569374
241	0x3d0de5ff	0.03464317
242	0xbc96a5b9	-0.01838957
243	0xbbcf67ee	-0.006329528
244	0x3b6301c8	0.0034638513
245	0x3b71cec0	0.0036896914
246	0x3c700383	0.014649275
247	0xbc8370a8	-0.01604493
248	0xbc99cbea	-0.018773992
249	0x3b0e93f4	0.0021755667
250	0x3c53434f	0.012894466
251	0x395c3fda	0.00021004622
252	0xbd10402b	-0.035217445
253	0xbb075f4a	-0.0020656162
254	0xbc7d78fe	-0.015470741
255	0xbcaea3cb	-0.021318337

fc.3.weight f4 [276, 552]
0	0x3cde981e	0.027172145
1	0xbd75aa59	-0.05997691
2	0x3c409db6	0.011756351
3	0xbd3c2e1b	-0.045942407
4	0x3d4a613a	0.04940913
5	0xbd613185	-0.054978866
6	0xbccfcc26	-0.0253659
7	0xbd5e874b	-0.054328244
8	0xba2d44cf	-0.00066096795
9	0xbcaf4e6c	-0.0213997
10	0xbce5ecd1	-0.028067024
11	0xbb1bcf7a	-0.0023774789
12	0x3d95e33c	0.07318732
13	0x3d0276f7	0.031851735
14	0x3d399ceb	0.045315664
15	0xbc9ea941	-0.019367816
16	0x3c20dfa1	0.009818942
17	0x3cd3da77	0.025861008
18	0x3d242936	0.040078364
19	0xbb972518	-0.004612576
20	0xbc9bfa83	-0.019040352
21	0x3c86a682	0.016436819
22	0x3ceb6de4	0.028738923
23	0x3c9946eb	0.018710574
24	0x3d413a41	0.047174696
25	0xbd17b3c8	-0.037036687
26	0xbd059029	-0.032608185
27	0xbd2d9465	-0.04237785
28	0x3ab69c7e	0.0013932136
29	0x3b550627	0.0032504888
30	0x3d0075eb	0.031362455
31	0x3d8cdd0b	0.06878098
32	0xbd2e0103	-0.042481434
33	0xbd2762ff	-0.040865894
34	0xbd58a798	-0.052894205
35	0xbd1d3de6	-0.03838911
36	0xbd1c9e65	-0.038236994
37	0xbc9542de	-0.018220361
38	0x3c516da0	0.012782484
39	0x3c464eb0	0.0121037215
40	0xbd2cdd2e	-0.04220312
41	0xbb1da34f	-0.0024053638
42	0xbd18b667	-0.037283327
43	0xbcdbb0af	-0.026817648
44	0x3d32b862	0.043632872
45	0xbbb486a2	-0.0055092135
46	0x3baa1c07	0.0051913294
47	0xbd0b8281	-0.034060005
48	0xbbe051bd	-0.0068456815
49	0x3cc4b414	0.02401165
50	0xbd112186	-0.03543236
51	0x3d33883b	0.04383109
52	0x3d876e39	0.0661282
53	0x3d5e52a0	0.054278016
54	0x3bff026f	0.0077822725
55	0xbd33e792	-0.043922015
56	0xbcf4a707	-0.029864801
57	0x3cc57710	0.024104625
58	0xbd8fdb18	-0.07024211
59	0x3d7757b2	0.060386367
60	0x3dacb84c	0.08433589
61	0xbc240643	-0.010011259
62	0xbce8e38c	-0.028428815
63	0x3cd810e8	0.026375249
64	0x3cd750ab	0.026283583
65	0xbd14d186	-0.03633263
66	0xbc5c7400	-0.013455391
67	0xbc1882eb	-0.009308557
68	0x3c839cba	0.016065944
69	0xbd33ff0d	-0.043944407
70	0xbd4ca6c8	-0.049963742
71	0xbd1885d1	-0.037236992
72	0xbc9d5869	-0.019207196
73	0x3a60ba43	0.0008572677
74	0x3d3c973d	0.04604267
75	0xbc9b4c3c	-0.01895725
76	0xbd27930b	-0.040911715
77	0xbd75d414	-0.060016707
78	0xbd025093	-0.031815123
79	0xbd12a651	-0.035803143
80	0x3ce34d3a	0.027746785
81	0xbd31083e	-0.04322075
82	0x3ca6426d	0.020295346
83	0xbd41deba	-0.04733155
84	0xbd3d4943	-0.046212446
85	0xbc82361b	-0.01589494
86	0xbd1fa1bc	-0.0389726
87	0xbd1cd577	-0.038289513
88	0xbd83e575	-0.0644025
89	0x3c5c523e	0.013447342
90	0xbd346124	-0.044037953
91	0xbd2ef75d	-0.042716373
92	0x3d0bae99	0.034102056
93	0xbd26a7e1	-0.040687446
94	0x3d5e410b	0.05426125
95	0x3d8da261	0.06915737
96	0xbd4c6183	-0.049897682
97	0x3d0bd201	0.034135822
98	0xbc8825ef	-0.01661965
99	0xbcec7be6	-0.028867673
100	0x3c77697d	0.015100834
101	0xbd6e2ce4	-0.05814828
102	0xbcbf6f20	-0.023368418
103	0xbcaedb97	-0.021344943
104	0x3c163e2f	0.009170099
105	0x3c7ab4ce	0.015301896
106	0xbd25ceab	-0.040480297
107	0x3d401c1b	0.046901803
108	0x3bab4966	0.0052272556
109	0xbd177bec	-0.036983415
110	0x3c773c73	0.015090096
111	0xbd3357d9	-0.04378495
112	0x3d035b4a	0.032069482
113	0x3cec09d1	0.028813275
114	0xbd807ed2	-0.06274189
115	0x3d15b9c6	0.03655412
116	0xbc9aa5b0	-0.018877834
117	0xbd4b24df	-0.04959571
118	0xbcc634cd	-0.0241951
119	0x3d059259	0.03261027
120	0xbd9163a8	-0.07099086
121	0xbd066d40	-0.032819033
122	0xbcb744e6	-0.02237172
123	0xbcbfb8ef	-0.023403613
124	0x3d0d6038	0.03451559
125	0x3d69cfc9	0.057082925
126	0xbd26bd1d	-0.040707696
127	0xbcb4d267	-0.022072984
128	0x3d77d554	0.06050618
129	0xbd115c63	-0.035488497
130	0xbd2ff3f0	-0.042957246
131	0x3c2e9532	0.010655688
132	0x3d7d3f7f	0.061828133
133	0x3c847b22	0.016171996
134	0xbd3b838e	-0.045779757
135	0xbd40f42f	-0.04710787
136	0xbbde7a76	-0.006789501
137	0x3cc03c63	0.023466295
138	0x3d094364	0.033511534
139	0x3c496ee6	0.012294507
140	0x3d83e3dd	0.06439946
141	0xbd28d8b2	-0.04122228
142	0x3d26f1cf	0.04075795
143	0x3bd76948	0.00657383
144	0xbce97d1e	-0.028502043
145	0xbd289a5c	-0.041162834
146	0x3d679bf9	0.05654523
147	0xbd93be5a	-0.07214041
148	0x3d548ac1	0.05189014
149	0xbccba7f1	-0.024860354
150	0xbbe73aa8	-0.007056553
151	0x3cc24aa6	0.023717236
152	0x3c314366	0.010819292
153	0xbd13ed9d	-0.036115278
154	0xbc30961e	-0.010777978
155	0x3d8442c0	0.06458044
156	0xbc62a389	-0.013832935
157	0xbd9d02e2	-0.076665655
158	0xbd04fd40	-0.03246808
159	0x3d688455	0.056766827
160	0x3d37855c	0.044804916
161	0xbd44d396	-0.048053347
162	0x3d1a3ef8	0.037657708
163	0x3d676480	0.05649233
164	0x3d848974	0.064715296
165	0x3d44e3fe	0.048068993
166	0xbd398796	-0.04529532
167	0x3d797acc	0.060908124
168	0xbd1ed809	-0.038780246
169	0xbdbfbf61	-0.093626745
170	0x3b19ff85	0.0023498249
171	0xbcd8577c	-0.026408903
172	0xbc9f8539	-0.019472705
173	0x3cec32c7	0.028832806
174	0xbcf92f42	-0.030418042
175	0x3bd200e0	0.0064087957
176	0xbd8a5c48	-0.067558825
177	0x3d1c0c99	0.03809795
178	0x3c311426	0.010808026
179	0xbb3f5e3f	-0.0029200462
180	0x3d344d93	0.044019293
181	0xbcd63c2d	-0.02615174
182	0x3d015cae	0.031582527
183	0xbd67c393	-0.056583
184	0xbd8d6277	-0.06903546
185	0x3cd62d43	0.02614463
186	0x3cd601ee	0.026123967
187	0xbd36b77c	-0.044608578
188	0x3d3ee0a8	0.046600968
189	0xbcf37c44	-0.02972234
190	0xbd77b9a2	-0.060479768
191	0x3cc955a8	0.024576977
192	0x3d486627	0.048925545
193	0x3d3ca274	0.046053365
194	0x3b79a1ec	0.0038090898
195	0x3cee1453	0.029062426
196	0x3d164ebf	0.036696192
197	0xbd4f5d0f	-0.050625857
198	0x3cfaca47	0.030614031
199	0x3d86ac42	0.06575824
200	0xbd45dfbf	-0.048309084
201	0xbbf33e8a	-0.0074232267
202	0xbc1e4058	-0.009658895
203	0xbd19840d	-0.03747945
204	0x3d0b9b10	0.034083426
205	0xbd8cf0e6	-0.06881885
206	0x3b824723	0.0039757653
207	0x3d6536f2	0.055960603
208	0x3ca361cf	0.0199441
209	0x3cc7e87b	0.024402848
210	0xb9d7ea56	-0.0004118259
211	0x3d0bd42a	0.034137882
212	0xbcfb8fc3	-0.0307082
213	0x3d0a73a9	0.03380171
214	0xbd766baa	-0.06016127
215	0x3d39bc57	0.04534563
216	0x3c467537	0.012112907
217	0xbd59972b	-0.05312268
218	0x3d16664c	0.03671865
219	0xbceb0034	-0.02868662
220	0xbdd1815b	-0.10229751
221	0xbc84ea3c	-0.016224973
222	0x3baa0c9c	0.0051894914
223	0xbc6cd848	-0.014455862
224	0xbccf7f77	-0.025329335
225	0x3724b6a8	9.81769e-06
226	0x3c351f28	0.0110547915
227	0xbd1990c9	-0.037491594
228	0x3cc37f15	0.023864308
229	0x3ce6c9d4	0.028172411
230	0xbd15c13b	-0.036561232
231	0x3d66562f	0.056234535
232	0xbd2bb19d	-0.041917432
233	0xbd352126	-0.044221066
234	0xbd71b27f	-0.059008118
235	0xbd10ae14	-0.035322264
236	0x3d5113c3	0.051044237
237	0x3d5eb966	0.05437603
238	0xbd583937	-0.05278894
239	0x3a3cc1a0	0.0007200483
240	0xbd871a56	-0.0659682
241	0xbd12dcd6	-0.035855137
242	0xbdaa8caf	-0.083276145
243	0xbd0739a6	-0.033013962
244	0xbd2e363a	-0.042532183
245	0xbca17ee5	-0.019713828
246	0xbd1fa942	-0.038979776
247	0xbaa67933	-0.0012700915
248	0xbc591312	-0.013249176
249	0xbcf60e60	-0.030036151
250	0xbc9b675e	-0.018970188
251	0x3cd54d1d	0.026037747
252	0xbcedee6f	-0.029044358
253	0x3d0abc69	0.03387109
254	0x3d37e8d5	0.04489978
255	0xbd7a2467	-0.061069872
