inventory/ark_material.onnx (onnx, 517328 bytes, 8 tensors)

fc.0.weight f4 [372, 128]
0.08705264 0.048449595 0.108259246 0.0051340456 -0.05644872 0.07034574 0.072354496 -0.059151046
-0.03959249 0.055138852 0.052196257 0.022792066 -0.022828164 -0.07572309 0.084743544 0.11020694
-0.0027839057 -0.01816703 0.1396141 0.021255806 0.05591269 0.07456844 -0.026960311 0.07060714
0.110313885 0.0142709 0.015939813 0.041838646 0.1294364 -0.020395884 0.12639208 -0.06913343
0.08415609 0.030538173 -0.06752806 -0.053719003 -0.16952737 -0.043759357 0.009546343 0.10759476
-0.01585344 0.040060468 0.04211019 0.042179313 -0.035769437 0.038353804 -0.026356233 0.102517135
-0.09915813 -0.07664319 0.028957888 -0.13325824 0.038157225 0.15082583 0.037925657 0.0054585105
-0.08343832 -0.057203583 0.028676426 -0.073449284 -0.0059639825 -0.072725266 -0.028638838 -0.09497267
0.08996106 0.09371887 0.10351711 0.009908714 -0.0877849 -0.07503567 -0.05043467 0.030189924
0.04008359 0.03474117 -0.036487702 0.086655214 0.10587817 -0.105143644 0.09544045 -0.09617273
0.07763505 -0.030071314 0.015096692 -0.026515543 0.042867217 0.08491099 0.012888637 0.002270722
0.1026282 -0.020392263 -0.11515546 0.061129592 0.061643444 0.13289072 0.11686773 0.08512708
-0.05996062 -0.10019274 -0.08194785 -0.043068152 -0.066890195 -0.051113352 -0.07122546 -0.073794514
-0.03238629 -0.030963913 -0.05046224 -0.08268792 0.07031616 0.11797826 0.06259237 -0.04726478
-0.0783884 0.019771947 -0.15961425 0.103054695 -0.07088304 -0.06598827 0.016984804 -0.06024653
0.09595008 0.1256427 -0.01379174 -0.030940838 0.08101524 -0.024668867 -0.06617268 -0.0011990565
0.002688063 -0.043022327 0.057984214 0.13214451 0.07264989 -0.0022573753 0.13371445 -0.054332733
-0.051129688 0.024373638 0.054310266 -0.11608602 0.03155202 -0.03584537 0.0336417 -0.10336838
-0.05225004 -0.06903326 0.051780954 -0.04064509 -0.07593952 -0.013231476 -0.16152923 -0.019486833
-0.13901033 0.061542086 0.053894248 0.073822446 -0.0022295276 -0.07527622 0.14329252 -0.01583775
0.08198263 -0.044324934 0.087825365 -0.042506717 0.04413423 0.091554254 0.09494641 -0.019264236
-0.028161017 -0.016834786 0.1031539 -0.049947437 0.1300028 -0.083502375 0.10785709 0.10968661
0.08797275 -0.067023344 0.12294103 0.061499164 -0.046682328 -0.0645317 0.00993941 -0.03000726
-0.037992757 0.03130138 0.081518695 0.049236834 -0.028899634 0.050964125 0.014957037 -0.09986978
0.039820448 0.13379446 0.035051428 0.11728111 -0.06756387 0.035738297 0.12367939 0.122279525
-0.0005565585 0.109458975 -0.0986788 0.037796855 0.042602587 0.028587306 0.114372775 -0.055984486
-0.098156564 0.11035661 0.0056783566 0.100141466 0.023185147 0.120972045 0.067453854 0.1447859
0.081747025 0.016716002 0.14231893 -0.053584073 -0.018964699 0.0056922487 -0.08278293 0.15339746
0.043065146 0.04723568 0.13050777 0.08681976 -0.030404884 -0.0066396273 0.15391873 0.09316838
-0.033041965 -0.061598953 -0.093906984 -0.025745923 0.07509557 0.010751535 0.012391724 -0.091814175
-0.08641406 0.084731616 -0.042762578 0.14626262 -0.11171274 -0.069599025 0.13205145 0.14261252
-0.029526278 0.14309156 0.13596307 -0.07449202 -0.040450644 -0.023025228 -0.11770074 -0.015106333
00000000: a848 b23d 1573 463d 06b7 dd3d 7f3b a83b
00000010: c636 67bd 6d11 903d 982e 943d 5e48 72bd
00000020: bc2b 22bd 47d9 613d becb 553d 6db6 ba3c
00000030: 2102 bbbc b514 9bbd 068e ad3d 2db4 e13d
00000040: 3072 36bb 06d3 94bc 00f7 0e3e a820 ae3c
00000050: b404 653d 57b7 983d dfdb dcbc 7a9a 903d
00000060: 3fec e13d 7ed0 693c 3694 823c 005f 2b3d
00000070: fa8a 043e 4515 a7bc ed6c 013e d495 8dbd
00000080: 075a ac3d 312b fa3c 274c 8abd 7508 5cbd
00000090: 9598 2dbe 033d 33bd 4468 1c3c a45a dc3d
000000a0: 13df 81bc 7216 243d bc7b 2c3d 37c4 2c3d
000000b0: f982 12bd e118 1d3d 07e9 d7bc 81f4 d13d
000000c0: 6b13 cbbd 1bf7 9cbd 1839 ed3c d974 08be
000000d0: c04a 1c3d 1672 1a3e ef57 1b3d 4edd b23b
000000e0: b6e1 aabd 4e4e 6abd d3ea ea3c 946c 96bd
000000f0: 836d c3bb fcf0 94bd ff9b eabc 0881 c2bd
00000100: 813d b83d aeef bf3d c700 d43d 2958 223c
00000110: 92c8 b3bd 4dac 99bd 9694 4ebd dc50 f73c
00000120: b12e 243d c24c 0e3d 2174 15bd 4a78 b13d
00000130: a7d6 d83d 8d55 d7bd 4876 c33d 35f6 c4bd
00000140: 20ff 9e3d 1e58 f6bc 1e58 773c 2037 d9bc
00000150: 8995 2f3d d0e5 ad3d dd2a 533c 65d0 143b
00000160: bc2e d23d ad0d a7bc a0d6 ebbd 0663 7a3d
00000170: d67d 7c3d 8114 083e 5958 ef3d 1b57 ae3d
00000180: 4499 75bd da31 cdbd 46d4 a7bd 3b68 30bd
00000190: bafd 88bd 3c5c 51bd a7de 91bd 9421 97bd
000001a0: 7da7 04bd 08a8 fdbc 7eb1 4ebd 4958 a9bd
000001b0: eb01 903d 969e f13d 6e30 803d b798 41bd
000001c0: 198a a0bd c7f8 a13c eb71 23be 570e d33d
000001d0: 212b 91bd dc24 87bd b723 8b3c 11c5 76bd
000001e0: 7a81 c43d 7ba8 003e c0f6 61bc a477 fdbc
000001f0: 51eb a53d 5d16 cabc 8b85 87bd a929 9dba
00000200: 372a 303b 2e38 30bd db80 6d3d e450 073e
00000210: 77c9 943d 79f0 13bb 71ec 083e 008c 5ebd
00000220: 5d6d 51bd 39ab c73c 7174 5e3d 82be edbd
00000230: b13c 013d 98d2 12bd e1cb 093d cdb2 d3bd
00000240: 2304 56bd 4f61 8dbd 4418 543d 777b 26bd
00000250: 2e86 9bbd d5c8 58bc eb67 25be daa2 9fbc
00000260: b958 0ebe 8e13 7c3d 37c0 5c3d 3930 973d
00000270: 441d 12bb 6b2a 9abd 46bb 123e 2bbe 81bc
00000280: 82e6 a73d 108e 35bd c9dd b33d 861b 2ebd
00000290: 18c6 343d cc80 bb3d 4373 c23d 08d0 9dbc
000002a0: efb1 e6bc 1be9 89bc 5a42 d33d af95 4cbd
000002b0: 741f 053e 4b03 abbd 2ee4 dc3d 60a3 e03d
000002c0: 0f2b b43d 8943 89bd 82c8 fb3d 8ce6 7b3d
000002d0: f835 3fbd 3229 84bd e8d8 223c c9d1 f5bc
000002e0: 4b9e 1bbd e035 003d 46f3 a63d 90ac 493d
000002f0: edbe ecbc c2bf 503d 5c0e 753c 8788 ccbd
00000300: c41a 233d 6a01 093e 1692 0f3d 1431 f03d
00000310: ed5e 8abd 5262 123d 9f4b fd3d b06d fa3d
00000320: 02e6 11ba 072c e03d 1c18 cabd e0d0 1a3d
00000330: 0d80 2e3d ed2f ea3c 463c ea3d fd4f 65bd
00000340: 4f06 c9bd a502 e23d 8211 ba3b f816 cd3d
00000350: c7ee bd3c 31c0 f73d 3f25 8a3d c142 143e
00000360: fc6a a73d ffef 883c 0ebc 113e f97a 5bbd
00000370: db5b 9bbc 0b86 ba3b 198a a9bd 3914 1d3e
00000380: 1465 303d 337a 413d d4a3 053e 8fce b13d
00000390: aa13 f9bc 3b91 d9bb df9c 1d3e 10cf be3d
000003a0: 0357 07bd 2f4f 7cbd 4e52 c0bd 1de9 d2bc
000003b0: b5cb 993d 3527 303c a806 4b3c 1209 bcbd
000003c0: dbf9 b0bd c587 ad3d d027 2fbd dec5 153e
000003d0: a6c9 e4bd ef89 8ebd 7f38 073e 0409 123e
000003e0: 18e1 f1bc 9886 123e e739 0b3e 468f 98bd
000003f0: 93af 25bd 679f bcbc 160d f1bd 8e80 77bc

fc.0.bias f4 [372]
0.088016175 -0.049695093 0.09422975 -0.06431544 0.050815135 0.09399597 -0.06032824 0.0529476
0.026614668 0.10829561 0.13698822 0.13036506 0.032849196 0.029456738 -0.023205193 -0.004943996
-0.0129829645 0.03807156 0.013180159 0.13329858 0.06363608 0.06797577 0.09630827 0.09769848
0.05151567 -0.0036626495 0.08881754 0.10743975 0.119835764 0.12298386 0.02743821 -0.05840461
0.11352377 0.072585374 0.09330834 0.047419716 0.13271815 -0.09031608 0.005379831 0.09419704
0.10847391 0.046045557 0.11279085 -0.019853571 0.051891193 -0.04216234 -0.041751187 0.024452982
0.007043947 0.0675609 0.08735126 0.050080165 -0.026401337 0.11102899 0.07863921 0.10353869
0.040825248 -0.012030788 0.10877008 0.0817839 0.072735064 -0.055564158 0.06045332 0.07993574
0.0004687987 0.07166477 -0.013022826 0.017211076 -0.018912986 -0.01650221 0.030758163 -0.075442694
0.049634546 0.017025612 0.03287768 0.11793636 0.03518272 -0.07278293 -0.025520727 -0.022445023
0.06894708 0.052961152 0.0027010094 -0.0128631955 -0.0037370443 0.040185753 0.00095559505 0.05841478
-0.024897667 -0.04345994 0.062003717 0.043676563 0.12456347 -0.04217078 0.03762177 0.12565683
-0.04305835 -0.01850029 -0.0088413665 -0.043332923 0.055418458 -0.06980562 0.069304526 0.07902113
-0.009163076 0.011443106 0.040288303 -0.024404455 0.02837559 -0.043522615 0.061326914 0.020097865
0.017630188 -0.029691797 -0.028741201 0.04564254 0.08700696 0.012341549 0.11063813 0.07831823
0.08681709 0.02690933 0.07752483 -0.033858005 0.07501253 0.06352844 0.0284427 -0.019970348
0.04525584 0.05598787 0.0130587965 -0.041883063 0.05970237 -0.00020652168 -0.022403218 -0.022348681
0.083962664 0.042375587 0.0075932345 0.02246073 -0.0013747594 -0.01398804 0.038666148 -0.01937956
0.10073897 0.06891396 0.10769434 0.07229867 -0.022387162 0.03288025 0.10429135 0.059398334
0.10802826 0.017916879 0.054417975 0.024680765 0.06952712 -0.027515441 -0.06924945 1.357412e-06
-0.004092434 0.057821635 0.04799819 -0.072564304 -0.014209738 -0.015732039 0.10623841 -0.06549823
-0.020595478 0.019178983 -0.010945331 0.12253577 0.049652345 0.07553384 -0.028264156 -0.0051045595
-0.0008189543 0.033478044 -0.030327205 0.09125295 0.08769378 0.056623954 0.09940078 0.071675576
-0.0037477284 0.097561896 -0.04219228 -0.045397554 0.14679241 -0.035825655 0.12905955 -0.02154239
0.018104171 -0.014625672 0.011316722 0.10156843 0.049599618 0.032971285 0.0034862962 0.042700812
0.08120675 0.023900421 -0.07291068 0.06199245 0.04650676 0.119013555 0.07322171 0.041090295
0.081804626 0.02976955 -0.03771803 0.11791899 0.10310997 -0.028018044 0.043101862 0.07076594
0.03186265 0.057849444 0.08256896 0.13409494 0.1122802 -0.049349397 -0.03106261 0.0011278371
-0.04234251 0.0014934187 0.13936107 0.04123492 0.04573789 0.07748904 -0.008547157 0.05952623
0.10740537 0.06108229 0.032639608 0.06432755 0.08752673 0.054588035 0.031605233 -0.025459219
0.05817464 -0.040525176 0.07186385 0.045855645 -0.0004622606 -0.03369011 0.14624903 -0.052137606
-0.03371549 0.0002867721 0.09240173 -0.033299528 0.08983898 0.08664759 0.1139188 0.08752802
00000000: d341 b43d 158d 4bbd 87fb c03d d0b7 83bd
00000010: 8823 503d f680 c03d bf1a 77bd 95df 583d
00000020: 0107 da3c 17ca dd3d a446 0c3e 6b7e 053e
00000030: e18c 063d 424f f13c d118 bebc 3f01 a2bb
00000040: 80b6 54bc edf0 1b3d 98f1 573c 6c7f 083e
00000050: a253 823d e136 8b3d 453d c53d 2416 c83d
00000060: 1802 533d 1009 70bb f8e5 b53d 5f09 dc3d
00000070: 746c f53d f6de fb3d 19c6 e03c ac39 6fbd
00000080: 267f e83d a4a7 943d 7118 bf3d 2d3b 423d
00000090: 44e7 073e a3f7 b8bd 4b49 b03b 61ea c03d
000000a0: 9227 de3d 449a 3c3d e4fe e63d f5a3 a2bc
000000b0: dc8b 543d 6bb2 2cbd 4b03 2bbd 9f51 c83c
000000c0: e9d0 e63b 5e5d 8a3d 38e5 b23d dc20 4d3d
000000d0: 9e47 d8bc 2b63 e33d 980d a13d 180c d43d
000000e0: 6038 273d c81c 45bc d9c2 de3d 517e a73d
000000f0: 1ff6 943d 3e97 63bd e79d 773d 59b5 a33d
00000100: 19c9 f539 fbc4 923d b15d 55bc 3efe 8c3c
00000110: 68ef 9abc a52f 87bc 8bf8 fb3c b381 9abd
00000120: 984d 4b3d 4c79 8b3c bfaa 063d 9e88 f13d
00000130: c11b 103d 380f 95bd d810 d1bc a0de b7bc
00000140: 2034 8d3d cbed 583d 6b03 313b 27c0 52bc
00000150: 33e9 74bb d199 243d e680 7a3a 5644 6f3d
00000160: 31f6 cbbc 0d03 32bd 9cf7 7d3d 32e6 323d
00000170: 221b ff3d 45bb 2cbd 4919 1a3d 2fac 003e
00000180: f45d 30bd ec8d 97bc 61db 10bc dd7d 31bd
00000190: 77fe 623d 40f6 8ebd 88ef 8d3d d5d5 a13d
000001a0: ba20 16bc de7b 3b3c 5905 253d daeb c7bc
000001b0: ed73 e83c c544 32bd ee31 7b3d 47a4 a43c
000001c0: 2f6d 903c 363c f3bc ab72 ebbc acf3 3a3d
000001d0: b430 b23d 3534 4a3c 3e96 e23d 4f65 a03d
000001e0: 29cd b13d f570 dc3c 57c5 9e3d b1ae 0abd
000001f0: 2ba0 993d 331b 823d aa00 e93c db98 a3bc
00000200: 305e 393d 8953 653d 90f4 553c 938d 2bbd
00000210: 798a 743d be8d 58b9 f486 b7bc 9514 b7bc
00000220: 9ef4 ab3d 0692 2d3d abd0 f83b 91ff b73c
00000230: 4531 b4ba 182e 65bc 6560 1e3d e2c1 9ebc
00000240: 3c50 ce3d c322 8d3d da8e dc3d 5311 943d
00000250: 4865 b7bc 71ad 063d b496 d53d ab4b 733d
00000260: ec3d dd3d 6bc6 923c 62e5 5e3d 512f ca3c
00000270: 3c64 8e3d 1068 e1bc a8d2 8dbd 5230 b635
00000280: d319 86bb 61d6 6c3d c099 443d 989c 94bd
00000290: f6cf 68bc 7ae0 80bc 8693 d93d f023 86bd
000002a0: d9b7 a8bc 3e1d 9d3c 0c54 33bc 09f4 fa3d
000002b0: 4260 4b3d 7cb1 9a3d 3b8a e7bc 2644 a7bb
000002c0: 18af 56ba 4620 093d c270 f8bc d4e2 ba3d
000002d0: cc98 b33d 85ee 673d a392 cb3d a5ca 923d
000002e0: 739c 75bb 88ce c73d d0d1 2cbd c9f2 39bd
000002f0: c050 163e ecbd 12bd 3028 043e ab79 b0bc
00000300: 334f 943c 84a0 6fbc c669 393c 1c03 d03d
00000310: f828 4b3d e60c 073d 587a 643b 0ce7 2e3d
00000320: b94f a63d d1ca c33c 3252 95bd cceb 7d3d
00000330: df7d 3e3d 61bd f33d 44f5 953d 4c4e 283d
00000340: 2f89 a73d 45df f33c 397e 1abd 837f f13d
00000350: 522b d33d 1986 e5bc 948b 303d bced 903d
00000360: 6982 023d 8af3 6c3d ea19 a93d 2f50 093e
00000370: 29f3 e53d 9822 4abd 0477 febc efd3 933a
00000380: 576f 2dbd d1be c33a abb4 0e3e f3e5 283d
00000390: a757 3b3d 93b2 9e3d 6009 0cbc c7d1 733d
000003a0: 59f7 db3d 6c31 7a3d 1cb1 053d 2abe 833d
000003b0: 3741 b33d b497 5f3d 7d74 013d da8f d0bc
000003c0: 8848 6e3d bafd 25bd 5b2d 933d 21d3 3b3d
000003d0: 915b f2b9 a4fe 09bd 4ec2 153e 3e8e 55bd
000003e0: 4119 0abd e659 9639 1e3d bd3d 1665 08bd
000003f0: 80fd b73d 4b74 b13d 434e e93d e441 b33d

fc.2.weight f4 [186, 372]
-0.04211158 0.0059782974 -0.001206641 -0.049292516 0.019300925 -0.074228436 -0.064534284 0.01960907
0.045215245 0.012668662 -0.03194637 -0.03313488 0.010359934 0.008733862 0.06830045 0.076559536
0.008390599 -0.19898786 0.019139621 -0.023404524 -0.0049718968 0.026878446 0.020761264 -0.102457285
0.0439453 0.12380195 -0.069288634 0.011218238 -0.02900313 -0.0059867026 -0.03513814 0.028804922
-0.026988277 -0.10805614 -0.037018877 0.06654372 0.048808496 -0.10685853 -0.07298807 -0.09034803
0.099536136 0.05002857 0.03127058 0.01890447 -0.123596594 -0.04788603 -0.09811307 -0.11006035
0.028037695 -0.08471165 -0.052136555 -0.026535314 -0.06686666 -0.07513555 -0.06932421 -0.02731161
-0.008832725 -0.025942856 0.004924948 -0.033534553 -0.09224001 0.11672078 -0.054384805 0.03203944
0.077046774 -0.06231024 0.07963217 -0.027838288 -0.08544636 -0.07003044 0.0057586986 -0.015706971
-0.023493264 0.0108444095 -0.00203883 0.038703907 -0.123313606 -0.06601812 0.08437086 -0.050954517
-0.12236887 0.038162548 -0.056934368 0.01059752 0.083394915 -0.021262407 -0.062383443 -0.010976164
-0.036803324 -0.014460809 0.059366353 -0.10417815 0.034553558 0.09304297 -0.02050836 -0.07733605
0.03856942 -0.015442019 -0.07040305 -0.0573715 -0.09012655 -0.06341739 -0.035187624 0.019744221
-0.013945718 -0.091079906 0.06988664 0.1131733 0.034037333 0.048987135 0.063176 0.0917865
0.023259213 -0.061779555 0.08397528 0.13128152 -0.043367017 0.06165979 -0.05011984 0.1255882
-0.021287844 0.04168855 0.025460139 0.051199663 0.038938355 0.09712835 0.02221026 -0.067325786
0.023064936 0.01269188 0.055794224 0.084571585 -0.036276754 0.03783826 0.04548495 -0.019434273
-0.000584091 0.10085742 -0.039065868 -0.12858303 -0.016119953 0.024540545 -0.0091106985 0.04332978
0.051129688 -0.0025329115 0.0323802 0.01827353 -0.074235775 0.086584754 -0.08028495 -0.054498915
-0.07797644 -0.09035348 -0.07489927 -0.07685374 -0.038107812 0.005755275 -0.08463408 -0.007722894
-0.07892835 0.0055738618 -0.054815337 0.05819368 -0.100663655 -0.022102281 0.012333719 -0.013532269
-0.0062901163 -0.14912069 0.094954364 0.029258357 -0.048988856 -0.031113243 -0.025303729 0.0063531073
0.0014269691 0.08975408 0.028714325 -0.046455506 0.00037671436 -0.106645636 0.08007944 0.0016357648
-0.008616511 0.07329325 0.0035171167 -0.0049811304 0.007247549 0.035719726 -0.12209797 0.047978975
-0.048472196 -0.11190361 -0.10369051 0.11880838 -0.07933343 -0.07788124 0.055088624 0.066142276
0.07218162 -0.031565245 -0.050405305 -0.0070668557 -0.11046366 -0.09765727 -0.08883238 -0.05771451
0.03934315 -0.06842177 -0.052990746 -0.03945444 -0.060669545 0.012694082 0.0744226 -0.08870794
-0.013870013 -0.04708929 -0.08693053 -0.031653393 -0.102299035 0.021687113 -0.024579305 -0.087266274
-0.060463496 0.07781365 0.03175524 0.046385426 0.07552799 0.049233153 0.023562418 -0.021547498
-0.019085512 -0.12136673 -0.008134134 -0.052554127 -0.059312034 -0.10041189 0.10398314 -0.05515059
-0.06509967 0.051562063 0.024937822 -0.035016816 0.050896145 -0.096988596 -0.0772721 -0.011827423
-0.108052485 0.10635329 -0.056125853 -0.055621654 0.035216987 0.039734557 -0.011392253 0.09132111
00000000: 317d 2cbd 98e5 c33b 2728 9eba f3e6 49bd
00000010: f91c 9e3c 1405 98bd 8d2a 84bd 33a3 a03c
00000020: 9f33 393d 3890 4f3c 32da 02bd 71b8 07bd
00000030: b6bc 293c 7918 0f3c 1be1 8b3d 3fcb 9c3d
00000040: b978 093c 79c3 4bbe b2ca 9c3c d8ba bfbc
00000050: 4beb a2bb 3030 dc3c 8713 aa3c 20d5 d1bd
00000060: fdff 333d e08b fd3d 33e7 8dbd b3cc 373c
00000070: f997 edbc 1a2c c4bb 03ed 0fbd 4df8 eb3c
00000080: 8516 ddbc 8a4c ddbd 1ba1 17bd 1348 883d
00000090: 6beb 473d a5d8 dabd c57a 95bd 6308 b9bd
000000a0: 9ad9 cb3d c2ea 4c3d 9415 003d 8cdd 9a3c
000000b0: 3620 fdbd 2424 44bd 81ef c8bd 5267 e1bd
000000c0: 4faf e53c 4d7d adbd 248d 55bd 9660 d9bc
000000d0: 63f1 88bd abe0 99bd daf9 8dbd 99bc dfbc
000000e0: 22b7 10bc 1d86 d4bc 7561 a13b 875b 09bd
000000f0: 55e8 bcbd 4e0b ef3d 9ac2 5ebd ca3b 033d
00000100: b3ca 9d3d 0639 7fbd 3116 a33d 1f0d e4bc
00000110: 80fe aebd 1f6c 8fbd 77b3 bc3b e8ab 80bc
00000120: f274 c0bc c0ac 313c e49d 05bb fd87 1e3d
00000130: d88b fcbd 8234 87bd a1ca ac3d afb5 50bd
00000140: 889c fabd 5550 1c3d 0334 69bd 38a1 2d3c
00000150: f4ca aa3d 802e aebc c885 7fbd 5ed5 33bc
00000160: 15bf 16bd 07ed 6cbc 222a 733d 5b5b d5bd
00000170: 0888 0d3d 508d be3d 2601 a8bc 5d62 9ebd
00000180: f8fa 1d3d 8600 7dbc 792f 90bd 61fe 6abd
00000190: 4594 b8bd fae0 81bd e620 10bd a2be a13c
000001a0: 957c 64bc 1a88 babd ba20 8f3d 67c7 e73d
000001b0: bb6a 0b3d bca6 483d 6b62 813d 8ffa bb3d
000001c0: 1b8a be3c 8f0c 7dbd 3bfb ab3d aa6e 063e
000001d0: 9da1 31bd fa8e 7c3d 764a 4dbd 319a 003e
000001e0: d863 aebc 9dc1 2a3d c891 d03c bdb6 513d
000001f0: d37d 1f3d 3aeb c63d 4bf2 b53c 1ae2 89bd
00000200: adf2 bc3c 9af1 4f3c 7c88 643d de33 ad3d
00000210: ef96 14bd 4bfc 1a3d 6d4e 3a3d a034 9fbc
00000220: af1d 19ba 568e ce3d 8803 20bd 45ab 03be
00000230: fe0d 84bc 4109 c93c 0a45 15bc 917a 313d
00000240: 5d6d 513d 34ff 25bb 1aa1 043d 5fb2 953c
00000250: ed08 98bd 5953 b13d 706c a4bd 413a 5fbd
00000260: 1db2 9fbd 3f0b b9bd ca64 99bd 7e65 9dbd
00000270: f016 1cbd bf96 bc3b a254 adbd 5510 fdbb
00000280: 30a5 a1bd f1a4 b63b 0c86 60bd 7f5c 6e3d
00000290: bf28 cebd d80f b5bc 5e13 4a3c 73b6 5dbc
000002a0: 521d cebb 18b3 18be 6f77 c23d 39af ef3c
000002b0: 8aa8 48bd 33e1 febc c449 cfbc ba2d d03b
000002c0: 2309 bb3a fdd0 b73d 4e3a eb3c 2148 3ebd
000002d0: bf81 c539 0769 dabd b000 a43d 2967 d63a
000002e0: 442c 0dbc c51a 963d 6d7f 663b c038 a3bb
000002f0: d97c ed3b d94e 123d 800e fabd 9a85 443d
00000300: c88a 46bd b82d e5bd b15b d4bd cf51 f33d
00000310: 9179 a2bd 3380 9fbd 9ca4 613d 9a75 873d
00000320: f5d3 933d 8f4a 01bd cb75 4ebd 1591 e7bb
00000330: c53a e2bd 8900 c8bd c0ed b5bd 0d66 6cbd
00000340: 4826 213d b720 8cbd d30c 59bd fb9a 21bd
00000350: a180 78bd d7fa 4f3c e06a 983d 82ac b5bd
00000360: 0d3f 63bc b3e0 40bd a208 b2bd fda6 01bd
00000370: 2882 d1bd 2ca9 b13c 8a5a c9bc a9b8 b2bd
00000380: 92a8 77bd c35c 9f3d c811 023d a5fe 3d3d
00000390: 6bae 9a3d b4a8 493d f905 c13c 6184 b0bc
000003a0: 3859 9cbc 1f8f f8bd 0845 05bc ff42 57bd
000003b0: 2df1 72bd c0a4 cdbd 1df5 d43d 96e5 61bd
000003c0: fa52 85bd be32 533d 674a cc3c cb6d 0fbd
000003d0: 7a78 503d f5a1 c6bd d640 9ebd cfc7 41bc
000003e0: 9f4a ddbd c1cf d93d 39e4 65bd 88d3 63bd
000003f0: b03f 103d b4c0 223d 93a6 3abc 9006 bb3d

fc.2.bias f4 [186]
0.0056239176 -0.0019677603 -0.038402263 -0.02856263 -0.047297195 0.043916192 -0.017244035 -0.005295876
-0.032859273 -0.031023882 -0.06584575 -0.09319912 0.020345166 -0.024332702 0.0071594943 0.035930477
0.01012447 -0.0017891809 -0.06453765 -0.02470188 -0.010492388 -0.03050215 0.027225824 0.00501496
0.037950642 -0.021285353 0.015984716 -0.053580858 -0.026959792 0.051047973 0.028032701 -0.014468111
-0.03339147 -0.027078398 0.018318998 0.031684216 -0.107433565 -0.019360645 -0.07143212 -0.024556
0.015701935 -0.028318677 -0.014107082 0.01762283 0.06748148 0.0027085047 -0.001951254 -0.019892959
-0.023536416 0.01959463 -0.0679523 -0.0098416265 -0.05609152 0.004459392 -0.079886496 -0.040588345
0.03291015 0.005014413 -0.043894727 0.019104697 0.032294385 -0.058227133 -0.036409274 -0.032676183
-0.009791645 0.003855281 -0.042807057 0.0017600114 -0.02423074 -0.024290046 -0.016007962 0.009228609
-0.0059284572 -0.0009867616 -0.059259426 0.008452142 -0.01291883 0.04613922 0.04850902 0.003494161
-0.00012510286 0.017847259 -0.07467467 0.017230915 -0.06702997 0.019302025 -0.06440443 -0.013981579
0.0173928 -0.036451235 -0.069096945 -0.07912049 -0.004192383 -0.027856011 -0.0070830234 0.026947694
-0.044543136 -0.05283934 -0.09293602 -0.062385354 0.019857243 0.0511425 -0.010686698 0.054720826
-0.022041654 -0.050321054 0.005872238 -0.041027084 0.018849414 -0.01625884 0.026253806 0.041220814
-0.07626288 -0.0026577048 -0.011125379 0.003093188 -0.011916413 0.021505669 0.024593262 0.013731134
0.02084422 0.001303994 0.06629384 -0.017648166 -0.009610715 0.03128695 -0.0196366 -0.02314871
-0.038530983 -0.03447037 -0.021070575 -0.071395844 -0.07442835 -0.007640757 -0.03161016 -0.04344963
-0.013311771 0.022324592 0.051044967 0.012583413 0.025163652 -0.029036097 0.0608338 -0.045467593
0.01712557 0.008051131 -0.0010705389 0.017503526 0.023883125 -0.010336421 0.0013888754 0.0069255773
-0.07298836 -0.078111455 -0.051340114 0.018964672 -0.0042071748 -0.050390966 0.013079624 0.048368998
0.019315444 -0.009416746 -0.04195353 -0.02603064 -0.029589431 -0.01810204 -0.03251952 -0.007755493
-0.0021523072 0.021202007 0.027222142 -0.016234405 0.0012260856 0.016243398 -0.024879044 -0.018535687
0.019508265 0.0149410255 -0.029697882 -0.0068464614 -0.0393364 -0.07303325 0.02509999 -0.024817953
-0.026105888 -0.059116263
00000000: d748 b83b 8af5 00bb b14b 1dbd 2dfc e9bc
00000010: b4ba 41bd 77e1 333d 5d43 8dbc 0789 adbb
00000020: 7297 06bd cc25 febc 23da 86bd 2edf bebd
00000030: e8aa a63c 6055 c7bc 319a ea3b d62b 133d
00000040: 1be1 253c f382 eaba 512c 84bd 995b cabc
00000050: 44e8 2bbc a5df f9bc b108 df3c 8954 a43b
00000060: 2272 1b3d 9f5e aebc 61f2 823c 9a77 5bbd
00000070: c8da dcbc ae17 513d d6a4 e53c a80b 6dbc
00000080: 7ec5 08bd 84d3 ddbc b911 963c 4fc7 013d
00000090: 2106 dcbd 379a 9ebc 014b 92bd aa29 c9bc
000000a0: 58a1 803c 92fc e7bc 6421 67bc c15d 903c
000000b0: bb33 8a3d 2b81 313b 38c1 ffba 8ff6 a2bc
000000c0: 71cf c0bc eb84 a03c 932a 8bbd c63e 21bc
000000d0: 39c0 65bd 1720 923b 889b a3bd f73f 26bd
000000e0: cbcc 063d f24f a43b f5ca 33bd 7481 9c3c
000000f0: 1e47 043d 937f 6ebd e421 15bd 76d7 05bd
00000100: 236d 20bc e2a8 7c3b 7456 2fbd 2fb0 e63a
00000110: 8b7f c6bc ebfb c6bc 2123 83bc 9733 173c
00000120: 8143 c2bb 3a56 81ba 03ba 72bd da7a 0a3c
00000130: 80a9 53bc 7bfc 3c3d 65b1 463d 4bfe 643b
00000140: 0b2e 03b9 6a34 923c 09ef 98bd d927 8d3c
00000150: 0247 89bd 481f 9e3c 78e6 83bd fe12 65bc
00000160: 587b 8e3c e44d 15bd b382 8dbd ec09 a2bd
00000170: 4260 89bb 4a32 e4bc b518 e8bb 69c1 dc3c
00000180: dd72 36bd 106e 58bd 3d55 bebd c987 7fbd
00000190: a8ab a23c cc7a 513d 4317 2fbc f222 603d
000001a0: b390 b4bc 731d 4ebd e76b c03b 040c 28bd
000001b0: 166a 9a3c 4231 85bc 3912 d73c 28d7 283d
000001c0: b62f 9cbd e32c 2ebb 3947 36bc 15b7 4a3b
000001d0: 0f3d 43bc a82c b03c cf77 c93c 8df8 603c
000001e0: 7fc1 aa3c c7ea aa3a 11c5 873d e392 90bc
000001f0: 4376 1dbc bf26 003d efdc a0bc 5da2 bdbc
00000200: aad2 1dbd cd30 0dbd 339c acbc fc37 92bd
00000210: e46d 98bd 515f fabb a879 01bd 3df8 31bd
00000220: 9d19 5abc 10e2 b63c 8714 513d a92a 4e3c
00000230: 0124 ce3c 1cdd edbc dd2c 793d 3a3c 3abd
00000240: ec4a 8c3c e4e8 033c 5351 8cba 8e63 8f3c
00000250: 8ba6 c33c 185a 29bc ed0a b63a f4ef e23b
00000260: ec7a 95bd e6f8 9fbd 034a 52bd cd5b 9b3c
00000270: 57dc 89bb c266 4ebd eb4b 563c 921e 463d
00000280: 6c3b 9e3c b248 1abc 77d7 2bbd 353e d5bc
00000290: 8965 f2bc bb4a 94bc 3033 05bd ca21 febb
000002a0: b90d 0dbb d5af ad3c f800 df3c 04fe 84bc
000002b0: 9bb4 a03a e010 853c 23cf cbbc 27d8 97bc
000002c0: cccf 9f3c 34cb 743c f948 f3bc 4858 e0bb
000002d0: 341f 21bd 7592 95bd 7f9e cd3c 054f cbbc
000002e0: 04dc d5bc e523 72bd

35 f4 [32, 3, 5, 5]
-0.28376535 -0.057968892 0.7119197 0.64523685 0.6659656 -0.10601252 0.45163253 -0.37376255
0.11910079 -0.5022507 -0.31287256 -0.26382118 0.07142014 -0.24649693 -0.71196103 0.37865514
0.07033026 0.35197645 -0.5409333 0.6187983 -0.37299162 -0.10768491 -0.71410674 -0.46124166
-0.11806029 0.25056422 0.9734725 -0.19000323 0.07127462 0.53360885 0.67741233 0.3433093
-0.5136739 0.3001214 -0.19777499 -0.35550177 0.045432493 0.45631358 -0.000493632 0.31097278
-0.44012934 -0.091984525 -0.4294919 0.48489726 -0.37781563 -0.33673394 -0.8397303 -0.08703744
-0.022355754 0.09372715 -0.0006928285 -0.32780954 0.8899186 0.2259938 -0.22524153 -0.37330633
0.71513027 0.8932075 -0.6271971 0.07750473 0.62483853 -0.16159588 -0.6055545 -0.08588676
-0.6197795 -0.026148587 -0.11957337 0.015525188 0.5342575 -0.5210044 -0.3488211 -0.79368705
0.408701 0.35880393 -0.8450485 0.19072345 0.5541907 -0.14818524 0.34414968 0.3789887
-0.62012964 0.7054899 -0.28521657 -0.22941488 0.49751014 -0.7951812 -0.3583019 -0.3517368
0.24433501 0.07245522 -0.7065616 0.3394185 -0.71042335 -0.05794462 -0.64040637 0.38799816
-0.5468071 -0.5455734 -0.33068407 -0.46813205 -0.26204333 -0.13360618 -0.30130562 -0.026406689
0.83851707 0.38029146 -0.35274678 -0.40923467 -0.22608133 -0.04972919 0.07509335 -0.8023754
0.250956 -0.54445046 -0.5626654 0.42387 -0.12951222 0.69731677 -0.33662274 0.55524516
0.46475825 0.1893786 0.71757627 0.1847325 -0.30180246 -0.20644818 0.47945154 -0.30600598
-0.028078973 0.2260906 -0.2645392 -0.6801636 0.5214516 0.37704155 0.70393926 -0.32072055
0.48019552 -0.15280166 0.37576753 -0.034281652 -0.14653093 0.423822 -0.10609375 -0.31875703
-0.5234615 -0.103448145 -0.3122207 -0.41544113 0.24931327 -0.5272383 -0.49215055 -1.4623944
1.2788846 -1.1219003 -0.036303174 -1.0452912 -0.86796004 -0.14643091 -0.4786776 0.9468998
1.0457889 -0.9218024 1.5169727 -0.19954419 -0.6177711 1.4152226 -1.4088715 -0.07513941
-1.2001307 0.19398609 -0.8910959 -0.4623872 0.3370434 -0.06328175 1.0420465 0.1986251
0.094607756 -1.3580754 -0.21554615 1.3666517 -0.45208457 1.2034013 0.38387907 1.35174
-1.2907208 1.3571917 0.24249369 0.5247794 0.8094016 -1.0281551 -1.0271955 -0.1471081
0.5769868 -0.6038484 0.78006244 -0.60527414 0.07152018 0.46380022 -1.2971337 1.3704623
0.90631425 -0.07140746 -0.2024584 -0.68857205 1.3242843 1.4728911 -0.090821035 -1.0649966
-1.3471649 -0.48900548 1.334637 -0.72969526 1.3627719 -0.58625036 -0.76497144 1.1109922
-1.2031819 -0.43465346 1.4512185 -0.37332276 -0.60393023 -1.555666 0.48685038 -1.2149887
0.9208686 -0.33563903 -0.0816665 0.40056008 0.8558203 0.21341705 0.02839086 -0.5784708
-0.66624844 -0.34549904 0.15433651 -0.37516543 0.25069678 -0.25191385 -0.13421126 -0.50627255
0.7693932 0.26228723 -0.23199357 -0.022319531 0.25193927 0.4269688 -0.39613575 -0.11327437
-0.23203988 0.21588051 0.06524406 0.3642643 -0.5288679 0.6530625 0.6353443 0.21328312
00000000: b149 91be ca70 6dbd 5f40 363f 3e2e 253f
00000010: b97c 2a3f 181d d9bd 613c e73e ce5d bfbe
00000020: 1deb f33d 8093 00bf d530 a0be 9213 87be
00000030: b944 923d b169 7cbe 1443 36bf 16df c13e
00000040: 5009 903d 4236 b43e 9b7a 0abf 9169 1e3f
00000050: c2f8 bebe e889 dcbd b3cf 36bf de27 ecbe
00000060: 98c9 f1bd f449 803e 7e35 793f 3590 42be
00000070: 6ef8 913d 979a 083f e56a 2d3f 3dc6 af3e
00000080: 2280 03bf 83a9 993e 8785 4abe 5404 b6be
00000090: 6c17 3a3d efa1 e93e 1567 01ba d337 9f3e
000000a0: a258 e1be 6262 bcbd 5de6 dbbe 7444 f83e
000000b0: 0d71 c1be 6468 acbe 91f8 56bf af40 b2bd
000000c0: 6a23 b7bc 05f4 bf3d ef9e 35ba a7d6 a7be
000000d0: b5d1 633f eb6a 673e b7a5 66be 0222 bfbe
000000e0: c712 373f 3fa9 643f fd8f 20bf cdba 9e3d
000000f0: 6bf5 1f3f 6479 25be 9f05 1bbf 66e5 afbd
00000100: dfa9 1ebf 9035 d6bc e2e2 f4bd 5c5d 7e3c
00000110: 19c5 083f 8b60 05bf ae98 b2be 132f 4bbf
00000120: 4241 d13e 26b5 b73e 1955 58bf 024d 433e
00000130: 71df 0d3f dfbd 17be 6334 b03e cf0a c23e
00000140: d1c0 1ebf fc9a 343f e807 92be bceb 6abe
00000150: a6b9 fe3e ff90 4bbf 5973 b7be d916 b4be
00000160: f532 7a3e 6763 943d 39e1 34bf 43c8 ad3e
00000170: 4ede 35bf 5657 6dbd acf1 23bf b2a7 c63e
00000180: 8dfb 0bbf b3aa 0bbf 6c4f a9be 01af efbe
00000190: 8b2a 86be 0fd0 08be bb44 9abe d752 d8bc
000001a0: 0ea9 563f 90b5 c23e 3a9b b4be 3587 d1be
000001b0: dd81 67be d6b0 4bbd 8bca 993d 7968 4dbf
000001c0: 4e7d 803e 1b61 0bbf d70a 10bf 7d05 d93e
000001d0: da9e 04be 5a83 323f d159 acbe 8c24 0e3f
000001e0: cbf4 ed3e 77ec 413e 14b3 373f 842a 3d3e
000001f0: da85 9abe 2767 53be ac7a f53e d1ac 9cbe
00000200: e005 e6bc 4b84 673e af71 87be 341f 2ebf
00000210: da7d 053f 970b c13e 5d35 343f 7c35 a4be
00000220: 30dc f53e 0a78 1cbe 9a64 c03e eb6a 0cbd
00000230: 340c 16be 32ff d83e ae47 d9bd 1f34 a3be
00000240: 9301 06bf 9fdc d3bd 64db 9fbe b3b4 d4be
00000250: fa4b 7f3e 17f9 06bf 28fb fbbe bd2f bbbf
00000260: 7eb2 a33f 6e9a 8fbf a3b2 14bd 1acc 85bf
00000270: a132 5ebf fcf1 15be 3b15 f5be 0668 723f
00000280: 69dc 853f 3efb 6bbf 292c c23f 5055 4cbe
00000290: 3f26 1ebf 0426 b53f e755 b4bf b1e2 99bd
000002a0: e29d 99bf 4aa4 463e dc1e 64bf 04be ecbe
000002b0: f490 ac3e dd99 81bd c861 853f 6164 4b3e
000002c0: b6c1 c13d 6ad5 adbf 21b8 5cbe 71ee ae3f
000002d0: a177 e7be 0e09 9a3f cc8b c43e d105 ad3f
000002e0: 5736 a5bf 75b8 ad3f 4450 783e f157 063f
000002f0: f134 4f3f 969a 83bf 247b 83bf 81a3 16be
00000300: 68b5 133f cf95 1abf 2cb2 473f 3ff3 1abf
00000310: 2c79 923d 3977 ed3e 7a08 a6bf 4f6b af3f
00000320: 3604 683f 133e 92bd 4151 4fbe 4246 30bf
00000330: 2682 a93f b287 bc3f 6100 babd cf51 88bf
00000340: e66f acbf ed5e fabe 63d5 aa3f 4fcd 3abf
00000350: 4f6f ae3f 8114 16bf 2bd5 43bf fe34 8e3f
00000360: dd01 9abf e68a debe 87c1 b93f 2924 bfbe
00000370: 2c9b 1abf 1020 c7bf 7444 f93e c084 9bbf
00000380: 0bbe 6b3f e1d8 abbe c440 a7bd 3616 cd3e
00000390: 0a17 5b3f 008a 5a3e f393 e83c aa16 14bf
000003a0: 428f 2abf 40e5 b0be 640a 1e3e af15 c0be
000003b0: 545b 803e dafa 80be ad6e 09be 149b 01bf
000003c0: f4f6 443f 834a 863e b98f 6dbe 73d7 b6bc
000003d0: 2ffe 803e a89b da3e 4ed2 cabe 65fc e7bd
000003e0: dd9b 6dbe c80f 5d3e ad9e 853d da80 ba3e
000003f0: e363 07bf 1b2f 273f eda5 223f e466 5a3e

36 f4 [32]
0.67896163 1.4455698 0.72502077 1.0108492 -1.722488 -1.3506675 1.5636461 -1.2662333
-0.09422203 -0.21007043 -0.57925516 1.7249923 0.62413305 -1.8170819 1.273882 -0.48885253
0.6905817 0.4516843 1.1191791 0.80180675 -0.20138587 -0.8460458 -1.2950212 0.56348675
1.3340294 -0.33551773 -0.110735975 -0.9596845 0.35628045 2.0180078 1.7091511 1.4883033
00000000: 6ed0 2d3f 6e08 b93f f69a 393f 8263 813f
00000010: 7d7a dcbf ace2 acbf 8e25 c83f ef13 a2bf
00000020: 7bf7 c0bd b41c 57be 114a 14bf 8ccc dc3f
00000030: 2fc7 1f3f 2496 e8bf 910e a33f e14a fabe
00000040: f6c9 303f 2a43 e73e 4341 8f3f 3543 4d3f
00000050: 1938 4ebe 7596 58bf 41c3 a5bf ab40 103f
00000060: 7ac1 aa3f fbc8 abbe 8bc9 e2bd e2ad 75bf
00000070: 646a b63e 0a27 0140 77c5 da3f b980 be3f

38 f4 [32, 32, 3, 3]
-0.23850183 0.45582956 -0.28001964 -0.5150324 0.07526657 -0.42954466 0.0122019565 -0.844457
-0.042420927 0.14853892 -0.27453545 -0.3491097 -0.300454 0.48532724 -0.10070795 -0.43860146
-0.8521069 0.30336928 -0.3685942 0.70404565 0.74362844 0.56333804 -0.3530865 -0.27385506
0.47554344 0.11536308 -0.21450822 0.5789218 -0.32598403 -0.32168064 0.21637936 0.21125254
-0.004559591 -0.07456092 -0.3703737 -0.21893306 -0.085236445 -0.5836485 -0.21562308 -0.20560513
-0.3149262 0.24418037 0.45906967 -0.07879017 -0.21742676 -0.0427785 0.44587404 0.12927131
0.1908891 -0.16838278 -0.040487923 -0.06287658 0.058479078 -0.10484842 0.20686433 0.47413883
-0.4749008 -0.2955355 0.15786427 -0.2626067 -0.15748633 0.7473395 0.13841642 -0.09065022
0.016906433 -0.97113043 0.54599977 -0.6173872 -0.06492472 0.20506133 -0.0772001 0.14358807
-0.38687178 0.20740917 0.27349508 0.45240265 0.42092034 0.17691131 -0.16350932 0.21234925
-0.24834943 0.13104403 -1.016382 -0.52033496 -0.5272922 -0.70994127 -0.23607366 0.18854012
-0.4006488 -0.2613289 -0.06146346 -0.05741238 0.4886591 -0.06420545 0.23910716 0.48551998
-0.6596994 0.12362411 -0.57686263 -0.16725789 -0.6431382 0.23593284 -0.75270844 0.021053582
-0.025882889 0.27732298 -0.34533828 -0.4208685 0.061983194 0.023343282 -0.44456214 -0.61295414
0.50833225 0.39632627 0.41811246 0.13258325 0.4296018 0.49357662 -0.350674 0.1899539
-0.22376356 -0.0412527 0.28884417 -0.08154799 -0.5063429 0.25194848 0.4576598 0.70974386
0.07753455 0.5872832 -0.19653268 -0.343119 -0.41622046 0.1870345 0.49463406 0.2371435
0.5525498 0.15109336 0.4598382 -0.5295357 -1.0338476 -0.4338004 -0.16574067 -0.41483977
-0.31813526 -0.22416142 -0.030175256 -0.27520165 0.09706231 1.1353315 -0.5431778 -0.48217505
-0.4670343 0.56201714 0.2819275 0.112911336 -0.18249688 0.9220178 0.32731912 0.31708097
0.59065795 0.50760794 -0.584903 0.69156784 -0.52880514 -0.33528766 -0.07933457 -0.28668278
-0.40821227 0.19015932 -0.14241646 -0.44279104 -0.35764048 -0.23337384 0.43709117 -0.15507577
0.32281607 -0.38956666 0.69045717 0.23426794 -0.10472568 -1.1128199 -0.5090408 -0.110053495
-0.72495836 -0.5127126 0.4908012 -0.8363283 -0.26784402 -0.031107152 0.5113608 0.015945796
0.22994116 -0.10211599 0.13716666 0.20013066 -0.25215447 0.32943755 -0.07556657 1.002255
-0.3157131 0.6008451 -0.44467548 0.1330312 0.40219113 0.6257707 0.53902906 0.9099114
0.6572515 0.25867862 0.19781514 0.8579984 0.41782093 0.5677859 0.8560281 -0.06864931
0.07540991 -0.7865947 0.6739389 -0.41235188 0.25343347 0.47691178 0.3682009 -0.35988903
0.5448994 0.28084946 0.43214855 0.23076224 0.30880362 -0.10169602 0.87451637 0.053218745
0.46186975 -0.28528467 0.23818201 -0.72872186 -0.5794943 -0.52492774 -0.35274732 0.011893154
-0.18324111 0.3817989 -0.06713303 0.22065231 -0.20950846 -0.41450745 0.33199516 0.18131493
-0.8499886 0.23104067 -0.26969644 -0.36428246 -0.1533021 -0.29616225 0.545902 -0.312231
00000000: d339 74be 7e62 e93e bc5e 8fbe 2ad9 03bf
00000010: 5c25 9a3d 47ed dbbe b7ea 473c 552e 58bf
00000020: 91c1 2dbd 961a 183e e98f 8cbe 82be b2be
00000030: 1bd5 99be d07c f83e f83f cebd 5f90 e0be
00000040: ae23 5abf 3853 9b3e 61b8 bcbe 563c 343f
00000050: 6f5e 3e3f ec36 103f c1c7 b4be bb36 8cbe
00000060: 6e7a f33e 7a43 ec3d 0ba8 5bbe 3834 143f
00000070: 61e7 a6be 53b3 a4be 8d92 5d3e 9652 583e
00000080: 9f68 95bb 65b3 98bd 9fa1 bdbe fd2f 60be
00000090: 7290 aebd fd69 15bf 4ccc 5cbe 278a 52be
000000a0: 023e a1be 6b0a 7a3e 2e0b eb3e be5c a1bd
000000b0: 1fa5 5ebe 8238 2fbd 9a49 e43e b35f 043e
000000c0: 6f78 433e 896c 2cbe aad6 25bd 70c5 80bd
000000d0: c287 6f3d c5ba d6bd 3ed4 533e 53c2 f23e
000000e0: 3326 f3be 6e50 97be 2ca7 213e 6374 86be
000000f0: 1944 21be a451 3f3f 09bd 0d3e d3a6 b9bd
00000100: 5c7f 8a3c 019c 78bf a4c6 0b3f 160d 1ebf
00000110: 40f7 84bd 99fb 513e 161b 9ebd c008 133e
00000120: 0f14 c6be 1263 543e 8c07 8c3e 52a1 e73e
00000130: df82 d73e 3d28 353e fd6e 27be 1572 593e
00000140: 504f 7ebe 6830 063e ce18 82bf ac34 05bf
00000150: 9ffc 06bf b6be 35bf 4bbd 71be a910 413e
00000160: d721 cdbe e7cc 85be 1cc1 7bbd 3e29 6bbd
00000170: 8731 fa3e 267e 83bd 82d8 743e 1396 f83e
00000180: 0fe2 28bf a32e fd3d 45ad 13bf a745 2bbe
00000190: b4a4 24bf 6198 713e 80b1 40bf 9078 ac3c
000001a0: 5a08 d4bc 47fd 8d3e 2ed0 b0be 137c d7be
000001b0: 17e2 7d3d 693a bf3c a69d e3be 90ea 1cbf
000001c0: 1022 023f 47eb ca3e d612 d63e e7c3 073e
000001d0: c4f4 db3e 13b6 fc3e 8b8b b3be 4683 423e
000001e0: 4622 65be 97f8 28bd 62e3 933e a202 a7bd
000001f0: b09f 01bf 64ff 803e 6352 ea3e c6b1 353f
00000200: 6fca 9e3d 3158 163f dd3f 49be 4bad afbe
00000210: d91a d5be f985 3f3e ad40 fd3e bfd5 723e
00000220: e773 0d3f 38b8 1a3e ea6f eb3e a78f 07bf
00000230: 1e55 84bf 161b debe ecb7 29be e165 d4be
00000240: a0e2 a2be 928a 65be 1932 f7bc 3be7 8cbe
00000250: 9bc8 c63d 8b52 913f b30d 0bbf a6df f6be
00000260: 1f1f efbe 5be0 0f3f cd58 903e 0f3e e73d
00000270: 76e0 3abe 5c09 6c3f 5f96 a73e 7058 a23e
00000280: 5c35 173f 98f2 013f 34bc 15bf 970a 313f
00000290: c65f 07bf d3aa abbe 2a7a a2bd 16c8 92be
000002a0: 3301 d1be 20b9 423e 9fd5 11be 82b5 e2be
000002b0: a71c b7be 8df9 6ebe 6aca df3e 2fcc 1ebe
000002c0: 2648 a53e 4875 c7be cdc1 303f efe3 6f3e
000002d0: 6b7a d6bd e270 8ebf 7f50 02bf ba63 e1bd
000002e0: df96 39bf 2241 03bf 4b4a fb3e 9d19 56bf
000002f0: da22 89be 6dd4 febc 8be8 023f c2a0 823c
00000300: b275 6b3e 3022 d1bd 6b75 0c3e 0def 4c3e
00000310: 641a 81be 0aac a83e a5c2 9abd e449 803f
00000320: 26a5 a1be fcd0 193f 81ac e3be 5539 083e
00000330: ffeb cd3e 8232 203f cffd 093f f4ef 683f
00000340: a241 283f 8671 843e 0d90 4a3e c8a5 5b3f
00000350: a0ec d53e 6b5a 113f a824 5b3f 0298 8cbd
00000360: 8370 9a3d 455e 49bf 4287 2c3f c91f d3be
00000370: 08c2 813e c82d f43e d484 bc3e 6043 b8be
00000380: 877e 0b3f 80cb 8f3e 9342 dd3e f04c 6c3e
00000390: 821b 9e3e 0146 d0bd 4ee0 5f3f e6fb 593d
000003a0: 317a ec3e d510 92be fce5 733e 848d 3abf
000003b0: bd59 14bf aa61 06bf 4c9b b4be 81db 423c
000003c0: 8fa3 3bbe 257b c33e 0b7d 89bd aef2 613e
000003d0: 6389 56be 523a d4be 45fb a93e 9faa 393e
000003e0: da98 59bf ed95 6c3e a715 8abe 3b83 babe
000003f0: 3afb 1cbe 94a2 97be 3cc0 0b3f bedc 9fbe

39 f4 [32]
0.3098811 -0.6509194 1.3596636 -0.63654554 1.2510306 1.0021961 -0.5598034 -1.32848
0.04306761 0.8415717 2.003178 0.0149781555 -2.1117074 2.019901 -0.6438284 -0.95583844
3.094655 -0.51971036 2.7904613 -1.8085344 0.13865115 5.0357 -1.3260967 1.7780563
0.44831696 -1.2394062 -0.44755864 3.0523841 2.6998408 -1.3157221 0.014944524 1.6379628
00000000: bca8 9e3e a7a2 26bf 7509 ae3f a6f4 22bf
00000010: c521 a03f f647 803f 474f 0fbf a20b aabf
00000020: aa67 303d 3e71 573f 1134 0040 f066 753c
00000030: 3726 07c0 0f46 0140 f0d1 24bf d4b1 74bf
00000040: d40e 4640 bd0b 05bf eb96 3240 0e7e e7bf
00000050: 91fa 0d3e 7424 a140 89bd a9bf 5997 e33f
00000060: cd89 e53e dda4 9ebf 6826 e5be 435a 4340
00000070: 31ca 2c40 9569 a8bf e0d9 743c c4a8 d13f
