inventory/ark_material.onnx (onnx, 699904 bytes, 8 tensors)

35 f4 [8, 3, 5, 5]
0.5077509 0.79852545 0.6314642 -0.22145484 -0.08050839 -0.17835592 0.48843068 0.3282211
0.75715286 -0.17946751 0.42837834 0.40714926 -0.46538225 0.32537687 0.091903634 -0.55590045
-0.20487353 0.024468431 0.15274262 -0.03137628 -0.5348491 0.17569299 -0.5140458 -0.1321969
0.61973894 0.036048565 -0.50501996 0.2891195 -0.18057759 0.34081227 -0.53635484 -0.13302031
0.6205148 -0.18871313 0.5303787 -0.5533954 -0.0007445536 0.10896817 0.40978846 0.4334809
-0.61284596 -0.26145568 -0.2604432 -0.042512458 0.2502154 0.28898388 0.37323624 -0.5193069
-0.39615628 -0.48119387 0.3218965 -0.15582533 -0.46687528 0.008386023 -0.3388987 -0.15958765
-0.5521032 -0.48717225 0.39322066 -0.30612376 -0.22012925 -0.4705803 0.4463288 -0.5610445
-0.10145835 -0.28194317 -0.24985333 0.4040738 0.61186695 0.6714198 -0.09908554 -0.4417592
0.0021674763 0.3139111 0.25727057 0.50641155 0.22982202 -1.2786756 -0.5463366 0.17636679
1.0079557 0.46746814 0.30421695 0.12111329 -1.1436151 0.3784734 -0.46808773 -0.12763475
0.7898687 0.3668667 -0.58330196 -0.55156815 0.2710928 -0.4702589 -0.12023609 -0.654829
0.09462018 0.45611975 0.52288896 0.7127945 0.37650424 -0.23572524 -0.6210087 0.1847309
0.2732316 0.871691 0.6656545 -0.7576013 -0.16925746 -0.49928245 -0.7646552 0.69580716
1.2273992 -0.08276095 -0.5848195 -0.0047712023 -0.10380129 0.4517813 0.4299818 0.60077673
-1.119946 -0.56463295 -0.038978018 -0.65122706 -0.078756556 0.15597251 -0.27293822 -0.3616849
0.32548413 -0.3467875 0.22686455 -0.14374098 0.092298985 -0.0071708453 -0.7557684 1.0695622
0.33148396 -0.08722404 -0.63300496 -0.1621247 -0.47736079 -0.54069954 0.25440395 0.44290128
1.0557662 -0.98875546 0.29588452 0.55471 -0.3637873 0.28153712 0.02820852 0.224767
0.24274743 0.101587355 -0.0067534093 0.292852 0.010074951 -0.055158574 -0.036025077 -0.2310784
-0.3222584 -0.014977184 -0.13216758 -0.29497162 -0.36228478 -0.3804281 -0.38138467 -0.47724605
-0.1932203 -0.44356218 -0.40555364 -0.40096596 -0.18870072 -0.41327375 -0.083956875 0.22088926
0.0322886 -0.080155015 0.0956498 -0.054469127 -0.33798984 0.18178737 -0.14340496 -0.0071250373
-0.213282 0.0815825 -0.011428738 0.2100873 0.159663 -0.1292333 0.0548192 0.19472195
0.02504115 -0.108615085 0.04005601 0.010670807 0.23081823 0.09628469 0.24553522 -0.11936986
-0.07132418 0.22860423 0.05852317 0.14904596 -0.099262945 0.20596178 0.18338452 -0.13542435
0.08759391 -0.21069764 -0.24237026 -0.17160994 0.0426307 0.22985901 -0.16716994 0.04769472
-0.052805007 -0.15685503 -0.23054236 -0.2126325 -0.12441777 0.218819 -0.13975886 0.27576545
-0.021216098 0.1527537 -0.16901729 -0.07716937 0.011821353 0.02864634 -0.37031147 -0.303232
0.1335206 0.095945306 0.16567957 0.03721635 -0.15504622 0.20831475 0.22176914 -0.2822215
-0.34693348 0.16079932 0.07226105 -0.1949147 -0.17592463 0.070764296 0.31094718 0.068835914
-0.29580697 0.33732137 0.26611462 0.15970354 0.32477757 0.42612252 0.06335014 -0.38239765
00000000: f7fb 013f 2a6c 4c3f a3a7 213f 0fc5 62be
00000010: 95e1 a4bd efa2 36be 9613 fa3e 990c a83e
00000020: c5d4 413f 55c6 37be 6854 db3e de75 d03e
00000030: 9546 eebe cc97 a63e f937 bc3d 7e4f 0ebf
00000040: 5eca 51be 0572 c83c 9068 1c3e 6a84 00bd
00000050: dfeb 08bf dde8 333e 8198 03bf a05e 07be
00000060: 36a7 1e3f a9a7 133d fd48 01bf 7907 943e
00000070: 55e9 38be f27e ae3e 8d4e 09bf 7a36 08be
00000080: 0fda 1e3f 043e 41be e6c6 073f 52ab 0dbf
00000090: 252e 43ba b42a df3d cbcf d13e 35f1 dd3e
000000a0: 79e3 1cbf 85dd 85be d058 85be 8b21 2ebd
000000b0: 3c1c 803e b2f5 933e d218 bf3e 4cf1 04bf
000000c0: ffd4 cabe 0b5f f6be 9ecf a43e ad90 1fbe
000000d0: 470a efbe 8865 093c 2184 adbe f26a 23be
000000e0: a356 0dbf a46e f9be 3854 c93e 41bc 9cbe
000000f0: 9069 61be e7ef f0be 3585 e43e 9da0 0fbf
00000100: 65c9 cfbd db5a 90be 8dd9 7fbe c3e2 ce3e
00000110: 50a3 1c3f 2be2 2b3f 5ced cabd 432e e2be
00000120: 380c 0e3b f5b8 a03e f8b8 833e 30a4 013f
00000130: 7756 6b3e a4ab a3bf b7dc 0bbf 7f99 343e
00000140: b104 813f fc57 ef3e 53c2 9b3e 3f0a f83d
00000150: fb61 92bf 44c7 c13e 32a9 efbe afb2 02be
00000160: d634 4a3f f4d5 bb3e 4753 15bf 9233 0dbf
00000170: adcc 8a3e c6c5 f0be 573e f6bd e0a2 27bf
00000180: 3ac8 c13d 8788 e93e 0ddc 053f b379 363f
00000190: 2ac5 c03e f561 71be 6dfa 1ebf 192a 3d3e
000001a0: 03e5 8b3e 2427 5f3f 5568 2a3f 29f2 41bf
000001b0: d451 2dbe f3a1 ffbe 71c0 43bf 6b20 323f
000001c0: 6b1b 9d3f 937e a9bd bbb6 15bf bf57 9cbb
000001d0: c595 d4bd e14f e73e 9326 dc3e 81cc 193f
000001e0: 645a 8fbf c98b 10bf 6aa7 1fbd d1b6 26bf
000001f0: 1e4b a1bd 42b7 1f3e 8fbe 8bbe c32e b9be
00000200: dba5 a63e 228e b1be 2e4f 683e d630 13be
00000210: 4007 bd3d 69f9 eabb 0a7a 41bf 6ae7 883f
00000220: 44b8 a93e 84a2 b2bd 9d0c 22bf 0404 26be
00000230: a268 f4be 496b 0abf 3c41 823e f5c3 e23e
00000240: 5923 873f 141f 7dbf 2d7e 973e 7901 0e3f
00000250: 5442 babe a225 903e 8e15 e73c 5229 663e
00000260: c892 783e 080d d03d b44b ddbb b3f0 953e
00000270: 6811 253c f5ed 61bd 088f 13bd d19f 6cbe
00000280: 0eff a4be dd62 75bc f056 07be 8506 97be
00000290: 647d b9be 79c7 c2be da44 c3be 9859 f4be
000002a0: 8bdb 45be 951a e3be baa4 cfbe 694b cdbe
000002b0: c33a 41be 9e98 d3be 95f1 abbd cb30 623e
000002c0: 0d41 043d 5028 a4bd 0be4 c33d 051b 5fbd
000002d0: 010d adbe 7826 3a3e c0d8 12be 2579 e9bb
000002e0: 9966 5abe ba14 a73d 9a3f 3bbc 2021 573e
000002f0: b37e 233e bc55 04be 198a 603d 3165 473e
00000300: 1923 cd3c 9671 debd c511 243d 9cd4 2e3c
00000310: 9d5b 6c3e e830 c53d 966d 7b3e 2f78 f4bd
00000320: 6912 92bd 3a17 6a3e feb5 6f3d 819f 183e
00000330: 5f4a cbbd a5e7 523e 27c9 3b3e aeac 0abe
00000340: 7064 b33d 1fc1 57be e92f 78be 84ba 2fbe
00000350: 879d 2e3d 2960 6b3e 992e 2bbe 8a5b 433d
00000360: 104a 58bd 9b9e 20be 4c13 6cbe 56bc 59be
00000370: bece febd 1712 603e f21c 0fbe 2131 8d3e
00000380: 62cd adbc 776b 1c3e de12 2dbe fa0a 9ebd
00000390: 59ae 413c bbab ea3c 7799 bdbe 3a41 9bbe
000003a0: a0b9 083e f97e c43d e8a7 293e 2c70 183d
000003b0: 70c4 1ebe 7650 553e 7317 633e 567f 90be
000003c0: 44a1 b1be 94a8 243e 9afd 933d b897 47be
000003d0: 9625 34be dfec 903d 7834 9f3e d8f9 8c3d
000003e0: 0374 97be 63b5 ac3e 2d40 883e 5389 233e
000003f0: 3f49 a63e bb2c da3e b8bd 813d a0c9 c3be

36 f4 [8]
0.08695312 -0.016098518 1.5665804 -1.4996341 -0.6596873 -1.6635463 1.8849106 1.175723
00000000: 7a14 b23d 0ae1 83bc b585 c83f 03f4 bfbf
00000010: 44e1 28bf 16ef d4bf c044 f13f 177e 963f

38 f4 [16, 8, 3, 3]
0.12091813 -0.3499949 -1.2439519 0.13272041 -0.5355472 0.086175434 -0.146355 -0.17206456
0.6915551 -0.4232205 1.3705463 0.5101386 -0.5375168 1.5897715 -1.03125 -0.019678548
0.17998883 -0.29942 0.7990129 -0.40347183 0.74266267 -0.8564894 -0.34975374 -0.088999465
1.0140766 -0.6748694 -0.7923278 -0.48471588 0.36551723 0.6735345 -0.5498133 1.0125616
1.4933884 0.72515893 0.10757443 -0.767362 0.50294703 0.9190134 1.1014147 -1.2851645
-1.4423975 0.8061098 -0.057571314 0.39503056 -0.07175083 -0.45369813 0.51054466 -0.9489545
-0.8848426 -0.187944 -0.6834326 0.89045227 0.11862601 0.4550624 -0.6884793 -0.30223677
0.0729795 0.37801206 -0.20035823 0.13935392 0.3695792 1.032406 1.2444292 -1.5999936
1.0646243 0.13639909 0.13351265 -0.37992406 0.9255186 -1.2299911 -1.53452 0.43674406
0.33311215 0.08558478 -0.78996456 0.18098931 -0.72127783 -0.6901506 0.43362102 -1.1045558
0.19748425 1.2156236 -0.58422476 -0.10156971 0.04174135 -1.5800768 -0.9215347 -0.3704014
-0.053745966 0.4259681 -0.069707364 -0.11787123 0.45500317 -0.3738511 -0.96854305 -0.54978627
0.21780263 1.0393523 -1.1088231 -0.6274719 -0.4109647 -0.44738293 0.5986697 0.96257144
0.35992083 0.50229955 -1.3696412 0.17881507 0.027696714 0.32079118 0.8972181 -1.0513551
0.3361078 0.49295127 -0.45631698 -0.21941899 -0.20770748 -0.6778691 0.7159532 1.0738479
-0.009052325 0.43476665 -0.3317921 -1.2865243 0.17013143 0.063130684 0.28181854 0.25744003
-0.7417414 0.16957593 1.4229342 -0.70892036 -0.11253398 -1.51271 0.54486686 0.6335657
-0.30755502 0.18385029 -0.24378039 0.19821581 -0.08975028 0.01892257 -0.75615925 0.06245187
0.82945234 -0.25800154 -0.7972749 -0.71827126 1.5883594 0.2942335 -0.02004721 0.09547947
0.96649724 -0.34731075 -0.36789423 -0.49390185 0.6365872 -0.52003324 -0.11159815 -0.19820054
-0.9625261 -0.85153484 1.2451637 0.82955104 -1.420363 -0.21848597 0.8149578 0.3580176
-0.8460827 -1.4386984 0.16299573 -0.33557814 -0.102429084 -0.5775202 0.11147617 0.20592287
0.63609105 -0.3416206 -0.5557323 0.03772721 1.0184172 0.12689875 -1.1310678 0.24502836
1.4942123 -0.2715534 -0.04799227 -1.8380834 0.7743162 -0.5154232 -0.06505132 -0.39930782
-0.44013864 0.55086595 0.04479329 1.1304626 -1.0172018 -1.3109399 -1.561014 0.8802569
-0.043343596 0.99610114 -0.40118077 -1.0497874 -0.078143224 -1.2394487 0.12426935 1.0733913
0.025965849 0.308739 -0.13992386 -1.7234782 -0.23413432 0.5478609 -1.2255704 1.083492
-0.90605134 0.3336484 0.26467672 0.30195013 -1.9448814 -0.20670466 0.19385274 -0.35297352
-0.49936125 1.0692316 0.6764892 0.4878834 0.5245166 -0.6473093 -0.12903625 -0.38517535
-1.8441247 0.04271232 -0.5288262 0.48841447 -0.8615823 -0.39914814 0.5856932 -0.6782475
0.18947172 0.42796725 -0.82066995 -0.081706695 -0.5361973 -0.6717811 0.23392233 0.12065345
-0.55922097 0.3660009 -0.12648487 -0.24465688 0.24243008 0.07606527 0.40583265 -0.5252968
00000000: eda3 f73d 8832 b3be d139 9fbf dce7 073e
00000010: 9f19 09bf bf7c b03d 16de 15be b131 30be
00000020: c109 313f 5bb0 d8be 106e af3f 7198 023f
00000030: b39a 09bf a27d cb3f 0000 84bf e834 a1bc
00000040: fe4e 383e 944d 99be 1c8c 4c3f dc93 cebe
00000050: 241f 3e3f e442 5bbf ec12 b3be 5a45 b6bd
00000060: 43cd 813f 3ec4 2cbf ffd5 4abf ae2c f8be
00000070: 1325 bb3e c26c 2c3f 90c0 0cbf 9e9b 813f
00000080: 5a27 bf3f 04a4 393f fc4f dc3d d671 44bf
00000090: 23c1 003f 7644 6b3f 28fb 8c3f 4580 a4bf
000000a0: 7ba0 b8bf 365d 4e3f e6cf 6bbd 7241 ca3e
000000b0: 19f2 92bd 1f4b e8be 0eb3 023f afee 72bf
000000c0: 0b85 62bf 6474 40be 70f5 2ebf aef4 633f
000000d0: 32f2 f23d f0fd e83e 2e40 30bf c7be 9abe
000000e0: 4776 953d cc8a c13e b52a 4dbe cbb2 0e3e
000000f0: 7c39 bd3e e125 843f 7549 9f3f 97cc ccbf
00000100: 9c45 883f 34ac 0b3e 8ab7 083e 6885 c2be
00000110: c9ee 6c3f 5970 9dbf 276b c4bf eb9c df3e
00000120: ad8d aa3e 1347 af3d 1e3b 4abf 4355 393e
00000130: aaa5 38bf b6ad 30bf 9303 de3e 1662 8dbf
00000140: 5039 4a3e 8e99 9b3f c18f 15bf c803 d0bd
00000150: faf8 2a3d f53f cabf b3e9 6bbf 41a5 bdbe
00000160: bb24 5cbd 7e18 da3e bcc2 8ebd 7966 f1bd
00000170: 2df6 e83e 6969 bfbe 70f2 77bf cbbe 0cbf
00000180: a707 5f3e 7f09 853f eaed 8dbf 00a2 20bf
00000190: f769 d2be 600f e5be 6b42 193f 156b 763f
000001a0: 8b47 b83e b496 003f 6750 afbf 4c1b 373e
000001b0: 38e4 e23c be3e a43e 16b0 653f ce92 86bf
000001c0: 5216 ac3e 1c64 fc3e 61a2 e9be 5faf 60be
000001d0: 45b1 54be d488 2dbf b548 373f d973 893f
000001e0: 3450 14bc bc99 de3e a7e0 a9be d4ac a4bf
000001f0: ef36 2e3e a94a 813d 854a 903e 2ecf 833e
00000200: c4e2 3dbf 50a5 2d3e b522 b63f ce7b 35bf
00000210: 3778 e6bd 7ba0 c1bf 657c 0b3f 5d31 223f
00000220: da77 9dbe 4043 3c3e 91a1 79be 16f9 4a3e
00000230: ffce b7bd 8103 9b3c a793 41bf 88cd 7f3d
00000240: fd56 543f c718 84be 351a 4cbf a0e0 37bf
00000250: 5c4f cb3f c6a5 963e 0c3a a4bc be8a c33d
00000260: 5d6c 773f b7d2 b1be a25c bcbe b4e0 fcbe
00000270: 61f7 223f e620 05bf 928d e4bd 15f5 4abe
00000280: 1c68 76bf 30fe 59bf 8661 9f3f 755d 543f
00000290: 74ce b5bf c9ba 5fbe 13a1 503f 154e b73e
000002a0: e098 58bf 4527 b8bf 5ae8 263e e6d0 abbe
000002b0: 57c6 d1bd 5dd8 13bf 9e4d e43d 72dd 523e
000002c0: ddd6 223f e5e8 aebe 7944 0ebf d987 1a3d
000002d0: 7f5b 823f bff1 013e d4c6 90bf b7e8 7a3e
000002e0: 5942 bf3f 0c09 8bbe 8b93 44bd 5146 ebbf
000002f0: 9639 463f c6f2 03bf a039 85bd 1372 ccbe
00000300: da59 e1be 8d05 0d3f 2b79 373d 00b3 903f
00000310: ab33 82bf e1cc a7bf 4fcf c7bf 8458 613f
00000320: 0e89 31bd 7c00 7f3f 9167 cdbe 6f5f 86bf
00000330: 8e09 a0bd 41a6 9ebf ee80 fe3d e364 893f
00000340: 55b6 d43c 0a13 9e3e 3348 0fbe ef9a dcbf
00000350: e8c0 6fbe 9d40 0c3f 7edf 9cbf deaf 8a3f
00000360: fbf2 67bf f7d3 aa3e b583 873e 3599 9a3e
00000370: e0f1 f8bf 63aa 53be 5581 463e f2b8 b4be
00000380: 47ac ffbe 95dc 883f 652e 2d3f dacb f93e
00000390: b846 063f 10b6 25bf 1422 04be b435 c5be
000003a0: 470c ecbf 1df3 2e3d 2761 07bf 7611 fa3e
000003b0: a890 5cbf 255d ccbe fdef 153f a1a1 2dbf
000003c0: e004 423e 861e db3e 6d17 52bf d755 a7bd
000003d0: 3a44 09bf d9f9 2bbf 5689 6f3e 2819 f73d
000003e0: 1b29 0fbf 7864 bb3e 4085 01be 5587 7abe
000003f0: 973f 783e 1cc8 9b3d 4cc9 cf3e da79 06bf

39 f4 [16]
-0.8237243 2.4709682 2.860375 1.3434452 4.2367673 3.428104 -2.6052036 0.69001555
0.109733336 3.480249 -0.81355196 0.86459786 -1.5120885 -0.4544894 0.8784685 -1.893552
00000000: 99df 52bf 5824 1e40 6210 3740 03f6 ab3f
00000010: 9993 8740 0e66 5b40 a8bb 26c0 dca4 303f
00000020: dfbb e03d 66bc 5e40 f144 50bf 4956 5d3f
00000030: 1e8c c1bf d6b2 e8be 50e3 603f e95f f2bf

fc.0.bias f4 [518]
0.08976134 0.060271867 0.11015676 -0.010907525 0.021541022 -0.014819643 -0.029391473 -0.013861422
0.0370447 0.07503049 0.091788866 0.0019150312 -0.00985399 0.08178505 0.014021892 0.030387212
0.053402178 0.122853875 0.083238356 -0.059029207 0.027405031 0.01810759 0.12645735 0.071259186
0.073322326 -0.08598385 0.057365436 0.036453553 0.09831659 0.021927943 0.038489502 -0.053708516
0.105160765 0.06526115 0.095324256 0.07236565 0.052614346 0.0027083762 0.060073912 -0.019617755
0.009690167 0.0028123206 0.105095185 -0.047765724 0.08397 -0.02131111 0.039977923 0.08291805
0.060860276 -0.029689042 0.087359264 -0.025954181 0.017067157 0.11806771 0.021987865 0.012438715
0.056856006 -0.004582774 0.1150764 0.045202628 0.04674052 -0.013570162 0.010418126 0.105520114
-0.03411304 0.054300807 0.022939408 0.103662394 -0.016289072 0.1295055 0.103506155 -0.022451168
0.07222084 0.03850039 -0.06194567 0.06712659 -0.023651998 0.022791507 0.07670998 0.039729826
-0.023308787 0.0047280067 0.007248069 0.015385041 0.08884155 -0.0064843525 0.053203057 0.08227282
-0.029117476 0.015424048 0.02562332 0.046972744 0.06250818 0.046654206 0.09037819 0.057924338
0.014968973 0.065628245 0.08706347 0.012554125 -0.018986773 0.010544682 -0.018736964 -0.0054616393
0.030033818 0.10107253 -0.06315029 0.106601946 0.035393514 0.1363479 0.078895964 0.04907076
0.006757973 0.1336079 -0.006522406 0.02478523 0.0032001452 0.083720006 0.084172755 0.008997772
-0.077758744 0.052854493 -0.00025859414 0.082247585 -0.011299189 0.09688526 -0.012343402 -0.024220524
0.061598442 0.08162735 0.0386443 0.09142415 0.078107536 -0.046725526 0.03660148 0.11389039
-0.041206192 -0.052870806 0.121470876 -0.0020327903 -0.067406364 0.018645251 0.0027191911 0.020109134
0.030233305 0.07581854 0.012678687 -0.05697735 -0.041767832 0.04863682 0.119430095 0.06631697
0.10389527 0.07287736 0.080819845 -0.027668841 0.09090073 0.01572345 0.03381309 0.080469884
0.116189554 -0.006732048 -0.002555268 -0.008142792 -0.07186318 0.022121148 0.06961516 -0.0089609185
-0.032169092 0.09402019 0.06378844 0.014370028 0.062365655 -0.011639689 0.02147633 -0.0021761053
0.0007772064 0.06890262 -0.018564722 0.12213092 -0.039849333 0.052751184 0.035105295 0.040265154
-0.027766068 0.039154906 0.0709987 0.04155468 0.05606617 0.06976261 0.093969956 0.0651004
0.10180774 0.096137516 -0.06606151 0.01957116 0.041540638 0.100578286 0.08687742 0.05436984
0.059557598 0.051627357 -0.04155879 0.058034904 0.08166199 -0.033576593 -0.028624589 -0.030126397
0.009373003 0.027856378 0.032078177 0.050777722 -0.0018486971 0.07974617 0.08736431 -0.01499614
0.10212465 0.07098312 -0.058191072 0.073525295 0.033506934 0.09639542 0.009707168 0.114982836
-0.027248507 0.009127028 0.113175645 0.11807464 0.06982882 -0.011685914 0.0069439234 0.04147026
0.05103043 0.062033534 -0.0086691165 -0.013284718 -0.079799734 -0.015459468 -0.016401367 0.09995362
0.014864215 0.0033436094 0.014875181 0.04524972 0.03494531 0.07105704 0.0016609133 0.07596912
0.019850224 -0.066859536 0.07454339 0.03893622 0.0058388608 0.1288131 -0.004971579 -0.08321162
00000000: cbd4 b73d a2df 763d de99 e13d 7ab5 32bc
00000010: cc76 b03c 17ce 72bc 63c6 f0bc 051b 63bc
00000020: 2fbc 173d 96a9 993d cdfb bb3d c901 fb3a
00000030: a172 21bc ec7e a73d 14bc 653c 9aee f83c
00000040: 3ebc 5a3d d09a fb3d df78 aa3d 9cc8 71bd
00000050: 8480 e03c 5e56 943c 097e 013e 56f0 913d
00000060: 042a 963d 4d18 b0bd 05f8 6a3d 5250 153d
00000070: 355a c93d 3ba2 b33c 2ba7 1d3d 76fd 5bbd
00000080: 875e d73d a3a7 853d 5d39 c33d 7134 943d
00000090: 2482 573d 037f 313b 1010 763d 6ab5 a0bc
000000a0: 82c3 1e3c e94e 383b 253c d73d fea5 43bd
000000b0: 77f8 ab3d a394 aebc e4bf 233d f0d0 a93d
000000c0: a048 793d 6f36 f3bc 6ae9 b23d dd9d d4bc
000000d0: 6cd0 8b3c 7ccd f13d e51f b43c c1cb 4b3c
000000e0: d8e1 683d 182b 96bb 2dad eb3d 6426 393d
000000f0: fd72 3f3d 6255 5ebc cab0 2a3c ee1a d83d
00000100: 1dba 0bbd 866a 5e3d 6deb bb3c f34c d43d
00000110: a970 85bc 179d 043e 09fb d33d 83eb b7bc
00000120: 85e8 933d 96b2 1d3d beba 7dbd aa79 893d
00000130: d6c1 c1bc 41b5 ba3c 1f1a 9d3d bebb 223d
00000140: 12f2 bebc 65ed 9a3b 3681 ed3b 8a11 7c3c
00000150: 8ff2 b53d b17a d4bb 73eb 593d a77e a83d
00000160: c687 eebc 25b5 7c3c ffe7 d13c 7e66 403d
00000170: 4a04 803d 7b18 3f3d 3318 b93d 1242 6d3d
00000180: 6c40 753c 1a68 863d 554e b23d d1af 4d3c
00000190: 268a 9bbc 9ac3 2c3c 437e 99bc 8df7 b2bb
000001a0: 7b09 f63c 1dff ce3d f054 81bd 1f52 da3d
000001b0: caf8 103d c99e 0b3e 3594 a13d 6cfe 483d
000001c0: fd71 dd3b 82d0 083e e8b9 d5bb 650a cb3c
000001d0: 87b9 513b 6575 ab3d c462 ac3d 646b 133c
000001e0: fa3f 9fbd f47d 583d eb93 87b9 6c71 a83d
000001f0: 3c20 39bc c76b c63d fb3b 4abc 1f6a c6bc
00000200: a64e 7c3d 3d2c a73d 7c49 1e3d 963c bb3d
00000210: d8f6 9f3d 4463 3fbd 6feb 153d 5d3f e93d
00000220: d3c7 28bd 0f8f 58bd b9c5 f83d 9038 05bb
00000230: 590c 8abd edbd 983c 7534 323b e9bb a43c
00000240: d6ab f73c c046 9b3d 45ba 4f3c 1561 69bd
00000250: bf14 2bbd 6737 473d c497 f43d 31d1 873d
00000260: 0bc7 d43d ba40 953d e084 a53d c4a9 e2bc
00000270: 292a ba3d 77ce 803c 987f 0a3d 65cd a43d
00000280: caf4 ed3d 8398 dcbb 4876 27bb 5869 05bc
00000290: 012d 93bd 6937 b53c 6592 8e3d d1d0 12bc
000002a0: bdc3 03bd a88d c03d 83a3 823d 4470 6b3c
000002b0: 2173 7f3d 65b4 3ebc 21ef af3c fd9c 0ebb
000002c0: 70bd 4b3a d11c 8d3d 0b15 98bc c71f fa3d
000002d0: 0e39 23bd a011 583d 92ca 0f3d 13ed 243d
000002e0: aa75 e3bc e560 203d c467 913d 3d35 2a3d
000002f0: a4a5 653d b3df 8e3d 5273 c03d 5c53 853d
00000300: 9480 d03d bfe3 c43d 424b 87bd b353 a03c
00000310: 8426 2a3d fdfb cd3d caec b13d e9b2 5e3d
00000320: abf2 733d 3577 533d 8d39 2abd 02b6 6d3d
00000330: 673e a73d 9c87 09bd 1d7e eabc a2cb f6bc
00000340: 3991 193c 0f33 e43c 6864 033d 4dfc 4f3d
00000350: fb4f f2ba f651 a33d 0fec b23d 5fb2 75bc
00000360: ba26 d13d 995f 913d c359 6ebd 6e94 963d
00000370: 913e 093d f66a c53d d00a 1f3c 1f7c eb3d
00000380: 4338 dfbc 8889 153c a2c8 e73d 1ed1 f13d
00000390: 6a02 8f3d 4776 3fbc da89 e33b b8dc 293d
000003a0: 4905 513d e016 7e3d e908 0ebc 25a8 59bc
000003b0: 0b6e a3bd b549 7dbc 295c 86bc 7cb4 cc3d
000003c0: 0989 733c 7520 5b3b 08b7 733c c557 393d
000003d0: d022 0f3d 5a86 913d 01b3 d93a b395 9b3d
000003e0: f09c a23c a7ed 88bd 34aa 983d 967b 1f3d
000003f0: ea53 bf3b 95e7 033e a1e8 a2bb db6a aabd

fc.0.weight f4 [518, 64]
-0.0049327444 -0.015872998 0.055201307 0.09984735 -0.004994402 -0.032686956 -0.09252256 -0.11737005
-0.04473595 -0.08219993 -0.008814893 -0.043633945 0.02794296 0.0549845 -0.25163427 -0.088376984
0.016511656 0.0074182046 0.05859775 0.042382617 -0.08063877 -0.06988255 0.052253425 0.0034656152
0.05690473 -0.17111938 0.063619934 0.120416015 -0.022933753 0.22758207 -0.13408516 -0.0056602126
0.014760208 0.02622179 -0.029162074 0.15783623 0.084721915 0.21146137 -0.038928196 -0.02208389
0.08196627 -0.014780199 0.22903049 -0.09488975 0.18081397 0.13911997 0.14711699 0.19521339
0.08918782 0.015285661 0.05044748 -0.07938692 0.24183135 0.061657563 0.024022294 0.13220543
-0.035486747 -0.07001649 0.03582221 0.05360513 -0.016364086 -0.107153915 0.10429643 -0.0393073
-0.00024568063 -0.021001462 -0.13318859 0.07476411 0.15781088 0.0040829577 0.11306929 0.19919573
0.15179949 0.07451113 -0.02840853 0.0386744 -0.16502644 -0.019639293 0.07481301 -0.037263226
-0.09846698 0.087462574 0.1865112 0.20907845 0.04418882 0.055140898 -0.18892635 -0.13898943
0.029501338 0.020686204 -0.08062993 -0.061144233 -0.089554556 -0.017371139 -0.09309086 -0.068270124
-0.0072073727 -0.14678425 -0.087515764 -0.08058772 0.16499184 -0.09081992 0.1315242 0.07307107
0.06827612 0.048427723 -0.00934688 0.09586527 -0.114466846 0.024547428 0.14049518 0.16148719
0.009142865 0.0017466173 0.16684411 -0.122856475 0.032533318 0.012646045 0.06656594 -0.05732411
0.1052271 0.02480638 -0.025398906 0.11778842 0.059284296 -0.01770243 -0.055634055 -0.060238324
0.024316505 -0.018498126 0.0027033265 -0.077366985 0.020080794 0.05737508 0.16178995 0.08761142
-0.018968746 -0.1679253 -0.003985379 0.12059026 -0.014501091 0.010280086 0.06301428 -0.15618558
0.14437667 0.079406716 0.02396889 -0.022318074 -0.016868312 0.13289736 -0.08502873 0.10308286
0.04790142 0.085830726 0.038517825 -0.0611633 -0.02450643 -0.077841796 -0.02172711 -0.19767801
0.051013365 0.035173975 0.19173577 -0.04782513 -0.07909044 -0.093148105 -0.0030324198 -0.017785395
0.14786267 0.0026668508 0.18121934 0.23231775 -0.07673046 0.003383925 -0.06722573 0.12535666
-0.05172728 0.03260452 0.059174724 0.14116478 0.061564915 0.062223498 0.01766052 0.009174964
0.06561257 -0.0015017161 -0.09889155 -0.15203892 0.012189421 0.1053041 0.007108012 0.051954694
-0.060199738 0.0126862405 -0.13777992 0.013247661 0.056795746 0.09654097 0.030299902 0.106672905
-0.011872202 0.05150288 0.13065147 -0.016146235 0.089811124 0.029805595 0.022825964 0.051181126
-0.08115683 0.16861252 0.051890135 0.012819391 -0.12055171 0.07667878 0.042657986 -0.02505837
-0.018873602 -0.084010616 -0.011531758 0.18408625 -0.06525907 -0.055214986 -0.086430304 -0.16364068
-0.065613955 -0.031847544 0.041315217 0.15590891 0.1370718 0.02043651 0.0009813352 -0.02972049
-0.06805241 0.006876397 0.18008634 0.1561608 -0.056177564 -0.040766656 -0.043772146 0.15091194
0.033122554 -0.07076958 0.0362264 -0.10360571 -0.03801049 -0.0017818592 0.023163488 0.06304246
0.0613765 0.08019171 0.042723123 -0.09366301 -0.08438156 -0.078072496 0.10637225 0.12510279
00000000: dca2 a1bb 1708 82bc c41a 623d c47c cc3d
00000010: 15a8 a3bb c2e2 05bd 787c bdbd b55f f0bd
00000020: 0b3d 37bd 7058 a8bd 576c 10bc 82b9 32bd
00000030: a2e8 e43c 6d37 613d 35d6 80be fefe b4bd
00000040: 7443 873c 6914 f33b 3204 703d 6599 2d3d
00000050: f025 a5bd 951e 8fbd b007 563d 601f 633b
00000060: ef14 693d eb39 2fbe 2b4b 823d ac9c f63d
00000070: 91df bbbc 460b 693e 9f4d 09be 4e79 b9bb
00000080: cdd4 713c 14cf d63c 4de5 eebc d29f 213e
00000090: af82 ad3d 5489 583e 2c73 1fbd 46e9 b4bc
000000a0: efdd a73d a628 72bc f886 6a3e 8f55 c2bd
000000b0: 4c27 393e 7775 0e3e d6a5 163e 05e6 473e
000000c0: 1ba8 b63d b670 7a3c 04a2 4e3d 9c95 a2bd
000000d0: a3a2 773e a48c 7c3d 67ca c43c dc60 073e
000000e0: 8d5a 11bd ce64 8fbd 4fba 123d 0e91 5b3d
000000f0: fa0d 86bc 8373 dbbd 5e99 d53d b100 21bd
00000100: b2ce 80b9 420b acbc 9762 08be ed1d 993d
00000110: 2d99 213e 55ca 853b df90 e73d f7f9 4b3e
00000120: 5371 1b3e 4b99 983d 01b9 e8bc 0c69 1e3d
00000130: b1fc 28be 95e2 a0bc 9037 993d 53a1 18bd
00000140: 0ea9 c9bd 941f b33d cbfc 3e3e a918 563e
00000150: 56ff 343d 6cdb 613d e975 41be 3f53 0ebe
00000160: caac f13c 1d76 a93c 4e21 a5bd 6072 7abd
00000170: 6168 b7bd eb4d 8ebc 6ca6 bebd 35d1 8bbd
00000180: d32b ecbb 9c4e 16be 773b b3bd 2d0b a5bd
00000190: 9ff3 283e cbff b9bd 48ae 063e 49a6 953d
000001a0: 5ad4 8b3d 265c 463d a823 19bc 0355 c43d
000001b0: 986d eabd b017 c93c f8dd 0f3e e65c 253e
000001c0: f5cb 153c c0ee e43a 2fd9 2a3e 2d9c fbbd
000001d0: a841 053d 5b31 4f3c b953 883d b0cc 6abd
000001e0: 4e81 d73d c036 cb3c 5e11 d0bc 0e3b f13d
000001f0: 17d4 723d b004 91bc 89e0 63bd 76bc 76bd
00000200: 6833 c73c 6289 97bc 4b2a 313b 9572 9ebd
00000210: 7a80 a43c 2202 6b3d 44ac 253e 9e6d b33d
00000220: 5864 9bbc 9cf4 2bbe c897 82bb 07f8 f63d
00000230: fc95 6dbc ce6d 283c a10d 813d 1def 1fbe
00000240: 7ad7 133e fd9f a23d 685a c43c 65d4 b6bc
00000250: 6a2f 8abc 3f16 083e 8b23 aebd 1b1d d33d
00000260: 4834 443d 05c8 af3d dec4 1d3d 5e86 7abd
00000270: b5c1 c8bc 856b 9fbd 0dfd b1bc 1b6c 4abe
00000280: 64f3 503d 9612 103d 6256 443e 49e4 43bd
00000290: 2bfa a1bd 6fc4 bebd 90bb 46bb adb2 91bc
000002a0: 5069 173e 55c6 2e3b 9091 393e b4e4 6d3e
000002b0: dc24 9dbd d7c4 5d3b a5ad 89bd 7f5d 003e
000002c0: fcdf 53bd 518c 053d 3261 723d 808d 103e
000002d0: 7e2b 7c3d 11de 7e3d cbac 903c 9752 163c
000002e0: e25f 863d 3bd5 c4ba a787 cabd 17b0 1bbe
000002f0: 23b6 473c ada9 d73d 54ea e83b 72ce 543d
00000300: 0094 76bd f3d9 4f3c 2e16 0dbe b80c 593c
00000310: a8a2 683d 46b7 c53d 8037 f83c 5377 da3d
00000320: a083 42bc aff4 523d 80c9 053e 1c45 84bc
00000330: e5ee b73d dd2a f43c 84fd ba3c 4da3 513d
00000340: 8d35 a6bd c3a8 2c3e c08a 543d 6c08 523c
00000350: d1e3 f6bd c409 9d3d 24ba 2e3d 3647 cdbc
00000360: d09c 9abc c20d acbd b3ef 3cbc 1b81 3c3e
00000370: 8ca6 85bd 1c29 62bd 5f02 b1bd 6c91 27be
00000380: 9c60 86bd 9272 02bd 253a 293d 96a6 1f3e
00000390: 8d5c 0c3e 786a a73c 25a0 803a 6378 f3bc
000003a0: 105f 8bbd 6653 e13b 8e68 383e 9ee8 1f3e
000003b0: 721a 66bd f0fa 26bd 6c4a 33bd a988 1a3e
000003c0: 84ab 073d a4ef 90bd 2262 143d 3b2f d4bd
000003d0: e3b0 1bbd 468d e9ba 5bc1 bd3c 681c 813d
000003e0: ed65 7b3d 8d3b a43d 71fe 2e3d 64d2 bfbd
000003f0: 3dd0 acbd 79e4 9fbd b2d9 d93d f21a 003e

fc.3.bias f4 [259]
0.012678814 -0.03442023 -0.004777406 -0.02687049 0.010708841 -0.03417681 -0.00021648088 -0.0134688215
-0.0062737875 -0.014049107 -0.04410185 -0.022545416 -0.009874871 -0.024912419 -0.0031653896 -0.0034242128
0.015246565 -0.016610933 -0.012472302 -0.022570591 -0.02088602 0.0125892665 0.0073973755 0.037325222
-0.0061993487 0.0028168825 -0.0062957155 0.017945703 -0.00805493 0.03353078 0.01078101 -0.011105915
0.00114508 -0.02144889 -0.016363777 -0.0032869654 -0.014936455 0.004635642 0.023465438 0.021366153
-0.030055339 -0.053268485 -0.016328791 -0.034734696 0.03962011 0.010417839 -0.00028000734 -0.021912394
-0.0022533867 -0.004466999 -0.0018836545 -0.0036149954 0.022185847 0.0115886945 0.0075488808 0.024452161
0.001077191 0.014304632 -0.0055618086 -0.008498488 -0.014837857 -0.06437029 -0.033217013 0.009427655
-0.028850911 0.030745866 0.037904598 -0.017308965 -0.029239416 -0.014368204 -0.0068975417 -0.044935584
-0.025048293 -0.026271002 -0.011038716 -0.004389321 -0.014140743 -0.021153294 -0.0136910565 0.010656569
-0.027873565 -0.00354537 0.018147163 -0.016466789 0.002239705 0.0119670145 -0.04149312 0.004502568
-0.0017522741 -0.0062950407 0.0034667684 0.030389272 -0.003114461 -0.0038990234 0.026788425 -0.021468094
-0.025746128 -0.036597326 0.009091382 0.0056364527 -0.029767452 -0.02232476 0.0013607456 -0.012761865
0.007564181 -0.019467767 -0.018164802 0.021237202 0.024201542 0.009860546 -0.03773857 0.024685392
-0.011930912 -0.00047120248 -0.012844525 0.020935975 0.011131101 -0.006022616 -0.012725889 -0.013807196
-6.5038876e-05 -0.01912483 -0.06380145 -0.013013048 0.036062688 -0.0066182627 0.015960956 0.018596523
0.0072959242 -0.005246767 -0.018022157 0.021973979 -0.025955958 0.008952779 0.04531133 -0.00017602243
0.011863369 -0.019308966 0.023290474 0.015661942 -0.010697042 -0.031504124 0.005354218 -0.026130397
-0.03353353 0.00019759816 -0.030521117 0.057989754 0.009321731 -0.0042102626 -0.0110497065 -0.0038798277
0.044389717 0.008310178 -0.0493741 0.009110757 0.019567072 0.05344995 0.006978584 0.023094878
0.011051382 0.011987117 -0.009678338 0.007294689 -0.029301796 -0.023933478 -0.006120674 -0.0069336104
-0.034639508 -0.0001858624 0.0056124376 -0.025767945 0.017297816 -0.013202303 -0.02065505 -0.044372015
-0.01280892 0.055940047 -0.022078875 0.03676927 0.0056488826 0.021640139 0.031844605 -0.015202113
0.008936267 -0.014392321 0.014111367 -0.0009923613 -0.011851757 -0.015807858 -0.01310214 -0.015098342
0.008961851 0.0031899055 0.007867357 0.021222113 -0.035973784 -0.0031455732 -0.012926911 -0.009950014
-0.0030757277 0.0074626165 0.02075665 -0.007033479 -0.023611754 0.00739836 0.034069132 -0.011636055
0.016375901 -0.032902945 0.004872593 -0.017773537 -0.0033083158 -0.014468203 -0.005990191 -0.021777982
-0.032435052 -0.009960581 0.025531167 -0.02398768 0.004565802 0.027054317 -0.0040255953 0.014112614
0.050829172 0.0041209385 0.043652408 0.046848003 -0.02288607 -0.013485635 0.0008007959 -0.009213264
-0.022446796 -0.0089740865 0.0112037845 0.020903448 0.006961033 -0.006646389 -0.029713891 -0.0044779563
-0.004512201 -0.007653566 0.012542809 -0.005830002 -0.012748165 -0.058016367 -0.011188342 -0.013165017
-0.03167014 -0.026255155 -0.026889639 -0.007588669 -0.019484809 0.002434218 -0.02700865 -0.010049121
00000000: cdba 4f3c 3afc 0cbd c98b 9cbb 801f dcbc
00000010: 2274 2f3c fcfc 0bbd 25ff 62b9 55ac 5cbc
00000020: 5894 cdbb 3a2e 66bc 24a4 34bd 2ab1 b8bc
00000030: 36ca 21bc 2115 ccbc 6d72 4fbb c268 60bb
00000040: bbcc 793c a713 88bc a058 4cbc f6e5 b8bc
00000050: 2919 abbc 3643 4e3c af65 f23b 55e2 183d
00000060: e823 cbbb 729b 383b 4a4c cebb de02 933c
00000070: d3f8 03bc 9257 093d d5a2 303c 95f5 35bc
00000080: 8216 963a 95b5 afbc 540d 86bc 216a 57bb
00000090: 08b8 74bc 95e6 973b 973a c03c 1208 af3c
000000a0: 9d36 f6bc 0e30 5abd f5c3 85bc f845 0ebd
000000b0: b248 223d 95af 2a3c f3cd 92b9 9f81 b3bc
000000c0: 8ead 13bb e75f 92bb f5e4 f6ba 8fe9 6cbb
000000d0: 18bf b53c 82de 3d3c 9a5c f73b e64f c83c
000000e0: 8830 8d3a fa5d 6a3c d53f b6bb 3e3d 0bbc
000000f0: 7c1a 73bc 92d4 83bd 900e 08bd 7376 1a3c
00000100: bf58 ecbc c1de fb3c da41 1b3d 88cb 8dbc
00000110: 8087 efbc 9e68 6bbc c604 e2bb 600e 38bd
00000120: 1432 cdbc 4936 d7bc bbdb 34bc 4bd4 8fbb
00000130: 93ae 67bc ac49 adbc 7450 60bc e498 2e3c
00000140: 1a57 e4bc 7059 68bb 5ca9 943c 5ce5 86bc
00000150: 04c8 123b 4c11 443c b1f4 29bd 478a 933b
00000160: 90ac e5ba a146 cebb b932 633b ecf2 f83c
00000170: fc1b 4cbb c286 7fbb 6673 db3c dbdd afbc
00000180: 8be9 d2bc 14e7 15bd 05f4 143c feb1 b83b
00000190: dfda f3bc 6ae2 b6bc 0c5b b23a 2417 51bc
000001a0: f3dc f73b de7a 9fbc 5ace 94bc a4f9 ad3c
000001b0: 5042 c63c 218e 213c c293 1abd 0539 ca3c
000001c0: df79 43bc ba0b f7b9 d871 52bc ec81 ab3c
000001d0: 395f 363c 5d59 c5bb 3f80 50bc 9437 62bc
000001e0: 7b65 88b8 adab 9cbc 56aa 82bd ae34 55bc
000001f0: 78b6 133d 03de d8bb 8dc0 823c bc57 983c
00000200: a612 ef3b 12ed abbb 34a3 93bc c602 b43c
00000210: 97a1 d4bc adae 123c 6098 393d a992 38b9
00000220: 935e 423c d62d 9ebc aacb be3c 794d 803c
00000230: a542 2fbc 780a 01bd 7072 af3b 6a0f d6bc
00000240: 745a 09bd 5a32 4f39 6c07 fabc aa86 6d3d
00000250: 2cba 183c 3ef6 89bb d409 35bc b544 7ebb
00000260: fed1 353d 6a27 083c 7f3c 4abd 4945 153c
00000270: 204b a03c 56ee 5a3d 9bac e43b 7831 bd3c
00000280: db10 353c 9d65 443c e491 1ebc 4908 ef3b
00000290: 520a f0bc 2410 c4bc ef8f c8bb 5733 e3bb
000002a0: 28e2 0dbd 0fe4 42b9 8ae8 b73b 4c17 d3bc
000002b0: 26b4 8d3c 794e 58bc c834 a9bc 6ebf 35bd
000002c0: 81dc 51bc 6421 653d c2de b4bc 609b 163d
000002d0: 431a b93b a946 b13c 7d6f 023d 4912 79bc
000002e0: 6c69 123c c5cd 6bbc 5d33 673c 1f12 82ba
000002f0: df2d 42bc 7b7f 81bc 5caa 56bc 095f 77bc
00000300: bad4 123c bc0d 513b 16e6 003c ffd9 ad3c
00000310: 3f59 13bd f625 4ebb 65cb 53bc 6205 23bc
00000320: 2692 49bb f788 f43b da09 aa3c 1979 e6bb
00000330: 706d c1bc f16d f23b 138c 0b3d 27a5 3ebc
00000340: c126 863c 3dc5 06bd 46aa 9f3b cf99 91bc
00000350: 54d0 58bb 0b0c 6dbc 5d49 c4bb bd67 b2bc
00000360: 9eda 04bd b431 23bc bd26 d13c d081 c4bc
00000370: b99c 953b 04a1 dd3c 24e9 83bb 9838 673c
00000380: 4032 503d f008 873b decc 323d b1e3 3f3d
00000390: 917b bbbc daf2 5cbc 81ec 513a 3bf3 16bc
000003a0: 58e2 b7bc 0c08 13bc 1490 373c b53d ab3c
000003b0: 6119 e43b f4c9 d9bb 8c6a f3bc d2bb 92bb
000003c0: 16db 93bb c4ca fabb 5b80 4d3c 9a09 bfbb
000003d0: aedd 50bc 92a2 6dbd 4f4f 37bc 15b2 57bc
000003e0: 8cb8 01bd 0d15 d7bc a947 dcbc 5faa f8bb
000003f0: 9b9e 9fbc 6787 1f3b 3f41 ddbc 12a5 24bc

fc.3.weight f4 [259, 518]
-0.024851127 0.0037378115 0.0037297306 -0.028669007 -0.062893264 0.026857253 -0.050948992 0.059551775
-0.026986685 0.068055876 0.028573712 0.03460458 0.06816905 0.023925819 -0.05977023 -0.035977744
0.008322091 0.06103496 -0.053572267 -0.038395654 -0.059835944 -0.049510185 -0.033791382 0.047079485
0.064995036 0.023505306 -0.04840654 -0.04298178 0.015414375 0.015868085 0.040112596 -0.051434156
-0.02298452 0.009710173 0.028732533 0.025609385 0.014750469 -0.0016669091 0.022436516 -0.043681312
0.055195313 0.04476259 -0.02621234 0.045000594 -0.020556854 -0.034699157 -0.0680478 0.0059983963
0.02975231 -0.03107646 -0.114121996 0.058060586 0.06173335 -0.065239765 -0.05267033 -0.031929273
0.046883374 0.07609228 0.06608288 0.026176624 0.064889625 -0.036413573 0.060179677 -0.053450752
-0.04806383 0.035476327 -0.037362967 0.058985066 -0.03853105 -0.05739547 0.053359695 -0.019595444
0.01150988 -0.03978439 -0.033770595 -0.019648692 -0.035339158 -0.022211714 -0.033318795 0.02859232
-0.06799296 -0.04063989 0.03062084 -0.04961602 0.033574715 0.027921988 -0.0059970324 -0.038903818
-0.0054306616 -0.056237325 0.03979361 -0.04727839 0.0027026709 0.07088023 0.04729691 -0.020213736
0.056464277 -0.017756982 -0.027389918 -0.0078108083 0.038287368 0.04347571 0.05117397 -0.0571753
0.009128286 0.013892987 0.019020895 -0.024803681 -0.0030647109 0.05471537 -0.051345486 0.044085458
0.05801373 -0.046577778 0.060583323 0.04194265 0.047487162 -0.03325403 0.010148915 0.064778216
0.012564986 -0.015399889 0.00548827 0.06450596 0.008076101 -0.0282012 0.014950812 0.028661013
0.051724914 -0.044684798 0.055034917 -0.007586948 0.034022633 0.05427847 0.06421301 0.049662717
0.021537501 -0.036875784 0.068781726 0.02676649 0.020315196 0.014676481 0.04491453 0.0071540456
0.018514233 -0.042456523 -0.0374585 0.02385772 -0.019089838 -0.03307195 0.061514247 -0.039931186
0.013732373 -0.03759274 0.06495963 -0.0022688396 0.03088429 -0.026013909 0.018944856 -0.02950004
0.066907756 -0.060053803 -0.0060018576 0.03926238 -0.04964227 -0.056677155 0.046504866 -0.10025193
0.03871486 -0.014038694 0.016874565 -0.035329845 0.016393526 0.047215372 -0.011010768 0.04290328
0.057962563 -0.04104318 -0.037109084 -0.045207474 -0.005471696 -0.005152221 -0.015742416 0.034475442
0.008580063 -0.016018858 -0.006604861 -0.04407136 0.036482695 0.0012235554 0.008534657 0.04533862
0.018788034 0.055486426 -0.007681068 -0.01899082 -0.04996709 -0.022869814 0.01248925 0.03248447
-0.00046413412 -0.034401447 -0.036480393 0.059052713 -0.056815837 -0.056941062 -0.027704751 -0.019970577
-0.020279238 -0.025817618 0.05709981 -0.03373417 -0.049127612 -0.03603554 -0.006156553 0.023598418
0.028335059 -0.02856372 -0.03629838 -0.03472984 0.017188538 -0.086809315 0.03382538 -0.05861948
-0.07128839 -0.07393021 -0.029567687 -0.05848713 -0.032353505 -0.037648663 0.026594864 0.042684853
-0.030860083 0.030885143 -0.0757474 -0.030484727 -0.040253375 0.00082168437 0.033460565 -0.012345643
0.027150769 -0.033159494 -0.048700348 -0.0269736 0.0006383551 0.062181316 -0.024730293 -0.02817821
-0.009399741 0.0540313 -0.005339249 -0.047116075 0.0069139386 -0.007573182 -0.02311092 0.06832082
00000000: 9794 cbbc 12f6 743b 7f6e 743b 44db eabc
00000010: 2fce 80bd be03 dc3c e4af 50bd 90ec 733d
00000020: 2e13 ddbc e160 8b3d 6b13 ea3c 88bd 0d3d
00000030: 379c 8b3d 1400 c43c a1d1 74bd 665d 13bd
00000040: 6159 083c cbff 793d 986e 5bbd c344 1dbd
00000050: 8916 75bd 31cb 4abd d568 0abd 6bd6 403d
00000060: 1e1c 853d 338e c03c f045 46bd aa0d 30bd
00000070: 938c 7c3c c9fd 813c 1b4d 243d 9fac 52bd
00000080: 084a bcbc 6b17 1f3c 7d60 eb3c c6ca d13c
00000090: f3ab 713c 307c daba c9cc b73c 2deb 32bd
000000a0: 7b14 623d fa58 373d 43bb d6bc 8b52 383d
000000b0: d966 a8bc b420 0ebd a55c 8bbd 328e c43b
000000c0: 1ebb f33c 0f94 febc cbb8 e9bd f0d0 6d3d
000000d0: 1cdc 7c3d 6d9c 85bd d8bc 57bd 45c8 02bd
000000e0: c808 403d 45d6 9b3d 7656 873d 5c70 d63c
000000f0: dae4 843d 6626 15bd f77e 763d 2def 5abd
00000100: 94de 44bd a04f 113d e909 19bd 539a 713d
00000110: bcd2 1dbd 8317 6bbd b28f 5a3d a086 a0bc
00000120: f093 3c3c f5f4 22bd 0953 0abd 4bf6 a0bc
00000130: cbbf 10bd 57f5 b5bc 4a79 08bd 713a ea3c
00000140: e53f 8bbd 0376 26bd 8ed8 fa3c 2b3a 4bbd
00000150: a485 093d a7bc e43c c182 c4bb 9c59 1fbd
00000160: b1f3 b1bb 1c59 66bd a0fe 223d fca6 41bd
00000170: 4b1f 313b a729 913d 68ba 413d 4797 a5bc
00000180: 1647 673d 1777 91bc d260 e0bc cff1 ffbb
00000190: 37d3 1c3d 9613 323d cc9b 513d a630 6abd
000001a0: ce8e 153c 699f 633c b5d1 9b3c 1731 cbbc
000001b0: 51d9 48bb 391d 603d a54f 52bd f492 343d
000001c0: ce9f 6d3d 57c8 3ebd 3826 783d 0ecc 2b3d
000001d0: e681 423d 6135 08bd a347 263c 71aa 843d
000001e0: 5fdd 4d3c d14f 7cbc f2d6 b33b b31b 843d
000001f0: 9f51 043c 3406 e7bc 40f4 743c 80ca ea3c
00000200: 81dd 533d 6807 37bd 4b6c 613d ef9b f8bb
00000210: 515b 0b3d 1a53 5e3d 1c82 833d 226b 4b3d
00000220: 6a6f b03c 100b 17bd 6fdd 8c3d 6645 db3c
00000230: 0e6c a63c 9f75 703c 4cf8 373d 7c6c ea3b
00000240: 29ab 973c e4e6 2dbd 166e 19bd 4471 c33c
00000250: 4b62 9cbc 7476 07bd 5df6 7b3d e28e 23bd
00000260: bffd 603c d8fa 19bd 8e09 853d d0b0 14bb
00000270: 0d01 fd3c 1f1b d5bc 3e32 9b3c 11aa f1bc
00000280: ef06 893d fafa 75bd 3bab c4bb 97d1 203d
00000290: b155 4bbd 4e26 68bd e37b 3e3d e250 cdbd
000002a0: 7993 1e3d 8d02 66bc 873c 8a3c 07b6 10bd
000002b0: b74b 863c e864 413d 8266 34bc 5abb 2f3d
000002c0: 276a 6d3d e51c 28bd b2ff 17bd 792b 39bd
000002d0: ea4b b3bb f6d3 a8bb 3df6 80bc 1f36 0d3d
000002e0: 6493 0c3c fb39 83bc 976d d8bb 2c84 34bd
000002f0: e16e 153d b55f a03a f2d4 0b3c fdb4 393d
00000300: 5de9 993c bc45 633d 78b1 fbbb a392 9bbc
00000310: 4baa 4cbd 7a59 bbbc b69f 4c3c 700e 053d
00000320: 0757 f3b9 88e8 0cbd 776c 15bd 42e1 713d
00000330: b9b7 68bd 083b 69bd 13f5 e2bc 5699 a3bc
00000340: a520 a6bc 787f d3bc 7ee1 693d d72c 0abd
00000350: 093a 49bd 019a 13bd e9bc c9bb 7851 c13c
00000360: ed1e e83c 76fe e9bc 9cad 14bd e040 0ebd
00000370: face 8c3c 15c9 b1bd 7b8c 0a3d fb1a 70bd
00000380: a6ff 91bd b968 97bd ef37 f2bc 3390 6fbd
00000390: 1c85 04bd 7c35 1abd 79dd d93c 50d6 2e3d
000003a0: 49ce fcbc d702 fd3c 7421 9bbd 1bbb f9bc
000003b0: b9e0 24bd 4e66 573a f20d 093d 6145 4abc
000003c0: 4a6b de3c 40d2 07bd 047a 47bd bdf7 dcbc
000003d0: 4957 273a d6b1 7e3d 2f97 cabc fdd5 e6bc
000003e0: 5f01 1abc ed4f 5d3d def4 aebb c9fc 40bd
000003f0: 528e e23b 7528 f8bb 1d53 bdbc c9eb 8b3d
