inventory/ark_material.onnx (onnx, 481867 bytes, 8 tensors)

35 f4 [32, 3, 5, 5]
0	0xbdfb51b8	-0.12271446
1	0x3f79d111	0.97584635
2	0x3f2a143c	0.66437125
3	0xbf76deda	-0.96433794
4	0x3f414a5e	0.755041
5	0x3f5b330a	0.85624754
6	0x3f84e95d	1.0383717
7	0x3f211fcf	0.6293916
8	0x3e157487	0.14595233
9	0xbe912dbe	-0.2835521
10	0x3f5636ed	0.8367756
11	0x3ef0f118	0.4705894
12	0x3ebe6d15	0.37192598
13	0x3efe97c7	0.49725172
14	0xbe472126	-0.19446239
15	0x3f5a1686	0.8519062
16	0xbf4d903d	-0.80298215
17	0xbf083927	-0.5321221
18	0x3db9f78c	0.09080419
19	0xbf2dcccd	-0.67890626
20	0xbf8fae83	-1.1225132
21	0x3e109466	0.1411911
22	0x3f7463ed	0.95464975
23	0xbf07dc6b	-0.53070706
24	0x3f3715c9	0.71517617
25	0xbf4d4be8	-0.8019395
26	0xbf5f2f05	-0.8718112
27	0xbf463eba	-0.77439463
28	0xbeabf668	-0.3358643
29	0x3d8effdd	0.06982396
30	0x3ebcd93e	0.36884493
31	0x3ec5193c	0.38495815
32	0xbf175763	-0.59117717
33	0xbf451349	-0.7698255
34	0xbf81bb97	-1.0135373
35	0xbebb7381	-0.3661156
36	0xbf240509	-0.64070183
37	0xbeb73ab8	-0.35786986
38	0xbec6990c	-0.3878864
39	0x3f2764b0	0.6538801
40	0xbeae4190	-0.34034395
41	0xbe5a7be1	-0.21336319
42	0x3f18e136	0.59718645
43	0x3dfb225e	0.122624144
44	0x3f707ae0	0.9393749
45	0xbf11bb70	-0.5692663
46	0xbf3ba41a	-0.73297274
47	0xbe359e7c	-0.17736238
48	0xbed8797e	-0.4228019
49	0xbf484e39	-0.7824436
50	0x3d37c380	0.044864178
51	0x3f6bb1e2	0.920683
52	0x3f254527	0.64558643
53	0xbf5bb402	-0.85821545
54	0xbe45b917	-0.19308887
55	0x3eca8c4c	0.39560163
56	0x3e783225	0.24237879
57	0x3f688d42	0.9084054
58	0xbf05279c	-0.52013564
59	0xbef84688	-0.4849131
60	0x3e4da22f	0.200814
61	0xbef63ca0	-0.48093128
62	0xbf4c41e8	-0.79788065
63	0x3f59a381	0.8501511
64	0x3f38b654	0.7215321
65	0xbf844212	-1.0332663
66	0x3eacb4ba	0.33731633
67	0x3f489493	0.78351706
68	0x3eeaecde	0.4588384
69	0x3f1d17f7	0.6136469
70	0x3ec6eebe	0.3885402
71	0xbe4054a9	-0.18782295
72	0x3f0833a8	0.5320382
73	0xbf085f79	-0.5327068
74	0x3f4500a6	0.76954114
75	0x3e90db94	0.28292525
76	0xbee29af4	-0.44258845
77	0xbebad2f7	-0.36489078
78	0x3e1b5822	0.15170339
79	0xbe764c14	-0.24052459
80	0xbea52ead	-0.32262173
81	0xbef2a549	-0.47391728
82	0xbe991909	-0.29901913
83	0xbed24d58	-0.41074634
84	0x3ec4acae	0.38412994
85	0x3ae58e52	0.0017513728
86	0x3ee6d093	0.45081005
87	0x3d727095	0.059189398
88	0x3ebaae7e	0.36461252
89	0xbea815c8	-0.32829118
90	0xbebfc3af	-0.37453982
91	0xbed45a59	-0.4147518
92	0xbf0dd63f	-0.5540504
93	0x3e96b064	0.2943145
94	0x3ee8bd4d	0.45456925
95	0x3e45c3db	0.19312994
96	0x3e18c99d	0.1492066
97	0x3ec3ddc3	0.38255128
98	0xbe85b958	-0.2611797
99	0x3eb1b9ae	0.34711975
100	0xbe93bc5a	-0.28854638
101	0x3ea6c37d	0.3257102
102	0x3f07a98d	0.5299309
103	0xbdf62656	-0.12019031
104	0x3d776e17	0.060407724
105	0x3f320508	0.6953893
106	0x3cec2c81	0.028829815
107	0xbee85b10	-0.45381975
108	0x3ce47f2a	0.027892668
109	0x3ecbd99f	0.3981447
110	0x3da139fb	0.07872387
111	0x3f07cd0d	0.5304726
112	0xbefcb775	-0.49358717
113	0x3f109207	0.5647282
114	0x3df3c0b2	0.11901988
115	0xbf109402	-0.5647584
116	0xbddfc1b4	-0.10925618
117	0x3e1d0598	0.15334165
118	0xbd7dd436	-0.06196996
119	0x3e2501a0	0.16113901
120	0xbefeb7c8	-0.4974959
121	0xbe442c6c	-0.1915757
122	0x3dbc368d	0.09190092
123	0x3b979ee7	0.004627097
124	0xbd880946	-0.06642394
125	0x3b652e24	0.003497013
126	0xbeeaec4e	-0.4588341
127	0x3e7149f0	0.23563361
128	0xbd423221	-0.047411088
129	0xbed06df3	-0.40708885
130	0xbe3bd2d8	-0.1834215
131	0x3af9106c	0.0019002086
132	0xbd40a749	-0.047034536
133	0xbebc92af	-0.3683066
134	0xbecaf40f	-0.39639327
135	0xbdbd1458	-0.09232396
136	0xbf14dd3b	-0.5815007
137	0xbdbaa9e0	-0.09114432
138	0xbe5a322f	-0.21308206
139	0x3ef4b133	0.47791442
140	0xbea7baa5	-0.32759586
141	0x3e9e7150	0.30945826
142	0xbee2e000	-0.44311523
143	0xbe90447e	-0.28177255
144	0x3cfb8947	0.030705107
145	0xbd7a7afb	-0.06115244
146	0xbe849ebd	-0.25902358
147	0xbedd2f14	-0.4319998
148	0x3e1f4d54	0.15556842
149	0xbe3154b0	-0.17317462
150	0xbf29e9f8	-0.66372633
151	0x3ee37c27	0.44430658
152	0x3c87d404	0.01658059
153	0xbeadefe9	-0.339721
154	0xbdc5711a	-0.09640713
155	0x3e41f772	0.18942049
156	0x3f040593	0.51571006
157	0xbead7dd9	-0.33885077
158	0xbe250460	-0.1611495
159	0x3f171d88	0.59029436
160	0x3f335dc0	0.70064926
161	0x3f121095	0.5705655
162	0x3f3ff6ba	0.7498585
163	0xbea87aca	-0.3290618
164	0x3da91734	0.08256379
165	0xbd810f6a	-0.06301768
166	0x3f499ddd	0.78756505
167	0x3cd400fa	0.025879372
168	0xbf70b3d8	-0.9402442
169	0xbf4d16d8	-0.8011298
170	0x3ea3363b	0.31877312
171	0x3f0ea0a9	0.557139
172	0xbda72b27	-0.081625275
173	0xbf738b8b	-0.951348
174	0x3eb5b446	0.354891
175	0x3f5ffc56	0.8749441
176	0xbe202f59	-0.15643062
177	0x3f2ed09b	0.68287057
178	0x3ee0c6bf	0.4390163
179	0xbf605fc7	-0.87646145
180	0x3f54ec16	0.8317274
181	0x3ed9544c	0.42447126
182	0xbf073cdd	-0.52827245
183	0xbf4718c2	-0.7777215
184	0xbf5fdddb	-0.874479
185	0x3f45f135	0.7732118
186	0xbf17b6dc	-0.59263396
187	0x3ed615ad	0.41813412
188	0xbf032a8c	-0.51236796
189	0xbf3c6a9a	-0.7360016
190	0xbefc8385	-0.4931909
191	0x3f4bb14b	0.795674
192	0xbf253e0d	-0.64547807
193	0x3f3d45a5	0.73934394
194	0xbeec2375	-0.46120802
195	0xbed664d6	-0.41873807
196	0x3d2bc5ff	0.04193687
197	0xbe0ae486	-0.13563737
198	0x3f0aa59c	0.5415895
199	0xbf113ced	-0.5673359
200	0x3e5ad9b3	0.21372108
201	0xbf365d19	-0.71235806
202	0x3e8c67b3	0.27422866
203	0x3eaf4fb1	0.34240487
204	0xbf111d66	-0.56685483
205	0xbf2bd6d3	-0.6712467
206	0x3ef68c7a	0.4815405
207	0x3e945d50	0.28977442
208	0x3e977a2d	0.295854
209	0xbe119272	-0.1421602
210	0x3ed5a91c	0.41730583
211	0xbc4102ac	-0.011780422
212	0xbf496557	-0.7867026
213	0x3d744cf5	0.059643704
214	0x3f174f98	0.59105825
215	0xbe743617	-0.23848759
216	0xbe43afa6	-0.19109973
217	0xbe2403a5	-0.16017015
218	0xbe0e594c	-0.13901252
219	0xbecb5869	-0.3971589
220	0xbf03954a	-0.5139967
221	0xbe707293	-0.23481207
222	0x3e842721	0.25811103
223	0xbf479249	-0.7795759
224	0x3ebcac93	0.36850414
225	0x3f1c528f	0.61063474
226	0x3f05d10d	0.5227211
227	0x3ef7a817	0.4837043
228	0x3d62df98	0.055389017
229	0x3f153e8c	0.58298564
230	0xbea0f00c	-0.3143314
231	0x3e94370a	0.2894824
232	0x3edf11ce	0.4356827
233	0x3ee0e45a	0.43924218
234	0x3dacbbfc	0.08434293
235	0x3ee4f27c	0.4471625
236	0xbea41089	-0.32043865
237	0xbcc84c70	-0.02445051
238	0x3ef5c0a9	0.4799855
239	0x3d803a50	0.06261122
240	0x3da46c0d	0.080284216
241	0xbdc137a0	-0.09434438
242	0xbe0d0321	-0.13770725
243	0xbcf0a3ef	-0.029375045
244	0x3e946d73	0.28989753
245	0x3f057b8e	0.52141654
246	0x3ee17668	0.4403565
247	0xbe8ed489	-0.27896526
248	0x3eadc1c5	0.33936897
249	0xbe8cabd6	-0.2747485
250	0x3dd16dfc	0.10226056
251	0xbee5a5e6	-0.44853133
252	0x3e58279b	0.21108858
253	0xbf0388da	-0.51380694
254	0x3e89b646	0.26896876
255	0xbcc6c181	-0.024262192

36 f4 [32]
0	0xbf11dfd8	-0.56982183
1	0x3fcf09ee	1.6174905
2	0x3f85fd54	1.0467935
3	0xbfa614d2	-1.2975104
4	0xbfc10256	-1.5078838
5	0x3f9200fd	1.1406552
6	0xbfdaed64	-1.7103696
7	0xbfba284d	-1.4543549
8	0x3da4ac37	0.0804066
9	0x3f248f03	0.6428072
10	0x3ed0300f	0.40661666
11	0xbfedc322	-1.8575175
12	0x3e83d717	0.25750038
13	0xbf2ad6ac	-0.66733813
14	0x3ff3e524	1.9054303
15	0x3fdff4a3	1.7496532
16	0x3f8ae86e	1.0852182
17	0x3f03aa35	0.5143159
18	0x3eaef603	0.34172067
19	0x3cf7c102	0.0302434
20	0xbe8d8d82	-0.27647024
21	0xbfeeb737	-1.8649663
22	0xbe8950b9	-0.268194
23	0x3fc91818	1.5710478
24	0xbee1f929	-0.44135407
25	0xbf57a585	-0.8423694
26	0x3eaf3e57	0.3422725
27	0x3e89af03	0.26891336
28	0xbfd23b53	-1.6424354
29	0x3fb18898	1.386981
30	0x3ffe448e	1.9864671
31	0x3eb2ad45	0.3489782

38 f4 [32, 32, 3, 3]
0	0x3ee55afd	0.4479598
1	0xbe2edf72	-0.17077425
2	0xbe9c29f7	-0.30500767
3	0xbd184f5d	-0.03718506
4	0xbe8c6552	-0.2742105
5	0xbe97ce4e	-0.29649585
6	0xbec9f06f	-0.3944125
7	0x3d8ebebc	0.069699734
8	0x3e4258aa	0.18979135
9	0xbe303dd1	-0.17211081
10	0xbe900417	-0.2812812
11	0x3e7b23b1	0.24525334
12	0xbeb9c3b3	-0.3628212
13	0xbf04cdf0	-0.51876736
14	0x3db25ab6	0.08708708
15	0x3e028b41	0.12748434
16	0x3e5e5879	0.21713437
17	0x3e2ffed6	0.17187056
18	0x3e28d605	0.16487892
19	0xbd08a2ac	-0.03335826
20	0x3dfc7fff	0.12329101
21	0xbf107789	-0.56432396
22	0xbe586bc6	-0.21134862
23	0x3e5a2805	0.21304329
24	0x3e6a014a	0.22852054
25	0x3e120a35	0.14261706
26	0x3d2a278f	0.041541632
27	0xbef91baf	-0.48653933
28	0x3de1aade	0.110189185
29	0x3e504a97	0.20340954
30	0x3eb028ce	0.34406132
31	0x3d509718	0.050925344
32	0x3c9045a9	0.017611342
33	0x3ecf5f20	0.40502262
34	0xbeacb103	-0.337288
35	0xbcbcab9d	-0.02303105
36	0x3e914ab8	0.28377318
37	0xbf0ab2ec	-0.54179263
38	0x3d4e41d3	0.050355744
39	0xbe4d74b9	-0.20064057
40	0x3e4c9c25	0.1998144
41	0x3d2ad384	0.041705623
42	0x3c5a9d4d	0.0133431675
43	0xbe072bc5	-0.1320029
44	0xbd8d1c56	-0.0689017
45	0x3e113e33	0.14183883
46	0xbe511c81	-0.2042103
47	0x3e9b01d4	0.30274832
48	0xbe3040e2	-0.17212251
49	0xbdefc031	-0.117065795
50	0xbebf454c	-0.37357557
51	0xbdd82be2	-0.10555245
52	0x3ec5d295	0.38637224
53	0xbea467bc	-0.32110393
54	0xbe7dd208	-0.24787152
55	0xbe97d5c4	-0.29655278
56	0xbd9ffad1	-0.07811511
57	0x3e9a0bae	0.30087036
58	0x3e3ab722	0.18233922
59	0x3e0392ac	0.1284892
60	0xbe97ba42	-0.2963429
61	0xbe55d1c9	-0.20880808
62	0xbe777585	-0.24165924
63	0x3e94155e	0.28922552
64	0x3a7b4fcd	0.00095867814
65	0x3e10ebf0	0.14152503
66	0xbf11220b	-0.5669257
67	0xbe642018	-0.22277868
68	0x3e88fce4	0.2675544
69	0x3e85e5a7	0.26151773
70	0x3e24379b	0.16036837
71	0x3ea0e159	0.31421927
72	0x3e3b4f75	0.18292029
73	0x3e90005d	0.28125277
74	0xbf179c30	-0.592227
75	0x3e1ef629	0.1552359
76	0xbdea468f	-0.11439239
77	0x3ee2dfad	0.44311276
78	0x3cec186e	0.028820243
79	0x3d91ca51	0.07118667
80	0xbda70629	-0.08155472
81	0x3ebb0a75	0.36531416
82	0x3d6d9125	0.05799975
83	0xbe0bea2f	-0.13663553
84	0x3ed82c7e	0.42221445
85	0x3e8e2642	0.27763563
86	0x3f07ad88	0.5299916
87	0x3eb1006c	0.34570634
88	0x3e675d1a	0.22594109
89	0xbe98c223	-0.29835615
90	0xbe98c0f9	-0.29834726
91	0x3e85d578	0.26139426
92	0x3cb531f6	0.02211855
93	0x3dd78e2c	0.10525164
94	0x3eb697fd	0.35662833
95	0xbc92d6d9	-0.017924713
96	0x3df19e5d	0.117977835
97	0xbe43bf23	-0.19115882
98	0xbe723207	-0.23651896
99	0x3d025404	0.031818405
100	0x3e7cff71	0.24706818
101	0xbcffe1fb	-0.031235686
102	0x3dbf2a8a	0.093342856
103	0x3e993773	0.29925117
104	0x3ea83217	0.32850716
105	0xbddecf2e	-0.1087936
106	0xbec7d9b1	-0.39033273
107	0xbe09c907	-0.13455592
108	0xbe90d70a	-0.28289062
109	0x3e3f354a	0.18672672
110	0x3cd8144c	0.026376866
111	0x3d8d79cd	0.06907997
112	0xbeb5019a	-0.35352784
113	0x3e46af9b	0.19402926
114	0x3eab1c15	0.33419862
115	0xbe9f649e	-0.31131452
116	0xbdaef1c0	-0.08542204
117	0xbdf2186b	-0.118210636
118	0x3e865e84	0.26243985
119	0xbe660a4c	-0.22464865
120	0x3dbae00d	0.091247655
121	0xbea6f1e6	-0.3260643
122	0xbe27e6a2	-0.16396573
123	0xbe357091	-0.17718722
124	0xbe853998	-0.26020503
125	0x3ebbdbf8	0.3669126
126	0x3e3ce0df	0.18445157
127	0x3eb5ab37	0.3548219
128	0x3ea3ca16	0.31990117
129	0xbd9c33b1	-0.07627047
130	0xbcd007af	-0.025394289
131	0x3eb28c93	0.34872875
132	0x3e221c38	0.15831077
133	0xbee32705	-0.44365707
134	0x3c048e7b	0.008090611
135	0xbd0539da	-0.032525875
136	0xbe5773f3	-0.21040325
137	0xbeb4b44c	-0.35293806
138	0xbecce937	-0.4002168
139	0xbe93a23b	-0.2883471
140	0x3eb81317	0.35952064
141	0x3e7aa90c	0.24478549
142	0x3e98667d	0.29765692
143	0xbe47b07e	-0.1950092
144	0xbeb76c45	-0.3582479
145	0xbdca0fee	-0.098663196
146	0x3ea9688b	0.33087572
147	0x3dd6c72c	0.10487208
148	0xbe10ebf2	-0.14152506
149	0x3cd6fa49	0.026242392
150	0x3e5436f8	0.20724094
151	0x3e617725	0.22018106
152	0xbd9bcd93	-0.076075695
153	0x3e423bd6	0.18968138
154	0x3ef88968	0.48542333
155	0xbee09381	-0.43862537
156	0xbdd13748	-0.10215622
157	0x3e12b00d	0.1432497
158	0xbe1de79b	-0.15420382
159	0xbef1434a	-0.4712165
160	0xbd12cfeb	-0.035842817
161	0x3d99b411	0.07505048
162	0xbd7523e4	-0.05984868
163	0xbe07810d	-0.13232823
164	0x3e9edea0	0.31029224
165	0xbe927b49	-0.28609684
166	0x3e98a1c5	0.2981092
167	0x3f131eb9	0.57468754
168	0xbe7447da	-0.23855534
169	0x3e9c55a6	0.30534095
170	0x3e3f2efc	0.18670267
171	0x3e8a6e46	0.27037257
172	0x3e869c57	0.26291153
173	0xbe49b510	-0.19697976
174	0xbcf9f1eb	-0.030510863
175	0x3e73dd59	0.23814906
176	0xbdb5285b	-0.08845588
177	0x3e8fcb30	0.28084707
178	0xbe8373fb	-0.25674424
179	0xbe876d75	-0.26450697
180	0xbedb7fe3	-0.42871007
181	0xbee64c23	-0.44979963
182	0x3e088751	0.13332869
183	0x3e2cf7bc	0.16891378
184	0x3e966595	0.29374376
185	0xbc96b104	-0.018394955
186	0xbe773ed4	-0.24145061
187	0x3f133bd7	0.57513183
188	0xbd2d4f6b	-0.042312067
189	0x3e29a2e7	0.16566049
190	0xbdc68ffc	-0.096954316
191	0xbeaaf593	-0.33390483
192	0x3e66fa52	0.22556427
193	0xbeb99d64	-0.36252892
194	0xbeff1192	-0.49818093
195	0xbe871f96	-0.26391286
196	0x3db00994	0.08595577
197	0xbe2b2906	-0.16714868
198	0x3ea2a383	0.31765375
199	0x3e6ef24d	0.23334618
200	0x3db99ad1	0.09062732
201	0xbeea44a2	-0.45755488
202	0xbe80cded	-0.2515711
203	0xbc832f39	-0.016013728
204	0x3e34a838	0.17642295
205	0xbe8b8df3	-0.27256736
206	0xbe7429cc	-0.23844069
207	0x3d9632f7	0.073339395
208	0xbc1ff38e	-0.009762658
209	0xbee4c814	-0.44683897
210	0x3ddc972f	0.107710235
211	0x3e1fc0c4	0.15600878
212	0xbe4565b5	-0.1927708
213	0x3ddb7b28	0.107168496
214	0x3d065a1b	0.032800775
215	0xbbe0c694	-0.00685961
216	0xbee79ec4	-0.45238316
217	0xbdc6e056	-0.097107574
218	0x3cdd0ad5	0.026982704
219	0x3e7fb22b	0.2497031
220	0x3f06b96e	0.52626693
221	0x3f084ad4	0.5323918
222	0xbe8619cb	-0.26191553
223	0x3f058872	0.52161324
224	0x3ee3b9aa	0.44477588
225	0x3e9245bb	0.28568825
226	0xbc6ba972	-0.014383661
227	0xbefc97e5	-0.49334636
228	0xbe1ab89b	-0.15109484
229	0x3a90af4f	0.0011038574
230	0xbeae8b43	-0.34090623
231	0xbdc00693	-0.09376254
232	0xbe9d446b	-0.3071626
233	0x3d4101ec	0.047120973
234	0xbe33df90	-0.17565751
235	0xbe84a39f	-0.25906083
236	0x3de1d456	0.11026828
237	0xbda73d3b	-0.08165976
238	0x3de5a853	0.11213746
239	0xbd2ed6c5	-0.04268529
240	0xbdefa604	-0.11701587
241	0xbeb7167e	-0.35759348
242	0x3d3be36a	0.045871176
243	0x3e4eeb4b	0.20206945
244	0x3eb2e1dd	0.34937945
245	0xbcc63abc	-0.024197929
246	0x3f0e49a1	0.555811
247	0x3f1233b4	0.5711014
248	0x3eecbebf	0.46239278
249	0x3e340b4a	0.17582431
250	0x3f0d6517	0.55232376
251	0x3e03d88a	0.12875572
252	0x3eaf3159	0.34217337
253	0xbd26e8df	-0.040749427
254	0xbe4451f3	-0.19171886
255	0x3d49560d	0.04915433

39 f4 [32]
0	0xbc765790	-0.015035525
1	0x3ff32bd9	1.8997756
2	0xbff54575	-1.9161822
3	0x3f8bb23b	1.0913767
4	0x3e84ca23	0.25935468
5	0xbfc6a633	-1.551947
6	0xbe884246	-0.26613063
7	0x3fc4dc4a	1.5379727
8	0x3e313894	0.17306739
9	0xc028046d	-2.6252701
10	0x3fa0fd1e	1.2577245
11	0x3f32fd01	0.69917303
12	0x3f908ab2	1.1292326
13	0xbe2c50d4	-0.16827708
14	0x407ac15f	3.9180524
15	0x3fb28709	1.394746
16	0xbf1bf292	-0.6091701
17	0xbde6210c	-0.11236772
18	0xbfd456e1	-1.6589013
19	0xbf912436	-1.1339176
20	0xbf3b6d0e	-0.7321328
21	0x3dd2cfb6	0.10293524
22	0x3e043772	0.12911776
23	0x3d9413fb	0.072303735
24	0x3f90b498	1.1305113
25	0x403df1e1	2.967888
26	0xbfa4f2b7	-1.2886571
27	0x3f31f14d	0.6950882
28	0x4052be11	3.2928507
29	0x3faca815	1.3488795
30	0x3fd5d160	1.6704521
31	0x4010bcda	2.2615266

fc.0.bias f4 [354]
0	0x3cb47f1b	0.022033265
1	0x3d0d670a	0.034522094
2	0xbd9f5d06	-0.07781415
3	0x3a32979e	0.0006812754
4	0x3bcc7251	0.0062392135
5	0x3defa79e	0.11701892
6	0x3cee35d3	0.0290784
7	0x3d85d425	0.06534604
8	0xbd64cdc7	-0.055860307
9	0x3df36905	0.11885265
10	0x3d863922	0.06553866
11	0x3cab4865	0.020908544
12	0x3b8f230a	0.0043681907
13	0xbc4165d9	-0.0118040675
14	0x3e0c737b	0.13715927
15	0xbcd69ca0	-0.026197731
16	0x3def67b0	0.11689699
17	0x3dcec9dd	0.10097096
18	0x3d63fdf4	0.05566211
19	0x3c3be36d	0.011467797
20	0x3d520bbe	0.05128073
21	0x3d5f5905	0.054528255
22	0x3d741b03	0.059596073
23	0x3c8bcd9e	0.01706582
24	0xbbd3f460	-0.0064683408
25	0x3db59139	0.0886559
26	0x3ccc5733	0.024943924
27	0xbcc86ac3	-0.02446497
28	0xbd374069	-0.04473916
29	0x3dd52c28	0.10408813
30	0x3c8281c1	0.015931012
31	0x3d454a8b	0.048166793
32	0x3dacfd53	0.08446755
33	0xbd1bd97f	-0.038049217
34	0x3d604812	0.05475623
35	0xbd04ef72	-0.032454915
36	0x3d943811	0.07237256
37	0x3d889c2c	0.066704124
38	0xbc3af44d	-0.011410785
39	0x3e1231e0	0.14276838
40	0x3dcf5dee	0.101253375
41	0x3cc1d53e	0.023661252
42	0x3cc5c5ac	0.024142109
43	0x3da35558	0.079752624
44	0x3ce6fc55	0.028196493
45	0x3d70244d	0.05862837
46	0x3d1cec69	0.038311396
47	0x3dc8c00b	0.09802254
48	0x3c8e3ecc	0.017363928
49	0xbd82384e	-0.063583955
50	0x3dc56cf7	0.09639924
51	0xbd7e5093	-0.06208856
52	0x3d983fab	0.07434019
53	0x3dcd996d	0.10039029
54	0x3dd24451	0.102669366
55	0x3dd6039f	0.104499094
56	0xba5a9307	-0.0008337949
57	0xbd3b6634	-0.045751765
58	0x3da0e73c	0.078566045
59	0x3dd390c7	0.103303485
60	0xbd0a30ff	-0.033738133
61	0x3ca11b55	0.019666353
62	0x3d0e9ef5	0.034819562
63	0x3d5fd8a5	0.054649968
64	0xbd622ff6	-0.05522152
65	0x3c9741dd	0.018464023
66	0x3d15a9f9	0.03653905
67	0x3cdbd35f	0.026834188
68	0x3d8f4d54	0.06997171
69	0x3def9752	0.11698784
70	0x3d70e703	0.05881406
71	0x3d8bc323	0.06824329
72	0xbd138c2b	-0.036022346
73	0x3c154eb2	0.009113001
74	0x3d2e470f	0.042548236
75	0x3c530230	0.0128789395
76	0xbd459b0e	-0.048243575
77	0x3da4c0be	0.08044575
78	0x3d81620a	0.063175276
79	0x3d2428b3	0.040077876
80	0x3dbf71ad	0.09347854
81	0x3d36fcf0	0.044674814
82	0xbd87c76d	-0.06629834
83	0x3de67827	0.11253386
84	0xbd426c68	-0.047466666
85	0xbcf76721	-0.030200543
86	0x3c4aea5b	0.012384976
87	0x3d186f18	0.037215322
88	0x3d7f68d9	0.06235585
89	0x3d3737ea	0.04473106
90	0xbd8a5139	-0.06753773
91	0xbb804568	-0.003914524
92	0x3d601474	0.054707006
93	0xbbebd768	-0.0071973093
94	0xbd1a2a29	-0.037637863
95	0x3d74b8e0	0.059746623
96	0x3d9ae47f	0.075631134
97	0x3d95ec9a	0.07320519
98	0x3dca82b5	0.09888212
99	0x3d18d980	0.0373168
100	0x3c8c5c37	0.017133815
101	0x3c5e0a12	0.013552206
102	0x3d405066	0.046951674
103	0xb8f4d46e	-0.00011674395
104	0x3dbd0421	0.09229303
105	0x3df71541	0.12064601
106	0xbc19633d	-0.009362039
107	0x3d317c1b	0.043331247
108	0xbc954436	-0.018221002
109	0xbbc27b36	-0.005935098
110	0xbd8989e6	-0.06715755
111	0xbc1ba33a	-0.009499365
112	0xbb200df4	-0.002442238
113	0x3d512427	0.05105987
114	0x3e0b2400	0.13587952
115	0x3d239904	0.03994085
116	0x3d7f2d93	0.062299322
117	0xbcb52553	-0.022112524
118	0x3c392b97	0.011301897
119	0x3e00c970	0.12576842
120	0x3ddab86f	0.10679709
121	0x3dee219f	0.116275065
122	0x3ca0006b	0.01953145
123	0x3d6dec4b	0.058086675
124	0x3d5f35a2	0.054494508
125	0x3d052cee	0.03251355
126	0xbd5f0317	-0.054446306
127	0xbab356f7	-0.0013682534
128	0x3dc0a9a7	0.094073586
129	0x3da001eb	0.07812866
130	0x3d36010a	0.044434585
131	0xbd2b6c41	-0.041851286
132	0x3d8a47e1	0.06751991
133	0x3c743ba8	0.014906801
134	0x3bca7ea7	0.006179649
135	0x3c744330	0.014908597
136	0x3dbe7cd8	0.09301156
137	0xbd5ae112	-0.0534373
138	0x3dd0c9ad	0.101947166
139	0x3c80b3d3	0.015710747
140	0x3bc36d7d	0.0059639798
141	0x3dabadfa	0.08382793
142	0x3dde5de5	0.10857753
143	0x3cd7ca81	0.026341679
144	0x3d5f29fa	0.05448339
145	0xbc7a3931	-0.015272425
146	0x3b98c745	0.0046624267
147	0x3db9eeec	0.09078774
148	0xbd55a9e9	-0.052163992
149	0x3d0e1c45	0.03469493
150	0x3cfb3847	0.030666484
151	0x3c8f94df	0.017527042
152	0x3db9e751	0.09077323
153	0xbb94414a	-0.0045243846
154	0x3ba795e4	0.005114304
155	0xbc93eef1	-0.018058272
156	0x3db02dde	0.086024985
157	0x3df6115a	0.12015028
158	0xbd84af8d	-0.06478796
159	0xbd7a1bd2	-0.061061688
160	0x3c2a5f39	0.010398679
161	0x3d005676	0.031332456
162	0x3d840dc4	0.06447938
163	0xbd23d306	-0.03999617
164	0x3d9e90a3	0.07742431
165	0x3d067c53	0.03283341
166	0x3c1b55a4	0.009480868
167	0x3cde31d0	0.027123362
168	0x3d661489	0.056171928
169	0x3d70aa8c	0.058756396
170	0x3d819b35	0.063284315
171	0xbac2e5da	-0.0014869526
172	0xbd140949	-0.036141668
173	0x3d465a5d	0.04842602
174	0xbd12e2b0	-0.035860717
175	0x3d7c03c2	0.06152702
176	0xbaea413f	-0.0017872228
177	0x3d004173	0.031312417
178	0x3ca59295	0.020211497
179	0x3d7e704c	0.062118813
180	0xbd09372a	-0.033499874
181	0x3d08c561	0.03339136
182	0x3ae3194d	0.0017326266
183	0x3d95d39d	0.07315753
184	0x3d821886	0.06352334
185	0xbc044e46	-0.0080753025
186	0x3db52acf	0.08846056
187	0x3d5adbca	0.053432263
188	0xbcbe5fbe	-0.023239013
189	0x3dcfff4a	0.101561144
190	0x3dabd45e	0.08390115
191	0x3da4f813	0.08055129
192	0x3cacc941	0.02109206
193	0x3dab23ea	0.083564594
194	0x3dc16d8e	0.09444724
195	0xbd006768	-0.031348616
196	0xbd0fb0a6	-0.035080574
197	0x3da930e1	0.08261276
198	0x3e021e85	0.12706955
199	0xbc292793	-0.010324377
200	0x3d169bf8	0.036769837
201	0x3dc90e8f	0.0981723
202	0x3d9c2c61	0.07625652
203	0xbd871464	-0.06595686
204	0xbc77eff0	-0.015132889
205	0x3da595cb	0.08085211
206	0xbcd718ca	-0.026256938
207	0x3dc33136	0.095308706
208	0x3db483cf	0.08814203
209	0xbc4f460c	-0.012650978
210	0x3b69b5ca	0.0035661333
211	0x3c68d52f	0.014210983
212	0x3cee8b75	0.029119233
213	0x3de5a2a6	0.11212663
214	0x3d84a419	0.06476612
215	0x3dc41b97	0.09575575
216	0x3d64de6f	0.05587619
217	0x3bf3337f	0.0074219103
218	0x3e02c565	0.12770613
219	0xbd2d92cb	-0.04237632
220	0x3db6c7b2	0.089248076
221	0x3daaa93f	0.083330624
222	0x3d53fc8b	0.051754516
223	0x3c292372	0.010323392
224	0x3d15be76	0.03655859
225	0x3dcf104a	0.10110529
226	0x3cf0732b	0.029351791
227	0x3d1070a4	0.035263672
228	0xbbb40b24	-0.005494492
229	0x3db0c761	0.086317785
230	0x3dcff28b	0.10153683
231	0x3d3ce138	0.046113223
232	0xbd8a2316	-0.06744973
233	0x3d3b6a0c	0.04575543
234	0x3dd8e22b	0.10590013
235	0xbd506ba8	-0.05088392
236	0x3d1c6b9b	0.038188558
237	0x3dad2c84	0.08455756
238	0x3cf52605	0.029925356
239	0x3d61d80e	0.055137686
240	0x3d844e9e	0.064603075
241	0x3c8fb5b1	0.017542692
242	0xbbb18248	-0.005417142
243	0xbcb5ade0	-0.022177637
244	0x3dbb9f2b	0.09161218
245	0x3d8dd4de	0.06925367
246	0x3d2e3328	0.042529255
247	0x3dbe2375	0.09284107
248	0xbd93f38b	-0.072241865
249	0x3df8356c	0.121195644
250	0xbd181685	-0.03713085
251	0x3c8927bf	0.016742585
252	0xbccfc2a5	-0.025361368
253	0xbc22ddb9	-0.009940558
254	0xbd251dbd	-0.040311564
255	0xbb02ad64	-0.0019939775

fc.0.weight f4 [354, 128]
0	0xbb88aa15	-0.004170666
1	0x3d837f57	0.064207725
2	0x3bba0882	0.0056772837
3	0xbe043026	-0.12908992
4	0xbdf25f5e	-0.11834596
5	0xbd650d97	-0.055921163
6	0x3db74e0a	0.08950432
7	0x3dd32dfa	0.10311504
8	0xbbfece73	-0.0077760755
9	0xbd4c5c11	-0.04989249
10	0x3d2f843e	0.042850725
11	0xbc2e1ce4	-0.010627005
12	0x3db816ec	0.08988747
13	0x3da58908	0.08082777
14	0x3d1723e9	0.03689948
15	0x3d424a29	0.047434006
16	0x3db41bf8	0.08794397
17	0x3c88285d	0.01662081
18	0xbc868abd	-0.016423577
19	0xbe0d5196	-0.13800654
20	0xbc99e1cd	-0.018784428
21	0x3d6fa4b8	0.058506697
22	0x3d81bb45	0.06334547
23	0x3decc74d	0.11561451
24	0xbdb1ea85	-0.08687309
25	0xbba38919	-0.0049907085
26	0x3c212470	0.0098353475
27	0xbc2df839	-0.010618263
28	0x3e0a36ba	0.13497439
29	0x3db90cf8	0.09035677
30	0x3dc9e83d	0.09858749
31	0x3de25a2a	0.11052354
32	0xbdb3c576	-0.08777897
33	0x3d9bf6ec	0.07615456
34	0x3ce93902	0.028469566
35	0xbe08081d	-0.13284345
36	0x3c5397b8	0.012914591
37	0x3dafb8d5	0.08580176
38	0x3db64356	0.08899562
39	0x3d940db6	0.07229178
40	0x3cf492a2	0.029855076
41	0x3d7321c1	0.059358362
42	0xbdab19cc	-0.0835453
43	0xbd3d96d7	-0.04628643
44	0x3c192d40	0.009349167
45	0xbc927412	-0.017877612
46	0x3d7413e0	0.059589267
47	0xbb4fe3da	-0.0031721503
48	0x3d4eefe1	0.050521735
49	0xbde31409	-0.11087806
50	0x3d10fcfd	0.03539752
51	0x3cbd2b96	0.023092072
52	0x3d75c0a6	0.059998177
53	0x3c3c115b	0.011478747
54	0x3d7ae3e3	0.061252486
55	0x3d87fa64	0.06639555
56	0x3de25c92	0.11052813
57	0x3deb3d45	0.114862956
58	0x3ba6e42e	0.005093119
59	0x3e186e8a	0.14885917
60	0x3d96ee85	0.07369713
61	0x3de42239	0.1113934
62	0x3cc30737	0.023807151
63	0x3d9178d4	0.07103124
64	0x3c2b5791	0.010457889
65	0x3c66666a	0.014062503
66	0x3d91e8bb	0.07124468
67	0xbdb92ef3	-0.09042158
68	0xbdb663fe	-0.08905791
69	0x3dda2d88	0.10653216
70	0xbd145c8d	-0.036221076
71	0x3d666382	0.05624724
72	0xbd32c95a	-0.043649055
73	0x3d89e794	0.06733623
74	0x3d191056	0.037369095
75	0xbddf4121	-0.10901094
76	0x3d929be7	0.07158642
77	0x3d021af9	0.031764004
78	0xbe2573c9	-0.1615745
79	0xbd81a08a	-0.063294485
80	0xbdee0e7f	-0.11623859
81	0xbd34aa41	-0.04410768
82	0xbd7148b2	-0.05890722
83	0xbb97baab	-0.004630407
84	0xbdb5478f	-0.08851539
85	0x3c102ae4	0.008799288
86	0xbd3b01fc	-0.04565619
87	0x3c2d86d0	0.010591224
88	0xbd1a0fa8	-0.037612587
89	0xbc456f1b	-0.012050415
90	0xbda75719	-0.081709094
91	0x3df701f9	0.12060923
92	0xbc9d88ec	-0.019230329
93	0x3dfe2362	0.124090925
94	0xbd9227ea	-0.07136519
95	0xbc1446a2	-0.009050043
96	0x3d3a5796	0.045493685
97	0x3c844c0d	0.016149545
98	0xbd73988c	-0.059471652
99	0x3d49ed30	0.049298465
100	0x3dfed74b	0.124434076
101	0x3c9c0628	0.019045904
102	0xbd059417	-0.032611933
103	0xbcef4302	-0.029206757
104	0xbc089a1b	-0.008337523
105	0x3d350fa9	0.044204388
106	0x3dd4796c	0.10374722
107	0xbd7b6322	-0.061373837
108	0x3def64e7	0.116891675
109	0xbb384fe2	-0.0028123786
110	0x3dce6a5b	0.100788794
111	0x3dcb96ff	0.099409096
112	0x3d157b96	0.036494814
113	0x3d4d2767	0.050086405
114	0xbd2e472a	-0.042548336
115	0x3c7ef977	0.015562407
116	0xbdb8e231	-0.090275176
117	0x3d2823b9	0.041049693
118	0xbd60e2b2	-0.054903693
119	0xbda64652	-0.08118881
120	0xbd3546d0	-0.044256985
121	0xbd41dc7e	-0.04732942
122	0x3e22e456	0.15907416
123	0x3dc0dfa9	0.0941766
124	0x3dd38ad0	0.10329211
125	0xbca6bdd0	-0.020354182
126	0x3d62d840	0.055382013
127	0x3db021b9	0.08600182
128	0xba01b7fd	-0.0004948376
129	0xbc6cd174	-0.014454234
130	0x3d7bedc8	0.061506063
131	0x3da9562b	0.08268388
132	0x3d6386f9	0.05554864
133	0xbd86702a	-0.06564362
134	0xbbe79ca7	-0.007068235
135	0x3e12f255	0.14350255
136	0x3db03b95	0.08605114
137	0x3cf74778	0.030185446
138	0xbdb4d31d	-0.08829329
139	0x3d8a0404	0.06739047
140	0xbdb74d52	-0.089502946
141	0xbddbdd10	-0.10735524
142	0x3c611ac6	0.013739293
143	0x3dd2af57	0.1028735
144	0xbddd15cc	-0.10795173
145	0x3dc4686b	0.09590229
146	0x3d98fe4c	0.07470378
147	0x3c06f7a5	0.008237754
148	0xbc16a51f	-0.009194641
149	0x3d34cbb6	0.044139586
150	0xbc18781a	-0.009305978
151	0x3dcf5676	0.10123913
152	0x3be805df	0.007080778
153	0xbd31bae3	-0.04339112
154	0x3df826bb	0.12116762
155	0x3ad053f4	0.0015894161
156	0xbd753f90	-0.05987507
157	0x3e0ce28e	0.13758299
158	0x3b997c51	0.004684009
159	0xbb8181fe	-0.003952264
160	0x3daf372a	0.085554436
161	0xbda08a7a	-0.07838912
162	0xbc291a21	-0.010321171
163	0xbd505013	-0.050857615
164	0x3d9b22cd	0.07574997
165	0xbcb5e5ba	-0.022204269
166	0x3e16081b	0.1465153
167	0xbceeeaf6	-0.029164772
168	0x3bc05996	0.0058700545
169	0x3c745152	0.014911966
170	0x3db602f8	0.08887285
171	0x3cbdfa6c	0.0231907
172	0x3cb19c16	0.021680873
173	0x3d97c54c	0.07410678
174	0xbd2c7da2	-0.042112
175	0x3c9377bf	0.018001435
176	0x3d0b3cf5	0.03399368
177	0xbc1c0642	-0.009522976
178	0xbcdf63e0	-0.027269304
179	0x3d97ad04	0.07406047
180	0xbc2e6fac	-0.010646742
181	0x3c528218	0.0128484
182	0x3da26f91	0.07931436
183	0x3cb79330	0.022409052
184	0x3e2a9d9d	0.16661687
185	0x3de8c412	0.113655224
186	0xbd6620ef	-0.05618375
187	0x3d5bdfdd	0.05368029
188	0x3defcc7c	0.11708924
189	0xbe1cf94b	-0.15329473
190	0x3d902ea5	0.07040147
191	0x3d9cf45c	0.07663795
192	0xbd9eabcf	-0.07747614
193	0x3e0a2325	0.13489969
194	0xbe0f504e	-0.13995478
195	0xbbe5fb01	-0.0070184474
196	0xbda37520	-0.07981324
197	0xbbfc58f1	-0.0077010323
198	0x3dccdc4a	0.10002954
199	0xbd6347eb	-0.05548851
200	0x3ce4b33f	0.027917502
201	0x3cf63624	0.030055113
202	0xbcc583d1	-0.024110707
203	0x3d9b6275	0.075871386
204	0xba93fd83	-0.0011290762
205	0xbd9d4086	-0.076783225
206	0xbd6ab43d	-0.057300795
207	0xbdbe142a	-0.0928119
208	0x3e00ef7d	0.12591358
209	0xbc0dd6c1	-0.008657158
210	0x3d7e124a	0.06202916
211	0xbc984a5c	-0.018590145
212	0x3dc66eb7	0.09689086
213	0x3c425749	0.011861631
214	0x3d87b252	0.06625809
215	0x3d799eba	0.06094239
216	0x3d4648e9	0.048409376
217	0xbd397ac3	-0.04528309
218	0xbd884a84	-0.06654838
219	0x3e2b7358	0.16743219
220	0x3d8096c3	0.062787555
221	0xbdd582de	-0.104253516
222	0x3d0f2d05	0.034955043
223	0xbdf3f86f	-0.11912619
224	0x3d80b461	0.062844045
225	0xbddcd64a	-0.1078306
226	0x3dd15349	0.102209635
227	0x3d72d185	0.059281845
228	0xbd712d55	-0.058881123
229	0x3c92b81b	0.017910054
230	0xbd198a12	-0.03748519
231	0x3bf1d76c	0.0073804166
232	0x3cb14326	0.021638464
233	0x3ca8da3a	0.020611871
234	0x3c4492c6	0.011997884
235	0x3d3df9d9	0.04638085
236	0xbcd00ba0	-0.025396168
237	0x3da33ca7	0.07970553
238	0xbda3c952	-0.07997383
239	0xbd6929d0	-0.05692464
240	0xbd3a29a7	-0.04544988
241	0x3e0a21b6	0.13489422
242	0x3d4b8282	0.04968501
243	0xbd884b8a	-0.06655033
244	0x3e0f72c0	0.14008617
245	0xbaf87450	-0.0018955562
246	0xbc4930b7	-0.012279681
247	0x3daa4e9d	0.083157755
248	0xbcb95906	-0.022625457
249	0xbcc3e67b	-0.023913613
250	0x3d639b47	0.055568006
251	0x3decfce3	0.11571672
252	0x3def5bcf	0.11687433
253	0x3dfb1ba4	0.122611314
254	0x3d029781	0.031882767
255	0xbd0c0c40	-0.03419137

fc.2.bias f4 [177]
0	0x3c411668	0.011785127
1	0xbd48c4d4	-0.049015835
2	0xbc53c4be	-0.012925325
3	0xbd1a417d	-0.03766011
4	0x3c3d017e	0.011536
5	0x3d3ebb81	0.046565536
6	0x3c338b02	0.010958435
7	0x3cea833c	0.02862703
8	0x3d0dd3d1	0.034625832
9	0xbbd4e7c0	-0.0064973533
10	0xbca79385	-0.020456085
11	0x3c0c733d	0.008572397
12	0xbcd23c94	-0.025663652
13	0xbc1a774b	-0.009427856
14	0x3cbc730e	0.023004081
15	0x3c4f5969	0.012655594
16	0xbae8cd5d	-0.0017761398
17	0xbc510e5f	-0.012759774
18	0x3cef3a24	0.029202528
19	0xbd54a1b0	-0.05191201
20	0xbb8bbdbc	-0.0042645615
21	0x3c5ced75	0.013484349
22	0x3d6e6983	0.058206093
23	0x3c81b4d2	0.015833292
24	0xbbc05e6a	-0.00587063
25	0x3c37d90e	0.011221183
26	0xbc636059	-0.013877952
27	0xbd060250	-0.03271705
28	0xbd4f76a8	-0.05065027
29	0x3cd08372	0.025453303
30	0x3d754843	0.059883367
31	0x3d51f25e	0.05125653
32	0xbc817221	-0.015801491
33	0xba66ec3c	-0.00088090054
34	0xbcf68b1a	-0.030095626
35	0xbd23e52a	-0.04001347
36	0xbd427121	-0.04747117
37	0x3c6d9924	0.014501844
38	0xbaf83501	-0.0018936695
39	0x3c1f001f	0.009704619
40	0xba774264	-0.0009432195
41	0xbdbd9a78	-0.09257978
42	0xbd7a51e0	-0.06111324
43	0xbaf04b2e	-0.0018332952
44	0x3d5c7d1f	0.053830262
45	0x3d800518	0.062509716
46	0xbd83fdd7	-0.064449005
47	0x3c22f650	0.009946421
48	0xbc121044	-0.008915011
49	0x3cd4f54d	0.025995875
50	0xbd5fe1d9	-0.054658744
51	0x3cfe5738	0.031047449
52	0xbd0e0fbf	-0.034682985
53	0x3bca1344	0.0061668474
54	0xbd111abc	-0.035425887
55	0xbd34d855	-0.044151623
56	0x3d516e06	0.051130317
57	0xbc8ac640	-0.016940236
58	0x3b3a2406	0.002840282
59	0x3d3778c4	0.044792905
60	0xbc86848e	-0.016420629
61	0xbd594f44	-0.05305411
62	0xbc05aa4c	-0.008158278
63	0xbd082427	-0.033237603
64	0x3cd4102a	0.025886614
65	0x3ceae685	0.028674373
66	0xbd04c303	-0.03241254
67	0x3c0a5000	0.008441925
68	0x3ce1f4e5	0.027582595
69	0x3d3d32ad	0.046190906
70	0x3c4f1756	0.012639841
71	0x3ce04391	0.027375968
72	0x3ceced23	0.02892167
73	0xbc115fe9	-0.008872964
74	0xbca9f2c0	-0.020745635
75	0x3c63702f	0.013881727
76	0xbd008b11	-0.031382624
77	0xbd21376d	-0.0393595
78	0x3d34a154	0.044099167
79	0xbd4b05d3	-0.0495661
80	0x3d15fcb1	0.03661794
81	0xbc964f5a	-0.018348385
82	0x3bb7e8d9	0.0056124744
83	0xbd5452cf	-0.051836785
84	0xbd4385b1	-0.04773492
85	0xbc80df40	-0.015731454
86	0x3c9ec12c	0.01937922
87	0x3d10b76c	0.035331175
88	0xbd28d468	-0.04121819
89	0xbafc337a	-0.0019241415
90	0xbc31406c	-0.010818582
91	0x3d22dbed	0.03976052
92	0xbd1ea451	-0.038730923
93	0xbd1e1a99	-0.038599584
94	0x3c15db21	0.009146483
95	0x3c107e57	0.008819184
96	0x3d61d8eb	0.05513851
97	0x3a125962	0.0005582777
98	0xbd1a273e	-0.03763508
99	0x3cf2d063	0.029640382
100	0x3d736494	0.05942209
101	0xbc293df4	-0.010329712
102	0xbd271de3	-0.040799987
103	0x3ce0d4f8	0.027445301
104	0xbbeab3d9	-0.007162553
105	0xbcd57147	-0.026054991
106	0xbd4f86a5	-0.050665516
107	0xbd2bd032	-0.041946597
108	0xbd3f4acb	-0.046702188
109	0xbd337f01	-0.043822292
110	0x3c90cb45	0.017675051
111	0xbd2dfbb2	-0.042476363
112	0x3c9f7d9f	0.01946908
113	0xbcbca053	-0.023025667
114	0xbd4ac0d4	-0.0495003
115	0xbbc73121	-0.0060788547
116	0xbd71276f	-0.058875497
117	0xbc175e5d	-0.009238807
118	0xbcb40bfc	-0.02197837
119	0xbd321434	-0.0434763
120	0xbd50d2a1	-0.05098212
121	0x3d2670b3	0.040634822
122	0x3d8a2312	0.067449704
123	0x3cc691d7	0.024239464
124	0xbdba679f	-0.091017954
125	0xbc81689b	-0.01579695
126	0xbb8b6eee	-0.004255167
127	0xbd951b80	-0.07280636
128	0xbd329fe9	-0.043609533
129	0xbd92ef92	-0.07174601
130	0xbd27f492	-0.041004725
131	0xbd656c6d	-0.056011606
132	0xbdafe02a	-0.08587678
133	0x3d0fdf52	0.035125084
134	0xbd83d4d3	-0.064370774
135	0xbd627251	-0.055284802
136	0xbb4373f0	-0.0029823743
137	0xbd551975	-0.05202623
138	0x3d49ee2f	0.049299415
139	0xbd7406f9	-0.059576962
140	0xbd2e738a	-0.042590655
141	0xbc37eab5	-0.011225392
142	0xbc7b5ab4	-0.0153414495
143	0xbcda40d1	-0.026642235
144	0xbd7265fa	-0.059179284
145	0xbd6f30d8	-0.05839619
146	0x3ba431a7	0.005010802
147	0x3cb9e014	0.022689857
148	0x3cc063fd	0.023485178
149	0x3d010acf	0.03150445
150	0x3bbb282f	0.0057115774
151	0xbc999abf	-0.018750547
152	0x3d1fb4c0	0.038990736
153	0x3d10ff64	0.03539981
154	0x3d1c3486	0.038136028
155	0x3c28011c	0.010254171
156	0xbc60c7be	-0.013719497
157	0x3b55647e	0.0032561119
158	0x3c2a737c	0.01040351
159	0xbd1be268	-0.038057715
160	0x3d4c48a2	0.049873956
161	0x3cdd4a31	0.027012916
162	0x3ca82f86	0.020530473
163	0x3d837c2a	0.06420167
164	0xbd88b3c1	-0.0667491
165	0x3c8cd782	0.017192606
166	0x3cbd837f	0.023133991
167	0xbb32ae2e	-0.0027264464
168	0xbc6d8082	-0.014495971
169	0xbcabade1	-0.020956935
170	0xbc9b348d	-0.018945957
171	0xbc3f4583	-0.011674288
172	0xbd1732c9	-0.036913667
173	0x3d74cec8	0.059767514
174	0xbd4f61fb	-0.05063055
175	0xbd684dbe	-0.056714766
176	0xbcf90a40	-0.030400395

fc.2.weight f4 [177, 354]
0	0xbc541f3b	-0.012946899
1	0x3da988a9	0.08278019
2	0xbdb7b261	-0.0896957
3	0xbdd864bf	-0.10566091
4	0xbd90dd82	-0.07073499
5	0x3d5be333	0.05368347
6	0xbc3ab61b	-0.011395956
7	0xbd0e208d	-0.03469901
8	0xbd0d1ac3	-0.03444935
9	0x3d9abce3	0.075555585
10	0xbda2bf86	-0.079466864
11	0xbd158531	-0.036503974
12	0x3c2710e7	0.010196901
13	0xbd66ce6d	-0.056349207
14	0x3dad0219	0.08447666
15	0x3da942dc	0.082647055
16	0x3bd924e6	0.006626713
17	0x3dcf9e31	0.101375945
18	0xbdc8877c	-0.097914666
19	0x3c6e1390	0.014531031
20	0xbbdf79a0	-0.0068199188
21	0x3c8cf1ea	0.017205197
22	0xbe029c2e	-0.1275489
23	0xbd72849b	-0.059208494
24	0xbdadec83	-0.08492377
25	0x3d356c37	0.044292655
26	0xbd0202e1	-0.031741027
27	0xbd202bec	-0.039104387
28	0xbbc8622b	-0.006115218
29	0xbc8daa94	-0.017293252
30	0x3d81ff97	0.06347578
31	0x3cf07c5c	0.029356174
32	0xbde2fc63	-0.11083295
33	0xba8a37a1	-0.0010545143
34	0x3dccc49b	0.09998437
35	0xbd36bff8	-0.04461667
36	0x3d42623b	0.04745696
37	0xbd90a9e9	-0.07063658
38	0xbd1c79c1	-0.03820205
39	0xbc9b3ac6	-0.018948924
40	0xbd8bfbc7	-0.06835132
41	0x3bb78f52	0.005601802
42	0x3b4e521c	0.0031482046
43	0x3d35b374	0.044360593
44	0xbd77b0a0	-0.060471177
45	0x3d45cb34	0.048289493
46	0xbbd8c3fd	-0.0066151605
47	0x3d72454c	0.059148118
48	0xbcc9ccf3	-0.02463386
49	0x3bd2594a	0.0064193355
50	0x3ddba99e	0.10725711
51	0xbcfc752b	-0.030817589
52	0x3da1fcfb	0.0790958
53	0xbd3e2142	-0.046418436
54	0xbd9010cc	-0.07034454
55	0xbdae6d2b	-0.08516916
56	0x3d636311	0.0555144
57	0xbd164836	-0.03668996
58	0x3daae4b0	0.083444
59	0xbdde820d	-0.10864649
60	0xbd25116a	-0.04029981
61	0x3baead2c	0.0053307023
62	0x3d567765	0.052359957
63	0x3ccddb2d	0.025128925
64	0xbde2c4ef	-0.11072718
65	0xbc55404a	-0.013015816
66	0xbd09004b	-0.033447545
67	0xbd2dce1e	-0.042432897
68	0xbd6e44ab	-0.058170956
69	0xbdc732c4	-0.0972648
70	0xbca7f519	-0.020502614
71	0xbd4dddb8	-0.050260276
72	0xbdf2f4f0	-0.11863124
73	0xbcc98ccc	-0.02460327
74	0xbd8d6854	-0.06904665
75	0xbc99d6e0	-0.018779218
76	0xbdcfc96c	-0.1014584
77	0x3dfd95c2	0.1238208
78	0xbd8834cc	-0.06650695
79	0xbda9795f	-0.08275103
80	0x3dc898a5	0.0979474
81	0xbd52d94d	-0.051476765
82	0xbcc9e0b7	-0.024643285
83	0xbd046814	-0.03232582
84	0xbd4cecd4	-0.050030544
85	0xbd4c71eb	-0.04991333
86	0xbdbb55a9	-0.09147198
87	0x3d139cfb	0.03603838
88	0xbda7dfba	-0.08196969
89	0x3db9d0b8	0.09073013
90	0xbd214c4a	-0.039379396
91	0xbd7f4876	-0.062324964
92	0xbc657d4f	-0.014006927
93	0x3d71ec89	0.059063468
94	0xbc84b9ad	-0.016201818
95	0xbdc83602	-0.09775926
96	0x3b93cf96	0.00451083
97	0x3d70ce40	0.058790445
98	0x3d6621ed	0.056184698
99	0xbdf48976	-0.11940281
100	0xbc33ff52	-0.010986166
101	0xbba8083d	-0.005127935
102	0xbd17996b	-0.037011545
103	0x3b033cb2	0.002002519
104	0xbc1cc575	-0.009568562
105	0xbca36f78	-0.019950613
106	0x3d8a704a	0.06759699
107	0xbd6706f8	-0.05640313
108	0x3d6f95ed	0.05849259
109	0xbcf0878d	-0.02936151
110	0xbdb653c8	-0.08902699
111	0xbdf32c55	-0.1187369
112	0x3d5f309b	0.054489713
113	0xbcb54965	-0.022129724
114	0xbd2a24e5	-0.04153909
115	0xbda29011	-0.07937635
116	0xbce09722	-0.027415816
117	0x3df15d25	0.11785344
118	0xbdf3dc7c	-0.119072884
119	0x3d66c4bb	0.05633996
120	0x3d235d38	0.039883822
121	0x3cc033cc	0.023462199
122	0xbd8989ab	-0.06715711
123	0xbdb86cd3	-0.090051316
124	0xbd1ea496	-0.03873118
125	0xbe193993	-0.14963369
126	0xbccbe1a0	-0.02488786
127	0xbd980021	-0.074218996
128	0xbdcf8087	-0.101319365
129	0xbd873cad	-0.0660337
130	0xbd4f2e9c	-0.05058156
131	0xbd4fa8e4	-0.050698176
132	0xbd77d8d6	-0.060509525
133	0x3dc5a720	0.09651017
134	0x3d7e18a2	0.06203521
135	0xbdbec87f	-0.09315585
136	0xbdd25b14	-0.10271278
137	0xbba45a42	-0.0050156424
138	0xbe0f5e02	-0.14000705
139	0xbd1ca09e	-0.038239114
140	0xbdcc1afc	-0.09966084
141	0xbd892bc4	-0.06697801
142	0xbd25cda9	-0.040479336
143	0x3d259daf	0.040433582
144	0x3d5b4b80	0.0535388
145	0xbd97d693	-0.07413974
146	0xbd21f0fa	-0.039536454
147	0xbdb006c7	-0.08595043
148	0x3cb58eae	0.022162762
149	0x3d4699e4	0.048486605
150	0x3d9066f5	0.070508875
151	0xbd0762c5	-0.03305318
152	0xbd29cd13	-0.04145534
153	0x3d494d5f	0.049146052
154	0x3d900370	0.07031906
155	0x3c537f98	0.012908839
156	0xbdef1aa6	-0.11675005
157	0xbbc92751	-0.00613872
158	0x3d692929	0.05692402
159	0x3cda1d66	0.026625346
160	0x3d38df6a	0.04513494
161	0x3b343e42	0.002750293
162	0xbdb71c7b	-0.08940979
163	0x3d003177	0.031297173
164	0x3bf3b7ce	0.0074376827
165	0xbdadaafc	-0.08479878
166	0x3d0b01cf	0.03393727
167	0x3c9e1e33	0.01930151
168	0xbd2ca8a5	-0.04215302
169	0x3dd683fd	0.104743935
170	0xbe03abdd	-0.1285853
171	0x3d5ddd11	0.054165903
172	0x3d9dc5cb	0.07703742
173	0xbda6dee6	-0.08147983
174	0xbd347677	-0.04405829
175	0x3cbd17ed	0.023082698
176	0xbd3f38b1	-0.046684925
177	0x3d431abe	0.047632925
178	0xbd304eb6	-0.043043815
179	0xbe0da533	-0.1383255
180	0xbdc8962d	-0.09794269
181	0xbdd71091	-0.10501207
182	0x3cd7d230	0.026345342
183	0x3ca98ec1	0.020697953
184	0xbc24a165	-0.010048245
185	0xbdbcf0ac	-0.09225592
186	0xbdb0701a	-0.08615132
187	0xbbdc9760	-0.0067319125
188	0xbd918a82	-0.071064964
189	0xbda1bdf9	-0.078975625
190	0x3c952a71	0.018208714
191	0xbcbd9f8e	-0.02314737
192	0x3d9346c2	0.0719123
193	0x3d95dbbc	0.07317302
194	0xbc0deafb	-0.008661981
195	0x3d7677c2	0.060172804
196	0x3d5b29a3	0.053506505
197	0x3d8d6feb	0.06906112
198	0xbd5d1778	-0.05397746
199	0x3c8f733d	0.017511005
200	0xbdab46a6	-0.083630845
201	0xbd41b51a	-0.047291853
202	0x3db62289	0.08893306
203	0xbda574da	-0.08078928
204	0xbd8d11b1	-0.0688814
205	0x3ccf6c66	0.025320243
206	0xbd3bfd33	-0.045895766
207	0x3cbd4556	0.023104351
208	0x3dc24cea	0.094873264
209	0xbd814836	-0.06312601
210	0x3db24f50	0.08706534
211	0xbcdb39d1	-0.026760967
212	0x3d53f427	0.051746514
213	0xbbae4799	-0.0053185937
214	0x3d31fbad	0.043452907
215	0xbcadefb6	-0.021232467
216	0xbd92322f	-0.07138478
217	0x3de05dab	0.10955366
218	0xbce04cd5	-0.027380386
219	0xbd40f335	-0.04710694
220	0xbcce3553	-0.025171911
221	0xbd98768d	-0.07444487
222	0xbc76c13c	-0.015060719
223	0xbc0102b9	-0.007874184
224	0xbed3ba01	-0.41352847
225	0xbd68fe85	-0.056883354
226	0xbd163489	-0.036671195
227	0x3df67096	0.12033193
228	0xbd61626d	-0.055025507
229	0x3ca53ff2	0.020172093
230	0x3db39542	0.08768703
231	0x3d9d5eb7	0.07684081
232	0xbc8b55e6	-0.017008733
233	0xbd63f54b	-0.05565385
234	0xbd1629ea	-0.036661066
235	0x3d8135f0	0.06309116
236	0xbd683054	-0.056686714
237	0xbc927f40	-0.017882943
238	0xbd89c16d	-0.06726346
239	0x3d02748e	0.031849436
240	0xbd2562be	-0.04037737
241	0xbb0841ae	-0.0020791101
242	0xbdc65240	-0.09683657
243	0x3cc721ab	0.024308046
244	0xbd98db25	-0.074636735
245	0xbd831563	-0.064005636
246	0x3c9d3322	0.019189421
247	0xbd9e316d	-0.07724271
248	0x3d49e9cd	0.049295235
249	0x3d50eec1	0.051008943
250	0xbdbd77e2	-0.092513815
251	0x3da1b702	0.07896234
252	0xbd7d2f0c	-0.061812446
253	0xbd09f8dc	-0.033684596
254	0xbdf069ac	-0.11738905
255	0xbd8dc18f	-0.06921684
