inventory/ark_material.onnx (onnx, 477328 bytes, 8 tensors)

35 f4 [16, 3, 5, 5]
0.122521624 0.007911791 0.2029458 0.13943946 -0.124444716 -0.18369387 0.18834732 0.22483514
0.112569675 0.019564034 0.11168684 -0.06893336 -0.022786403 -0.046850007 0.16857491 0.1144253
0.23832217 0.24239704 -0.14437768 0.042706646 0.041170806 0.061630912 -0.002769363 0.056266025
0.20784107 0.1379568 -0.09833925 -0.09306531 0.033661764 0.14043023 -0.15449183 0.16428134
-0.018384697 -0.04627375 -0.095208906 0.2559141 0.26356193 0.13427755 0.20770521 0.08345095
0.13896276 -0.020064011 0.07705614 0.28099906 0.32726905 0.2029487 0.1337104 -0.03839679
0.03409575 0.027922895 -0.13550648 0.04137627 0.15051813 0.13416195 -0.03634082 -0.035816617
0.17382048 -0.18746029 0.08896262 -0.11648159 -0.08407418 -0.118117034 -0.180521 0.14619991
0.20926681 0.1342562 0.008901032 0.121055625 -0.05699912 0.036590546 0.122287475 0.036494378
-0.10320505 -0.11506639 0.12034557 0.74960935 -0.33881503 0.8676402 -0.8764284 -0.58891696
0.98260623 -0.81929195 -0.15438858 -0.6504173 -0.0057996316 0.79766554 0.7315953 -0.04184277
-1.3460007 -0.2993322 0.37120327 -0.7384807 -0.76451856 0.7680126 -0.5545175 -0.28832763
0.9206568 -0.20724398 -1.5047632 -0.15437445 -0.748229 0.8959615 0.8943223 -0.72409844
-0.48788488 0.5105182 -0.25494194 0.9585389 0.82045585 -0.6970521 0.30972597 0.6131497
0.8678329 0.7265764 -0.24822205 1.2150725 0.06168139 -0.5920435 -0.40236813 -0.88670295
-0.51447594 0.24514262 0.31464985 -0.7917272 -0.1589083 -0.104082234 -0.1190625 -1.0933286
-0.85369915 0.3230204 0.25550064 -0.93874675 -0.39167282 0.4603892 1.0541133 -0.81836706
-0.36076152 -0.8843753 -0.6797574 0.849769 -0.6889521 -1.1725894 0.9091421 0.86875856
1.4166225 0.38184723 -1.2933375 0.8227068 -0.07603821 0.85508436 -0.22996286 -0.0627123
0.0532268 -0.16698799 0.19683318 0.180974 -0.009414622 0.3412894 -0.30662265 -0.48864365
0.6911356 -0.24917783 -0.06450372 -0.6422651 0.08661908 0.38255864 0.16892123 0.07742302
-0.5080739 0.1680008 -0.14722133 0.17859188 -0.053735785 -0.6989847 -0.433818 0.37527773
-0.08858947 0.358896 -0.2812991 -0.35863867 0.71113306 0.40256757 -0.13637874 0.18141921
-0.30446088 -0.18854596 0.40845492 0.37979478 -0.13462295 -0.41558543 0.11193199 -0.13790809
0.52442276 -0.36795744 -0.3253382 0.16001607 -0.34551978 -0.35714114 -0.40202907 -0.35742316
-0.23998162 -0.041820846 -0.052207448 -0.102725334 0.06310296 -0.46970284 0.2852799 0.32919565
0.0411692 0.09647791 -0.45547485 -0.50713056 -0.22674942 0.3151521 0.39876974 -0.25363654
-0.00038150008 -0.42887145 0.33562633 0.3263171 -0.40565157 -0.46180987 -0.05293339 0.2552735
-0.56458634 -0.4941944 0.12673637 -0.20809677 -0.105210595 -0.31421497 -0.16833502 0.38020977
0.15174147 -0.50659806 0.035156548 -0.082399756 -0.083241925 0.41593954 -0.6477402 -0.0013905253
0.15222529 -0.5508864 -0.46595022 0.08936376 -0.44221345 0.067930944 -0.032587584 -0.466023
-0.6175652 -0.29927656 -0.37700766 -0.013911388 0.4063261 -0.07976844 0.16589865 0.026978638
00000000: 9eec fa3d 75a0 013c 06d1 4f3e 38c9 0e3e
00000010: dfdc febd 3f1a 3cbe 1fde 403e 2f3b 663e
00000020: ee8a e63d c144 a03c 12bc e43d ef2c 8dbd
00000030: 8daa babc cbe5 3fbd e79e 2c3e d057 ea3d
00000040: ba0a 743e ee36 783e bed7 13be 2aed 2e3d
00000050: b8a2 283d b270 7c3d 347e 35bb 3477 663d
00000060: 4ad4 543e 8c44 0d3e 1766 c9bd 0699 bebd
00000070: ebe0 093d f1cc 0f3e 1b33 1ebe 5e39 283e
00000080: 819b 96bc 8b89 3dbd e3fc c2bd 2c07 833e
00000090: 97f1 863e 0e80 093e adb0 543e 55e8 aa3d
000000a0: 414c 0e3e 485d a4bc 9ccf 9d3d 1cdf 8f3e
000000b0: cf8f a73e c9d1 4f3e 61eb 083e f445 1dbd
000000c0: fca7 0b3d 8ebe e43c 36c2 0abe 2a7a 293d
000000d0: 6d21 1a3e c061 093e 1dda 14bd 72b4 12bd
000000e0: fffd 313e 97f5 3fbe 0932 b63d e68d eebd
000000f0: 152f acbd 58e7 f1bd 7fda 38be 6eb5 153e
00000100: 0a4a 563e 757a 093e a2d5 113c 03ec f73d
00000110: e977 69bd f8df 153d db71 fa3d 217b 153d
00000120: 2b5d d3bd eda7 ebbd bd77 f63d 66e6 3f3f
00000130: 2a79 adbe ab1d 5e3f 9d5d 60bf 43c3 16bf
00000140: 158c 7b3f 1ebd 51bf 0a18 1ebe c081 26bf
00000150: d60a bebb cf33 4c3f d449 3b3f 5363 2bbd
00000160: c049 acbf 1242 99be 5b0e be3e 120d 3dbf
00000170: 7db7 43bf 799c 443f dcf4 0dbf ae9f 93be
00000180: 2ab0 6b3f c437 54be 159c c0bf 5614 1ebe
00000190: f08b 3fbf bc5d 653f 4ef2 643f 845e 39bf
000001a0: 0ccc f9be 52b1 023f c087 82be ce62 753f
000001b0: 6509 523f 0272 32bf 6794 9e3e 61f7 1c3f
000001c0: 4c2a 5e3f e900 3a3f ec2d 7ebe 7f87 9b3f
000001d0: a0a5 7c3d 2a90 17bf 3203 cebe f7fe 62bf
000001e0: b2b4 03bf ab06 7b3e c919 a13e a2ae 4abf
000001f0: dbb8 22be 1129 d5bd 0ad7 f3bd 31f2 8bbf
00000200: 078c 5abf ee62 a53e fbd0 823e b551 70bf
00000210: 5789 c8be 22b8 eb3e 2fed 863f 8180 51bf
00000220: bcb5 b8be 6b66 62bf 9504 2ebf 768a 593f
00000230: 2a5f 30bf 6917 96bf 89bd 683f f666 5e3f
00000240: e353 b53f 7b81 c33e 158c a5bf ea9c 523f
00000250: ecb9 9bbd cfe6 5a3f 627b 6bbe 4e6f 80bd
00000260: 5804 5a3d e6fe 2abe a38e 493e 4051 393e
00000270: c93f 1abc 7cbd ae3e a5fd 9cbe 802f fabe
00000280: 43ee 303f 7928 7fbe 871a 84bd 7c6b 24bf
00000290: 5865 b13d bade c33e b0f9 2c3e f68f 9e3d
000002a0: 2211 02bf 6708 2c3e 30c1 16be cae0 363e
000002b0: 0e1a 5cbd a9f0 32bf 651d debe 6724 c03e
000002c0: 656e b5bd 37c1 b73e 7006 90be 7d9f b7be
000002d0: d10c 363f 561d ce3e dea6 0bbe f5c5 393e
000002e0: 4ce2 9bbe 3112 41be 0121 d13e 7674 c23e
000002f0: 99da 09be 9dc7 d4be 993c e53d c737 0dbe
00000300: 9240 063f eb64 bcbe bb92 a6be 41db 233e
00000310: f8e7 b0be 34db b6be c1d6 cdbe 2b00 b7be
00000320: bebd 75be 564c 2bbd 7ad7 55bd a961 d2bd
00000330: 203c 813d e47c f0be 3510 923e 558c a83e
00000340: 09a1 283d 3696 c53d 0034 e9be 4fd3 01bf
00000350: 0031 68be 9e5b a13e 8c2b cc3e a6dc 81be
00000360: 1304 c8b9 0a95 dbbe 37d7 ab3e 0913 a73e
00000370: 90b1 cfbe 5872 ecbe afd0 58bd 35b3 823e
00000380: bb88 10bf 0c07 fdbe 2ec7 013e 5217 55be
00000390: a778 d7bd c9e0 a0be 0460 2cbe dbaa c23e
000003a0: 1e62 1b3e 69b0 01bf 5000 103d 34c1 a8bd
000003b0: be7a aabd 07f6 d43e 4dd2 25bf 4942 b6ba
000003c0: f2e0 1b3e e406 0dbf 0791 eebe 5904 b73d
000003d0: cd69 e2be 611f 8b3d 8f7a 05bd 919a eebe
000003e0: c118 1ebf c73a 99be 2607 c1be 97ec 63bc
000003f0: f909 d03e a35d a3bd 56e1 293e 4e02 dd3c

36 f4 [16]
-1.7314433 0.892994 1.7847704 0.41760695 -1.9603213 -0.8395854 -0.04026666 0.16748859
-1.385079 1.2802408 -0.44068453 1.4800298 0.79590076 0.084874064 -0.8834538 0.21426567
00000000: ef9f ddbf 419b 643f 5b73 e43f 94d0 d53e
00000010: cfeb fabf 12ef 56bf a7ee 24bd 2182 2b3e
00000020: 454a b1bf eede a33f 67a1 e1be 9e71 bd3f
00000030: 27c0 4b3f 74d2 ad3d 072a 62bf 7668 5b3e

38 f4 [16, 16, 3, 3]
0.51078 -0.096452735 0.051735472 0.73204875 -0.26707184 -0.15352307 -0.20613629 0.17000966
0.50319225 0.4262241 0.16763726 -0.25432408 0.8638593 0.57765627 0.4737116 -0.039663427
0.58811116 -0.035188373 0.16320907 -0.70303375 0.41610193 0.48408923 -0.4316514 -0.8513134
0.85080713 0.9471114 0.020977296 -0.5680522 -0.061701305 -0.17734972 0.19875184 0.20117004
0.44182542 0.5699483 -0.1698273 0.11378867 -0.758302 0.25343308 -0.57957345 0.58655155
-0.30736756 0.046534676 0.39537084 1.0008968 -0.2119072 -1.01448 0.030447342 -0.4550482
-0.5875671 -0.2893138 -0.29266202 -0.3106827 -0.59409875 1.0325323 -0.24554077 0.97187006
-0.013284824 0.5407857 -0.19477452 0.19370744 0.40768516 -0.5041525 -0.23924285 -0.5401505
1.3558242 0.5343849 -0.7444239 -0.6019486 -0.8270397 -0.010714264 0.027034357 1.2868625
-0.16769335 -0.31469423 0.26022768 -0.38757455 -0.7004947 -0.9483815 -0.10476369 -0.6089178
-0.17076987 0.051723875 0.2157489 1.32134 -0.9039322 -0.017096195 -0.68046546 -0.59456104
0.54170614 -0.4849692 -0.6358803 -0.7302575 0.16459875 0.10992671 0.342833 0.034781937
0.715323 -0.06687567 0.33384225 -0.04454715 -0.0078778565 -0.29360005 -0.10448136 -0.822554
-0.52099603 0.17028733 1.2670072 0.617296 -0.28414348 -0.99382436 -0.35804787 -0.6960904
-0.5434807 0.21151844 -0.41852123 -0.7352674 0.6439633 0.11642328 -0.05323156 -0.20946634
0.009828022 0.18892258 0.073207885 0.42288953 -0.5272913 0.7867451 0.3495906 -0.054169685
0.10006486 -0.1286414 0.39542678 -0.31764388 0.5539274 0.063154936 -0.38539627 -0.5762896
-0.8580651 0.4444584 -0.4111831 -0.08144386 0.58846533 0.21983713 0.19706063 0.07722548
-0.22843054 0.24297562 0.008211953 0.13517079 0.21824105 -0.042061035 0.39411333 -0.3312071
0.7093178 0.33292434 0.40636545 -0.07375363 -0.054115653 0.20875736 -0.0846407 0.56260675
0.18118365 0.4331867 -0.09569745 -0.39341468 -0.28719684 -0.013218623 -0.33081028 -0.07575603
0.12648688 -0.33212712 -0.94886404 -0.35647458 0.6034051 0.61774236 -0.6451489 0.7565783
-0.27944958 -0.26678053 0.13004015 -0.8742163 -0.33986035 -0.55448055 -0.104532294 -0.6051284
0.4087007 -0.20560579 0.5994075 0.26177096 0.47755572 -0.1721223 -0.26660746 -0.92458695
0.17711641 0.030488333 -0.23449679 -0.10280924 0.8736941 -1.2516018 -0.28327608 -0.2720199
0.09794457 0.12949677 -0.5687976 0.40829578 -0.044055693 -0.6651158 0.2084939 -0.6649469
-0.21083726 -0.13645832 1.0068603 -0.38993385 0.026215544 0.20763342 -0.030940969 -0.30304042
0.06813026 0.10685408 0.41350424 -0.09225512 -0.51590466 0.4679529 -0.3242741 -0.5086503
-0.082539275 0.18301533 1.0487403 -0.19304767 0.7326611 0.3246757 -1.1815208 -0.3500964
-0.15469706 -0.4174799 0.024348576 0.1426399 0.43705386 0.037543688 0.23799434 -0.7495865
-0.14069028 -0.6772963 0.7861046 -0.03887099 -0.21505961 0.43798235 -0.4430124 -0.23280223
-0.45139533 0.4816081 -0.56404173 0.65991455 0.034546427 0.33105838 0.6572616 -0.3454036
00000000: 7ac2 023f 0389 c5bd 93e8 533d 8c67 3b3f
00000010: a4bd 88be 2735 1dbe 6415 53be 0317 2e3e
00000020: 35d1 003f 0c3a da3e 1aa9 2b3e c436 82be
00000030: e225 5d3f 48e1 133f 548a f23e 1e76 22bd
00000040: 748e 163f af21 10bd 4720 273e 05fa 33bf
00000050: 500b d53e 8bda f73e 6a01 ddbe adef 59bf
00000060: 7fce 593f e575 723f 94d8 ab3c de6b 11bf
00000070: 82ba 7cbd 2a9b 35be 9a85 4b3e 85ff 4d3e
00000080: f136 e23e 22e8 113f 35e7 2dbe 090a e93d
00000090: 1420 42bf fbc1 813e ed5e 14bf 3e28 163f
000000a0: 485f 9dbe 259b 3e3d 0c6e ca3e 631d 803f
000000b0: 33fe 58be 7bda 81bf b46c f93c 14fc e8be
000000c0: cc6a 16bf f020 94be ccd7 95be ce11 9fbe
000000d0: db16 18bf 052a 843f 0a6f 7bbe 7acc 783f
000000e0: 97a8 59bc ee70 0a3f f972 47be 3e5b 463e
000000f0: 1cbc d03e 2310 01bf 14fc 74be 4e47 0abf
00000100: a68b ad3f 73cd 083f 9192 3ebf 4e19 1abf
00000110: e0b8 53bf e18a 2fbc 2877 dd3c e9b7 a43f
00000120: ceb7 2bbe 9a1f a1be 903c 853e 2c70 c6be
00000130: 9f53 33bf 21c9 72bf 588e d6bd 09e2 1bbf
00000140: 4cde 2ebe 6adc 533d 48ed 5c3e ab21 a93f
00000150: 1a68 67bf 520d 8cbc fc32 2ebf 2735 18bf
00000160: 41ad 0a3f e24d f8be 0dc9 22bf 28f2 3abf
00000170: 938c 283e 4121 e13d cf87 af3e 8177 0e3d
00000180: 681f 373f 1cf6 88bd 5fed aa3e 1377 36bd
00000190: 2012 01bc bf52 96be 53fa d5bd e692 52bf
000001a0: ff5f 05bf cd5f 2e3e 4b2d a23f 1c07 1e3f
000001b0: 417b 91be 466b 7ebf 0d52 b7be fb32 32bf
000001c0: 8d21 0bbf 4a98 583e 6a48 d6be 7c3a 3cbf
000001d0: c7da 243f 546f ee3d 5609 5abd 587e 56be
000001e0: b605 213c ec74 413e 04ee 953d fa84 d83e
000001f0: 90fc 06bf 2068 493f 8afd b23e 08e1 5dbd
00000200: ceee cc3d 92ba 03be 6175 ca3e 38a2 a2be
00000210: 30ce 0d3f 6057 813d a952 c5be b787 13bf
00000220: 28aa 5bbf 0d90 e33e 9786 d2be 0acc a6bd
00000230: aaa5 163f fc1c 613e 43ca 493e 6428 9e3d
00000240: b2e9 69be 9ace 783e 6d8b 063c 366a 0a3e
00000250: 957a 5f3e 3148 2cbd 39c9 c93e fa93 a9be
00000260: da95 353f 0f75 aa3e 220f d03e 250c 97bd
00000270: 60a8 5dbd 7dc4 553e 1a58 adbd ff06 103f
00000280: 3588 393e a6ca dd3e 06fd c3bd a66d c9be
00000290: 770b 93be ec92 58bc f75f a9be fa25 9bbd
000002a0: c785 013e 910c aabe c1e8 72bf d683 b6be
000002b0: c278 1a3f 5d24 1e3f 7a28 25bf 1eaf 413f
000002c0: 0414 8fbe 7597 88be 3f29 053e a4cc 5fbf
000002d0: 2d02 aebe 70f2 0dbf 0715 d6bd b2e9 1abf
000002e0: 3841 d13e 538a 52be c572 193f d806 863e
000002f0: 2f82 f43e d440 30be c680 88be bbb1 6cbf
00000300: 015e 353e abc2 f93c ed1f 70be a78d d2bd
00000310: 6baa 5f3f 7d34 a0bf 9009 91be 3146 8bbe
00000320: 2a97 c83d cd9a 043e b89c 11bf 250c d13e
00000330: be73 34bd 0745 2abf 6d7f 553e f639 2abf
00000340: b9e5 57be bbbb 0bbe cce0 803f 69a5 c7be
00000350: fbc1 d63c db9d 543e ea77 fdbc 1d28 9bbe
00000360: e187 8b3d 50d6 da3d d4b6 d33e 41f0 bcbd
00000370: 5412 04bf 8697 ef3e 4107 a6be e836 02bf
00000380: 5a0a a9bd 5f68 3b3e 1f3d 863f 4aae 45be
00000390: ae8f 3b3f e53b a63e 133c 97bf d63f b3be
000003a0: e868 1ebe edbf d5be aa76 c73c 3210 123e
000003b0: 86c5 df3e 69c7 193d cab4 733e e7e4 3fbf
000003c0: 1d11 10be 4a63 2dbf 273e 493f 3037 1fbd
000003d0: 9638 5cbe 393f e03e 85d2 e2be b563 6ebe
000003e0: 4a1d e7be 5695 f63e 0a65 10bf 29f0 283f
000003f0: 8e80 0d3d 7c80 a93e 4c42 283f bed8 b0be

39 f4 [16]
0.2813896 2.8130116 4.068951 -1.945496 -1.8391204 1.5027965 0.36993897 -0.6742141
-1.0356791 -2.5793324 0.39389932 0.28290245 0.23691909 1.7909983 3.6175375 2.547407
00000000: 4c12 903e 6208 3440 d934 8240 0306 f9bf
00000010: 4c68 ebbf a35b c03f a468 bd3e 4c99 2cbf
00000020: 2291 84bf c813 25c0 2cad c93e 97d8 903e
00000030: eb9a 723e 6f3f e53f bc85 6740 b708 2340

fc.0.bias f4 [412]
0.11129701 0.02478737 -0.03491224 0.1363345 -0.026044894 0.0034649498 0.018180065 0.0028204322
0.03448455 0.070059724 -0.028844295 0.015094936 0.045111887 -0.018793063 -0.013441481 0.111103594
-0.02972107 0.04926892 0.08819834 -0.041319218 0.038781643 0.055819098 0.03510494 0.078223
0.12724255 0.07968772 -0.061703674 0.0945322 -0.08584145 0.14522435 0.10124572 0.122835904
0.086349614 -0.047050685 0.10587336 0.110790834 0.02500468 0.074375175 0.078284614 -0.025455661
-0.07586555 0.04585891 0.06060582 -0.037905946 0.0005390953 -0.038190752 0.04936732 -0.0046308646
0.10713898 0.11923277 0.08668195 0.03633607 -0.0035876834 -0.0512468 0.04883234 0.07829884
0.03714748 0.078618534 0.09732069 0.074212626 -0.026371328 0.054697752 0.08829311 0.004847652
-0.014171761 0.047844343 0.15306816 0.10266839 -0.020633455 -0.08561048 0.14849801 0.095591374
-0.030912187 -0.014712428 0.08295338 0.035779536 0.0150445625 0.010969966 -0.041077286 -0.013893868
0.13900986 -0.02157806 -0.026649132 0.052420754 0.06775071 0.06637207 0.12748188 0.06241349
0.014464418 0.024203416 0.04775419 0.12318856 0.016743062 0.120250836 0.043129764 0.12565604
-0.0663593 0.12694225 0.057787582 -0.050485548 -0.015539069 0.16554257 0.021016246 0.023325574
-0.049425665 -0.06588163 -0.066087864 0.040461626 0.07033483 -0.06427671 0.030084124 0.11948417
0.019740108 -0.05381178 -0.055058222 0.06891655 0.12761097 0.058230065 0.03804195 0.1009613
0.03588743 0.15207303 0.08804395 0.087873794 0.0073381355 0.06345368 0.037865836 0.067169555
0.009993721 -0.013342254 0.04465397 0.0774207 0.07145668 0.06500774 0.08767323 -0.07916861
-0.0512101 0.03639443 0.049689624 0.076021194 0.019019313 0.12627263 0.075383216 0.057235137
0.10373519 0.058250606 0.087678574 0.059587434 0.095919006 0.12962995 0.053160105 0.1518355
0.08503429 0.031187847 0.10316701 0.029884908 0.10459971 0.03492701 0.10369173 0.09782366
0.061793286 0.017331868 0.07219254 0.05148749 0.01838242 0.01757071 0.12504703 0.09501013
0.027308008 0.02034204 0.103487626 0.12151037 0.08425095 0.11654714 0.05151636 0.10668307
-0.050460275 -0.00045833818 0.099974826 0.030948147 0.09752351 -0.051771335 0.09401874 0.102188244
-0.00224919 0.020958144 0.11698244 -0.062206436 0.05090184 0.049404792 -0.029486898 -0.05952722
0.02081815 0.13314073 0.014261818 0.11759044 0.038610745 0.052542806 0.12107292 -0.0015388633
0.04043374 0.1522783 -0.044318054 -0.025949854 -0.043610793 0.018420344 0.08532982 0.065563545
-0.011655897 -0.0117811905 0.053556822 0.09022594 0.06417011 0.10503148 0.026507903 0.04786762
0.03926541 0.14476705 0.041031078 0.03390488 0.07685647 0.073231526 0.1297543 -0.013826199
0.13947558 -0.064779446 -0.068388544 0.08399135 0.13899164 0.066642724 0.10121005 0.034600664
0.024667628 0.054618724 0.021358056 0.051485546 0.081744455 0.04418781 0.00989975 -0.015681367
0.061126873 0.012168531 0.013100283 -0.015328172 0.00954726 0.040741142 0.025392124 -0.021192716
0.02728719 0.021809166 0.09728773 0.097699486 0.036883317 0.14384146 0.03491381 0.020717543
00000000: b0ef e33d e20e cb3c 2300 0fbd 459b 0b3e
00000010: 1a5c d5bc 3614 633b 5cee 943c 00d7 383b
00000020: ac3f 0d3d 797b 8f3d df4a ecbc c050 773c
00000030: 3ec7 383d e9f3 99bc a839 5cbc 488a e33d
00000040: 9a79 f3bc 35ce 493d 55a1 b43d 573e 29bd
00000050: 80d9 1e3d 91a2 643d 33ca 0f3d 6133 a03d
00000060: df4b 023e 5133 a33d febc 7cbd 199a c13d
00000070: a4cd afbd b1b5 143e eb59 cf3d 6491 fb3d
00000080: 11d8 b03d 38b8 40bd 22d4 d83d 4ee6 e23d
00000090: 9dd6 cc3c 0352 983d af53 a03d 6488 d0bc
000000a0: 665f 9bbd 8dd6 3b3d cf3d 783d 4443 1bbd
000000b0: 1352 0d3a e86d 1cbd 6335 4a3d 82be 97bb
000000c0: ae6b db3d 4f30 f43d 4e86 b13d 22d5 143d
000000d0: 571f 6bbb 2ae8 51bd 6b04 483d 245b a03d
000000e0: f527 183d c102 a13d 1250 c73d cafc 973d
000000f0: af08 d8bc c00a 603d 05d3 b43d 0dd9 9e3b
00000100: ad30 68bc 6ef8 433d e6bd 1c3e ce43 d23d
00000110: 7e07 a9bc 8c54 afbd dd0f 183e 69c5 c33d
00000120: 8e3b fdbc 650c 71bc 76e3 a93d 908d 123d
00000130: 787d 763c 5fbb 333c a840 28bd 1ba3 63bc
00000140: 9a58 0e3e 79c4 b0bc 484f dabc 25b7 563d
00000150: e2c0 8a3d 14ee 873d 9c8a 023e 4aa5 7f3d
00000160: 2bfc 6c3c 3e46 c63c e699 433d 494a fc3d
00000170: bf28 893c 1246 f63d d6a8 303d faab 003e
00000180: 62e7 87bd 26fd 013e acb2 6c3d efc9 4ebd
00000190: 9497 7ebc fe83 293e 432a ac3c 4615 bf3c
000001a0: 9172 4abd f3ec 86bd 1359 87bd 17bb 253d
000001b0: b50b 903d 82a3 83bd fb72 f63c 1eb4 f43d
000001c0: 02b6 a13c be69 5cbd bb84 61bd 1f24 8d3d
000001d0: 73ac 023e a682 6e3d e0d1 1b3d ccc4 ce3d
000001e0: b3fe 123d 08b9 1b3e 6350 b43d 2df7 b33d
000001f0: be74 f03b 01f4 813d 3519 1b3d 3190 893d
00000200: b4bc 233c 7899 5abc 15e7 363d be8e 9e3d
00000210: e157 923d c722 853d 068e b33d 2723 a2bd
00000220: afc1 51bd 5312 153d 5987 4b3d 00b1 9b3d
00000230: 64ce 9b3c 9d4d 013e 8462 9a3d 646f 6a3d
00000240: 1e73 d43d 3098 6e3d d390 b33d f411 743d
00000250: 2f71 c43d b7bd 043e 69be 593d c47a 1b3e
00000260: 7526 ae3d a87d ff3c 3a49 d33d 32d1 f43c
00000270: 5f38 d63d a00f 0f3d 545c d43d c557 c83d
00000280: f51a 7d3d 90fb 8d3c afd9 933d 8ce4 523d
00000290: bb96 963c 73f0 8f3c 540c 003e ac94 c23d
000002a0: 0bb5 df3c 5aa4 a63c 52f1 d33d 6eda f83d
000002b0: c38b ac3d 44b0 ee3d d202 533d a77c da3d
000002c0: 6faf 4ebd 1c4d f0b9 9abf cc3d f886 fd3c
000002d0: 68ba c73d 2e0e 54bd e68c c03d 1248 d13d
000002e0: 2567 13bb 6ab0 ab3c 7d94 ef3d 2dcc 7ebd
000002f0: 737e 503d ae5c 4a3d 828e f1bc d0d2 73bd
00000300: d38a aa3c 0b56 083e 66aa 693c 42d3 f03d
00000310: 4d26 1e3d 2037 573d 14f5 f73d afb3 c9ba
00000320: d99d 253d d8ee 1b3e d986 35bd ca94 d4bc
00000330: 3ba1 32bd 43e6 963c 67c1 ae3d 2e46 863d
00000340: 60f8 3ebc e505 41bc 665e 5b3d 61c8 b83d
00000350: 9e6b 833d bf1a d73d 1a27 d93c d610 443d
00000360: c4d4 203d d03d 143e 3410 283d d8df 0a3d
00000370: ed66 9d3d 69fa 953d 50de 043e 4887 62bc
00000380: b0d2 0e3e 16ab 84bd 4b0f 8cbd a803 ac3d
00000390: d353 0e3e fb7b 883d 3747 cf3d 6db9 0d3d
000003a0: c413 ca3c e2b7 5f3d 17f7 ae3c 82e2 523d
000003b0: a369 a73d 47fe 343d 9032 223c 3676 80bc
000003c0: 2c60 7a3d 855e 473c 92a2 563c 0323 7bbc
000003d0: 1c6c 1c3c 2fe0 263d 2503 d03c 599c adbc
000003e0: 6389 df3c 23a9 b23c ca3e c73d ab16 c83d
000003f0: f612 173d 2d4b 133e c901 0f3d d6b7 a93c

fc.0.weight f4 [412, 64]
-0.12575509 0.106396906 0.014632595 0.06517328 0.12758276 0.066717654 0.08119447 0.04408199
0.1103254 0.17615762 0.19669531 0.18503144 0.09886936 -0.13763466 -0.09480995 -0.112535894
-0.13041764 0.13362576 -0.21317191 0.009000514 -0.12668541 0.008152715 0.2302344 0.07023157
0.068987474 -0.02836739 -0.06043091 -0.12677449 -0.10348852 -0.056635205 -0.046224654 -0.023917338
0.11372047 -0.15510328 0.046868205 -0.17374532 -0.06134191 -0.08010373 -0.011565603 -0.014325913
0.098803 -0.061918795 0.027433736 -0.020893496 -0.1652587 -0.1290328 0.08314723 0.029730214
0.18337646 -0.11527264 -0.033240844 0.17263542 0.09378715 0.10304922 0.053455546 -0.13281164
0.11813173 0.0916634 0.059256792 0.117988735 0.064687915 0.114564605 0.12564296 -0.124849066
0.08620763 0.14960352 0.0904456 -0.10174515 -0.10130309 0.086358145 0.0769855 -0.026176633
0.05450099 -0.120099366 0.0796294 -0.08476063 0.09272544 0.041402835 0.111278474 0.004423003
-0.018486751 -0.09227477 0.16608842 0.1623193 -0.032840323 0.17744617 0.14445539 -0.1218777
0.109710306 0.108427934 -0.06633978 -0.107889 -0.057238817 -0.16844374 0.05739128 0.11837421
0.17434543 0.07474846 -0.051616795 0.14467923 -0.061213844 -0.07818406 0.03837912 0.10928155
0.013231932 0.08900493 -0.016752673 0.08376922 0.022886606 0.12061535 -0.021575468 0.19291309
-0.14122058 -0.04963734 0.049676325 -0.09861001 0.05859559 0.05157974 0.13768053 0.13826646
-0.033696067 -0.069756694 -0.003501825 -0.027999667 0.020960148 -0.040969405 -0.07968663 -0.25514686
0.19913161 -0.009160009 0.13765025 -0.005525406 -0.14345217 -0.020256521 0.06494355 -0.03638147
0.040374625 -0.017047238 -0.14767943 -0.12518422 0.091525115 0.07800392 0.14853767 0.08355803
-0.017491208 -0.07723076 0.092765145 -0.0058153174 0.09737927 0.06066262 -0.13282771 -0.09261729
-0.102816895 -0.06930031 0.061896484 -0.11007359 0.1450315 0.16007654 -0.09332226 0.03087199
0.14796902 0.01982984 -0.03675203 0.06614539 0.108033426 -0.050018657 0.18370812 0.16649152
-0.015890194 0.13576186 0.059094045 -0.06544001 0.022193199 0.026879897 0.17670947 0.18259902
-0.16943772 0.022811968 0.10078481 0.010749971 -0.0026080972 0.14776123 -0.06523964 -0.01147331
0.031802107 -0.0035213432 -0.13106848 -0.035336904 -0.046564333 -0.03150293 -0.13307087 0.038294546
-0.02457718 -0.03182267 -0.0033145715 0.1078255 -0.043804318 0.011264736 0.009698717 0.0032074805
-0.048949584 0.061703194 0.22095469 0.14709969 0.038755108 0.11217176 -0.038646657 -0.1375087
-0.12928538 -0.04998671 -0.14919095 -0.017001793 -0.029683651 0.11551932 0.21825168 0.15198572
0.020344917 0.19230603 0.07587743 0.0036034705 -0.022282341 -0.041986126 0.10405045 -0.15101928
0.080078796 0.05461267 -0.028115204 -0.17551656 0.050941154 0.01847308 0.09947812 -0.09179885
0.05485194 -0.115189485 0.10765495 -0.07273473 -0.11353636 -0.13795355 -0.0506114 -0.08924565
-0.19896162 -0.15525992 0.16561052 0.100993544 0.080298215 0.13709752 -0.0905872 0.08847859
0.2452004 0.079810604 -0.01405177 0.1439309 0.13540043 0.17174424 -0.0078921635 -0.106491975
00000000: f1c5 00be 9fe6 d93d 8dbd 6f3c 9279 853d
00000010: 0ea5 023e 44a3 883d 4949 a63d 518f 343d
00000020: 49f2 e13d aa62 343e 7f6a 493e e278 3d3e
00000030: 057c ca3d 1af0 0cbe b82b c2bd 3879 e6bd
00000040: 348c 05be 31d5 083e bd49 5abe e476 133c
00000050: d2b9 01be f792 053c 91c2 6b3e 92d5 8f3d
00000060: 4e49 8d3d bb62 e8bc 6786 77bd 2cd1 01be
00000070: caf1 d3bd 51fa 67bd 1056 3dbd 4bee c3bc
00000080: 47e6 e83d 65d3 1ebe e0f8 3f3d 4bea 31be
00000090: a841 7bbd 6d0d a4bd a87d 3dbc 3cb7 6abc
000000a0: 3a59 ca3d 909e 7dbd b7bc e03c d628 abbc
000000b0: 9439 29be 2d21 04be 1849 aa3d c78c f33c
000000c0: 0ac7 3b3e 1014 ecbd 8d27 08bd 57c7 303e
000000d0: 7a13 c03d 780b d33d 34f4 5a3d c6ff 07be
000000e0: 0cef f13d 05ba bb3d 40b7 723d 14a4 f13d
000000f0: 197b 843d d9a0 ea3d 8ca8 003e deb0 ffbd
00000100: a08d b03d aa31 193e 8b3b b93d c35f d0bd
00000110: ff77 cfbd 8adc b03d 93aa 9d3d 6170 d6bc
00000120: 6e3c 5f3d a8f6 f5bd bd14 a33d fb96 adbd
00000130: d6e6 bd3d 0596 293d f8e5 e33d d7ee 903b
00000140: 8771 97bc 8efa bcbd 1513 2a3e 0837 263e
00000150: 9383 06bd 73b4 353e 1dec 133e 049b f9bd
00000160: ccaf e03d 770f de3d 27dd 87bd e8f4 dcbd
00000170: 4073 6abd 847c 2cbe 1e13 6b3d 2e6e f23d
00000180: 9c87 323e b815 993d 226c 53bd cb26 143e
00000190: 5ebb 7abd f71e a0bd 6d33 1d3d 01cf df3d
000001a0: bfca 583c 3748 b63d e73c 89bc 328f ab3d
000001b0: b17c bb3c 2e05 f73d 09bf b0bc 028b 453e
000001c0: 219c 10be 8650 4bbd 6779 4b3d 0cf4 c9bd
000001d0: ee01 703d 4745 533d 20fc 0c3e b995 0d3e
000001e0: e304 0abd 99dc 8ebd e07e 65bb 8f5f e5bc
000001f0: 9eb4 ab3c 89cf 27bd be32 a3bd 9ca2 82be
00000200: 28e9 4b3e dd13 16bc 30f4 0c3e 770e b5bb
00000210: 20e5 12be 01f1 a5bc 2001 853d bc04 15bd
00000220: dd5f 253d a6a6 8bbc 4739 17be 4b30 00be
00000230: 8571 bb3d 85c0 9f3d 421a 183e 7920 ab3d
00000240: b949 8fbc 292b 9ebd a7fb bd3d 6b8e bebb
00000250: c86e c73d 5e79 783d fd03 08be 22ae bdbd
00000260: aa91 d2bd 52ed 8dbd 2b87 7d3d 436e e1bd
00000270: 2383 143e 1beb 233e be1f bfbd 41e7 fc3c
00000280: 3185 173e 3072 a23c 4c89 16bd 3c77 873d
00000290: a140 dd3d 5de0 4cbd fb1d 3c3e c17c 2a3e
000002a0: 272c 82bc 2805 0b3e 990c 723d 6905 86bd
000002b0: 83ce b53c 3b33 dc3c 54f3 343e 3dfb 3a3e
000002c0: 1581 2dbe 2ae0 ba3c 4468 ce3d a520 303c
000002d0: 9cec 2abb b84e 173e 5c9c 85bd 8dfa 3bbc
000002e0: ed42 023d 56c6 66bb d136 06be 6ebd 10bd
000002f0: 3eba 3ebd 3709 01bd bb43 08be beda 1c3d
00000300: 1556 c9bc 7d58 02bd 4839 59bb 9ed3 dc3d
00000310: 286c 33bd ba8f 383c 5ee7 1e3c 9834 523b
00000320: 5c7f 48bd 7dbc 7c3d f241 623e 4da1 163e
00000330: adbd 1e3d 4fba e53d f54b 1ebd 15cf 0cbe
00000340: 6363 04be ddbe 4cbd 83c5 18be 5847 8bbc
00000350: 212b f3bc 6595 ec3d 5e7d 5f3e 25a2 1b3e
00000360: 62aa a63c dfeb 443e a065 9b3d 3428 6c3b
00000370: 7589 b6bc a5f9 2bbd 6718 d53d cca4 1abe
00000380: 5a00 a43d 89b1 5f3d db51 e6bc 9dba 33be
00000390: aca7 503d db54 973c 2fbb cb3d 0901 bcbd
000003a0: 6eac 603d 77e8 ebbd 337a dc3d f2f5 94bd
000003b0: c085 e8bd b243 0dbe e64d 4fbd 6cc6 b6bd
000003c0: 98bc 4bbe 75fc 1ebe ce95 293e b4d5 ce3d
000003d0: 6473 a43d 4b63 0c3e c885 b9bd 4334 b53d
000003e0: d015 7b3e be73 a33d 6539 66bc 9f62 133e
000003f0: 69a6 0a3e b9dd 2f3e 224e 01bc 7718 dabd

fc.3.bias f4 [206]
-0.049477126 -0.0106060505 -0.05391864 -0.008002742 -0.005586181 0.009700666 0.044417225 0.028705027
-0.0070728487 0.006425724 -0.037796788 -0.039506726 -0.027158726 -0.034872916 0.001484609 -0.0032292283
0.018444747 -0.0105559835 -0.012389081 -0.054929953 -0.031824026 0.011347278 0.016678266 0.00756019
-0.0076791784 0.01296042 0.019081084 0.05714907 0.005684026 -0.021432731 0.029926298 0.004409102
0.009770283 -0.03110295 0.0036837468 -0.005451703 -0.018155634 -0.00016640975 -0.03198241 0.00094102795
-0.063222624 -0.049127992 -0.05704531 0.03211845 -0.008102051 0.002628492 -0.031700626 -0.0032830604
0.014210349 0.05908819 0.019842913 -0.032929942 -0.039742824 -0.015518473 -0.038091026 -0.06733845
-0.012849289 -0.0187787 0.006808674 0.02855724 -0.015124246 -0.054544155 -0.0016790706 0.011397019
-0.023901194 -0.013359761 -0.012639139 -0.00034763495 -0.06391107 -0.0012034054 -0.005209877 -0.013715107
0.0004540392 -0.024959294 -0.05765934 0.03450189 -0.016316086 0.005916947 0.029612288 0.03717963
0.017666895 -0.046231683 -0.038280413 -0.035222363 0.0054361033 -0.010107669 -0.050329275 0.008454318
-0.07406336 -0.06253814 -0.03413747 -0.051508736 -0.040719684 -0.014108923 -0.023140654 0.0339087
0.03170276 0.018355085 -0.03498925 -0.030599235 0.036885805 0.032861277 0.02789285 0.0072364323
-0.013003574 0.011463719 -0.0031778591 0.0062558674 0.06342658 0.035787113 0.010601374 -0.007852497
0.01690981 -0.044353154 -0.026030714 -0.021199835 -0.037862036 0.045578644 -0.0019734192 -0.032322615
0.0028972698 0.017115382 -0.023373563 0.004709094 0.08070146 0.03139857 0.0030068776 -0.0070508965
0.03044832 0.0069138054 -0.011109405 -0.0049965936 -0.0044414443 -0.023241475 -0.015640674 -0.014334862
0.01429838 0.03359366 -0.057355326 0.0027397315 0.008790927 0.001751261 -0.011237485 0.02221356
-0.02509298 -0.060947165 -0.00068322767 0.049817324 0.019671869 0.031590253 0.06687222 0.047800574
0.042399857 -0.018803952 -0.04035705 0.02598809 -0.0012422778 -0.018074686 -0.011487562 -0.0033718967
0.013048832 0.06311896 0.050842818 0.0841638 0.02412228 -0.07787207 0.020967096 -0.03154644
-0.026476368 -0.0024258744 0.04588553 0.047004044 -0.01272873 -0.022276554 0.028347418 0.041828908
0.05153072 0.019361038 0.049308404 -0.00057424826 0.08647479 0.03180854 0.055492196 -0.002836698
0.019333381 -0.014144757 0.028638685 0.013592184 -0.040872414 -0.0014703498 0.066904955 -0.019885128
-0.024621803 0.045105178 0.021020608 -0.0068694325 0.016467864 -0.047533292 -0.10153894 -0.030912803
-0.057906996 -0.048259545 0.025241906 -0.10540093 -0.029554667 -0.0131197
00000000: 87a8 4abd 00c5 2dbc cbd9 5cbd ef1d 03bc
00000010: 480c b7bb 8bef 1e3c d6ee 353d ce26 eb3c
00000020: 5bc3 e7bb e18e d23b ced0 1abd ced1 21bd
00000030: fa7b debc e7d6 0ebd 3697 c23a 76a1 53bb
00000040: 7019 973c 01f3 2cbc 92fb 4abc 3bfe 60bd
00000050: e959 02bd efe9 393c dca0 883c 78bb f73b
00000060: 9ea1 fbbb f157 543c ef4f 9c3c 2515 6a3d
00000070: 1141 ba3b b293 afbc ff27 f53c 3a7a 903b
00000080: 8913 203c 9dcb febc 046b 713b 33a4 b2bb
00000090: 20bb 94bc 477e 2eb9 fdff 02bd 51af 763a
000000a0: dd7a 81bd 6f3a 49bd 58a8 69bd a38e 033d
000000b0: 77be 04bc c742 2c3b 84d8 01bd 9d28 57bb
000000c0: 86d2 683c 7506 723d 9b8d a23c 8ce1 06bd
000000d0: 5fc9 22bd 3241 7ebc 5605 1cbd bee8 89bd
000000e0: d385 52bc cad5 99bc 4c1b df3b dff0 e93c
000000f0: afcb 77bc b169 5fbd 4314 dcba 90ba 3a3c
00000100: 70cc c3bc e6e2 5abc 6414 4fbc c642 b6b9
00000110: cfe3 82bd 96bb 9dba 9eb7 aabb 54b5 60bc
00000120: 1c0c ee39 6f77 ccbc 332c 6cbd db51 0d3d
00000130: 50a9 85bc f3e2 c13b 7895 f23c ab49 183d
00000140: 2aba 903c 6f5d 3dbd eccb 1cbd 5345 10bd
00000150: 5721 b23b a39a 25bc 1226 4ebd fb83 0a3c
00000160: 88ae 97bd ff13 80bd bbd3 0bbd d3fa 52bd
00000170: afc9 26bd 1d29 67bc 7891 bdbc d9e3 0a3d
00000180: c1da 013d 675d 963c e350 0fbd 3fab fabc
00000190: 9215 173d 8c99 063d 8c7f e43c 981f ed3b
000001a0: f10c 55bc 53d2 3b3c a143 50bb 05fe cc3b
000001b0: cbe5 813d 8295 123d 63b1 2d3c c2a7 00bc
000001c0: 7186 8a3c a7ab 35bd 5d3e d5bc 47ab adbc
000001d0: 3915 1bbd acb0 3a3d 7b54 01bb b864 04bd
000001e0: 1fe0 3d3b 8f35 8c3c ea79 bfbc be4e 9a3b
000001f0: cf46 a53d c99b 003d 090f 453b 350b e7bb
00000200: c16e f93c 348d e23b 3904 36bc 77ba a3bb
00000210: 8989 91bb e864 bebc df20 80bc c5dc 6abc
00000220: c143 6a3c 8199 093d 6bed 6abd 118d 333b
00000230: d207 103c 918a e53a 6e1d 38bc 36f9 b53c
00000240: cb8f cdbc bca3 79bd a21a 33ba 400d 4c3d
00000250: e626 a13c c864 013d 4df4 883d 89ca 433d
00000260: 79ab 2d3d bf0a 9abc 6f4d 25bd fae4 d43c
00000270: edd3 a2ba 5d11 94bc 5436 3cbc 0afb 5cbb
00000280: c5ca 553c 8344 813d 8f40 503d 125e ac3d
00000290: 169c c53c 647b 9fbd 30c3 ab3c d736 01bd
000002a0: f8e4 d8bc 6bfb 1ebb 77f2 3b3d 5087 403d
000002b0: 2a8c 50bc 527d b6bc d838 e83c ca54 2b3d
000002c0: e011 533d 0a9b 9e3c 9cf7 493d 2689 16ba
000002d0: b219 b13d ac49 023d c94b 633d e5e7 39bb
000002e0: 0a61 9e3c 69bf 67bc ad9b ea3c c0b1 5e3c
000002f0: d569 27bd c1b8 c0ba 7705 893d 23e6 a2bc
00000300: aab3 c9bc 35c0 383d 6933 ac3c fa18 e1bb
00000310: 9de7 863c 45b2 42bd a6f3 cfbd d93c fdbc
00000320: e32f 6dbd cdab 45bd 1dc8 ce3c 71dc d7bd
00000330: a11c f2bc 03f4 56bc

fc.3.weight f4 [206, 412]
-0.07429625 -0.0015253543 -0.03923889 -0.05708071 0.03460113 -0.04458645 -0.06865408 0.032997463
0.060716357 0.06035038 0.03897622 0.04107744 -0.05925261 0.050678827 -0.061279096 0.0052297306
0.051418472 0.02257569 -0.04176283 -0.021587472 -0.018794818 0.005871035 -0.03582185 0.045594487
-0.061899625 0.0021581452 -0.046888046 0.021345036 -0.00053592154 -0.0723692 0.03328756 0.036440328
-0.049037404 -0.05424437 0.013609356 -0.013032161 -0.06713243 0.0031497502 -0.031910617 -0.091738164
-0.0509087 -0.05364782 0.019120708 -0.0400627 -0.036167912 0.059274323 0.020709736 -0.038329855
0.03607654 0.03484849 0.05812363 0.021903198 -0.0682642 0.070302285 -0.018976793 0.06002156
0.047551524 -0.023777317 -0.0003939288 0.043971136 -0.07524495 0.073132075 -0.060452968 0.0014008455
0.0660764 0.055969365 -0.107243694 -0.08431024 -0.07345302 -0.035699904 0.031075079 0.014454796
-0.011138022 0.040721245 -0.03432476 0.0037301332 0.04834076 -0.05075379 0.0034303078 -0.09488808
0.06332817 -0.069306895 0.055591732 -0.09360276 -0.055677727 0.016118068 -0.063195996 0.018623283
0.049157932 -0.058098122 0.016746849 0.020659346 0.014029768 -0.013314885 -0.059696574 0.05031185
-0.056809764 -0.031447668 -0.0852389 -0.057047475 0.02308694 0.061126657 -0.019625546 0.04569056
0.07576357 0.019228075 -0.04788959 -0.017510662 -0.034863345 -0.005761104 -0.10278979 0.031147806
0.005522881 -0.050471254 0.04690787 0.0014252624 0.043045614 -0.04990194 0.05086434 -0.05589611
-0.0500887 -0.07102319 -0.05884118 -0.060868476 0.0174331 0.042122036 -0.019815791 -0.07946991
-0.017921887 0.042526934 -0.08546329 0.05181136 0.02375531 -0.04389834 0.00043234337 0.034827266
-0.07158161 0.020486774 0.013267371 -0.081765845 -0.09835717 -0.047460932 -0.00074210676 -0.012956584
-0.10940968 -0.041856233 -0.05996959 0.051344078 -0.04827483 -0.00694386 0.07097911 0.013058789
-0.055003602 0.030566972 0.043410506 -0.07899178 0.06587544 -0.0616513 0.002248963 0.048650723
0.02344309 0.021650886 0.008580397 0.051165007 -0.036014203 0.04992984 0.027111115 -0.062237225
0.005773071 0.02686093 0.008080093 0.00054932333 0.06417326 -0.019773446 -0.084336184 -0.05940395
-0.05992736 -0.075014524 0.019885771 0.030269746 0.0536071 0.06538098 0.017529685 -0.010685813
-0.0034051705 0.029641243 0.025392482 0.0027845332 0.008954763 0.05571709 -0.011978228 0.031548508
0.0022243252 -0.008972283 -0.0104540065 0.04702332 0.028243916 -0.018169459 -0.052823734 -0.043429922
0.0601811 -0.06671207 -0.021559184 0.050116535 0.024987845 -0.06047477 -0.0471305 -0.060140107
-0.038215302 -0.058686893 -0.055434495 -0.008737296 -0.02452704 0.015424613 -0.06635454 -0.001420971
0.04498601 0.029014118 -0.00595947 -0.07206809 0.027142182 -0.0345325 0.04241642 -0.08646764
-0.099018745 -0.05660038 0.041399583 -0.04661272 -0.037766013 -0.121750645 0.014942337 0.02677839
0.034927364 -0.063053265 -0.011391239 -0.08066151 -0.0044524237 -0.03683419 0.012989276 -0.063678354
0.047361426 0.031145215 -0.04623331 -0.06554721 0.0067595276 -0.02422506 0.038616713 0.010341883
-0.083312124 -0.057802707 -0.062294275 0.029453827 -0.05273756 0.057193074 0.058820713 -0.043543223
00000000: a228 98bd 66ee c7ba f5b8 20bd 76cd 69bd
00000010: eab9 0d3d 48a0 36bd 839a 8cbd 5928 073d
00000020: b7b1 783d f631 773d 87a5 1f3d d140 283d
00000030: ddb2 72bd 9a94 4f3d caff 7abd 295e ab3b
00000040: 2d9c 523d a7f0 b83c 800f 2bbd 36d8 b0bc
00000050: 97f7 99bc d061 c03b efb9 12bd 49c1 3a3d
00000060: 768a 7dbd ab6f 0d3b ae0d 40bd c9db ae3c
00000070: 167d 0cba 4e36 94bd 8958 083d 7442 153d
00000080: 72db 48bd 582f 5ebd c7f9 5e3c d884 55bc
00000090: ba7c 89bd 0a6c 4e3b b5b4 02bd 38e1 bbbd
000000a0: a485 50bd d1bd 5bbd 08a3 9c3c c918 24bd
000000b0: ce24 14bd a2c9 723d 77a7 a93c c4ff 1cbd
000000c0: fec4 133d 4abd 0e3d 0b13 6e3d 566e b33c
000000d0: 1ace 8bbd a5fa 8f3d 3875 9bbc 2bd9 753d
000000e0: 63c5 423d a6c8 c2bc 3b88 ceb9 141b 343d
000000f0: 061a 9abd 45c6 953d 889d 77bd 939c b73a
00000100: 1053 873d 2240 653d 95a2 dbbd d9aa acbd
00000110: 896e 96bd 103a 12bd 2a91 fe3c cfd3 6c3c
00000120: 407c 36bc 52cb 263d 1f98 0cbd 4075 743b
00000130: f600 463d 35e3 4fbd 04cf 603b af54 c2bd
00000140: 33b2 813d c6f0 8dbd 28b4 633d ceb2 bfbd
00000150: 540e 64bd 0a0a 843c e76c 81bd db8f 983c
00000160: d459 493d 4cf8 6dbd b030 893c ca3d a93c
00000170: 1ddd 653c ad26 5abc 6584 74bd cc13 4e3d
00000180: 5bb1 68bd 45cf 00bd bb91 aebd 9daa 69bd
00000190: d320 bd3c f25f 7a3d c1c5 a0bc 0626 3b3d
000001a0: ee29 9b3d 3284 9d3c e027 44bd 8572 8fbc
000001b0: decc 0ebd a5c7 bcbb 7483 d2bd af29 ff3c
000001c0: 49f9 b43b f2ba 4ebd 7722 403d dfcf ba3a
000001d0: 9950 303d fa65 4cbd 2057 503d 52f3 64bd
000001e0: cf29 4dbd 9b74 91bd 7303 71bd 3951 79bd
000001f0: dccf 8e3c 2888 2c3d ba54 a2bc 1fc1 a2bd
00000200: ecd0 92bc b930 2e3d 6107 afbd 2638 543d
00000210: 7f9a c23c bfce 33bd 25ac e239 09a7 0e3d
00000220: 6199 92bd e1d3 a73c 635f 593c da74 a7bd
00000230: 7c6f c9bd 6566 42bd f189 42ba da47 54bc
00000240: 2f12 e0bd 7171 2bbd aca2 75bd 2b4e 523d
00000250: d4bb 45bd 5289 e3bb 7f5d 913d 88f4 553c
00000260: 754b 61bd 9667 fa3c 37cf 313d 71c6 a1bd
00000270: b4e9 863d 1386 7cbd 5763 133b fb45 473d
00000280: b90b c03c 335d b13c cb94 0c3c 6692 513d
00000290: a183 13bd 3b83 4c3d 2118 de3c 76ec 7ebd
000002a0: 082c bd3b 740b dc3c 5e62 043c 7700 103a
000002b0: 456d 833d ecfb a1bc 73b8 acbd 8e51 73bd
000002c0: 6476 75bd 37a1 99bd 7ce7 a23c 42f8 f73c
000002d0: 1e93 5b3d 77e6 853d 6a9a 8f3c 8c13 2fbc
000002e0: 4829 5fbb 31d2 f23c e503 d03c b77c 363b
000002f0: 00b7 123c 9a37 643d 5440 44bc 0239 013d
00000300: fcc5 113b 7c00 13bc 4847 2bbc 869b 403d
00000310: c95f e73c 1ed8 94bc b35d 58bd 93e3 31bd
00000320: 7580 763d 56a0 88bd e39c b0bc ff46 4d3d
00000330: 4fb3 cc3c 64b4 77bd e90b 41bd 7955 76bd
00000340: a687 1cbd ab61 70bd 480f 63bd e026 0fbc
00000350: eeec c8bc 84b7 7c3c e4e4 87bd e03f baba
00000360: 4043 383d 04af ed3c a847 c3bb 6f98 93bd
00000370: 4859 de3c f371 0dbd d7bc 2d3d f215 b1bd
00000380: 57ca cabd cdd5 67bd 9c92 293d fbec 3ebd
00000390: 89b0 1abd 6758 f9bd b4d0 743c 5b5e db3c
000003a0: ff0f 0f3d 1222 81bd 52a2 3abc dd31 a5bd
000003b0: a3e5 91bb 73df 16bd f9d0 543c cc69 82bd
000003c0: 0efe 413d 4024 ff3c 245f 3dbd 9e3d 86bd
000003d0: 077f dd3b a273 c6bc 8f2c 1e3d 0071 293c
000003e0: 8c9f aabd 88c2 6cbd 4828 7fbd 2749 f13c
000003f0: 5703 58bd 4943 6a3d fded 703d 615a 32bd
