inventory/ark_material.onnx (onnx, 616855 bytes, 8 tensors)

35 f4 [8, 3, 5, 5]
0.07567754 0.19495754 0.05597644 0.06535178 -0.05152875 -0.16063197 -0.11506729 0.04506433
-0.010954653 -0.19851224 -0.25687486 0.024993034 -0.14376178 -0.16178134 0.10905339 -0.265582
-0.11155364 -0.25154898 -0.08850232 -0.09016742 -0.3862413 -0.03295922 0.1130732 0.13935019
-0.3913189 0.1570541 0.098062485 -0.22390477 -0.04405797 0.013839269 -0.23156326 0.037789587
-0.001595038 0.20117402 0.06510247 -0.061958678 0.058996018 0.0049966504 -0.137105 -0.08767862
-0.09427937 -0.07322064 0.12983221 0.024549201 -0.14991724 -0.30155823 0.23833975 -0.40183794
-0.37786835 -0.32606268 -0.20241454 0.1883721 0.16756827 0.18713288 0.05210844 0.22904539
-0.16593318 0.1832624 -0.14392012 0.13163577 -0.21210219 -0.14798373 -0.31824875 -0.116940744
-0.33952066 -0.28643557 0.14778706 -0.086695746 0.16310854 -0.11736717 0.26753917 0.073111266
-0.15116046 0.02543774 -0.30839077 -0.8335784 0.15355659 0.01639349 0.7420927 -0.11585081
0.015588718 -0.15147302 0.31574762 0.12337463 0.6508893 0.2579297 0.49438822 -0.11191596
-0.27813202 0.45176655 0.49120718 0.22163612 -0.014837703 -0.19936559 -0.69216335 0.41304058
0.39298216 0.10995805 0.2705839 -0.48602492 0.15215158 -0.41204298 0.6262999 0.031719398
-0.22876447 -0.02261154 -0.38113987 0.48553327 0.12427248 0.4881749 -0.39460528 0.19295503
-0.30181554 0.020971822 0.17122898 0.038605075 -0.22272821 -0.6719176 -0.6958874 0.4632924
-0.09295848 -0.17462075 -0.63108224 -0.91689736 -0.46877998 -0.57397157 0.3242223 0.36039406
0.6429389 -0.4221238 0.37027985 -0.096760325 0.01637087 0.57396656 0.55647904 -0.18574046
-0.35073707 -0.4718286 -0.42935124 0.38485247 0.25668707 -0.033825293 0.42873865 -0.00977749
-0.47909573 0.26357284 -0.13323013 -0.07824694 -0.3186747 -0.32736915 -0.21472234 0.16013083
0.4746931 -0.16467877 -0.044254113 0.1988708 0.30885854 -0.20423712 0.041127104 0.17684937
-0.29550228 -0.33371848 0.12231611 -0.41168272 -0.09319646 -0.38200212 0.15973547 -0.108896576
0.11864316 0.19211723 -0.39513463 -0.33425167 -0.02207413 -0.46970516 -0.23019546 -0.10200177
0.07165176 -0.22541264 0.30319574 -0.09298493 0.24485256 0.42174855 0.25590622 0.38873276
0.38331273 0.03701229 -0.231058 0.08673144 0.30809602 0.27749515 0.39347965 0.05679844
-0.36368778 -0.32646343 -0.049596645 0.05744132 -0.46881914 -0.29719958 -0.33588254 -0.16764033
-0.034687918 0.23156205 -0.060368087 0.105182834 -0.14482898 0.47455978 0.04458036 0.4242014
0.39176518 0.3943438 0.48598984 0.36431313 0.27099016 0.19882457 0.11297214 -0.083676524
-0.24680161 -0.35334823 0.054312974 -0.14249907 -0.3950693 0.08858486 -0.16743107 0.26288548
-0.4386869 0.033240903 0.25818676 0.11600426 -0.15058903 0.062624104 -0.5302205 -0.088785455
0.21422462 0.16283058 0.31845716 -0.42917132 0.32974133 0.26405406 -0.039996848 0.3505887
-0.5773346 -0.5939573 0.041338246 0.13289544 0.54922205 -0.62402445 -0.16947003 0.22070165
0.30630293 0.21138272 -0.06064489 0.054503515 0.37805519 0.49612445 -0.12285188 0.13965636
00000000: d3fc 9a3d f3a2 473e 8d47 653d 27d7 853d
00000010: d00f 53bd b57c 24be 66a8 ebbd 6095 383d
00000020: 257b 33bc cb46 4bbe 1a85 83be 31be cc3c
00000030: 4a36 13be 02aa 25be 6257 df3d 5dfa 87be
00000040: 3c76 e4bd 07cb 80be b440 b5bd b2a9 b8bd
00000050: 6bc1 c5be 3f00 07bd ec92 e73d d1b1 0e3e
00000060: f35a c8be cad2 203e fcd4 c83d 4b47 65be
00000070: 2176 34bd 1abe 623c eb1e 6dbe 41c9 1a3d
00000080: 9810 d1ba 9000 4e3e 7254 853d 62c8 7dbd
00000090: cfa5 713d f1ba a33b 4165 0cbe d990 b3bd
000000a0: 8b15 c1bd b4f4 95bd bcf2 043e 681b c93c
000000b0: e883 19be d765 9abe 560f 743e b4bd cdbe
000000c0: f677 c1be b0f1 a6be c245 4fbe 9ee4 403e
000000d0: 0497 2b3e c39f 3f3e a96f 553d e08a 6a3e
000000e0: 63ea 29be 23a9 3b3e cc5f 13be 87cb 063e
000000f0: 5131 59be 0c89 17be 80f1 a2be a17e efbd
00000100: a7d5 adbe afa7 92be 7e55 173e 8a8d b1bd
00000110: ed05 273e 335e f0bd e5fa 883e 5cbb 953d
00000120: cfc9 1abe cf62 d03c 65e5 9dbe 6565 55bf
00000130: f03d 1d3e a44b 863c caf9 3d3f 3143 edbd
00000140: d267 7f3c be1b 1bbe aca9 a13e d7ab fc3d
00000150: aea0 263f 5d0f 843e 7420 fd3e 3234 e5bd
00000160: 5267 8ebe f24d e73e 827f fb3e 94f4 623e
00000170: d619 73bc 7e26 4cbe 9e31 31bf 0e7a d33e
00000180: f534 c93e b031 e13d f989 8a3e 42d8 f8be
00000190: a0cd 1b3e 4cf7 d2be 3155 203f 33ec 013d
000001a0: 3c41 6abe d63b b9bc c424 c3be d197 f83e
000001b0: 9282 fe3d 0ff2 f93e b409 cabe 0196 453e
000001c0: 9187 9abe 19cd ab3c a656 2f3e 5b20 1e3d
000001d0: dd12 64be cb02 2cbf ad25 32bf a934 ed3e
000001e0: 0461 bebd c8cf 32be 9b8e 21bf c9b9 6abf
000001f0: ee03 f0be cdef 12bf 7700 a63e 9285 b83e
00000200: a597 243f 9c20 d8be 5295 bd3e 472a c6bd
00000210: 341c 863c 79ef 123f 6975 0e3f bf32 3ebe
00000220: cf93 b3be 8593 f1be edd3 dbbe 620b c53e
00000230: 7d6c 833e 648c 0abd a283 db3e c431 20bc
00000240: 094c f5be 05f3 863e 7b6d 08be ef3f a0bd
00000250: 5529 a3be ee9c a7be 2ce0 5bbe 56f9 233e
00000260: f90a f33e 8da1 28be cd43 35bd c9a4 4b3e
00000270: b522 9e3e 8923 51be e574 283d 0018 353e
00000280: 134c 97be 26dd aabe de80 fa3d 14c8 d2be
00000290: c9dd bebd c895 c3be b291 233e 2b05 dfbd
000002a0: 2ffb f23d 61ba 443e 164f cabe 0923 abbe
000002b0: ced4 b4bc 327d f0be 5cb8 6bbe 4ee6 d0bd
000002c0: 28be 923d 92d2 66be 793c 9b3e e26e bebd
000002d0: a1ba 7a3e 6def d73e 2406 833e fb07 c73e
000002e0: 9141 c43e 339a 173d 789a 6cbe 41a0 b13d
000002f0: c3be 9d3e d813 8e3e 2a76 c93e 7ba5 683d
00000300: 4935 babe 3726 a7be da25 4bbd 9747 6b3d
00000310: 1009 f0be 8b2a 98be ccf8 abbe e8a9 2bbe
00000320: eb14 0ebd 9a1e 6d3e 8744 77bd 196a d73d
00000330: 0c4e 14be 80f9 f23e e599 363d ed30 d93e
00000340: 7295 c83e 6ee7 c93e a9d3 f83e 4087 ba3e
00000350: 39bf 8a3e ab98 4b3e f05d e73d 995e abbd
00000360: 90b9 7cbe 0fea b4be 4877 5e3d 47eb 11be
00000370: 8646 cabe fb6b b53d 0d73 2bbe ed98 863e
00000380: 929b e0be 9d27 083d 0e31 843e a493 ed3d
00000390: 0334 1abe 1141 803d 88bc 07bf 26d5 b5bd
000003a0: b35d 5b3e 0fbd 263e d10c a33e 58bc dbbe
000003b0: dbd3 a83e 1832 873e bcd3 23bd 5d80 b33e
000003c0: 33cc 13bf 960d 18bf 4b52 293d be15 083e
000003d0: d199 0c3f 11c0 1fbf 8d89 2dbe 9dff 613e
000003e0: bdd3 9c3e b674 583e c766 78bd 143f 5f3d
000003f0: 7390 c13e 0604 fe3e c499 fbbd 1402 0f3e

36 f4 [8]
1.8931121 0.24181774 -0.33291793 -0.26169223 0.39508277 0.5315804 -0.7395963 -1.1977203
00000000: 7f51 f23f 129f 773e 3874 aabe 86fc 85be
00000010: 4a48 ca3e a715 083f 2f56 3dbf e64e 99bf

38 f4 [16, 8, 3, 3]
0.29710376 0.51476306 -0.42611176 -0.05200065 1.163165 1.5325837 -0.89547414 0.558418
0.28200397 -0.13814025 -0.57135063 0.33928302 -0.44866636 -0.33975637 -0.4892965 0.62152004
0.22023451 -0.18985863 -0.39078495 0.32159945 -0.1679654 -0.28505135 0.6449629 0.45784616
-0.54378664 0.41526452 0.78881234 0.16522047 0.22805358 0.21711174 1.311518 0.09006708
0.08121191 -0.32393044 -0.7905402 0.19039504 0.35575432 0.23952347 0.2761442 0.96193665
0.76596975 -0.31669688 -0.008236662 -0.5904751 0.34999615 0.38074747 -0.06402885 0.26232854
-0.11939331 -0.63978064 -0.04597335 -0.872696 -0.2607341 0.12379792 0.69956523 0.31410742
-0.7763958 0.5382221 -0.58293676 -0.53727716 -0.403008 0.20389155 -0.7696753 -0.16476451
-0.19236718 -0.6372691 0.12505153 0.7859672 -0.025015581 -0.45300564 -0.31907648 0.7452125
0.41970208 -1.0604061 -0.027646394 -0.016384332 -1.7618524 0.57509804 1.1939023 -0.59133536
-0.49058032 0.61462307 -1.5107648 0.8068186 -0.9202943 -2.680324 -0.108580954 -0.10721044
-0.7725661 1.3473135 -0.8915906 -0.6484879 -0.08392253 -0.39752 -1.6787225 0.87283236
1.5923214 0.8177891 0.394223 1.4657061 -0.5506855 1.7892377 0.22901173 0.5604995
1.5011992 -0.7127165 0.37396267 0.32139152 1.4500886 1.1844716 0.15646705 -0.35924643
-1.0478973 -0.08337217 1.1067709 -0.4913288 0.5357873 -0.7753439 0.12965077 0.62383884
0.019396918 0.9769507 -0.58835614 -0.032671366 -0.8513736 -0.029948583 0.0017782926 -0.6675606
1.0484614 -0.95195204 0.14141594 -0.47028622 -0.93973243 0.3223527 -1.0361295 0.44832736
-1.822305 0.5636052 0.040210683 -0.74318606 0.5827618 0.42299387 -1.3266376 0.31244403
-1.4496813 0.5806087 -0.5376355 0.28636155 -0.7757593 0.15129416 0.5892459 -0.29684114
1.103353 0.107344605 0.35629898 0.066863656 -0.715203 -0.003967104 -1.2624025 0.5209455
0.5633741 -0.6227444 0.86452377 0.45210466 -0.6410174 0.61405724 0.33194262 -0.39310157
0.3372313 0.64289725 0.7148282 1.1257607 0.8001178 -0.113617435 -0.37593147 0.92248976
-0.96769077 1.357375 1.2655957 0.19873895 -1.0959686 0.9646395 0.38674212 -0.76936215
0.60502464 0.49621284 -0.81940144 -0.25542718 -0.19063272 -0.30119953 -0.6311015 0.09940871
0.6447579 0.61130065 -0.48654795 0.8489268 0.74925745 -0.28226244 -0.09164785 -0.12361726
-0.33426756 -0.87869734 0.09473521 -1.0058349 -0.33150962 0.39422262 0.6480745 0.4148744
-0.09798886 -0.70757926 1.1957136 -0.7286436 -1.3192128 0.1035591 0.98968035 -0.5936059
0.06372341 0.5600403 0.5382929 -0.24853577 -0.041193493 -0.18587418 0.01632347 0.19253083
-0.02629355 0.1847033 -0.6461384 0.23000428 -0.92815405 -1.2101214 0.5857772 -0.31171027
-0.21109158 0.85040385 -0.1648663 -1.0870302 0.01137177 -0.780433 -0.255279 0.22883508
0.033170305 -0.6243533 -0.17403454 -0.6048678 0.51904154 -0.6878562 0.45469293 0.76331407
0.7298006 1.1585419 -0.5235052 -1.2087847 0.59716463 -0.20741636 -0.0066335476 -0.60053474
00000000: fc1d 983e 83c7 033f 522b dabe a2fe 54bd
00000010: 97e2 943f b42b c43f cb3d 65bf 7bf4 0e3f
00000020: d362 903e a374 0dbe 0944 12bf 81b6 ad3e
00000030: 99b7 e5be 8cf4 adbe 1285 fabe f01b 1f3f
00000040: 2885 613e 4d6a 42be f714 c8be afa8 a43e
00000050: 1fff 2bbe 40f2 91be 4a1c 253f d06a ea3e
00000060: 9a35 0bbf 8d9d d43e 9bef 493f 8e2f 293e
00000070: e186 693e 8a52 5e3e d2df a73f 1775 b83d
00000080: 6e52 a63d 36da a5be d860 4abf ebf6 423e
00000090: 6e25 b63e a445 753e c662 8d3e 7b41 763f
000000a0: 9816 443f 1826 a2be 10f3 06bc 6029 17bf
000000b0: b232 b33e 55f1 c23e 8f21 83bd ed4f 863e
000000c0: 7b84 f4bd aac8 23bf 8d4e 3cbd 0169 5fbf
000000d0: f17e 85be c489 fd3d b516 333f b0d2 a03e
000000e0: e0c1 46bf ecc8 093f 583b 15bf ff8a 09bf
000000f0: 1157 cebe f2c8 503e 7109 45bf 07b8 28be
00000100: e7fb 44be 1124 23bf 820d 003e 2535 493f
00000110: 7aed ccbc 5bf0 e7be fe5d a3be 3fc6 3e3f
00000120: 31e3 d63e 63bb 87bf b17a e2bc 6f38 86bc
00000130: 6184 e1bf a039 133f cad1 983f c161 17bf
00000140: 582d fbbe f057 1d3f be60 c1bf aa8b 4e3f
00000150: 6898 6bbf 6e8a 2bc0 b15f debd 2691 dbbd
00000160: e4c6 45bf c574 ac3f 483f 64bf 4e03 26bf
00000170: 93df abbd be87 cbbe 61e0 d6bf f171 5f3f
00000180: 30d1 cb3f a05a 513f 99d7 c93e 429c bb3f
00000190: baf9 0cbf be05 e53f 0d82 6a3e e57c 0f3f
000001a0: 4c27 c03f 9774 36bf 0978 bf3e 6e8d a43e
000001b0: 819c b93f c49c 973f e638 203e 26ef b7be
000001c0: 8021 86bf 07bf aabd abaa 8d3f 738f fbbe
000001d0: 5b29 093f f07c 46bf 2cc3 043e e7b3 1f3f
000001e0: 49e6 9e3c 7119 7a3f 829e 16bf 69d2 05bd
000001f0: 9ff3 59bf bb56 f5bc 9915 e93a 40e5 2abf
00000200: fc33 863f 21b3 73bf 57cf 103e 5bc9 f0be
00000210: 4e92 70bf 6a0b a53e e49f 84bf 2a8b e53e
00000220: 4a41 e9bf 6e48 103f f5b3 243d 7141 3ebf
00000230: e12f 153f a792 d83e 43cf a9bf aaf8 9f3e
00000240: 288f b9bf c6a2 143f 7ba2 09bf fb9d 923e
00000250: 2998 46bf dbec 1a3e d2d8 163f 90fb 97be
00000260: ac3a 8d3f 7dd7 db3d d26c b63e d0ef 883d
00000270: 8b17 37bf 7bfe 81bb 6896 a1bf af5c 053f
00000280: 4939 103f 2d6c 1fbf 6e51 5d3f 437a e73e
00000290: b719 24bf db32 1d3f 62f4 a93e 9c44 c9be
000002a0: 95a9 ac3e ea94 243f fbfe 363f ed18 903f
000002b0: 85d4 4c3f 42b0 e8bd 177a c0be 4a28 6c3f
000002c0: 95ba 77bf 77be ad3f 0aff a13f 3982 4b3e
000002d0: b348 8cbf 9df2 763f 1003 c63e ebf4 44bf
000002e0: e5e2 1a3f 9c0f fe3e 4bc4 51bf 5ac7 82be
000002f0: 3935 43be d336 9abe de8f 21bf cb96 cb3d
00000300: db0e 253f 337e 1c3f d01c f9be 4453 593f
00000310: 56cf 3f3f b484 90be deb1 bbbd 0c2b fdbd
00000320: 1e25 abbe 4ff2 60bf 8904 c23d 33bf 80bf
00000330: a1bb a9be 8cd7 c93e 36e8 253f 6b6a d43e
00000340: 62ae c8bd ea23 35bf 250d 993f 6388 3abf
00000350: f7db a8bf cb16 d43d b15b 7d3f 8ef6 17bf
00000360: 6b81 823d cd5e 0f3f 90cd 093f 2980 7ebe
00000370: 82ba 28bd cd55 3ebe ccb8 853c cd26 453e
00000380: 9265 d7bc dd22 3d3e 5469 25bf 3e86 6b3e
00000390: 819b 6dbf 42e5 9abf 7ff5 153f 7d98 9fbe
000003a0: 6428 58be 11b4 593f b6d2 28be ce23 8bbf
000003b0: a950 3a3c 75ca 47bf eeb3 82be be53 6a3e
000003c0: 96dd 073d 9ed5 1fbf 1c36 32be 9ed8 1abf
000003d0: e8df 043f 5817 30bf 83cd e83e 8d68 433f
000003e0: 36d4 3a3f 1a4b 943f 7004 06bf 75b9 9abf
000003f0: c8df 183f f464 54be 3b5e d9bb a5bc 19bf

39 f4 [16]
-1.151745 2.0798433 -1.378139 0.17761464 -1.6119188 -1.1749969 1.4731004 6.2320232
0.12707531 0.44915032 -1.4275562 0.022776961 -0.9027844 4.024449 1.490263 3.4950082
00000000: 616c 93bf 271c 0540 dc66 b0bf 9de0 353e
00000010: 5b53 cebf 4c66 96bf 8e8e bc3f bc6c c740
00000020: 0820 023e 08f7 e53e 29ba b6bf c096 ba3c
00000030: e11c 67bf 49c8 8040 f0c0 be3f 37ae 5f40

fc.0.bias f4 [482]
0.061003543 0.048686765 0.054455556 0.07102763 0.15483713 -0.02532033 0.030676764 0.041376173
0.079673536 0.09402856 0.023400092 0.08342375 0.06600593 0.018940646 -0.022080107 0.08738518
-0.012994578 0.081636116 0.1193787 0.025036551 0.0969603 0.09141182 0.09932075 0.12673898
-0.021799868 0.010208373 0.04502472 0.054296028 -0.00983573 0.14709719 0.031537972 0.034762517
0.07493434 -0.0007675211 0.11997612 -0.0056228354 -0.027574575 -0.011595415 -0.014072061 0.01340842
-0.05483604 0.11004911 -0.014271036 0.028493596 0.10930899 0.017190777 0.124946296 0.13240427
0.110004015 -0.01022345 0.03389333 0.031996265 -0.07987194 0.13426998 0.012775398 0.03728254
0.035846543 -0.023344707 0.13335204 -0.01728953 0.05710144 0.087938644 0.034942754 0.10536749
0.016030254 0.042378247 0.0076305442 0.10658832 -0.019813057 -0.03467308 0.015181745 0.07896249
-0.0144051025 0.0037982303 0.06135861 0.102750614 0.09211871 0.017899798 -0.032615077 0.025124244
0.07684838 -0.08082068 0.13343766 -0.022324657 0.077491246 -0.050939303 0.019179618 0.079999425
0.01766087 0.10655857 -0.011138617 -0.023376044 0.12899 -0.001183235 -0.02953616 0.013599599
0.059670854 -0.053160463 -0.056763563 0.10905837 0.06786148 0.10076322 0.039424982 0.057486035
0.13791166 0.006717791 0.11112167 0.08521145 -0.0071041384 -0.017371519 0.07968878 -0.042218477
0.100623794 0.07290706 -0.052822717 0.105076514 0.10767949 0.073098734 -0.01569725 0.02590985
0.059532195 0.114858344 -0.05259726 0.06650395 -0.035068654 0.1151333 -0.014592456 0.10708543
-0.011779594 -0.05948333 -0.0018440355 0.027394578 0.054101765 0.06802804 -0.0010746532 0.1236928
-0.055329494 0.014114011 -0.05289735 -0.038586397 -0.0262528 -0.05327596 0.059153393 -0.048508964
0.046424925 0.037311766 0.06368894 -0.008453051 0.05174162 -0.020215891 -0.097982705 -0.01655583
-0.076885656 0.015497669 0.020659273 -0.015885001 -0.045255832 0.024414923 0.11981908 0.044355456
0.109581314 0.09632196 -0.05288534 0.027650915 -0.009883459 -0.030535074 0.015935853 -0.0022124595
-0.040853683 0.08342381 -0.0521323 -0.003739177 0.06084453 -0.02138349 -0.0008229104 0.06704138
0.006951744 0.035678208 0.022419708 0.1503019 -0.081042096 -0.07528938 0.0065660435 -0.024721455
-0.044972464 0.008076985 -0.01293786 0.117009565 -0.02154969 -0.0054322197 0.013035541 0.13333526
0.08482758 0.09215916 -0.0056429836 0.026256515 -0.019953534 0.09511331 0.08449202 -0.019966263
0.017838925 0.0006922714 0.0037313597 -0.06563678 -0.034887925 0.12448514 0.120791614 0.03520732
-0.007926626 0.036919158 0.0461039 0.0711528 0.09591699 0.07014896 -0.012453053 -0.030270722
-0.0064374707 0.13711584 0.056004696 0.086590745 0.0051387474 -0.02516353 0.00036238876 0.05286277
0.12313975 0.034158405 0.005886625 0.008156063 0.0460117 0.12210641 0.031173937 -0.029227978
0.047152445 -0.085883066 0.098277934 -0.06068754 -0.0154224 0.054293673 0.034321472 -0.045304492
-0.07332231 -0.003520896 -0.059155684 -0.03177139 0.08247056 0.075269304 0.124469884 0.00038084542
0.0792146 0.008568118 -0.00757836 0.12174236 0.015820703 -0.028462527 0.08258515 0.0034327821
00000000: dade 793d c66b 473d ca0c 5f3d ef76 913d
00000010: a08d 1e3e 956c cfbc d64d fb3c 107a 293d
00000020: e12b a33d 0c92 c03d 8db1 bf3c 12da aa3d
00000030: 1e2e 873d 6a29 9b3c 57e1 b4bc 00f7 b23d
00000040: 36e7 54bc d630 a73d d27c f43d 7419 cd3c
00000050: 1f93 c63d 1f36 bb3d ad68 cb3d ddc7 013e
00000060: a395 b2bc 0541 273c d76b 383d 8365 5e3d
00000070: 0b26 21bc a5a0 163e f62d 013d 2463 0e3d
00000080: 2d77 993d 7833 49ba 0ab6 f53d c33f b8bb
00000090: 13e4 e1bc b2fa 3dbc 808e 66bc fdae 5b3c
000000a0: c19b 60bd 6e61 e13d 10d1 69bc 676b e93c
000000b0: 64dd df3d acd3 8c3c d8e3 ff3d fc94 073e
000000c0: c949 e13d 4280 27bc bbd3 0a3d 840e 033d
000000d0: e693 a3bd 127e 093e e74f 513c 94b5 183d
000000e0: d3d3 123d 663d bfbc 708d 083e c6a2 8dbc
000000f0: 33e3 693d 2d19 b43d 2220 0f3d e9ca d73d
00000100: e151 833c d094 2d3d a509 fa3b fa4a da3d
00000110: fe4e a2bc 5c05 0ebd dbbc 783c 16b7 a13d
00000120: 6103 6cbc bbeb 783b 2a53 7b3d ea6e d23d
00000130: bca8 bc3d 99a2 923c 6397 05bd 5cd1 cd3c
00000140: af62 9d3d 5085 a5bd e2a3 083e 33e2 b6bc
00000150: bbb3 9e3d bba5 50bd 931e 9d3c bdd6 a33d
00000160: 87ad 903c 613b da3d bf7e 36bc 1e7f bfbc
00000170: f415 043e c716 9bba d1f5 f1bc dad0 5e3c
00000180: 6d69 743d c9be 59bd e980 68bd ff59 df3d
00000190: f6fa 8a3d f25c ce3d 177c 213d 7a76 6b3d
000001a0: b738 0d3e ea20 dc3b c293 e33d 5783 ae3d
000001b0: d5c9 e8bb b74e 8ebc df33 a33d 48ed 2cbd
000001c0: d913 ce3d 4c50 953d a25c 58bd 5b32 d73d
000001d0: 1087 dc3d cab4 953d 8597 80bc e540 d43c
000001e0: 08d8 733d da3a eb3d 3970 57bd 3933 883d
000001f0: 26a4 0fbd 02cb eb3d 3215 6fbc 9b4f db3d
00000200: 33ff 40bc cba4 73bd 90b3 f1ba 986a e03c
00000210: d099 5d3d 4952 8b3d 61db 8cba a752 fd3d
00000220: 2ea1 62bd 743e 673c e4aa 58bd c50c 1ebd
00000230: 1d10 d7bc e537 5abd d44a 723d 56b1 46bd
00000240: 1028 3e3d 39d4 183d 596f 823d aa7e 0abc
00000250: 05ef 533d cc9b a5bc 28ab c8bd 18a0 87bc
00000260: 3a76 9dbd efe9 7d3c a33d a93c 4321 82bc
00000270: 2e5e 39bd ce01 c83c b563 f53d 11ae 353d
00000280: 2b6c e03d 7344 c53d 4c9e 58bd 2c84 e23c
00000290: 3bee 21bc b124 fabc e88b 823c e9fe 10bb
000002a0: 3156 27bd 1ada aa3d ae88 55bd fb0c 75bb
000002b0: 1d38 793d 6e2c afbc 95b8 57ba fe4c 893d
000002c0: 75cb e33b 5023 123d 89a9 b73c bee8 193e
000002d0: 66f9 a5bd 5231 9abd f727 d73b a684 cabc
000002e0: 0c35 38bd 5555 043c 51f9 53bc b6a2 ef3d
000002f0: fa88 b0bc c300 b2bb 0693 553c 0a89 083e
00000300: 15ba ad3d f1bd bc3d c7e8 b8bb e717 d73c
00000310: 9875 a3bc c4ca c23d 270a ad3d 4a90 a3bc
00000320: f022 923c 8c79 353a d489 743b 936c 86bd
00000330: a4e6 0ebd 11f2 fe3d 9861 f73d 8d35 103d
00000340: aede 01bc 8b38 173d 71d7 3c3d 8fb8 913d
00000350: 2070 c43d 42aa 8f3d e407 4cbc 4efa f7bc
00000360: 6bf1 d2bb 1868 0c3e 2e65 653d 7d56 b13d
00000370: f062 a83b bf23 cebc fffe bd39 a286 583d
00000380: b130 fc3d afe9 0b3d 97e4 c03b 02a1 053c
00000390: c476 3c3d ed12 fa3d 7c60 ff3c 836f efbc
000003a0: ec22 413d 76e3 afbd f145 c93d 7f93 78bd
000003b0: 3cae 7cbc 0b63 5e3d ac94 0c3d 3491 39bd
000003c0: 022a 96bd d5be 66bb 3b4d 72bd b822 02bd
000003d0: 53e6 a83d cb26 9a3d 11ea fe3d 35ac c739
000003e0: 443b a23d 4b61 0c3c e453 f8bb 0f54 f93d
000003f0: 6b9a 813c 3f2a e9bc 6722 a93d 87f8 603b

fc.0.weight f4 [482, 64]
-0.034734566 0.10889929 0.11823498 0.01821344 0.036773477 0.06256115 -0.15468538 0.061303936
0.17767039 0.09865812 0.057415485 -0.08273803 0.032418665 0.1738273 -0.055558313 -0.04009928
0.051969573 0.09508969 0.093876295 -0.017538114 0.20709844 0.05246359 0.024472125 0.055236757
0.04421716 0.04362714 0.07264685 -0.013048309 0.016371343 -0.14136267 -0.019613696 0.03687967
0.09039555 -0.043770853 0.041640908 -0.06069045 0.1264281 -0.08882054 -0.06833337 0.014621121
-0.011388829 -0.08362003 -0.012646365 0.12838282 0.15110335 -0.060672633 0.10144128 -0.047250465
0.04362289 0.028937437 -0.047239456 0.038133744 0.015309558 -0.008581518 -0.010666169 -0.030966368
-0.10600439 0.020693498 -0.077507794 0.066094734 -0.030088909 -0.04261611 0.005446856 -0.026080057
0.12526159 -0.0075738933 0.15001011 -0.083528966 0.050243806 -0.013207731 -0.12203543 0.01705382
0.0050682025 -0.03608656 0.14810538 -0.073292635 -0.023594728 -0.04412386 -0.021826195 0.06301715
0.099772386 0.101954594 0.073097184 0.050028007 0.1545117 -0.021595316 0.120469 0.058169775
-0.011725788 0.00013948788 -0.007869972 0.086683564 0.014875135 0.14000684 -0.12332781 -0.085433275
-0.064138025 0.0017686578 0.09341758 0.06182413 0.07987606 0.036058974 0.014630387 -0.12962016
-0.007349342 -0.020744836 -0.09456724 -0.019255122 -0.095891416 -0.07277841 -0.066687524 -0.029794173
0.13679169 0.038162574 0.029560817 0.17506969 0.070069104 0.13298135 0.06766953 0.14204356
-0.13387194 -0.086381294 -0.18220627 0.048987802 0.11105443 -0.04498723 0.043086424 -0.027860977
0.12365094 -0.04656 0.16229683 -0.09575068 -0.08476604 -0.05827344 0.07546515 0.042218167
-0.01668305 -0.059743915 -0.08810288 -0.19035974 -0.0662635 0.024462033 0.03484552 -0.1443781
0.05357985 0.031254016 -0.08511754 -0.06455803 0.024272136 0.07944269 -0.023726614 -0.03744829
0.03434006 -0.051526677 0.19025111 0.068902954 -0.060301628 -0.049109515 0.07762096 0.2556248
-0.076745 -0.01024917 -0.014473516 -0.019436456 -0.015611665 0.07972598 0.009198426 -0.048931807
0.1255841 0.0049369037 0.020461481 -0.028523175 -0.0631169 -0.049510974 -0.069196984 0.0134848645
0.10000558 -0.08920979 0.04891899 -0.11771457 -0.049710598 -0.030812897 0.07391194 0.0813175
0.05423837 -0.03601915 0.14034966 0.22361651 -0.049289875 -0.075447574 0.15327853 0.10446459
-0.02511506 -0.035912823 -0.008354799 0.13818945 0.055406105 0.00522679 -0.073377475 -0.08553053
-0.13037445 -0.10853077 0.11646698 -0.007900678 0.11372678 0.08792253 -0.0018158653 0.021484092
0.043272108 0.1336678 -0.15205711 0.06241106 -0.038734335 -0.059103474 0.2724101 0.14201923
0.020674985 -0.049026795 0.11096891 -0.06497745 0.08358576 0.17499492 0.106557086 0.10022338
0.016254831 -0.0028116133 -0.038713694 0.026322262 -0.039630696 0.041742932 0.07605486 -0.08319406
0.029891603 0.041300256 0.11000928 0.0010658862 -0.140649 -0.20411296 -0.12541781 -0.05759988
-0.0062366575 0.0982044 -0.0036451896 -0.09459108 0.15038325 0.17140652 -0.031338006 -0.16518432
0.17689756 0.13742799 0.22850303 0.020859683 -0.0064832396 -0.2256084 0.09460012 -0.026948582
00000000: d545 0ebd 9706 df3d 2e25 f23d 5a34 953c
00000010: c99f 163d 0f20 803d d865 1ebe d619 7b3d
00000020: 3aef 353e 450d ca3d 802c 6b3d 8e72 a9bd
00000030: 6fc9 043d c9ff 313e 1d91 63bd 253f 24bd
00000040: 0cde 543d 62be c23d 3742 c03d 17ac 8fbc
00000050: 9d11 543e 10e4 563d c479 c83c f03f 623d
00000060: 0e1d 353d 5fb2 323d dfc7 943d 93c8 55bc
00000070: 321d 863c 60c1 10be e7ac a0bc 230f 173d
00000080: 4d21 b93d 1149 33bd a88f 2a3d 8d96 78bd
00000090: 5e76 013e 8be7 b5bd 5ef2 8bbd 6d8d 6f3c
000000a0: 3698 3abc fa40 abbd b332 4fbc c976 033e
000000b0: d6ba 1a3e de83 78bd 72c0 cf3d b489 41bd
000000c0: eaad 323d 340e ed3c 297e 41bd 2132 1c3d
000000d0: f1d4 7a3c 7f99 0cbc 28c1 2ebc 2ead fdbc
000000e0: d418 d9bd 6985 a93c 68bc 9ebd ad5c 873d
000000f0: 047d f6bc 3b8e 2ebd 8a7b b23b d8a5 d5bc
00000100: 9344 003e 6c2e f8bb 409c 193e 3c11 abbd
00000110: 73cc 4d3d 3d65 58bc b6ed f9bd 74b4 8b3c
00000120: 2a13 a63b 80cf 13bd f0a8 173e 731a 96bd
00000130: bb49 c1bc 38bb 34bd d9cc b2bc 230f 813d
00000140: 7755 cc3d 92cd d03d fab3 953d 2bea 4c3d
00000150: 5138 1e3e a9e8 b0bc 73b8 f63d 6e43 6e3d
00000160: 851d 40bc 7e43 1239 0ef1 00bc 2787 b13d
00000170: d7b6 733c f45d 0f3e 4a93 fcbd a4f7 aebd
00000180: cc5a 83bd 4fd2 e73a b751 bf3d 4d3b 7d3d
00000190: 0f96 a33d 93b2 133d 4ab4 6f3c 26bb 04be
000001a0: c0d2 f0bb 13f1 a9bc 78ac c1bd ebbc 9dbc
000001b0: b862 c4bd d90c 95bd 7893 88bd e912 f4bc
000001c0: 1f13 0c3e 5c50 1c3d 8729 f23c 7845 333e
000001d0: 6480 8f3d 432c 083e 5396 8a3d de73 113e
000001e0: ba15 09be ade8 b0bd 4894 3abe 6fa7 483d
000001f0: 8170 e33d 8844 38bd 647b 303d b43c e4bc
00000200: b43c fd3d b3b5 3ebd 2431 263e ef18 c4bd
00000210: d199 adbd 21b0 6ebd 798d 9a3d f5ec 2c3d
00000220: e4aa 88bc 09b6 74bd 486f b4bd aaed 42be
00000230: 28b5 87bd 9a64 c83c 2dba 0e3d dad7 13be
00000240: 8b76 5b3d 3604 003d 1b52 aebd 0037 84bd
00000250: 5cd6 c63c d9b2 a23d 515e c2bc 6163 19bd
00000260: 2aa8 0c3d a30d 53bd 30d1 423e fe1c 8d3d
00000270: d7fe 76bd 0f27 49bd bdf7 9e3d 41e1 823e
00000280: 7c2c 9dbd 22ec 27bc 5322 6dbc 3439 9fbc
00000290: 12c8 7fbc 6047 a33d ffb4 163c b86c 48bd
000002a0: 1e99 003e c0c5 a13b d69e a73c 6fa9 e9bc
000002b0: 6f43 81bd 05cc 4abd 26b7 8dbd 9fef 5c3c
000002c0: bacf cc3d 9fb3 b6bd 475f 483d 5614 f1bd
000002d0: 579d 4bbd 546b fcbc 255f 973d ca89 a63d
000002e0: 0e29 5e3d d188 13bd d2b7 0f3e bafb 643e
000002f0: 2ee4 49bd 4284 9abd 0cf5 1c3e 88f1 d53d
00000300: 19be cdbc 5319 13bd 91e2 08bc 8981 0d3e
00000310: 83f1 623d 7e45 ab3b ee46 96bd a12a afbd
00000320: e180 05be 6145 debd 3d86 ee3d d871 01bc
00000330: 96e9 e83d ba10 b43d 5402 eeba 68ff af3c
00000340: 183e 313d 36e0 083e dcb4 1bbe bda2 7f3d
00000350: e5a7 1ebd 7c16 72bd 5679 8b3e 7d6d 113e
00000360: 965e a93c 52d0 48bd ab43 e33d e612 85bd
00000370: 032f ab3d de31 333e 9a3a da3d ea41 cd3d
00000380: da28 853c 0b43 38bb 4092 1ebd c9a1 d73c
00000390: cc53 22bd a3fa 2a3d a7c2 9b3d a661 aabd
000003a0: 3cdf f43c 752a 293d 8c4c e13d 35b5 8b3a
000003b0: 4b06 10be fd02 51be 876d 00be daed 6bbd
000003c0: e05c ccbb 631f c93d 22e4 6ebb f8b8 c1bd
000003d0: 11fe 193e 3185 2f3e 485c 00bd 1426 29be
000003e0: a224 353e ecb9 0c3e b3fc 693e ede1 aa3c
000003f0: 5b71 d4bb e305 67be b5bd c13d 46c3 dcbc

fc.3.bias f4 [241]
-0.0037844328 -0.028938752 -0.02240656 -0.0039226464 0.027927801 0.01413952 0.04401361 -0.014687718
-0.008167125 -0.01579804 -0.052739438 -0.058432005 -0.02898488 -0.02034697 -0.0087202145 -0.05290062
0.0035949927 0.010084577 -0.027306465 -0.0020205968 0.012565565 -0.0062072794 0.05747525 0.02260079
0.008411986 -0.0012134206 -0.015313085 -0.011638599 -0.02954816 0.060229048 -0.0039005813 0.0047556516
-0.024852552 -0.013504448 0.039085265 0.011507919 -0.058532845 -0.0014647933 -0.027423002 0.00505782
-0.018675504 -0.02029188 -0.019152964 -0.07394639 0.054552544 0.004063759 0.024129692 -0.025449155
-0.0033694857 -0.0136863515 0.0046210517 -0.011317236 0.008448077 -0.02588398 0.008542033 0.035601668
0.009539779 0.001118927 -0.028229723 0.037402105 -0.0024170736 -0.021740647 -0.003216547 -0.0039222357
0.0022894007 0.033909786 0.045745425 0.0017450206 -0.022814631 -0.021122633 -0.022824291 0.027838746
-0.009700615 -0.027836032 0.0007992686 0.0032488653 0.009401564 -0.0031744344 -0.0048438613 -0.005321772
0.016878456 -0.019570407 0.029408118 0.021143239 0.019192565 0.006933352 0.004948623 0.029933035
0.002613947 0.025312861 -0.015879782 0.018205931 -0.008053426 -0.021570502 0.04192804 -0.045666646
-0.03974434 -0.044687375 -0.011977707 -0.05544553 -0.0028914975 -0.053710192 -0.012330479 -0.0040427274
-0.0438356 -0.021397423 0.02576668 0.010683302 0.043376382 -0.023143945 -7.4755684e-05 -0.017186115
-0.0019265775 -0.0079777185 0.0069276607 -0.0038935228 0.008819112 -0.036459304 0.004938573 -0.014251815
-0.03374391 -0.05773863 -0.053377762 -0.014975845 0.08601369 -0.04266502 -0.01931152 0.0054904623
-0.02092426 -0.0104784025 -0.03262219 -0.014707726 -0.00579587 0.0020751115 0.008428667 0.017841097
-0.015726903 0.028854977 0.013428982 0.01171173 -0.03387494 -0.023781674 -0.013326774 -0.03474466
-0.019603223 0.05802546 -0.0028888804 0.009573406 0.02369 -0.035498638 0.027999539 0.021840071
-0.05461292 -0.036271885 -0.034794677 -0.015536682 0.008786077 -0.041421603 -0.03425105 -0.040078025
-0.04109577 0.012274819 -0.0513889 -0.037439723 -0.047832664 -0.013254381 0.048361834 -0.054748554
-0.010793002 -0.012663796 -0.001563594 0.032196727 0.0036522476 0.010024179 -0.008571449 0.0011691628
-0.00811032 -0.00673201 -0.0086236475 -0.02523311 -0.014378291 0.0053488314 -0.0006111532 0.024509314
0.039373968 -0.0014053346 0.03695293 0.010208654 -0.00071993994 0.025636146 -0.028486213 -0.008327366
-0.0056332736 -0.04132511 -0.0218419 -0.0002646096 0.001489396 -0.016041057 0.0009769902 0.015660822
-0.023071822 -0.043217026 -0.034803867 -0.0092352815 -0.038049977 -0.029303659 -0.025400003 0.007810344
0.068338804 0.016846452 0.06470139 0.055644143 -0.016929293 -0.0077036675 -0.008580791 0.011796812
0.021161508 0.021493332 0.005932678 0.0006232576 0.012997347 -0.037201896 -0.046701074 0.0075406157
-0.02741406 0.0010937953 0.0319912 -0.041956715 -0.06231502 -9.9862e-05 0.03122851 -0.030001994
-0.04374285 -0.05114849 0.0064232987 -0.029165303 -0.029910365 0.034404047 -0.037412956 -0.04438378
-0.005819825
00000000: 3f04 78bb f610 edbc f68d b7bc 8b89 80bb
00000010: d8c8 e43c 72a9 673c 9d47 343d c1a4 70bc
00000020: 68cf 05bc e46a 81bc 4f05 58bd 6656 6fbd
00000030: b371 edbc b0ae a6bc 3bdf 0ebc 52ae 58bd
00000040: f899 6b3b c839 253c cfb1 dfbc fd6b 04bb
00000050: cddf 4d3c 6f66 cbbb 2b6b 6b3d 4b25 b93c
00000060: 6dd2 093c a40b 9fba bce3 7abc d3af 3ebc
00000070: fc0e f2bc bcb2 763d e5a0 7fbb 4cd5 9b3b
00000080: 9497 cbbc c341 5dbc df17 203d b68b 3c3c
00000090: 23c0 6fbd 4ffe bfba 34a6 e0bc 12bc a53b
000000a0: 5ffd 98bc 283b a6bc ade6 9cbc 3471 97bd
000000b0: 7d72 5f3d 4829 853b a2ab c53c bf7a d0bc
000000c0: 97d2 5cbb b83c 60bc 316c 973b ee6b 39bc
000000d0: ce69 0a3c a40a d4bc e2f3 0b3c 0ed3 113d
000000e0: bc4c 1c3c f6a8 923a 0542 e7bc f332 193d
000000f0: c467 1ebb 7119 b2bc b4cc 52bb 1986 80bb
00000100: c509 163b fde4 0a3d 8e5f 3b3d 2db9 e43a
00000110: c0e5 babc 5f09 adbc 02fa babc 150e e43c
00000120: 54ef 1ebc 6408 e4bc 0286 513a eaea 543b
00000130: 0409 1a3c 2c0a 50bb 41b9 9ebb 4262 aebb
00000140: b044 8a3c 1e52 a0bc 4be9 f03c 9634 ad3c
00000150: ba39 9d3c 2c31 e33b 0f28 a23b 2036 f53c
00000160: c14e 2b3b eb5c cf3c 5116 82bc 9b24 953c
00000170: 84f2 03bc 9fb4 b0bc bdbc 2b3d f30c 3bbd
00000180: f6ca 22bd 1c0a 37bd 253e 44bc da1a 63bd
00000190: 477f 3dbb 38ff 5bbd c705 4abc db78 84bb
000001a0: f58c 33bd a649 afbc a514 d33c 0409 2f3c
000001b0: 6fab 313d 5f98 bdbc 27c6 9cb8 e5c9 8cbc
000001c0: 3785 fcba fab4 02bc 6e01 e33b 792a 7fbb
000001d0: 097e 103c 5a56 15bd c1d3 a13b 7280 69bc
000001e0: 0e37 0abd 577f 6cbd a4a2 5abd 3f5d 75bc
000001f0: f227 b03d 84c1 2ebd 3133 9ebc 56e9 b33b
00000200: 5b69 abbc 9bad 2bbc d89e 05bd adf8 70bc
00000210: 48eb bdbb 98fe 073b 6418 0a3c 7e27 923c
00000220: b5d5 80bc 4661 ec3c 3c05 5c3c 8ee2 3f3c
00000230: 73c0 0abd c9d1 c2bc 8b58 5abc 6b50 0ebd
00000240: f096 a0bc 1bac 6d3d 5f53 3dbb c6d9 1c3c
00000250: 8811 c23c 0567 11bd 4a5f e53c f3e9 b23c
00000260: ccb1 5fbd d491 14bd dd84 0ebd 918d 7ebc
00000270: 7af3 0f3c b3a9 29bd d44a 0cbd db28 24bd
00000280: 0a54 28bd 531c 493c 2b7d 52bd 655a 19bd
00000290: 2fec 43bd e728 59bc 0f17 463d 0540 60bd
000002a0: 22d5 30bc cf7b 4fbc 82f1 ccba b7e0 033d
000002b0: 8c5a 6f3b 743c 243c 436f 0cbc 983e 993a
000002c0: 26e1 04bc 3198 dcbb 334a 0dbc abb5 cebc
000002d0: ec92 6bbc 4045 af3b cc35 20ba c2c7 c83c
000002e0: 9946 213d 3433 b8ba f55b 173d 3342 273c
000002f0: 5aba 3cba e502 d23c eb5b e9bc 816f 08bc
00000300: 5397 b8bb 8544 29bd c9ed b2bc 4dbb 8ab9
00000310: d637 c33a 8968 83bc 5a0e 803a 204b 803c
00000320: 1e01 bdbc 5604 31bd 808e 0ebd 944f 17bc
00000330: 4bda 1bbd 3a0e f0bc ab13 d0bc eaed ff3b
00000340: 37f5 8b3d 9201 8a3c 2a82 843d 1deb 633d
00000350: 4daf 8abc 0c6f fcbb 7296 0cbc 6a47 413c
00000360: e65a ad3c c912 b03c e966 c23b 1c62 233a
00000370: d3f2 543c 0461 18bd a049 3fbd 4517 f73b
00000380: 7393 e0bc ae5d 8f3a 3409 033d ceda 2bbd
00000390: 093e 7fbd 016d d1b8 efd2 ff3c bec6 f5bc
000003a0: b42b 33bd 1481 51bd 897a d23b 13ec eebc
000003b0: 9506 f5bc 42eb 0c3d 543e 19bd c4cb 35bd
000003c0: 3bb4 bebb

fc.3.weight f4 [241, 482]
-0.028957011 -0.034376293 0.05293276 0.06420791 -0.01578924 0.041858476 -0.049647033 -0.11315582
0.0044953115 -0.10933408 -0.07475314 0.026880376 -0.007619078 0.10102789 -0.07117414 -0.05254996
-0.060064495 -0.010572501 0.077108376 0.021707103 0.07521186 -0.04964651 0.05491003 0.017592553
0.01605387 0.0017229924 -0.028238775 0.08365719 -0.038005788 -0.052146845 0.033673845 -0.061410826
-0.05389583 0.024552098 -0.023169119 -0.04761589 0.028217154 -0.013590431 0.061844666 -0.060788624
0.03110387 0.027352275 -0.00011984051 -0.095469356 -0.040460404 -0.027130907 0.0704563 0.080611855
0.0061360397 -0.004342209 -0.07601293 0.014838161 0.03152112 -0.086448625 -0.04157177 -0.050841305
0.05148693 -0.02627873 -0.11810451 0.049855802 -0.016775828 0.048582543 -0.02748929 0.03615818
-0.033862967 -0.004718381 0.088136844 0.03229007 0.046743877 0.03315197 0.050185256 -0.013269465
0.080372125 -0.00045343084 -0.0347163 0.05503763 0.026388867 -0.04498681 0.06645988 -0.008637452
0.063079014 0.021280745 -0.06126983 -0.11614875 0.021303639 0.046035256 -0.0919755 0.016208181
0.044854607 0.061301157 -0.022257406 0.02412845 -0.030223902 -0.04624253 -0.06504337 -0.068227746
-0.04781976 -0.042441715 -0.072120406 -0.064275324 -0.07150596 -0.020398892 0.017688308 0.013672289
-0.018295428 -0.004538323 -0.05689386 0.06421498 -0.05593651 -0.042156853 0.053376257 0.08169019
0.038277812 -0.014816112 -0.05413675 0.050573792 -0.0009882973 0.036212 0.03251139 -0.007825922
0.03954097 0.014479784 0.06483346 -0.05512034 0.043533456 -0.0036956118 0.017559668 0.042766232
0.06164012 -0.034114864 0.00048600428 0.012239657 0.047237836 -0.061294403 0.049636934 0.057258572
-0.031032152 -0.022703184 -0.016607568 0.020028695 -0.06128982 -0.009826592 -0.042003375 -0.032163497
0.029860832 -0.01202692 -0.018508768 -0.0057817237 0.023184689 -0.027769357 0.026695678 0.073634036
0.030836554 0.07458583 0.05159472 0.036427602 0.02497999 -0.040337667 0.0070111738 0.11813209
-0.0653014 -0.058841296 -0.0073842094 0.027495727 0.017519096 -0.0853244 -0.023811465 -0.008114343
0.017787468 -0.010166178 -0.06424557 -0.054391656 0.09747378 0.048804116 0.03685543 -0.019426363
0.071809076 -0.0807238 -0.029471334 -0.034210913 -0.011182734 -0.03158423 0.010580685 0.08690572
0.0034782398 -0.066724025 -0.018556949 -0.04784785 -0.028222699 -0.040434845 0.042397827 -0.056224365
-0.06737337 -0.075215526 0.045648895 -0.008510916 0.051429503 -0.023288978 -0.060090385 -0.025515635
0.049916875 -0.043287344 0.06480588 -0.041856002 0.04582158 -0.058696467 -0.0043046474 -0.068613276
0.023588633 0.014406664 0.03949911 0.042258125 0.04238845 0.0034001041 0.060214147 0.10450035
0.0037003916 -0.022866054 -0.035570703 -0.071041085 -0.0065304516 0.011786522 0.020199796 0.011703626
0.02293583 -0.05835795 -0.010507869 -0.012174557 -0.057616793 -0.0018688198 0.04103719 -0.029006163
-0.003513543 0.025829768 0.015580537 -0.06439132 -0.034610506 -0.04678218 -0.02935434 -0.04906852
0.034690168 -0.002005719 -0.051429775 0.02841107 0.02186689 -0.061699603 -0.058513727 -0.043945875
-0.054829765 -0.042191055 -0.04563328 -0.03358827 0.07553953 -0.062366948 0.009338474 0.032493625
00000000: 4137 edbc 28ce 0cbd 06d0 583d 707f 833d
00000010: 7058 81bc cb73 2b3d b05a 4bbd 3dbe e7bd
00000020: 684d 933b 8cea dfbd 2d18 99bd 3c34 dc3c
00000030: 75a9 f9bb b6e7 ce3d bfc3 91bd a03e 57bd
00000040: 3006 76bd 4938 2dbc ffea 9d3d 18d3 b13c
00000050: ad08 9a3d 245a 4bbd 57e9 603d 421e 903c
00000060: 6883 833c 08d6 e13a 0155 e7bc 7654 ab3d
00000070: f5ab 1bbd ee97 55bd 96ed 093d eb89 7bbd
00000080: e0c1 5cbd 7b21 c93c 2acd bdbc e108 43bd
00000090: a927 e73c 66aa 5ebc d550 7d3d 7efd 78bd
000000a0: 8bcd fe3c e111 e03c e252 fbb8 7085 c3bd
000000b0: cfb9 25bd a341 debc 654b 903d d417 a53d
000000c0: d510 c93b 1749 8ebb abac 9bbd c21b 733c
000000d0: 4a1c 013d fa0b b1bd 2947 2abd f93e 50bd
000000e0: f6e3 523d 7e46 d7bc c7e0 f1bd 9935 4c3d
000000f0: 766d 89bc 7dfe 463d 3831 e1bc 9a1a 143d
00000100: e5b3 0abd a69c 9abb 1781 b43d 9842 043d
00000110: 8276 3f3d 5cca 073d 0e8f 4d3d 2c68 59bc
00000120: 249a a43d 75ba edb9 ae32 0ebd 236f 613d
00000130: 772d d83c 1744 38bd 1e1c 883d 1984 0dbc
00000140: 922f 813d f554 ae3c 13f6 7abd 65df edbd
00000150: f884 ae3c 778f 3c3d a75d bcbd 05c7 843c
00000160: 77b9 373d ec16 7b3d 2a55 b6bc 07a9 c53c
00000170: 1e98 f7bc cf68 3dbd 7535 85bd fdba 8bbd
00000180: a7de 43bd 5dd7 2dbd ddb3 93bd c8a2 83bd
00000190: b771 92bd 941b a7bc 12e7 903c bd01 603c
000001a0: 4be0 95bc 36b6 94bb 8909 69bd 2583 833d
000001b0: af1d 65bd aaac 2cbd 10a1 5a3d 304d a73d
000001c0: 32c9 1c3d 47bf 72bc 7fbe 5dbd 7726 4f3d
000001d0: c189 81ba 0953 143d aa2a 053d 4c38 00bc
000001e0: b6f5 213d 9e3c 6d3c 68c7 843d dec5 61bd
000001f0: 2350 323d 1432 72bb 4bd9 8f3c a52b 2f3d
00000200: 5a7a 7c3d 07bc 0bbd 64ce fe39 d888 483c
00000210: 767c 413d d70f 7bbd 1950 4b3d f787 6a3d
00000220: 2437 febc 07fc b9bc 980c 88bc 3813 a43c
00000230: 090b 7bbd b7ff 20bc bb0b 2cbd dfbd 03bd
00000240: b49e f43c 8f0c 45bc b39f 97bc 9d74 bdbb
00000250: d1ed bd3c 907c e3bc e5b0 da3c 71cd 963d
00000260: f19c fc3c 75c0 983d fc54 533d 1c35 153d
00000270: d6a2 cc3c 1c39 25bd fdbd e53b 3def f13d
00000280: bebc 85bd 9203 71bd 3df7 f1bb b83e e13c
00000290: 3584 8f3c 8fbe aebd 4310 c3bc 05f2 04bc
000002a0: 06b7 913c 0b90 26bc 2e93 83bd c9c9 5ebd
000002b0: 55a0 c73d d3e6 473d b8f5 163d 0924 9fbc
000002c0: a310 933d 8552 a5bd de6d f1bc be20 0cbd
000002d0: c937 37bc 775e 01bd 9c5a 2d3c a0fb b13d
000002e0: 2ef3 633b 9ba6 88bd be04 98bc 1bfc 43bd
000002f0: 4a33 e7bc 029f 25bd 58a9 2d3d 854b 66bd
00000300: 0dfb 89bd 990a 9abd 56fa 3a3d 5e71 0bbc
00000310: bea7 523d 87c8 bebc 5621 76bd 2a06 d1bc
00000320: a375 4c3d 124e 31bd f2b8 843d 3371 2bbd
00000330: 69af 3b3d b56b 70bd 000e 8dbb 1e85 8cbd
00000340: f33c c13c ee09 6c3c d2c9 213d db16 2d3d
00000350: 839f 2d3d 48d4 5e3b 1ca3 763d 4804 d63d
00000360: 4582 723b 9751 bbbc 96b2 11bd fd7d 91bd
00000370: 66fd d5bb 421c 413c 0b7a a53c 91c0 3f3c
00000380: ece3 bb3c bf08 6fbd 3229 2cbc cb77 47bc
00000390: 96ff 6bbd 30f3 f4ba 9d16 283d 559e edbc
000003a0: 7843 66bb f398 d33c 8245 7f3c 99df 83bd
000003b0: bfc3 0dbd ac9e 3fbd 8378 f0bc 13fc 48bd
000003c0: 4717 0e3d 6272 03bb 07a8 52bd 55be e83c
000003d0: 3122 b33c b9b8 7cbd 17ac 6fbd 9700 34bd
000003e0: 2d95 60bd 87d0 2cbd f6e9 3abd db93 09bd
000003f0: 78b4 9a3d 7c74 7fbd 6600 193c 0918 053d
