inventory/ark_material.onnx (onnx, 477316 bytes, 8 tensors)

35 f4 [16, 3, 5, 5]
-0.594428 -0.3864604 -0.48147294 0.9029758 -0.27820775 -0.56446594 0.039288204 -0.0608726
0.7648174 0.86952317 -0.32925135 0.081846714 0.0021424491 0.41300812 0.8024386 0.51477176
-0.19609544 0.46498385 0.6417739 -0.577487 -0.3759927 -0.079685695 -0.7329987 0.15604684
0.5267356 -0.5315248 0.29736942 0.29208547 -0.19003245 -0.42563954 -0.24575865 0.060853705
0.028098958 0.49418727 -0.134512 -0.575097 0.013093649 0.45761064 -0.24933155 0.67734385
0.14107966 0.23181029 -0.43047222 -0.08490003 0.3331122 -0.7647989 -0.26609367 -0.7379868
-0.03758731 0.24002515 -0.44542983 0.21451312 -0.157009 -0.5045054 0.36274463 -0.4202669
-0.0053698863 0.5798451 0.34665263 0.04003213 0.479773 -0.38242087 0.083255015 0.5347699
0.21131898 0.35504898 -0.5354664 -0.25343406 -0.26524657 -0.027210845 0.48875386 -0.4330069
0.4450681 -0.74810684 -0.24201667 0.2331252 -0.065920025 -0.0344787 -0.299652 -0.22826895
-0.07349457 -0.13685392 0.07560719 0.15971445 -0.32728398 0.12436141 -0.3549372 0.017396893
-0.2632174 -0.12260478 0.012228446 0.22522816 -0.3838735 -0.3074932 0.11191249 0.005641126
-0.21662788 -0.25684506 -0.25235388 -0.059798278 0.10951475 0.19538853 -0.1915263 -0.24568304
-0.20682558 -0.11423153 -0.13223265 -0.27419364 0.111028746 -0.29021293 -0.23924235 -0.18863587
-0.03873004 -0.15485473 -0.29097456 -0.11930899 0.25642654 -0.17486572 0.07543989 -0.14744045
-0.21683899 -0.15384364 -0.061230004 -0.1175922 0.008974471 0.008182925 -0.06284241 0.022798661
-0.08530982 0.089226484 0.23384148 0.12082009 0.15552321 -0.30308613 -0.100957185 -0.0038186416
0.0072377473 -0.029205766 0.20388713 0.32741895 -0.18216942 -0.06858351 0.16419068 -0.10980129
0.05702941 0.3007913 0.17137079 0.32069293 0.120891735 0.10961781 0.016157009 0.3685086
0.39135554 0.3850707 -0.28009662 -0.72174454 0.6036907 -0.13978766 -0.2897137 -0.062009126
-0.4969198 -0.17027563 0.31570253 -0.33929914 0.10902647 -0.6261195 -0.22310038 -0.12903892
-0.42145506 0.32622585 0.56625056 -0.03357966 -0.52223104 0.0067108646 -0.6228717 0.15125173
-0.4394397 0.57374746 0.5908075 -0.31791827 -0.56603515 -0.7673662 0.57658446 -0.12672977
0.59481615 -0.2950697 -0.63569903 0.07067286 0.3775705 0.27924496 -0.38428563 0.014248414
0.5443635 -0.11731711 -0.21377192 0.14470313 0.99423504 0.89755845 -0.1256119 0.07904925
0.5128102 0.16269454 0.47806552 0.75394505 0.7988863 -0.19861832 -0.66926396 0.005570626
0.18843317 -0.4703692 0.37070674 -0.7196954 -0.40750653 0.28567514 0.40605047 0.48234043
-0.25823253 -0.45942745 -0.20017883 -0.45754576 0.48422182 -0.27894565 -0.12029565 -0.3962544
-0.53515756 -0.21508251 0.14756154 -0.17449632 0.19887578 0.017068082 -0.22571081 -0.32534152
0.2019365 0.0019647204 -0.25255847 -0.0016461196 -0.119458534 -0.021835905 0.06795125 -0.41414005
-0.26831904 -0.056320187 -0.037116416 -0.3303435 -0.21445718 0.19199362 -0.005838355 -0.21765232
-0.09612228 -0.35988986 0.0017732303 0.010106288 0.10564319 -0.0023089 -0.112608194 0.12705906
00000000: 6f2c 18bf 23de c5be 9f83 f6be 6c29 673f
00000010: 3f71 8ebe d780 10bf abec 203d 8c55 79bd
00000020: 13cb 433f 1299 5e3f a293 a8be 409f a73d
00000030: 5568 0c3b cd75 d33e 9e6c 4d3f 15c8 033f
00000040: 3ecd 48be 5d12 ee3e 4b4b 243f 30d6 13bf
00000050: 1d82 c0be 4132 a3bd cea5 3bbf beca 1f3e
00000060: 25d8 063f 0212 08bf ce40 983e 3a8c 953e
00000070: de97 42be 6ded d9be 28a8 7bbe bc41 793d
00000080: c92f e63c 1d06 fd3e 84bd 09be 8f39 13bf
00000090: bf86 563c f14b ea3e c550 7fbe 6866 2d3f
000000a0: 3077 103e ad5f 6d3e db66 dcbe 11e0 adbd
000000b0: af8d aa3e dcc9 43bf 6e3d 88be b4ec 3cbf
000000c0: 27f5 19bd 27c9 753e 610f e4be 54a9 5b3e
000000d0: f8c6 20be 4427 01bf aab9 b93e 392d d7be
000000e0: dff5 afbb ba70 143f 747c b13e bbf8 233d
000000f0: cfa4 f53e abcc c3be 9b81 aa3d aee6 083f
00000100: 0164 583e fbc8 b53e 5314 09bf 1cc2 81be
00000110: 66ce 87be 47e9 debc f23d fa3e 15b3 ddbe
00000120: f7df e33e ee83 3fbf 38d3 77be 5fb8 6e3e
00000130: 1401 87bd 8a39 0dbd fd6b 99be 56bf 69be
00000140: 5284 96bd 6f23 0cbe f1d7 9a3d 2f8c 233e
00000150: c491 a7be 32b1 fe3d 54ba b5be ee83 8e3c
00000160: 6ec4 86be 3718 fbbd d259 483c 36a2 663e
00000170: 118b c4be c06f 9dbe 6032 e53d 32d9 b83b
00000180: b3d3 5dbe 3281 83be 8734 81be 0aef 74bd
00000190: 4549 e03d ee13 483e 781f 44be 5694 7bbe
000001a0: 16ca 53be 38f2 e9bd ff67 07be 1c63 8cbe
000001b0: 0a63 e33d ca96 94be f2fb 74be c329 41be
000001c0: 64a3 1ebd 3d92 1ebe 9efa 94be 4658 f4bd
000001d0: 574a 833e 0010 33be 3b80 9a3d a1fa 16be
000001e0: 0a0b 5ebe 3089 1dbe 50cc 7abd 2ed4 f0bd
000001f0: a909 133c ad11 063c 85b3 80bd 42c4 ba3c
00000200: eab6 aebd 60bc b63d 2474 6f3e 8670 f73d
00000210: 7a41 1f3e 1b2e 9bbe a4c2 cebd 2d42 7abb
00000220: a02a ed3b ee40 efbc cac7 503e 75a3 a73e
00000230: 9f8a 3abe 8375 8cbd 9a21 283e 80df e0bd
00000240: ac97 693d 5101 9a3e d37b 2f3e dd31 a43e
00000250: 1696 f73d 4d7f e03d b45b 843c 29ad bc3e
00000260: c15f c83e fd27 c53e d368 8fbe 40c4 38bf
00000270: 798b 1a3f 7f24 0fbe 5b55 94be 48fd 7dbd
00000280: 466c febe bc5c 2ebe c3a3 a13e 9eb8 adbe
00000290: 4549 df3d 5e49 20bf 6d74 64be c722 04be
000002a0: f5c8 d7be 1307 a73e ccf5 103f d38a 09bd
000002b0: efb0 05bf d0e6 db3b 8574 1fbf bce1 1a3e
000002c0: 3efe e0be 1de1 123f 293f 173f 2fc6 a2be
000002d0: aee7 10bf 1c72 44bf 0a9b 133f 73c5 01be
000002e0: df45 183f 6013 97be 2cbd 22bf efbc 903d
000002f0: ec50 c13e 32f9 8e3e 16c1 c4be 2e72 693c
00000300: 685b 0b3f f443 f0bd 07e7 5abe 0f2d 143e
00000310: 3086 7e3f 64c6 653f 68a0 00be 93e4 a13d
00000320: 8747 033f 6699 263e 01c5 f43e 8b02 413f
00000330: d083 4c3f 9a62 4bbe e254 2bbf cc89 b63b
00000340: a0f4 403e 3bd4 f0be 46cd bd3e f53d 38bf
00000350: b2a4 d0be 0344 923e d9e5 cf3e 53f5 f63e
00000360: 0e37 84be 133a ebbe aefb 4cbe 7043 eabe
00000370: eceb f73e f7d1 8ebe 915d f6bd dbe1 cabe
00000380: 1600 09bf 973e 5cbe 5f1a 173e 2aaf 32be
00000390: 18a6 4b3e 5dd2 8b3c bc20 67be 2a93 a6be
000003a0: 71c8 4e3e 8ac2 003b 584f 81be 9cc2 d7ba
000003b0: ada6 f4bd 36e1 b2bc 062a 8b3d 2a0a d4be
000003c0: 1d61 89be ffaf 66bd 6207 18bd c922 a9be
000003d0: aa9a 5bbe fa99 443e ac4f bfbb 40e0 5ebe
000003e0: c2db c4bd 7c43 b8be bc6b e83a d894 253c
000003f0: 755b d83d ea50 17bb 209f e6bd c51b 023e

36 f4 [16]
0.080835335 1.4608746 0.17139447 1.8307494 1.2525603 -0.6115711 1.9550797 -1.9787238
-0.48060375 1.3804399 0.09807947 -0.72179765 0.06661858 -0.017498493 -1.4609239 -1.4583817
00000000: ff8c a53d f0fd ba3f 0882 2f3e ff55 ea3f
00000010: e553 a03f ec8f 1cbf 0d40 fa3f d246 fdbf
00000020: b211 f6be 41b2 b03f e4dd c83d bbc7 38bf
00000030: 526f 883d 0059 8fbc 8eff babf 40ac babf

38 f4 [16, 16, 3, 3]
0.037352923 0.28670028 0.24829088 0.43712035 0.57471055 0.40453923 -0.0075341375 0.13485388
0.9293174 0.21715665 -0.5075719 -0.43075967 0.026432462 -0.79319346 0.70625466 -0.3933887
0.5560944 0.5763075 -0.054829825 -0.72268164 0.40723968 0.4269729 -0.46092018 0.2669898
0.20004807 -0.4112466 -0.10824256 0.19875701 0.23962091 0.21003394 -0.18109451 0.04399671
0.56509066 -0.516033 0.46100843 -0.837548 0.054151077 0.32110047 -0.429973 0.7365985
0.811782 -1.0621388 -0.38584235 0.5820562 -0.31476334 0.28957143 0.31439298 0.24895698
0.35394344 0.016087312 0.015800543 -0.17423573 0.90733784 0.091571905 0.31600463 1.0231751
-0.18839698 0.80076563 -0.4936639 -0.380528 0.8336003 0.22335678 -0.09961046 -0.49655357
-0.39241698 0.14775062 -0.31225067 -0.7665827 -0.5010178 -0.21958475 -0.14444882 0.17263588
-0.31278753 -0.1305311 0.41903082 0.035393294 -0.12378113 0.70158046 0.5021323 0.38690993
0.38331896 -0.64124024 -0.683325 -0.62149805 -0.616981 0.0382815 -1.062967 -0.4514922
-0.5777462 -0.95498085 -0.3086588 -0.121899635 -0.5730211 -0.64627284 -0.021773709 0.14032677
-0.6461807 -0.04454999 -0.26447758 0.3053478 -0.25605696 -0.392214 0.21979922 -0.37489924
0.5579589 0.2276022 0.2856171 0.7979408 -0.66698563 -0.32969737 -0.7842952 -0.8452556
0.345784 0.73224115 0.14701983 0.30460033 0.3598472 0.45957962 0.50283635 -0.8083057
0.67349946 -0.40621713 -0.70487684 0.7115165 0.10072153 0.4718736 0.18228728 0.27451307
0.44431406 -0.45481345 0.521352 0.18685874 -0.03127056 -0.0017700389 -0.5642035 0.3562328
-0.20076217 0.37010092 0.79470575 -0.074072056 -0.5850575 0.24407972 0.19103166 -0.47086263
0.50786626 0.31038406 0.2123319 0.21231367 0.31163946 -0.074540325 0.56574833 0.08586259
-0.24038616 0.080262035 0.46944258 0.38937253 0.21029645 0.5452408 -0.4716633 0.095225014
0.4988591 0.3204082 -0.075190395 0.6838518 0.04328364 -0.8554515 0.77372164 0.24268077
0.24393742 0.92961466 -0.048412982 -0.25310877 0.6466477 -0.14105588 0.24421032 -0.06374658
0.079208866 0.6527104 1.2144946 -0.02214616 -0.0026447547 0.28569376 -0.32654238 -0.19899732
-0.7693256 0.38042402 -0.5912679 0.5732908 0.49874693 0.5051601 1.1349027 -0.27123392
-0.39328444 0.5248389 -0.8789997 -0.78236574 0.43886226 0.40437475 0.19273716 0.3300691
-0.033807278 0.41110733 -1.1837587 -0.10861273 -0.26285288 0.27681553 -0.033137053 0.49073964
-0.42438453 -0.89191025 0.785208 -0.6228966 0.038822558 0.67651045 0.25595284 -0.2685361
0.04843809 0.088726886 0.0021789563 0.35689512 -0.5579386 -0.11566982 0.26748997 -0.25500095
-0.47694296 0.15939061 -0.9509313 -0.19538063 -0.39228562 -0.20468345 -0.3975434 -0.62359864
-0.2987819 -0.7802838 -0.65859723 0.57390696 -0.26935288 0.090332955 0.7278907 -0.023081368
-0.2677891 0.05615463 -0.24398121 -0.5194528 -0.36235124 -0.9733687 -0.5855888 0.49690998
-0.14224088 -0.30468637 -0.84641415 0.5447447 0.24125156 0.8131062 -0.33610812 0.056122996
00000000: 61ff 183d 61ca 923e f73f 7e3e 3dce df3e
00000010: 3b20 133f c41f cf3e ede0 f6bb 2317 0a3e
00000020: bfe7 6d3f 505e 5e3e 3bf0 01bf 888c dcbe
00000030: e488 d83c ba0e 4bbf 1bcd 343f 3e6a c9be
00000040: 345c 0e3f e388 133f 3d95 60bd aa01 39bf
00000050: b881 d03e 319c da3e bbfd ebbe e3b2 883e
00000060: 67d9 4c3e ea8e d2be 46ae ddbd f586 4b3e
00000070: 2f5f 753e 2313 573e d770 39be e535 343d
00000080: c8a9 103f bd1a 04bf 4c09 ec3e 8c69 56bf
00000090: 85cd 5d3d 4867 a43e 6c25 dcbe b891 3c3f
000000a0: f2d0 4f3f 2af4 87bf 218d c5be a301 153f
000000b0: a928 a1be b542 943e 1ef8 a03e 94ee 7e3e
000000c0: 1338 b53e 8ac9 833c 2470 813c da6a 32be
000000d0: 4b47 683f 0d8a bb3d 5ccb a13e 67f7 823f
000000e0: 23eb 40be fafe 4c3f 84c1 fcbe 91d4 c2be
000000f0: d466 553f a4b7 643e 9200 ccbd 453c febe
00000100: e1ea c8be f04b 173e 52df 9fbe c43e 44bf
00000110: b442 00bf d3da 60be 64ea 13be 76c7 303e
00000120: b025 a0be f2a9 05be 358b d63e 8ff8 103d
00000130: f680 fdbd c79a 333f be8b 003f 0f19 c63e
00000140: 6242 c43e 5228 24bf 63ee 2ebf 7f1a 1fbf
00000150: 78f2 1dbf 10cd 1c3d 4d0f 88bf fc29 e7be
00000160: 2de7 13bf a079 74bf 8708 9ebe 84a6 f9bd
00000170: 83b1 12bf 2372 25bf c75e b2bc d2b1 0f3e
00000180: 196c 25bf 0d7a 36bd 9b69 87be 8c56 9c3e
00000190: e619 83be 46d0 c8be 0c13 613e cbf2 bfbe
000001a0: 65d6 0e3f 8d10 693e 683c 923e d945 4c3f
000001b0: 92bf 2abf 18ce a8be 92c7 48bf ac62 58bf
000001c0: 9a0a b13e 2874 3b3f 5e8c 163e 93f4 9b3e
000001d0: e43d b83e 054e eb3e e2b9 003f 1fed 4ebf
000001e0: 766a 2c3f b1fb cfbe cf72 34bf f225 363f
000001f0: 1747 ce3d 6b99 f13e 84a9 3a3e fa8c 8c3e
00000200: 227d e33e 4fdd e8be 5377 053f e657 3f3e
00000210: 8f15 00bd a600 e8ba a46f 10bf 2564 b63e
00000220: 9994 4dbe de7d bd3e d671 4b3f 17b3 97bd
00000230: 54c6 15bf 09f0 793e ce9d 433e e814 f1be
00000240: 8603 023f a9ea 9e3e 896d 593e c168 593e
00000250: 358f 9f3e 99a8 98bd e2d4 103f bad8 af3d
00000260: ca27 76be 6c60 a43d c75a f03e d65b c73e
00000270: f457 573e e794 0b3f da7d f1be 5505 c33d
00000280: 766a ff3e 8b0c a43e 6cfd 99bd e910 2f3f
00000290: 304a 313d dffe 5abf 9f12 463f 4f81 783e
000002a0: bbca 793e 3afb 6d3f b14c 46bd 7997 81be
000002b0: b48a 253f f470 10be 4512 7a3e 918d 82bd
000002c0: 4238 a23d 0718 273f 8f74 9b3f dd6b b5bc
000002d0: 9f53 2dbb 7446 923e 9030 a7be f4c5 4bbe
000002e0: 86f2 44bf f0c6 c23e 555d 17bf 30c3 123f
000002f0: c25b ff3e 2c52 013f 7e44 913f 2cdf 8abe
00000300: 945c c9be d85b 063f 2006 61bf 1f49 48bf
00000310: 8eb2 e03e 350a cf3e e45c 453e d1fe a83e
00000320: 8079 0abd a97c d23e 6885 97bf 5a70 debd
00000330: a794 86be c4ba 8d3e b8ba 07bd 3a42 fb3e
00000340: ee48 d9be 3b54 64bf 6403 493f 2776 1fbf
00000350: 6704 1f3d ca2f 2d3f 400c 833e 907d 89be
00000360: 0567 463d 71b6 b53d d2cc 0e3b f5ba b63e
00000370: 10d5 0ebf 4ce4 ecbd 72f4 883e 7c8f 82be
00000380: de31 f4be 4b37 233e 3c70 73bf dc11 48be
00000390: a9d9 c8be 8a98 51be cf8a cbbe 29a4 1fbf
000003a0: f1f9 98be aec0 47bf d499 28bf 91eb 123f
000003b0: 9fe8 89be 7c00 b93d 0b57 3a3f 2315 bdbc
000003c0: a71b 89be 6602 663d 36d6 79be dcfa 04bf
000003d0: 1a86 b9be b12e 79bf 26e9 15bf fc6a fe3e
000003e0: 98a7 11be daff 9bbe 99ae 58bf 6374 0b3f
000003f0: a60a 773e ba27 503f 5d16 acbe 3ae1 653d

39 f4 [16]
0.018120423 -1.598661 -0.39755252 -1.485862 1.697734 0.17594376 -0.10388167 -2.7977555
2.2418013 -0.13347621 4.2328787 0.45157653 3.267161 -1.3716534 3.510898 -0.6789525
00000000: 4871 943c eca0 ccbf 018c cbbe ba30 bebf
00000010: 594f d93f 9a2a 343e eabf d4bd 6d0e 33c0
00000020: ac79 0f40 fdad 08be be73 8740 0a35 e73e
00000030: 2a19 5140 5792 afbf 8eb2 6040 d5cf 2dbf

fc.0.bias f4 [412]
0.015648192 0.01717803 0.03267343 0.16448382 0.026506145 0.013851256 -0.021539848 0.045607287
-0.023363192 -0.027679468 0.0092282025 0.050147496 0.13995713 -0.0189143 0.037478417 0.029483093
-0.011319612 0.03171389 0.07580158 0.08035371 0.041632254 0.025845444 -0.033354487 0.00732238
-0.0024369152 0.071697414 0.039299242 -0.04234679 0.0058454843 0.023059148 0.15881532 -0.0270284
0.07033951 0.02698385 0.12894784 0.058838148 0.116118945 -0.07249995 0.05092084 0.009701597
0.043874867 0.013304589 -0.049875613 0.065996766 -0.031707354 -0.006312162 0.12840755 0.09938164
0.07617809 0.09682063 0.1202449 0.053973872 -0.046534214 -0.06960231 0.12528 0.13573833
0.047478538 -0.06271702 0.12897682 0.022352587 0.05869574 0.054656815 0.07323819 0.1051847
-0.006556524 -0.05599906 0.11796557 0.06522443 0.08844638 0.12966083 0.11259565 -0.06522673
0.099405065 0.14582334 0.03176845 -0.015318361 0.13038787 0.11228828 0.110727124 0.00846163
-0.0189348 0.10565746 -0.039021213 0.09651399 0.055865396 0.10600069 0.12717433 0.084840916
-0.01288303 -0.04774297 0.055340998 0.11021832 0.053376287 0.06736838 0.07644547 -0.06107749
-0.02233886 -0.041527413 0.029724525 -0.07286517 0.11394223 0.028136514 -0.029714504 -0.047153436
0.11604274 -0.04720435 0.060919326 0.055844728 0.021800494 -0.019370975 0.057509333 0.13193354
0.103551015 0.035305228 -0.04838235 0.1318874 0.07050291 0.07903885 -0.043845274 -0.041660406
0.093725294 0.1476109 0.006178356 0.10776984 0.13515541 0.01664969 0.02461782 -0.005559639
0.033578176 0.013627477 0.06433041 -0.01859931 -0.031991024 0.12036334 0.04552931 0.12079618
-0.03165502 -0.032701496 -0.03196967 -0.017619213 0.0786329 -0.048309546 0.033964932 0.0055105686
-0.01408123 0.15658094 0.079012 0.012727508 0.0083153 0.09905935 0.015250047 0.10140888
0.09560911 0.051366773 0.09223131 0.12013023 0.03312532 0.07791283 0.0994266 0.059016425
-0.016104532 0.006996707 -0.06459164 0.04621371 -0.05955312 -0.004963683 -0.082757294 -0.029516403
-0.034707155 -0.0821807 0.10657029 -0.0051959935 0.13469166 0.13565394 0.13300169 0.0859366
-0.065737724 0.051715676 0.07965166 0.117269725 0.025872642 -0.06520293 0.10843703 0.13728829
-0.05817674 -0.06261732 0.13262929 0.020881025 0.08077089 0.0864203 -0.017534608 0.09596298
-0.0069220015 0.07543012 0.07034479 -0.07438146 0.028141987 0.02072272 0.081009984 0.075933225
0.10981669 0.044355147 0.07911581 0.12465162 -0.01661664 0.113850996 0.11646209 -0.0014295703
-0.007837351 0.09917021 0.063518405 0.014252198 0.0005989441 0.05604059 -0.03725043 -0.0010562564
0.07012135 0.058597486 0.04764478 -0.0019533557 0.12936594 -0.100560404 -0.036156878 -0.03151006
0.007418915 0.106559046 0.054240208 0.08704139 0.079337016 0.04134252 0.00041500817 0.060567364
-0.010180446 0.03318238 0.024278566 0.103309974 0.11197077 -0.017102875 0.084296376 0.14289144
0.08901548 -0.017479395 -0.045968357 0.126797 0.1600406 0.005217418 0.02531774 0.015731616
0.045815203 -0.013666284 -0.049074598 0.11177982 -0.061560795 0.023595767 0.13719356 -0.03949961
00000000: a330 803c f1b8 8c3c 93d4 053d 726e 283e
00000010: 6a23 d93c 61f0 623c 5674 b0bc b5ce 3a3d
00000020: 2a64 bfbc 0dc0 e2bc e331 173c 7667 4d3d
00000030: ec50 0f3e 29f2 9abc f882 193d 8786 f13c
00000040: e575 39bc 6de6 013d dc3d 9b3d 7c90 a43d
00000050: 9586 2a3d d3b9 d33c b79e 08bd 93f0 ef3b
00000060: a7b4 1fbb 18d6 923d 3ef8 203d d473 2dbd
00000070: 7a8b bf3b 8ae6 bc3c 7ca0 223e aa6a ddbc
00000080: 290e 903d 3c0d dd3c e70a 043e 4500 713d
00000090: c5cf ed3d db7a 94bd 5f92 503d 72f3 1e3c
000000a0: 22b6 333d 7efb 593c 5f4a 4cbd 5029 873d
000000b0: 92df 01bd 41d6 cebb 457d 033e 9a88 cb3d
000000c0: 4203 9c3d e549 c63d f542 f63d b513 5d3d
000000d0: a99a 3ebd a88b 8ebd 6649 003e fdfe 0a3e
000000e0: db78 423d c871 80bd 8012 043e c61c b73c
000000f0: f26a 703d d3df 5f3d e7fd 953d 136b d73d
00000100: 1cd8 d6bb 455f 65bd ef97 f13d 6394 853d
00000110: 6023 b53d cfc5 043e 8c98 e63d 9895 85bd
00000120: e294 cb3d b752 153e a21f 023d ddf9 7abc
00000130: 6684 053e 66f7 e53d e7c4 e23d a6a2 0a3c
00000140: 271d 9bbc f062 d83d b5d4 1fbd 20a9 c53d
00000150: 1dd3 643d e416 d93d fd39 023e 13c1 ad3d
00000160: 5813 53bc 228e 43bd 3ead 623d 24ba e13d
00000170: 18a1 5a3d 6ff8 893d 718f 9c3d 642c 7abd
00000180: fcff b6bc a618 2abd d980 f33c 563a 95bd
00000190: 8b5a e93d 8c7e e63c d56b f3bc f623 41bd
000001a0: d1a7 ed3d 5959 41bd 8b86 793d 71bd 643d
000001b0: f396 b23c e1af 9ebc e88e 6b3d 9619 073e
000001c0: 8e12 d43d 379c 103d 922c 46bd 7e0d 073e
000001d0: d463 903d 1fdf a13d 1a97 33bd 1aa4 2abd
000001e0: 0cf3 bf3d 5027 173e ce73 ca3b 6fb6 dc3d
000001f0: 2e66 0a3e ee64 883c 4fab c93c a22d b6bb
00000200: 4589 093d c845 5f3c a9bf 833d 955d 98bc
00000210: 0509 03bd 0e81 f63d f17c 3a3d fd63 f73d
00000220: b2a8 01bd 01f2 05bd a1f2 02bd 2b56 90bc
00000230: 490a a13d 3be0 45bd d01e 0b3d 0092 b43b
00000240: f6b4 66bc c156 203e 0bd1 a13d 0a87 503c
00000250: e53c 083c a1df ca3d 55db 793c 75af cf3d
00000260: b6ce c33d f765 523d c5e3 bc3d d706 f63d
00000270: 6aae 073d c390 9f3d 2ca0 cb3d 35bb 713d
00000280: a7ed 83bc a244 e53b 9f48 84bd 964a 3d3d
00000290: f9ed 73bd 64a6 a2bb a87c a9bd 62cc f1bc
000002a0: 1729 0ebd 5b4e a8bd 8641 da3d 2743 aabb
000002b0: 9cec 093e dee8 0a3e 9831 083e 87ff af3d
000002c0: 80a1 86bd d1d3 533d 6920 a33d 1c2b f03d
000002d0: ddf2 d33c 1d89 85bd 3c14 de3d 4d95 0c3e
000002e0: bc4a 6ebd 823d 80bd f9cf 073e af0e ab3c
000002f0: 356b a53d 20fd b03d bda4 8fbc 3d88 c43d
00000300: f5d1 e2bb 1b7b 9a3d ee10 903d 4f55 98bd
00000310: 068a e63c b2c2 a93c 90e8 a53d e182 9b3d
00000320: 93e7 e03d bead 353d 7807 a23d 5949 ff3d
00000330: 9f1f 88bc b62a e93d ad83 ee3d 6b60 bbba
00000340: 3c68 00bc c019 cb3d f015 823d 0d82 693c
00000350: 7502 1d3a d18a 653d e893 18bd 1572 8aba
00000360: c89b 8f3d eb03 703d 2c27 433d df03 00bb
00000370: 8178 043e 9df2 cdbd 3c19 14bd b110 01bd
00000380: 5f1a f33b a13b da3d fb2a 5e3d c242 b23d
00000390: 727b a23d c656 293d 7495 d939 7c15 783d
000003a0: e3cb 26bc 3fea 073d d8e3 c63c 2e94 d33d
000003b0: ee50 e53d 541b 8cbc 94a3 ac3d 2252 123e
000003c0: bf4d b63d f330 8fbc 5149 3cbd 13d7 013e
000003d0: afe1 233e e0f6 aa3b 2667 cf3c 97df 803c
000003e0: b9a8 3b3d 8de8 5fbc 7202 49bd d1ec e43d
000003f0: 2c27 7cbd e94b c13c 787c 0c3e 58ca 21bd

fc.0.weight f4 [412, 64]
0.06150705 0.12253451 0.18064965 -0.05647093 0.092917666 0.029944953 -0.07364471 0.15064722
-0.08332736 -0.025885303 0.0804358 -0.10657582 -0.04440503 -0.010210467 0.21641234 0.05647279
-0.0001750369 -0.073819436 -0.1038249 0.23847693 0.052037872 -0.037736237 -0.05051142 -0.114788905
0.03779533 0.19199866 0.024182582 0.10036165 -0.08871901 -0.06805295 0.01470025 0.059917375
0.175883 0.07669385 -0.0033693213 -0.012328526 0.021108668 0.061277036 0.103052795 -0.089952834
-0.019295126 -0.05405354 0.023886334 -0.050838172 -0.02096413 0.070939235 -0.13031071 0.18194814
-0.17624989 -0.101312555 -0.084688276 -0.12733833 -0.050371666 -0.1382481 -0.08288714 0.22076637
0.025969893 0.055040155 0.02448111 0.16356687 0.037606593 0.104093276 0.15717392 0.14270347
-0.005298742 -0.027192302 -0.05106224 0.14789695 -0.032137375 -0.05327528 0.104741514 0.077221476
0.17443681 -0.07020469 -0.17749287 0.04948259 0.024342619 -0.12018985 -0.10906917 0.121746056
-0.12822138 0.08381506 0.06275368 -0.07442258 -0.047127 0.04729716 0.08515691 0.019474616
0.076032236 -0.0022445805 -0.0229172 0.057291415 0.022594513 -0.063123256 0.07021429 0.013219308
-0.12271784 0.0139650265 -0.09030437 0.038124435 0.01635456 -0.15242125 0.09449138 0.111979686
-0.01996347 0.03622028 -0.12104987 -0.03174744 0.088638574 0.057849657 -0.08491121 0.11016633
0.14747919 0.15522647 0.13021281 0.15875283 0.057460483 -0.04082953 0.13744207 0.045046497
0.12291296 0.018758543 -0.082571715 -0.114983894 -0.021276163 0.09822556 -0.053754754 0.12064654
0.054843538 0.035003915 0.18880068 0.0011274565 -0.032862265 0.1113721 0.07785752 0.14270525
-0.013701031 -0.015104468 0.08790241 0.13461478 -0.018045427 -0.1414078 -0.11135134 0.09454487
0.04727563 0.20076889 0.021136038 0.015907027 0.013362192 0.10130269 -0.049367778 0.19880275
0.014512343 -0.09725963 0.04653757 -0.0034935658 0.00012427621 0.04833172 -0.16563037 -0.13775657
0.055875562 -0.07195752 0.057108603 0.0034779238 0.0011626949 -0.008739393 -0.1213041 -0.055389237
0.07620592 0.1289866 0.10766576 -0.06836232 0.10024645 -0.0076469593 -0.05875183 -0.103374586
0.031305276 -0.05150195 0.18947612 -0.1013267 -0.045968954 0.12421519 -0.12371404 -0.16216907
0.05777319 -0.032665636 0.2182769 0.06010302 -0.044883177 0.08215491 0.05502834 0.121429496
0.05507795 0.14082642 -0.0054375874 0.0128406575 -0.047342192 -0.010033366 -0.042472977 -0.05397235
0.028469563 -0.044016927 0.054177232 -0.046180557 -0.062470093 -0.1615124 -0.1340926 0.0012215471
-0.18750118 0.027240964 -0.0012532372 -0.24927746 0.0026497731 -0.03150946 -0.02328764 -0.019485697
0.17807434 0.013057166 0.071143776 0.10016916 -0.16043262 -0.039470457 0.049873818 -0.0150862085
0.050360303 0.12268426 0.16573173 0.023851989 -0.0694971 -0.18907157 0.11326785 0.044111475
-0.11304101 0.16155149 -0.023904933 0.19815572 0.03642877 0.008854576 0.20307831 -0.07847692
0.013018625 -0.02478345 0.14130507 0.11145745 0.081669465 -0.010732618 0.16129352 0.08717771
0.057231206 0.03834506 0.13104871 -0.09358037 -0.078398824 0.1097289 -0.05111941 0.05886516
00000000: d1ee 7b3d 60f3 fa3d 39fc 383e 104e 67bd
00000010: 9e4b be3d 1e4f f53c 0ad3 96bd 4443 1a3e
00000020: 89a7 aabd 6a0d d4bc 86bb a43d 6c44 dabd
00000030: 0ce2 35bd cd49 27bc 329b 5d3e 0350 673d
00000040: 1c8a 37b9 a52e 97bd 26a2 d4bd 4c33 743e
00000050: aa25 553d 5091 1abd 10e5 4ebd 7216 ebbd
00000060: 47cf 1a3d 4c9b 443e 8d1a c63c 698a cd3d
00000070: 50b2 b5bd 585f 8bbd 51d9 703c ec6b 753d
00000080: ac1a 343e aa11 9d3d d5cf 5cbb 96fd 49bc
00000090: 16ec ac3c a1fd 7a3d 580d d33d 3139 b8bd
000000a0: d010 9ebc 3f67 5dbd 46ad c33c b03b 50bd
000000b0: f8bc abbc 9748 913d 2c70 05be 9d50 3a3e
000000c0: da7a 34be f57c cfbd 0c71 adbd fb64 02be
000000d0: 8552 4ebd e990 0dbe bcc0 a9bd 9410 623e
000000e0: d0be d43c c971 613d 9c8c c83c 137e 273e
000000f0: 5f09 1a3d db2e d53d 33f2 203e dc20 123e
00000100: 12a1 adbb 64c2 debc a426 51bd 4c72 173e
00000110: 7ba2 03bd 2e37 5abd b882 d63d 4b26 9e3d
00000120: 909f 323e 7ac7 8fbd b1c0 35be 42ae 4a3d
00000130: 2c6a c73c 1926 f6bd a85f dfbd ff55 f93d
00000140: 774c 03be 3ba7 ab3d 0085 803d de6a 98bd
00000150: 3e08 41bd abba 413d bf66 ae3d 3b89 9f3c
00000160: cab6 9b3d d019 13bb dabc bbbc 67aa 6a3d
00000170: 2118 b93c c446 81bd 82cc 8f3d cc95 583c
00000180: 7e53 fbbd 91cd 643c 7ff1 b8bd 5e28 1c3d
00000190: 00fa 853c 5114 1cbe b284 c13d 9b55 e53d
000001a0: 6e8a a3bc b75b 143d ffe8 f7bd 9b09 02bd
000001b0: 2488 b53d c3f3 6c3d eee5 adbd e39e e13d
000001c0: c904 173e b0f3 1e3e 8256 053e 1a90 223e
000001d0: af5b 6b3d de3c 27bd 9dbd 0c3e ad82 383d
000001e0: cab9 fb3d 84ab 993c 5c1b a9bd ad7c ebbd
000001f0: 594b aebc 7b2a c93d f22d 5cbd 8815 f73d
00000200: 9ea3 603d 4460 0f3d f754 413e 2ac7 933a
00000210: 959a 06bd 0e17 e43d c373 9f3d 5321 123e
00000220: 4a7a 60bc bb78 77bc 2e06 b43d 75d8 093e
00000230: 01d4 93bc 35cd 10be 2c0c e4bd bea0 c13d
00000240: 17a4 413d 5c96 4d3e 7c25 ad3c 744f 823c
00000250: 18ed 5a3c c977 cf3d de35 4abd f392 4b3e
00000260: 2ec5 6d3c 0f30 c7bd 2e9e 3e3d 4ff4 64bb
00000270: 2450 0239 7bf7 453d 029b 29be 0f10 0dbe
00000280: c6dd 643d 775e 93bd b6ea 693d e1ed 633b
00000290: 9165 983a ac2f 0fbc 496e f8bd d3df 62bd
000002a0: d911 9c3d 1015 043e de7f dc3d 8b01 8cbd
000002b0: 034e cd3d 5893 fabb c2a5 70bd 0eb6 d3bd
000002c0: f639 003d b5f3 52bd 0706 423e 5f84 cfbd
000002d0: f149 3cbd 8964 fe3d c95d fdbd a60f 26be
000002e0: 95a3 6c3d 67cc 05bd fb83 5f3e 962e 763d
000002f0: 6cd7 37bd d540 a83d 6665 613d 07b0 f83d
00000300: 6b99 613d cd34 103e ca2d b2bb 9f61 523c
00000310: e3e9 41bd fd62 24bc 25f8 2dbd 1c12 5dbd
00000320: 0039 e93c 184b 34bd f2e8 5d3d d327 3dbd
00000330: a4e0 7fbd 8263 25be 924f 09be 521c a03a
00000340: 4f00 40be 7128 df3c aa43 a4ba 9742 7fbe
00000350: d1a7 2d3b 1010 01bd b9c5 bebc 78a0 9fbc
00000360: 1f59 363e b9ed 553c d4b3 913d 7d25 cd3d
00000370: 7348 24be c6ab 21bd 7d48 4c3d 252c 77bc
00000380: 9b46 4e3d e341 fb3d 94b5 293e 3f65 c33c
00000390: 7f54 8ebd fa9b 41be f9f8 e73d 3cae 343d
000003a0: 0c82 e7bd c16d 253e 47d4 c3bc 55e9 4a3e
000003b0: 5536 153d c912 113c c3f3 4f3e 82b8 a0bd
000003c0: 124c 553c a906 cbbc 47b2 103e ce43 e43d
000003d0: 5242 a73d ddd7 2fbc 212a 253e 3a8a b23d
000003e0: 456b 6a3d b60f 1d3d a231 063e 11a7 bfbd
000003f0: 908f a0bd 8cb9 e03d 9662 51bd 981c 713d

fc.3.bias f4 [206]
-0.012344187 -0.04110561 -0.0370978 -0.014413549 0.038991626 -0.031769056 0.007635655 0.041851066
-0.012354732 -0.058022164 0.015903873 -0.04563578 -0.022094954 0.035943687 -0.009719465 -0.0013306437
0.039845496 -0.03128538 -0.0008891872 -0.016135968 0.02375093 -0.01680911 0.052245133 0.03546831
0.046393692 0.055345085 -0.021026295 0.019007778 -0.04677092 0.008647846 0.02318018 -0.02357224
0.014318857 0.064197436 0.04767081 0.012539666 -0.06742883 -0.008997673 -0.04304736 -0.016549252
-0.037176173 -0.07470007 -0.06298398 0.053524382 -0.03039792 -0.03318967 -0.030324953 0.0023022285
0.02591966 -0.026685419 0.041605208 -0.008762146 -0.015256727 -0.046684947 -0.029802708 -0.04004169
0.03889061 -0.017719457 -0.016366486 0.01694615 -0.07075477 -0.062957935 -0.02171917 -0.019981626
-0.046174023 -0.006770081 0.021298004 -0.04340305 -0.059817296 0.007977573 -0.010061117 -0.028424038
-0.048565973 -0.035088845 -0.048004802 0.011375435 0.023324342 0.019531472 0.0372033 0.025959069
-0.030856166 -0.015419509 0.008598641 0.034065418 0.05170431 0.020595245 -0.058109444 0.06575371
-0.00021722607 -0.039818328 -0.035879273 -0.011266887 -0.019231802 -0.0024944106 -0.061305463 -0.010054864
-0.023594737 -0.04392796 -0.018377468 -0.033611402 0.0041051228 0.031304196 0.0025585985 0.03471468
0.004901624 -0.059808347 -0.02536768 -0.016170504 0.030501783 0.06483529 -0.031389203 0.028341921
0.043168884 -0.038233668 -0.01671435 -0.0533127 -0.030663034 0.08082677 -0.049116194 -0.0013744868
0.04046571 -0.0250323 -0.04145424 0.009961602 0.023138097 0.026062889 -0.030446425 -0.05575234
0.041314945 -0.0122522665 0.018406872 -0.043106504 0.0018078869 -0.035834573 0.044003557 -0.036138542
-0.024057189 0.0453096 -0.024003996 0.030920595 -0.016323851 -0.08935577 -0.008158971 0.016763808
0.0032372973 -0.07921597 0.00905486 0.0361938 -0.01249069 -0.04693439 0.027983608 0.04788706
0.005755414 0.008110201 0.04461008 0.0023876945 0.026263587 -0.027671024 0.014613211 0.0061116377
0.00024420206 -0.0059373653 0.014780416 0.034945358 0.00019154027 -0.032943737 -0.026804768 0.051754024
0.04790378 -0.021597445 -0.00025948198 0.042349186 0.02684995 0.03407645 0.031720527 -0.010841937
0.034453847 0.03515636 -0.05456826 -0.05441183 0.045666397 0.04491525 0.03685768 -0.03358195
-0.035334673 -0.028164422 0.05402677 0.05621086 -0.041895285 -0.017991088 -0.01287979 -0.02953878
-0.053758644 0.0033651292 0.024507098 -0.030432379 0.084769405 -0.0042383657 -0.07065921 -0.0033508907
-0.009373242 -0.014877854 0.05118884 -0.09690716 -0.038750466 0.011165905
00000000: 463f 4abc 5b5e 28bd ddf3 17bd ce26 6cbc
00000010: afb5 1f3d 4520 02bd 8434 fa3b 066c 2b3d
00000020: 806b 4abc a6a8 6dbd d748 823c 95ec 3abd
00000030: 7a00 b5bc b039 133d 643e 1fbc fe68 aeba
00000040: 0835 233d 1925 00bd 5818 69ba 942f 84bc
00000050: 4f91 c23c 42b3 89bc fefe 553d 3847 113d
00000060: 5007 3e3d 87b1 623d 563f acbc 33b6 9b3c
00000070: dd92 3fbd b2af 0d3c 5ce4 bd3c 921a c1bc
00000080: a499 6a3c f279 833d 7842 433d 2c73 4d3c
00000090: 2018 8abd fa6a 13bc 6e52 30bd 4c92 87bc
000000a0: 0b46 18bd 5afc 98bd bffd 80bd 623c 5b3d
000000b0: 0f05 f9bc e4f1 07bd 096c f8bc fce0 163b
000000c0: 7855 d43c 619b dabc 396a 2a3d 1b8f 0fbc
000000d0: 5af7 79bc b738 3fbd cf24 f4bc c102 24bd
000000e0: c34b 1f3d 6528 91bc 0213 86bc a7d2 8a3c
000000f0: e0e7 90bd 17f0 80bd 67ec b1bc 82b0 a3bc
00000100: f920 3dbd 8ed7 ddbb 2779 ae3c 66c7 31bd
00000110: fb02 75bd 5eb4 023c 62d7 24bc 87d9 e8bc
00000120: 1ded 46bd 52b9 0fbd afa0 44bd 0860 3a3c
00000130: b112 bf3c 7700 a03c 7d62 183d 1da8 d43c
00000140: 12c6 fcbc 1ca2 7cbc 50e1 0c3c 2e88 0b3d
00000150: e6c7 533d 5cb7 a83c 2b04 6ebd e2a9 863d
00000160: 2ec7 63b9 8b18 23bd 25f6 12bd c098 38bc
00000170: 038c 9dbc 4479 23bb 701b 7bbd 28bd 24bc
00000180: c049 c1bc ceed 33bd 588c 96bc 1cac 09bd
00000190: 4484 863b d438 003d 29ae 273b fb30 0e3d
000001a0: cd9d a03b 99f9 74bd e1cf cfbc 0178 84bc
000001b0: e0de f93c 5dc8 843d f791 00bd 512d e83c
000001c0: dbd1 303d e89a 1cbd 88ec 88bc 6b5e 5abd
000001d0: 0b31 fbbc 8188 a53d 102e 49bd 2028 b4ba
000001e0: 5fbf 253d 8a10 cdbc eccb 29bd fd35 233c
000001f0: 1b8c bd3c d781 d53c c86a f9bc 915c 64bd
00000200: dc39 293d bbbd 48bc 02ca 963c 7290 30bd
00000210: 9ef6 ec3a 46c7 12bd 133d 343d 0206 14bd
00000220: 9513 c5bc 8f96 393d 07a4 c4bc 304d fd3c
00000230: 99b9 85bc 2800 b7bd 34ad 05bc 4154 893c
00000240: d628 543b fc3b a2bd d65a 143c f33f 143d
00000250: c0a5 4cbc 463e 40bd e13d e53c 3925 443d
00000260: e997 bc3b a6e0 043c 0fb9 363d de7a 1c3b
00000270: bc26 d73c 58ae e2bc 406c 6f3c 2244 c83b
00000280: 3f08 8039 3b8e c2bb 8f29 723c dd22 0f3d
00000290: 33d8 4839 03f0 06bd ac95 dbbc 07fc 533d
000002a0: c136 443d 20ed b0bc 150b 88b9 5776 2d3d
000002b0: 6df4 db3c bf93 0b3d 62ed 013d 61a2 31bc
000002c0: 7a1f 0d3d 1e00 103d f882 5fbd f0de 5ebd
000002d0: b00c 3b3d 0ef9 373d 14f8 163d 3a8d 09bd
000002e0: 17bb 10bd 13b9 e6bc 2d4b 5d3d 5c3d 663d
000002f0: 649a 2bbd 0c62 93bc c105 53bc 50fb f1bc
00000300: 0632 5cbd 8089 5c3b 1cc3 c83c 534d f9bc
00000310: 959b ad3d fde1 8abb c7b5 90bd 9e9a 5bbb
00000320: 3a92 19bc 3ec2 73bc 64ab 513d 4377 c6bd
00000330: cfb8 1ebd 33f1 363c

fc.3.weight f4 [206, 412]
-0.028321018 0.054313283 0.047165737 0.02379533 0.06687792 0.023160752 0.06730138 -0.028879669
0.047798708 -0.028065275 0.03473794 -0.07545475 0.0042148116 -0.03288193 -0.042500585 0.06900631
-0.06500112 -0.105078846 -0.08803799 0.0033434196 -0.07394737 -0.05345442 0.025535554 0.009183966
-0.07761801 -0.025632555 -0.07438204 0.0013971853 0.04090646 0.027435992 -0.061423138 0.048673965
-0.14215106 0.08682687 0.06524087 -0.0411757 0.045972954 -0.044865396 0.029251821 0.06851901
0.018604806 -0.039800894 -0.0743184 -0.02784831 0.048371304 0.040502213 -0.10654635 -0.028898504
0.048277542 0.090306394 -0.06902335 0.04004648 -0.04262769 0.033038136 0.03173973 0.031784054
0.019028384 0.0056497394 0.042570192 -0.008272585 0.063709304 -0.06838919 0.0019026127 0.07147812
-0.04547563 0.06349912 0.042830687 -0.059513625 -0.018258411 -0.11143407 0.07851819 -0.027976343
-0.06726496 -0.09837424 -0.03664975 0.050982885 -0.060837258 -0.021095315 -0.06894188 0.014287079
-0.12448733 0.022352062 -0.059310682 0.06562061 -0.056037802 -0.06319979 -0.006789177 -0.042558927
0.0048245843 0.04763717 -0.034947257 -0.065059215 -0.010016692 0.035627022 -0.06952046 0.056177273
0.053279333 -0.009991946 0.04211511 0.02645526 -0.0019344277 -0.024749586 -0.0055640657 -0.08319467
-0.049305815 -0.06200797 0.0459899 0.0287544 -0.019446312 -0.055372175 0.03027979 0.03208405
-0.05234898 -0.08028582 -0.028162757 -0.06692949 -0.08751314 -0.073516175 -0.06065566 0.03557963
0.0077287545 0.0058297603 -0.07832369 0.075392075 -0.02391071 -0.07824474 0.050563037 -0.081093565
0.09516769 0.04856245 -0.030889485 -0.07352826 0.037781063 0.02400228 0.045764282 -0.06418469
0.04690245 -0.035467613 0.016723093 -0.06218712 -0.023027813 0.06487934 -0.0035756233 -0.023901131
0.020194257 0.033547748 -0.06049153 0.01312459 0.070752114 -0.03237326 0.03251502 0.0016925394
0.051657416 0.03213687 0.03314896 0.05042836 0.05145949 -0.051449392 -0.12236732 -0.08398159
0.028979553 -0.022224193 -0.089197665 0.005039027 0.06647252 -0.024221303 -0.02258391 -0.016456578
0.025804564 0.026222141 -0.022219403 -0.032024056 0.044334255 -0.09758413 -0.032930207 -0.02968857
-0.028020155 -0.026456233 -0.08921709 -0.09629426 -0.060351383 -0.1732892 0.019680364 0.030005984
-0.06657586 -0.04185438 0.013564777 -0.05852549 -0.006142597 -0.10691752 0.04753016 0.025303496
0.034698337 0.005607805 0.057347227 -0.024850225 -0.023796855 0.067545876 0.03654128 -0.058098737
-0.07741915 0.060186774 -0.059232455 0.07069498 0.0093729 -0.082416944 0.05634105 0.027902855
-0.03536846 -0.05999981 0.0402644 0.058188837 -0.0039917747 0.025770426 0.044796042 -0.043662995
-0.12721844 0.041362718 -0.04551843 0.031256046 -0.021997243 0.032774646 0.06712157 -0.05832718
0.04708985 -0.054118484 -0.070484415 -0.010154477 0.099485554 -0.03366031 -0.15098652 0.030017182
0.07318883 0.07063696 -0.07010555 -0.030879667 -0.07996075 0.002080381 -0.039976493 0.014156648
0.06673127 -0.0300419 -0.00014195399 -0.07365364 0.07291351 -0.0019834226 0.026621321 -0.07609709
0.01576481 0.0699025 -0.03548301 -0.08748211 -0.1500801 0.015480271 -0.053045064 0.04741651
00000000: 7b01 e8bc 9b77 5e3d dc30 413d 6dee c23c
00000010: 4af7 883d 9ebb bd3c 4ed5 893d 0e95 ecbc
00000020: 94c8 433d 26e9 e5bc 5f49 0e3d 0588 9abd
00000030: 671c 8a3b 34af 06bd 1815 2ebd 2e53 8d3d
00000040: 4f1f 85bd 9433 d7bd 434d b4bd 461d 5b3b
00000050: b871 97bd 06f3 5abd f02f d13c 5878 163c
00000060: 31f6 9ebd 5dfb d1bc 9c55 98bd c221 b73a
00000070: 888d 273d 72c1 e03c d496 7bbd 5a5e 473d
00000080: 0c90 11be 49d2 b13d 019d 853d daa7 28bd
00000090: 234e 3c3d c7c4 37bd 84a1 ef3c b253 8c3d
000000a0: 1b69 983c 4306 23bd 3f34 98bd 2422 e4bc
000000b0: fd20 463d a6e5 253d f934 dabd 8ebc ecbc
000000c0: acbe 453d 8ff2 b83d 1d5c 8dbd c707 243d
000000d0: 5f9a 2ebd ff52 073d 8501 023d ff2f 023d
000000e0: 6ae1 9b3c 7321 b93b 155e 2e3d bd89 07bc
000000f0: 067a 823d a20f 8cbd 1761 f93a 1f63 923d
00000100: a744 3abd d40b 823d 3b6f 2f3d 8fc4 73bd
00000110: aa92 95bc 8c37 e4bd 25ce a03d a52e e5bc
00000120: 36c2 89bd 6f78 c9bd 0c1e 16bd 6ed3 503d
00000130: 7d30 79bd 15d0 acbc 6631 8dbd 5a14 6a3c
00000140: 37f3 febd ac1b b73c c2ef 72bd 1964 863d
00000150: e587 65bd e46e 81bd bf77 debb 4552 2ebd
00000160: 8c17 9e3b 311f 433d db24 0fbd c43d 85bd
00000170: 0d1d 24bc a4ed 113d be60 8ebd 241a 663d
00000180: 6e3b 5a3d 42b5 23bc e580 2c3d b4b8 d83c
00000190: 9f8c fdba a5bf cabc c452 b6bb f861 aabd
000001a0: e5f4 49bd 12fc 7dbd e85f 3c3d 598e eb3c
000001b0: df4d 9fbc efcd 62bd 520d f83c 916a 033d
000001c0: e26b 56bd e46c a4bd 95b5 e6bc 5412 89bd
000001d0: 173a b3bd a68f 96bd 1272 78bd f2bb 113d
000001e0: 7e41 fd3b 9307 bf3b 2c68 a0bd 2967 9a3d
000001f0: 65e0 c3bc c73e a0bd 301b 4f3d 6214 a6bd
00000200: 47e7 c23d 6be9 463d f20b fdbc fc95 96bd
00000210: 51c0 1a3d 6ea0 c43c 5473 3b3d 4373 83bd
00000220: c91c 403d 7d46 11bd defe 883c ecb7 7ebd
00000230: d3a4 bcbc 76df 843d 0155 6abb 4ecc c3bc
00000240: 6d6e a53c 5d69 093d f7c5 77bd 8508 573c
00000250: 7ce6 903d d399 04bd 782e 053d 33d8 dd3a
00000260: ba96 533d f3a1 033d 34c7 073d f88d 4e3d
00000270: 30c7 523d 99bc 52bd b89b fabd 8afe abbd
00000280: 8766 ed3c 830f b6bc 44ad b6bd 6c1e a53b
00000290: bf22 883d c16b c6bc e401 b9bc f2cf 86bc
000002a0: 1864 d33c d1cf d63c 7705 b6bc a82b 03bd
000002b0: d697 353d 30da c7bd d3e1 06bd 7235 f3bc
000002c0: 868a e5bc beba d8bc 73b7 b6bd ed35 c5bd
000002d0: 0333 77bd b972 31be b738 a13c 1ccf f53c
000002e0: ed58 88bd 806f 2bbd cc3e 5e3c 6db8 6fbd
000002f0: d747 c9bb 93f7 dabd fcae 423d 4749 cf3c
00000300: d81f 0e3d aec1 b73b ede4 6a3d b392 cbbc
00000310: 9ff1 c2bc 7e55 8a3d 4fac 153d f1f8 6dbd
00000320: ee8d 9ebd 6886 763d bb9d 72bd 88c8 903d
00000330: cb90 193c 37ca a8bd dfc5 663d 8794 e43c
00000340: 85de 10bd 5cc2 75bd 49ec 243d 6b57 6e3d
00000350: 6fcd 82bb 801c d33c 0e7c 373d f8d7 32bd
00000360: 8d45 02be f46b 293d 8971 3abd 5706 003d
00000370: 9033 b4bc b53e 063d 0977 893d 7be8 6ebd
00000380: 49e1 403d 58ab 5dbd 225a 90bd f75e 26bc
00000390: 15bf cb3d 65df 09bd 369c 1abe 98e6 f53c
000003a0: 06e4 953d 1caa 903d 8093 8fbd 5bf7 fcbc
000003b0: 76c2 a3bd 0057 083b 64be 23bd 49f1 673c
000003c0: 67aa 883d 6e1a f6bc 7cd9 14b9 b8d7 96bd
000003d0: ae53 953d 4ffc 01bb f514 da3c cbd8 9bbd
000003e0: 3425 813c 0b29 8f3d a256 11bd d229 b3bd
000003f0: 99ae 19be f6a0 7d3c c845 59bd d037 423d
