inventory/ark_material.onnx (onnx, 526568 bytes, 8 tensors)

35 f4 [8, 3, 5, 5]
0.112723134 0.17188561 0.0047061923 0.08366914 -0.50254107 -0.0829329 0.1814079 -0.24216627
0.13202962 0.012203377 -0.33690745 0.30605304 0.30316943 0.70978564 0.29527494 -0.10359022
0.18628947 0.32076082 0.40532544 -0.15025973 -0.43225026 0.2261657 0.47618395 0.38193145
0.075380296 -0.21638909 -0.13966562 0.66855985 -0.35584825 0.1837798 0.2823162 0.098606214
0.2884338 0.087701686 -0.22273666 -0.062989585 0.14671639 0.24799809 0.068924464 -0.52029765
-0.16058034 0.29512003 0.2876574 -0.013720563 -0.016565425 0.041004904 0.07539631 0.39913458
-0.0031145983 0.29608968 -0.103232026 -0.41623497 -0.081807114 0.3057158 0.41291928 -0.15393598
-0.28672516 0.28651327 -0.2625932 -0.12418342 -0.32182753 0.28244492 -0.35904524 -0.15961032
0.39630142 0.062427975 -0.12906599 -0.40419564 -0.27153367 0.18374835 0.16450118 -0.20652051
0.04723314 0.33422706 -0.12278207 0.25783587 -0.7004916 -0.13393886 -0.12878579 0.23948064
-0.25685045 -0.56669503 -0.26690206 -1.0206274 -0.31181645 0.8719218 0.009134253 -0.823879
-0.3293615 0.67505014 0.5091357 -0.73795253 0.22546247 0.38072807 0.52066547 0.47158203
0.42306158 -0.8678996 -0.51014775 0.4573444 0.44901624 0.46450648 0.26096722 0.48624524
-0.20781913 0.44682822 -0.5523895 0.24424458 0.5237864 0.7233982 -0.32190883 -0.4140128
0.0010069142 -0.4912261 -0.2960958 0.65550226 -0.1356512 -0.63597393 -0.8603107 0.1674695
0.8279563 -0.79319733 -0.5041728 -0.26578435 0.14945781 -0.6553255 -0.60562 -0.23852871
0.43745607 -0.19978565 -0.09887506 -0.13956475 -0.18824074 0.29383525 1.1883594 0.24433143
-0.84502786 0.10719961 0.9797707 0.60083675 -0.3817525 -0.70859575 -0.14839624 -0.4868289
1.2217638 -0.29841635 -0.11975761 0.337716 0.6378295 0.60400444 0.22687419 -0.048651785
0.1658726 0.07261731 -0.0808444 0.07102337 -0.10097507 -0.01829871 -0.031716578 0.090170436
-0.24320126 -0.14052458 0.23171888 0.31028274 0.29003817 -0.19254905 0.27891353 0.11073511
0.027341262 0.21654841 0.1094126 0.19202676 -0.24693967 0.27640083 -0.0054173106 0.08853861
-0.09682942 -0.1853251 -0.082193 -0.14032435 -0.16474481 0.120585054 0.102561116 -0.18825574
-0.10116048 0.024020689 0.083020605 0.09574894 -0.14328004 -0.1739742 -0.12978421 -0.12524661
-0.2421992 0.050737623 0.07339468 0.12528 -0.052887417 -0.024722612 0.17588052 -0.078772716
0.21927048 -0.16151391 0.00044286443 -0.08602885 -0.09967923 0.04350081 -0.060183685 0.1449417
0.030008875 0.101730905 -0.18929693 0.19054219 0.18627004 0.519045 0.31781027 0.17770666
0.19790113 0.26248696 0.355224 0.52252966 -0.06406802 -0.14077893 0.22397338 0.023067696
0.35860416 -0.118936166 0.19219938 0.1955649 -0.19473077 -0.044836942 0.28530046 -0.14797685
-0.05681429 -0.03819012 -0.25678587 -0.16259101 -0.15772645 0.049824774 0.102065414 -0.27563116
0.18106677 0.18744533 -0.28021038 -0.24130462 -0.1733003 -0.32106426 -0.27773857 -0.25455788
0.03542073 -0.06127159 0.30782723 -0.109118514 -0.2499215 -0.21462168 0.03916418 0.0069053345
00000000: 63db e63d c802 303e 6736 9a3b ba5a ab3d
00000010: 88a6 00bf b9d8 a9bd fec2 393e 6ffa 77be
00000020: c632 073e acf0 473c 227f acbe fcb2 9c3e
00000030: 0639 9b3e 83b4 353f 472e 973e 1c27 d4bd
00000040: abc2 3e3e c33a a43e d186 cf3e b0dd 19be
00000050: e84f ddbe fb97 673e 62ce f33e 858c c33e
00000060: fc60 9a3d 1a95 5dbe 8104 0fbe bd26 2b3f
00000070: be31 b6be c630 3c3e c08b 903e 0ef2 c93d
00000080: 98ad 933e f19c b33d 1415 64be af00 81bd
00000090: d23c 163e 36f3 7d3e 4528 8d3d 3a32 05bf
000000a0: 2c6f 24be f919 973e d547 933e 36cc 60bc
000000b0: 37b4 87bc c2f4 273d 6169 9a3d 5e5b cc3e
000000c0: 4a1e 4cbb 1199 973e 506b d3bd c01c d5be
000000d0: 7d8a a7bd c886 9c3e 286a d33e 65a1 1dbe
000000e0: a4cd 92be deb1 923e 9e72 86be e053 febd
000000f0: 94c6 a4be 9f9c 903e c7d4 b7be e370 23be
00000100: 05e8 ca3e 7ab4 7f3d e029 04be bbf2 cebe
00000110: 7606 8bbe 8728 3c3e ff72 283e 1d7a 53be
00000120: 8977 413d cf1f ab3e 2a75 fbbd 1003 843e
00000130: 6b53 33bf 4527 09be 6ce0 03be 6a3a 753e
00000140: e781 83be ed12 11bf 63a7 88be eba3 82bf
00000150: 68a6 9fbe 4436 5f3f d5a7 153c bce9 52bf
00000160: 12a2 a8be 16d0 2c3f b856 023f 75ea 3cbf
00000170: a2df 663e caee c23e 554a 053f 3373 f13e
00000180: 879b d83e ab2e 5ebf 0b99 02bf 0c29 ea3e
00000190: 75e5 e53e cbd3 ed3e 7f9d 853e 23f5 f83e
000001a0: 8ace 54be abc6 e43e 6669 0dbf 401b 7a3e
000001b0: de16 063f a030 393f 3cd1 a4be 7cf9 d3be
000001c0: 6ffa 833a fd81 fbbe de99 97be ffce 273f
000001d0: 26e8 0abe 30cf 22bf 523d 5cbf 207d 2b3e
000001e0: f2f4 533f fb0e 4bbf 7811 01bf e314 88be
000001f0: 780b 193e 69c3 27bf ea09 1bbf df40 74be
00000200: 3efa df3e 9c94 4cbe 027f cabd 10ea 0ebe
00000210: 2ec2 40be 9371 963e 291c 983f 0532 7a3e
00000220: bf53 58bf 788b db3d 41d2 7a3f 70d0 193f
00000230: 1075 c3be 8866 35bf 2ff5 17be a341 f9be
00000240: c262 9c3f 07ca 98be 7a43 f5bd 1de9 ac3e
00000250: cb48 233f 09a0 1a3f b551 683e 1847 47bd
00000260: 82da 293e 62b8 943d c091 a5bd b374 913d
00000270: 04cc cebd 2de7 95bc 3ee9 01bd 47ab b83d
00000280: c009 79be ade5 0fbe b747 6d3e 61dd 9e3e
00000290: e27f 943e 942b 45be c1cd 8e3e 17c9 e23d
000002a0: c8fa df3c debe 5d3e b713 e03d aaa2 443e
000002b0: c1dd 7cbe 6984 8d3e b283 b1bb bb53 b53d
000002c0: 814e c6bd ddc5 3dbe ce54 a8bd 30b1 0fbe
000002d0: ddb2 28be 4cf5 f63d 900b d23d 1dc6 40be
000002e0: 3a2d cfbd 09c7 c43c b506 aa3d 0518 c43d
000002f0: 01b8 12be 4b26 32be 27e6 04be a640 00be
00000300: 1103 78be 41d2 4f3d f34f 963d 6649 003e
00000310: 7aa0 58bd 1387 cabc 061a 343e 9753 a1bd
00000320: 7188 603e e763 25be 4230 e839 e52f b0bd
00000330: a024 ccbd e82d 323d 2b83 76bd 996b 143e
00000340: 2cd5 f53c 4b58 d03d 0ed7 41be 7e1d 433e
00000350: 93bd 3e3e 22e0 043f 07b8 a23e bcf8 353e
00000360: 98a6 4a3e b164 863e ecdf b53e 81c4 053f
00000370: 1836 83bd 5a28 10be 4759 653e 77f8 bc3c
00000380: f79a b73e ce94 f3bd eacf 443e 2a42 483e
00000390: 8167 47be f1a6 37bd e712 923e 3e87 17be
000003a0: 1ab6 68bd 3e6d 1cbd 7079 83be 427e 26be
000003b0: 0b83 21be 1015 4c3d ac07 d13d 871f 8dbe
000003c0: 9169 393e abf1 3f3e bc77 8fbe 8f18 77be
000003d0: a275 31be 8962 a4be c033 8ebe 6955 82be
000003e0: 5415 113d ebf7 7abd 889b 9d3e 8779 dfbd
000003f0: 6ceb 7fbe c9c5 5bbe 9f6a 203d 2546 e23b

36 f4 [8]
-1.4647902 -0.08961892 -1.8621707 1.9937768 -0.76249236 0.56537545 -1.8555634 1.5999197
00000000: 3f7e bbbf 208a b7bd 9c5b eebf 1434 ff3f
00000010: b332 43bf 72bc 103f 1a83 edbf 2bca cc3f

38 f4 [16, 8, 3, 3]
0.1405376 0.40755275 1.2167372 -0.9609724 -0.8533797 0.5948488 -0.49921024 0.8551734
-0.471068 -0.39110488 1.152014 0.53799766 -0.7602581 -1.8956771 -0.20420212 -0.53632736
-0.5817852 0.13792036 -0.03732376 1.5897835 -0.3905213 0.435448 0.3611621 0.21377532
-0.21214132 -0.87771064 1.6780754 0.70342743 0.2857631 -0.2268249 0.40240833 -1.1702182
-0.7511612 -0.14096394 -0.121261716 1.4459535 0.4395707 -0.47948375 -1.8052511 0.75593084
-0.9171774 0.6219458 0.13789417 0.74458426 0.6586862 -0.655125 0.0624862 -1.3567367
-0.93909067 0.6898041 -1.1017725 0.3111287 0.5820153 0.9910688 0.33160532 1.0638478
-0.7453161 0.8668509 -0.74848884 -0.99506956 0.00032853687 -0.30426455 0.62229335 0.34736276
-0.6385271 -1.0007875 0.33744568 0.2110818 1.449539 -0.55622756 0.15418673 -0.7557858
-0.42111665 0.20083614 -0.6074835 -1.3797383 1.3637655 0.9317431 0.07151547 0.89066035
-0.71402025 0.7659108 -0.33798587 0.6352895 -0.5567092 -0.09772954 0.09003117 -0.46763524
0.27162316 0.7635515 0.81517977 -1.22362 -0.11691984 -0.40981033 -1.4167538 0.47387367
0.53118867 0.4863118 -0.035228632 -1.1287991 0.4802122 0.009939646 -0.98680705 -1.5782174
-0.3734869 0.38303936 0.97432685 1.4492158 -0.69561374 0.007881103 -0.35314986 0.5847385
0.024786783 -0.4999851 0.8228607 0.102121316 -0.07439262 0.84776926 -0.534644 0.06968115
0.48651493 -0.82897574 -0.88756156 0.95284116 1.0626855 0.0917247 0.12634154 -0.44771928
0.6756562 1.1734444 -1.8373214 0.5011192 0.6080486 0.06476192 -0.1430303 0.44198522
-0.825702 -0.13853237 -1.400531 0.37749735 -0.17350069 0.039749168 -0.064406194 -0.19400844
0.30425003 1.1541499 0.11246439 -0.2763171 -0.57033426 -0.8711206 1.4576083 -0.8029397
0.28772545 0.99805653 1.6113902 0.49727118 -0.15120743 -0.5539714 -1.1347272 0.089621566
-0.3776519 -0.68681246 0.35830444 -0.8523877 0.34450543 0.3775919 0.4539834 0.25285968
-1.4278543 -0.78843194 1.2511598 0.16163634 -0.2549958 0.31455666 0.5626241 0.08326298
-0.31719133 -0.2242577 0.075711794 -1.0943717 0.18657902 -0.21556279 -0.9551267 0.4680439
-0.96152467 -0.4175224 -0.6369819 -0.2455674 -0.76480144 -0.081570715 -1.8257091 0.117033444
0.23366122 -1.3441184 -0.07324655 -0.8103152 -0.18400264 0.8960826 -0.36569545 -0.80804265
-0.17948084 0.26622108 -0.26416102 0.3040133 0.10950759 0.08655861 -0.588455 -0.76481646
-0.070527636 0.57639676 0.30010036 -1.0555271 -0.01448682 -0.70292485 -0.06736566 1.3032998
-0.89948744 -0.054298893 -0.84933144 0.17474316 0.14090629 0.32616916 0.27953216 0.31544578
0.22110376 -0.3196934 0.07413986 -0.32873493 0.098930486 -0.8587722 -0.5304618 -0.039218403
0.9272912 -1.4951986 0.30590892 -0.56236553 0.7559504 -0.281519 -0.3227059 -0.0012621698
0.19947287 0.10691494 -0.6150138 -0.44571146 -0.455191 -0.5702686 0.028787743 1.4065692
0.061147425 0.32908785 0.9563671 1.1488022 0.7655282 -0.23136139 -0.46783233 0.59785813
00000000: 17e9 0f3e c1aa d03e 0bbe 9b3f 4a02 76bf
00000010: 1877 5abf 0348 183f 7c98 ffbe a5ec 5a3f
00000020: d32f f1be e63e c8be 3275 933f 37ba 093f
00000030: 46a0 42bf 8ca5 f2bf 5c1a 51be c04c 09bf
00000040: e0ef 14bf ff3a 0d3e cde0 18bd 077e cb3f
00000050: 68f2 c7be 0af3 de3e 3dea b83e ebe7 5a3e
00000060: 933b 59be a5b1 60bf 2dcb d63f d213 343f
00000070: 8b4f 923e c944 68be 7708 ce3e b6c9 95bf
00000080: 1a4c 40bf da58 10be 1058 f8bd 0115 b93f
00000090: 690f e13e e57e f5be 7812 e7bf af84 413f
000000a0: 23cc 6abf d737 1f3f 2134 0d3e 139d 3e3f
000000b0: a99f 283f 46b6 27bf 88f1 7f3d 8ca9 adbf
000000c0: 3f68 70bf 0097 303f e206 8dbf 434c 9f3e
000000d0: f4fe 143f afb6 7d3f 2cc8 a93e 2a2c 883f
000000e0: 09cd 3ebf f1e9 5d3f f79c 3fbf e1bc 7ebf
000000f0: 793f ac39 90c8 9bbe 9e4e 1f3f 88d9 b13e
00000100: 8376 23bf ce19 80bf aec5 ac3e d425 583e
00000110: 7e8a b93f ee64 0ebf 20e3 1d3e 2e7b 41bf
00000120: 9a9c d7be fda7 4d3e 0a84 1bbf 449b b0bf
00000130: de8f ae3f b786 6e3f b476 923d 5102 643f
00000140: 08ca 36bf bb12 443f 7c0c adbe 55a2 223f
00000150: 7e84 0ebf 6d26 c8bd 4362 b83d e36d efbe
00000160: 3112 8b3e 1c78 433f 9faf 503f 959f 9cbf
00000170: ab73 efbd a9d2 d1be 3058 b5bf 929f f23e
00000180: fbfb 073f dcfd f83e e64b 10bd 7d7c 90bf
00000190: 60de f53e e6d9 223c 639f 7cbf 0703 cabf
000001a0: ad39 bfbe bc1d c43e 7c6d 793f e77f b93f
000001b0: be13 32bf be1f 013c 0fd0 b4be 6cb1 153f
000001c0: a70d cb3c 0cfe ffbe 00a7 523f fb24 d13d
000001d0: 285b 98bd 6807 593f 6ede 08bf feb4 8e3d
000001e0: 7c18 f93e c137 54bf 3c37 63bf 66ed 733f
000001f0: 1406 883f 29da bb3d ad5f 013e 763b e5be
00000200: cef7 2c3f 6d33 963f 592d ebbf 5949 003f
00000210: 13a9 1b3f e6a1 843d 8976 12be e34b e23e
00000220: 3561 53bf 6edb 0dbe 9a44 b3bf 5547 c13e
00000230: 2aaa 31be 06d0 223d 65e7 83bd 26aa 46be
00000240: a9c6 9b3e 2fbb 933f bb53 e63d 6f79 8dbe
00000250: 6d01 12bf c201 5fbf e992 ba3f 758d 4dbf
00000260: c050 933e a280 7f3f 0942 ce3f 549a fe3e
00000270: 1fd6 1abe 12d1 0dbf be3e 91bf 838b b73d
00000280: 975b c1be f1d2 2fbf ae73 b73e 1536 5abf
00000290: 0463 b03e ba53 c13e 8370 e83e d376 813e
000002a0: eec3 b6bf add6 49bf 0126 a03f ff83 253e
000002b0: cf8e 82be 920d a13e 2208 103f c885 aa3d
000002c0: e766 a2be cfa3 65be c90e 9b3d 5f14 8cbf
000002d0: 920e 3f3e 7ebc 5cbe 2f83 74bf 73a3 ef3e
000002e0: 7b26 76bf 7fc5 d5be 3f11 23bf 0576 7bbe
000002f0: 07ca 43bf 8c0e a7bd d6b0 e9bf 3baf ef3d
00000300: e344 6f3e 120c acbf 4a02 96bd d170 4fbf
00000310: 306b 3cbe ab65 653f 6f3c bbbe e2db 4ebf
00000320: d3c9 37be 214e 883e 1d40 87be a2a7 9b3e
00000330: 8445 e03d a445 b13d fda4 16bf 03cb 43bf
00000340: cb70 90bd bd8e 133f c1a6 993e 831b 87bf
00000350: 215a 6dbc e2f2 33bf 02f7 89bd 87d2 a63f
00000360: cf44 66bf 8468 5ebd c96d 59bf dfef 323e
00000370: bd49 103e a5ff a63e d71e 8f3e 1c82 a13e
00000380: 0669 623e daae a3be a4d6 973d f24f a8be
00000390: 119c ca3d 7fd8 5bbf 58cc 07bf 7aa3 20bd
000003a0: f562 6d3f ab62 bfbf 18a0 9c3e 30f7 0fbf
000003b0: f785 413f 4223 90be b539 a5be 646f a5ba
000003c0: 9e42 4c3e 38f6 da3d 8b71 1dbf 4b34 e4be
000003d0: cb0e e9be 1ffd 11bf 46d4 eb3c 760a b43f
000003e0: b975 7a3d 347e a83e 79d4 743f f30b 933f
000003f0: a8f9 433f 00ea 6cbe b887 efbe 3b0d 193f

39 f4 [16]
0.4532561 0.25459397 3.5365326 0.5949574 -1.1062291 0.0502654 -1.4238805 -1.727306
-0.90725136 -1.0864704 2.3778107 3.0059345 4.6201143 -1.2404999 0.71177673 -1.180911
00000000: 2f11 e83e 245a 823e 8d56 6240 214f 183f
00000010: ea98 8dbf 18e3 4d3d b741 b6bf 5d18 ddbf
00000020: a041 68bf 7611 8bbf 0d2e 1840 3b61 4040
00000030: fad7 9340 b3c8 9ebf 0037 363f 1728 97bf

fc.0.bias f4 [440]
0.07769895 -0.009432982 -0.03810579 0.07744269 0.042183015 0.020172065 0.16585226 -0.054082673
0.011621549 0.09457526 -0.025004078 0.00314885 -0.08577996 0.13329716 0.06660513 -0.0032527954
0.092153184 0.091527365 0.08300093 0.115783304 -0.008492926 0.06568591 0.007077859 -0.040451102
-0.005032566 0.032923672 0.094331816 0.078889176 -0.03984699 0.058101777 0.15437144 0.04970616
0.020456703 0.10880928 -0.032789603 -0.0008959673 0.0053692698 0.09710259 0.010622931 0.06529946
-0.006741947 0.06864619 -0.024163883 0.07571998 -0.021120496 0.05796401 -0.039657917 -0.0858945
0.04570263 -0.034387633 0.12091967 0.086864546 0.10893777 0.033020124 0.1250528 0.065603085
0.0039338353 -0.009021833 -0.005921129 -0.017590323 0.06575987 0.089230776 0.006973206 0.09027906
0.08735598 0.06874864 0.07276919 -0.06168817 -0.06049263 0.07063232 -0.019189069 -0.03107699
0.023950325 0.11580342 -0.005573988 0.009560835 -0.006017065 -0.039805826 0.0051818998 0.036092658
0.052068677 -0.05089664 -0.018252987 0.009747739 -0.021785574 -0.017310606 0.022491956 0.027919956
0.05676769 -0.08229621 -0.022309257 0.11947583 0.12864059 0.07558411 0.012072519 0.15656114
-0.055942323 0.038674448 0.067092374 -0.013480924 0.060783446 0.063340895 0.10204973 -0.026650514
0.055772033 0.06114847 0.12866707 -0.10205725 0.067628525 0.0035935354 0.07683052 0.012556932
0.09296207 0.053093236 0.07592069 0.13029076 0.03032703 0.05849596 0.121446565 -0.029526934
-0.008600349 0.077806 0.024459021 0.0009917639 -0.012083842 0.01126019 -0.042918824 0.0392663
0.093325794 -0.03407982 0.035986196 0.008622185 0.0012505734 -0.050147224 -0.09216851 -0.014774503
0.105484575 0.061241444 0.08576656 0.020903744 0.029917771 0.13846593 -0.012824998 0.022312531
0.045016546 0.15118268 0.020671876 -0.003006918 0.11978626 0.098609805 -0.02849756 -0.038690362
0.12204735 0.0042190077 -0.05620752 0.021321377 -0.015872087 0.042167116 0.06564433 0.029973531
0.006887377 0.115946725 -0.011184966 -0.07846352 -0.056317206 -0.022146843 0.022028256 0.06384993
0.11601122 0.14362742 0.070544034 0.07734246 -0.04604931 -0.033047255 0.06835615 0.052387778
0.0559159 0.11166675 0.09149961 0.107033014 -0.0056365286 -0.023959255 0.107304685 0.10510942
0.0154033005 -0.03637901 0.05369498 0.05154093 0.00821942 0.036553763 0.048535604 0.034723807
-0.038591392 0.04911224 -0.05975303 0.06869886 0.057650816 -0.02953322 0.09573753 -0.06567361
-0.0013382811 0.027193736 -0.026464332 -0.022850173 0.0066365604 0.040060084 0.109042235 -0.051370997
0.10310318 0.12686755 0.15291284 0.14619267 0.006054269 0.020450493 0.049815327 0.028285472
0.0446044 -0.07393589 0.12843987 0.048907846 0.011740028 -0.019357437 0.089119114 -0.018942775
-0.055108238 0.040782582 -0.04606617 0.018578015 -0.012265803 0.06566641 0.019413412 0.049159545
0.05696073 0.083439186 -0.045501083 0.004415636 0.11283305 0.045835845 0.07687104 -0.06957073
0.106487036 0.050070364 0.011431841 0.068940625 -0.005260223 0.08481874 0.07877064 0.07965627
0.09856319 0.06944874 0.014840733 0.06810153 -0.002339955 -0.022734767 0.14125599 0.0075323954
00000000: a120 9f3d cb8c 1abc d114 1cbd 469a 9e3d
00000010: 19c8 2c3d e33f a53c 2dd5 293e cb85 5dbd
00000020: 4f68 3e3c adb0 c13d 5ad5 ccbc f05c 4e3b
00000030: 67ad afbd 0d7f 083e 4568 883d da2c 55bb
00000040: cfba bc3d b372 bb3d 64fc a93d cc1f ed3d
00000050: ea25 0bbc 5686 863d 62ed e73b 0eb0 25bd
00000060: 39e8 a4bb f9da 063d 0a31 c13d a690 a13d
00000070: 9936 23bd 21fc 6d3d 8c13 1e3e b098 4b3d
00000080: d194 a73c 66d7 de3d 644e 06bd 59df 6aba
00000090: b3f0 af3b b9dd c63d cd0b 2e3c b9bb 853d
000000a0: 8deb dcbb 6096 8c3d 56f3 c5bc 1413 9b3d
000000b0: e404 adbc ab6b 6d3d 5770 22bd 75e9 afbd
000000c0: ae32 3b3d 0cda 0cbd bba4 f73d 0ae6 b13d
000000d0: c41a df3d 1c40 073d d70d 003e e95a 863d
000000e0: 67e7 803b 4fd0 13bc 0806 c2bb 9519 90bc
000000f0: 1cad 863d a0be b63d 7e7f e43b 3ae4 b83d
00000100: b1e7 b23d 16cc 8c3d 0308 953d bcac 7cbd
00000110: 1fc7 77bd aea7 903d 6532 9dbc 2c95 febc
00000120: 7933 c43c 582a ed3d 00a6 b6bb 0ca5 1c3c
00000130: cd2a c5bb 6f0b 23bd edcc a93b e5d5 133d
00000140: f745 553d ff78 50bd 4a87 95bc fbb4 1f3c
00000150: a977 b2bc f9ce 8dbc 0d41 b83c 64b8 e43c
00000160: 3d85 683d ea8a a8bd e7c1 b6bc beaf f43d
00000170: 5cba 033e d8cb 9a3d d1cb 453c 9051 203e
00000180: c723 65bd 1969 1e3d ba67 893d 18df 5cbc
00000190: 10f8 783d dfb8 813d 73ff d03d 2e52 dabc
000001a0: 3771 643d d176 7a3d 4dc1 033e 6403 d1bd
000001b0: d380 8a3d 8581 6b3b 5259 9d3d 97bb 4d3c
000001c0: e662 be3d 4b78 593d 4f7c 9b3d f16a 053e
000001d0: 6470 f83c 7699 6f3d fab8 f83d 78e2 f1bc
000001e0: 7ae8 0cbc c158 9f3d 495e c83c 13fe 813a
000001f0: 4ffb 45bc a97c 383c a6cb 2fbd b3d5 203d
00000200: 9821 bf3d 4897 0bbd 4366 133d 1144 0d3c
00000210: 48ea a33a 2d67 4dbd d8c2 bcbd c210 72bc
00000220: 4c08 d83d 4fd8 7a3d 61a6 af3d 543e ab3c
00000230: 1d16 f53c 03ca 0d3e f11f 52bc c5c8 b63c
00000240: 4563 383d a2cf 1a3e 1158 a93c b60f 45bb
00000250: 8052 f53d f0f3 c93d b773 e9bc c979 1ebd
00000260: f6f3 f93d 9a3f 8a3b db39 66bd 2baa ae3c
00000270: 2e06 82bc 6db7 2c3d 8970 863d 0d8b f53c
00000280: 81af e13b 7a75 ed3d 2641 37bc 7bb1 a0bd
00000290: dfac 66bd 4c6d b5bc 9a74 b43c c1c3 823d
000002a0: 4a97 ed3d 1113 133e 6479 903d b965 9e3d
000002b0: 349e 3cbd 8f5c 07bd 4ffe 8b3d 9194 563d
000002c0: 1208 653d 89b1 e43d 2664 bb3d 2034 db3d
000002d0: a1b2 b8bb 3346 c4bc 8fc2 db3d 9c43 d73d
000002e0: 205e 7c3c 2802 15bd 44ef 5b3d 951c 533d
000002f0: bfaa 063c 66b9 153d 45cd 463d 8d3a 0e3d
00000300: 0212 1ebd eb29 493d 98bf 74bd fdb1 8c3d
00000310: 4323 6c3d a7ef f1bc 0a12 c43d e37f 86bd
00000320: 4369 afba 66c5 de3c bacb d8bc 4930 bbbc
00000330: 8177 d93b 0b16 243d 8951 df3d 656a 52bd
00000340: c327 d33d 91e9 013e 2f95 1c3e 88b3 153e
00000350: e462 c63b cb87 a73c 280b 4c3d efb6 e73c
00000360: 1ab3 363d b36b 97bd be85 033e 9853 483d
00000370: 3f59 403c 7d93 9ebc 1584 b63d e12d 9bbc
00000380: 2db9 61bd a30b 273d e1af 3cbd ec30 983c
00000390: 82f6 48bc 1c7c 863d e008 9f3c 855b 493d
000003a0: a84f 693d 2ae2 aa3d 585f 3abd 0ab1 903b
000003b0: 0415 e73d 5ebe 3b3d 906e 9d3d 197b 8ebd
000003c0: e015 da3d 9516 4d3d 9e4c 3b3c be30 8d3d
000003d0: f35d acbb 73b5 ad3d 8052 a13d d422 a33d
000003e0: 7fdb c93d 243b 8e3d 8c26 733c d178 8b3d
000003f0: ee59 19bb 433e babc 69a5 103e 50d2 f63b

fc.0.weight f4 [440, 64]
-0.061150435 -0.026456099 0.012950307 0.17626747 0.04144658 0.1453452 0.12641838 0.123830914
-0.01348499 -0.022875924 -0.07146561 -0.11792597 -0.011843558 -0.05770454 0.0312647 -0.053443883
-0.1445433 -0.018758405 -0.00064071943 -0.1161147 0.01533523 0.014439081 0.009545609 0.020187832
-0.07382536 0.04300824 0.030591402 -0.03570983 -0.016298149 0.105733484 -0.03637182 0.14865506
-0.038728423 -0.085132174 -0.01586759 0.10443313 -0.05485881 0.036611766 -0.12154988 0.14983384
0.008072974 0.19226424 0.16286679 0.032618094 0.09034706 0.13870846 -0.13962586 0.044792667
-0.007175533 0.02859364 0.06370854 -0.057280175 -0.08350429 -0.11547156 -0.08755847 0.0017073002
0.09674352 0.14339937 0.040533643 0.039642755 -0.16231713 -0.075927734 -0.040949043 -0.09868957
-0.04631463 0.111041114 -0.09998906 0.030595832 -0.11255395 0.11326773 0.074365005 0.09284632
-0.052945126 0.14583091 0.06502636 -0.08536726 -0.07118761 0.1476236 0.020819178 -0.055864837
0.14745478 0.118904166 0.0654295 -0.045016494 -0.12070339 -0.086439796 0.04901992 -0.11591204
0.05705673 -0.002646131 0.037354067 -0.060461998 -0.022940496 -0.009035782 0.032207746 0.17943105
-0.11287129 0.090337895 0.09636569 0.13357362 -0.024673617 -0.015068593 0.053821176 -0.06901271
0.12144459 0.05697174 0.070216306 -0.1346765 0.013317178 0.03518952 -0.010137724 0.17902547
-0.07929825 0.16610739 -0.10334328 0.110664256 0.011679581 0.18057999 -0.050810058 -0.07654893
-0.021028461 0.079897486 -0.010862922 -0.029369887 -0.006961204 0.17885815 -0.037143663 -0.111399084
-0.15959598 -0.0037317134 0.0887915 -0.055175204 -0.04029865 0.111788854 0.107375875 0.12743719
-0.13289045 0.15662342 0.03606911 0.16945758 -0.016291635 0.10984655 -0.10922514 -0.09508396
-0.12903045 0.087893896 -0.039906606 0.06331332 -0.067873836 0.0068498515 0.019327475 -0.12864554
0.17997985 0.008497844 0.08526889 0.122227035 0.06828329 0.0468505 -0.10931718 0.12289312
0.13191366 0.09921526 0.20428514 0.06832873 0.15879376 -0.1433843 -0.08259583 0.08159795
0.034676112 0.18658766 0.11283713 -0.06430351 0.034489643 -0.09645313 -0.1923774 -0.18036076
-0.006703965 0.10624156 0.031906538 -0.09478405 -0.026171153 0.12793806 -0.08459127 0.11793304
0.20387281 0.12255633 -0.016361097 -0.058978114 0.041668642 0.038333893 0.11672549 -0.018192245
0.13135403 -0.03840978 0.06760148 0.06873413 0.05788028 0.04035493 0.11299404 0.07603456
-0.049855724 -0.13710146 -0.07235172 0.08267297 -0.06916672 -0.115529194 -0.06163836 0.1966451
0.017373871 0.005529736 -0.07421575 0.19607161 -0.038141433 0.07284673 -0.039380122 0.06425903
0.026444843 -0.042546794 0.01946627 -0.02713858 0.053883873 0.13512067 0.065474406 0.039426688
0.016870754 0.10049032 -0.0599745 0.08000567 -0.049754225 0.095219724 -0.08472255 0.03260536
-0.0049202465 -0.09250618 0.030557156 0.009781489 -0.07594332 0.055735998 -0.1366369 0.13190164
0.12199296 -0.024886139 -0.12683909 -0.047447182 0.086778715 -0.11292084 0.02405488 0.014638105
-0.022759758 -0.04702417 0.07462575 0.008821215 0.064879045 -0.06487343 -0.07707029 0.15911536
00000000: e178 7abd 76ba d8bc 862d 543c 767f 343e
00000010: e4c3 293d 5fd5 143e d273 013e 109b fd3d
00000020: 26f0 5cbc 4a66 bbbc 905c 92bd 2c83 f1bd
00000030: 7c0b 42bc 995b 6cbd 6a0f 003d f9e7 5abd
00000040: 2903 14be 3aab 99bc f4f5 27ba 8bcd edbd
00000050: 9e40 7b3c e591 6c3c 3065 1c3c f460 a53c
00000060: c031 97bd 6929 303d d29a fa3c 7844 12bd
00000070: b283 85bc cc8a d83d 9efa 14bd 0839 183e
00000080: b2a1 1ebd c759 aebd c0fc 81bc 09e1 d53d
00000090: a2b3 60bd 38f6 153d 25ef f8bd 0b6e 193e
000000a0: 8244 043c ebe0 443e 8dc6 263e 8d9a 053d
000000b0: e107 b93d 9709 0e3e 15fa 0ebe 8478 373d
000000c0: bc20 ebbb 363d ea3c 9f79 823d 9e9e 6abd
000000d0: 4c04 abbd 5a7c ecbd db51 b3bd 7dc7 df3a
000000e0: 7721 c63d 49d7 123e 9b06 263d 7160 223d
000000f0: 7636 26be 0080 9bbd 2fba 27bd c21d cabd
00000100: 69b4 3dbd 8669 e33d 10c7 ccbd 1ca4 fa3c
00000110: af82 e6bd e9f8 e73d ae4c 983d 3626 be3d
00000120: fddc 58bd b354 153e 8a2c 853d 08d5 aebd
00000130: cfca 91bd a42a 173e fb8c aa3c 87d2 64bd
00000140: 63fe 163e 0784 f33d e7ff 853d 3763 38bd
00000150: 5733 f7bd 5907 b1bd 1dc9 483d 4b63 edbd
00000160: 51b4 693d b66a 2dbb 9400 193d 00a7 77bd
00000170: b5ed bbbc d10a 14bc 45ec 033d c6bc 373e
00000180: 1029 e7bd 1303 b93d 605b c53d 86c7 083e
00000190: 5320 cabc 43e2 76bc 9873 5c3d 8956 8dbd
000001a0: f1b7 f83d 335b 693d 91cd 8f3d a3e8 09be
000001b0: 4b30 5a3c e322 103d b218 26bc 7452 373e
000001c0: 1f67 a2bd 0e18 2a3e a4a5 d3bd f1a3 e23d
000001d0: b75b 3f3c f6e9 383e 351e 50bd afc5 9cbd
000001e0: e143 acbc 4ba1 a33d 66fa 31bc 1e99 f0bc
000001f0: d01a e4bb 9726 373e f423 18bd 3425 e4bd
00000200: 216d 23be c38f 74bb 51d8 b53d 65ff 61bd
00000210: 3210 25bd 8ef1 e43d e2e7 db3d e57e 023e
00000220: 6f14 08be e461 203e 34bd 133d 4a86 2d3e
00000230: 0976 85bc 3af7 e03d 6eb1 dfbd 61bb c2bd
00000240: 8f20 04be b701 b43d 1c75 23bd 6aaa 813d
00000250: 7001 8bbd b874 e03b a754 9e3c a8bb 03be
00000260: a34c 383e 8b3a 0b3c 75a1 ae3d 2b52 fa3d
00000270: 1cd8 8b3d 4fe6 3f3d b0e1 dfbd 63af fb3d
00000280: 6014 073e 5f31 cb3d 2030 513e efef 8b3d
00000290: d59a 223e 55d3 12be 0128 a9bd d31c a73d
000002a0: 8a08 0e3d d610 3f3e 2717 e73d 8fb1 83bd
000002b0: 0345 0d3d 3889 c5bd 95fe 44be 7eb0 38be
000002c0: efac dbbb 2d95 d93d 6eb0 023d 241e c2bd
000002d0: e364 d6bc 3202 033e 303e adbd e186 f13d
000002e0: 09c4 503e d0fe fa3d b507 86bc 0993 71bd
000002f0: bdac 2a3d 0004 1d3d c60d ef3d e707 95bc
00000300: ac81 063e 9353 1dbd a572 8a3d 7bc4 8c3d
00000310: df13 6d3d 364b 253d 6b69 e73d 02b8 9b3d
00000320: 8435 4cbd 5364 0cbe 232d 94bd 7250 a93d
00000330: 48a7 8dbd 929a ecbd 8178 7cbd 555d 493e
00000340: a653 8e3c ca32 b53b 6dfe 97bd ffc6 483e
00000350: 313a 1cbd ab30 953d 0d4d 21bd 3d9a 833d
00000360: dba2 d83c 8c45 2ebd ba77 9f3c ba51 debc
00000370: 56b5 5c3d 135d 0a3e 7217 863d e17d 213d
00000380: 8934 8a3c decd cd3d d2a7 75bd 03da a33d
00000390: 16cb 4bbd 8f02 c33d 0483 adbd 338d 053d
000003a0: 053a a1bb e173 bdbd 0053 fa3c 8a42 203c
000003b0: 2c88 9bbd 6e4b 643d 8bea 0bbe 3911 073e
000003c0: 72d7 f93d 04de cbbc 1be2 01be fa57 42bd
000003d0: 0ab9 b13d 0b43 e7bd bd0e c53c aad4 6f3c
000003e0: ac72 babc 6b9c 40bd 63d5 983d db86 103c
000003f0: 4edf 843d 5cdc 84bd 07d7 9dbd 23ef 223e

fc.3.bias f4 [220]
0.0282051 -0.020447055 0.02555634 -0.015968831 0.020480053 -0.03418571 0.023530032 -0.017136207
-0.017982654 -0.038671702 -0.037334517 -0.06091595 0.017509768 0.008587783 0.00027645755 0.02203814
0.0073731127 -0.011341872 0.0006602031 -0.016163027 -0.018150985 -0.01147629 -0.009374881 0.05532053
0.03969469 0.006122991 -0.010739398 -0.043795858 -0.007548298 0.0602811 0.028320085 -0.021756222
-0.029393857 0.029097833 0.005148866 -0.009532119 -0.03816592 0.022817792 -0.036301583 0.007786101
-0.028644213 -0.059086848 -0.07057407 -0.08209721 0.044784863 0.03394184 -0.0044830283 -0.024674773
0.026800161 -0.01967417 -0.0063505573 0.006118144 0.015262159 -0.018697966 -0.0074297055 0.022611404
-0.0028437995 -0.06604032 -0.024545599 0.04770936 0.00600011 0.032707393 0.0030307393 0.01655706
-0.00079418626 -0.055912435 0.030587586 -0.0043216785 -0.008319951 0.005531133 -0.08280759 -0.027036123
-0.0073317364 -0.05579768 -0.053484112 -0.017178304 -0.08635206 -0.058038507 0.03747746 -0.013844937
-0.0042861113 0.022153292 -0.01811804 -0.012958234 -0.028560061 -0.041231863 -0.06084397 0.041457593
0.008849464 -0.056235682 0.04448019 -0.00567493 -0.050016735 -0.04194955 -0.014014194 0.011411718
-0.0030726865 -0.018654175 -0.012222332 -0.0385128 0.026418736 0.022750454 -0.012709987 -0.015420233
0.04150454 -0.016282748 0.0013518332 0.028490717 -0.050497152 -0.029970247 -0.012678332 0.030506847
0.049678877 -0.009000041 -0.009175166 0.013373468 -0.039544046 -0.052725438 -0.0501537 0.021066245
0.022818785 -0.034074396 0.031841192 0.02969293 -0.033996582 -0.012748843 -0.015842602 0.0145233385
-0.030373277 -0.0033355625 -0.029902902 0.018904487 -0.02094454 -0.0026343584 -0.0117843 -0.01985388
-0.0231474 -0.04902647 0.0382258 0.028175406 -0.033506896 0.0061423085 -0.06581033 0.011839708
0.010489787 0.026523752 -0.028764766 -0.037911117 -0.048674632 -0.006247553 -0.059795965 -0.033427715
0.005144638 -0.0029018961 0.07004852 -0.024082579 -0.019302234 0.05131808 -0.0023788526 -0.024601283
0.026051119 0.043654468 -0.017360885 0.014927131 -0.015120362 -0.014052163 -0.008898926 -0.012075112
-0.06142353 0.03337748 -0.037201688 -0.01696068 -0.045898568 -0.020195726 -0.012217315 0.030714775
0.002140737 0.007004892 -0.0118639115 -0.014679957 0.009040595 -0.0018414535 0.010533175 0.057746
0.053079125 0.04018249 -0.0035567349 0.0031505756 0.012694628 0.006814888 -0.016637178 -0.0003523742
0.08684524 -0.0044924603 0.052865297 0.02483236 -0.043608136 0.01291712 0.024738627 0.0019407627
-0.021652054 0.021808157 -0.017021768 -0.036980283 -0.030445196 -0.030290468 0.010970032 0.014537644
-0.028446274 0.032462817 -0.022339184 -0.054670643 0.010786216 0.012174432 -0.0049976963 -0.037788752
-0.035895485 -0.067761704 -0.08248687 -0.037739094
00000000: 620e e73c 9580 a7bc 885b d13c 11d1 82bc
00000010: c9c5 a73c 5106 0cbd 0ec2 c03c 3b61 8cbc
00000020: 5c50 93bc 3866 1ebd 14ec 18bd 0183 79bd
00000030: a570 8f3c c6b3 0c3c 81f1 9039 5489 b43c
00000040: 279a f13b 42d3 39bc 7b11 2d3a 5368 84bc
00000050: 60b1 94bc 0d07 3cbc 1a99 19bc c897 623d
00000060: e696 223d 5fa3 c83b 4df4 2fbc 4963 33bd
00000070: b757 f7bb 51e9 763d 86ff e73c 1b3a b2bc
00000080: 63cb f0bc 945e ee3c d2b7 a83b 9b2c 1cbc
00000090: de53 1cbd 61ec ba3c f8b0 14bd 8d22 ff3b
000000a0: 45a7 eabc 0d05 72bd 2389 90bd 9522 a8bd
000000b0: 5570 373d 9906 0b3d 5ee6 92bb c022 cabc
000000c0: 038c db3c ba2b a1bc 5618 d0bb b67a c83b
000000d0: 220e 7a3c 7a2c 99bc e374 f3bb 8d3b b93c
000000e0: 0a5f 3abb 2640 87bd da13 c9bc e46a 433d
000000f0: 929c c43b 30f8 053d 5e9f 463b aca2 873c
00000100: f030 50ba 7004 65bd d192 fa3c de9c 8dbb
00000110: 6750 08bc 823e b53b 0797 a9bd dc7a ddbc
00000120: 103f f0bb 1c8c 64bd 2812 5bbd 84b9 8cbc
00000130: 59d9 b0bd c9b9 6dbd f781 193d e0d5 62bc
00000140: 8272 8cbb d27a b53c 496c 94bc c64e 54bc
00000150: caf6 e9bc bee2 28bd 8737 79bd 70cf 293d
00000160: 58fd 103c 6357 66bd dc30 363d c3f4 b9bb
00000170: 59de 4cbd 4bd3 2bbd ca9b 65bc 37f8 3a3c
00000180: 205f 49bb a4d0 98bc 2d40 48bc 99bf 1dbd
00000190: 1b6c d83c 295f ba3c 8d3d 50bc 25a5 7cbc
000001a0: aa00 2a3d 6663 85bc ff2f b13a 5d65 e93c
000001b0: 1ad6 4ebd 2a84 f5bc c7b8 4fbc 7fe9 f93c
000001c0: 147c 4b3d e874 13bc 6f53 16bc 641c 5b3c
000001d0: f0f8 21bd a1f6 57bd f76d 4dbd 1e93 ac3c
000001e0: 76ee ba3c 9891 0bbd e96b 023d 963e f33c
000001f0: 0040 0bbd 86e0 50bc 58c8 81bc 4cf3 6d3c
00000200: 61d1 f8bc 7499 5abb eef6 f4bc 95dd 9a3c
00000210: e293 abbc 33a5 2cbb f012 41bc 9ba4 a2bc
00000220: 9e9f bdbc fbcf 48bd a892 1c3d 1cd0 e63c
00000230: 873e 09bd 6b45 c93b 91c7 86bd 56fb 413c
00000240: 5bdd 2b3c 5748 d93c 16a4 ebbc b048 1bbd
00000250: 0d5f 47bd 46b8 ccbb 9dec 74bd 80eb 08bd
00000260: 5a94 a83b bd2d 3ebb 9975 8f3d d448 c5bc
00000270: b81f 9ebc e832 523d 86e6 1bbb a188 c9bc
00000280: 2869 d53c 07cf 323d 6a38 8ebc ed90 743c
00000290: 65bb 77bc 0b3b 66bc cdcc 11bc b1d6 45bc
000002a0: 3d97 7bbd d3b6 083d cc60 18bd 20f1 8abc
000002b0: 2300 3cbd 8271 a5bc 222b 48bc 8d9d fb3c
000002c0: 9b4b 0c3b 4b89 e53b da60 42bc 3484 70bc
000002d0: 011f 143c ed5c f1ba 5793 2c3c 1287 6c3d
000002e0: 7f69 593d 6596 243d 1c18 69bb e379 4e3b
000002f0: 21fd 4f3c 6d4f df3b b14a 88bc ddbe b8b9
00000300: ebdb b13d 7d35 93bb 4889 583d 3c6d cb3c
00000310: 729e 32bd 54a2 533c a9a8 ca3c 3161 fe3a
00000320: a65f b1bc 05a7 b23c 3c71 8bbc a378 17bd
00000330: 3468 f9bc b723 f8bc a6bb 333c 4c2f 6e3c
00000340: 2908 e9bc bbf7 043d aa00 b7bc 53ee 5fbd
00000350: abb8 303c 4577 473c b7c3 a3bb 61c8 1abd
00000360: 2507 13bd a6c6 8abd e0ee a8bd 4f94 1abd

fc.3.weight f4 [220, 440]
-0.032512087 -0.010920996 0.0015971968 0.044340715 -0.058329303 -0.10085093 0.056441974 -0.004156311
-0.053336814 0.09011154 -0.021037998 0.011161631 0.042368088 -0.067845576 -0.062815495 -0.050692387
0.10227931 -0.040069114 0.034148254 0.014220639 0.04408811 -0.068635486 0.08634358 -0.029548185
-0.061063215 -0.027119715 0.022961495 0.047462393 -0.075017616 -0.06530709 -0.054940708 -0.022386862
0.015719527 0.028716492 0.037223876 -0.03017732 -0.011247704 -0.08659515 -0.13311557 -0.0046173153
-0.039741594 0.038095728 0.0040682633 -0.04849648 0.043318577 0.05162168 0.01299299 -0.026722996
0.04918209 -0.016960416 -0.03196555 -0.05477548 -0.013682452 0.05345654 0.0055588265 0.10523565
-0.04391221 0.08405168 -0.033235364 -0.054206543 -0.07121199 -0.09225061 0.024232073 -0.039107338
-0.076370396 -0.020245776 -0.070238926 0.052483223 -0.08580431 -0.038338695 0.101365544 -0.04589169
-0.072284065 0.018412326 0.0690371 0.02806574 -0.010921312 0.05399926 0.06498549 -0.0076790135
-0.029201424 -0.06888958 0.014258416 -0.07528069 -0.06969528 0.03580823 -0.06631293 -0.037624724
0.024109947 -0.04404716 -0.04099512 0.046981536 -0.066404335 -0.026173592 0.046371747 -0.046302147
-0.10805129 0.05077704 -0.06363554 0.021873467 -0.042567797 0.011716695 -0.07700099 0.0017725053
-0.06756054 0.007074602 -0.073800124 0.0145315295 0.06507956 0.022206541 -0.009757213 -0.022814598
0.0775653 0.058174677 -0.027585702 0.06787261 -0.11883029 -0.0024968958 0.02229798 0.038699508
-0.099495776 -0.06170258 -0.018511087 0.026705928 -0.029642604 0.005247098 -0.04381034 -0.05642619
-0.0071407775 0.05123273 -0.042748515 -0.032020923 0.012639212 0.005921563 0.060486767 -0.023205977
-0.06709754 0.0031987547 -0.024084888 0.057075843 0.02880974 -0.09035013 -0.067239895 -0.11699954
0.029868254 -0.0052915663 0.042883974 0.058825377 -0.00048558126 0.024197364 0.07994305 -0.075294256
0.057612028 -0.057817347 -0.007490068 -0.04377479 0.061114702 0.075571716 -0.07478217 0.010903377
0.011972607 0.008891813 -0.06055624 -0.0979846 -0.06320306 -0.08549919 -0.022154588 -0.024297573
-0.052218206 0.044281255 0.01877859 0.033308428 -0.04646619 0.006982294 0.051769447 -0.04347885
-0.0050192005 0.048935976 -0.018033786 -0.08427592 -0.0009932694 -0.101555236 0.049129095 0.032883972
-0.04468218 0.052116185 0.07329267 -0.081500076 0.07283674 -0.044656314 0.06563307 0.0017912284
-0.031210057 0.06197821 -0.06514253 -0.02734372 -0.023876196 0.009692109 -0.030894 0.03932894
-0.063288614 -0.010995403 0.044201292 0.02492025 -0.033451613 -0.08074684 0.00016789908 0.050454862
0.060744714 -0.058330834 0.014225881 -0.0031606164 0.015215114 0.07343801 0.02348645 0.06318483
0.092191994 0.018057212 -0.035464555 -0.07993514 0.025621438 -0.046393245 -0.010204253 -0.01229838
-0.057183836 -0.077315316 -0.060888425 0.0055483226 0.061822977 -0.0031486868 -0.08448452 -0.05319786
-0.0015736904 0.002351838 -0.046437863 -0.084076636 -0.049964502 -0.05729968 -0.018485155 -0.05059724
-0.06111986 0.11168853 -0.051296894 -0.03957247 -0.038681272 -0.049468786 0.017159563 0.04980205
-0.09464034 0.040030785 -0.02050696 0.07241273 0.024749601 0.0064448453 -0.043594625 0.105112635
00000000: 652b 05bd faed 32bc 0859 d13a 9c9e 353d
00000010: b5ea 6ebd ef8a cebd b32f 673d aa31 88bb
00000020: b477 5abd 668c b83d e157 acbc 46df 363c
00000030: 298a 2d3d 9ff2 8abd 69a5 80bd d2a2 4fbd
00000040: d177 d13d 831f 24bd 0adf 0b3d affd 683c
00000050: bc95 343d c390 8cbd e7d4 b03d 090f f2bc
00000060: 6c1d 7abd 2a2a debc bf19 bc3c ed67 423d
00000070: d6a2 99bd b9bf 85bd 8209 61bd a764 b7bc
00000080: 3dc6 803c d93e eb3c 1078 183d 6d36 f7bc
00000090: 4a48 38bc cc58 b1bd 734f 08be d94c 97bb
000000a0: 15c8 22bd 440a 1c3d 114f 853b 3fa4 46bd
000000b0: d26e 313d 4171 533d 8de0 543c 2fea dabc
000000c0: 2973 493d 92f0 8abc 4fee 02bd 415c 60bd
000000d0: 5d2c 60bc 3ff5 5a3d d126 b63b ca85 d73d
000000e0: 4add 33bd 4a23 ac3d ce21 08bd ae07 5ebd
000000f0: 98d7 91bd e3ed bcbd 5782 c63c 042f 20bd
00000100: 1568 9cbd 78da a5bc 6dd9 8fbd a6f8 563d
00000110: 2cba afbd 0909 1dbd bd98 cf3d edf8 3bbd
00000120: ab09 94bd 72d5 963c 5363 8d3d 1fea e53c
00000130: 4def 32bc 542e 5d3d 1d17 853d 3ca0 fbbb
00000140: d337 efbc fb15 8dbd 229c 693c c32c 9abd
00000150: 66bc 8ebd a7ab 123d 13cf 87bd 621c 1abd
00000160: 3982 c53c cb6a 34bd 80ea 27bd b66f 403d
00000170: fffe 87bd 006a d6bc 4df0 3d3d 52a7 3dbd
00000180: ff49 ddbd 96fb 4f3d 5a53 82bd fc2f b33c
00000190: 925b 2ebd 61f7 3f3c b2b2 9dbd 6953 e83a
000001a0: 2e5d 8abd 10d2 e73b 8524 97bd a715 6e3c
000001b0: 6f48 853d 7eea b53c b8dc 1fbc aee5 babc
000001c0: 8eda 9e3d 9248 6e3d 69fb e1bc cc00 8b3d
000001d0: 4c5d f3bd f6a2 23bb 41aa b63c 6083 1e3d
000001e0: 71c4 cbbd d8bb 7cbd 90a4 97bc 64c6 da3c
000001f0: 0cd5 f2bc d9ef ab3b 7972 33bd 261f 67bd
00000200: 2ffd e9bb 69d9 513d 1119 2fbd 5f28 03bd
00000210: b314 4f3c ac09 c23b f9c0 773d 761a bebc
00000220: 6f6a 89bd 33a2 513b ac4d c5bc 5cc8 693d
00000230: 6702 ec3c 7d09 b9bd 12b5 89bd 749d efbd
00000240: 45ae f43c e064 adbb 1ba7 2f3d e1f2 703d
00000250: 9d95 feb9 8d39 c63c 2fb9 a33d e033 9abd
00000260: 97fa 6b3d e2d1 6cbd 3f6f f5bb 324d 33bd
00000270: 6953 7a3d 58c5 9a3d 6527 99bd 14a4 323c
00000280: c128 443c f8ae 113c d209 78bd 26ac c8bd
00000290: 9b70 81bd 331a afbd 8a7d b5bc b40b c7bc
000002a0: c2e2 55bd 4360 353d 8fd5 993c 6b6e 083d
000002b0: 5553 3ebd bacb e43b 330c 543d e116 32bd
000002c0: 1b78 a4bb 1771 483d 97bb 93bc db98 acbd
000002d0: 9730 82ba 31fc cfbd 973b 493d 58b1 063d
000002e0: a904 37bd c877 553d 781a 963d 83e9 a6bd
000002f0: 6e2b 953d 8ae9 36bd a26a 863d a7c7 ea3a
00000300: 3cac ffbc dddc 7d3d 7269 85bd f0ff dfbc
00000310: 0398 c3bc a7cb 1e3c 6a15 fdbc 6217 213d
00000320: 769d 81bd 1026 34bc 6a0c 353d 8d25 cc3c
00000330: 8f04 09bd 995e a5bd 110e 3039 c2a9 4e3d
00000340: 73cf 783d 50ec 6ebd ab13 693c 5822 4fbb
00000350: d048 793c ab66 963d a866 c03c 0c67 813d
00000360: 28cf bc3d b8ec 933c 4843 11bd 09b5 a3bd
00000370: 0de4 d13c d806 3ebd bd2f 27bc 257f 49bc
00000380: 9939 6abd 7e57 9ebd 2466 79bd b4ce b53b
00000390: 173a 7d3d 335a 4ebb 3806 adbd 00e6 59bd
000003a0: 4a44 ceba 4b21 1a3b a135 3ebd 5f30 acbd
000003b0: 94a7 4cbd 12b3 6abd 2e6e 97bc 0d3f 4fbd
000003c0: d158 7abd f5bc e43d b11c 52bd be16 22bd
000003d0: 4170 1ebd c89f 4abd 3692 8c3c 3cfd 4b3d
000003e0: cbd2 c1bd 52f7 233d 36fe a7bc 204d 943d
000003f0: adbf ca3c 482f d33b 4790 32bd 4b45 d73d
