inventory/ark_material.onnx (onnx, 690410 bytes, 8 tensors)

35 f4 [8, 3, 5, 5]
00000000: 8a9f 20be 656d a3bd cedd 5cbe 7c40 7dbe
00000010: b6e0 7fbc cbd4 53be 6e2e e7bd 2dc3 89be
00000020: 1d16 2cbe 4ab9 87be 10af 9e3d 793c 09bd
00000030: 913e 52be 1bca 10bd 8efd 73bd a519 5f3e
00000040: 4e7f c1bc eb4a 78be d5a2 3fbd 7ae8 8f3c
00000050: e95e eb3d e819 3bbe e02c 813e 77c1 263c
00000060: fb1a 75be ce56 6cbb 2ba2 65be d36e 953e
00000070: 11b0 37ba 98fa 703d 6288 fbbd 902c 49bd
00000080: 8c47 f23d 66a3 52be 58e1 7c3e 852e 27bd
00000090: 4e7e 68be d65d 79be 2371 22be 18de d43e
000000a0: 6074 583e b08e bf3e f3dc 3f3d cd00 3bbd
000000b0: de5b 053e 77d4 83bd 7c0a 873d b0e8 83bd
000000c0: 5dca 2c3d 38b5 20bd c43a c0be 0589 9f3d
000000d0: 1789 113d 9400 063e 558d b8be 3a90 8dbe
000000e0: c051 a5be 0b0c 903e a4ba 593b 5623 6f3e
000000f0: c798 39bd aecf 34bc c33b 7ebd 810f c53d
00000100: 964a b6bd 32a1 0fbe 8c6a 4cbe a2e9 ccbe
00000110: d38a 9abe 2273 3abe ccd9 85be c74e 5fbd
00000120: 5280 2ebe b3e7 d53d 7899 b7bd 9c04 c8be
00000130: ca4b 07be 7750 44be cf2c b03e a9c9 50be
00000140: 40bf 7fbe 7afa 82bc 6756 f8b9 e11a 023c
00000150: c8cb edbd 2d81 a33d c6d8 49be a58d 7fbd
00000160: fce2 4dbe a7c8 52be 56b7 ccbe 66db 72be
00000170: 3bc8 85be c760 5fbe 5b92 c9bd c687 0bbd
00000180: 7c7e c8bd 9699 8fbe ab78 fabe 0c20 e0bd
00000190: 9ea6 7bbe ac4d d53e 519c 35be e6e8 703d
000001a0: e160 153e ceef eebd a35f 473e 5d06 d6bd
000001b0: 6b41 92be 1530 0e3e 4068 9a3e b49a b23e
000001c0: 2121 47be 5961 24be 9156 afbd b1c6 7a3e
000001d0: b5bd 3f3e d769 c63e 1fbe 8bbc 41b1 a5be
000001e0: 30d1 d13e d580 013d beea 93bd 569e 673e
000001f0: 8d5f 11bf 384d bd3d 96df f5bd ec13 18be
00000200: 238d abbc b5fa a8be 65e1 123e 8001 6c3d
00000210: 58a0 153e d4ec 9e3e d346 9abe eca1 acbe
00000220: b8d8 b3bd e830 57be 9c16 b63b 54b8 89be
00000230: 0016 86bd 9761 593d fcbe 553a 796b ab3d
00000240: f8f5 a7bd e562 abbe 9b2a d93d d8ed 78bd
00000250: 8975 023e 856d 803e 5b25 cf3d 430f f3be
00000260: aef2 ab3d 8b56 153e 5850 abbe 4093 fa3d
00000270: 4038 ca3e f1bc ef3e c369 9ebe c2d8 9fbe
00000280: d666 bebe feef bdbd e3d2 473f 2a22 523e
00000290: b850 4b3f e6a3 9fbd 35f4 25be b316 843c
000002a0: 689e 9abd c97d f93e 23ac eabe 9f77 b03e
000002b0: 4948 9b3e a013 903d 671b 583e d019 75be
000002c0: 571a ed3d 887e 1d3e f00e 863e 3795 6ebe
000002d0: b5ac 863c 9f33 3dbe 9882 1f3d 198a 163d
000002e0: 6072 763e 14f4 ffbe 00b9 bb3e 68de ff3d
000002f0: 8e9b 7f3c 2747 0c3f 6d12 0cbf f3c9 ddbe
00000300: b62b 063f 9a67 ca3e 5bac be3e e276 853e
00000310: 40c7 26bd faa6 383f b2d5 50be 9b72 d0bd
00000320: 292a 983e c475 af3e fd73 403d 3466 473e
00000330: c90c d23e a018 80be 3d7f ab3e 4bbf 41be
00000340: 6c19 633e 20ab bbbe a67b 8fbe ebf9 d2be
00000350: 9401 343d df68 b43e f733 a1be f96e 9dbe
00000360: f6a9 c43d 4f8c 313e 00db 7d3c da3e efbe
00000370: 5657 b13e 37cf 90be 67aa aabe b405 c4be
00000380: 95ec 84be a5e3 323e e698 2c3d 2966 353e
00000390: 7fd5 b33e 5891 943e 4367 b7be c9ff 2cbe
000003a0: 24b2 8fbd c49f 9dbd 57c0 6fbe 5cb2 c23d
000003b0: 9121 41bc e72a 363e 6f68 db3e 1990 7d3e
000003c0: 926c c53d 3f61 613e 32d0 96bd c216 9f3d
000003d0: 1ff5 be3e d6e0 1b3f 8e9c 6f3e e215 7a3e
000003e0: 7512 a7bc 2da6 fb3e 82dd fa3c 8d9d 2abe
000003f0: adf9 893d f741 d7bd 548e 553e 83ba 4fbd
-0.1568586 -0.0797985 -0.21568987 -0.2473163 -0.01561754 -0.20686643 -0.11288153 -0.2690672
-0.1680531 -0.26508552 0.07748234 -0.033504937 -0.2053168 -0.035348993 -0.05956798 0.21787126
-0.023620274 -0.24247329 -0.046786148 0.017566908 0.11492712 -0.18271601 0.2522955 0.010177962
-0.23936073 -0.0036062482 -0.22425143 0.29186115 -0.0007007132 0.058832735 -0.12281872 -0.049114764
0.11830053 -0.20570144 0.24695337 -0.04081585 -0.22704431 -0.24352202 -0.1586347 0.41575694
0.21138144 0.3741355 0.046841573 -0.04565506 0.13023326 -0.06437009 0.065937966 -0.06440866
0.042185176 -0.039235324 -0.37544835 0.07789806 0.03553113 0.13086158 -0.36045328 -0.276491
-0.32288933 0.28134188 0.0033222819 0.23353323 -0.045311715 -0.011035843 -0.062068712 0.09622098
-0.08900945 -0.14026335 -0.1996252 -0.40021998 -0.3018404 -0.18207982 -0.26142728 -0.054518487
-0.17041138 0.10444584 -0.08964819 -0.39066017 -0.13212505 -0.1917132 0.34409186 -0.20389427
-0.249753 -0.015988577 -0.0004736662 0.007940979 -0.11611134 0.07983623 -0.19711599 -0.062390942
-0.20106119 -0.20584355 -0.39983624 -0.23716506 -0.26129326 -0.21814261 -0.09842368 -0.03406503
-0.0978975 -0.28046864 -0.48920187 -0.109436125 -0.24575278 0.4166082 -0.17735411 0.05881586
0.14587738 -0.11666833 0.19470076 -0.104504324 -0.28565535 0.1388553 0.3015766 0.34883654
-0.19446231 -0.1605276 -0.08561433 0.24489857 0.18724711 0.38752624 -0.01705843 -0.32361796
0.4097991 0.031617004 -0.07222508 0.22618994 -0.56786424 0.09243244 -0.12005536 -0.1485135
-0.020941323 -0.33003774 0.14343794 0.057618618 0.14611948 0.3104006 -0.3013216 -0.33717287
-0.0878157 -0.2101475 0.0055568945 -0.26898444 -0.06547165 0.053071585 0.0008153764 0.08370108
-0.08201212 -0.33473888 0.106038295 -0.0607737 0.12740149 0.25083557 0.10114547 -0.4747258
0.08395897 0.14583795 -0.33459735 0.12235117 0.3949604 0.46823838 -0.30940065 -0.3122006
-0.37187833 -0.092742905 0.7805616 0.20520845 0.7942004 -0.07794933 -0.16206439 0.016124105
-0.07549745 0.4872878 -0.45834455 0.34466264 0.30328587 0.07034993 0.21104203 -0.23935628
0.115772896 0.15380299 0.2618327 -0.23299108 0.016439775 -0.18476723 0.038942903 0.036752794
0.24067068 -0.49990904 0.3666458 0.124935925 0.015601052 0.5479607 -0.54715616 -0.43318138
0.5241045 0.39532167 0.37240872 0.26067263 -0.040717363 0.72129786 -0.20394018 -0.10178109
0.29719666 0.34269536 0.046985615 0.19472581 0.4102538 -0.25018787 0.33495513 -0.18920629
0.22177666 -0.36653996 -0.28024024 -0.41206297 0.043946818 0.3523626 -0.3148496 -0.30748728
0.0960273 0.1733868 0.015494108 -0.4672764 0.34636945 -0.28283092 -0.33333132 -0.382856
-0.25961748 0.17469652 0.042138003 0.17714752 0.35123822 0.29017138 -0.3582097 -0.1689445
-0.070163995 -0.076964885 -0.23413216 0.095066756 -0.011787788 0.17789803 0.42853114 0.24762
0.09639849 0.22009753 -0.07363929 0.077680126 0.37296388 0.6088995 0.23399565 0.2442241
-0.020394543 0.4915022 0.030623201 -0.16661663 0.06737075 -0.10510629 0.20855075 -0.05071498

36 f4 [8]
00000000: 6f62 de3f b087 e83f 9f12 8dbf 18b5 bdbf
00000010: f685 1a3d d33c 8a3f 3b40 8cbf cf72 e23f
1.737379 1.8166409 -1.1021308 -1.482089 0.03772541 1.0799812 -1.0957102 1.7691287

38 f4 [16, 8, 3, 3]
00000000: 8046 073f 1d89 eabe 6b62 b6bd 62f3 353d
00000010: 9f03 17bf d335 b73e 3a47 4f3e 2206 37bf
00000020: 0164 8dbe 106c a83e 2b22 d6be 98c1 6c3d
00000030: a136 99bf cfef cbbe 1eec d8be 9721 58bf
00000040: e6ab b33f 2ddd 77bd 4c29 3abf 8d94 d03d
00000050: 45ac 833e bd7f 28be f571 8abe e4e3 a1be
00000060: d795 7e3f 07cc b0bf fbee c1be fb28 103f
00000070: ac98 45bf a8e2 02bf b6ed 723f e749 bbbd
00000080: 76d1 953e 36e1 d8be 2753 333e 0ecd 0d3f
00000090: 8723 ea3e 1174 62bf 378d c33e 4487 99bd
000000a0: 9148 aabf b6e5 6b3f 9200 0cbf 1c37 603d
000000b0: 270b 5d3e bfff dbbe 509e 5e3f 00b5 c8be
000000c0: 7dfc 4c3e 5411 333f 5523 cb3e 4944 293e
000000d0: 2ec9 9c3e b857 483f 3794 e83c 3d37 99bd
000000e0: dd0c bcbe 6ab3 07bf 20e1 b83e caa0 b33e
000000f0: 62d9 93bd 4c2e b33f 2b49 8e3f e925 053e
00000100: 9dfc 443f f53a 4b3f 2003 583f 089e 4dbd
00000110: 8033 08bf 5e3c 3d3e 7ad1 5fbf d7e9 50bd
00000120: ca64 1f3f 84ba 0dbf 4018 9f3d 1e87 823f
00000130: e048 5d3f 09f0 5e3e f55b a6bf 3062 3a3e
00000140: 2ce4 8a3e 4184 05bf 501d 7bbf 927a 8dbf
00000150: fe6a e7bd a484 2fbf a595 a93e e901 9d3e
00000160: fa32 003e 9167 8ebd 5bf2 c13e e791 823f
00000170: da6c 473c bb97 e23d 5be8 233f cb07 11be
00000180: e944 7cbe 6456 c8bf ff99 143f e649 2abf
00000190: c2cd 5c3f eafc 9ebf 9b91 9fbe 4841 5c3f
000001a0: df4b 82bf 7596 aebe ce4d bfbe 1fe7 a23e
000001b0: f265 1bbf 9217 87bf 4660 21bf 190c 8c3f
000001c0: 5780 28bf 9498 48bf ca95 89be e714 02bf
000001d0: d1a8 59bf f6a4 c83e 5430 c53f db9c b73d
000001e0: d715 68be 080e 3d3f 172d 22bf aaa5 c33d
000001f0: a80b d0bf 2e2d 0cbe 9fe9 e63e 16b8 aa3f
00000200: 60f9 1e3e 14b9 babe 8037 a43f e5d3 4c3e
00000210: abd2 87bf a62b 89bf 0409 edbe 0e67 903d
00000220: 0f8e 7a3f e89e 073f f0b8 b33f 7f82 ad3a
00000230: ea5b 0bbf 09d6 d73d 74db e3bf 6384 0cbf
00000240: 0b8f 353e 2aa7 383e 14e5 253f 2d23 193f
00000250: 9da5 35bf af10 633f 1c9a 283f 3cd3 53be
00000260: 4668 26be 86c1 7bbf d511 2abe c613 6fbe
00000270: 061e 283f 5933 013f f821 a03f 3aed 43bf
00000280: 989e 74bf 0fa5 c0be 1bd7 353f c744 47bf
00000290: f8bc 86be b5a1 683e a078 133e b490 123f
000002a0: 03f0 a93e b518 8d3f e897 50bf 3923 cabe
000002b0: f238 28bf 2814 8d3f 0e9c 613f d168 a73d
000002c0: 1479 32bf a864 77bf 47ab 073f 4d06 103e
000002d0: c0dd 88be 6c6b a0be 4e75 98be f0a9 ed3e
000002e0: d57c 593d d14d 88bf 66be 2fbe b41f 6a3f
000002f0: 01d7 4d3f a35a db3e 0f38 423f f928 083f
00000300: 1fe7 8abf f5fe 053f 19dc 87bc af74 0fbf
00000310: c1c9 9f3f 9df8 153f beed 44bd f7fc 053f
00000320: 0331 09be 437b c9be 27b5 b3bd a0d7 22bf
00000330: 3fbd 39be 08c6 e23e 3c41 913e e84a 2abf
00000340: ebce 26bf 43ed 753f bb88 0bbe de34 b8bf
00000350: a871 29bf 4786 153f 74c9 cb3f f3e9 143f
00000360: 1faa a93e 1316 9abf a62d 92bf d6fa 1ebf
00000370: 7101 80bf 9a1c bf3e fbf4 2a3f 6d5f 09bd
00000380: 437a 0c3f dee1 85be 78ff 8d3f 396c ef3e
00000390: db41 21be 68d4 88bf b9e6 81bf 52d1 433c
000003a0: e588 68bf f62b 1f3f 1c42 3cbf 7b4e 743f
000003b0: f407 37be 1191 fe3d cece 31bf e2e3 42be
000003c0: 5ace e2bd 930b babf 614f b3bd d436 923f
000003d0: 5d71 1cbf 3d64 303f 9c83 80be 3668 38bf
000003e0: c4cc 05bf ddb8 2d3f 3bc2 343e 7c37 4f3f
000003f0: 0125 0bc0 b5ba 07bf c798 943e c0f6 eabe
0.5284195 -0.45807734 -0.089054905 0.04442156 -0.589899 0.35783252 0.20242015 -0.7149373
-0.2761536 0.32894945 -0.41822943 0.057801813 -1.1969796 -0.39831397 -0.42367643 -0.84426254
1.4036834 -0.060513664 -0.72719264 0.10184584 0.2571737 -0.16454978 -0.27040067 -0.3161918
0.9944739 -1.3812264 -0.3787764 0.5631253 -0.77186084 -0.511271 0.9489397 -0.09144955
0.2926137 -0.42359322 0.17512189 0.55391014 0.4573023 -0.88458353 0.38193676 -0.07496503
-1.3303396 0.92147386 -0.5468837 0.054740056 0.21586286 -0.42968556 0.86960316 -0.39200592
0.20018192 0.69948316 0.39675394 0.16529955 0.30622238 0.7825885 0.028390987 -0.07481239
-0.36728564 -0.5300814 0.36109257 0.3508361 -0.07219197 1.3998504 1.1116079 0.13002743
0.7694796 0.79386836 0.8437977 -0.05019954 -0.5320358 0.1848006 -0.8742901 -0.051004257
0.62263167 -0.55362725 0.07768297 1.0197484 0.86439323 0.21771254 -1.2996813 0.18201518
0.27127206 -0.5215493 -0.980916 -1.105303 -0.11299704 -0.6856177 0.33121982 0.3066552
0.12519446 -0.069533475 0.37880215 1.0200776 0.012171948 0.110640965 0.6402642 -0.14163129
-0.24635662 -1.5651364 0.5804748 -0.6651901 0.8625146 -1.2420933 -0.31165776 0.8603711
-1.0179404 -0.34099165 -0.37364048 0.31816956 -0.6070243 -1.0554068 -0.63037527 1.0941192
-0.6582083 -0.78357816 -0.26872092 -0.50813144 -0.8502322 0.39188355 1.5405374 0.08965465
-0.22664581 0.73849535 -0.6335005 0.09553082 -1.6253557 -0.1368911 0.45100114 1.3337429
0.15524817 -0.36469328 1.2829437 0.20002706 -1.0611166 -1.0716445 -0.4629594 0.07050906
0.97873014 0.52976847 1.4040813 0.0013237743 -0.54437125 0.10538871 -1.7801347 -0.54889506
0.17730348 0.18032518 0.6480267 0.598193 -0.7095583 0.8869733 0.6586015 -0.20686048
-0.16250715 -0.9834217 -0.16608365 -0.23347387 0.6567081 0.50468975 1.2510366 -0.76533854
-0.95554495 -0.3762593 0.7103135 -0.7783932 -0.26316047 0.22717936 0.14401484 0.5725205
0.33190927 1.1023165 -0.8148179 -0.39479998 -0.6571189 1.1021776 0.88128746 0.08174289
-0.69716 -0.96637964 0.52995723 0.14064904 -0.26731682 -0.31331956 -0.29776996 0.46418715
0.053097565 -1.0648748 -0.17162475 0.91454625 0.80406195 0.42842588 0.7586679 0.5318752
-1.0851783 0.5234216 -0.016584443 -0.5603742 1.2483445 0.5858248 -0.04807829 0.5233912
-0.13397603 -0.39351854 -0.087747864 -0.6361027 -0.18138598 0.4429171 0.28370082 -0.6652055
-0.6515948 0.9606516 -0.13626377 -1.4391134 -0.6618905 0.58408016 1.5920854 0.5816948
0.33137605 -1.2037987 -1.1420181 -0.62101495 -1.000044 0.3732651 0.6678006 -0.03353827
0.54874057 -0.26148885 1.1093588 0.46762255 -0.15747778 -1.0689821 -1.0148536 0.011951761
-0.90833884 0.62176454 -0.73538375 0.9543225 -0.17874128 0.12430013 -0.69456184 -0.19032243
-0.11074515 -1.4534782 -0.08755375 1.1422982 -0.6111048 0.6890295 -0.2510041 -0.72034013
-0.5226557 0.67860204 0.17652218 0.8094404 -2.1741335 -0.5301927 0.2902281 -0.4589138

39 f4 [16]
00000000: 1ac2 18be b996 1a40 d15b d5bf 8e20 b43f
00000010: 9083 c7bc 56bb dfbf a8e7 83be 8f25 4f3e
00000020: 668c 6a3f c7ae c73f b9ed 8abf b14f 9c40
00000030: ed12 22c0 92e2 1240 006c 28bf 15e8 3e40
-0.14917794 2.4154494 -1.6668645 1.4072435 -0.024354726 -1.7479045 -0.25762677 0.20229171
0.9162048 1.5600213 -1.0853797 4.884728 -2.5324051 2.2950788 -0.65789795 2.9829152

fc.0.bias f4 [514]
00000000: 1b6a d43d 7704 b4bd c96f 8a3d 565e 9b3d
00000010: 88e7 683d f707 283e d7a9 683d de16 b9bd
00000020: 2bf6 59bd 8fe6 2dbc 5bb9 e2bc ae92 3a3c
00000030: 51c6 983d 8830 1abd 86e5 df3d cd09 1b3d
00000040: 4833 92bd 863a ac3d da51 9e3d 1e25 823d
00000050: d555 d83d 3339 0d3d 0ec0 40bd 0db3 193b
00000060: 6966 43bd bdb4 5e3d 0a9c f4bc 97f9 e33d
00000070: a25c ee3c b7df 7ebc ac79 dc3d a50e ccbb
00000080: 151f e23d 127d c53d cad2 04bd 4728 32bd
00000090: 1db3 7e3c 5274 b33d 4582 9c3c dfc4 7abc
000000a0: 4d57 d33b 1737 cc3b d51a 72bd c899 143e
000000b0: f63b 0abc 88a2 0d3d 8646 8c3d be92 983c
000000c0: a799 b33d dd7d be3d a67e 8a3d b5b7 9dbd
000000d0: 72b7 cb3d 093c 353c b005 fe3d e6da be3d
000000e0: 43c1 c23d ccaa adbb 2fcf 333d a137 dd3c
000000f0: 20d7 85bd 8a8f 1bbb aa94 85bd 010a 813d
00000100: 6cd3 f7bc c6e0 983d 7b81 7d3d c848 6f3d
00000110: 2e5b 983c a8e6 2f3c ca4e f13c de95 d03c
00000120: 7cb2 c6bb 3835 aa3d 5cde 913c 22b4 3b3a
00000130: 05a8 913d 88dc 98bd fdf7 9f3d c35b f83d
00000140: 5bce c83d 37e9 023d b0f5 2dbd 1c0a f6bc
00000150: f911 a6bd 80fd 733d 3dd7 f3bc b606 f73d
00000160: f9dd 833c b3a7 153b 24bb f43d c434 bfbd
00000170: b71f 473b 1641 993d d63c 813d 3fc5 e73c
00000180: 5478 983d a37d 973d 5920 a43d 9894 983d
00000190: 1a9d 783d e3dd 3abd b938 373c d218 89bd
000001a0: dbfd 233a f26a b23d 4613 503b 35b6 c93d
000001b0: 5d15 df3d a692 8bbd 557f 5bbc 0704 b43c
000001c0: de3b 1a3d ba59 393d 5563 b83d 9fe8 20bd
000001d0: f1c8 5e3d 8a7c 003d 1e28 813c 4b11 7f3c
000001e0: 827b 90bd b477 383d c634 f5bb ce89 24bd
000001f0: f260 aa3c 215a a53c 5b2b e53d 9639 223d
00000200: e649 3d3c 5ef0 fe3d e7b5 3a3d a9e9 b0bc
00000210: 3aea f73d a9c0 e03c 6115 aa3d 27eb 033d
00000220: 8bbd 0e3d 745e ee3c 520c 2c3d 6074 33bd
00000230: 8ce0 0c3d c923 a33d 49e0 863d e4f3 90bd
00000240: 9f4f da3c 1adf fabc c910 36bd 1568 7f3d
00000250: 00ff 38bd ab1f 78bd 346c a53d ee3b 29bd
00000260: e11f 403d e1e1 193e 8300 89bd fd43 27bb
00000270: 11ee 0dbc e2d5 043d 9c6f ba3d a787 0d3d
00000280: 1a8a 3fbd 93d3 a03c c2fd 943d 244a 983b
00000290: 7ad8 11ba 19cb 97bd 9d51 f7bc a306 98bc
000002a0: e141 853d b7a7 5e3d 14e6 a23c 0d6d 063e
000002b0: 93c9 dd3c f42e 473d 7078 a13d 2c06 efbc
000002c0: 1eaa 02bd 43fd 8dbd 0eae 15bd c667 fb3d
000002d0: 94f6 d73c ddf4 513d 34e9 1cbd 4cd4 e73d
000002e0: 4ea3 a6bb c521 a13b 8ab8 b5ba c137 b2bc
000002f0: e86f d7bc 3df6 993d bed4 b13d 6f6b 773d
00000300: 288c 9e3c 656e 8e3d 45c9 22bd d53a b63c
00000310: 00e0 1abd 4f03 efbc 8887 d43d b42c 483c
00000320: 6a9e 4d3d 904b 443d a094 093e 2678 ba3d
00000330: 27a0 5a3b ff73 8a3d f1fc efbc 37f0 34bd
00000340: dba7 cd3d 6ae9 2c3d b7fb 0b3e 1e29 523d
00000350: 86ca f03d 23c3 2e3d d269 2e3a e20c 32bd
00000360: e570 8bbc 53d0 453c dfac 353d a8a7 113e
00000370: 5366 943d eaa9 9fbb c3ab 3a3d 8615 433d
00000380: a12a 3abc ba39 263d 92c2 f0bc 2cfd ad3d
00000390: d929 40bc 5d07 c4bb 5ca1 d13d 910f 41bd
000003a0: 95bf 233d 3675 b43c d9e1 853c 1bfd 2fbd
000003b0: 1897 c03c e174 403b 2a81 3fbc a9d6 d33d
000003c0: 069d a53d 3f09 e23d 6af6 8fbd 738d b93d
000003d0: f63e 11bd 5771 1e3d 656e 19bd 249a 593d
000003e0: cdfd 463c 4458 9dbb 2a72 0f3c a6f6 dbbc
000003f0: 327b f4bb 50bf 093d 262e d7bc 8b36 e83d
0.103718005 -0.08789914 0.067596026 0.075863525 0.05686143 0.16409288 0.056802597 -0.09037565
-0.05321328 -0.0106140515 -0.027676275 0.01138751 0.07459701 -0.03764394 0.1093245 0.037851144
-0.07138687 0.084096 0.07730456 0.06354736 0.10563246 0.034478378 -0.047058158 0.002345267
-0.047705088 0.054371584 -0.029859561 0.1113159 0.029096905 -0.015556267 0.107653946 -0.0062273317
0.11041085 0.09642996 -0.032427587 -0.043495443 0.015545634 0.08762421 0.019105086 -0.015305727
0.006449616 0.006232153 -0.05910762 0.14511788 -0.008437147 0.03457883 0.06849389 0.01862466
0.08769541 0.0930135 0.067624375 -0.07701055 0.09947099 0.011061677 0.124034286 0.09319095
0.09509518 -0.0052999016 0.043898758 0.027004065 -0.065351725 -0.002373668 -0.06522496 0.06300736
-0.030252181 0.07464747 0.06189106 0.05841902 0.018598165 0.010736145 0.029456515 0.025462087
-0.0060637575 0.08310932 0.017806225 0.0007160326 0.07112125 -0.07463938 0.07810972 0.12126877
0.09804984 0.031960692 -0.042470634 -0.030034117 -0.08108897 0.05956793 -0.02976572 0.12061827
0.016097056 0.0022835552 0.11949757 -0.09336236 0.0030383894 0.07483117 0.06310432 0.028292296
0.07444826 0.0739701 0.08013982 0.07450217 0.0606967 -0.045621764 0.011182957 -0.06694187
0.0006255784 0.087118044 0.003174977 0.09849206 0.108927466 -0.0681508 -0.013397058 0.021974577
0.03765475 0.045251586 0.09003321 -0.039284345 0.05439085 0.03136877 0.0157662 0.015568088
-0.07054807 0.045036033 -0.0074830977 -0.040170483 0.02079818 0.020184578 0.1118991 0.0396057
0.011553263 0.1244819 0.04558363 -0.021595793 0.12105222 0.027435618 0.08304859 0.03220668
0.03484873 0.029097773 0.042003937 -0.043812156 0.034393832 0.0796581 0.06585748 -0.070777684
0.026649294 -0.030623961 -0.0444496 0.06235512 -0.045165062 -0.060577076 0.08077279 -0.04131692
0.046905402 0.15027572 -0.06689551 -0.0025522702 -0.0086627165 0.032430537 0.09103319 0.034553196
-0.046762563 0.019632136 0.07274963 0.00464751 -0.00055635686 -0.07411785 -0.030190283 -0.018557852
0.06506706 0.054359164 0.0198851 0.13127537 0.027073657 0.048628762 0.078843 -0.029177748
-0.031900518 -0.069330715 -0.036542945 0.122756526 0.026362695 0.05125891 -0.038308337 0.11319789
-0.0050853854 0.0049173557 -0.0013864201 -0.021755101 -0.026298478 0.07517669 0.086831555 0.06040519
0.019353941 0.0695465 -0.039742727 0.02224485 -0.03781128 -0.029176382 0.10377413 0.012217689
0.050199904 0.047923625 0.13435602 0.09104948 0.0033359618 0.06760406 -0.029295417 -0.0441744
0.100417815 0.04221479 0.1367024 0.051308744 0.11757378 0.042666566 0.00066533417 -0.043469317
-0.017021606 0.012073594 0.044354316 0.14224112 0.07246079 -0.0048725503 0.04557396 0.04762795
-0.011362703 0.040582396 -0.029389653 0.08495554 -0.011728727 -0.005982323 0.10235855 -0.047133986
0.03997763 0.022028547 0.016343044 -0.04296599 0.023509547 0.002936654 -0.01168851 0.103436776
0.080865905 0.1103692 -0.07029422 0.090601824 -0.035460435 0.038682308 -0.037458796 0.053125516
0.012145472 -0.004801782 0.008755246 -0.02685101 -0.007460975 0.033629715 -0.026267122 0.11338528

fc.0.weight f4 [514, 64]
00000000: 3418 df3c 0016 3ebd d1de bebd 12ab 4bbc
00000010: b556 cfbc f9fb 163d c9b2 343a dd69 cb3d
00000020: be3c e03d 71b4 363e 2d61 703d a6a3 a83c
00000030: ed72 8e3d d85b 0c3e 7e2d e3bc f6f7 a33d
00000040: 7631 2a3d aa0f 23bc d614 77bd da8b 46be
00000050: 684b c63d bbe1 83bd 0726 463e d4e2 b9bd
00000060: 836e 613d 1600 813c 3cfd 27ba a094 bf3c
00000070: 7b44 0c3d b6c7 ad3d 8e2f a03d 4538 b5bd
00000080: a6f1 033e 58b9 eabb 5511 193e d3f3 babc
00000090: 0796 19bc 348c 11bd aab4 933d c66b c33c
000000a0: 5b73 1f3e 4e74 4e3e 4709 543c 3e10 6f3d
000000b0: a2e1 bcba 97d7 e03c 2a83 9dbd b442 033d
000000c0: c537 0d3e 7fdb 523e a3d4 d5bd bddc 833d
000000d0: af29 1b3e b982 f5bd 83f2 b8bd 2834 c6bd
000000e0: 9e5f 103c 952b 063c d93f 01bd f285 5cbc
000000f0: 5a6b 7ebd 267f 04bd 3a7b 62bd 65a9 95bc
00000100: 7f03 7fbc 70bc b3bd c6d7 123d e122 92bd
00000110: 6bd1 273d bb55 76bd acd0 503d aa55 bbbc
00000120: 3c12 ad3d 0d57 e13c 8974 c03c 1718 0d3e
00000130: 7a5c a53b faca b73d bde6 0f3e 0f08 0d3e
00000140: 75b8 52ba 9442 0bbe 477e a53d fed4 12bc
00000150: 829a e03d 0714 64bc c290 d23d f520 aabd
00000160: f91c aa3d f8d2 0b3e a4cd ed3d a3d7 2e3d
00000170: 7d56 963c 21f5 513a 6df1 68bd 3e56 c03d
00000180: 611c c53c 7b09 7cbc 775c b0bc 1092 6fbd
00000190: 5b17 b53d 06d5 7b3d 3af0 a0bd 0d15 083e
000001a0: c358 28bd 7dca 02bd 8dc9 95bd c3a7 ebbc
000001b0: c738 523d f98a 9ebd bd12 0d3e 31ef 393d
000001c0: f0db 98bd 6157 82bd d1cd 0c3e f1f0 b13d
000001d0: b0d1 733d 65f4 103d 49ac a43c 6ca6 7e3d
000001e0: 5825 cbb8 afbd 933d 6332 0b3e a939 0cbd
000001f0: 01e4 01bd c972 80bd 434f 17bd 9562 403d
00000200: a3c6 01be 8caa 883d 202b e5bc 7dcf c53d
00000210: 87f2 043d 5791 083c b0e8 6d3d 7042 b9bd
00000220: caa2 763d 3e46 193e c83d 12bc 99c4 043e
00000230: 3e23 7dbd d8c0 733c 6f7d a5bd a538 2abc
00000240: 27ba 073e a395 863d 6404 ce3d a457 abbd
00000250: d853 773d 59f2 afbd dc29 b53d eaaa 9ebc
00000260: fccc 5fbd dc7f 063e eb66 42bc 1fc3 163e
00000270: 867c 013e e4c3 9fbd 20de 1b3c 41ce 003c
00000280: 1f0f e53d fc43 e23d cb92 8f3d 2d68 b13d
00000290: b08a ec3d 2889 073d 795a 70bd 68a9 f8bb
000002a0: 8cff fd3c a51c 643d 2cf3 0d3d 6ec9 c33c
000002b0: bc48 003e 71ab cebd aaa2 ff3c fac0 26bd
000002c0: a9e6 283d 43f2 263d 95e3 03be 0e7a d1bd
000002d0: 5f76 f73d c37f 9b3d 2295 363c dbd3 493d
000002e0: f2bf 6bbd ff78 55bd 6ce5 393c cc9f 0a3e
000002f0: 46f8 b0bd 6d8c cbbd d0ee 6cbd efef 1e3e
00000300: 8adf aa3c b20e a93d fcf9 74bd 3b5d 27bc
00000310: 6d7c 1c3b 3014 a5ba b21e 63bc ec22 0abe
00000320: e5ea c8bd 7855 9b3d 5704 dd3d a04a 063e
00000330: 226c f3bc 6259 0b3e f4f5 91bd 6d9a 80bd
00000340: d610 b43d 2c87 a9bd 4720 bd3d c7fd d93d
00000350: c390 75bb c035 9738 84df 063d 1c8f bf3c
00000360: 4bdb 803c be8f edbc 24ee b2bd e027 05be
00000370: 7307 8cbc 7cce ae3c ce5b f03d 4db7 a33c
00000380: 4634 6d3d 13f6 2c3d fea2 5e3d de95 1e3e
00000390: 6360 ac3d 631c 38be 2f3f 35bc 31a3 303e
000003a0: 4376 09bd c026 273e fa94 1c3d 1524 133e
000003b0: d007 de3d b0ec 283d 4e93 9c3d d4a7 c9bd
000003c0: 9182 6e3c 671c a43d 9380 eebc 0639 333d
000003d0: e8af 273b a0b8 d4bd 7ba3 56bd 94b8 9239
000003e0: 54f7 95bb 715a ba3c baeb f4bd 021f b03d
000003f0: 04dc 4d3d 786a ec3d 7f28 233d 21eb 893c
0.02723322 -0.0464077 -0.093198426 -0.012430923 -0.0253099 0.036861394 0.0006893096 0.09932301
0.10949086 0.1784227 0.058686424 0.020585846 0.06955514 0.1370691 -0.027731653 0.08006279
0.041551076 -0.009952465 -0.060322605 -0.19389287 0.09682351 -0.06439539 0.19350444 -0.09076467
0.055037033 0.015747111 -0.00064082793 0.0233863 0.034244996 0.084853575 0.0782157 -0.08848623
0.1288515 -0.007163208 0.14948018 -0.022821343 -0.009374148 -0.0355341 0.07212193 0.023855101
0.15571348 0.20161554 0.012941665 0.0583651 -0.0014410506 0.027446551 -0.07691033 0.032046035
0.13790806 0.20591544 -0.10440948 0.06438587 0.1515262 -0.11987824 -0.090306304 -0.09677917
0.008811859 0.008189102 -0.03155503 -0.013459669 -0.062114097 -0.03234782 -0.0552933 -0.01826925
-0.015564798 -0.08776176 0.03585031 -0.07135559 0.0409712 -0.060140353 0.050980255 -0.022867996
0.084507436 0.02750733 0.023493068 0.13778721 0.0050464245 0.089742616 0.14052863 0.13772605
-0.00080383505 -0.13599616 0.08080726 -0.008961914 0.1096697 -0.0139207905 0.102815166 -0.08307067
0.08306307 0.13654697 0.116114885 0.042686116 0.018351788 0.00080092443 -0.056870867 0.093914494
0.024061384 -0.01538312 -0.021528466 -0.058488905 0.08842345 0.06148245 -0.078583196 0.1328928
-0.041100275 -0.03193139 -0.073138334 -0.028766518 0.05132368 -0.07741351 0.1377668 0.045394126
-0.07463825 -0.063643225 0.13750388 0.08688534 0.059526145 0.035389323 0.020101683 0.06217043
-9.68675e-05 0.07213914 0.1359344 -0.034234677 -0.031711582 -0.062718935 -0.036940824 0.046969015
-0.1267343 0.06673154 -0.027974665 0.09658716 0.032457855 0.008335433 0.058083236 -0.09045875
0.06021384 0.14968202 -0.008925863 0.12965621 -0.061801188 0.0148775205 -0.08080565 -0.010389482
0.13254605 0.0657151 0.10059431 -0.083663255 0.060382694 -0.08591146 0.08845875 -0.019368608
-0.054638848 0.13134712 -0.011865358 0.1472287 0.12645158 -0.07801035 0.009513408 0.007861675
0.11184525 0.11048123 0.070104204 0.08662448 0.1154989 0.033089787 -0.05868003 -0.007588554
0.031005643 0.05569138 0.034655735 0.02389976 0.12527746 -0.100912936 0.031205494 -0.04071138
0.0412356 0.040758383 -0.12879784 -0.10228358 0.12083124 0.07592728 0.0111439545 0.049274307
-0.0575561 -0.052117344 0.011346202 0.1353752 -0.086411044 -0.099388935 -0.057844937 0.15521215
0.020858545 0.08254756 -0.059808716 -0.010215099 0.0023877874 -0.0012594517 -0.013862299 -0.13489884
-0.098104276 0.07584661 0.107918434 0.13114405 -0.029714648 0.13608316 -0.0712699 -0.062794544
0.08792274 -0.08277735 0.09234672 0.10644107 -0.0037470318 7.210253e-05 0.032928005 0.02338367
0.015729567 -0.028999206 -0.08736828 -0.13003492 -0.017093396 0.021338694 0.1173626 0.019984866
0.05791118 0.042226862 0.05435466 0.15486857 0.08416822 -0.17979579 -0.011062427 0.17249753
-0.03356005 0.16323376 0.038228013 0.14369233 0.10841334 0.041241348 0.07645284 -0.09846464
0.014557497 0.0801323 -0.029114043 0.043755554 0.0025587026 -0.10386777 -0.052402 0.00027984811
-0.004576603 0.022748204 -0.11959024 0.08599664 0.05025865 0.11543745 0.039833542 0.016835751

fc.3.bias f4 [257]
00000000: c77c 25bd d39a 02bd 0f4d b53c ee72 a7bc
00000010: 7d05 7e3b ab04 dabc e7d3 49bc d529 9ebc
00000020: 2316 92bc c567 42bc 8e4b 96bb af78 fbbb
00000030: 8755 483b 241e 3bbd 6a5c d2bc 0faf 13bd
00000040: 32e8 f2bc d9f8 30bd e6f0 a1bc b4a7 83bc
00000050: 52e3 e63b bc89 80bc ccc4 d0bc 09d9 d13c
00000060: 4d62 ea3c e04e 5dba ac18 e4bb 6c7c 923c
00000070: 4892 8a3b 49c2 093b 0a3a c43c 6da5 8dbc
00000080: 50ab 5fbc eb51 7abb 2451 ccbc f599 393b
00000090: 57f1 a5bc 90f0 f33c 959c 2c3c d22c 903c
000000a0: 19a2 01bd f2fd 60bd a17d dfbc 41c7 d3bc
000000b0: ff8a 273b e731 9f3c 7d48 f63b e940 89bc
000000c0: ee9f 29bc 444f 04bd 19b6 26bc d705 11bd
000000d0: f514 cd3c fc13 8eba 4bc2 493c bae9 1c3c
000000e0: 0596 e23b ab63 7c3c fbeb 033c bd37 49bc
000000f0: cdb3 52bc 9e0f 1cbd a903 d0bc ff08 033d
00000100: 994a 9fbb d095 babb a3d0 d93c 5006 10bd
00000110: e77b 4bbd 8107 a4bb cd49 8e3c 786a 95bc
00000120: 3ab0 b8bc 0ae6 50bd 00ce 9bbc 0e5a 39bd
00000130: 7a35 fdba 8292 bbbb a6c7 5a3c 89bf f93a
00000140: c682 1abd e51c 4fbb a8a8 09bd b90d 453b
00000150: 3e1d 05bc 6abc 2ebc 750c 123b 3060 aabc
00000160: c88d 9abc fd50 8dbc 107c b43b de3f e03c
00000170: a2be c5bc 1848 82bd 8099 3d3d 89b9 13bc
00000180: 3d87 febc 06f1 d2bc 990f 16bc 7da0 473c
00000190: b9d0 31bd 0b60 66bc 05f0 33bc 4e2c 913b
000001a0: 4c38 8abb 882b 65bc 43d1 10bd f15c 98bc
000001b0: 1e01 003c f5b6 97bc bd34 f639 02de b53b
000001c0: 5a7a 2fbc e338 8d3b 59a1 a6bc 0fa6 b3bc
000001d0: b81e 373b 6082 c1bc a8c1 1abd d79d 2c38
000001e0: 31c0 653b 1e5a f7bb 741a 63bd 68ae 37bc
000001f0: 972f 75bb 92bf dcbc 8872 1ebc 9ce2 8c3c
00000200: 94b0 203d 8ed0 2c3b ad93 dfbc 989e c43c
00000210: c6b7 b4bb 4197 1e3c 0e43 d9bb 3532 be3b
00000220: 86b4 cabb 3790 17bd da9e edb9 d503 c43c
00000230: b443 4abc e5c9 68bc 2d96 913b 766e 08bd
00000240: c2ad f83b 5048 3abc 57c0 3e3d 98af b83b
00000250: da84 423c 06af b8bc f29b b9bc 7750 083d
00000260: 1776 27ba 798e 40bd 1120 d73c cc32 a53c
00000270: a0be 283d d716 3d3a 1187 873b 580d 663c
00000280: 5d5d 98bb 97fc 79bb 2405 693c 76de cbbc
00000290: ce94 57bc da05 a83b 176b 263c 809a 87bc
000002a0: e963 c63b 1612 f03c 0705 25bd e9ea 133d
000002b0: b3f4 943b f6ab 00bc d343 63bd 3b34 fe3b
000002c0: 272f 713d 3cd3 d83c a32c 843c 3b8b 1e3c
000002d0: a541 1a3d d0ab bc3c 6c55 82bd 4db5 663c
000002e0: 8617 803c b64c 1cb8 2d3c fbbb 954e 4d3c
000002f0: 5906 a53c 14a7 86bc 01dc b73a 8a85 a3bb
00000300: b8b8 723c 01a0 153d 6583 063d ad0d 0bbc
00000310: 68e7 f73b 7762 9e3a 264a 823c 9cc9 7ebb
00000320: 909f 26bc 1ab0 213c 95a4 a63c 9c90 19bc
00000330: 02a7 e03c d8af 283d 4843 13bb d35d 163c
00000340: 56c5 fbbc 4b3f 35bc ab5d aabc 0549 a7bc
00000350: 18d8 ccbc bc91 e83b 34ca c53c 5cde 05bd
00000360: 7e19 56bc 002a 4cbb a770 caba a048 263d
00000370: 633d 4f3d e4d4 2dbc d248 b1bb ea1b b5bb
00000380: 79b2 8d3c 8ded 2f3c 9cd6 2c3d 6e1d b2bb
00000390: 38e0 3abd 5abb b23c 7538 df3a 9c9e 00bd
000003a0: 9df0 b63c 56e1 e23c a153 273d d7c2 d9bc
000003b0: 7b3b e2bc afb7 bbbc ba63 64ba 32b5 473c
000003c0: 9499 f2bc 7d35 163d d382 eabc bc49 20bd
000003d0: 7f78 38bc df4b 47bd 5733 cabb ebc3 71bc
000003e0: af43 5fbc 6bee 5bbc 70bb 01bb cc8e 403d
000003f0: 960c e2bc 428d 28bc 7781 06bd 6b19 fbbb
-0.0404022 -0.031885933 0.022131471 -0.020440545 0.0038760595 -0.026613554 -0.012318588 -0.019307056
-0.017832821 -0.011865561 -0.0045866435 -0.0076742987 0.0030568556 -0.04568304 -0.025678832 -0.03605562
-0.029651735 -0.04320607 -0.01976819 -0.016071178 0.0070461417 -0.015690677 -0.025484465 0.025616186
0.028611327 -0.0008442234 -0.006960949 0.017881595 0.004228864 0.0021020344 0.023953456 -0.017290795
-0.013651684 -0.00381958 -0.024941035 0.0028320525 -0.020256681 0.029777795 0.010535379 0.017599497
-0.03164873 -0.05492968 -0.027281584 -0.025851848 0.0025565026 0.019432975 0.0075159655 -0.016754584
-0.010353072 -0.032302156 -0.010175251 -0.03540596 0.025034407 -0.0010839696 0.012314389 0.009577209
0.0069148564 0.015404622 0.008051868 -0.012281355 -0.012860251 -0.03810083 -0.02539237 0.031991
-0.0048611877 -0.0056941286 0.026588744 -0.03516227 -0.04967871 -0.0050057773 0.017369175 -0.018239245
-0.022544969 -0.051000632 -0.019019127 -0.0452519 -0.0019318305 -0.005724252 0.013353264 0.0019054274
-0.03772237 -0.0031602916 -0.03360811 0.0030067994 -0.008124648 -0.010665039 0.0022285257 -0.020797819
-0.018866435 -0.017250532 0.0055079535 0.027374204 -0.024138752 -0.06361407 0.046288967 -0.009016403
-0.031070346 -0.025749695 -0.009158992 0.0121842595 -0.043411944 -0.014060984 -0.010982518 0.0044303304
-0.004218137 -0.013987429 -0.035355818 -0.018599005 0.007812766 -0.018519858 0.0004696007 0.005550147
-0.010710323 0.00430976 -0.020340608 -0.021929769 0.0027941894 -0.023621738 -0.03778234 4.1154995e-05
0.0035057182 -0.0075485846 -0.05544515 -0.011211015 -0.00374124 -0.026946817 -0.009670861 0.0171979
0.039230898 0.0026369425 -0.027292097 0.024001405 -0.0055150716 0.009679616 -0.006630308 0.005804325
-0.006186071 -0.03700277 -0.00045322516 0.023927609 -0.012345243 -0.014208292 0.004442951 -0.03330847
0.007589073 -0.01136978 0.04657015 0.005636167 0.011872495 -0.022544395 -0.022657368 0.033279862
-0.0006388141 -0.047010873 0.026260408 0.020165823 0.04119742 0.0007213181 0.004135974 0.014041267
-0.0046498016 -0.003814494 0.014222417 -0.024886351 -0.013158036 0.0051276507 0.010157368 -0.016553164
0.0060543907 0.029305499 -0.040287998 0.0361127 0.004545772 -0.007853499 -0.055484604 0.007757691
0.05888286 0.026467912 0.016134566 0.00967675 0.03766026 0.023031145 -0.06363949 0.014081311
0.015636217 -3.726474e-05 -0.0076670856 0.012530942 0.020144628 -0.016437091 0.0014027358 -0.0049902843
0.014814548 0.036529545 0.03284015 -0.008487147 0.0075654276 0.0012083788 0.015904497 -0.0038877493
-0.010169879 0.009868646 0.02034215 -0.0093728565 0.027423386 0.041183323 -0.0022470523 0.009177643
-0.030733746 -0.0110624535 -0.020796617 -0.02042056 -0.025005385 0.007097451 0.02414427 -0.03268276
-0.013067601 -0.0031152964 -0.001544495 0.040596604 0.050595652 -0.010609839 -0.005410292 -0.0055270093
0.017297016 0.010737789 0.042196855 -0.005435637 -0.045623988 0.021817852 0.0017030375 -0.03140126
0.02233153 0.02769534 0.04085124 -0.026582165 -0.027616253 -0.022914736 -0.000871237 0.012189196
-0.029614247 0.036672104 -0.028626835 -0.03913282 -0.011259197 -0.04865634 -0.006170671 -0.014756183
-0.013626977 -0.0134235425 -0.001979556 0.04701118 -0.027593892 -0.010287585 -0.03283831 -0.007662942

fc.3.weight f4 [257, 514]
00000000: a7d5 f1bc c759 3ebd a9d4 dfbc 2326 993c
00000010: c2cf a13c 5d4d f73c f445 af3c fb22 77bc
00000020: 30b3 80bc 0734 05bd 3170 38bc 591b d8bc
00000030: 8a9b 1e3d c0d0 2b3d b3d8 25bd ec8a b8bc
00000040: dd92 c3b9 b35b 24bd b934 65bb 0dfc 8cbc
00000050: 9db8 813d 2f60 25bd 18c6 4abd d8cd a23d
00000060: 6a4a b1bc 16c3 38bc 74fc 403d 08ca 8cbd
00000070: c706 c4bc 63e6 d7bc c6f1 05bd d269 833d
00000080: 2b63 303d 590c b73c b036 43bd 6e58 4abc
00000090: 16af 01bd e008 233d 6d0c cebc 8e50 7f3d
000000a0: 5e37 ddbb 93c2 3bbd ead1 b73c 94b2 fdbc
000000b0: 992d 81bc 1603 3a3b 3185 a93c 6b0f edbb
000000c0: 5729 903c 0684 bfbb 294f 593c 5776 243c
000000d0: d6e8 823d d594 08bc 33b3 983c 1e22 d4bc
000000e0: fa6b 7e3d 3f37 55bd 6511 39bd 59e2 923d
000000f0: 152b 853c dfc8 8abc ffdb 14bd 106d 13bc
00000100: a5b0 773d a7fd b63b 55a4 60bd 20cb 5b39
00000110: c6ca e8bb 7213 3bbd fe60 1dbc 7e1c 203d
00000120: 24b6 f9bc 7bf9 cabc d27c 543d 4ed1 78bd
00000130: 5b5b 293d f896 c03c 717c dcbc 4335 44bc
00000140: 9c7c 10bd 4e70 92bd 92da 1b3d 695d e1bb
00000150: e7b0 1d3d 6a68 bfbc b4cd 8cbc 7dec f43c
00000160: 5a13 c0bc d264 1c3d e7b6 7b3c 4efe bcbc
00000170: 3ee5 5a3d edff d23c c5b6 7dbd ed84 fabc
00000180: 352e 45bd 6b93 e33c a314 f2bc 4a51 483c
00000190: 76b9 073c 8626 a53b 52cc 913c 2cb0 023b
000001a0: 3de3 a63c 734e 81bb 5f13 3c3d 09f0 783d
000001b0: 34df 5d3d ecc0 41bd 9d4f 3dbd 6e6a 63bc
000001c0: 924e f43c 7999 f13c 4587 f3bc 3248 58bc
000001d0: 27c9 fdbc 3cc9 1dbd d275 88bc 6a3e fcbc
000001e0: 90ca 2bbd d1d3 0bbd bb80 4b3d 3bf0 88bb
000001f0: 0284 b0bc 4535 a93c 0ba6 78bd b745 6bbd
00000200: 66d7 13bd 206b 7b3d 2c00 903c 3d26 803d
00000210: bccc 37bd 7e22 0e3d afdc 34bd 9535 53bd
00000220: 48fd 75bd faf3 10bd 983f b63c e0ae 13bd
00000230: 5420 49bd 24f5 543b b690 47bd 1cd1 86bd
00000240: 14b0 1bbd 8939 023d ab1b 9cbc 150b dcbc
00000250: 8486 fbba b7fe 0a3d c065 a4bc dc4b 573d
00000260: 48be 27bd f3ac eebc f3a5 913d 8d73 813d
00000270: 404e 19bd 7703 ce3b 399c b13c a296 21bd
00000280: 28cf 69bc 1514 43bd 18b4 92bd 0397 843d
00000290: 8009 273d 4edd d33c 2271 f73b efc9 ee3c
000002a0: facd 5cbc 4514 913d 8d64 ceba 4037 99bc
000002b0: ffc1 353d aa0f 54bd 21dc b13b a2a9 df3c
000002c0: 44d6 ef3c c080 11bd b2ee 46bd be7c 3dbd
000002d0: 51f0 37bd 2b47 bfbc dd52 48bd 148c 7fbd
000002e0: 4fac f1bc 3b4b 2abc fb92 593d 9d15 993d
000002f0: 48ff c3bc a0d2 553c c1e7 a7bc 4ea1 583d
00000300: 36d8 223c 5fd0 083d 906d e63c c91a 4ebd
00000310: 5195 ce3c 3ae5 1a3d eba9 36bd 084c 063d
00000320: 0bff aabc 3668 df3c 7e88 8aba bd51 36bd
00000330: 012c ce3c 7aae 163d c4bd b8b9 885c 9e3c
00000340: 8d5e e43c da4a 6a3d bb19 4cba 04a0 e23c
00000350: ec2a 623d 3300 5b3d 40dd 393c eaf7 88bc
00000360: 8930 3d3c f8b0 263d 4577 e7bb df34 abbd
00000370: 6afb 25bd 6201 f7bc a63a 2a3c 6c4c e33c
00000380: 048c 40bd bcbc c7bb dc86 b03d 0faf 053d
00000390: 5cb2 163d 430f 3d3d 9adb 97bb ff7c 5dbc
000003a0: 470d e93c fbd5 0ebd 6243 813d 55cf 1a3d
000003b0: 7f50 2c3d f4c3 1d3c e901 05bc cb13 843d
000003c0: 2627 a53d 6e58 61bd 2e10 963b 3a33 24bd
000003d0: 55c7 903d da1e 78bd 302b 1fbd fd2e 6c3c
000003e0: 61bd 20bd 5722 7fbd 10ac c9bc 54ef 32bc
000003f0: 12a4 873d 54ad 7fbb 5946 04bd 490e 8fbc
-0.029520823 -0.046472337 -0.027323084 0.018694943 0.019752387 0.030188257 0.021395661 -0.015084024
-0.015710443 -0.03252032 -0.011257217 -0.026380228 0.038722552 0.041947126 -0.040489864 -0.02252718
-0.0003730272 -0.040126514 -0.0034974052 -0.01721003 0.0633404 -0.04037493 -0.049505323 0.07949418
-0.021641929 -0.011276981 0.047115758 -0.06874472 -0.023929013 -0.026354974 -0.032701276 0.06416668
0.043063324 0.022344755 -0.047659576 -0.012350185 -0.031661116 0.039803386 -0.02515241 0.062332682
-0.006750985 -0.045839857 0.022438962 -0.030968942 -0.015768813 0.0028383187 0.020693393 -0.007234504
0.017597837 -0.005844596 0.013263502 0.01003798 0.06392066 -0.008336266 0.018640136 -0.025895175
0.062114693 -0.05205464 -0.045182604 0.07172079 0.016255895 -0.016941486 -0.036342617 -0.0089981705
0.060471196 0.005584437 -0.05484422 0.00020961137 -0.0071042506 -0.04567284 -0.009605644 0.039089672
-0.03048236 -0.024777165 0.05187685 -0.060746484 0.04134689 0.023509488 -0.026914807 -0.011975589
-0.035275087 -0.07150327 0.03805024 -0.0068775904 0.038498785 -0.023365218 -0.01718793 0.029897923
-0.023446728 0.038182087 0.015363432 -0.02307048 0.05344128 0.0257568 -0.06194188 -0.030580962
-0.04813977 0.027780255 -0.029550856 0.012226412 0.008283963 0.0050399927 0.017797623 0.0019941432
0.020372028 -0.0039461195 0.04591691 0.06077579 0.05416794 -0.047303125 -0.046218503 -0.013880355
0.029822621 0.029492127 -0.029727587 -0.013200806 -0.030979706 -0.03852199 -0.016657744 -0.03079148
-0.041941226 -0.03413755 0.049683314 -0.0041790283 -0.021547321 0.020655284 -0.060705226 -0.057439532
-0.03609409 0.06138146 0.017578207 0.062572934 -0.044872984 0.034700863 -0.044155773 -0.05156477
-0.060056 -0.035388924 0.02224712 -0.036055446 -0.049103096 0.0032494748 -0.04872199 -0.06582853
-0.038009718 0.03179315 -0.019056162 -0.026860753 -0.0019189869 0.03393432 -0.02006805 0.05256258
-0.04095295 -0.029135203 0.071117304 0.06320868 -0.03742814 0.006287034 0.021680938 -0.039450295
-0.014270581 -0.047626574 -0.071632564 0.06474116 0.040780544 0.025862362 0.0075513283 0.029149024
-0.013476843 0.07083944 -0.0015746519 -0.018703103 0.044374462 -0.05177275 0.0054278527 0.027302567
0.029276974 -0.035523176 -0.04856748 -0.04626154 -0.044906918 -0.023349365 -0.04890715 -0.06238945
-0.029501108 -0.010393913 0.053118687 0.074748255 -0.023925439 0.013050705 -0.020496251 0.052888207
0.009939244 0.033401843 0.028128415 -0.050318513 0.025217684 0.037816264 -0.04459564 0.032787353
-0.020873567 0.027271371 -0.0010569242 -0.044511545 0.025167467 0.036787488 -0.000352366 0.019331232
0.027877117 0.05720029 -0.00077858166 0.027664192 0.055216715 0.053466987 0.011344254 -0.016719777
0.011547216 0.040696114 -0.0070637786 -0.08359694 -0.04052297 -0.030152027 0.010389959 0.027746402
-0.04700853 -0.006095497 0.086194724 0.032637652 0.03679119 0.046157133 -0.004634333 -0.013518571
0.028448714 -0.034872036 0.063116804 0.037795383 0.042068955 0.009629238 -0.008118131 0.06449088
0.080641076 -0.055015974 0.0045795655 -0.040087916 0.070692696 -0.060576297 -0.038859546 0.0144155
-0.039243106 -0.06228861 -0.024618179 -0.010921318 0.06623091 -0.0039013224 -0.03229365 -0.017462866
