inventory/ark_material.onnx (onnx, 404169 bytes, 8 tensors)

35 f4 [32, 3, 5, 5]
0	0x3f1fd8ea	0.6244036
1	0xbd4347c0	-0.047675848
2	0xbe632696	-0.22182688
3	0xbcffcd0a	-0.0312257
4	0x3efd5515	0.49478975
5	0x3ee516ed	0.44744053
6	0x3ec45522	0.383462
7	0x3e9a3069	0.3011506
8	0x3ef364e3	0.47537908
9	0x3f13b25c	0.5769403
10	0x3ecf060f	0.4043431
11	0xbe19d97b	-0.15024368
12	0x3edef3c4	0.43545353
13	0x3e27ed03	0.16399007
14	0x3f03ce47	0.5148663
15	0xbe489218	-0.1958698
16	0x3eb636f3	0.35588798
17	0x3e2bd559	0.16780604
18	0x3e2494a5	0.16072328
19	0xbbd214d7	-0.0064111757
20	0x3e24e345	0.16102321
21	0xbea6906e	-0.32532066
22	0x3edd460b	0.432175
23	0xbefa9dd2	-0.48948532
24	0xbe0e9292	-0.139231
25	0x3e636cb8	0.22209442
26	0xbe68f928	-0.22751296
27	0xbebc53ce	-0.36782688
28	0xbed1d387	-0.40981695
29	0xbe1f077c	-0.15530199
30	0x3d3e2abf	0.046427485
31	0x3d8268a6	0.06367616
32	0x3eb156c8	0.3463652
33	0xbefd0cc3	-0.494238
34	0x3eb703d5	0.3574511
35	0xbeecf90b	-0.46283755
36	0xbee12f8d	-0.4398159
37	0x3ecfcbb4	0.405851
38	0x3e64a7ce	0.22329637
39	0x3ecaf228	0.39637876
40	0xbd9c693a	-0.07637258
41	0xbe8eeba0	-0.27914143
42	0xbe32b7fe	-0.17453
43	0xbea4d6ff	-0.3219528
44	0x3cdd03da	0.026979376
45	0x3ebfe656	0.3748042
46	0xbe71a6b3	-0.23598747
47	0x3c8a5a80	0.016888857
48	0xbdce0578	-0.10059637
49	0xbc9ca8f9	-0.019123541
50	0x3d3e8300	0.04651165
51	0xbd2e3338	-0.042529315
52	0x3ecd26e0	0.40068722
53	0x3f08c3ea	0.5342394
54	0xbc4e1327	-0.012577808
55	0xbe52a7de	-0.20571849
56	0xbea368ac	-0.31915796
57	0xbdc327a9	-0.09529049
58	0x3ea6eeab	0.32603964
59	0xbd9bb4de	-0.07602857
60	0x3e496bc8	0.19670022
61	0xbee4d3d0	-0.4469285
62	0x3ee303f7	0.44338962
63	0x3eea7670	0.45793486
64	0xbe373edb	-0.17895071
65	0x3ee65606	0.44987506
66	0xbeedd7df	-0.4645376
67	0xbd01d71f	-0.031699296
68	0xbd9ff63c	-0.07810637
69	0x3eb9764b	0.36223063
70	0x3e035fea	0.12829557
71	0xbea81e32	-0.32835537
72	0x3ed5b835	0.417421
73	0xbef03783	-0.46917352
74	0xbf06aa23	-0.5260336
75	0x3e7cebdc	0.24699348
76	0x3ecf8a71	0.4053531
77	0xbe416590	-0.188864
78	0x3dee4f5a	0.11636229
79	0xbec8c5f4	-0.39213526
80	0xbdb0c0be	-0.08630513
81	0x3d5498cc	0.05190353
82	0xbedcb20d	-0.43104592
83	0xbec6529d	-0.38734904
84	0x3e8115ef	0.25212047
85	0xbec28e60	-0.37999249
86	0xbe3202e6	-0.17383918
87	0x3f0cb658	0.54965734
88	0x3f051e0c	0.5199897
89	0xbc3bb828	-0.0114574805
90	0x3ed1495f	0.4087629
91	0xbebfcabb	-0.3745936
92	0x3f0bf676	0.54672945
93	0x3e61bdbc	0.22045034
94	0xbd87c50c	-0.066293806
95	0xbed12a53	-0.40852603
96	0x3e9e91c1	0.30970576
97	0x3f065388	0.5247121
98	0x3dfed7e4	0.124435216
99	0xbecf0068	-0.40429997
100	0x3e72f7e1	0.23727371
101	0x3d92b693	0.071637295
102	0xbda2cf04	-0.07949641
103	0xbceb8f9f	-0.028755007
104	0xbe9865ef	-0.2976527
105	0x3f10af38	0.5651736
106	0x3e3d799f	0.18503426
107	0x3e7fa750	0.24966168
108	0x3e883bd6	0.2660815
109	0xbd93d799	-0.07218856
110	0xbdba9add	-0.09111569
111	0x3edd19ac	0.4318365
112	0x3ecc5e83	0.39915857
113	0x3dd2cd2a	0.10293038
114	0xbdbf92ae	-0.09354149
115	0xbecc3bcd	-0.39889374
116	0xbeceba03	-0.4037629
117	0x3e1d1817	0.15341221
118	0x3dcbae56	0.09945361
119	0xbe31b819	-0.17355384
120	0xbe9a9c2d	-0.30197278
121	0xbe6843e2	-0.22682145
122	0x3e6f87d4	0.23391658
123	0xbe504256	-0.20337805
124	0xbdd1bb36	-0.10240786
125	0xbe34cc27	-0.17656003
126	0x3ea5c1cf	0.32374427
127	0x3e5aa804	0.21353155
128	0x3e1854bf	0.14876078
129	0x3e5dc04d	0.21655388
130	0x3ee6fa36	0.4511277
131	0xbd6328b7	-0.05545875
132	0x3d256c12	0.040386267
133	0x3d542d9e	0.051801316
134	0x3ee3f24f	0.44520804
135	0x3e1233df	0.142776
136	0x3e913f8c	0.28368795
137	0xbebce00b	-0.3688968
138	0x3ec7ae55	0.39000192
139	0x3e16f985	0.14743622
140	0xbed37998	-0.41303706
141	0xbebb7049	-0.36609104
142	0x3ea8a8a4	0.32941163
143	0x3ead853e	0.33890718
144	0x3d9bbe51	0.07604659
145	0xbeab48b4	-0.33453906
146	0x3e8c2ddb	0.27378735
147	0x3e98e96b	0.29865584
148	0xbee116fc	-0.43962848
149	0x3ecc676f	0.39922664
150	0xbd45ed8c	-0.048322245
151	0xbe48ed1f	-0.19621705
152	0x3f8da700	1.1066589
153	0x3f7ad87e	0.9798659
154	0x3f8d069e	1.1017644
155	0xbf7f7f74	-0.99803853
156	0xbf9d85a4	-1.2306409
157	0x3f56c6bd	0.83897
158	0xbf82c43c	-1.0216136
159	0xbf0d8fdd	-0.5529764
160	0x3f6bac3c	0.92059684
161	0x3f69eef2	0.91380227
162	0xbec2eb5a	-0.38070184
163	0xbb1c0ad8	-0.0023810174
164	0x3f898a36	1.0745304
165	0x3f5c2b3d	0.86003476
166	0xbf8b0673	-1.0861343
167	0x3d11c11d	0.035584558
168	0xbe09becc	-0.1345169
169	0x3f5338c4	0.8250849
170	0xbf39aa95	-0.7252591
171	0xbe291a5f	-0.16513966
172	0xbf25b650	-0.6473131
173	0x3dd0f060	0.10202098
174	0xbfb423a7	-1.407338
175	0x3fa3e96e	1.2805612
176	0x3f8445dc	1.0333819
177	0xbefbe7ee	-0.49200386
178	0xbe8373ca	-0.25674278
179	0x3f07b09a	0.5300385
180	0x3ed69610	0.41911364
181	0x3f33e032	0.7026397
182	0x3f30e0c1	0.6909295
183	0x3f601b27	0.8754143
184	0x3de2a0d7	0.11065834
185	0x3f035e3e	0.5131568
186	0x3f85f982	1.0466769
187	0xbf029dd4	-0.51022077
188	0x3edf17d6	0.43572873
189	0xbdbf218d	-0.09332571
190	0xbf6acc7a	-0.91718256
191	0x3f894fde	1.0727499
192	0x3d963d6d	0.07335935
193	0xbf880cb9	-1.0628883
194	0xbf38275b	-0.7193505
195	0xbfaff671	-1.3747083
196	0xbe9d2099	-0.30688933
197	0xbf8805aa	-1.0626729
198	0x3d146b23	0.036234986
199	0xbfd546c3	-1.666222
200	0xbf25e5db	-0.64803857
201	0xbf109fc5	-0.5649379
202	0xbe4c5dde	-0.19957682
203	0x3f6b6c39	0.9196201
204	0xbec82a34	-0.39094698
205	0x3f04d076	0.51880586
206	0x3f02b4cf	0.5105714
207	0xbf29dac0	-0.6634941
208	0xbf7de841	-0.99182516
209	0xbeb8a689	-0.36064556
210	0x3dc6a071	0.096985705
211	0xbe5193aa	-0.20466486
212	0x3f24db26	0.64396894
213	0xbf1eaa88	-0.6197896
214	0xbed1eb9b	-0.41000065
215	0xbf5a0108	-0.85157824
216	0xbe973914	-0.29535735
217	0x3f1a2736	0.6021608
218	0xbecaa104	-0.3957597
219	0xbd821bd9	-0.06352968
220	0x3d33aff1	0.043868963
221	0xbf5a923e	-0.853794
222	0x3f118ed6	0.56858575
223	0x3f79f881	0.9764481
224	0x3f18dca5	0.59711677
225	0x3f092a93	0.5358059
226	0xbe425ef5	-0.18981536
227	0xbf7c5d34	-0.98579717
228	0xbf3d7b07	-0.7401585
229	0xbf950b45	-1.1644064
230	0x3f4ae2ab	0.7925212
231	0xbda5ebf9	-0.08101649
232	0x3f22d6f6	0.63609254
233	0xbeccde81	-0.40013507
234	0x3f153b4d	0.5829361
235	0xbeee741c	-0.4657296
236	0x3f089e68	0.5336671
237	0x3f22a19b	0.6352784
238	0x3f0db556	0.5535482
239	0xbf56a9d7	-0.83852905
240	0xbe159e49	-0.14611162
241	0x3eaf9ef5	0.34300962
242	0x3f840f82	1.0317233
243	0xbf36c617	-0.7139601
244	0x3ea3ddb0	0.32005072
245	0x3e48743d	0.19575591
246	0xbe382d1a	-0.17985955
247	0x3ec061d7	0.37574646
248	0x3f6a117e	0.9143294
249	0x3ee0fd1f	0.43943116
250	0xbf5cb228	-0.86209345
251	0xbe213519	-0.15742911
252	0xbe616465	-0.22010954
253	0x3e7c75ab	0.24654262
254	0x3ec08b01	0.37606052
255	0x3ea7b224	0.32753098

36 f4 [32]
0	0xbfbd3d7c	-1.4784389
1	0xbfe3aa33	-1.7786316
2	0x3f419236	0.75613725
3	0x3b5d1460	0.0033734068
4	0x3cadada9	0.021200972
5	0xbf8a7e29	-1.0819751
6	0xbd6eee1f	-0.05833256
7	0xbd73d282	-0.059526928
8	0xbec0e4c3	-0.3767453
9	0xbf0c8158	-0.5488486
10	0x3f2385ec	0.63876224
11	0x3f85d855	1.0456644
12	0x3f3ab370	0.7293005
13	0xbfd110af	-1.6333216
14	0xbeeb7ac2	-0.45992094
15	0x3f886555	1.0655924
16	0x3eac8032	0.33691555
17	0xc0042307	-2.064638
18	0x3fba28dc	1.4543719
19	0xbe001514	-0.1250804
20	0x3fa07842	1.25367
21	0x3f60743a	0.8767735
22	0xbf582d7c	-0.84444404
23	0xbff15d0c	-1.8856521
24	0x3ec9e49b	0.39432225
25	0xbd761a1a	-0.060083486
26	0x3efeb999	0.49750975
27	0x400683ed	2.101802
28	0x3f9b5b36	1.213721
29	0xbfd4da32	-1.6629088
30	0x3f84f953	1.0388588
31	0x3ff26750	1.8937778

38 f4 [32, 32, 3, 3]
0	0xbe89d479	-0.26919916
1	0xbf1c8395	-0.6113828
2	0xbccdf9a5	-0.025143454
3	0xbe006304	-0.12537771
4	0x3e3e4dc0	0.18584347
5	0x3e9fdd6b	0.31223616
6	0xbe5707d0	-0.20999074
7	0x3df2f74c	0.118635744
8	0x3ca3cea3	0.019995993
9	0x3da15e40	0.07879305
10	0xbe04e100	-0.12976456
11	0xbe35534c	-0.17707556
12	0xbe244c18	-0.16044652
13	0xbde390f8	-0.11111635
14	0xbcc3a3d8	-0.023881838
15	0xbe92d3aa	-0.28677112
16	0x3cb3110a	0.02185871
17	0xbd84257b	-0.06452461
18	0x3edbaa79	0.42903498
19	0x3f23bcbd	0.63959867
20	0x3e682c20	0.22673082
21	0xbe94efdf	-0.29089257
22	0xbebadde4	-0.36497414
23	0xbe5757ee	-0.21029636
24	0xbdf31250	-0.11868727
25	0xbe26743c	-0.16255277
26	0xbea034b6	-0.31290215
27	0x3d528cc2	0.05140377
28	0xbe695df3	-0.22789745
29	0xbe4b8fa0	-0.19879007
30	0xbdd3597e	-0.10319804
31	0xbe7a2eca	-0.24431911
32	0xbea0535b	-0.31313595
33	0xbe9e9612	-0.3097387
34	0xbdf391c1	-0.11893035
35	0x3f4054fd	0.7512968
36	0xbdfdee40	-0.12398958
37	0x3e5be617	0.21474491
38	0xbe505a23	-0.20346884
39	0x3a33d895	0.00068605813
40	0xbeb20b88	-0.34774423
41	0xbf022095	-0.50830966
42	0x3e2d1ca9	0.16905464
43	0x3ddb501d	0.1070864
44	0x3c6208e0	0.013796061
45	0xbdc83141	-0.097750194
46	0x3d9ff04b	0.07809504
47	0x3e639fe1	0.22228958
48	0x3eccf475	0.40030256
49	0xbd216cb4	-0.039410308
50	0xbee1be18	-0.44090343
51	0xbe905f9c	-0.28197944
52	0xbcfaddf3	-0.030623412
53	0x3d8bd4d9	0.06827707
54	0xbe891d5f	-0.2678022
55	0xbe5ec8ee	-0.21756336
56	0xbe8660ee	-0.26245826
57	0xbe97f35b	-0.29677853
58	0x3e1b7d94	0.15184623
59	0x3e4f35f1	0.20235421
60	0xbe2bc009	-0.16772474
61	0x3ef63423	0.48086652
62	0x3e810367	0.25197908
63	0x3e3203d5	0.17384274
64	0xbe62d3be	-0.22151086
65	0xbf1223bf	-0.57085794
66	0x3e7f3d6f	0.24925779
67	0xbde845d9	-0.113414474
68	0xbdd87167	-0.10568505
69	0x3e902fa7	0.28161356
70	0x3efb0595	0.49027696
71	0x3e1fe5f6	0.15615067
72	0x3ec51da5	0.3849918
73	0x3c8ff02e	0.017570581
74	0xbe9bf71f	-0.30461976
75	0xbc9ab940	-0.018887162
76	0x3e78d532	0.24300078
77	0xbd93a53a	-0.07209249
78	0x3e28da05	0.16489418
79	0x3d954988	0.072894156
80	0x3ea61c62	0.3244353
81	0x3ec85f72	0.3913532
82	0xbd1ad818	-0.03780374
83	0xbef04afe	-0.46932214
84	0x3eb2ee78	0.34947562
85	0x3ec7999c	0.38984382
86	0xbd6042e3	-0.05475129
87	0x3e3af662	0.1825805
88	0x3e99508c	0.29944265
89	0xbe3eae17	-0.18621098
90	0xbd805622	-0.062664285
91	0xbda7aa4c	-0.081867784
92	0xbe85c816	-0.26129216
93	0x3e22bd4f	0.15892528
94	0xbdde2238	-0.108463705
95	0xbd12c25c	-0.035829887
96	0xbed19a9b	-0.40938267
97	0xbf1a6705	-0.60313445
98	0xbec4cc6c	-0.38437212
99	0x3e108a6c	0.14115304
100	0xbd4a0e01	-0.04932976
101	0x3e84c3b0	0.25930548
102	0x3e6ecc94	0.23320228
103	0xbe417086	-0.1889058
104	0x3e529773	0.20565586
105	0xbd8959fa	-0.06706615
106	0xbcafb3fd	-0.02144813
107	0xbde11310	-0.10989964
108	0xbe97ea60	-0.29671
109	0x3dbcd0aa	0.09219487
110	0xbee9a2a5	-0.456319
111	0xbee0d05a	-0.4390896
112	0x3e5d315e	0.21600863
113	0x3e84e17e	0.25953287
114	0x3da6a6c5	0.081372775
115	0x3e6a6c69	0.22892918
116	0x3e9e92df	0.3097143
117	0x3e28229b	0.16419451
118	0xbe8a81d9	-0.2705219
119	0x3ed362f3	0.4128643
120	0xbda2d6de	-0.07951139
121	0x3e99accf	0.30014655
122	0xbec1babe	-0.37837785
123	0xba3bca66	-0.00071636436
124	0xbd9aeb18	-0.07564372
125	0xbef9f714	-0.48821318
126	0xbdc0cb9b	-0.09413835
127	0x3e805fea	0.25073177
128	0x3e40b3c2	0.18818572
129	0x3ecf77b8	0.40521026
130	0x3ee1e5fd	0.4412078
131	0x3d6bcfc7	0.0575712
132	0x3ed5d56f	0.417644
133	0x3da0af8e	0.078459844
134	0x3e4b4a17	0.19852482
135	0x3e7b85f9	0.24562825
136	0xbd14752d	-0.03624456
137	0x3db0e8b2	0.08638133
138	0xbd7a16a1	-0.061056737
139	0x3ebc90ce	0.36829227
140	0x3de05254	0.10953203
141	0xbe0cba37	-0.1374291
142	0x3d7f55d2	0.062337704
143	0x3e0ee1c5	0.13953312
144	0xbda5737b	-0.08078667
145	0x3dc46268	0.09589082
146	0x3e70c826	0.2351385
147	0x3da148b4	0.07875195
148	0x3e6328bf	0.22183512
149	0xbea90768	-0.33013463
150	0x3cf972c1	0.030450227
151	0x3eb365c6	0.35038584
152	0x3e8a3fb6	0.27001733
153	0x3e0d3fb3	0.1379383
154	0x3e296d60	0.1654563
155	0xbeb345cd	-0.3501419
156	0x3ca87bde	0.020566877
157	0x3e724351	0.23658492
158	0x3e0c190b	0.13681428
159	0x3d08241c	0.03323756
160	0x3e50fc04	0.20408636
161	0xbc59d47c	-0.013295289
162	0x3d944ce1	0.07241226
163	0x3ecb8ef8	0.39757514
164	0xbe51af9b	-0.20477144
165	0xbdc25c04	-0.09490207
166	0xbef4291b	-0.4768761
167	0xbe97530c	-0.29555547
168	0x3dd2309a	0.10263176
169	0xbe2d2c31	-0.16911389
170	0x3e471d82	0.1944485
171	0xbe79e965	-0.24405439
172	0xbd39d33a	-0.045367457
173	0xbdf6d220	-0.12051797
174	0xbe0fa25a	-0.14026776
175	0x3f0d6e52	0.5524646
176	0xbe5135a7	-0.20430623
177	0x3d9c45a8	0.076304734
178	0x3e3cf7b9	0.18453874
179	0x3e8c9422	0.27456766
180	0xbeeb2888	-0.4592936
181	0xbb2bfdff	-0.0026243923
182	0xbe643e73	-0.22289447
183	0x3e17b7a1	0.14816143
184	0x3e0614bc	0.13093847
185	0xbeee755d	-0.46573916
186	0xbe2df5a4	-0.16988236
187	0xbda923cc	-0.08258781
188	0xbefa19ce	-0.48847812
189	0xbebc4f3b	-0.36779198
190	0x3e6c140e	0.23054525
191	0xbeaffbfe	-0.34371942
192	0xbe94b8a5	-0.29047123
193	0x3d28a1c2	0.04116989
194	0xbced03d0	-0.028932482
195	0xbda84dec	-0.082179874
196	0xbd8712c1	-0.06595374
197	0x3ed0ecea	0.4080575
198	0x3dd2f553	0.10300698
199	0x3e8ed9b4	0.2790047
200	0x3d5d8051	0.05407745
201	0x3d65b0dd	0.056076873
202	0x3e962818	0.29327464
203	0xbe72408b	-0.23657434
204	0x3e9807f3	0.29693565
205	0xbb7f4226	-0.003894934
206	0xbdc8a62e	-0.09797321
207	0xbd2990d4	-0.041397884
208	0xbebf38a3	-0.37347898
209	0x3d439f28	0.047759205
210	0x3e2d8896	0.16946635
211	0x3dfe2e90	0.12411225
212	0x3e57731d	0.21040006
213	0x3e9721ba	0.2951792
214	0x3edf8550	0.43656397
215	0x3f21264e	0.62949073
216	0xbeb5f318	-0.35537028
217	0x3ea02a30	0.31282187
218	0x3d13f371	0.036120836
219	0xbda7ae55	-0.08187548
220	0x3f1c7346	0.61113393
221	0xbe116e88	-0.1420232
222	0xbe4a78e8	-0.19772685
223	0x3f4d45c0	0.80184555
224	0x3f1f17b4	0.62145543
225	0x3e56474b	0.20925634
226	0x3c4ed9d0	0.012625173
227	0x3e20cd96	0.15703425
228	0xbc90f75a	-0.017696071
229	0xbf11bab0	-0.5692549
230	0xbd1cb080	-0.03825426
231	0xbe740d2b	-0.23833148
232	0xbf314082	-0.69239056
233	0xbf0a4394	-0.54009366
234	0xbecd664b	-0.40117106
235	0x3e0bb64d	0.13643761
236	0xbe4771d5	-0.19477017
237	0xbd182690	-0.03714615
238	0xbdc7e146	-0.097597644
239	0x3c0002b5	0.007813145
240	0x3e3bb305	0.1833001
241	0xbda735f4	-0.081645876
242	0xbe104ea4	-0.14092499
243	0x3e6461af	0.22302888
244	0x3eb3e7ac	0.3513769
245	0x3e85feaa	0.26170856
246	0x3e56a15f	0.20959996
247	0xbdb6d143	-0.08926632
248	0xbeaf0e52	-0.34190613
249	0xbd7c2578	-0.06155917
250	0xbd2f5c66	-0.042812727
251	0x3e80d9fe	0.25166315
252	0xbe2c2a22	-0.16812947
253	0x3ea63b73	0.3246723
254	0x3d8c7875	0.06858913
255	0xbe8d3348	-0.27578187

39 f4 [32]
0	0xbede24ef	-0.43387553
1	0x3e6b36cc	0.22970122
2	0x40000657	2.000387
3	0x3fa6ca44	1.3030477
4	0x4044799c	3.0699224
5	0xbf7f0f37	-0.9963259
6	0xbfa377b1	-1.2770902
7	0xbeb5e6b9	-0.3552759
8	0x3e76cad6	0.24100813
9	0x3f387780	0.7205734
10	0x3fee8f76	1.8637531
11	0xc001738a	-2.022677
12	0x4024fce5	2.5779355
13	0xc050504e	-3.2549014
14	0xbfa2d5eb	-1.2721533
15	0xbf4def91	-0.80443674
16	0x3f20b3a4	0.6277411
17	0x3f168471	0.5879584
18	0x40168990	2.3521461
19	0x3e3cecf6	0.18449768
20	0x3f8bca2b	1.0921072
21	0xbd4c0634	-0.049810603
22	0x3f83a4ca	1.0284665
23	0x3f2ba77c	0.67052436
24	0x400fb7d7	2.2455957
25	0x3f050b5f	0.51970476
26	0xbfdbd5eb	-1.7174658
27	0x3da44243	0.08020451
28	0x3f39ee1d	0.7262896
29	0x40487790	3.1322975
30	0xbfa02c70	-1.2513561
31	0xbfb16207	-1.385804

fc.0.bias f4 [312]
0	0x3df233bd	0.118262745
1	0x3a0980af	0.00052453106
2	0x3dd11321	0.10208727
3	0xbc05e24c	-0.008171629
4	0xbcdf5d62	-0.027266208
5	0xbd8ce832	-0.06880225
6	0xbd106f43	-0.035262357
7	0xbd1609d5	-0.03663047
8	0x3dc30a68	0.09523469
9	0x3dd49a97	0.10381048
10	0x3d997810	0.07493603
11	0x3dde8559	0.10865278
12	0x3cb0409b	0.021515181
13	0xbcd1e5fd	-0.025622362
14	0x3d7351c5	0.059404153
15	0x3de56001	0.11199952
16	0xbbd220c9	-0.0064125997
17	0xbd4720ce	-0.04861527
18	0x3dab4546	0.08362822
19	0x3d60690a	0.054787673
20	0x3db4f292	0.08835329
21	0x3d9a4dd7	0.07534378
22	0xbb8fd148	-0.004388962
23	0xbb25368e	-0.002520952
24	0xbcc06e35	-0.02349005
25	0xbd1daf50	-0.03849727
26	0x3cd0080d	0.025394464
27	0x3d6d644f	0.05795699
28	0x3d40fb65	0.04711475
29	0x3d9e09cb	0.077167116
30	0x3dac25a4	0.08405617
31	0x3dc857de	0.09782384
32	0xbc3edcee	-0.011649353
33	0xbd713d21	-0.058896188
34	0x3d8ad3df	0.067786925
35	0x3acce49d	0.0015632097
36	0x3dfe59aa	0.12419446
37	0x3d38cc5e	0.045116775
38	0x3d3a0c11	0.045421664
39	0x3db5a588	0.08869463
40	0x3d9b90b3	0.075959586
41	0x3debbb95	0.11510388
42	0xbd3b1c32	-0.045681186
43	0x3d757eeb	0.05993549
44	0x3c9f8d6f	0.01947662
45	0x3d7476c2	0.05968357
46	0xbc9cee9c	-0.019156747
47	0x3dcc92f5	0.09988967
48	0xbd2e248e	-0.04251533
49	0x3d303fc7	0.043029573
50	0x3db4e09b	0.088319026
51	0x3dfbb710	0.12290776
52	0xbbc2845a	-0.0059361877
53	0x3dbc7b7e	0.09203242
54	0x3d147adb	0.036249977
55	0x3d934e20	0.071926355
56	0x3c8ad4fd	0.016947264
57	0xb9eee008	-0.00045561814
58	0x3d88993c	0.06669852
59	0x3dc274e4	0.09494951
60	0xbd037c41	-0.03210092
61	0x3d7ce774	0.06174417
62	0x3dc64680	0.096814156
63	0xbc82958c	-0.01594045
64	0x3d12ca1b	0.035837274
65	0x3d4b9e05	0.049711246
66	0xbd560d0d	-0.05225854
67	0x3d8f983d	0.07011459
68	0x3d21eea1	0.039534215
69	0x3b894bc0	0.0041899383
70	0x3d4af010	0.049545348
71	0xb83877ac	-4.398047e-05
72	0x3d991835	0.0747532
73	0xbcb34d09	-0.02188732
74	0x3dd9f200	0.10641861
75	0xbd8bc843	-0.06825306
76	0x3d8710b9	0.065949865
77	0x3d250d67	0.040295985
78	0xbc8b10bd	-0.016975755
79	0xbceaf2cb	-0.028680226
80	0x3dee12f2	0.11624707
81	0x3e0f3c0c	0.1398775
82	0xbc4a0cc8	-0.012332149
83	0xbd3ec966	-0.046578787
84	0x3d4471a4	0.04795994
85	0x3d912488	0.07087046
86	0x3d0d9f62	0.034575827
87	0x3b0b90a0	0.002129592
88	0xbc813c3b	-0.01577579
89	0xbc936fa6	-0.017997574
90	0x3cf6c81a	0.030124713
91	0xbc9e32ff	-0.019311426
92	0xbc05b933	-0.008161831
93	0xbcbe4a99	-0.02322893
94	0x3c95e60d	0.018298173
95	0x3da73ec0	0.081662655
96	0x3ddae1a7	0.10687571
97	0x3dea3aa6	0.114369676
98	0x3d2ec198	0.042665094
99	0x3de251b8	0.11050743
100	0xbccbe665	-0.024890134
101	0x3dee6952	0.11641182
102	0x3bc84ed1	0.0061129113
103	0x3dd4c76d	0.103896
104	0x3bbe8f2d	0.0058154077
105	0x3d3b0e37	0.045667853
106	0x3e0a1273	0.134836
107	0x3bf332fc	0.0074218493
108	0x3d0ff949	0.035149846
109	0x38f12814	0.00011499241
110	0x3de6ed7f	0.112757675
111	0x3bc25fd5	0.005931834
112	0x3cad77e1	0.021175327
113	0x3ccc9b66	0.024976443
114	0x3de5b296	0.11215703
115	0x3d72dc44	0.059292093
116	0x3d02d52b	0.031941574
117	0xbca17472	-0.019708846
118	0x3def68e5	0.11689929
119	0x3c4972a6	0.012295401
120	0xbd056a3f	-0.032572027
121	0xbcde7e17	-0.027159734
122	0x3d64c045	0.055847425
123	0xbc3c329e	-0.011486677
124	0xbc50d313	-0.0127456365
125	0x3d8849cc	0.06654701
126	0x3cfbea15	0.030751267
127	0xbc0afed1	-0.0084836045
128	0x3d97ca79	0.074116655
129	0x3d97ab93	0.07405772
130	0x3df272a7	0.118382744
131	0x3cc1530a	0.023599166
132	0x3bb58396	0.005539368
133	0x3e0163c7	0.12635718
134	0xbd22ff3f	-0.039794203
135	0x3cafb80d	0.021450067
136	0x3d305cec	0.043057367
137	0x3bf49b67	0.0074648145
138	0x3c12f257	0.008968911
139	0x3dc1760b	0.09446343
140	0x3d46aec2	0.048506506
141	0x3da3b8a9	0.079942055
142	0xbd6cdf17	-0.057829943
143	0x3db2f490	0.08738053
144	0x3d1dd132	0.038529582
145	0x3dc03c2d	0.093864776
146	0x3db54867	0.088517
147	0xbd8bd0cf	-0.068269365
148	0x3d1f4883	0.038887512
149	0x3ddbcf2e	0.10732876
150	0x3d33960f	0.04384428
151	0xbb60f92a	-0.00343282
152	0x3e00ca2a	0.1257712
153	0xbd1f23c5	-0.03885247
154	0x3df44cbf	0.11928701
155	0x3daa9edd	0.08331082
156	0x3dbbf4ab	0.09177526
157	0x3df39707	0.118940406
158	0x3cd02a22	0.025410715
159	0xbc852d9a	-0.016257096
160	0x3d503708	0.050833732
161	0x3c8deaef	0.01732394
162	0xbd03f1d6	-0.032213055
163	0xbc288d01	-0.010287524
164	0x3cf9bca6	0.030485462
165	0x3daad0dc	0.08340618
166	0xbd61098c	-0.054940745
167	0x3dbef658	0.0932433
168	0x3c8668af	0.016407339
169	0x3db272fd	0.087133385
170	0x3db5b423	0.08872249
171	0x3c4a9771	0.012365208
172	0x3d9bb246	0.07602362
173	0xbc66a157	-0.014076552
174	0xbc86003e	-0.016357537
175	0x3dd624f5	0.10456268
176	0xbc7ef2da	-0.01556083
177	0xbc14a8d8	-0.009073459
178	0xbcdc1925	-0.026867459
179	0x3dda5b3a	0.10661931
180	0x3d3690c3	0.04457165
181	0x3ccc7a5f	0.024960695
182	0xbd296510	-0.041356146
183	0xbd067e7d	-0.032835472
184	0x3b007d51	0.0019605944
185	0x3d482c24	0.04887022
186	0x3d977dd7	0.07397049
187	0xbd8fa604	-0.07014087
188	0x3dae2666	0.08503418
189	0x3da35622	0.07975413
190	0x3e046d6d	0.12932368
191	0x3d12c4a8	0.035832077
192	0x3db7bd59	0.08971662
193	0x3df88171	0.12134064
194	0x3d55e629	0.05222145
195	0x3da416e1	0.08012176
196	0xbb20e9c2	-0.0024553393
197	0x3cba1985	0.022717247
198	0xbc7ef4e2	-0.015561314
199	0xbd3d0cda	-0.046154834
200	0x3d9ff7e5	0.07810954
201	0x3dea1e1c	0.11431524
202	0x3d12e0f4	0.035859063
203	0x3dea4c07	0.11440282
204	0x3d78f517	0.06078061
205	0xbd23ac6c	-0.039959356
206	0x3d825187	0.06363206
207	0x3de139ef	0.10997378
208	0x3c75cf73	0.015003073
209	0x3da4fe33	0.08056297
210	0xbcfb834a	-0.030702252
211	0x3d2859fb	0.041101437
212	0x3c0328f5	0.00800537
213	0xbca5cff0	-0.020240754
214	0xbd00011d	-0.03125106
215	0x3d8e838e	0.06958686
216	0x3d996633	0.07490196
217	0x3d9a5e2f	0.07537495
218	0x3d6680c2	0.056275137
219	0x3dcdbe87	0.10046106
220	0x3da25d5e	0.07927965
221	0xbcb5c898	-0.022190377
222	0x3cba82b9	0.022767412
223	0xbbe41ace	-0.006961203
224	0x3c99eb22	0.018788878
225	0x3d2a4396	0.04156836
226	0xbc2393b0	-0.009983942
227	0x3b58e582	0.0033095782
228	0x3dbc3cd6	0.09191291
229	0x3db83922	0.08995272
230	0x3dca279e	0.09870838
231	0x3cbc6024	0.022995062
232	0x3db87f76	0.09008686
233	0x3da5c7e7	0.08094769
234	0x3ce6a214	0.028153457
235	0xbba6c8ac	-0.00508984
236	0xbd3f1c2c	-0.046657726
237	0x3d31c764	0.043403044
238	0x3dc90310	0.09815037
239	0xbc9420be	-0.018082019
240	0x3db3d9da	0.08781786
241	0x3e00f209	0.12592329
242	0xbd5251ff	-0.05134773
243	0x3dcc631d	0.09979842
244	0xbc670013	-0.014099139
245	0x3d7061b6	0.058686934
246	0xbc4a79ad	-0.012358111
247	0x3d45026e	0.04809802
248	0x3c8fe084	0.017563112
249	0x3dcd9566	0.10038261
250	0x3d1fd9b1	0.039025966
251	0xbd2aec91	-0.041729514
252	0x3ce0e280	0.027451754
253	0x3bc39051	0.0059681316
254	0x3d334bf2	0.0437736
255	0xbd14ab6a	-0.036296286

fc.0.weight f4 [312, 128]
0	0x3ba10132	0.0049134726
1	0x3de48cad	0.11159644
2	0x3d79282d	0.06082933
3	0x3dfd75d4	0.123759896
4	0xbb893d54	-0.004188219
5	0x3df98055	0.121826805
6	0x3d89069d	0.066907145
7	0x3b3f709f	0.0029211415
8	0x3da03616	0.07822816
9	0x3dde8277	0.10864728
10	0x3c208586	0.0097974595
11	0x3e0cc11a	0.13745537
12	0xbd051419	-0.03248987
13	0xbdf2570a	-0.11833008
14	0xbc664c29	-0.014056244
15	0x3e069fa8	0.13146842
16	0xbd0bfe71	-0.0341782
17	0xbce56ad0	-0.028005034
18	0xbdd70c36	-0.10500376
19	0x3bcd994d	0.0062743784
20	0x3d8263fe	0.06366728
21	0x3da416c7	0.08012157
22	0x3d9ab7e1	0.07554603
23	0xbdc92727	-0.09821921
24	0x3deab684	0.11460593
25	0x3de834a9	0.11338169
26	0x3dd5f856	0.10447757
27	0x3d01ce97	0.03169116
28	0x3da29891	0.07939256
29	0xbde4f1f0	-0.111789584
30	0xbdfe7587	-0.1242476
31	0x3cfa554a	0.030558247
32	0x3db5747c	0.08860108
33	0xbdc52563	-0.096262716
34	0xbda0dd7b	-0.07854744
35	0x3c6b394c	0.014356922
36	0xbe0df8ec	-0.13864487
37	0x3dc1e6a8	0.09467822
38	0x3aa39999	0.0012481689
39	0xbc777546	-0.015103644
40	0xbcabbdb6	-0.020964485
41	0xbaa8f875	-0.0012891429
42	0x3b77bf17	0.0037803107
43	0x3e1f20a7	0.155398
44	0x3d02402e	0.031799488
45	0x3d34fa1c	0.044183835
46	0xbd3b75a2	-0.04576648
47	0xbdcad234	-0.09903374
48	0x3ddfff41	0.10937358
49	0xbd239b2c	-0.039942905
50	0x3d8b3366	0.06796913
51	0xbd3433cf	-0.04399472
52	0x3def88fa	0.11696048
53	0xbe12739b	-0.14301912
54	0x3e20645f	0.15663289
55	0xbd77283f	-0.060341116
56	0x3cb829d2	0.022480879
57	0x3bd97994	0.0066368077
58	0x3dda966c	0.10673222
59	0xbd2d1162	-0.042252906
60	0x3d347e66	0.044065855
61	0x3c81ec7c	0.015859835
62	0x3d3156f2	0.043295808
63	0x3e3abf54	0.18237048
64	0x3d975ea5	0.07391099
65	0x3d97ff92	0.07421793
66	0x3e004871	0.12527634
67	0xbd5049b6	-0.050851546
68	0xbcfa5079	-0.03055595
69	0xbc179f1d	-0.009254244
70	0x3db5a2e0	0.088689566
71	0x3deacb6d	0.11464582
72	0xbd41382a	-0.047172703
73	0x3dd16050	0.10223448
74	0x3d1052b8	0.035235137
75	0xbc57e641	-0.013177455
76	0x3d2f69e8	0.04282561
77	0xbc5dd6a3	-0.013539943
78	0xbded57e1	-0.11589027
79	0xbc6e4d95	-0.014544864
80	0xbd9be4bf	-0.07611989
81	0x3d26dc29	0.040737305
82	0xbcdf6aa6	-0.027272534
83	0xbe072b67	-0.1320015
84	0xbc643e7e	-0.013930915
85	0xbd157367	-0.03648701
86	0xbc6bc40a	-0.014390001
87	0x3defd304	0.1171017
88	0xbbf31bb0	-0.007419072
89	0x3dfd3a70	0.12364662
90	0x3d44b28d	0.04802184
91	0x3cf5d38b	0.030008098
92	0x3d0a82f9	0.03381631
93	0x3dbcf6cd	0.09226761
94	0x3cd4e15d	0.025986368
95	0x3d645a12	0.05574996
96	0x3e129491	0.14314486
97	0xbd0f7c97	-0.035030928
98	0x3cf68a29	0.030095177
99	0xbc750ac9	-0.014956185
100	0x3d902854	0.07038942
101	0x3e1018bb	0.14071934
102	0xbdb3501e	-0.087555155
103	0x3ddcc1af	0.1077913
104	0x3e0ad7ac	0.13558835
105	0xbda0e8e8	-0.07856923
106	0x3d4a37af	0.04936951
107	0xbd302834	-0.04300709
108	0xbe1a0ec7	-0.150447
109	0x3ddd4fca	0.10806234
110	0x3c9e9d53	0.019362127
111	0x3cd6cce8	0.026220754
112	0xbdbb4998	-0.09144896
113	0xbc89c0a5	-0.016815493
114	0xbce9da75	-0.028546551
115	0x3dfed10d	0.12442217
116	0xbd111eac	-0.03542964
117	0x3d6db48d	0.058033515
118	0xb5daf698	-1.6314034e-06
119	0xbdf80486	-0.12110238
120	0xbc0ea44f	-0.008706166
121	0xbc9689ac	-0.018376194
122	0x3d5b893b	0.05359767
123	0x3d49a749	0.0492318
124	0x3d03800c	0.032104537
125	0x3b70f06a	0.0036764392
126	0xbe17840e	-0.14796469
127	0x3c95d2d9	0.018289017
128	0x3d0b47a9	0.034003887
129	0x3dd5d5f7	0.10441201
130	0xbda6e108	-0.0814839
131	0xbdc474f9	-0.09592623
132	0x3d0fed65	0.035138506
133	0x3cbbb1d9	0.022911953
134	0xbd20c931	-0.03925437
135	0xbe04e4ec	-0.12977952
136	0x3e09627a	0.13416472
137	0x3c68187b	0.014165993
138	0x3dfeb971	0.12437714
139	0x3d879d8a	0.06621845
140	0xbd96acde	-0.073571905
141	0x3dcba75e	0.09944032
142	0x3dcbfccf	0.09960329
143	0x3dac172e	0.08402859
144	0xbdd3e097	-0.103455715
145	0x3cdac6cb	0.02670612
146	0x3d4671d0	0.048448384
147	0x3df58ee2	0.11990143
148	0x3c13b7a1	0.0090159485
149	0x3dabdba8	0.083915055
150	0xbd4ebd68	-0.0504736
151	0x3d0d8c0b	0.034557384
152	0xbc12d063	-0.008960816
153	0xbc0fd9ea	-0.008779982
154	0x3e056afc	0.13029093
155	0x3dd282da	0.10278864
156	0xbd064bd7	-0.03278717
157	0x3c6936c4	0.014234249
158	0xbcd794f3	-0.026316142
159	0xbd9b9fd2	-0.07598843
160	0x3dd515a6	0.1040452
161	0xbd636175	-0.055512864
162	0xbd1374be	-0.036000006
163	0x3cda11f4	0.026619889
164	0xbe05134f	-0.12995647
165	0xbd45cd75	-0.048291642
166	0x3db3af14	0.08773628
167	0x3e010403	0.12599187
168	0xbd9b9926	-0.0759757
169	0x3d656c90	0.056011736
170	0xbcd9bb44	-0.026578553
171	0x3dee66e7	0.11640721
172	0x3d8bd6c9	0.068280764
173	0x3d43ff50	0.047850907
174	0x3d90ff3e	0.070799336
175	0xbdaad26b	-0.08340915
176	0x3c4efdf3	0.012633788
177	0x3de89505	0.11356548
178	0x3cfec005	0.031097421
179	0xbc1fd5d4	-0.00975557
180	0xbd46c0fc	-0.048523888
181	0x3dbcd67b	0.092205964
182	0x3dc165c9	0.09443242
183	0xbd8641e1	-0.06555534
184	0x3e149b77	0.1451243
185	0x3d69b7e3	0.057060134
186	0x3da0b91c	0.07847807
187	0xbd7230aa	-0.05912844
188	0xbd371a51	-0.04470283
189	0xbd9d3db6	-0.07677786
190	0xbdeb375e	-0.1148517
191	0xbda8fe14	-0.082515866
192	0x3b499bbe	0.0030762996
193	0x3de1f745	0.11033491
194	0x3de570c6	0.112031505
195	0xbaccfffa	-0.0015640252
196	0x3c6cf4fa	0.014462704
197	0x3cf9353c	0.030420892
198	0x3d9045d7	0.07044571
199	0xbd3d702d	-0.046249557
200	0xbd39f831	-0.04540271
201	0xbd238b25	-0.03992762
202	0x3c81ef45	0.015861163
203	0x3d9b5642	0.07584812
204	0x3cf93d72	0.030424807
205	0x3dc83cfe	0.09777258
206	0xbd58167c	-0.052755818
207	0x3be48760	0.006974146
208	0x3c545294	0.012959141
209	0x3e04e650	0.12978482
210	0x3d93d873	0.07219019
211	0x3db3f381	0.08786679
212	0xbc2ae315	-0.010430117
213	0xbcbc0071	-0.02294943
214	0x3deda45c	0.11603615
215	0xbbddc123	-0.0067674085
216	0xbcf90af1	-0.030400725
217	0xbdc550dc	-0.09634563
218	0xbcc81adc	-0.02442687
219	0xbda8fbb2	-0.08251132
220	0x3dfcdff9	0.12347407
221	0x3a33e0f5	0.00068618293
222	0x3d63a65a	0.055578567
223	0x3dd922ab	0.106023155
224	0x3e0503e0	0.1298976
225	0xbb5fe962	-0.0034166207
226	0x3df625d9	0.120189376
227	0xbddac9ce	-0.106830224
228	0x3dd3f092	0.103486195
229	0x3da1d165	0.07901267
230	0xbda9557c	-0.08268258
231	0x3d2d4ab6	0.042307578
232	0xbcb1045a	-0.02160852
233	0xbdba9cd6	-0.09111945
234	0x3bff0bdf	0.0077833976
235	0xbc24c049	-0.01005561
236	0x3d4e5960	0.050378203
237	0x3dc5c950	0.09657538
238	0xbb2fdb7c	-0.0026833704
239	0x3ce55866	0.027996253
240	0x3dfe04ec	0.124032825
241	0x3d6bd24f	0.057573613
242	0xbcf76ed6	-0.030204218
243	0x3dbfea6e	0.09370886
244	0xbc11b940	-0.008894265
245	0x3d918db9	0.071071096
246	0xbbe3e46f	-0.0069547216
247	0x3d765308	0.06013778
248	0xbccccdab	-0.025000414
249	0x39c20fa3	0.00037014214
250	0x3db6fdfa	0.08935161
251	0xbd7e6ffb	-0.06211851
252	0xbcb60198	-0.022217557
253	0xbdfe49d1	-0.12416423
254	0x3c9ba28f	0.018998412
255	0xbde8b4e6	-0.11362629

fc.2.bias f4 [156]
0	0xbcc04729	-0.023471432
1	0xbd8b9fec	-0.06817612
2	0xbccccfef	-0.025001494
3	0xbdcc21b1	-0.099673636
4	0x3c5ebe66	0.013595199
5	0x3d451b51	0.048121754
6	0xbc51864f	-0.012788369
7	0xbaa7f6c8	-0.0012814635
8	0x3d287043	0.041122686
9	0xbb9d2338	-0.004795458
10	0xbbf5be99	-0.0074995277
11	0xbd9c1d4f	-0.07622778
12	0x3cbbd37f	0.022927998
13	0x3d23cbac	0.03998916
14	0xbd5c339b	-0.053760152
15	0xbc0c5e59	-0.008567416
16	0xbd58710b	-0.05284218
17	0x3d7e3042	0.06205774
18	0x3da33542	0.079691425
19	0xbcd281ef	-0.025696723
20	0x3d4bf5bf	0.04979491
21	0x3d309b12	0.043116637
22	0x3d4c20d4	0.049835995
23	0x3d16a179	0.036775086
24	0x3be6e7b1	0.0070466627
25	0xbc4d5d30	-0.012534425
26	0xbc9939d0	-0.018704325
27	0xbcd1f4c3	-0.025629407
28	0xbd207a94	-0.0391794
29	0x3d1badb4	0.038007453
30	0xbcf9c693	-0.030490195
31	0x3d1850bc	0.03718637
32	0x3d220e55	0.03956445
33	0xbd038278	-0.032106847
34	0xbd3a7d93	-0.045529913
35	0xbb3b9642	-0.0028623496
36	0xbdda178b	-0.10649022
37	0x3d0aabe3	0.03385533
38	0x3c7fbfdd	0.015609709
39	0x3d0c489e	0.03424894
40	0xbc84506e	-0.016151633
41	0xbd8e7bc4	-0.069572
42	0xbdbfa5b2	-0.09357776
43	0x3d0a9321	0.03383172
44	0x3d88d852	0.06681885
45	0x3d4fbfbd	0.050719965
46	0xbd93dd61	-0.07219959
47	0x3ac3e89f	0.0014946646
48	0x3d380c80	0.044933796
49	0xbd93fe6d	-0.07226262
50	0xbd877e6c	-0.0661591
51	0xbced2282	-0.028947119
52	0x3bf3386b	0.007422497
53	0xbcfad2ae	-0.030618038
54	0xbc40f856	-0.011777958
55	0x3be37d4f	0.006942428
56	0x3d0ebc51	0.03484756
57	0x3d7821e4	0.060579196
58	0xbd74ea68	-0.05979386
59	0xbb9fef80	-0.0048808455
60	0xbd7e1421	-0.062030915
61	0x3ca917c6	0.020641219
62	0x3ca1e0eb	0.01976057
63	0xbcda555f	-0.026652036
64	0x3d0df117	0.03465375
65	0x3bcd1b3a	0.006259349
66	0x3c287936	0.010282805
67	0x3d4354fd	0.047688473
68	0x3b87db49	0.004146014
69	0x3c980f51	0.018561991
70	0x3b4aa375	0.0030920182
71	0xbbb9fbf1	-0.0056757857
72	0x3cb96619	0.022631692
73	0x3cf2654c	0.029589318
74	0xbc13271c	-0.008981492
75	0xbd3d3fbe	-0.046203367
76	0x3cb6b55c	0.022303276
77	0x3d057267	0.032579806
78	0xbc59edeb	-0.013301353
79	0x3d040c54	0.03223832
80	0xbcc3b823	-0.023891514
81	0x3cb29ae2	0.02180237
82	0x3be79fed	0.007068625
83	0x3d6d567d	0.05794381
84	0xbd0481d5	-0.03235038
85	0xbd6319bc	-0.055444464
86	0xbcf87b74	-0.030332305
87	0xbcbc4eae	-0.022986736
88	0x3b776b22	0.0037753065
89	0xbdabc861	-0.083878286
90	0x3c2d7a04	0.010588173
91	0x3ca8e559	0.020617174
92	0x3cad65c7	0.021166695
93	0xbd823b02	-0.06358911
94	0xbda602c2	-0.08105995
95	0x3d1d5be9	0.03841773
96	0xbcf325cd	-0.02968111
97	0xbc5e519d	-0.013569263
98	0xbbeb53a1	-0.0071816
99	0xbc2230dc	-0.009899344
100	0xbd37a683	-0.044836532
101	0x3c7a879f	0.015291124
102	0xbda35d0b	-0.07976731
103	0xbce609ff	-0.028080938
104	0xbd234352	-0.039859124
105	0xbd1c4808	-0.03815463
106	0xbca56df9	-0.02019404
107	0x3da5272d	0.08064113
108	0xbdaebe4f	-0.08532392
109	0xbd86f119	-0.065889545
110	0xbceea4a4	-0.029131241
111	0xbd247592	-0.040151186
112	0xbdb9a126	-0.0906394
113	0xbcb0ea82	-0.021596197
114	0x3c95b570	0.018274993
115	0xbc820a12	-0.015873943
116	0xbca571da	-0.02019589
117	0xbd96c3d1	-0.07361568
118	0x3c900797	0.017581744
119	0xbdc112c8	-0.0942741
120	0xbd850d34	-0.06496659
121	0x3d184b75	0.037181336
122	0x3d8e0837	0.069351606
123	0xbc655830	-0.013998076
124	0xbc7fd2ab	-0.015614192
125	0xbcc69113	-0.024239099
126	0xbd0077f7	-0.031364407
127	0xbd8e82fc	-0.06958577
128	0xbd70f3c2	-0.058826216
129	0xbc4155ed	-0.011800271
130	0x3d062c2c	0.03275697
131	0xbd8b53ec	-0.06803116
132	0xbd239411	-0.03993613
133	0xbd455b08	-0.048182517
134	0x3c645bd5	0.01393791
135	0xbc15f067	-0.009151555
136	0xbce2a785	-0.02766777
137	0xbccd5513	-0.02506498
138	0xbd4f3e13	-0.050596308
139	0x3d082b87	0.033244636
140	0xbd1d2109	-0.038361583
141	0x3bd67f8b	0.006545966
142	0xbb03ae44	-0.0020092884
143	0x3cab30c4	0.020897277
144	0x3d2156ed	0.03938954
145	0xbd3f464a	-0.046697892
146	0x3ca5b0ae	0.020225849
147	0xbd8f23ab	-0.06989225
148	0x3b8c8dd7	0.0042893696
149	0x3cc3d106	0.023903381
150	0xbccb1c66	-0.024793815
151	0x3bdb3a1c	0.006690277
152	0xbbeecd8b	-0.007287686
153	0xbc8c7574	-0.01714585
154	0xbc810bc8	-0.015752688
155	0x3c74efa5	0.014949714

fc.2.weight f4 [156, 312]
0	0xbd1d10b4	-0.038346007
1	0x3d49ce75	0.04926916
2	0xbbf2da2d	-0.0074112625
3	0x3d3df1be	0.04637312
4	0xbdc604e3	-0.09668901
5	0x3c1bdfbe	0.0095137935
6	0xbd18b10f	-0.03727823
7	0xbd91d38e	-0.07120429
8	0xbc69b640	-0.014264643
9	0xbd86fd27	-0.06591254
10	0x3ceaaf35	0.028647998
11	0xbccd2b1a	-0.025044966
12	0x3d13605d	0.03598057
13	0x3db83c44	0.0899587
14	0xbcf8c986	-0.030369531
15	0x3d46be58	0.04852137
16	0x3c56919a	0.013096238
17	0xbd32d57b	-0.043660622
18	0xbdea2951	-0.11433662
19	0x3926517b	0.00015861347
20	0x3d49fa1d	0.049310792
21	0xbd83d0c9	-0.06436307
22	0xbda9148c	-0.08255872
23	0xbda0452a	-0.07825692
24	0x3d9dc07d	0.0770273
25	0xbd3bb140	-0.045823336
26	0x3dcff0a2	0.10153319
27	0xbd974ea1	-0.07388044
28	0xbd19e2b0	-0.0375697
29	0x3de6c21d	0.11267493
30	0xbd83953e	-0.0642495
31	0xbd6c0d76	-0.057630025
32	0x3d06f927	0.032952454
33	0xbc8bca72	-0.017064307
34	0x3cc83595	0.024439612
35	0xbda558b2	-0.08073558
36	0xbd2c2ae0	-0.042033076
37	0x3c5e928a	0.013584742
38	0xbd3cd7b1	-0.046104137
39	0xbc05f4f4	-0.008176077
40	0xbd83f3f3	-0.06443014
41	0x3d3793bb	0.04481862
42	0x3d7e5e9f	0.062101956
43	0x3ce1c7b1	0.02756104
44	0xbbdf5ec1	-0.0068167155
45	0x3d066397	0.03280982
46	0xbdb77edd	-0.08959744
47	0x3d864b60	0.065573454
48	0xbbf78c13	-0.00755454
49	0x3cbf6626	0.023364138
50	0xbd6eb899	-0.058281515
51	0xbd3051fc	-0.043046936
52	0x3d183c80	0.037167072
53	0xbdd4ea77	-0.10396283
54	0xbd0c7ab3	-0.034296703
55	0xbd3e92eb	-0.04652683
56	0x3bc95e75	0.0061452934
57	0x3d9981ce	0.074954614
58	0xbd4cdf2a	-0.050017513
59	0x3d2015f3	0.039083432
60	0x3cf20f36	0.029548269
61	0x3d83cafa	0.06435199
62	0x3bc7bd13	0.0060955375
63	0xbdd4a1ec	-0.10382447
64	0xbda8edff	-0.08248519
65	0x3d8d182e	0.068893775
66	0x3d8703ed	0.06592546
67	0x3c938b17	0.01801066
68	0x3b53e978	0.0032335203
69	0x3d94a6a9	0.072583504
70	0x3c356672	0.011071788
71	0xbd20b784	-0.039237514
72	0x3ce2fa87	0.027707351
73	0x3d9db405	0.077003516
74	0x3cc8429e	0.024445828
75	0xbc73534c	-0.0148514025
76	0xbcdcf886	-0.026973974
77	0xbdcc4e56	-0.09975879
78	0x3a7e731a	0.00097064825
79	0xbda30545	-0.079599895
80	0xbd6ea7e3	-0.058265578
81	0x3d7073f1	0.05870432
82	0x38630149	5.4122214e-05
83	0x3db92943	0.09041073
84	0xbce869eb	-0.028370818
85	0x3ca994b4	0.02070079
86	0x3d3d532e	0.046221904
87	0xbd5817b6	-0.052756988
88	0x3d8a8fd3	0.067657135
89	0xbdb8e912	-0.0902883
90	0xbdf552a5	-0.11978654
91	0x3db88390	0.090094686
92	0xbdb9c98d	-0.09071646
93	0x3db029a4	0.08601692
94	0xbc29b955	-0.010359128
95	0xbd6b22b9	-0.05740616
96	0x3ca22f8c	0.019798063
97	0x3d76db87	0.06026795
98	0xbd717d03	-0.05895711
99	0xbd3d62a1	-0.046236638
100	0x3da19cab	0.0789121
101	0x3d022683	0.03177501
102	0x3da93e1f	0.08263802
103	0xbcd28594	-0.02569846
104	0xbd9d3bf9	-0.076774545
105	0xbc151ef3	-0.009101617
106	0x3d50d350	0.050982773
107	0x3c1eb7b2	0.009687351
108	0xbdc35438	-0.09537548
109	0x3b91ea77	0.004452999
110	0xbd05e9a5	-0.032693524
111	0xbc0e4a9d	-0.008684781
112	0xbdad10c9	-0.08450467
113	0xbdc73de7	-0.09728604
114	0x3c6d4796	0.014482399
115	0xbca83c7d	-0.020536656
116	0x3c56bd28	0.013106622
117	0xbd05ece7	-0.03269663
118	0x3d7ae685	0.061254997
119	0xbda1ba80	-0.078969
120	0xbe22efcf	-0.15911792
121	0xbc0d2274	-0.008614171
122	0xbdc57eb7	-0.096433096
123	0xbde6d3fd	-0.11270902
124	0x3dda8b03	0.10671046
125	0x3c5174ce	0.012784196
126	0xbe02ca0a	-0.12772384
127	0xbd8540ad	-0.065064766
128	0xbdadb458	-0.084816635
129	0x3dbaf16d	0.091280796
130	0xbaa30320	-0.0012436844
131	0xbd257df1	-0.04040331
132	0x3dae5d81	0.08513928
133	0xbdc25b4b	-0.09490069
134	0xbb25d201	-0.0025302174
135	0x3dc3667f	0.09541034
136	0xbd9a4706	-0.07533078
137	0xbc47b81f	-0.012189894
138	0x3dac6172	0.08417024
139	0x3c717dc4	0.0147394575
140	0xbbfdd282	-0.0077460418
141	0xbdd7b4e0	-0.10532546
142	0x3d7355e2	0.059408076
143	0xbd640107	-0.055665042
144	0xbef85af2	-0.48506886
145	0xbd717ca6	-0.058956765
146	0xbbf2d5d1	-0.007410743
147	0x3d451ff3	0.048126172
148	0xbdbb664e	-0.091503724
149	0x3d90d913	0.070726536
150	0xbd08585c	-0.03328739
151	0x3c322881	0.010873915
152	0x3cb67227	0.022271229
153	0x3d135eb6	0.035978995
154	0xbd0e8544	-0.03479506
155	0x3d21dea0	0.039518952
156	0x3c2c7587	0.010526068
157	0xbb91bdb7	-0.0044476646
158	0xbcf2d00f	-0.029640226
159	0x3dd4f32f	0.10397946
160	0xbdbde3c6	-0.0927196
161	0xbc917c53	-0.017759478
162	0xbd11328c	-0.035448596
163	0x3dcd5f86	0.10027985
164	0xbdd8b67b	-0.105816804
165	0xbdddac03	-0.10823824
166	0x3c464dd4	0.012103517
167	0xbd877388	-0.06613833
168	0xbd8f8db9	-0.07009453
169	0x3dc7c545	0.09754423
170	0x3d18d37e	0.03731107
171	0xbd6fa011	-0.05850226
172	0xbd5c0338	-0.053714007
173	0xbd8ddec0	-0.06927252
174	0x3d5d572c	0.05403821
175	0x3d85e90e	0.06538592
176	0xbe0494f7	-0.1294745
177	0xbdbd6825	-0.092483796
178	0xbbc7679b	-0.006085349
179	0x3d58d249	0.05293492
180	0xbceb40de	-0.028717455
181	0x3c086505	0.008324866
182	0xbc08c134	-0.008346844
183	0xbd35fc00	-0.04442978
184	0x3cd0ae56	0.025473755
185	0x3d22adc3	0.039716493
186	0xbced70c2	-0.028984431
187	0x3bfc3b26	0.0076974807
188	0x3d9d5ede	0.0768411
189	0x3c7b7236	0.015347054
190	0xbda3ae94	-0.079922825
191	0xbd8ac751	-0.06776298
192	0xbdd02523	-0.10163333
193	0x3cd5aa75	0.026082257
194	0x3d0c7c1d	0.03429805
195	0x3c6a7a17	0.014311335
196	0xbd128b82	-0.035777576
197	0x3d9dda07	0.07707601
198	0x3d60f953	0.054925274
199	0x3dc240e8	0.09485036
200	0xbbbf5366	-0.0058387993
201	0xbd2a5833	-0.04158802
202	0x3d7ec9cc	0.062204167
203	0x3d2741ee	0.04083436
204	0xbde1090f	-0.10988056
205	0xbda261f1	-0.07928837
206	0x3dae8eb7	0.085233144
207	0xbd7d23b4	-0.061801627
208	0x3c24d796	0.010061165
209	0x3de7191e	0.112840876
210	0xbd5086c5	-0.050909776
211	0x3bf5a4dd	0.00749646
212	0xbe0b09f8	-0.13578022
213	0xbafd340e	-0.0019317882
214	0x3d631078	0.055435628
215	0xbd2dad4d	-0.0424016
216	0x3d9454f7	0.07242768
217	0xbc10b017	-0.008831046
218	0xbcb3e4fd	-0.021959776
219	0x3db0c90a	0.08632095
220	0x3da6580c	0.08122262
221	0x3c6a16f7	0.014287702
222	0xbad53dc4	-0.0016269018
223	0xbd969359	-0.07352323
224	0xbda8afcd	-0.08236656
225	0xbdb6939c	-0.08914873
226	0x3ddd6990	0.1081115
227	0x3dc10d11	0.0942632
228	0xbbb01774	-0.0053738896
229	0xbca27b8d	-0.019834304
230	0xbdbe17a2	-0.09281851
231	0xbddce128	-0.10785133
232	0x3d82f012	0.06393446
233	0xbdd8456b	-0.105601154
234	0x3ae6f788	0.0017621377
235	0xbd3db922	-0.046319135
236	0xbd705fda	-0.05868516
237	0xbd99acb2	-0.07503642
238	0x3de9d978	0.11418432
239	0xbdc6b2eb	-0.09702095
240	0xbdb52b94	-0.088462025
241	0x3b3b8536	0.0028613335
242	0x3d5f41b3	0.054506015
243	0xbd9db417	-0.07700365
244	0xbca24ee6	-0.019813012
245	0x3cdf46af	0.027255384
246	0xbd40ba2f	-0.04705256
247	0xbd2715b5	-0.040792186
248	0xbd995b22	-0.07488085
249	0xbdcbda4e	-0.09953748
250	0x3d33f6b3	0.043936443
251	0x3ca31f85	0.01991249
252	0xbd3c3491	-0.04594857
253	0xbd1add66	-0.0378088
254	0x3cfdd829	0.030986862
255	0x3d6e4c19	0.05817804
