inventory/ark_material.onnx (onnx, 653098 bytes, 8 tensors)

35 f4 [8, 3, 5, 5]
0	0xbc3dd4bc	-0.011586364
1	0xbe316171	-0.17322327
2	0x3e9e2f96	0.3089568
3	0x3e01a46f	0.12660383
4	0x3e33c13e	0.17554185
5	0x3db08a95	0.086201824
6	0x3e82aa57	0.25520584
7	0xbe6400a6	-0.22265872
8	0x3c505b4b	0.012717078
9	0x3e042433	0.12904434
10	0x3eabd1d0	0.33558512
11	0x3eba9e0a	0.364487
12	0xbe11bb24	-0.14231545
13	0x3dc86f27	0.097868256
14	0xbd08cfeb	-0.03340141
15	0x3e8772d9	0.2645481
16	0xbc9f11a3	-0.01941759
17	0xbe83bcaa	-0.25729877
18	0x3de84f39	0.113432355
19	0xbc139b50	-0.009009197
20	0x3e82db0a	0.2555774
21	0xbe87490f	-0.26422927
22	0x3dcbf37b	0.099585496
23	0x3de94db5	0.113917746
24	0xbc642621	-0.013925106
25	0x3e8655ac	0.26237237
26	0xbdb3491f	-0.08754181
27	0xbeaa8d91	-0.33311132
28	0xbe8c78a3	-0.2743579
29	0xbd8e2345	-0.06940321
30	0x3e202c03	0.15641789
31	0xbe8421d8	-0.2580707
32	0xbe8a2cda	-0.26987344
33	0xbea96cea	-0.33090907
34	0xbea0a506	-0.31375903
35	0xbe04fac7	-0.12986289
36	0x3cce746e	0.025202002
37	0xbd84b428	-0.064796746
38	0xbee7d408	-0.45278955
39	0xbedf34dd	-0.4359502
40	0xbe71c732	-0.23611143
41	0xbdf8cfba	-0.12148996
42	0xbddbd14f	-0.10733282
43	0xbe2ff694	-0.17183906
44	0xbd9d0717	-0.07667368
45	0xbe6f209e	-0.23352286
46	0xbe368ec9	-0.17827906
47	0xbe9839ad	-0.29731503
48	0xbedde68f	-0.43339965
49	0xbe828a6f	-0.2549624
50	0x3da8a179	0.082339235
51	0xbd8d3a3e	-0.068958744
52	0xbea06ffa	-0.3133543
53	0x3e7ccf34	0.24688417
54	0xbd8f5ed0	-0.07000506
55	0x3dd55af7	0.10417741
56	0x3d7324b2	0.059361167
57	0x3e0faa82	0.14029887
58	0xbd90d9c3	-0.07072785
59	0x3e782a57	0.24234901
60	0xbe46571c	-0.19369167
61	0xbe0e4586	-0.13893709
62	0xbeb5e75c	-0.35528076
63	0x3dad0ac6	0.084493205
64	0xbe909d03	-0.2824479
65	0x3e17342c	0.14765996
66	0x3bfe68b2	0.0077639455
67	0x3e8000c2	0.25000578
68	0xbe54de7b	-0.20787995
69	0xbe14022b	-0.14453952
70	0x3b4ff09d	0.003172911
71	0xbda55d15	-0.080743946
72	0x3d988b92	0.07448496
73	0xbe8e9a9a	-0.27852327
74	0x3df7ed8c	0.12105855
75	0x3e97e588	0.29667306
76	0xbe545cea	-0.20738569
77	0x3e6680ef	0.22510122
78	0xbda13e7c	-0.07873246
79	0xbec09893	-0.37616405
80	0xbc347934	-0.011015225
81	0x3d61ae8b	0.055098098
82	0xbeada320	-0.33913517
83	0x3dbb1c0b	0.09136208
84	0x3e5a85d0	0.21340108
85	0xbe98501c	-0.2974862
86	0xbe2b977b	-0.16757004
87	0x3db25ce7	0.08709126
88	0x3eb10540	0.34574318
89	0xbe83508a	-0.25647384
90	0xbe5462cf	-0.20740817
91	0xbed0515c	-0.40687072
92	0xbe27f931	-0.16403653
93	0x3ea2a092	0.3176313
94	0xbe88781e	-0.26654142
95	0xbe23a65c	-0.1598143
96	0xbec219f3	-0.37910423
97	0x3e353f2b	0.17699878
98	0x3cd4b2d1	0.025964173
99	0xbe666012	-0.22497585
100	0xbe65b8d6	-0.2243379
101	0x3ea80db2	0.3282295
102	0x3e8cbc8f	0.2748761
103	0x3e8f559f	0.2799501
104	0x3e97da20	0.29658604
105	0x3df39610	0.118938565
106	0x3ee7f8fb	0.45307145
107	0x3ee2fec6	0.44335002
108	0x3d010d1a	0.031506635
109	0x3d6e2fcb	0.058151048
110	0xbed2d16a	-0.41175395
111	0x3ed74ace	0.4204926
112	0x3f0a434f	0.54008955
113	0x3efebf6b	0.49755415
114	0x3dccf7f1	0.100082286
115	0xbcc637b4	-0.024196483
116	0xbebd438b	-0.36965594
117	0x3e1566d2	0.14590004
118	0xbec64937	-0.38727733
119	0x3ed092ee	0.40737098
120	0xbe37c293	-0.17945318
121	0xbf0876ff	-0.53306574
122	0x3e7cc866	0.24685821
123	0xbd02baeb	-0.03191654
124	0x3e6d3385	0.23164184
125	0xbcaa25ab	-0.020769915
126	0x3eb5893f	0.35456273
127	0x3e63e0dc	0.22253746
128	0x3e860782	0.26177603
129	0x3e1416fd	0.14461894
130	0x3e7474e6	0.23872718
131	0xbe4e964f	-0.20174526
132	0x3ea80bd1	0.32821515
133	0xbe44344d	-0.19160576
134	0xbe493f50	-0.19653058
135	0xbe8750f4	-0.2642895
136	0x3e17c3f4	0.14820844
137	0xbe8bf62d	-0.27336255
138	0x3eb4b4e9	0.35294273
139	0x3d5e7727	0.05431285
140	0x3b56b89d	0.0032763847
141	0x3e00306c	0.12518471
142	0x3e9dce8e	0.3082165
143	0x3e3ed1b6	0.18634686
144	0xbdbc931e	-0.09207748
145	0xbe23771f	-0.1596341
146	0x3e81dcf7	0.25363895
147	0xbefdcd41	-0.4957066
148	0xbe6d551d	-0.23177
149	0x3e1bf087	0.15228473
150	0xbe590a93	-0.2119544
151	0x3e2bd3ee	0.16780064
152	0x3e20b3e9	0.1569363
153	0x3e6c7749	0.23092379
154	0xbc8afa5e	-0.016965088
155	0x3e961036	0.29309243
156	0xbe9c03e8	-0.3047173
157	0xbe8478bb	-0.2587336
158	0xbec1ff2a	-0.37889987
159	0x3de506c0	0.11182928
160	0x3d8d08ff	0.068864815
161	0xbdc28ca6	-0.09499483
162	0xbcec34d5	-0.028833786
163	0xbe079ea0	-0.13244104
164	0xbe8339a1	-0.25629905
165	0x3e9a61c0	0.30152702
166	0x3e4ee013	0.20202665
167	0x3e321f11	0.17394663
168	0x3dbc3734	0.09190217
169	0x3eb8c34c	0.360865
170	0x3ec2071b	0.37896046
171	0x3ee8c470	0.4546237
172	0x3e7fa6a7	0.24965917
173	0x3f1b37e1	0.6063214
174	0x3b5fe84b	0.0034165557
175	0xbd21cac6	-0.03950002
176	0x3d79dd86	0.061002277
177	0xbed4d9bf	-0.41572377
178	0x3d21e569	0.039525423
179	0xbe94798c	-0.28998983
180	0x3e3e669d	0.18593831
181	0xbe6741c2	-0.22583678
182	0x3d94b1cf	0.07260477
183	0xbe970cab	-0.29501852
184	0xbef78a63	-0.48347768
185	0x3e473e96	0.19457468
186	0x3ea327b0	0.31866217
187	0x3e85dc74	0.26144755
188	0x3e418fd8	0.18902528
189	0xbe08af60	-0.1334815
190	0xbda848b6	-0.082169935
191	0xbe5bd00b	-0.21466081
192	0x3e789d83	0.24278836
193	0x3e2e8378	0.17042339
194	0x3e75eaca	0.24015346
195	0xbe0e9cfa	-0.1392707
196	0x3e9ce735	0.30645147
197	0x3e7cd0c9	0.2468902
198	0xbdd3e06f	-0.10345542
199	0x3ebb760a	0.36613494
200	0xbe9147b7	-0.28375027
201	0xbe43aa77	-0.19107996
202	0x3d9b0dfe	0.07571028
203	0xbec3180c	-0.38104284
204	0x3dfee557	0.12446087
205	0x3e88282f	0.26593158
206	0x3d839088	0.064240515
207	0xbe59ab3e	-0.2125673
208	0x3e132cca	0.14372554
209	0xbe7e71b8	-0.24848068
210	0xbd22ed3c	-0.039777026
211	0xbe6727dd	-0.225738
212	0x3cd85d14	0.02641157
213	0xbec77939	-0.38959673
214	0x3ead0cb5	0.33798757
215	0xbe0e4a18	-0.13895452
216	0xbdc31716	-0.09525888
217	0x3eb52be9	0.35385063
218	0xbdd51cb1	-0.10405863
219	0x3e0acadc	0.13553947
220	0x3e318f39	0.17339791
221	0x3e920191	0.2851682
222	0x3e8791a3	0.264783
223	0xbe2d6ed1	-0.16936804
224	0x3ee76a49	0.45198277
225	0x3e48dd32	0.1961563
226	0xbed14889	-0.40875652
227	0xbe89d613	-0.26921138
228	0xbef32ddf	-0.47495934
229	0xbee6a7e3	-0.45049962
230	0x3e41554a	0.18880191
231	0xbdbfdaee	-0.093679294
232	0x3e3ff9dd	0.18747659
233	0xbd66697a	-0.056252934
234	0xbeb26518	-0.34842753
235	0x3e466357	0.19373833
236	0xbd1f0cc7	-0.038830545
237	0x3c226a7a	0.009913081
238	0xbedb44ab	-0.42825827
239	0x3e4b9c5c	0.19883865
240	0x3deaf8e3	0.114732526
241	0x3efa5334	0.48891604
242	0x3e7f3786	0.24923524
243	0xbe5d48fa	-0.2160987
244	0x3d338115	0.043824274
245	0x3d05a89f	0.032631513
246	0xbe52dd74	-0.2059229
247	0x3ecbc5ab	0.39799246
248	0xbe30811e	-0.17236754
249	0x3e011ce5	0.12608679
250	0xbaa3f7a9	-0.0012509722
251	0xbe48b6c5	-0.19600971
252	0xbd9f5a64	-0.077809125
253	0xbeadbf74	-0.3393513
254	0x3d227df2	0.039670892
255	0x3e489849	0.19589342

36 f4 [8]
0	0x3fe60d40	1.7972794
1	0xbf87a9e5	-1.0598723
2	0xbfa09294	-1.2544732
3	0x3f3068fc	0.68910193
4	0x3ef8c75e	0.48589605
5	0x3ecbfb4b	0.3984016
6	0xbf40c203	-0.7529604
7	0x3fed5e7e	1.8544462

38 f4 [16, 8, 3, 3]
0	0x3c60c225	0.013718163
1	0x3e37aaea	0.17936292
2	0x3edd91fe	0.43275446
3	0xbde3fbf9	-0.11132044
4	0x3f901156	1.125529
5	0x3f81738d	1.0113388
6	0x3e231d85	0.1592923
7	0x3e8eae36	0.27867287
8	0xbe0577d3	-0.1303399
9	0x3f19ecb8	0.6012683
10	0x3f908a21	1.1292154
11	0xbe06841a	-0.1313633
12	0x3e24ed2a	0.16106096
13	0x3f3f0d0b	0.74629277
14	0x3e173983	0.14768033
15	0xbeb2043f	-0.34768865
16	0x3e0df611	0.13863398
17	0xbeed2f8d	-0.4632534
18	0x3f03979d	0.5140322
19	0x3f2b29d5	0.66860706
20	0xbda9af3c	-0.082853764
21	0x3e362b1a	0.1778988
22	0x3f5c6aed	0.86100656
23	0x3ebd0707	0.36919424
24	0xbf327ff4	-0.6972649
25	0x3fa3e9a7	1.280568
26	0xbb31951d	-0.0027096935
27	0xbd7eae3a	-0.062177874
28	0x3e0e70ee	0.13910267
29	0xbd7aeb73	-0.061259698
30	0x3f0bed6a	0.5465914
31	0x3ec56b9c	0.38558662
32	0xbdc237f6	-0.0948333
33	0xbe4263cc	-0.18983382
34	0x3e2b65d8	0.16738069
35	0x3f16ca84	0.58902764
36	0x3f1834ce	0.59455574
37	0x3f2ea572	0.682212
38	0xbf6129b8	-0.8795428
39	0x3f352446	0.70758474
40	0x3eea9be0	0.45822048
41	0x3f42f70e	0.76158226
42	0xbef4ae6e	-0.4778933
43	0x3eaafa70	0.33394194
44	0x3e9f2f89	0.31090954
45	0xbde22398	-0.11041945
46	0x3e25d89e	0.16195914
47	0x3e8cdf13	0.27513942
48	0xbc9ef86f	-0.019405572
49	0xbf2251cd	-0.6340607
50	0xbdead9c1	-0.114673145
51	0x3f46c2c2	0.77640927
52	0xbf33e905	-0.70277435
53	0xbf26a6e4	-0.65098405
54	0x3e275031	0.16339184
55	0xbf10b4e2	-0.56526005
56	0xbf01dafc	-0.5072477
57	0xbf3820dc	-0.7192514
58	0xbe53d14c	-0.20685309
59	0xbf2c8d78	-0.67403364
60	0xbf5a06e2	-0.8516675
61	0xbf8cea12	-1.1008933
62	0x3e89105e	0.267703
63	0xbdbf2563	-0.09333303
64	0x3eaadd45	0.3337194
65	0xbeeccec3	-0.46251497
66	0xbf4647e4	-0.77453446
67	0x3e2fdd0a	0.17174163
68	0x3f725412	0.9465953
69	0xbf0a7b65	-0.54094535
70	0x3da736b7	0.08164733
71	0xbf1f97c0	-0.6234093
72	0x3d906593	0.07050624
73	0x3bdd7b13	0.0067590564
74	0xbf597133	-0.84938353
75	0x3f227ebf	0.6347465
76	0xbf304caa	-0.6886698
77	0xbf554742	-0.83311856
78	0xbeb11370	-0.34585142
79	0xbf3bf3db	-0.7341897
80	0xbef2de29	-0.4743512
81	0x3ec089ab	0.37605032
82	0xbec676c0	-0.38762474
83	0xbf32d195	-0.69851047
84	0x3ea71e24	0.32640183
85	0x3f4fbcf2	0.8114768
86	0xbf7872e8	-0.97050333
87	0x3cad890b	0.021183511
88	0x3fa08779	1.2541343
89	0x3f0fa80f	0.5611581
90	0x3ea05534	0.31315005
91	0xbf4a0f52	-0.78929627
92	0xbeb25158	-0.34827685
93	0xbf307ee2	-0.6894361
94	0xbe461b28	-0.19346297
95	0xbf62a4b3	-0.8853256
96	0xbf3db39e	-0.741022
97	0xbe777512	-0.24165753
98	0x3e477ad0	0.19480443
99	0x3ecf84a8	0.40530896
100	0x3e9ff2cd	0.3123993
101	0xbe18c4a4	-0.14918762
102	0xbf69e911	-0.91371256
103	0xbe55d892	-0.20883396
104	0x3f288dac	0.65841174
105	0xbea00d50	-0.31260157
106	0xbd8238ae	-0.06358467
107	0xbf6a262d	-0.914645
108	0x3ebb5275	0.36586347
109	0x3ebee091	0.37280706
110	0x3ed33e29	0.41258362
111	0x3f28bb74	0.6591103
112	0xbeb939a8	-0.361768
113	0xbef94b17	-0.48690102
114	0x3e4ab591	0.19795825
115	0x3f88216b	1.0635198
116	0xbec4b1c3	-0.3841687
117	0x3e6b6a78	0.22989833
118	0xbf06dcb6	-0.5268053
119	0x3c84d2f9	0.01621388
120	0xbe9cb2d1	-0.30605176
121	0xbe7abb9d	-0.24485631
122	0xbd94922f	-0.07254445
123	0xbd056b91	-0.032573286
124	0xbe917471	-0.2840915
125	0xbf03c7ab	-0.51476544
126	0x3d96ad10	0.07357228
127	0x3f0ce13e	0.5503119
128	0xbe235142	-0.15948966
129	0xbd97f325	-0.07419423
130	0xbf81fe0c	-1.0155654
131	0x3f2c02b0	0.671916
132	0xbefb30ab	-0.49060568
133	0xbf7babea	-0.98309195
134	0x3f42063f	0.7579078
135	0xbf4f5c28	-0.80999994
136	0x3f582ab3	0.84440154
137	0x3f022c7b	0.5084912
138	0x3e962f44	0.29332936
139	0xbd0017f6	-0.03127285
140	0x3ee71110	0.45130205
141	0x3e342f4d	0.17596169
142	0xbf8ef01c	-1.1167026
143	0x3f01f16f	0.50759023
144	0xbe45c541	-0.19313528
145	0x3f028ca4	0.5099585
146	0xbe92e5c0	-0.2869091
147	0x3dc9ffee	0.09863268
148	0x3d77044b	0.06030683
149	0x3e8d0672	0.2754398
150	0x3ed0cfab	0.40783438
151	0x3f91b238	1.1382513
152	0x3d14cd9e	0.036328904
153	0x3f1b6782	0.60704815
154	0xbd9588c7	-0.07301479
155	0xbf2d6c69	-0.67743546
156	0x3ef0edff	0.47056577
157	0x3fb88f84	1.4418797
158	0x3f18fad2	0.5975772
159	0xbee4afed	-0.4466547
160	0x3ea63105	0.32459274
161	0x3f3c6abe	0.73600376
162	0xbf5e7b1b	-0.86906594
163	0x3ef644e1	0.48099425
164	0x3f10904f	0.564702
165	0xbf54f20e	-0.83181846
166	0x3fca7e6f	1.5819834
167	0x3f209421	0.62726027
168	0xbf132b23	-0.57487696
169	0x3e3fd3f8	0.18733203
170	0x3e06f327	0.13178693
171	0x3d7cc5fa	0.061712243
172	0x3ea16893	0.31525096
173	0x3c660a31	0.014040516
174	0xbf4a5310	-0.79032993
175	0x3f9eeee2	1.2416651
176	0x3d1c0cc4	0.03809811
177	0xbf3a6b12	-0.72819626
178	0xbe1aa4b2	-0.15101889
179	0xbe2c0b90	-0.16801286
180	0x3fa9083f	1.3205642
181	0x3f0addf3	0.5424492
182	0xbde5a0b4	-0.11212292
183	0x3fbe3438	1.4859686
184	0xbd314fa1	-0.04328883
185	0xbf2fe850	-0.68713856
186	0xbf56a44b	-0.8384444
187	0x3bd8e47e	0.0066190353
188	0x3d0ed687	0.034872558
189	0x3ef9b714	0.4877249
190	0xbefe1ae5	-0.49629894
191	0x3f43657a	0.76326716
192	0x3e03049b	0.12794726
193	0x3f12c381	0.57329565
194	0x3f91a118	1.1377287
195	0x3d75fdac	0.060056373
196	0xbf5c05c7	-0.85946316
197	0x3d1aca93	0.037790846
198	0x3e96bb35	0.29439703
199	0x3e5b7324	0.21430641
200	0xbf2cee08	-0.67550707
201	0xbf2f0d71	-0.68379885
202	0x3eb0631d	0.34450617
203	0xbf81670a	-1.010957
204	0x3cd3f2f3	0.025872683
205	0x3f99f6b4	1.2028413
206	0xbf32ad5e	-0.6979579
207	0xbf594b55	-0.8488057
208	0xbde45071	-0.111481555
209	0xbf0435a0	-0.51644325
210	0x3e83ce62	0.25743395
211	0x3f6d198d	0.9261711
212	0xbef22ab7	-0.47298214
213	0xbe8e37ed	-0.27777043
214	0xbf823787	-1.0173196
215	0x3dfb09be	0.122577175
216	0xbde5f6cd	-0.11228714
217	0x3efebb7f	0.49752423
218	0xbf838fc5	-1.027825
219	0xbf6ec69a	-0.9327179
220	0xbf7616aa	-0.9612833
221	0xbfc9ea1c	-1.577457
222	0x3f3f5ead	0.7475384
223	0xbf975d3a	-1.1825325
224	0x3e643fc8	0.22289956
225	0x3edf5e15	0.43626466
226	0xbf951288	-1.164628
227	0xbf07a610	-0.52987766
228	0xbf2859bb	-0.6576192
229	0xbf89cb17	-1.0765103
230	0x3f71bfcd	0.9443329
231	0x3f245788	0.6419606
232	0xbf161d45	-0.5863841
233	0xbec4684b	-0.3836082
234	0xbb509acc	-0.0031830547
235	0x3e785976	0.24252877
236	0xbf84eccd	-1.0384766
237	0x3f81b3a5	1.0132948
238	0xc010e84d	-2.2641785
239	0x3ef79595	0.4835631
240	0xbe918429	-0.28421143
241	0xbfb0caee	-1.3811929
242	0x3f1e6176	0.61867464
243	0xbf041ad8	-0.5160346
244	0xbf0d5790	-0.55211735
245	0x3bfc77b8	0.0077047013
246	0xbdf6458f	-0.12024986
247	0xbfb5f621	-1.4215738
248	0x3f86f234	1.0542665
249	0xbed5da0c	-0.4176792
250	0x3f9c4388	1.2208109
251	0x3f43f759	0.765493
252	0x3eed08b2	0.46295696
253	0xbf030878	-0.511848
254	0xbf63cf2b	-0.8898799
255	0x3e39b26f	0.18134473

39 f4 [16]
0	0xbfddc296	-1.7325008
1	0x4028a5f1	2.6351283
2	0xc0171d92	-2.3611798
3	0x40049cf5	2.07208
4	0x4001f197	2.0303705
5	0x3f875b5c	1.0574756
6	0x403d0e47	2.9539964
7	0x40a81aee	5.2532873
8	0xbfb48d99	-1.4105712
9	0x3faa0ace	1.3284547
10	0x3ff0079e	1.8752325
11	0xbea150b2	-0.31506878
12	0xbfdbbbf5	-1.7166735
13	0xbf4cde77	-0.80026954
14	0xbf8c882e	-1.0979059
15	0x3f66ef5a	0.9020897

fc.0.bias f4 [498]
0	0x3d0c400e	0.034240775
1	0xbd1c532c	-0.038165256
2	0x3b5cc9d9	0.0033689647
3	0x3c5e6ea9	0.013576188
4	0x3bc2314f	0.005926288
5	0x3d6b1bc5	0.05739953
6	0x3ce1bbbc	0.027555339
7	0xbcb3aea4	-0.021933861
8	0x3dd3d2db	0.10342952
9	0x3b3966ca	0.0028290027
10	0x3dc72c67	0.09725266
11	0x3e03bf40	0.12865925
12	0xbbe2bbea	-0.0069193738
13	0x3de31c49	0.11089379
14	0x3dd2894b	0.10280093
15	0xbd6090dc	-0.05482565
16	0xbd8860a4	-0.06659058
17	0xba1bf451	-0.0005949187
18	0x3dc56ce9	0.096399136
19	0xbd3986c6	-0.045294546
20	0x3dc5fb19	0.09667034
21	0x3c140b6d	0.009035927
22	0x3cb4ffc1	0.02209461
23	0x3d60326e	0.054735593
24	0xbc542713	-0.012948769
25	0x3d8213a7	0.06351405
26	0x3d1efd6c	0.0388159
27	0x3e028271	0.12745072
28	0xbcb306a2	-0.021853749
29	0x3d31ad3d	0.043378104
30	0x3dab79df	0.083728544
31	0x3dd0c365	0.101935185
32	0xbc039776	-0.008031717
33	0xbcb8a377	-0.022538884
34	0x3dd70317	0.10498636
35	0x3d13baac	0.036066696
36	0x3ce580c9	0.028015511
37	0xbc36465e	-0.011125175
38	0x3d43ee1f	0.04783451
39	0xbd54ec33	-0.05198307
40	0xbc4ccf57	-0.012500606
41	0x3d8c561f	0.06852364
42	0x3e149f3d	0.1451387
43	0x3de5bfc4	0.11218217
44	0x3d790d55	0.06080373
45	0x3d0a651b	0.033787828
46	0x3cf8e414	0.030382194
47	0x3de74443	0.11292317
48	0x3d296446	0.041355394
49	0x3d7fd331	0.062457267
50	0x3ba5f352	0.0050644064
51	0xbcf361f0	-0.029709786
52	0x3cdd694c	0.027027749
53	0xbcad7976	-0.021176081
54	0x3cae6bf7	0.021291716
55	0x3d946b2e	0.072470054
56	0x3cf51095	0.029915133
57	0x3d262128	0.040558964
58	0xbcb2425e	-0.021760162
59	0x3c5a7f06	0.013335949
60	0x3d6ae739	0.057349417
61	0xbcf2a01a	-0.029617358
62	0xbd8cedf3	-0.06881323
63	0x3aecfb37	0.0018080239
64	0xbbec2a7f	-0.0072072144
65	0x3dbc35d1	0.09189952
66	0xbd424257	-0.047426548
67	0x3daaa92f	0.083330505
68	0xba65efb2	-0.0008771374
69	0x3dc362f6	0.0954036
70	0x3d880925	0.06642369
71	0xbbb65b0d	-0.0055650533
72	0x3ddcd2d1	0.107823975
73	0xbb5ed038	-0.003399862
74	0x3e0af39b	0.1356949
75	0x3ccc0f73	0.02490971
76	0x3d94e7c1	0.07270766
77	0x3dc3df09	0.09564025
78	0xbd1363c8	-0.03598383
79	0x3d9a344f	0.07529508
80	0x3d090753	0.03345425
81	0x3d9726fe	0.07380484
82	0x3dbb5e1b	0.091488086
83	0x3dea57ed	0.11442552
84	0xbb79754c	-0.00380643
85	0xbd2f5cab	-0.042812984
86	0x3d0acb60	0.03388536
87	0x3d8304b2	0.0639738
88	0x3cb509d2	0.02209941
89	0x3ca214df	0.019785343
90	0x3cdae4b6	0.026720386
91	0x3dc3145f	0.0952537
92	0x3e04215a	0.12903348
93	0x3d81ef42	0.06344463
94	0x3d87543f	0.066078655
95	0x3c933558	0.017969772
96	0x3d872a31	0.06599844
97	0x3dedd835	0.11613504
98	0x3dd3f2b5	0.10349027
99	0xb8abe7a0	-8.197059e-05
100	0xbd19ee82	-0.037580974
101	0x3e06405e	0.13110492
102	0x3df6da43	0.12053349
103	0xbd9fec0c	-0.07808694
104	0x3e0c56a9	0.13704933
105	0x3c4b173a	0.012395674
106	0xbc3094f1	-0.010777698
107	0xb92c1c54	-0.00016413751
108	0x3d999d36	0.07500689
109	0x3c6a2862	0.014291855
110	0x3cd05b6f	0.025434224
111	0xbbafc427	-0.0053639594
112	0x3db555df	0.08854269
113	0xbc0bafaf	-0.008525773
114	0x3e0044b1	0.12526204
115	0x3d26a9a1	0.040689114
116	0x3dbdc4a9	0.092660256
117	0x3e05f935	0.13083346
118	0x3d09187c	0.033470616
119	0x3d58eafc	0.052958474
120	0x3d0dc79d	0.034614194
121	0x3aef48f9	0.0018256
122	0xbbe9f2dc	-0.007139547
123	0x3df9ac29	0.1219104
124	0x3c05bbe2	0.008162471
125	0x3dc62293	0.09674563
126	0x3d13d9c9	0.036096368
127	0xbbba9bf5	-0.005694861
128	0x3cf50f53	0.029914534
129	0xbc70f7c0	-0.014707506
130	0xbb8b7eee	-0.0042570746
131	0x3c945bdc	0.018110208
132	0x3dc6fcec	0.0971621
133	0x3ccaaef6	0.024741631
134	0x3db458b6	0.08805983
135	0x3df457d7	0.119308166
136	0x3c9d1a20	0.019177496
137	0x3c98b206	0.018639576
138	0x3ddaee1e	0.106899485
139	0xbd0d6821	-0.034523133
140	0x3d98b102	0.074556366
141	0x3db956d4	0.09049764
142	0xbda83efd	-0.08215139
143	0x3c4438d6	0.011976441
144	0xbbf6b959	-0.0075294194
145	0x3d499630	0.049215496
146	0xbd05a0b1	-0.03262395
147	0xbcc7a9a3	-0.024372881
148	0x3d8e1df4	0.06939307
149	0x3ccb2cf6	0.024801712
150	0xb67fa038	-3.809122e-06
151	0x3e16642d	0.14686652
152	0x3b9a76f5	0.004713888
153	0xbd86c5b7	-0.0658068
154	0xbd26973a	-0.040671565
155	0xbb1b412e	-0.0023689973
156	0x3c5ef971	0.013609276
157	0xbcd6c7bb	-0.026218286
158	0x3d97cfb9	0.07412667
159	0x3d953178	0.07284826
160	0x3e039ea4	0.12853485
161	0x3d0d56a8	0.03450647
162	0xbcf304b7	-0.029665334
163	0xbcc9a764	-0.02461595
164	0xbce9070f	-0.028445749
165	0x3bb76448	0.0055966713
166	0x3db2cdb2	0.087306395
167	0x3d71f4d6	0.059071384
168	0xbc18c372	-0.009323942
169	0xbdaaed26	-0.08346014
170	0x3da6a494	0.081368595
171	0xbd00032d	-0.03125303
172	0xbd00aa20	-0.031412244
173	0x3d16359b	0.036672216
174	0x3c37603b	0.011192377
175	0x3c55d375	0.013050904
176	0x3cd15883	0.025554901
177	0x3d1f2379	0.03885219
178	0x3d61ba6b	0.055109423
179	0x3cab05ce	0.020876791
180	0xbd9b3461	-0.0757835
181	0x3e032adc	0.12809318
182	0xbd959111	-0.0730306
183	0x3df1f1a6	0.11813669
184	0x3d861bfc	0.06548306
185	0xbc0fdceb	-0.008780698
186	0x3c998c5c	0.018743686
187	0x3cc8dd11	0.024519475
188	0x3cccbdfd	0.024992937
189	0xbd82a9bb	-0.0638003
190	0x3dc47e12	0.095943585
191	0xbd489fce	-0.048980527
192	0x3d5e2ab8	0.05423996
193	0x3d7f4f70	0.062331617
194	0xbd44c7ac	-0.048041984
195	0x3c957296	0.018243115
196	0x3ccd4fee	0.025062528
197	0xbc708eea	-0.014682511
198	0x3dcd74dc	0.10032055
199	0x3dd69863	0.10478284
200	0x3db36b23	0.08760669
201	0x3d9e488a	0.077286795
202	0x3db84386	0.08997254
203	0xbcde43b1	-0.027131887
204	0x3c793829	0.0152111435
205	0xbd1227ce	-0.035682492
206	0xbd825230	-0.06363332
207	0xbb5fcf79	-0.0034150763
208	0x3c3ae88e	0.011407984
209	0x3d020b69	0.031749163
210	0x3d895bed	0.067069866
211	0xbbfaa1d7	-0.0076486873
212	0xbc902964	-0.017597862
213	0x3bf3987a	0.007433948
214	0x3dd57907	0.10423475
215	0x3d6f2663	0.058386218
216	0xbc4c99aa	-0.012487808
217	0xbd41606b	-0.047211092
218	0x3c604a3f	0.013689577
219	0xbb8e0aac	-0.0043347683
220	0x3daea7f2	0.08528127
221	0x3d6ba12b	0.05752675
222	0x3d52f2a9	0.05150095
223	0x3d1ef2c0	0.038805723
224	0x3d8e1a55	0.06938616
225	0x3d5cb24f	0.053880986
226	0x3dcf6208	0.1012612
227	0x3d586e39	0.05283949
228	0xbc9cc94e	-0.019138958
229	0x3d49eac5	0.04929616
230	0x3d12185a	0.035667755
231	0xbc54439c	-0.012955572
232	0x3daebc05	0.08531956
233	0xbcab1cfb	-0.020887842
234	0x3cbb55e2	0.0228681
235	0xbd9642b4	-0.07336941
236	0x3d1c2ddc	0.038129672
237	0x3aff53f6	0.0019479978
238	0xbda7e28e	-0.08197509
239	0x3ca0126f	0.01954004
240	0xbc188015	-0.009307881
241	0x3d00ad92	0.03141553
242	0x3de36741	0.111036785
243	0x3ddaafa6	0.106780335
244	0xbcca8d43	-0.024725562
245	0x3c8b142a	0.016977388
246	0x3df55917	0.11979883
247	0x3df28018	0.11840838
248	0xbd8be4cf	-0.06830751
249	0xbc100515	-0.008790274
250	0x3bae0a85	0.0053113126
251	0x3d1a8726	0.037726544
252	0xbc83ecab	-0.016104063
253	0x3d6b22fd	0.057406414
254	0xbc0df702	-0.008664848
255	0x3c60cf51	0.013721303

fc.0.weight f4 [498, 64]
0	0x3c5f62d4	0.013634402
1	0xbd0ab419	-0.03386316
2	0x3db11ee7	0.08648472
3	0x3e2170d4	0.15765697
4	0xbc9c85f5	-0.019106844
5	0xbd5f9179	-0.054582093
6	0xbc876ea3	-0.016532248
7	0x3bffa0f2	0.0078011686
8	0xbc693680	-0.014234185
9	0x3d80a9a1	0.06282354
10	0x3e320e5f	0.17388295
11	0xbb80c9e4	-0.0039303172
12	0x3de0843b	0.10962721
13	0x3de851b0	0.11343706
14	0x3cafb542	0.021448735
15	0x3cee254e	0.029070523
16	0xbdb3620f	-0.087589376
17	0x3d84666a	0.064648464
18	0x3dcf633c	0.10126349
19	0xbda5ba3b	-0.08092161
20	0x3d479d8e	0.04873424
21	0xbdc32cfb	-0.09530064
22	0xbdd4d604	-0.10392383
23	0x3d134fae	0.03596466
24	0x3d68b502	0.056813248
25	0x3a9c28e7	0.0011914045
26	0xbdb4fa41	-0.08836795
27	0xbd4f69a3	-0.050637852
28	0xbd9f4ef3	-0.0777873
29	0x3dc4c562	0.0960796
30	0xbd48067a	-0.0488343
31	0xbd5a18cd	-0.053246308
32	0xbda57bfe	-0.0808029
33	0xbd0ee926	-0.034890316
34	0x3e1d729e	0.15375754
35	0x3da413ac	0.080115646
36	0xbcfd69ca	-0.030934233
37	0xbcc7273a	-0.024310697
38	0x3de15887	0.110032134
39	0x3db947be	0.09046887
40	0x3d46434f	0.048404034
41	0xbd676c4e	-0.05649977
42	0xbd4883d3	-0.048953842
43	0x3e04e773	0.12978916
44	0x3d278427	0.040897515
45	0x3db26138	0.08709949
46	0x3d465283	0.048418533
47	0xbd2461b5	-0.040132243
48	0x3c998fd3	0.018745339
49	0x3df747f8	0.12074274
50	0xbd072b01	-0.032999996
51	0x3de2ad95	0.110682644
52	0x3de0b621	0.10972238
53	0xbdb2cff4	-0.0873107
54	0x3d8b4717	0.06800669
55	0x3e1f3f05	0.15551384
56	0x3cfb9a5a	0.030713249
57	0x3d6bcf0b	0.0575705
58	0x3dc928b8	0.098222196
59	0xbd8d3969	-0.06895716
60	0x3d9000a0	0.07031369
61	0xbd96ad01	-0.073572166
62	0x3d95095c	0.07277176
63	0x3c8b2abe	0.016988155
64	0xbde50597	-0.11182707
65	0xbd78f581	-0.060781006
66	0x3bc802be	0.0061038425
67	0x3e03d72f	0.12875055
68	0xbd917254	-0.071018845
69	0xbd1678db	-0.03673635
70	0xbdc202a2	-0.094731584
71	0x3e17291c	0.14761776
72	0x3e121241	0.14264776
73	0xbdfa2c78	-0.12215513
74	0xbe0c6398	-0.13709867
75	0x3d8daa9a	0.06917305
76	0x3d3c3402	0.045948036
77	0x3df42e25	0.11922864
78	0x3dba81c2	0.091067806
79	0x3e149fad	0.14514036
80	0x3a3a9105	0.00071169465
81	0xbe03bbf6	-0.1286467
82	0xbe0e80b0	-0.13916278
83	0xbd277d7a	-0.04089115
84	0x3c80b89b	0.015713027
85	0xbd33ba76	-0.043878995
86	0x3e298dcd	0.16557999
87	0xbe045cfe	-0.12926099
88	0x3d96e738	0.0736832
89	0x3e89da2d	0.26924267
90	0x3df7c552	0.12098183
91	0x3d88c623	0.066784166
92	0xbd5bf5f3	-0.053701352
93	0x3bab5850	0.0052290335
94	0xbcd2283f	-0.025653956
95	0xbd3ab4dc	-0.045582637
96	0x3e387cb8	0.18016326
97	0xbd85ba1a	-0.06529637
98	0xba3d62e8	-0.0007224516
99	0xbd3eab7c	-0.04655026
100	0x3ce8b684	0.028407343
101	0xbba09d1a	-0.0049015405
102	0x3d8ab1ef	0.067722194
103	0x3d0bda35	0.034143645
104	0xbdff5b3c	-0.124685735
105	0x3e424797	0.18972622
106	0x3e1573f3	0.14595012
107	0x3df3c409	0.11902625
108	0x3d07a660	0.033117652
109	0x3d228680	0.03967905
110	0xbd13cfe3	-0.036086928
111	0x3e2322f1	0.15931298
112	0xbd3328d7	-0.04374012
113	0xbdcc2529	-0.09968025
114	0x3dcedd85	0.10100845
115	0xbdd548ad	-0.104142524
116	0xbd975efa	-0.07391162
117	0xbd8131f1	-0.06308354
118	0xbdebd246	-0.11514716
119	0x3d8fc3d4	0.07019773
120	0x3d72f5dd	0.059316505
121	0xbdd0233e	-0.10162972
122	0x3d63df4b	0.05563287
123	0xbd04129e	-0.032244317
124	0x3d225ffe	0.039642327
125	0x3c43b6e0	0.011945456
126	0xbd585a49	-0.052820478
127	0x3deeb38c	0.116553396
128	0x3dbd31e8	0.092380345
129	0xbc612474	-0.013741601
130	0xbc87d113	-0.016579187
131	0x3e162d45	0.14665706
132	0x3e0476c2	0.12935928
133	0xbc02ab47	-0.007975406
134	0x3d54d8c9	0.051964555
135	0x3dd13b67	0.10216408
136	0x3e0e0bb3	0.1387165
137	0x3dab3445	0.08359579
138	0x3c05d8e9	0.008169391
139	0x3cc963d6	0.024583738
140	0x3db8b94d	0.09019718
141	0x3de689bd	0.1125674
142	0x3ab4450f	0.0013753491
143	0x3d277d21	0.040890817
144	0xbd0c7431	-0.034290496
145	0x3bb2c01a	0.005455029
146	0x3bb18d4a	0.0054184543
147	0xbdd2ccae	-0.10292946
148	0x3cd4bf09	0.025969999
149	0x3cd93850	0.02651611
150	0x3c6d9912	0.014501827
151	0x3d7bf481	0.061512474
152	0xbd2b3e30	-0.041807353
153	0x3ca8757a	0.02056383
154	0xbdb5cddf	-0.088771574
155	0xbcb797d7	-0.02241127
156	0x3d569bd4	0.052394703
157	0xbdd05ca4	-0.1017392
158	0x3cacff6d	0.02111789
159	0xbca4213d	-0.02003538
160	0xbd7f434e	-0.062320046
161	0xbcd27a3d	-0.025693053
162	0xbc84a8a8	-0.016193703
163	0x3d644504	0.05572988
164	0xbd816067	-0.063172154
165	0xbca69432	-0.020334337
166	0x3d7e529d	0.062090505
167	0x3cf8d1f1	0.030373545
168	0x3aac7feb	0.0013160681
169	0xbc85e842	-0.0163461
170	0xbd834847	-0.0641027
171	0x3e09b7de	0.13449046
172	0x3d9e9bbd	0.077445485
173	0x3cab5aad	0.020917261
174	0x3e033bea	0.12815824
175	0x3e053d36	0.13011631
176	0xbd51564c	-0.05110769
177	0x3e00d3bd	0.12580772
178	0xbdb5a36f	-0.08869063
179	0x3d331fb9	0.043731425
180	0x3d1fbe9f	0.03900015
181	0x3d9c6d22	0.07638003
182	0xbcc583ac	-0.024110638
183	0x3e01212e	0.12610313
184	0xbd8ad3bc	-0.067786664
185	0x3e0d62ee	0.1380727
186	0x3c803620	0.015650809
187	0xbde5155b	-0.11185714
188	0x3c18a7e3	0.009317371
189	0xbdb0cf21	-0.08633257
190	0x3d274050	0.040832818
191	0xb9e28a4d	-0.0004320912
192	0xbd776c3d	-0.06040596
193	0xbc9427c3	-0.018085366
194	0x3c9e27fc	0.019306175
195	0xbd421ead	-0.047392536
196	0x3e08c7e9	0.1335751
197	0x3ca9afec	0.020713769
198	0x3d8057e0	0.06266761
199	0x3aacdaef	0.0013187806
200	0xbe03bf55	-0.12865956
201	0x3c1d5284	0.009602193
202	0x3d675356	0.05647596
203	0x3e0e3ee4	0.13891178
204	0x3df1181e	0.11772178
205	0x3d94b1e7	0.07260495
206	0xbc0da2be	-0.008644758
207	0x3e164aee	0.14677021
208	0x3defcb5f	0.11708712
209	0x3d19d80f	0.037559565
210	0xbdd4cd31	-0.103907
211	0x3bcf4f94	0.006326625
212	0x3daeb3ef	0.08530413
213	0x3ccb459f	0.024813471
214	0x3e5fe99d	0.2186646
215	0xbc941b0b	-0.018079301
216	0x3dd63378	0.10459036
217	0xbd030a17	-0.031992044
218	0xbc0d65e8	-0.008630253
219	0xbd45080e	-0.048103385
220	0x3d431f5d	0.047637332
221	0xbd8e01f0	-0.06933963
222	0xbe103c4d	-0.14085503
223	0xbd7da0fd	-0.06192111
224	0x3e0aba1b	0.13547556
225	0x3dadf541	0.08494044
226	0x3e23b77f	0.15987967
227	0x3d81e1ca	0.06341894
228	0x3d3f0c6f	0.046642717
229	0xbe012e2f	-0.12615274
230	0x3e0ca05a	0.13733044
231	0xbb0f9205	-0.0021907103
232	0xbcaf7bc7	-0.021421326
233	0xbc46014e	-0.012085272
234	0xbe043e5e	-0.12914416
235	0x3d13b746	0.036063455
236	0x3da08662	0.078381315
237	0x3c6e3dde	0.0145411175
238	0x3a3a15a4	0.00070985616
239	0x3e55f382	0.20893672
240	0xbe1daaa5	-0.15397127
241	0xbd9f81a3	-0.07788398
242	0x3e1bbeb9	0.15209474
243	0xbba39742	-0.0049923966
244	0xbdf3116c	-0.11868557
245	0x3d1582f6	0.036501847
246	0x3c17a82c	0.009256404
247	0x3a8becbd	0.0010675412
248	0x3da4c654	0.080456406
249	0xbd9b12b3	-0.07571926
250	0xbd16bc31	-0.036800567
251	0x3ddece8b	0.10879239
252	0xbd89c5fc	-0.06727216
253	0xbe1034bd	-0.14082618
254	0x3d6bed1b	0.05759917
255	0x3e03966a	0.12850347

fc.3.bias f4 [249]
0	0xbbb90f22	-0.005647556
1	0xbcb02b7f	-0.021505116
2	0x3ba85747	0.0051373574
3	0xbca53967	-0.020168973
4	0x3c6c3227	0.014416254
5	0xbcbad9b4	-0.022808887
6	0x3b62d36e	0.0034610885
7	0xbbc5eb14	-0.0060399864
8	0x3ce747f8	0.02823256
9	0xbd25c266	-0.040468596
10	0xbd3e7602	-0.04649926
11	0xbd1e77d3	-0.038688492
12	0x3cc0909a	0.023506451
13	0xbc4f08ff	-0.012636422
14	0xbceeb264	-0.029137798
15	0xbd1cf060	-0.038315177
16	0xbc9dcbce	-0.01926222
17	0xbc9be9bc	-0.019032352
18	0xbc9bcb33	-0.019017791
19	0xbaf1fd32	-0.0018462299
20	0x3a88a847	0.0010426127
21	0xbcadd7ce	-0.021221068
22	0x3cc842bf	0.02444589
23	0xbc3c718e	-0.011501683
24	0xbbd563eb	-0.0065121553
25	0xba61f651	-0.0008619773
26	0xbbf8c995	-0.00759239
27	0xbcaf6a27	-0.021412922
28	0xbd8205b9	-0.06348748
29	0x3c3fe4fb	0.011712308
30	0xbb03702c	-0.0020055873
31	0xbc7e5418	-0.015522979
32	0xbc0556d0	-0.0081383735
33	0xbcfaf7c6	-0.030635726
34	0xbc64aec4	-0.013957683
35	0xbc807eb9	-0.015685426
36	0xbca9b0e5	-0.020714233
37	0x3acc0f9b	0.0015568616
38	0x3c8f099e	0.01746064
39	0xbbdfb998	-0.0068275444
40	0xbc28fb8e	-0.010313882
41	0xbda52d3f	-0.08065271
42	0xbd35dedc	-0.04440199
43	0xbd246576	-0.040135823
44	0x3cc128df	0.02357906
45	0x3c98354a	0.018580098
46	0x3bd2fd0e	0.006438858
47	0xbc900b83	-0.017583614
48	0x3c8a376f	0.016872136
49	0xbc477448	-0.01217372
50	0xbb1925bb	-0.0023368436
51	0x3cdc7bef	0.026914565
52	0xbca8f6a2	-0.020625416
53	0xbcb74da2	-0.022375885
54	0x3c21f851	0.009885863
55	0x3c8428ab	0.016132673
56	0x3d479012	0.04872138
57	0xb9fd5a60	-0.00048323255
58	0xbb25cea1	-0.0025300162
59	0xbc4e305a	-0.01258477
60	0xbd461294	-0.04835756
61	0xbd18e8ad	-0.037331272
62	0xbd222f45	-0.03959586
63	0xbbded228	-0.006799955
64	0x3b606215	0.003423815
65	0x3ca8e270	0.020615786
66	0x3ce87058	0.028373882
67	0xbd20000d	-0.03906255
68	0xbd0e83e1	-0.03479374
69	0x3c1f50f3	0.00972389
70	0x3ce46abe	0.02788293
71	0xbd37f17a	-0.044908024
72	0xbcb45d55	-0.02201716
73	0xbc89ac20	-0.016805708
74	0xbd25e4cd	-0.040501405
75	0xbc0f7c90	-0.008757725
76	0xbcf54104	-0.029938228
77	0xbc8942ae	-0.016755428
78	0xbc9d3675	-0.019191006
79	0xbbc1c93b	-0.005913881
80	0xbd30d8d3	-0.04317553
81	0xbcb86b9c	-0.02251225
82	0xbca5a10b	-0.020218393
83	0x3cb70075	0.022339085
84	0x3c3db6a1	0.011579187
85	0x3cbbdf1e	0.022933539
86	0xbc3bde61	-0.0114665935
87	0xbb67c063	-0.0035362474
88	0xbd01f2f9	-0.031725857
89	0xbc2b864f	-0.010469033
90	0x3c11a299	0.008888864
91	0x3c67d748	0.014150448
92	0xbc071698	-0.008245133
93	0xbd026c5c	-0.03184162
94	0x3cc57ce4	0.024107404
95	0xbd180265	-0.03711166
96	0xbc4fb133	-0.012676525
97	0xbca338cb	-0.019924542
98	0xbb76d939	-0.0037666096
99	0xbc9a3215	-0.01882271
100	0xbc9f4f1c	-0.019446902
101	0xbcffa22e	-0.031205263
102	0xbc6b492f	-0.01436071
103	0xbc0a8e3e	-0.008456765
104	0x3b314a2f	0.0027052274
105	0xbca25314	-0.019815005
106	0xbd3cb6b3	-0.046072673
107	0xbcec70bf	-0.028862355
108	0x3d1c9aa3	0.03823341
109	0xbc304f77	-0.010761133
110	0xbc7cd3dd	-0.0154313715
111	0x3d1272c3	0.035753977
112	0xbb9a2946	-0.004704627
113	0x3c35a2a3	0.011086139
114	0xbd0b8a91	-0.034067694
115	0x3d3564d2	0.044285603
116	0x3a93d985	0.0011280036
117	0xbc86384a	-0.016384263
118	0xbce5398c	-0.027981542
119	0x3ce008a7	0.027347876
120	0xbcea3f53	-0.028594648
121	0xbd0ea9ff	-0.03483009
122	0xbd40ab02	-0.047038086
123	0x3bcf2767	0.006321836
124	0x3d04b2e2	0.03239716
125	0xbd215b4c	-0.039393708
126	0xbc661624	-0.014043365
127	0xbc5d576a	-0.013509611
128	0xbc86997a	-0.016430605
129	0x3c17b274	0.009258855
130	0xbd04c109	-0.032410655
131	0xbcceaa3d	-0.02522766
132	0xbd1583c6	-0.036502622
133	0x3b6c24cd	0.0036032677
134	0x3bfb26ac	0.007664522
135	0xbd2e2b8e	-0.042522006
136	0x3c9d2835	0.019184211
137	0x3d02c710	0.031928122
138	0xbbcc9523	-0.0062433644
139	0x3cc49195	0.0239952
140	0x3cfb34d9	0.030664848
141	0xbc711518	-0.014714502
142	0xbc44f888	-0.012022145
143	0xbc4e48e4	-0.012590621
144	0x3d2055b7	0.039144244
145	0x3ca9bf55	0.020721117
146	0x39f6b4b0	0.000470554
147	0xbb72f554	-0.0037072496
148	0xbcbd1837	-0.023082836
149	0xbd21a356	-0.03946241
150	0xbd2c1302	-0.042010315
151	0x3d5c56d3	0.05379374
152	0x3c1241d6	0.008926829
153	0xbd15ccdb	-0.03657232
154	0xbcd5a4ea	-0.026079614
155	0x3cbedf83	0.023299938
156	0x3d566f27	0.052352097
157	0x3cc2774a	0.023738522
158	0x3c9bd742	0.019023541
159	0x3c8ac782	0.016940836
160	0x3d2940c0	0.041321516
161	0xbc9dc3a1	-0.019258322
162	0xbd294090	-0.041321337
163	0xbcd1422d	-0.02554425
164	0xbcbbfb20	-0.022946894
165	0xbbe24e89	-0.006906335
166	0xbd179624	-0.03700842
167	0xbd0f5f6d	-0.035003114
168	0xbacd08b6	-0.0015642855
169	0x38d600bd	0.00010204453
170	0xbbbe0e88	-0.005800072
171	0xbcd4c02a	-0.025970537
172	0xbc55f3d3	-0.0130586205
173	0x3c7515a8	0.0149587765
174	0x3baccde8	0.0052735694
175	0xbd0aaf0e	-0.03385835
176	0xba6da882	-0.0009065942
177	0xbb969c04	-0.004596235
178	0x3b9d8f6f	0.0048083584
179	0xbd70af01	-0.058760647
180	0x3d0327e9	0.032020483
181	0x3b8db9b5	0.0043251165
182	0x3c09b426	0.008404767
183	0xbce9711f	-0.028496323
184	0xbc0841dc	-0.008316483
185	0xbca11611	-0.019663842
186	0xbc8aacb6	-0.016928058
187	0xbc6ae240	-0.014336169
188	0x3c3fd5b4	0.011708666
189	0xbd2a5135	-0.04158135
190	0x3ced759a	0.02898674
191	0x3cf7261c	0.03016954
192	0x3a1cb22e	0.00059774786
193	0x3cfc5383	0.03080154
194	0xbb0df510	-0.0021660961
195	0x3d16e516	0.036839567
196	0x3b45559d	0.0030110844
197	0xbd3872ca	-0.045031346
198	0x3c7fb942	0.015608134
199	0x3c826b11	0.015920194
200	0xbc7e6767	-0.015527583
201	0x3a9e8a39	0.0012095637
202	0x3c8549d4	0.016270556
203	0xbd0c5814	-0.034263685
204	0xbd23c9ed	-0.039987493
205	0xbd2fbcd2	-0.042904682
206	0x3d4050b0	0.04695195
207	0x3c1f37dd	0.009717909
208	0xbd65a4d8	-0.05606541
209	0xba7e7a00	-0.00097075105
210	0xbd281cf5	-0.04104324
211	0x3cdde739	0.027087795
212	0x3c9b7c13	0.018980062
213	0xbd417b43	-0.047236692
214	0x3c2f2e64	0.010692213
215	0x3d2d54c4	0.042317167
216	0x3caa5d63	0.020796483
217	0x3d067b02	0.032832153
218	0x3cb9f6b6	0.022700649
219	0xbcebe9ea	-0.028798062
220	0xbd07ae06	-0.033124946
221	0x3b8d0e9e	0.004304721
222	0x3cb131a4	0.021630116
223	0xbc94e8df	-0.018177448
224	0xbb399599	-0.0028317927
225	0xbccf2385	-0.025285492
226	0x3c2b4406	0.01045323
227	0x3ba68d24	0.0050827432
228	0xbbee7ef9	-0.00727832
229	0xbc5b8119	-0.0133974785
230	0xbb985ba2	-0.0046495954
231	0xbc9eff4f	-0.01940885
232	0xbc944772	-0.018100474
233	0x3d7d7810	0.06188208
234	0xbbec182c	-0.00720503
235	0xbd6cb547	-0.057790067
236	0x3b13ad44	0.0022533694
237	0xbd051aa7	-0.03249612
238	0xbc5bc69a	-0.0134140495
239	0xbc5d3cf0	-0.013503298
240	0xbd28e09f	-0.04122984
241	0x3b4a1b82	0.003083915
242	0x3bffcae1	0.0078061675
243	0xbd0a56f3	-0.033774327
244	0xbc8c84f3	-0.017153239
245	0x3cbba6a3	0.022906607
246	0xbcfe704f	-0.031059412
247	0xbd298c58	-0.041393608
248	0xbd2b4123	-0.041810166

fc.3.weight f4 [249, 498]
0	0x3d4be2f4	0.049776986
1	0x3d30a73a	0.04312823
2	0x3d45b1ec	0.048265383
3	0x3b20601f	0.0024471355
4	0x3ba8b62e	0.0051486706
5	0x3c4be041	0.012443603
6	0x3caeb535	0.02132664
7	0xbcf94c0f	-0.030431775
8	0x3cad4833	0.021152591
9	0x3da1f3d6	0.07907836
10	0xbd4f84e3	-0.05066384
11	0x3c9c6906	0.019093048
12	0x3bb4b67b	0.0055149174
13	0xbdbb9d93	-0.09160914
14	0xbd97bcf5	-0.074090876
15	0xbc3ab451	-0.01139553
16	0xbc83b97f	-0.016079662
17	0x3cbfdba1	0.023420157
18	0x3cc7a4ee	0.024370637
19	0x3d606ebb	0.0547931
20	0xbd018269	-0.03161851
21	0xbd47ff7a	-0.048827626
22	0x3d9d70bd	0.07687519
23	0xbd422eda	-0.047407962
24	0x3d555a83	0.05208827
25	0x3c404d4c	0.011737179
26	0xbcfb224a	-0.030655999
27	0x3d65a309	0.056063686
28	0xbd23b216	-0.039964758
29	0xbd961af7	-0.07329362
30	0xbd9079ff	-0.07054519
31	0xbd920b80	-0.071311
32	0xbd1cd34a	-0.03828744
33	0x3d4c1b9c	0.049831018
34	0xbd23ce74	-0.03999181
35	0x3d334a17	0.04377183
36	0xbd5f3160	-0.054490447
37	0x3c3c3ead	0.011489552
38	0xbcb3ef47	-0.021964682
39	0xbd570ab3	-0.052500438
40	0xbd2f282d	-0.042762924
41	0xbd2c294b	-0.042031568
42	0xbd7385f6	-0.059453927
43	0x3d3a2de3	0.045453917
44	0x3c883a6e	0.016629424
45	0xbcc9f07d	-0.024650807
46	0xbcf40bbf	-0.029790757
47	0x3d78175a	0.060569145
48	0xbd70ad3d	-0.058758963
49	0xbdc59aa7	-0.09648638
50	0xbd39dc4b	-0.045376103
51	0x3cce6c85	0.02519823
52	0x3d5646d0	0.052313626
53	0xbd7566c2	-0.05991245
54	0xbd0806d1	-0.033209626
55	0xbcb23237	-0.02175246
56	0x3bf7410f	0.0075455974
57	0xbc80f3ed	-0.015741313
58	0x3d74a912	0.05973155
59	0xbd47d15b	-0.04878364
60	0x3d68fdfb	0.05688284
61	0xbd540d7e	-0.05177068
62	0x3d909fa4	0.07061699
63	0x3d442935	0.04789086
64	0xbbfdff2c	-0.007751366
65	0xbc4592a2	-0.012058886
66	0xbd2fe0b8	-0.042938918
67	0xbd59c101	-0.05316258
68	0xbd5fa130	-0.05459708
69	0xbd21abb8	-0.039470404
70	0x3beb937c	0.0071892124
71	0xbd8119a9	-0.063037224
72	0x3d9ad62a	0.0756038
73	0xbce5f3af	-0.028070299
74	0xbd48013a	-0.048829295
75	0x3daaa7c9	0.08332784
76	0xbd80b00a	-0.06283577
77	0xb8cec722	-9.859937e-05
78	0x3cff08a2	0.031132046
79	0xbd4d7777	-0.05016276
80	0x3d7ef5a2	0.062245972
81	0xbd967f54	-0.07348505
82	0xbcca3ec2	-0.024688128
83	0x3c82d567	0.015970899
84	0xbd5fe34b	-0.054660123
85	0xbc46d404	-0.012135509
86	0xbd1c4f30	-0.038161457
87	0xbcb41e83	-0.021987205
88	0xbd0d6846	-0.03452327
89	0x3d2c62a0	0.042086244
90	0x3cb63760	0.022243202
91	0x3d2e0e5e	0.04249417
92	0x3d02f071	0.031967584
93	0xb89b2b6a	-7.3990625e-05
94	0x3aee4b55	0.001818041
95	0xbd02bf3b	-0.031920653
96	0x3d8f2893	0.06990161
97	0x3b0ddd94	0.0021646963
98	0xbc496441	-0.012291969
99	0x3d3c31c4	0.045945898
100	0xbd211589	-0.03932718
101	0xbda6c057	-0.08142155
102	0x3d0c567e	0.034262173
103	0x3cae58c2	0.021282557
104	0x3cbb8976	0.022892695
105	0xbcff5247	-0.031167163
106	0xbb149ae5	-0.0022675332
107	0x3d350cbb	0.044201594
108	0xbd06ebb0	-0.032939613
109	0xbd515bee	-0.05111306
110	0x3c726fa8	0.014797129
111	0x3b4c7ee0	0.0031203553
112	0xbc938a8d	-0.018010402
113	0x3d9b3dbe	0.07580136
114	0x3d01f0fe	0.03172397
115	0x3c1554d8	0.009114467
116	0x3cbbe345	0.022935519
117	0xbd729644	-0.059225336
118	0x3c8531ee	0.01625916
119	0x3da5ac3c	0.08089492
120	0x3dabfe89	0.08398158
121	0xbd0bf72f	-0.03417128
122	0xbcbb3193	-0.022850787
123	0x3d051fd1	0.032501046
124	0x3d341167	0.04396191
125	0xbd16ec0e	-0.036846213
126	0xbcf539c7	-0.029934777
127	0x3a5b6890	0.0008369768
128	0xbcd8d988	-0.026470914
129	0xbc25f443	-0.010129037
130	0x3d61ccc6	0.055126928
131	0xbceafb85	-0.028684387
132	0xba1d929a	-0.000601092
133	0xbd8ace47	-0.067776255
134	0xbb811654	-0.0039394293
135	0xbd385e61	-0.04501188
136	0xbd87e351	-0.06635154
137	0x3d314e44	0.04328753
138	0x3d4b6e8c	0.049665973
139	0xbd0bf23b	-0.034166556
140	0x3c7d83e8	0.015473343
141	0xbc861e9d	-0.01637202
142	0xbd3456f3	-0.044028234
143	0xbcc2697f	-0.023731945
144	0x3ca3511d	0.019936139
145	0x3d917700	0.071027756
146	0x3d35f68a	0.04442457
147	0x3d9fb0f8	0.07797426
148	0xbc994c00	-0.018712997
149	0xbdadf205	-0.08493427
150	0x3d36df1d	0.04464637
151	0xbd6b488a	-0.057442226
152	0x3d6f06d4	0.05835612
153	0x3d086039	0.03329489
154	0x3caf9714	0.021434344
155	0xbd1ca5cb	-0.03824405
156	0xbd1cfe36	-0.038328372
157	0x3c679c9d	0.014136461
158	0xbcd2a8f4	-0.025715329
159	0xbd2bfdcd	-0.04199009
160	0xbc07007d	-0.0082398625
161	0xbc003e62	-0.007827373
162	0x3bceb65b	0.0063083596
163	0x3dd765c0	0.10517454
164	0x3d1d5b60	0.03841722
165	0x3d3e118e	0.04640346
166	0x3d2005f2	0.03906817
167	0x3d190d58	0.03736624
168	0xbd3a9506	-0.045552276
169	0xbceaade8	-0.028647378
170	0xbc4bf8fb	-0.012449498
171	0xbd6bbfec	-0.057556078
172	0x3caaee12	0.020865474
173	0xbcc71d84	-0.024306066
174	0x3d136b2d	0.035990883
175	0xbd75c4ed	-0.060002256
176	0xbd24fa05	-0.0402775
177	0xbd14a67c	-0.036291584
178	0xbc6d8a68	-0.014498331
179	0xbb4f94fb	-0.0031674493
180	0xbcaa64c0	-0.020799994
181	0xbd5b3806	-0.053520225
182	0xbd1386b6	-0.036017142
183	0x3d1341a9	0.03595129
184	0x3cbac333	0.022798156
185	0x3b209af3	0.002450642
186	0x3d6126af	0.054968532
187	0xbcb87484	-0.022516496
188	0x3d414c50	0.047191918
189	0x3d5aec76	0.053448163
190	0x3b838aa5	0.0040143305
191	0x3b3b63da	0.0028593452
192	0x3d66087d	0.05616044
193	0xbcf47cfd	-0.029844755
194	0x3d3c5561	0.04597986
195	0x3d426ae4	0.04746522
196	0xbccc7200	-0.024956703
197	0xbcce9410	-0.025217086
198	0x3b1dc0ce	0.002407122
199	0xbd281596	-0.04103621
200	0x3c338325	0.01095656
201	0xbd852543	-0.06501248
202	0x3bb73cf4	0.005591983
203	0x3cb19854	0.021679081
204	0x3da59e43	0.08086827
205	0xbd5798c2	-0.052635916
206	0xbd1bdbc4	-0.03805138
207	0x3d6d4e4a	0.05793599
208	0x3c84716d	0.016167367
209	0x3d5c6089	0.053803
210	0xbd4be887	-0.049782302
211	0x3cb1b373	0.021692013
212	0xbc429872	-0.011877166
213	0x3c79159d	0.015202907
214	0xbd73ba33	-0.059503745
215	0xbdaf364f	-0.085552804
216	0xbda1e501	-0.07905007
217	0xbd2485db	-0.040166717
218	0xbb75d49e	-0.0037510763
219	0xbc59827d	-0.01327574
220	0x3d10992e	0.035302334
221	0xbc264a89	-0.0101496065
222	0x3d258ca8	0.040417343
223	0xbd861c28	-0.06548339
224	0x3c33dc30	0.01097779
225	0xbbf921de	-0.0076029142
226	0xbca8b919	-0.020596074
227	0xbc00c92b	-0.007860462
228	0x3d68325e	0.05668866
229	0x3d4029d7	0.0469149
230	0xbd0d33c1	-0.034473184
231	0x3dae22e9	0.08502752
232	0x3d02c1a8	0.031922966
233	0xbc71b4ad	-0.014752549
234	0xbc7549be	-0.014971195
235	0x3d39148b	0.045185607
236	0x3d404c71	0.0469479
237	0xbd230a31	-0.03980464
238	0x3d140237	0.036134925
239	0xbd0f8830	-0.035041988
240	0xbd1696c9	-0.036764894
241	0xbd842e2e	-0.064541206
242	0xbd829407	-0.0637589
243	0x3c4178fd	0.011808631
244	0xbd118104	-0.03552343
245	0xbcf3ae17	-0.029746098
246	0x3d850e2a	0.06496842
247	0xbd75f7d2	-0.060050793
248	0x3dbaf038	0.09127849
249	0x3c548b10	0.012972608
250	0x3d8c85da	0.06861468
251	0xbdc2e760	-0.095167875
252	0x3cc03dbf	0.023466943
253	0x3c7733c1	0.015088023
254	0x3ceed126	0.029152464
255	0xbd239c98	-0.03994426
