inventory/model.pth (torch, 362065 bytes, 16 tensors)

conv.0.weight f4 [32, 3, 5, 5]
0	0x3d3ea484	0.046543613
1	0x3d866187	0.065615706
2	0x3d15bb15	0.03655537
3	0x3c304596	0.010758778
4	0xbc785ae5	-0.01515839
5	0xbcc88c8d	-0.024481082
6	0x3cb15dac	0.021651112
7	0x3db3309c	0.08749506
8	0x3d98a161	0.074526556
9	0x3e0f6741	0.14004232
10	0x3d644138	0.05572626
11	0x3ddc8346	0.10767226
12	0xbd2df3df	-0.0424689
13	0x3df244e3	0.11829545
14	0x3d0205ab	0.031743687
15	0xbc1f9e95	-0.009742399
16	0x3d359ba5	0.044337887
17	0x3db9c168	0.090700924
18	0x3d996da1	0.07491613
19	0x3dbc401e	0.09191917
20	0x3de5f6fa	0.11228748
21	0xbd51af43	-0.051192533
22	0xbda6d8c7	-0.08146816
23	0xbcc420b5	-0.023941377
24	0x3d657ae9	0.05602542
25	0xbd0306eb	-0.03198902
26	0x3b0272f7	0.001990495
27	0xbcd252ec	-0.025674306
28	0x3d90dce0	0.070733786
29	0xbc92f736	-0.017940145
30	0x3c764e24	0.015033279
31	0xbd57c6e5	-0.052679915
32	0xbb3b25bc	-0.0028556427
33	0x3d2bdfab	0.041961353
34	0xbdd5e5a8	-0.10444194
35	0xbd4ec01d	-0.050476182
36	0x3d012b54	0.03153546
37	0xbd9d935c	-0.07694122
38	0xbdbb99d8	-0.09160203
39	0xbdf39c80	-0.118950844
40	0x3d7958b4	0.06087561
41	0x3d7508e1	0.05982292
42	0x3cfa31a6	0.030541252
43	0xbd100e15	-0.03516968
44	0xbceab404	-0.028650291
45	0x3d43fff9	0.047851536
46	0xbd5cce45	-0.05390765
47	0xbd92acae	-0.07161842
48	0xbde52104	-0.11187938
49	0x3cdd634d	0.02702489
50	0xbdb171bd	-0.08664272
51	0xbda3be0b	-0.07995232
52	0xbdd75284	-0.105137855
53	0xbcf6641b	-0.03007703
54	0x3c0c7377	0.008572451
55	0x3d9c60a9	0.07635624
56	0x3dbaf26d	0.0912827
57	0x3da5e57a	0.0810041
58	0xbb0efb7a	-0.0021817372
59	0xbb512c7d	-0.0031917386
60	0xbcc13399	-0.023584174
61	0x3dc85ebc	0.09783694
62	0x3d2c9f05	0.04214384
63	0xbb04ca4b	-0.0020262178
64	0x3d9689ae	0.07350479
65	0xbce9ae87	-0.028525604
66	0x3d9cf197	0.07663267
67	0xbda0c799	-0.0785057
68	0x3dcfa375	0.10138599
69	0xbdbb1a33	-0.091358565
70	0xbd841b56	-0.064505264
71	0xbd625e35	-0.055265624
72	0x3de9ecd7	0.11422127
73	0xbcb4fe2e	-0.022093859
74	0x3d0b400a	0.03399662
75	0x3c6bc03f	0.014389097
76	0x3ce0f60f	0.02746108
77	0x3d86f6d4	0.065900475
78	0x3d3863d7	0.04501709
79	0x3d345aa8	0.04403177
80	0xbce81ebe	-0.028334972
81	0x3dce6133	0.10077133
82	0x3c878c5e	0.016546424
83	0x3d863798	0.065535724
84	0x3d66b38d	0.056323577
85	0x3d755123	0.05989183
86	0x3d4759c9	0.04866961
87	0xbcc1efc6	-0.023673903
88	0x3d8b5264	0.06802824
89	0xbcc8dad4	-0.024518408
90	0xbdbe6014	-0.09295669
91	0x3d407d4c	0.046994492
92	0x3ddacaa1	0.1068318
93	0xbd5a2fbc	-0.05326818
94	0x3d6dbec0	0.05804324
95	0x3e1ab092	0.15106419
96	0x3ddafb23	0.10692432
97	0x3d2995b5	0.041402537
98	0x3dd1915e	0.10232805
99	0x3df5b5fd	0.11997602
100	0xbcb7587f	-0.022381065
101	0xbd212688	-0.039343387
102	0x3cb30944	0.021855004
103	0x3db2c7c4	0.087295085
104	0xbdc4ac15	-0.096031345
105	0x3cb7d352	0.022439633
106	0xbb2704f4	-0.002548513
107	0x3d920c28	0.07131225
108	0x3dcbb4a2	0.09946562
109	0xbc466f6f	-0.012111529
110	0x3cc55510	0.024088413
111	0xbc907fe5	-0.01763911
112	0x3d370bfd	0.044689167
113	0xbdac7703	-0.08421137
114	0x3d34b7cc	0.044120595
115	0x3d2ff234	0.042955592
116	0x3db8ee05	0.090297736
117	0x3da2ec64	0.07955244
118	0xbc6a3fbf	-0.014297425
119	0x3c00cb27	0.007860935
120	0x3ca67af2	0.020322297
121	0x3dcd691d	0.100298144
122	0x3d8e0f04	0.06936458
123	0x3da75e85	0.08172325
124	0x3dcb8480	0.09937382
125	0xbb8a0e76	-0.0042131497
126	0x3d30fa5f	0.043207522
127	0xbdd167bc	-0.10224864
128	0x3da109b7	0.07863181
129	0xbd8e577d	-0.06950281
130	0x3d36cfba	0.044631697
131	0xbdc01f9d	-0.0938103
132	0xbc354ea9	-0.011066117
133	0x3d01690e	0.03159433
134	0xbabfd770	-0.0014636349
135	0x3bf78c20	0.007554546
136	0xbd102c5d	-0.035198558
137	0xbdbe7e5b	-0.09301444
138	0xbdbab72c	-0.091169685
139	0x3de21035	0.110382475
140	0x3cade999	0.021229552
141	0x3d969a48	0.073536456
142	0xbccc908a	-0.024971265
143	0xbd725e5c	-0.05917202
144	0xbde3d516	-0.11124627
145	0x3c3fc187	0.011703855
146	0xbdd0ff68	-0.10204965
147	0xbdc52c8f	-0.096276395
148	0xbd456e82	-0.04820109
149	0x3d35f868	0.04442635
150	0xbd2ade9e	-0.04171621
151	0x3d888aa6	0.0666707
152	0x3d249497	0.04018077
153	0x3dc85b77	0.097830705
154	0xbd962821	-0.07331873
155	0x3db1c3a3	0.08679893
156	0xbdd72e8d	-0.10506926
157	0x3d4f7ae8	0.050654322
158	0x3db67bf8	0.08910364
159	0x3d89907b	0.067170106
160	0xbd08c890	-0.033394396
161	0xbdad6d39	-0.08468098
162	0xbd6ce085	-0.057831306
163	0x3c2696d2	0.010167794
164	0xbd374292	-0.04474122
165	0x3c1b11c6	0.009464687
166	0x3dde745a	0.10862036
167	0x3df7285b	0.12068244
168	0xbc2eff5b	-0.010680999
169	0x3e25f65f	0.16207264
170	0x3dbf4450	0.093392015
171	0xbd95fbf0	-0.07323444
172	0xbd07c798	-0.03314933
173	0x3dfe4912	0.12416281
174	0xbcd4f098	-0.02599363
175	0x3cd0b7ec	0.025478326
176	0xbca25653	-0.019816553
177	0x3c80ef82	0.015739206
178	0x3daefcee	0.08544336
179	0x3d9aee31	0.07564963
180	0xbe19fd41	-0.15038015
181	0x3da361d6	0.07977645
182	0x3cb2acc3	0.021810895
183	0x3b9c8794	0.0047769044
184	0x3da9fb28	0.082998574
185	0xbdf4305c	-0.11923286
186	0xbd877660	-0.06614375
187	0xbd836383	-0.06415465
188	0xbd43b75b	-0.047782283
189	0xbd7b8f08	-0.061415702
190	0xbdc52912	-0.09626974
191	0xbd3c9dfa	-0.046049096
192	0x3d86d9e4	0.06584528
193	0xbda4c75b	-0.080458365
194	0x3c27ae4d	0.010234428
195	0x3daf5473	0.08561029
196	0xbdee7bda	-0.116447166
197	0xbccfc796	-0.025363725
198	0x3c981c69	0.018568235
199	0x3dd4f154	0.10397592
200	0xbd8b9329	-0.06815178
201	0x3dcf914f	0.10135137
202	0xbcca15d7	-0.024668617
203	0x3d9387f8	0.07203668
204	0x3ccc3ae1	0.02493042
205	0xbd8e7fbb	-0.069579564
206	0xbd9f79bf	-0.07786893
207	0xbbaaa366	-0.005207467
208	0xbdbd1fd8	-0.09234589
209	0xba13419e	-0.00056173827
210	0x3da31b82	0.07964231
211	0xbdc5f872	-0.09666528
212	0x3c7efb35	0.015562822
213	0x3dd0b6fa	0.1019115
214	0xbd6b53cb	-0.057452958
215	0x3cb68f86	0.022285234
216	0xbdcd91bd	-0.10037563
217	0x3ca7211c	0.02040153
218	0x3da7ccb0	0.08193338
219	0xbc4d4e0d	-0.012530816
220	0xbe00bce1	-0.12572052
221	0x3d4a766d	0.049429346
222	0x3ca390a2	0.019966427
223	0xbd8f5301	-0.069982536
224	0x3d778cfc	0.060437188
225	0x3d884476	0.06653683
226	0x3d73de2c	0.05953805
227	0xbbc038e4	-0.005866157
228	0x3db1093b	0.08644339
229	0xbda4a033	-0.08038368
230	0x3cbea9aa	0.023274262
231	0x3cd75645	0.026286254
232	0xbd977cbc	-0.07396838
233	0xbd8674c9	-0.06565244
234	0xbc4d10f0	-0.012516245
235	0xbda0c755	-0.078505196
236	0xbdae2a22	-0.0850413
237	0x3d24e05e	0.040253036
238	0xbdab5288	-0.08365351
239	0xbd9aa3f9	-0.075508066
240	0x3ba46962	0.0050174454
241	0xbd7ab75d	-0.061210025
242	0xbb92dace	-0.00448165
243	0xbd860558	-0.06543988
244	0x3d4ad814	0.049522474
245	0xbc80a3a7	-0.015703036
246	0x3e135654	0.143884
247	0x3d53450c	0.05157952
248	0xbd52e6cd	-0.05148964
249	0xbdd11326	-0.102087304
250	0x3debc7c3	0.11512711
251	0x3de401db	0.111331664
252	0x3d416af6	0.047221147
253	0x3d6b80d4	0.057495907
254	0xbdb42075	-0.08795253
255	0x3be3e1ed	0.0069544227

conv.0.bias f4 [32]
0	0xbd9a7edd	-0.075437285
1	0xbd5f1032	-0.054458804
2	0x3d9a57c2	0.0753627
3	0xbd692826	-0.056923054
4	0xbd9394ce	-0.072061166
5	0x3de0c4e3	0.10975053
6	0x3d65a862	0.056068785
7	0x3ddbc184	0.107302696
8	0xbde73b58	-0.11290616
9	0x3e031edf	0.12804745
10	0x3cbc7bbb	0.023008218
11	0x3d7591d7	0.059953537
12	0xbd49684e	-0.04917174
13	0x3d5f7f34	0.05456467
14	0x3da47964	0.08030966
15	0xbdbd0589	-0.09229571
16	0x3d9c5532	0.07633437
17	0x3d17a64b	0.037023824
18	0xbc5cc17e	-0.0134738665
19	0xbc8b9dcc	-0.017043017
20	0x3d5c9d34	0.053860858
21	0x3c870f92	0.016486917
22	0x3da235d3	0.079204224
23	0xbd5a7e35	-0.053343017
24	0xbdbe7d14	-0.093012005
25	0xbd4b6ea2	-0.049666055
26	0xbdb803f5	-0.0898513
27	0x3cdf62d8	0.027268812
28	0xbd95d01c	-0.07315084
29	0xbddc78e7	-0.10765248
30	0x3dbf2a74	0.09334269
31	0xbde8b90e	-0.113634214

conv.1.weight f4 [32]
0	0x3f806da6	1.0033462
1	0x3f77f508	0.96858263
2	0x3f7a4d3c	0.977741
3	0x3f7937ff	0.9735107
4	0x3f7e9aac	0.9945476
5	0x3f855433	1.041632
6	0x3f873d0c	1.0565505
7	0x3f809eb6	1.0048435
8	0x3f8c57cf	1.0964297
9	0x3f7c7c24	0.98626924
10	0x3f82c2d1	1.0215703
11	0x3f7704a8	0.9649148
12	0x3f811935	1.0085818
13	0x3f84a693	1.0363334
14	0x3f7f10ec	0.99635196
15	0x3f86fe74	1.0546403
16	0x3f7b5018	0.9816909
17	0x3f7a015d	0.9765833
18	0x3f7b2941	0.98109823
19	0x3f771fa5	0.9653266
20	0x3f778226	0.96682966
21	0x3f7df3cb	0.99200124
22	0x3f7b6b10	0.9821024
23	0x3f75f49b	0.96076363
24	0x3f7dadd2	0.99093354
25	0x3f7b810e	0.98243797
26	0x3f89e04e	1.0771577
27	0x3f7218e7	0.9456925
28	0x3f79fadf	0.97648424
29	0x3f7a227e	0.9770888
30	0x3f86324b	1.0484098
31	0x3f842a31	1.0325376

conv.1.bias f4 [32]
0	0xbd9a1bc4	-0.07524827
1	0x3ce68b7b	0.028142681
2	0x3bdc1ef2	0.006717556
3	0xbc7d3eb5	-0.015456845
4	0xbd27f834	-0.04100819
5	0xbcf5be70	-0.029998034
6	0xbddf80b3	-0.10913219
7	0xbbf3f34a	-0.007444774
8	0x3d4d408b	0.05011038
9	0xbd3ec1a3	-0.046571385
10	0xbc5ecc82	-0.013598563
11	0x3d75883e	0.059944384
12	0x3d4bc35f	0.049746867
13	0xbc78b4ec	-0.015179854
14	0x3cadbf3d	0.021209354
15	0xbd7c98d0	-0.06166917
16	0xbb0d86c7	-0.0021595226
17	0x3baa1240	0.005190164
18	0xbca6f13e	-0.020378705
19	0x3d552614	0.052038267
20	0x3d7c1327	0.061541703
21	0xbdf649cc	-0.120257944
22	0xbc66dc00	-0.014090538
23	0xbd88e9cd	-0.06685219
24	0xbc4cc452	-0.012497978
25	0xbcc19ea1	-0.02363521
26	0xbd9b428a	-0.07581051
27	0xbd3bef39	-0.045882437
28	0x3a09c8bf	0.0005256049
29	0x3cf681fc	0.030091278
30	0xbd5c7f9c	-0.053832635
31	0xbc75c960	-0.015001625

conv.1.running_mean f4 [32]
0	0x3e30e28c	0.17273921
1	0x3f01b96f	0.50673574
2	0x3e1940fb	0.14966194
3	0xbe2d9ad7	-0.16953598
4	0xbddf0a3d	-0.10890625
5	0x3cf56b06	0.02995826
6	0xbcf9befa	-0.030486573
7	0x3d549060	0.0518955
8	0xbdc5f8b7	-0.09666579
9	0x3e6001e1	0.21875717
10	0xbd80c5ee	-0.06287752
11	0xbe3b3667	-0.18282472
12	0xbe44664f	-0.19179653
13	0xbd9fe6b4	-0.07807675
14	0xbeb8d244	-0.3609792
15	0xbe865e22	-0.26243693
16	0xbf38d1ca	-0.7219511
17	0x3eb96216	0.36207646
18	0xbe29f4bc	-0.16597265
19	0x3eb46bbe	0.3523845
20	0x3e74fa19	0.2392353
21	0xbea4e1f8	-0.3220365
22	0xbee6a7f8	-0.45050025
23	0x3ed52b2c	0.416345
24	0xbe8eef03	-0.27916726
25	0x3cbc7505	0.023005018
26	0xbe2b805c	-0.16748184
27	0x3e4bc85a	0.19900647
28	0xbedbafb2	-0.42907482
29	0x3dde0cdc	0.108422965
30	0xbdb66281	-0.08905507
31	0xbe0c80ac	-0.1372096

conv.1.running_var f4 [32]
0	0x3cf5ed23	0.030020302
1	0x3de2c873	0.11073389
2	0x3ca4d2f0	0.020120114
3	0x3c55ed1c	0.01305702
4	0x3b8d7923	0.004317419
5	0x3bd129aa	0.0063831406
6	0x3cbc3b51	0.022977503
7	0x3c13100c	0.008975994
8	0x3cad80ca	0.021179575
9	0x3cc69f57	0.024245901
10	0x3c0004fa	0.0078136865
11	0x3cff6d87	0.031180156
12	0x3c158f94	0.00912847
13	0x3c22706f	0.009914502
14	0x3d726da5	0.059186596
15	0x3c3c1ae7	0.011481023
16	0x3e143d41	0.14476492
17	0x3d10dfcb	0.035369676
18	0x3c72b9ad	0.014814776
19	0x3d54bb02	0.051936157
20	0x3c4d2028	0.012519874
21	0x3d384e12	0.04499633
22	0x3d90d418	0.07071704
23	0x3d620f52	0.05519039
24	0x3d6b6f49	0.057479177
25	0x3c203363	0.009777877
26	0x3cb052a9	0.02152379
27	0x3c8417bf	0.016124604
28	0x3d18dc42	0.03731943
29	0x3d013344	0.03154303
30	0x3cd9a6f7	0.026568873
31	0x3cb5aee0	0.022178113

conv.4.weight f4 [32, 32, 3, 3]
0	0x3d13601b	0.035980325
1	0xbd8e5002	-0.06948854
2	0xbcb352d2	-0.021890078
3	0x3c22932c	0.009922784
4	0xbd8a0155	-0.06738535
5	0x3cb733d3	0.022363579
6	0x3c9450bf	0.018104909
7	0xbd6fee50	-0.058576882
8	0x3d1f055c	0.03882347
9	0xbad44380	-0.0016194433
10	0x3a96e2be	0.0011511666
11	0x3d3493f9	0.04408643
12	0xbd0e6bec	-0.03477089
13	0x3d4e725f	0.05040204
14	0x3c27719e	0.01021996
15	0xbd7e6222	-0.062105305
16	0xbd2a38e6	-0.04155817
17	0x3be5f988	0.007018272
18	0x3d896ba0	0.06709981
19	0x3cfcf605	0.03087903
20	0x3cdce3fe	0.026964184
21	0x3c05968e	0.008153571
22	0x3d4c4feb	0.049880903
23	0x3cc617e4	0.024181314
24	0xbc88fd4f	-0.01672235
25	0xbc224b3b	-0.009905632
26	0xbbf45e1d	-0.0074575082
27	0xbd866d03	-0.06563761
28	0xbc2707a7	-0.010194696
29	0x3b34b2b0	0.0027572326
30	0x3d225e14	0.0396405
31	0xbcc3ceec	-0.023902379
32	0x3c40e403	0.011773112
33	0xbb955056	-0.004556696
34	0x3d779af8	0.060450524
35	0x3caec6e9	0.021335082
36	0xbbafd3c1	-0.005365819
37	0xbd4b436d	-0.04962485
38	0xbcc34a39	-0.023839103
39	0x3cdcccdd	0.026953155
40	0xbcbf2cdd	-0.023336822
41	0x3cb45516	0.022013228
42	0xbcca33bc	-0.024682872
43	0xbd6c5f48	-0.057708055
44	0xbba01263	-0.0048850044
45	0xbd223000	-0.039596558
46	0x3bb3840d	0.005478388
47	0xbcea280b	-0.028583547
48	0x3c36776e	0.011136873
49	0x3d0c10f6	0.034195863
50	0x3d3399a2	0.043847688
51	0x3a855a57	0.0010174018
52	0x3d7f3f4b	0.06231622
53	0xbcc1877a	-0.02362417
54	0x3d0e0a23	0.034677636
55	0xbbdb66f6	-0.0066956235
56	0x3d0bdb60	0.03414476
57	0x3c0ccb48	0.008593388
58	0x3db2eacc	0.0873619
59	0x3d1bd492	0.03804452
60	0xbd7704f8	-0.060307473
61	0xbd7a3fed	-0.06109612
62	0x3c7fe0bb	0.015617545
63	0xbcd45c6e	-0.02592298
64	0x3aae70dd	0.0013308782
65	0xba91c4e4	-0.00111213
66	0x3c1a5d73	0.009421694
67	0x3d65b649	0.056082044
68	0x3d7b4375	0.06134363
69	0xbbccbc35	-0.006248022
70	0xbd668bc4	-0.056285635
71	0x3d83243e	0.06403397
72	0x3ccf3b34	0.025296785
73	0x3b606ff6	0.0034246421
74	0xbbb54fe0	-0.0055332035
75	0x3cab675d	0.02092331
76	0xbc8241a3	-0.015900439
77	0xbd3421c1	-0.043977503
78	0x3cce4f64	0.02518434
79	0x3ce578cb	0.0280117
80	0xbbc0d2d3	-0.005884507
81	0x3d88cdfa	0.06679912
82	0x3b0f5579	0.0021871014
83	0x3c19dfb7	0.009391717
84	0xbc24d978	-0.010061614
85	0x3d6e4c88	0.058178455
86	0x3c4d5c38	0.012534194
87	0xbc93488e	-0.017978933
88	0x3b301c91	0.0026872496
89	0xbc3b255b	-0.01142248
90	0xbd309a2e	-0.043115787
91	0x3c8b82e6	0.01703019
92	0xbbf39e90	-0.0074346736
93	0x3c93df38	0.018050775
94	0x3b051401	0.0020306113
95	0x3cad333e	0.021142598
96	0x3bf7f724	0.0075673033
97	0xb9bc989f	-0.00035971866
98	0x3c4a2d0a	0.01233984
99	0x3cfbc4b3	0.030733442
100	0x3cdaf72b	0.026729187
101	0x3c4a3e02	0.012343885
102	0x3cedc7a5	0.029025862
103	0x3cd579b2	0.026059005
104	0xbca2e641	-0.019885184
105	0x3d8e5382	0.069495216
106	0x3b35017a	0.0027619288
107	0xbd456bad	-0.04819839
108	0x3d07d453	0.033161473
109	0x3cf1f70d	0.029536748
110	0x3b1e4a70	0.0024153255
111	0x3cdf29a0	0.027241528
112	0x3d3ca1e4	0.04605283
113	0xbc977bce	-0.018491652
114	0x3d124799	0.035712812
115	0x3d9b1b1c	0.0757353
116	0xbaa91306	-0.0012899346
117	0x3d2cadec	0.042158052
118	0x3c4a7e89	0.01235927
119	0xbd97c0fe	-0.07409857
120	0x3ccaaea2	0.024741475
121	0x3d221e1a	0.03957949
122	0x3cbf1247	0.023324145
123	0xbc53d41f	-0.012928992
124	0xbac68a1c	-0.0015147361
125	0xbd19aee1	-0.037520293
126	0x3d081e82	0.03323222
127	0x3bcaa8cb	0.0061846725
128	0xbc5ce951	-0.013483361
129	0xbcaf00ab	-0.021362623
130	0x3d15a04c	0.036529824
131	0x3cca2b47	0.02467884
132	0xbc7a2493	-0.015267509
133	0xbd01f368	-0.03172627
134	0x3cf6f7e6	0.030147504
135	0x3c61a468	0.013772108
136	0xbc80463d	-0.015658492
137	0x3c8a33cc	0.016870402
138	0x3dc0eca7	0.09420138
139	0x3d1ece2a	0.038770832
140	0x393a4491	0.00017763885
141	0xbda648e0	-0.081193686
142	0xbd3adc53	-0.045620274
143	0xbd49494d	-0.04914217
144	0x3ce3614d	0.027756358
145	0x3c842c44	0.016134389
146	0x3d73a56d	0.059483934
147	0x3ca273d7	0.019830627
148	0x3cbf2f87	0.023338092
149	0x36907268	4.304853e-06
150	0x3c8d8159	0.017273592
151	0xbd3a9e61	-0.0455612
152	0x3cdfa2e5	0.027299354
153	0x3d5a297f	0.05326223
154	0xbd70d295	-0.058794577
155	0x3c859c80	0.016309977
156	0x3aded35d	0.0017000247
157	0x3cd8bc60	0.026457012
158	0xbca42cef	-0.020040957
159	0x3b5623f9	0.003267525
160	0xbc4208c2	-0.011842908
161	0xbd3accdc	-0.045605525
162	0x3bb22e1d	0.005437626
163	0xbd9a92a5	-0.075475015
164	0x3d1f7a7f	0.03893518
165	0xbd1b78a7	-0.03795686
166	0xbc84a30f	-0.016191034
167	0xbc854d75	-0.016272286
168	0x3c59e852	0.013300018
169	0x3c061245	0.008183067
170	0x3d02b4d5	0.031910736
171	0xba8b6cca	-0.001063728
172	0xbbeef2bc	-0.00729212
173	0xbd97d915	-0.07414452
174	0x3caefcee	0.02136084
175	0x3ccb770d	0.024837041
176	0xbb917539	-0.004439023
177	0xbd3680ac	-0.044556305
178	0xbc8b2832	-0.01698694
179	0x3bd9f93a	0.0066520246
180	0xbcf9da89	-0.030499713
181	0xbd5aeedf	-0.05345046
182	0x3d8396c3	0.0642524
183	0x3d1f0f63	0.038833033
184	0x3d369684	0.044577137
185	0xbd2d26eb	-0.042273443
186	0x3d35710b	0.04429726
187	0xbb8ed728	-0.0043591447
188	0x3b805a81	0.003917039
189	0xbd3b59db	-0.04573999
190	0x3ca38a86	0.019963514
191	0x3d63c240	0.055605173
192	0x3d200ea0	0.039076447
193	0x3d34fdbd	0.044187296
194	0xbd5b4065	-0.05352821
195	0x3d20be39	0.03924391
196	0xbc44fa17	-0.012022517
197	0xbd9d19e4	-0.07670954
198	0x3cf2a051	0.02961746
199	0xbaaa2819	-0.0012981921
200	0xbd81c1f3	-0.06335821
201	0x3d878896	0.066178486
202	0x3d4d5e35	0.05013867
203	0xbd046547	-0.032323148
204	0xbd302ef0	-0.043013513
205	0x3d1192b2	0.03554029
206	0x3c4dcd5d	0.012561169
207	0xbbcd44ac	-0.00626429
208	0x3d027a97	0.031855192
209	0xbc961943	-0.018322593
210	0xbd429c7e	-0.047512524
211	0x3d4981f8	0.049196213
212	0xbd198a57	-0.037485447
213	0x3d0e42ca	0.034731664
214	0x3d171edf	0.036894675
215	0x3c92638c	0.017869733
216	0xbce0982c	-0.027416311
217	0xbd6bdaac	-0.05758159
218	0x3c994a91	0.018712314
219	0x3d3fa906	0.046792053
220	0xbd4b2c69	-0.0496029
221	0xbca7fdfa	-0.020506848
222	0xbb33c5b1	-0.0027431066
223	0xbd4fedfa	-0.05076406
224	0xbd2150c9	-0.039383683
225	0x3d287bfe	0.041133873
226	0x3d60feac	0.054930374
227	0x3d7563b4	0.059909537
228	0x3d68705a	0.05674777
229	0x3c772852	0.015085297
230	0xbd1542df	-0.036440726
231	0x3ac7e29d	0.0015250031
232	0x3c5eab57	0.013590655
233	0xbd385727	-0.04500499
234	0xba4c206d	-0.0007786814
235	0xbd2384b1	-0.039921466
236	0x3c9f7489	0.019464748
237	0x3c800426	0.015626978
238	0x3d13847f	0.03601503
239	0xbd4bb74d	-0.049735356
240	0x3c705cc8	0.014670558
241	0xbdeb80bb	-0.11499163
242	0xbd1853d6	-0.037189327
243	0xbcb0332b	-0.021508774
244	0xbd54aee2	-0.051924594
245	0xbc3bfb50	-0.011473492
246	0xbd166e2a	-0.036726154
247	0x3d9c3a78	0.076283395
248	0x3d2acb59	0.041697834
249	0xbcadc0ee	-0.02121016
250	0xbc96a2e7	-0.018388225
251	0xbd437129	-0.04771534
252	0xbd67f6de	-0.056631915
253	0x3cc74056	0.02432267
254	0xbce9def6	-0.028548699
255	0xbd5fd6e2	-0.054648288

conv.4.bias f4 [32]
0	0x3ca3d9bc	0.020001285
1	0x3d4b20d8	0.04959187
2	0xbd072fc8	-0.033004552
3	0xbc5d0472	-0.013489829
4	0xbcd514e9	-0.026010947
5	0x3c4a6c5c	0.012354936
6	0xbc5c4701	-0.013444663
7	0xbd5ac9f3	-0.05341525
8	0xbc7632fa	-0.015026802
9	0xbccc04fd	-0.024904722
10	0xbd310411	-0.04321677
11	0xbd3bd46a	-0.04585687
12	0x3c3c5788	0.011495478
13	0x3c863099	0.016380595
14	0x3d25c03a	0.040466525
15	0xbccfa1da	-0.025345732
16	0x3c217141	0.009853662
17	0xbd07b281	-0.03312922
18	0x3d5b6185	0.0535598
19	0x3cf3ba81	0.029752018
20	0xbd325eb3	-0.043547343
21	0xbc454fc7	-0.012042946
22	0xbc51c7e6	-0.012804007
23	0x3c2e3c8b	0.010634552
24	0xbd1bdbb2	-0.038051315
25	0x3c4a735c	0.012356605
26	0x3c408a80	0.011751771
27	0xbd30ddeb	-0.043180387
28	0xbb053962	-0.0020328392
29	0x3d4fa1cc	0.05069141
30	0x3c0b06fa	0.00848555
31	0xbd398991	-0.04529721

conv.5.weight f4 [32]
0	0x3f8af5df	1.0856284
1	0x3f8a7ad4	1.0818734
2	0x3f8a7276	1.0816181
3	0x3f8b698c	1.0891585
4	0x3f8a706a	1.0815556
5	0x3f8ad756	1.0846965
6	0x3f8b3dc8	1.0878229
7	0x3f8bb911	1.0915853
8	0x3f8ae912	1.0852377
9	0x3f8afe7b	1.0858911
10	0x3f8b4494	1.0880303
11	0x3f8afad7	1.08578
12	0x3f89fdf8	1.078063
13	0x3f8a4eab	1.0805258
14	0x3f8b1e55	1.0868632
15	0x3f8af393	1.0855583
16	0x3f8ac5c9	1.0841609
17	0x3f8bfa3f	1.0935744
18	0x3f89c291	1.0762502
19	0x3f8bdc66	1.0926635
20	0x3f8a5150	1.0806065
21	0x3f8a3bbd	1.0799481
22	0x3f8ac7e9	1.0842258
23	0x3f8ba010	1.0908222
24	0x3f8b92b2	1.0904143
25	0x3f8a4300	1.0801697
26	0x3f8aaba7	1.0833634
27	0x3f8b56d7	1.0885876
28	0x3f8b7f49	1.0898219
29	0x3f8be95e	1.0930593
30	0x3f89bcd6	1.0760753
31	0x3f8aca3a	1.0842965

conv.5.bias f4 [32]
0	0x3d922eda	0.071378425
1	0x3d9d9074	0.07693568
2	0x3da3785c	0.07981941
3	0x3daab67e	0.08335589
4	0x3d90372c	0.07041773
5	0x3da2e9d2	0.07954754
6	0x3da7d8df	0.08195662
7	0x3da08fa8	0.078399
8	0x3da4f94c	0.08055362
9	0x3d9cc333	0.07654419
10	0x3d967c22	0.07347895
11	0x3da0ba6c	0.07848057
12	0x3d96883f	0.07350206
13	0x3da16349	0.07880265
14	0x3db928d2	0.09040989
15	0x3d9995d1	0.07499278
16	0x3d9f6979	0.07783789
17	0x3da4e588	0.08051592
18	0x3d981f2e	0.07427822
19	0x3da1bf2f	0.078977935
20	0x3d9d4943	0.07679989
21	0x3d9eeb39	0.07759709
22	0x3da3a7e9	0.07991011
23	0x3db92d45	0.090418376
24	0x3d97c0f9	0.074098535
25	0x3d9994f1	0.074991114
26	0x3da93593	0.082621716
27	0x3da1f873	0.07908716
28	0x3d9ef016	0.077606365
29	0x3db25389	0.08707339
30	0x3d9eb68f	0.07749664
31	0x3da0350c	0.07822618

conv.5.running_mean f4 [32]
0	0x3dc71f4e	0.09722768
1	0xbdab17c4	-0.08354142
2	0x3e21965f	0.15780018
3	0x3cf29c68	0.029615596
4	0xbe02d827	-0.12777768
5	0xbe8acb82	-0.2710839
6	0xbe8c699d	-0.27424327
7	0xbe462b4d	-0.19352455
8	0x3e5febe1	0.21867324
9	0xbdf3c55d	-0.119028784
10	0xbea311ea	-0.31849605
11	0xbd3e4ad5	-0.046458084
12	0xbd9e0791	-0.07716287
13	0xbe803f3c	-0.25048244
14	0xbd6b8416	-0.057499014
15	0xbe022e13	-0.12712888
16	0x3e30a3d7	0.1725
17	0x39f7407a	0.0004715955
18	0x3e737401	0.2377472
19	0x3e362eec	0.17791337
20	0xbe3f4342	-0.18678
21	0x3e3c67a6	0.18398914
22	0xbdccc0fe	-0.09997748
23	0x3e28c763	0.1648231
24	0x3ccbdd04	0.024885662
25	0xbe54681f	-0.20742844
26	0x3dd1e6d0	0.10249102
27	0xbdc43594	-0.09580532
28	0x3e23524a	0.1594936
29	0x3e8c5dad	0.2741522
30	0x3f027a14	0.50967526
31	0xbe9a2131	-0.30103448

conv.5.running_var f4 [32]
0	0x3c2e65ef	0.01064442
1	0x3cc6f9de	0.024289068
2	0x3d12dc61	0.0358547
3	0x3c403961	0.01173243
4	0x3c95767a	0.01824497
5	0x3c72d2dd	0.014820782
6	0x3c90e180	0.017685652
7	0x3c4d2597	0.012521169
8	0x3c89c23e	0.016816255
9	0x3c769536	0.015050223
10	0x3cb601e2	0.022217695
11	0x3c825706	0.015910637
12	0x3c5e3c59	0.013564193
13	0x3c567155	0.013088544
14	0x3c4f842e	0.012665791
15	0x3c5bb77d	0.013410446
16	0x3c1280fe	0.008941887
17	0x3c1c422f	0.009537264
18	0x3cc683df	0.024232803
19	0x3c15a1c4	0.009132806
20	0x3c851b41	0.016248347
21	0x3ca169db	0.019703796
22	0x3ca25129	0.01981409
23	0x3c3866cc	0.011254977
24	0x3c476f41	0.012172521
25	0x3cf20087	0.029541267
26	0x3d226fd2	0.03965742
27	0x3c1036a4	0.00880209
28	0x3c92c01f	0.017913876
29	0x3c926f54	0.017875351
30	0x3d1f32c1	0.038866762
31	0x3c293f68	0.010330059

fc.0.weight f4 [284, 128]
0	0xbd04ac88	-0.0323911
1	0x3d6bcd1a	0.057568647
2	0x3d0877a0	0.03331721
3	0x3da1784c	0.07884273
4	0x3daadab3	0.08342495
5	0x3d0006f4	0.03125663
6	0xbd48f6aa	-0.049063362
7	0x3d9c2e84	0.0762606
8	0x3d3d3b76	0.046199284
9	0xbdb4e765	-0.088331975
10	0x3c55248f	0.0130092045
11	0xbd8c53c7	-0.06851917
12	0xbde6e0d6	-0.11273353
13	0xbc7ea32b	-0.015541832
14	0xbd27fed3	-0.041014504
15	0xbd89e974	-0.06733981
16	0x3cff0159	0.031128572
17	0xbdb35102	-0.087556854
18	0x3d6c15f1	0.057638112
19	0xbce3a7a4	-0.027789898
20	0x3dac98f8	0.08427614
21	0x3d4482f1	0.047976438
22	0xbc24ea3d	-0.010065612
23	0xbda68ef0	-0.08132732
24	0xbd4b92ca	-0.049700536
25	0x3ca41310	0.020028621
26	0x3d1e6fab	0.038680714
27	0x3dd6f9dc	0.10496876
28	0xbd197292	-0.03746278
29	0xbd6ff27b	-0.058580857
30	0xbb9d052d	-0.0047918768
31	0x3e0012b1	0.1250713
32	0xbd1b9f4f	-0.037993725
33	0x3deadca7	0.11467867
34	0x3dc1d090	0.09463608
35	0x3da6020f	0.081058614
36	0xbd30c4b0	-0.043156326
37	0xbc820840	-0.015873075
38	0xbda84d96	-0.08217923
39	0xbda77834	-0.08177224
40	0x3da97067	0.08273392
41	0x3cec549d	0.02884894
42	0xbd4e2fda	-0.050338604
43	0x3d07998e	0.033105426
44	0x3d8ba885	0.06819252
45	0xbcc5d5d8	-0.02414982
46	0x3cabba95	0.020962993
47	0xbd6dbaf3	-0.058039617
48	0xbd8492ca	-0.0647331
49	0xbc97ae14	-0.018515624
50	0xbbbd98ef	-0.0057860534
51	0xbd13600d	-0.035980273
52	0x3d9248a0	0.07142758
53	0xbd1395ae	-0.036031418
54	0xbd634b91	-0.055491988
55	0x3cd648a4	0.026157685
56	0x3dd85e8b	0.10564908
57	0x3d8e9add	0.069631316
58	0xbbd0aa41	-0.006367952
59	0xbcaca91d	-0.021076733
60	0x3d4b3e78	0.04962012
61	0x3c907ada	0.017636705
62	0x3bbad1ae	0.0057012653
63	0xbe0ab02f	-0.13543771
64	0x3df56625	0.11982373
65	0x3d509985	0.050927658
66	0xbda85a51	-0.082203515
67	0x3d324cf9	0.043530438
68	0xbcfb62a8	-0.030686691
69	0x3d070880	0.03296709
70	0xbdfeac78	-0.124352396
71	0xbc526d3d	-0.012843427
72	0xbd5c7486	-0.053822063
73	0x3d6b6751	0.057471577
74	0x3d9013fb	0.07035061
75	0x3e00aa45	0.12564953
76	0xbc5f5197	-0.013630292
77	0x3df2602d	0.1183475
78	0xbdb5e1de	-0.08880971
79	0xbd27dbd3	-0.040981125
80	0xbcbafe59	-0.02282636
81	0x3df98f66	0.12185554
82	0xbd96345e	-0.07334207
83	0xbca7da26	-0.020489763
84	0x3d9e4a2f	0.07728993
85	0xbd4380f4	-0.0477304
86	0xbddafbc8	-0.10692555
87	0x3dd51d4d	0.10405979
88	0xbcc15a2a	-0.023602564
89	0xbc4d2f4d	-0.012523484
90	0x3cfe4f6e	0.031043734
91	0x3cfcf263	0.030877298
92	0x3d02359e	0.031789415
93	0xbd739b38	-0.0594742
94	0x3d232543	0.039830457
95	0xbc870917	-0.016483827
96	0x3dc575e8	0.096416295
97	0x3db0556d	0.08610044
98	0x3de18fae	0.11013733
99	0x3c0429ae	0.008066578
100	0x3d8d5dc6	0.069026515
101	0x3e0e7d25	0.13914926
102	0xbd097235	-0.033556182
103	0xbc625be8	-0.0138158575
104	0xbd011406	-0.031513236
105	0x3cc6e52e	0.024279203
106	0xbcde9101	-0.027168753
107	0xbc6b5ef7	-0.014365903
108	0x3d1999c8	0.037500173
109	0x3d63e6b8	0.055639952
110	0xbd047664	-0.03233947
111	0x3d20a025	0.039215226
112	0xbbd57b72	-0.00651496
113	0xbbc28f28	-0.0059374757
114	0xbd4cbf25	-0.049986977
115	0x3dcf2891	0.10115159
116	0x3d037010	0.032089293
117	0xbc7f92fe	-0.0155990105
118	0xbd2034f9	-0.03911302
119	0x3db2525b	0.08707114
120	0x3d4e9023	0.05043043
121	0x3e1bd5a3	0.15218215
122	0xbd0a0150	-0.033692658
123	0x3db7ed87	0.089808516
124	0x3dd88571	0.10572327
125	0x3dbc33c0	0.09189558
126	0x3e0b6214	0.13611633
127	0x3d91b435	0.0711445
128	0xbdef0b68	-0.116720974
129	0x3d375678	0.044760197
130	0xbcb6dd3b	-0.022322288
131	0x3ca9f5d1	0.020747097
132	0x3dfb6cfa	0.12276645
133	0xbda7ccd3	-0.08193364
134	0x3c2df588	0.010617621
135	0x3d90670f	0.07050907
136	0x3d92e8e8	0.071733296
137	0x3dbf3bfc	0.09337613
138	0xbc5af7a6	-0.013364708
139	0x3d01c1dc	0.03167902
140	0xbc08667f	-0.008325218
141	0xba3446f3	-0.00068770273
142	0xbdee4321	-0.116338976
143	0x3d045f0e	0.032317214
144	0x3e26bb9b	0.16282503
145	0x3db428ed	0.087968685
146	0xbde19f4a	-0.1101671
147	0x3cdc75ea	0.026911695
148	0x3da96e7a	0.08273025
149	0xbd4b604c	-0.049652383
150	0x3d19f9f9	0.037591908
151	0xba0c8fdb	-0.00053620123
152	0xbcd462f8	-0.025926098
153	0x3d023e02	0.031797417
154	0x3d9fc6d9	0.07801599
155	0x3daa4069	0.083130665
156	0x3cee3288	0.02907683
157	0xbdc2f22c	-0.09518847
158	0x3dedafcd	0.11605797
159	0xbd055222	-0.03254903
160	0x3d46b27c	0.04851006
161	0x3d514f56	0.05110105
162	0xbb68bcf8	-0.0035513025
163	0xbc67fcc7	-0.014159388
164	0x3db88507	0.09009748
165	0xbe04d1e6	-0.12970695
166	0x3d85d34e	0.06534444
167	0x3dfc4d95	0.12319485
168	0xbd12d261	-0.035845164
169	0x3dbaae4b	0.09115275
170	0x3e0a8a75	0.1352938
171	0x3d349a6b	0.044092577
172	0x3d3be82f	0.045875724
173	0x3d3672e5	0.044543166
174	0xbd4b0243	-0.049562704
175	0xbceee9eb	-0.029164275
176	0x3df207c9	0.11817891
177	0x3dcb389d	0.099229075
178	0xbdf0cb72	-0.11757554
179	0x3d090ba4	0.033458367
180	0xbcb678d2	-0.022274408
181	0xbcaaf110	-0.0208669
182	0x3e0c54b0	0.1370418
183	0x3dbb0ef3	0.09133711
184	0xbdb9ea7d	-0.09077928
185	0xbd21a9b3	-0.03946848
186	0x3dafe1d6	0.08587997
187	0xbd9142ea	-0.07092841
188	0x3a33331e	0.0006835925
189	0xbd8ee132	-0.06976546
190	0x3d8b8f87	0.06814485
191	0x3c2a2020	0.010383636
192	0x3d5c7690	0.053824008
193	0x3d17f056	0.037094437
194	0x3d5fdb3c	0.054652438
195	0xbbb81701	-0.0056179767
196	0x3dc1b9c9	0.09459264
197	0x3e12ac37	0.14323507
198	0x3d67b449	0.056568418
199	0x3dc90626	0.09815626
200	0x3d5d4281	0.0540185
201	0x3d05b952	0.03264744
202	0xbd84a318	-0.0647642
203	0xbd9828dc	-0.07429668
204	0x3c84fc42	0.016233567
205	0xbd316465	-0.043308634
206	0x3e152435	0.14564593
207	0x3da0ff53	0.07861199
208	0x3d175098	0.036942095
209	0x3d80eaa4	0.06294754
210	0x3da4257a	0.080149606
211	0x3d2e6415	0.042575914
212	0x3dd361d5	0.10321394
213	0x3dd1f57a	0.10251899
214	0xbe0ad11d	-0.13556333
215	0xbde292fe	-0.11063193
216	0xbd7cff3a	-0.06176684
217	0x3c3c94d0	0.011510089
218	0xbd852846	-0.06501822
219	0x3ddefd40	0.10888147
220	0x3d9fedd9	0.07809038
221	0xbc3fcea9	-0.011706986
222	0xbe0bf5c5	-0.13667972
223	0xbbe0ee08	-0.006864313
224	0x3d98005f	0.07421946
225	0x3dbfbed4	0.093625695
226	0x3e180926	0.1484724
227	0x3c5789ac	0.013155382
228	0x3c37d2fc	0.011219736
229	0x3d96f79d	0.07371447
230	0x3d51d933	0.051232528
231	0x3cb6ba43	0.022305613
232	0x3d9d6aa3	0.07686355
233	0x3d8292f0	0.06375682
234	0xbd546294	-0.051851824
235	0xbd9646f9	-0.07337756
236	0xbcfc41fd	-0.030793184
237	0x3d897bc8	0.067130625
238	0xbcaeec11	-0.0213528
239	0xbdc81b0f	-0.09770786
240	0x3c30e36e	0.010796411
241	0xbda1c2a0	-0.0789845
242	0xbd5d4c62	-0.054027922
243	0xbe0005cc	-0.12502211
244	0x3da1e93a	0.079058126
245	0xbd2f35ca	-0.042775907
246	0xbd98f95f	-0.07469439
247	0xbe06756f	-0.13130735
248	0xbd9126f4	-0.07087508
249	0xbcb4f844	-0.022091039
250	0xbe228a65	-0.15873106
251	0xbe04497a	-0.12918654
252	0x3daef499	0.08542747
253	0x3e018ba3	0.12650923
254	0x3e40e38b	0.18836801
255	0x3dabf8e0	0.083970785

fc.0.bias f4 [284]
0	0x3dbd02c6	0.092290446
1	0x3dd767cb	0.10517844
2	0x3d192ad9	0.03739438
3	0xbd1c3f43	-0.03814627
4	0x3c3830bc	0.011242088
5	0x3dc18b28	0.0945037
6	0xbd36ff40	-0.04467702
7	0x3c9dfb5c	0.019284897
8	0x3dbd410a	0.09240921
9	0xbd65037a	-0.05591152
10	0x3d229ada	0.03969846
11	0x3cd09f8e	0.025466707
12	0x3c3fc306	0.011704212
13	0x3c679e68	0.014136888
14	0x3d2b9fcd	0.041900445
15	0xbd29221b	-0.04129229
16	0x3d08255c	0.033238754
17	0x3da05363	0.07828405
18	0x3bf91fb6	0.007602657
19	0x3c50fa34	0.012754966
20	0x3dd86f7e	0.105681404
21	0x3e03bfa9	0.12866081
22	0x3d7159e2	0.05892361
23	0x3bb61b76	0.005557473
24	0x3e0da1b9	0.13831224
25	0x3c7daa23	0.015482458
26	0xbbecf47b	-0.007231293
27	0x3de5292a	0.11189492
28	0x3dea764f	0.11448347
29	0x3d7e3507	0.06206229
30	0xbc9b0489	-0.018923061
31	0x3cde5d2d	0.027144039
32	0x3d9db644	0.0770078
33	0x3d9c1c5b	0.07622596
34	0x3d657c0b	0.0560265
35	0x3e046fe4	0.12933308
36	0xbb0d0859	-0.0021519868
37	0x3dd26a46	0.10274176
38	0xbd01237e	-0.03152799
39	0x3d1a8698	0.037726015
40	0x3e2257f1	0.1585386
41	0xbc05fa0b	-0.008177291
42	0x3d8d7c1b	0.06908437
43	0xbd1e0691	-0.03858048
44	0x3de428d6	0.11140601
45	0x3ddafd74	0.106928736
46	0xbc93c6b1	-0.01803908
47	0x3b18b911	0.0023303668
48	0x3cc561d9	0.024094509
49	0xbd500c6c	-0.050793096
50	0x3d7a201a	0.06106577
51	0x3d9cbe73	0.07653513
52	0x3cfbd29b	0.030740073
53	0x3dcaffa3	0.0991204
54	0x3dbfaeaa	0.093594864
55	0x3db71de5	0.08941249
56	0x3d964a6b	0.07338413
57	0x3dda5092	0.10659899
58	0xbcba6774	-0.022754408
59	0x3befc0d6	0.007316689
60	0xbce5da04	-0.02805806
61	0x3b370e94	0.0027932273
62	0x3d0e41da	0.03473077
63	0x3dc4e880	0.09614658
64	0x3dc6fb79	0.09715933
65	0x3b3d77c5	0.00289105
66	0x3e03a96d	0.128576
67	0xbd1206dd	-0.035651077
68	0x3d4791a2	0.04872287
69	0x3e5250ed	0.20538683
70	0x3d873ab2	0.06602992
71	0x3ce6d5f1	0.028178187
72	0xbc986918	-0.0186048
73	0x3c11afef	0.0088920435
74	0x3dc2b837	0.095077924
75	0x3ddbadb1	0.107264884
76	0x3d9759b5	0.07390157
77	0x3ce5cb59	0.028051065
78	0x3c20bfbd	0.009811339
79	0xbc859100	-0.016304493
80	0x3d62eb92	0.05540044
81	0xbd137c7c	-0.03600739
82	0x3d15e772	0.036597677
83	0xbd72c18b	-0.05926661
84	0xbc689054	-0.014194567
85	0x3d32fd56	0.04369863
86	0x3d3cf691	0.04613358
87	0xbc6e7d6d	-0.014556271
88	0x3dc65444	0.09684041
89	0x3d9691fa	0.073520616
90	0x3de9a99c	0.114093035
91	0x3d8c7b86	0.06859498
92	0x3c9ca655	0.019122282
93	0xbcc2d2c4	-0.023782142
94	0xbbdfa11a	-0.0068246247
95	0x3dbb6cf8	0.091516435
96	0x3de33009	0.11093146
97	0x3c889461	0.016672315
98	0x3c7a7fdc	0.015289273
99	0x3d669d30	0.05630225
100	0x3d01181f	0.031517144
101	0x3dc01caf	0.09380471
102	0x3b9bd462	0.0047555426
103	0x3e035b9e	0.12827918
104	0x3c905560	0.017618835
105	0x3cb052e6	0.021523904
106	0x3d1accdc	0.037793025
107	0xbd3f721f	-0.046739694
108	0x3daa3fec	0.083129734
109	0x3cf80131	0.030274006
110	0x3d29d834	0.041465953
111	0x3d97b1b8	0.07406944
112	0x3e012b95	0.12614281
113	0x3d0897bd	0.033347834
114	0x3e014841	0.12625219
115	0xbd258459	-0.04040942
116	0xbc9ce63c	-0.019152753
117	0xbcd67d4b	-0.026182791
118	0x3de26b04	0.11055568
119	0x3db9bf90	0.09069741
120	0x3d61d988	0.055139095
121	0xbd0f53a5	-0.03499188
122	0x3d8f108b	0.06985577
123	0xbd21de3a	-0.039518572
124	0xbbbc79bd	-0.005751817
125	0x3c2e6bc2	0.010645809
126	0x3d53b989	0.051690612
127	0x3d2efcc2	0.042721517
128	0x3d26124a	0.040544786
129	0x3d1a715a	0.037705757
130	0x3df71d30	0.12066114
131	0xbd0f3f35	-0.03497239
132	0x3db987f3	0.090591334
133	0x3c2c3af0	0.010512099
134	0x3d46db67	0.048549082
135	0x3d516ab2	0.051127143
136	0x3bcd8639	0.006272104
137	0xbce7610f	-0.028244523
138	0x3daee3e2	0.08539559
139	0x3c8ec2d4	0.017426886
140	0x3d0ae7fd	0.033912648
141	0x3d624600	0.05524254
142	0x3e18ec2b	0.14933841
143	0x3d9512ce	0.07278977
144	0xbd136c61	-0.03599203
145	0x3d80a16e	0.0628079
146	0x3decaf6f	0.11556899
147	0x3dca7986	0.0988646
148	0x3d14b778	0.036307782
149	0x3da9889b	0.082780086
150	0x3d994f7e	0.07485865
151	0x3dbc7e9b	0.092038356
152	0x3d763c66	0.060116194
153	0x3d9c7098	0.07638663
154	0x3d5ab964	0.05339946
155	0x3db3a610	0.08771908
156	0xbca47e4d	-0.020079756
157	0x3c323769	0.010877469
158	0x3da97c3b	0.08275648
159	0xbcebc285	-0.028779278
160	0xbc8b5df7	-0.01701258
161	0x3df3ee9b	0.11910745
162	0x3bdf3790	0.0068120435
163	0xbd130166	-0.035890006
164	0x3dafe5c8	0.08588749
165	0x3d44ffa0	0.048095345
166	0xbb1380bf	-0.0022507159
167	0x3d44015a	0.04785285
168	0x3e138099	0.14404525
169	0x3d9abfad	0.075560905
170	0xbcbd6cb2	-0.023123119
171	0x3dc3be5a	0.09557791
172	0x3d46033c	0.04834293
173	0x3cd3e9d4	0.025868334
174	0xbd7c4f5e	-0.061599128
175	0xbd3837c9	-0.044975076
176	0x3dc6950e	0.09696399
177	0x3dc5d08f	0.0965892
178	0xbd811c7f	-0.06304263
179	0x3e0233d0	0.12715077
180	0xbd015a80	-0.03158045
181	0x3dd93ec0	0.10607672
182	0x3d8e36cd	0.06944046
183	0x3ca5ce6e	0.020240035
184	0x3ca3526b	0.01993676
185	0xbcf01157	-0.029305143
186	0x3dd364c0	0.10321951
187	0x3be1881b	0.00688268
188	0x3ddeb175	0.10873691
189	0xbd1ef3b0	-0.038806617
190	0x3d873c96	0.06603353
191	0x3de94951	0.11390937
192	0xbd395738	-0.045249194
193	0x3df9a66d	0.12189946
194	0xbbd7cb94	-0.0065855477
195	0x3d8e2899	0.06941337
196	0xbd565c4a	-0.052334107
197	0x3e089a2e	0.13340065
198	0x3d8223fb	0.06354519
199	0x3d84ce84	0.06484702
200	0xbd6f82af	-0.05847424
201	0x3dd0d3aa	0.10196622
202	0x3debbff1	0.11511219
203	0x3db14bac	0.086570114
204	0xbc65fbed	-0.014037115
205	0xbc5a952c	-0.013341229
206	0x3d8c5781	0.068526275
207	0x3d8cd356	0.06876247
208	0x3d009bff	0.03139877
209	0x3ceb1ce2	0.028700296
210	0x3d91e805	0.07124332
211	0x3d97ef93	0.07418742
212	0x3d6dfe27	0.058103707
213	0x3d706ca6	0.058697365
214	0xbb2587ed	-0.002525802
215	0x3da637e4	0.08116129
216	0x3d7d5606	0.061849616
217	0x3ca8ce05	0.02060605
218	0xbb1277ed	-0.0022349313
219	0x3da3cd9c	0.07998201
220	0x3c721145	0.014774625
221	0x3dfc182b	0.12309297
222	0x3d3ba376	0.045810185
223	0x3daad511	0.083414204
224	0x3da11a16	0.078663036
225	0xbd4f9174	-0.050675824
226	0xbc0bd0ff	-0.008533715
227	0x3dda1626	0.10648756
228	0x3d576c18	0.05259332
229	0xbd07076f	-0.032966074
230	0xbce38ca8	-0.027777031
231	0x3db8c1b1	0.09021319
232	0x3da4c7e1	0.080459364
233	0x3dc78f22	0.09744097
234	0x3d17e9d2	0.037088223
235	0x3d13c87d	0.036079872
236	0x3d1691b1	0.036760036
237	0x3db18a91	0.086690076
238	0xbd1f1380	-0.038836956
239	0x3d81f292	0.06345095
240	0x3dce887c	0.10084626
241	0x3d3f1ff2	0.046661325
242	0x3d4abf0d	0.049498606
243	0x3d8b3335	0.06796876
244	0x3b84865b	0.0040443367
245	0x3dfdd1e6	0.123935506
246	0x3dd98bc8	0.10622364
247	0x3d5e2c0f	0.054241236
248	0xbc83c9c0	-0.016087413
249	0xbc09fd17	-0.008422158
250	0x3d91a074	0.07110682
251	0x3be3b80d	0.006949431
252	0x3cbd6611	0.023119958
253	0xbb77c61c	-0.0037807291
254	0x3dc19757	0.09452694
255	0x3d9ebd89	0.07750995

fc.2.weight f4 [142, 284]
0	0xbd0e3366	-0.034716986
1	0xbc95c735	-0.018283466
2	0xbcb79c24	-0.02241332
3	0xbbfdb363	-0.007742332
4	0x3d912dba	0.070888
5	0xbcfa3a7b	-0.030545464
6	0xbd209865	-0.039207835
7	0xbd7cd2b4	-0.06172438
8	0xbdc6e526	-0.09711675
9	0xbceba935	-0.028767208
10	0xbcb14cdb	-0.021643093
11	0x3d842fbd	0.06454418
12	0x3d68f948	0.056878358
13	0xbdc3c9e9	-0.09559996
14	0xbdef2f27	-0.116789155
15	0x3e0b657c	0.13612932
16	0x3dc1d6dd	0.0946481
17	0x3d5b6949	0.053567205
18	0xbd96720f	-0.07345974
19	0x3b8aea09	0.004239325
20	0xbd57146a	-0.052509703
21	0xbd607920	-0.054803014
22	0xbcc2defa	-0.023787964
23	0xbd284791	-0.041083876
24	0xbdd3bfc6	-0.10339312
25	0x3d88a08d	0.06671248
26	0x3dc5e000	0.09661865
27	0x3dbf6c2f	0.09346806
28	0x3dbeed36	0.09322588
29	0x3cf376ca	0.029719729
30	0xbb9d78c5	-0.0048056566
31	0xbca934bc	-0.020655029
32	0xbd88c063	-0.0667732
33	0x3d4eadb9	0.050458644
34	0x3c63bd7e	0.013900159
35	0xbdc5bfc6	-0.096557185
36	0xbdef40ae	-0.116822585
37	0xbd88b02c	-0.06674227
38	0xbd019172	-0.031632848
39	0xbd1afbd8	-0.037837833
40	0xbe269e88	-0.16271412
41	0x3dab236c	0.083563656
42	0x3d3fa282	0.04678584
43	0x3caf7637	0.021418674
44	0xbd62a100	-0.055329323
45	0x3b6bb91d	0.003596849
46	0xbcb956cf	-0.022624401
47	0x3d82cb42	0.063864246
48	0xbd318404	-0.04333879
49	0xbd37842e	-0.04480379
50	0x3d975736	0.07389681
51	0xbc0e3241	-0.008678974
52	0xbdd061ee	-0.101749286
53	0xbc6177a0	-0.013761431
54	0xbd854a63	-0.06508329
55	0x3dadce08	0.08486563
56	0x3c4b6f24	0.012416635
57	0xbc20b198	-0.009807967
58	0xbdb08854	-0.086197525
59	0x3cd8c33e	0.026460286
60	0xbd606c2f	-0.054790672
61	0xbd46aebe	-0.04850649
62	0xbe0633f9	-0.13105763
63	0xbd3a62ea	-0.045504488
64	0xbd18a28d	-0.037264396
65	0xbd3b7bd8	-0.045772403
66	0xbbac6fa3	-0.0052623316
67	0xbcbc9625	-0.023020813
68	0xbd41cc2b	-0.04731385
69	0x3c8ed4ba	0.01743542
70	0xbd48a5dc	-0.0489863
71	0x3d067b03	0.032832157
72	0x3da7537d	0.08170221
73	0x3d9b7de2	0.075923696
74	0xbdbcf827	-0.09227019
75	0xbd33ea13	-0.043924402
76	0xbcbd0d6d	-0.023077691
77	0xbdbe34b9	-0.092874
78	0x3db0b359	0.08627958
79	0x3d5d2fed	0.054000784
80	0x3db1307e	0.08651827
81	0x3d3829c2	0.0449617
82	0x3c17321e	0.009228257
83	0xbd70f1d8	-0.05882439
84	0xbd833be3	-0.06407907
85	0x3d9ea80b	0.077468954
86	0x3c81249d	0.015764529
87	0xbd822162	-0.063540235
88	0xbc7ce476	-0.015435329
89	0xbc4b6a9d	-0.012415555
90	0x3d26411e	0.040589444
91	0xbd75b913	-0.059990954
92	0xbcef46b4	-0.029208519
93	0xbd904959	-0.0704524
94	0xbd7eaa8c	-0.062174365
95	0xbdde8da4	-0.108668596
96	0xbcceb56b	-0.025232991
97	0xbd252c54	-0.040325478
98	0xbda84496	-0.08216207
99	0xbddf0d3e	-0.108911976
100	0x3d8bf3c4	0.06833604
101	0xbc760438	-0.015015654
102	0x3dc0e29b	0.094182216
103	0xbdaaeacf	-0.083455674
104	0xbd7bd1da	-0.061479427
105	0x3d33898a	0.04383234
106	0xbc2c3fb0	-0.010513231
107	0x3d805b39	0.06267399
108	0x3cb97795	0.022640029
109	0x3d8c5d1c	0.06853697
110	0xbd035cf9	-0.032071088
111	0x3c62879d	0.013826278
112	0xbd14b87f	-0.03630876
113	0x3d005387	0.031329658
114	0xbc954fcf	-0.018226532
115	0xbc93c941	-0.018040301
116	0xbbe6fbcb	-0.007049059
117	0xbb962fba	-0.004583326
118	0xbd98c9b8	-0.0746035
119	0xbd27107f	-0.040787216
120	0xbd73a9c4	-0.059488073
121	0xbdc26521	-0.09491945
122	0xbd249496	-0.040180765
123	0x3d158b22	0.03650964
124	0x3d9caf53	0.07650628
125	0x3d0ca7e8	0.034339815
126	0x3dba0b6f	0.09084212
127	0xbc898ce4	-0.016790815
128	0xbd9875f6	-0.07444374
129	0xbd513707	-0.05107787
130	0xbd01cadb	-0.0316876
131	0x3d7d10dd	0.06178366
132	0xbdbb65d8	-0.091502845
133	0xba4cf26a	-0.0007818105
134	0xbcae5a10	-0.02128318
135	0xbd35075e	-0.04419648
136	0x3ddea0bc	0.108705014
137	0xbcb5e606	-0.02220441
138	0x3dab8577	0.08375066
139	0xbd89c3cd	-0.06726799
140	0xbd90cb33	-0.07070007
141	0xbd2f583e	-0.042808764
142	0x3d2abeb6	0.041685782
143	0xbdcb8f93	-0.09939494
144	0x3c5e6c9c	0.013575699
145	0x3d26fdcd	0.040769387
146	0xbc62202f	-0.0138016185
147	0xbc302a08	-0.0107522085
148	0x3d480044	0.04882838
149	0x3d9ff0a1	0.07809568
150	0xbd5fc623	-0.054632317
151	0xbcb5a1cc	-0.022171877
152	0x3dc08de1	0.09402061
153	0xbda36b40	-0.07979441
154	0x3d7228d8	0.059120983
155	0x3d35a700	0.044348717
156	0xbd564a4b	-0.052316945
157	0xbbc4afaf	-0.0060023884
158	0x3d612e49	0.05497578
159	0x3d4f17a5	0.05055966
160	0x3e23438b	0.15943734
161	0xbd1193e2	-0.035541423
162	0xbdcde1a6	-0.10052805
163	0xbde3857e	-0.11109446
164	0x3dbe6995	0.09297482
165	0xbda24535	-0.079233564
166	0x3dc70710	0.09718144
167	0x3d431d8f	0.04763561
168	0x3d0b494e	0.034005456
169	0x3dc266a9	0.09492237
170	0xbdcfc007	-0.10144048
171	0xba9bd994	-0.0011890405
172	0xbc926bc7	-0.017873658
173	0x3cbd7fa2	0.02313215
174	0x3dec9eb1	0.115537055
175	0xbd412777	-0.047156777
176	0xbdc1c785	-0.094618835
177	0xbd71e6fb	-0.05905817
178	0xbd75b70c	-0.05998902
179	0x3d537215	0.05162247
180	0x3cd5ecd6	0.026113909
181	0xbb82b980	-0.0039893985
182	0x3da7cd85	0.081934966
183	0xbc174c36	-0.009234479
184	0x39109a18	0.00013790315
185	0x3b22c1f0	0.0024834834
186	0x3d84e1ae	0.064883575
187	0xbc741657	-0.014897904
188	0xbdb349d3	-0.08754315
189	0xbdca1f32	-0.09869231
190	0xbc7bdf08	-0.015372999
191	0x3d94190b	0.07231339
192	0x3d6d6dee	0.057966165
193	0x3ce17a91	0.027524265
194	0xbd114bf1	-0.035472814
195	0xbda5ebf9	-0.08101649
196	0x3d0b291f	0.033974763
197	0xbdee14cb	-0.1162506
198	0x3d9bbecd	0.07604752
199	0x3d9e1ca3	0.07720306
200	0xbcf6d777	-0.030132039
201	0xbd857ff7	-0.06518548
202	0xbcd79a73	-0.026318764
203	0x3dd77a92	0.10521425
204	0x3d592345	0.05301215
205	0x3d470508	0.048588783
206	0x3db7a5a6	0.08967142
207	0x3a87a880	0.00103499
208	0xbc59e501	-0.013299228
209	0x3d7d5d5d	0.061856616
210	0x3d6761ca	0.056489743
211	0x3de00c42	0.10939838
212	0x3cbf4a4c	0.023350857
213	0xbdf0fd5c	-0.117670745
214	0xbcfca918	-0.030842349
215	0xbdf349c5	-0.11879305
216	0x3db0581b	0.08610555
217	0x3d797141	0.060899023
218	0x3bad03a6	0.005279976
219	0xbd23e113	-0.04000957
220	0x3c9e40ed	0.019318068
221	0xbdcfdb5a	-0.1014926
222	0xbdf7938b	-0.120886885
223	0xbdbd4301	-0.092412956
224	0xbd7d3851	-0.061821286
225	0xbd313729	-0.043265495
226	0xbd2a467f	-0.041571137
227	0xbdd6e997	-0.104937725
228	0x3b9dca5a	0.004815382
229	0x3d0334a4	0.032032624
230	0xbcc7229e	-0.024308499
231	0xbc25978c	-0.010106932
232	0xbde0664e	-0.10957013
233	0xbd29cf9d	-0.04145776
234	0x3d0e4ae1	0.03473938
235	0x3d359a9d	0.044336904
236	0xbd4575a8	-0.04820791
237	0xbda86ef5	-0.082242884
238	0xbd108157	-0.035279598
239	0xbd692f8a	-0.056930102
240	0xbd741fa4	-0.059600487
241	0x3e582a61	0.21109916
242	0xbdc6b562	-0.09702565
243	0xbd976609	-0.073925085
244	0xbd6ba280	-0.05752802
245	0x3d37c07e	0.04486131
246	0x3c44fbdd	0.0120229395
247	0xbd866b35	-0.06563417
248	0xbdaa3c03	-0.083122276
249	0xbd07a0b8	-0.033112258
250	0x3da715d8	0.08158463
251	0xbccbc892	-0.024875913
252	0xbc80474f	-0.015659003
253	0x3da6f598	0.08152312
254	0xbd41f099	-0.047348592
255	0xbc843d71	-0.016142579

fc.2.bias f4 [142]
0	0xbd2693aa	-0.040668167
1	0x3cd002e7	0.025392009
2	0xbc3d540a	-0.011555681
3	0x3bbc184e	0.005740202
4	0xbbbaffe3	-0.0057067736
5	0x3d6a723c	0.05723785
6	0x3aee6bff	0.0018190144
7	0x3d86ef53	0.06588616
8	0xbd0b13d2	-0.03395445
9	0x3c9571a1	0.018242659
10	0xbdb1e852	-0.0868689
11	0xbd5a61cf	-0.053315934
12	0x3d5fa45b	0.0546001
13	0xbc021036	-0.007938435
14	0x3c79e7c6	0.015253013
15	0xbc6d655f	-0.014489501
16	0x3d13f244	0.036119714
17	0x3cde9ff8	0.027175888
18	0xbcb442d4	-0.022004522
19	0x3d88bede	0.0667703
20	0x3d3f4ec0	0.04670596
21	0x3bd561cc	0.0065119024
22	0xbd0749eb	-0.033029478
23	0x3da8fac5	0.082509555
24	0xbca44b38	-0.020055398
25	0x3d26cbc6	0.040721677
26	0xbc819bdf	-0.015821395
27	0x3d003d03	0.031308185
28	0xbd16d9c0	-0.036828756
29	0x3c508de8	0.012729146
30	0xbb6152f7	-0.0034381726
31	0xbc34bed5	-0.011031826
32	0x3dbffded	0.093746044
33	0x3d229328	0.03969112
34	0x3c0b6994	0.0085090585
35	0x3c19fa1f	0.009398012
36	0x3ceebb84	0.029142149
37	0x3d2e8723	0.042609345
38	0xbd0857b8	-0.03328678
39	0xbcb2a4e5	-0.021807143
40	0x3c40df45	0.011771982
41	0x3ca43c93	0.020048415
42	0xbd08bcf1	-0.033383314
43	0xbc78e5c7	-0.015191502
44	0x3c2caf36	0.01053982
45	0x3c75b039	0.014995628
46	0x3d83bb14	0.06432167
47	0xbd8f1024	-0.069855005
48	0x3ce6d086	0.028175604
49	0xbd413ce8	-0.047177225
50	0xbb8d0cfe	-0.0043045273
51	0xbb67d58b	-0.0035375084
52	0x3d7072ac	0.05870311
53	0x3c2b0129	0.010437288
54	0x3d464595	0.048406202
55	0x3dcd9c94	0.100396305
56	0x3d99b526	0.075052544
57	0x3b5fcae1	0.0034148025
58	0x3c8ab974	0.016934134
59	0x3d42f6c4	0.047598615
60	0xbca4b7f0	-0.02010724
61	0x3cf8a311	0.030351194
62	0x3d14c796	0.036323152
63	0x3d6694a6	0.056294106
64	0xbd5bdada	-0.05367551
65	0x3d6d0f98	0.0578762
66	0xbd2b012c	-0.041749164
67	0x3cdf5437	0.027261836
68	0x3cd170d1	0.02556649
69	0x3db08b2f	0.08620297
70	0x3cb50d1b	0.022100976
71	0xba77c447	-0.000945155
72	0x3d939aa8	0.07207233
73	0x3d05a76c	0.03263037
74	0xba5e845b	-0.00084883504
75	0x3d8cc4f2	0.06873502
76	0x3c91f464	0.01781673
77	0x3cd0a96b	0.02547141
78	0x3d7adb8d	0.061244536
79	0x3d403799	0.046928022
80	0xbc8a269e	-0.016864117
81	0x3d9c4ef6	0.07632248
82	0x3c9a764f	0.018855242
83	0x3d19dcf4	0.037564233
84	0x3d3dabc2	0.04630638
85	0xbc4649fd	-0.012102601
86	0xbcd306a9	-0.025760012
87	0xbcd39b90	-0.025831014
88	0xbd4e5f68	-0.050383955
89	0xbca2473e	-0.019809362
90	0x3c87b162	0.016564075
91	0x3daa27f8	0.08308405
92	0x3db0857d	0.08619211
93	0xbd5fd3ce	-0.054645352
94	0x3d29cf32	0.041457362
95	0xbd3597e2	-0.0443343
96	0x3c40e89b	0.011774207
97	0x3c5b99e1	0.013403387
98	0x3c52c66d	0.012864691
99	0xbd8d9b81	-0.06914426
100	0x3c1b3fc1	0.009475649
101	0xbd69bfb3	-0.057067584
102	0xbd972a68	-0.07381135
103	0xbd03b3e3	-0.032153975
104	0x3c16d777	0.009206644
105	0xbbf90eed	-0.0076006562
106	0x3c98085b	0.018558672
107	0x3b8a7a2d	0.0042259903
108	0xbd49aba0	-0.04923594
109	0xbcfd46f9	-0.030917631
110	0xbcb821db	-0.022477081
111	0xbd427319	-0.047473047
112	0xbd877c87	-0.066155486
113	0xbd9bcc7e	-0.07607363
114	0xbd681a60	-0.05666578
115	0xbd274c3d	-0.04084419
116	0xbce2e1af	-0.027695505
117	0x3d08e7ec	0.033424303
118	0x3bb820c8	0.005619142
119	0x3cb3bea7	0.021941496
120	0xbd411cbc	-0.047146544
121	0xbd82fe26	-0.06396131
122	0xbd97b6a4	-0.07407883
123	0x3ccaa244	0.024735577
124	0xbd9352ca	-0.07193525
125	0xbcdb2cdd	-0.02675479
126	0xbcc65884	-0.02421213
127	0x3d0ffb3b	0.0351517
128	0xbd56642f	-0.052341636
129	0xbd802224	-0.06256512
130	0xbd91bd80	-0.071162224
131	0xbd39cb47	-0.045359876
132	0xbd66f92d	-0.056389976
133	0x3b9b2595	0.0047347047
134	0xbd09ce00	-0.033643723
135	0xbbd3a5b7	-0.0064589637
136	0xbc2c191b	-0.0105040325
137	0x3cfacc5e	0.030615028
138	0x3d5d8be0	0.054088473
139	0xbd627d00	-0.05529499
140	0xbda7c7f3	-0.08192434
141	0xbd7aa9ae	-0.061196975
