inventory/model.pth (torch, 209233 bytes, 16 tensors)

conv.0.weight f4 [32, 3, 5, 5]
0	0xbdf90761	-0.121596105
1	0xbc2719fd	-0.010199067
2	0x3d2089ec	0.039194033
3	0xbcf33ea5	-0.029692957
4	0x3debca43	0.11513188
5	0x3c695398	0.014241122
6	0xbd650479	-0.05591247
7	0x3d0c1908	0.03420356
8	0x3d900fa5	0.07034234
9	0x3d6a3230	0.05717677
10	0x3b0bbc9f	0.0021322144
11	0xbdd2c5c8	-0.1029163
12	0xbd6f978e	-0.058494143
13	0x3d98a156	0.074526474
14	0x3d3a0ba4	0.045421258
15	0x3dde1fc2	0.10845901
16	0xbc327870	-0.010892972
17	0xbbbe0741	-0.0057992046
18	0x3d6e1ffb	0.058135968
19	0xbd34102f	-0.043960746
20	0x3da836fb	0.08213612
21	0x3dbbc349	0.09168107
22	0xbde0b46a	-0.10971911
23	0xbd8af6da	-0.067853644
24	0xbe314eeb	-0.17315261
25	0x3c22a61b	0.009927298
26	0x3dd64624	0.10462597
27	0xbd03a8a1	-0.03214324
28	0x3dc9d0e2	0.09854294
29	0xbc6a09dc	-0.014284577
30	0xbb66d464	-0.003522181
31	0xbdcc95d4	-0.09989515
32	0xbd8570d2	-0.065156594
33	0xbc82011c	-0.01586967
34	0x3e002525	0.1251417
35	0xbcac2659	-0.02101438
36	0xbda9e95b	-0.08296462
37	0xbdbc515b	-0.09195205
38	0xbd148de9	-0.03626815
39	0xbd2b2dff	-0.041791912
40	0x3d94372c	0.07237086
41	0x3d4f6f1e	0.05064308
42	0x3d6b8705	0.05750181
43	0x3d29a4ac	0.04141681
44	0x3d83c15e	0.06433366
45	0xbd1b073f	-0.037848707
46	0x3d51235a	0.051059105
47	0xbd2b7165	-0.04185619
48	0x3cd34dd7	0.025793953
49	0xbda8a0f6	-0.08233826
50	0xbdef7aed	-0.11693368
51	0xbdd68efd	-0.104764916
52	0x3a9ddf45	0.0012044689
53	0x3d95bbef	0.07311236
54	0x3d77c294	0.0604883
55	0xbc85d508	-0.016336933
56	0xbd4d8958	-0.05017981
57	0x3c6e7897	0.014555118
58	0x3ced25be	0.028948661
59	0x3be9b8c3	0.007132621
60	0x3b649f7f	0.0034885106
61	0x3d82fe5e	0.06396173
62	0x3ce17734	0.02752266
63	0x3d3db8a4	0.046318665
64	0xbcc0de5e	-0.023543533
65	0xbcad81a9	-0.02117999
66	0x3cdaf862	0.026729766
67	0xbdb552f5	-0.088537134
68	0x3d126ff2	0.03575129
69	0xbd96f9d3	-0.07371869
70	0x3d810eb1	0.0630163
71	0x3e07afaf	0.13250612
72	0x3d447149	0.0479596
73	0xbd93d2f8	-0.072179735
74	0xbdb9900b	-0.09060677
75	0x3defdd78	0.11712164
76	0x3da9ab81	0.08284665
77	0x3d898793	0.06715312
78	0x3c533a03	0.012892249
79	0xbe0a4209	-0.13501753
80	0x3dd8a0af	0.10577523
81	0xbdb6ca16	-0.089252636
82	0xbd85e539	-0.065378614
83	0xbd7d330c	-0.06181626
84	0x3da537b3	0.080672644
85	0x3d1c539a	0.038165666
86	0xbd2fd489	-0.0429273
87	0x3c923380	0.017846823
88	0x3ce42d02	0.027853493
89	0x3d0582ba	0.032595374
90	0xbd29c7ba	-0.04145024
91	0x3d921479	0.07132811
92	0xbd45db36	-0.04830476
93	0xbd945b60	-0.07243991
94	0xbdcb2ccd	-0.099206544
95	0x3d86dd27	0.0658515
96	0xbda5d928	-0.0809806
97	0x3dc2b583	0.09507277
98	0xbde87ed2	-0.11352314
99	0xbde0e7bd	-0.109817006
100	0x3db2d122	0.08731295
101	0x3cdade3d	0.0267173
102	0xbd034509	-0.03204826
103	0xbe152d6f	-0.14568113
104	0xbc9ed5dd	-0.019389087
105	0xbc35e6d9	-0.011102402
106	0xbd4f0f7c	-0.050551876
107	0xbdc97542	-0.09836818
108	0xbcd7dfeb	-0.02635189
109	0xbc449a41	-0.011999668
110	0xbcedbed6	-0.029021662
111	0xbccf00fa	-0.02526902
112	0xbd6bc9d7	-0.057565536
113	0x3d57173f	0.052512404
114	0x3d44a591	0.04800946
115	0x3da9ee07	0.08297353
116	0x3d21c8e4	0.039498225
117	0x3d1496da	0.036276676
118	0x3ce5f6d1	0.028071793
119	0x3bd24e8c	0.006418055
120	0xbb46bb5f	-0.0030324084
121	0xbd1c29ff	-0.038125988
122	0x3d3994cc	0.04530792
123	0x3ce36109	0.02775623
124	0x3cdb4ff4	0.026771523
125	0x3d02a39f	0.031894322
126	0x3d61c640	0.055120707
127	0x3db2dea2	0.0873387
128	0xbcccd621	-0.025004448
129	0x3d3aa4eb	0.045567434
130	0x3d93d2c7	0.07217937
131	0xbd2034b6	-0.03911277
132	0xbd584255	-0.052797634
133	0xbda6063e	-0.08106659
134	0xbdb1ccac	-0.08681616
135	0x3de10fa3	0.109893106
136	0xbdbf489e	-0.093400225
137	0x3deb27e4	0.11482218
138	0x3d896e7c	0.06710526
139	0xbd4eba40	-0.05047059
140	0x3d65b807	0.056083705
141	0x3d442d52	0.047894783
142	0xbd9f8d74	-0.07790652
143	0xbdb27f5a	-0.08715697
144	0xbdb4b00e	-0.08822642
145	0x3d98fc29	0.07469971
146	0xbdadc7a5	-0.08485345
147	0x3bc807f8	0.0061044656
148	0x3d963e72	0.07336129
149	0xbd5bb1ed	-0.05363648
150	0xbcf0164e	-0.02930751
151	0xbd935f6d	-0.071959354
152	0x3d24ac2f	0.04020327
153	0x3cb0cd21	0.021582188
154	0xbda0c14e	-0.0784937
155	0x3d803c08	0.0626145
156	0xbdaffd07	-0.08593183
157	0x3cf23a18	0.029568717
158	0x3c8fa145	0.017532954
159	0xbd3e8a8d	-0.04651885
160	0x3dceced9	0.10098047
161	0xbb471c74	-0.003038195
162	0xbd82b226	-0.06381635
163	0x3d92bdc6	0.07165103
164	0xbd710618	-0.058843702
165	0x3d823f78	0.06359762
166	0xbda09bc4	-0.0784221
167	0x3d772aa4	0.0603434
168	0x3da50a2a	0.08058579
169	0xbd080385	-0.03320648
170	0xbd87e614	-0.06635681
171	0x3b92e903	0.0044833436
172	0x3cb1a348	0.021684304
173	0xbdcb2f99	-0.09921188
174	0xbd2c1034	-0.04200764
175	0x3ddbeaef	0.107381694
176	0xbca56283	-0.020188576
177	0x3c9459a8	0.018109158
178	0xbd934d60	-0.071924925
179	0xbd50f34a	-0.05101327
180	0xbc9005a6	-0.017580818
181	0x3db8fbde	0.09032415
182	0x3d4c2787	0.049842384
183	0x3dc282aa	0.094975784
184	0xbba03e6e	-0.0048902547
185	0xbc2cee67	-0.010554886
186	0xbd9b4dea	-0.0758322
187	0xba2a9792	-0.0006507571
188	0x3dc9046c	0.098152965
189	0xbdd4c3a7	-0.1038888
190	0xbc01355a	-0.007886255
191	0xbcf7d855	-0.030254522
192	0xbd72d653	-0.059286427
193	0xbdbff94e	-0.09373723
194	0x3d3dac10	0.04630667
195	0xbdad5594	-0.08463588
196	0x3da99d7f	0.08281993
197	0x3c8b93a3	0.017038172
198	0x3d1294de	0.035786502
199	0xbdb6f752	-0.08933891
200	0xbc0f4c26	-0.008746183
201	0x3c81e6f8	0.015857205
202	0x3dc884e0	0.09790969
203	0xbd9560c3	-0.072938465
204	0x3ddc05d0	0.10743296
205	0x3da35525	0.079752244
206	0x3db901ab	0.09033521
207	0xbd798a77	-0.060923066
208	0x3d6ff140	0.058579683
209	0x3d942124	0.072328836
210	0xbded3227	-0.115818314
211	0x3d9ac1d8	0.07556504
212	0x3db6227d	0.08893297
213	0xbd5630b9	-0.05229256
214	0x3decedab	0.11568769
215	0x3d43959d	0.047750104
216	0x3d336d2e	0.043805294
217	0x3d7fe625	0.062475342
218	0x3d9dbd14	0.077020794
219	0xbda6b360	-0.08139682
220	0xbd5ef357	-0.054431286
221	0xbd7c2865	-0.06156196
222	0x3c88771a	0.016658355
223	0xbdda27df	-0.10652136
224	0xbcb97b42	-0.022641782
225	0x3d61543f	0.055011984
226	0x3b4ff2ff	0.003173053
227	0x3b95e812	0.004574784
228	0x3df1dbff	0.11809539
229	0xbd5f88ab	-0.054573696
230	0x3d8990eb	0.06717094
231	0x3c47b518	0.012189172
232	0xbd88c16a	-0.06677516
233	0xbd9126ba	-0.07087465
234	0xbd1f93e3	-0.038959395
235	0xbceeaaff	-0.029134272
236	0xbc09eddc	-0.0084185265
237	0x3d7ab1e3	0.061204802
238	0xbdebe1be	-0.11517666
239	0x3db40fb4	0.08792058
240	0xbd3565d3	-0.04428656
241	0xbcfa8604	-0.030581482
242	0x3d1986c3	0.037482034
243	0x3d52d0d5	0.05146869
244	0x39945693	0.00028293263
245	0x3d910fe0	0.07083106
246	0x3c81cb96	0.015844148
247	0x3ce06fb1	0.027397009
248	0x3b94ad05	0.004537227
249	0x3cd9592c	0.026531778
250	0xbcff11ad	-0.031136358
251	0x3ca9dc91	0.020735057
252	0xbd201405	-0.039081592
253	0xbd923062	-0.071381345
254	0x3da01004	0.07815555
255	0xbd86e080	-0.06585789

conv.0.bias f4 [32]
0	0xbdc25c38	-0.094902456
1	0x3d9bc357	0.076056175
2	0xbd371e93	-0.044706892
3	0x3d750058	0.05981478
4	0xbd8e869c	-0.069592685
5	0x3d8fba34	0.07017937
6	0xbdccb6c1	-0.09995795
7	0x3a24a098	0.0006280034
8	0x3cba873e	0.022769567
9	0xbda9f685	-0.08298973
10	0xbc069e82	-0.008216502
11	0xbc756c54	-0.014979441
12	0x3d9c72c8	0.0763908
13	0xbdce509f	-0.10073971
14	0x3de2d02a	0.110748604
15	0x3c6f5fdf	0.01461026
16	0xbc2dfd30	-0.010619447
17	0xbd195632	-0.037435718
18	0x3d81ae0c	0.06332025
19	0xbc67c5b4	-0.014146257
20	0x3caf4481	0.02139497
21	0x3d195e14	0.037443236
22	0x3d7ee07b	0.0622258
23	0xbd767ff9	-0.060180638
24	0x3d3a64fe	0.04550647
25	0x3e053d82	0.13011745
26	0xbd7a713c	-0.061143145
27	0x3d872403	0.065986656
28	0x3ccce2ea	0.025010545
29	0x3df55ed6	0.11980979
30	0x3d017bb5	0.031612117
31	0x3da14254	0.07873979

conv.1.weight f4 [32]
0	0x3f8b6ab2	1.0891936
1	0x3f8928b4	1.0715547
2	0x3f7e7b18	0.99406576
3	0x3f801fe5	1.0009733
4	0x3f7d3597	0.98909897
5	0x3f7e0e79	0.99240834
6	0x3f7ab746	0.97935903
7	0x3f72e422	0.94879353
8	0x3f81ac82	1.013077
9	0x3f85f465	1.0465208
10	0x3f77cec1	0.96799856
11	0x3f79b27c	0.9753797
12	0x3f78ea58	0.9723258
13	0x3f7cd831	0.9876738
14	0x3f810002	1.0078127
15	0x3f8abc8b	1.0838789
16	0x3f7c1b0f	0.9847879
17	0x3f7b800c	0.9824226
18	0x3f7efae5	0.99601585
19	0x3f7c7392	0.98613846
20	0x3f85786d	1.0427376
21	0x3f82c835	1.0217348
22	0x3f832100	1.0244446
23	0x3f7a91cf	0.97878736
24	0x3f8538ef	1.0408
25	0x3f7e8cde	0.99433696
26	0x3f76e3d0	0.96441364
27	0x3f8276a2	1.0192454
28	0x3f7e376f	0.99303335
29	0x3f7b493b	0.98158616
30	0x3f7777ad	0.96666986
31	0x3f75910f	0.95924467

conv.1.bias f4 [32]
0	0x37b84662	2.1967284e-05
1	0xbd3da424	-0.046299115
2	0x3d18c5a3	0.037297856
3	0x3c843608	0.016139045
4	0xbcf82bfe	-0.030294415
5	0x3cf71403	0.03016091
6	0xbd03307c	-0.03202866
7	0xbbd23b97	-0.006415795
8	0xbccd5e98	-0.02506952
9	0xbd3344ce	-0.04376679
10	0xba76d111	-0.00094153086
11	0xbda560a7	-0.080750756
12	0xbd8749a7	-0.06605845
13	0xbb25538f	-0.0025226807
14	0xbd16ea67	-0.036844637
15	0x3d3662b4	0.044527724
16	0xbb3719c4	-0.0027938941
17	0xbd631c57	-0.05544695
18	0xbba84ace	-0.0051358705
19	0x3d865c3a	0.065605596
20	0x3d5f15ce	0.054464154
21	0x3b8aa300	0.004230857
22	0xbd9f5309	-0.077795096
23	0x3b87333b	0.00412598
24	0xbd835390	-0.06412423
25	0x3c80cbdf	0.015722213
26	0xbca18698	-0.0197175
27	0x3d4162fe	0.047213547
28	0xbc93fd28	-0.01806505
29	0x3b5996b6	0.0033201403
30	0xbc706142	-0.014671626
31	0xbd2b2028	-0.041778713

conv.1.running_mean f4 [32]
0	0xbdb560e2	-0.088563696
1	0xbc067eb4	-0.008208919
2	0x3cd7ff57	0.026366873
3	0xbd9c7f54	-0.076414734
4	0xbe6b6983	-0.22989468
5	0xbdab166e	-0.083538875
6	0x3eb464ec	0.35233247
7	0x3e04c71d	0.1296658
8	0xbc4c759e	-0.012479214
9	0xbda8a597	-0.08234709
10	0x3f3cb7c1	0.73717886
11	0xbf4315f2	-0.7620536
12	0xbde3710c	-0.11105546
13	0x3d452ade	0.048136584
14	0xbd9085a9	-0.07056744
15	0x3d0831a6	0.033250473
16	0x3cf70a1a	0.030156184
17	0x3d8e88ac	0.06959662
18	0xbd887670	-0.06663215
19	0xbf27321e	-0.6531085
20	0x3c4b3cab	0.012404601
21	0xbcd305a1	-0.02575952
22	0x3d9ac4ca	0.07557066
23	0xbce05efe	-0.027389046
24	0x3d7d113f	0.061784025
25	0xbe2be9b0	-0.16788363
26	0x3f3d3f5c	0.73924804
27	0x3ca59302	0.0202117
28	0x3d77e309	0.060519252
29	0x3e3cc1c2	0.18433288
30	0x3e99194e	0.29902118
31	0x3eb2a2fc	0.34889972

conv.1.running_var f4 [32]
0	0x3c09ee9b	0.008418704
1	0x3c5671d6	0.013088664
2	0x3c58b9c3	0.013227883
3	0x3c1473c0	0.0090608
4	0x3c1dbe99	0.009627962
5	0x3c76e1c7	0.015068478
6	0x3d862973	0.065508746
7	0x3c92fe90	0.01794365
8	0x3c663aec	0.014052134
9	0x3bd44b0f	0.0064786742
10	0x3de1ee11	0.11031736
11	0x3de6ede6	0.11275844
12	0x3c74dc92	0.014945166
13	0x3c8115fb	0.015757551
14	0x3d5cffbe	0.053954832
15	0x3c5d07aa	0.013490597
16	0x3c1626ad	0.009164494
17	0x3c0131b0	0.007885382
18	0x3d0f5633	0.034994315
19	0x3ddc311b	0.107515536
20	0x3ca650c6	0.020302188
21	0x3c0436b6	0.008069685
22	0x3cc44187	0.023957027
23	0x3b473c29	0.0030400848
24	0x3b44560f	0.0029958521
25	0x3d076168	0.03305188
26	0x3e054ef2	0.13018396
27	0x3ce490ef	0.027901141
28	0x3b7ae4cb	0.0038283344
29	0x3b79b063	0.003809952
30	0x3c945414	0.018106498
31	0x3d43802d	0.04772966

conv.4.weight f4 [32, 32, 3, 3]
0	0x3d71b1d9	0.0590075
1	0x3d0691d5	0.03285392
2	0xbb54fd83	-0.0032499738
3	0xbd5d49ff	-0.054025646
4	0x3cc5acba	0.024130214
5	0xbdb3072f	-0.087416045
6	0x3d3ad38a	0.045611896
7	0x3cd53912	0.02602819
8	0xbd52df38	-0.05148241
9	0x3d88ec71	0.066857226
10	0xbcc7819b	-0.024353793
11	0x3ca65e43	0.02030862
12	0xbb61ee8b	-0.0034474458
13	0x3d01a579	0.031651948
14	0xbcd63194	-0.026146688
15	0xbcf9841b	-0.0304585
16	0x3d14e626	0.0363523
17	0x3d1fc72e	0.039008312
18	0x3da5f777	0.08103841
19	0x3d075b8d	0.033046294
20	0xbd83f0e5	-0.06442431
21	0x3d28459f	0.04108202
22	0x3da2bd43	0.07946255
23	0xbd0a306b	-0.03373758
24	0xbcf51cf8	-0.02992104
25	0x3c109df6	0.008826723
26	0xbd88a60f	-0.06672298
27	0x3cd9db22	0.026593748
28	0xbd0aea91	-0.033915106
29	0xbca95bff	-0.02067375
30	0xbd289f86	-0.04116776
31	0xbce05d5d	-0.02738827
32	0x3d34f79f	0.044181462
33	0xbd74b7ba	-0.059745528
34	0xbce306bd	-0.027713174
35	0xbcb4aed1	-0.022056015
36	0xbcb02102	-0.021500114
37	0x3d0e77ef	0.034782346
38	0x3d8f062d	0.069836
39	0x3c6c2073	0.014412033
40	0x3d15b8f5	0.036553342
41	0x3d4d4a74	0.050119832
42	0xbcfeb401	-0.031091692
43	0xbc2288f8	-0.009920351
44	0x3d27cf84	0.040969387
45	0xbd09c724	-0.03363718
46	0xbd37b912	-0.04485423
47	0xbde3fafd	-0.111318566
48	0x3d691151	0.05690128
49	0xbd8029e5	-0.06257991
50	0xbb196d2f	-0.0023411026
51	0x3d26e90a	0.040749587
52	0x3c13d3be	0.009022651
53	0x3c1a6751	0.009424047
54	0xbd1efaa8	-0.038813263
55	0x3b98c54e	0.0046621924
56	0xbcaf7717	-0.021419091
57	0x3cc128d9	0.023579048
58	0xbcd3fe49	-0.025878089
59	0x3d14050b	0.03613762
60	0xbc9a369e	-0.018824872
61	0x3d3d65ab	0.046239536
62	0xbce89b62	-0.028394405
63	0xbc7f6ec6	-0.015590375
64	0xbaf8ed2e	-0.0018991583
65	0x3d0094c4	0.031391874
66	0xbca2bc2b	-0.019865116
67	0x3d59dcc6	0.05318906
68	0xbc77d60f	-0.015126719
69	0xbcef024f	-0.029175906
70	0xbae39cff	-0.0017365514
71	0x3d36b3b9	0.04460499
72	0x3d288701	0.041144375
73	0x3d850bfd	0.06496427
74	0x3c841835	0.016124824
75	0xbc044552	-0.008073168
76	0xbd20f21d	-0.039293397
77	0x3b3bff53	0.002868612
78	0xbcc1af15	-0.023643056
79	0xbd04a964	-0.032388106
80	0xbd66006e	-0.056152754
81	0xbd0f53cf	-0.034992035
82	0xba8e837e	-0.0010872928
83	0xbd865625	-0.065593995
84	0x3ce4e819	0.027942704
85	0x3d21f011	0.039535586
86	0xbcc65532	-0.024210546
87	0xbd6a6b88	-0.057231456
88	0x3cb1e206	0.021714222
89	0xbcc6ed0b	-0.024282953
90	0xbc811953	-0.015759146
91	0xbd458c56	-0.048229538
92	0x3d4665af	0.048436817
93	0xbd157de5	-0.036497016
94	0xbd39e61a	-0.045385458
95	0xbd0968b5	-0.033547122
96	0xbd554c5b	-0.05207477
97	0x3ca85536	0.020548444
98	0x3db351f5	0.087558664
99	0x3c9925d4	0.018694796
100	0xbc4b5bee	-0.012412054
101	0x3d70a664	0.058752432
102	0x3c13501d	0.008991268
103	0xbcc700b0	-0.02429232
104	0xbd8c4bbd	-0.068503834
105	0x3d0896aa	0.03334681
106	0xbcc27017	-0.02373509
107	0x3d36035a	0.04443679
108	0xbd1a7953	-0.03771336
109	0xbbd5d912	-0.006526121
110	0xbc323e61	-0.01087913
111	0x3d18e8c1	0.037331346
112	0xbbfcb0a7	-0.0077114883
113	0xbd5db5bc	-0.054128394
114	0xbd46c3ce	-0.048526578
115	0xbba6c4df	-0.005089387
116	0x3d715515	0.05891903
117	0x3d025c56	0.03182634
118	0xbcb1e0f3	-0.02171371
119	0xbc026743	-0.00795919
120	0xbd28a468	-0.041172415
121	0xbd2cf5e4	-0.042226687
122	0xbd9b81d4	-0.07593122
123	0xbc03eb88	-0.0080517605
124	0x3a3bd66d	0.0007165436
125	0xbce7cfdb	-0.028297355
126	0x3d8a9fee	0.067687854
127	0xbcb93693	-0.02260903
128	0x3d1c1b79	0.038112137
129	0xbcdfd1f9	-0.027321802
130	0x3d7e466d	0.062078882
131	0x3d161c5f	0.03664815
132	0x3d19ffcf	0.037597474
133	0xbd17b8fe	-0.037041657
134	0x3d3408af	0.043953594
135	0xbd0bb8ef	-0.034111913
136	0xbce594bb	-0.028025022
137	0xbd8f34f6	-0.06992523
138	0x3d40bf74	0.047057584
139	0x3d3553e7	0.04426947
140	0xbcbf44bc	-0.023348205
141	0xbd71aa23	-0.059000146
142	0x3cc833a6	0.02443869
143	0xbdc42fc0	-0.0957942
144	0xbd50efdd	-0.05101
145	0x3b3531c4	0.002764807
146	0xbce4f8b3	-0.02795062
147	0x3d8cf0c6	0.068818614
148	0xbb3c104a	-0.0028696232
149	0xbcc755d9	-0.024332928
150	0x3cfbb04c	0.030723713
151	0xbd8f2e97	-0.06991308
152	0x3d01932f	0.031634506
153	0x3cd73414	0.02626995
154	0xbc732325	-0.014839922
155	0xbcd3e268	-0.025864795
156	0x3cbbc922	0.022923056
157	0x3d239306	0.039935134
158	0xbcc1d0fe	-0.023659226
159	0x3d0f81f5	0.035036046
160	0xbbd9e3dd	-0.006649478
161	0x3cd6c36f	0.026216237
162	0xbcc867b4	-0.024463512
163	0xbc372402	-0.0111780185
164	0x3d67ac2c	0.05656068
165	0xbd8e48c7	-0.06947475
166	0xbcb08613	-0.021548307
167	0xbcc31654	-0.023814358
168	0xbc3930d7	-0.011303148
169	0xbd705c81	-0.05868197
170	0x3d2e6586	0.04257729
171	0xbd1a42a3	-0.037661206
172	0x3cc4433c	0.023957841
173	0x3c2706aa	0.01019446
174	0x3d41d223	0.047319543
175	0xbd43f936	-0.047845088
176	0x3b589716	0.0033049039
177	0x3d2814a1	0.0410353
178	0xbd26f685	-0.040762443
179	0x3d5cf216	0.05394181
180	0xbc89ab2b	-0.016805252
181	0x3bf3bf82	0.007438601
182	0x3bedad47	0.0072533223
183	0x3d422ab7	0.047404017
184	0x3d793610	0.060842574
185	0x3c7159d0	0.014730886
186	0x3d4accd0	0.04951173
187	0xbd58749e	-0.05284559
188	0x3cf28f38	0.029609308
189	0x3a653f25	0.0008745066
190	0x3ca4e355	0.020127932
191	0x3ca2ca87	0.019871963
192	0xbc88bfbb	-0.016692987
193	0xbc64021c	-0.013916519
194	0x3cac4ce4	0.021032758
195	0xbb4af62e	-0.0030969488
196	0xbccb25ab	-0.024798235
197	0x3ca0a12f	0.019608108
198	0x3c8b9ec6	0.017043483
199	0xbdac1299	-0.08401985
200	0xbd822d2f	-0.06356274
201	0xbd2a8b4b	-0.041636746
202	0xbd5bcb85	-0.05366089
203	0x3c59d2af	0.01329486
204	0xbc2923f3	-0.010323512
205	0x3d6bda99	0.057581518
206	0x3d15c86a	0.036568083
207	0xbd029819	-0.031883333
208	0x3d70875b	0.058722835
209	0x3d15948b	0.036518615
210	0xbccf861c	-0.025332503
211	0x3c802dcc	0.015646838
212	0x3b651771	0.00349566
213	0xbb8bc182	-0.0042650113
214	0x3c101404	0.008793835
215	0x3d0d3cee	0.034481935
216	0x3d93d658	0.07218617
217	0xbc0923c9	-0.008370348
218	0x3d65bf13	0.056090426
219	0xbc5e2690	-0.013558999
220	0xbcd9076d	-0.026492799
221	0x3c004f6c	0.007831436
222	0x3d3a9adc	0.04555784
223	0x3d8773bc	0.066138715
224	0x3ce54596	0.027987283
225	0x3cf22a40	0.029561162
226	0x3ccaea6a	0.02476998
227	0xbc89c85a	-0.016819168
228	0x3c050a40	0.00812012
229	0x3cdeb2cf	0.027184872
230	0x3c5dd35b	0.013539161
231	0xbd5632ce	-0.052294545
232	0x3ccec0dd	0.025238449
233	0xbc549c79	-0.012976759
234	0x3d7ba68a	0.06143812
235	0xbbec4463	-0.007210301
236	0x3d030d78	0.031995267
237	0x3d1dbe92	0.03851182
238	0x3cd0f188	0.025505796
239	0x3c935908	0.01798679
240	0xbcdc6b2e	-0.026906576
241	0xbba9bf6a	-0.005180289
242	0xbcabadd1	-0.020956906
243	0xbcdae0a8	-0.026718453
244	0xbd1085b1	-0.035283748
245	0xbc7bba72	-0.015364276
246	0xbc0d8de8	-0.00863979
247	0xbd99f6ba	-0.075177625
248	0x3cefd544	0.029276498
249	0xbd9869ae	-0.07442032
250	0xbcd05510	-0.025431186
251	0x3c9f1b49	0.01942219
252	0x3c9d9d82	0.019240145
253	0xbd332ced	-0.043744016
254	0xbc8cd8e6	-0.017193269
255	0xbbe8efd2	-0.007108667

conv.4.bias f4 [32]
0	0x3b366f76	0.0027837432
1	0xbbe51239	-0.0069906977
2	0xbd060aeb	-0.032725256
3	0xbd335e45	-0.043791074
4	0xbc1b0ad3	-0.00946303
5	0xbd8700f0	-0.06591976
6	0xbc9c8e7a	-0.019110907
7	0x3d561c33	0.052272987
8	0xbd10bf57	-0.035338726
9	0x3d040c09	0.03223804
10	0xbceef366	-0.029168796
11	0x3d6e89fc	0.05823706
12	0xbd66fdca	-0.056394376
13	0xbce8fbd9	-0.028440403
14	0xbd480b30	-0.048838794
15	0xbd0004bd	-0.03125452
16	0xbc831af0	-0.016004056
17	0x3d71615e	0.058930747
18	0xbd362d46	-0.04447677
19	0x3d71e740	0.059058428
20	0x3c869e73	0.016432976
21	0xbd80a3e4	-0.0628126
22	0x3bc6b781	0.006064356
23	0xbd5de865	-0.054176707
24	0xbd484fad	-0.04890411
25	0xbd66935a	-0.05629287
26	0x3d1d4860	0.0383991
27	0x3ae9b489	0.0017830293
28	0xbd2732bd	-0.040819872
29	0xbd204f83	-0.03913833
30	0x3cb433fc	0.021997444
31	0x3d3e9d64	0.04653682

conv.5.weight f4 [32]
0	0x3f8c0ecf	1.0942019
1	0x3f8a7c46	1.0819175
2	0x3f8a4b54	1.0804238
3	0x3f8bb35f	1.0914115
4	0x3f8c5ea3	1.0966381
5	0x3f8c9c0a	1.0985119
6	0x3f8c4842	1.0959551
7	0x3f8b6963	1.0891536
8	0x3f8b5e35	1.0888125
9	0x3f8b4a12	1.088198
10	0x3f8de64a	1.1085904
11	0x3f8c10ee	1.0942667
12	0x3f8be440	1.0929031
13	0x3f8c4f44	1.096169
14	0x3f8b4488	1.0880289
15	0x3f8cb974	1.0994096
16	0x3f8b44ad	1.0880333
17	0x3f8e1d77	1.1102742
18	0x3f8cae3d	1.0990673
19	0x3f8b8cca	1.090234
20	0x3f8c1415	1.0943629
21	0x3f8af2b1	1.0855314
22	0x3f8b218c	1.0869613
23	0x3f8cc7fa	1.0998528
24	0x3f8d4b4b	1.1038603
25	0x3f8b2bca	1.0872738
26	0x3f8ecb69	1.1155826
27	0x3f8d063d	1.1017529
28	0x3f8bad39	1.0912238
29	0x3f8bd9c7	1.0925835
30	0x3f8bda1c	1.0925937
31	0x3f8b7dce	1.0897768

conv.5.bias f4 [32]
0	0x3d9b0d54	0.075709015
1	0x3da1c7e9	0.07899458
2	0x3d917f4b	0.07104357
3	0x3da9c2df	0.08289122
4	0x3da7a1a3	0.08185127
5	0x3db509d5	0.08839766
6	0x3dbd866b	0.09254154
7	0x3db1ca93	0.08681216
8	0x3da05b23	0.07829883
9	0x3d98ece5	0.07467059
10	0x3db4b91b	0.088243686
11	0x3d9fdc61	0.07805706
12	0x3dad5adf	0.08464598
13	0x3dabdf2a	0.083921745
14	0x3d99a182	0.07501508
15	0x3daa6c56	0.08321445
16	0x3da4df8c	0.08050451
17	0x3dbca332	0.092108145
18	0x3dad83c9	0.08472402
19	0x3d9fb0aa	0.07797368
20	0x3db690bb	0.08914324
21	0x3dad4d41	0.08462001
22	0x3d98c223	0.07458904
23	0x3dbb88f7	0.09156983
24	0x3dd2d16d	0.10293851
25	0x3d97bcbd	0.07409046
26	0x3dbde4ef	0.09272181
27	0x3db33aee	0.08751474
28	0x3da37c84	0.07982734
29	0x3da9e733	0.08296051
30	0x3dae67ec	0.08515915
31	0x3dab8719	0.08375377

conv.5.running_mean f4 [32]
0	0xbbdd2205	-0.00674844
1	0xbe8545e3	-0.26029882
2	0xbe5ea83f	-0.21743868
3	0x3e372f60	0.17889166
4	0xbdfb47c8	-0.122695506
5	0xbd7d81fd	-0.061891545
6	0xbe2b1ab4	-0.16709405
7	0x3d59c37d	0.053164948
8	0xbc5fd83e	-0.013662396
9	0xbe120522	-0.1425977
10	0x3e903c79	0.28171137
11	0xbe39cdce	-0.18144915
12	0xbe714cd3	-0.23564462
13	0xbd6137b9	-0.054984782
14	0x3df0e05b	0.117615424
15	0xbe3aa966	-0.18228683
16	0x3c2c41a9	0.0105137015
17	0x3f03b972	0.5145484
18	0xbd4e114c	-0.050309464
19	0xbea64cd6	-0.32480496
20	0x3c2cbfae	0.010543747
21	0xbe6ac683	-0.22927289
22	0xbe2fce24	-0.1716848
23	0x3e1083ec	0.14112824
24	0xbd50002e	-0.05078142
25	0xbea40354	-0.3203379
26	0xbcaa6967	-0.020802213
27	0x3e11cb74	0.14237767
28	0xbbe951e0	-0.007120356
29	0xbe7cd0ad	-0.24688978
30	0x3d8336fc	0.06406972
31	0xbf0f97cc	-0.56091

conv.5.running_var f4 [32]
0	0x3c4d08a3	0.012514266
1	0x3c8284ba	0.01593243
2	0x3cd2a835	0.025714973
3	0x3c9fee38	0.019522771
4	0x3c803dca	0.015654463
5	0x3c3f24d5	0.011666496
6	0x3d0749a3	0.03302921
7	0x3c53fde5	0.012938951
8	0x3ce43fec	0.027862512
9	0x3ca2b326	0.019860815
10	0x3ca0e24d	0.019639159
11	0x3c6c51c5	0.014423792
12	0x3c8e9b4d	0.017408038
13	0x3c72300c	0.014781963
14	0x3d4c7b9e	0.049922578
15	0x3c5f8473	0.013642418
16	0x3cc7a0f6	0.024368744
17	0x3cba5718	0.022746608
18	0x3c0fe41e	0.008782415
19	0x3cebb6b7	0.028773649
20	0x3c82167a	0.015879858
21	0x3ccf3c46	0.025297295
22	0x3cac5633	0.021037197
23	0x3c31961b	0.010839011
24	0x3d191346	0.037371896
25	0x3c9f2d05	0.019430647
26	0x3c36a393	0.011147398
27	0x3c9743c9	0.01846494
28	0x3d253bdc	0.04034029
29	0x3cf42e9c	0.029807381
30	0x3c77d2ca	0.01512594
31	0x3d547876	0.051872693

fc.0.weight f4 [178, 128]
0	0xbd79c959	-0.060983036
1	0xbbca7274	-0.0061781947
2	0xbdeb57f1	-0.11491383
3	0xbd4c30b6	-0.049851142
4	0xbd854afa	-0.06508441
5	0x3da8c4cf	0.08240663
6	0x3dfa964b	0.12235697
7	0x3ca45057	0.02005784
8	0x3e10ff67	0.14159928
9	0x3e024891	0.12722994
10	0xbcaef764	-0.0213582
11	0xbdfafe58	-0.122555435
12	0xbd41303c	-0.04716514
13	0xbd0a1183	-0.033708107
14	0x3dd3297f	0.10310649
15	0x3d93c303	0.0721493
16	0xbdd46bf4	-0.10372153
17	0x3d8eef5f	0.0697925
18	0xbe3891fe	-0.18024442
19	0x3d8a8606	0.06763844
20	0xbbf742f7	-0.0075458246
21	0x3d81477b	0.06312462
22	0x3d7f0a30	0.062265575
23	0xbca1ad50	-0.019735962
24	0xbd015459	-0.03157458
25	0xbd030f4b	-0.031997006
26	0x3d160956	0.036629997
27	0x3dd6410f	0.10461628
28	0x3ce72520	0.028215945
29	0x3e09deaf	0.13463853
30	0x3cac0910	0.021000415
31	0xbd099f41	-0.033599142
32	0x3d8c273e	0.06843422
33	0x3dd82957	0.1055476
34	0xbdda0281	-0.10645009
35	0xbd8fd984	-0.0702391
36	0x3d17995e	0.037011497
37	0x3c43a3d3	0.011940914
38	0x3e0ff477	0.140581
39	0xbc84c4ce	-0.016207125
40	0xbe5a041a	-0.21290627
41	0xbcc29aef	-0.023755519
42	0xbdcfbd28	-0.101435006
43	0xbce2738d	-0.02764299
44	0x3e075551	0.1321614
45	0x3d5e9cac	0.054348633
46	0x3e25cf18	0.16192281
47	0x3dd363a1	0.10321737
48	0x3e000c90	0.12504792
49	0x3d9a0ca9	0.07521946
50	0xbd5ee37d	-0.05441617
51	0x3b490039	0.0030670299
52	0x3c65c074	0.014022935
53	0xbdbd7cad	-0.09252296
54	0x3da902b9	0.082524724
55	0x3debe903	0.11519053
56	0x3d8e3add	0.06944821
57	0x3db96090	0.09051621
58	0x3da3e1a9	0.08002026
59	0xbceb3dc6	-0.02871598
60	0xbdd0176c	-0.10160717
61	0x3dce2c4c	0.10067043
62	0x3d7ea77a	0.062171437
63	0x3df5580e	0.11979686
64	0xbb84e0a9	-0.004055102
65	0xbd1cf2d3	-0.038317513
66	0xbd883a7c	-0.0665178
67	0x3e088556	0.13332114
68	0xbdad0424	-0.084480554
69	0xbe118fdd	-0.14215036
70	0xbd1c64e6	-0.03818216
71	0xbc7034d0	-0.014661029
72	0x3da2cab7	0.07948821
73	0x3c8b977c	0.017040007
74	0xbdd833e5	-0.10556773
75	0x3de5f013	0.11227431
76	0xbdd9814d	-0.10620365
77	0x3daa66b7	0.083203726
78	0x3e05393d	0.13010116
79	0x3df0d36a	0.11759074
80	0x3c92a57e	0.017901178
81	0x3cbce373	0.023057675
82	0x3dbf4902	0.09340097
83	0x3cd8f393	0.026483333
84	0x3c0bccbf	0.008532702
85	0x3d0cc3d6	0.03436645
86	0xbd48b93d	-0.049004782
87	0x3d60bb30	0.054866016
88	0x3d907398	0.07053298
89	0xbb51291a	-0.0031915368
90	0xbe00d23b	-0.12580197
91	0x3d95307f	0.072846405
92	0xbcd6989f	-0.026195822
93	0x3dbbfa25	0.09178571
94	0x3c73c3fa	0.014878267
95	0x3c875185	0.016518364
96	0xbd96946d	-0.07352529
97	0xbcb20352	-0.021730099
98	0xbc1dcc1c	-0.009631183
99	0x3e09d7c3	0.13461213
100	0x3bffd0a4	0.0078068543
101	0x3d145ccc	0.03622131
102	0x3ce48149	0.02789368
103	0x3e2340f7	0.15942751
104	0xbde155ea	-0.11002715
105	0xbdadda23	-0.08488872
106	0xbdaeb1dd	-0.085300185
107	0x3d908476	0.07056515
108	0xbdb38586	-0.08765702
109	0x3ce76b73	0.028249478
110	0xbcdef74c	-0.02721753
111	0xbdcffb94	-0.101554066
112	0x3de69dbd	0.11260555
113	0x3cf9981e	0.030468043
114	0xbe094c65	-0.13408048
115	0x3cb4011d	0.021973187
116	0xbd2d7958	-0.04235205
117	0x3c877a02	0.01653767
118	0xbcba57c4	-0.022746928
119	0x3dea98c2	0.114549175
120	0x3d5a3f26	0.05328288
121	0x3d824bf2	0.06362142
122	0xbc87acdf	-0.016561924
123	0x3d9a9b6c	0.075491756
124	0x3da90f86	0.08254914
125	0xbd3b8fb6	-0.04579135
126	0x3d8c49a7	0.068499856
127	0x3dd8c3a4	0.105841905
128	0x3e13777f	0.14401053
129	0xbde7b255	-0.11313311
130	0xbe284c85	-0.1643544
131	0x3cdff00b	0.027336141
132	0xbce644b5	-0.028108934
133	0xbd221bf2	-0.039577432
134	0x3e5fc21e	0.21851394
135	0x3cb41ba5	0.021985838
136	0x3c46c5a1	0.012132079
137	0x3bd57fa2	0.006515459
138	0xbde2af65	-0.1106861
139	0x3d83b30b	0.06430634
140	0x3e27f59f	0.16402291
141	0x3dd9deb5	0.10638181
142	0x3e19c391	0.15016009
143	0x3e146735	0.14492495
144	0x3d5b5ee0	0.053557277
145	0xbe3fc29d	-0.18726583
146	0xbed19519	-0.40934065
147	0xbda7d1ba	-0.08194299
148	0xbe0cd9a5	-0.137549
149	0x3e360657	0.17775856
150	0x3d91a448	0.07111412
151	0xbe080fc3	-0.13287263
152	0x3dfbb65f	0.12290644
153	0x3cf0ca70	0.029393405
154	0x3e8869b8	0.26643157
155	0x3e05fe0e	0.13085195
156	0xbd877b16	-0.06615274
157	0xbcb4c28a	-0.02206542
158	0xbda74c06	-0.08168797
159	0xbdd3ba3e	-0.10338257
160	0x3da77972	0.08177461
161	0x3d99dcd9	0.075128265
162	0xbcc71274	-0.024300791
163	0xbd73fe4a	-0.05956868
164	0x3e1ec8f7	0.1550635
165	0x3d67554a	0.056477822
166	0x3cfeec9b	0.031118682
167	0x3e1232ee	0.1427724
168	0x3e6839fe	0.22678372
169	0x3dad3598	0.08457488
170	0x3dab56fd	0.08366201
171	0xbc308d4f	-0.010775878
172	0x3d6be189	0.057588134
173	0x3e17dfae	0.14831421
174	0x3e05583d	0.13021941
175	0x3d3b1f26	0.045684002
176	0xbd5253d1	-0.051349465
177	0xbe7b1b82	-0.24522212
178	0xbd87ceec	-0.06631264
179	0x3e435d4c	0.19078559
180	0x3cd4953a	0.025950063
181	0xbcb52e1a	-0.02211671
182	0x3bc44d8f	0.005990691
183	0x3d238549	0.039922033
184	0x3db76757	0.089552574
185	0x3cc04bd3	0.023473656
186	0x3e181c47	0.14854537
187	0x3d53060c	0.05151944
188	0xbeb359aa	-0.35029346
189	0x3c655a3e	0.013998566
190	0xbc107519	-0.008816981
191	0x3d69b123	0.057053696
192	0x3b89719c	0.0041944515
193	0x3d1b9076	0.037979566
194	0xbce59d5f	-0.028029142
195	0x3d81b025	0.06332425
196	0x3d5dc2a0	0.054140687
197	0x3d4e9866	0.050438307
198	0xbe3a20fd	-0.18176647
199	0xbdae7ca4	-0.08519867
200	0x3d49606d	0.049164224
201	0xbd249285	-0.040178794
202	0xbe1cf940	-0.15329456
203	0x3d9def75	0.077116884
204	0xbe03efc9	-0.1288444
205	0x3e429b39	0.19004525
206	0xbdfd4cfa	-0.12368198
207	0x3e2c5c15	0.16832002
208	0x3c84e2c2	0.016221408
209	0x3c29e519	0.010369563
210	0xbc23a6c7	-0.009988493
211	0x3d27d13b	0.040971022
212	0x3b9414fe	0.004519104
213	0x3cc71266	0.024300765
214	0x3dd368ab	0.10322698
215	0x3e20623a	0.1566247
216	0x3cc676c6	0.024226557
217	0xbd94f1f7	-0.07272714
218	0x3dc0b4e5	0.09409503
219	0x3d776a9a	0.060404398
220	0x3c15c707	0.00914169
221	0x3d9f1ca9	0.07769138
222	0xbdbfec87	-0.09371286
223	0x3dcf2401	0.10114289
224	0x3e1dad62	0.15398172
225	0xbde879bf	-0.11351346
226	0xbe297156	-0.1654714
227	0xbc8157f9	-0.015789019
228	0x3e3eeef7	0.18645845
229	0x3e224d94	0.15849906
230	0xbd4bf255	-0.049791653
231	0xbe021ece	-0.12707064
232	0xbe6b0e54	-0.22954684
233	0x3dc7f9f1	0.097644694
234	0xbe2c53bd	-0.16828819
235	0xbcd3e6d5	-0.025866905
236	0xbd37513a	-0.044755198
237	0xbd6417e3	-0.055686843
238	0x3d7fdbbb	0.06246541
239	0xbd831c8a	-0.06401928
240	0x3dd99ea6	0.10625963
241	0xbdfc8085	-0.12329201
242	0xbb36b641	-0.0027879628
243	0xbc16463e	-0.0091720205
244	0xbd6e3936	-0.05816003
245	0x3d33b49c	0.043873414
246	0x3d067fe7	0.03283682
247	0xbd4b5700	-0.049643517
248	0x3d65590f	0.055993136
249	0x3cf9e311	0.030503782
250	0x3e1508ab	0.14554088
251	0x3da31a56	0.079640076
252	0x3d32b3e8	0.043628603
253	0x3e0b8505	0.13624962
254	0xbc825946	-0.01591171
255	0x3e0b41de	0.13599345

fc.0.bias f4 [178]
0	0x3da4f010	0.08053601
1	0x3c63ece1	0.013911457
2	0x3c978d13	0.018499887
3	0x3d44f95c	0.04808937
4	0x3b05c582	0.0020411913
5	0xbc8ee7ba	-0.01744448
6	0x3d88e5dd	0.06684468
7	0x3cacd775	0.021098832
8	0x3d6ef322	0.05833734
9	0xbc17a1ae	-0.009254856
10	0x3dae2593	0.085032605
11	0x3ddf6ddf	0.10909628
12	0x3d327c63	0.043575656
13	0xba384e2c	-0.00070306915
14	0x3d175e7a	0.036955334
15	0xbc958a9d	-0.018254573
16	0x3dce9ee9	0.100889035
17	0xbcb5fcd9	-0.022215294
18	0x3d05714b	0.032578748
19	0xbd8a299f	-0.0674622
20	0x3dbfe9f6	0.093707964
21	0xbce1bf02	-0.0275569
22	0x3df7910f	0.120882146
23	0x3aeae135	0.00179199
24	0x3d5cce5d	0.05390774
25	0x3d6149bd	0.055001963
26	0x3beaf861	0.0071707224
27	0x3dc54eca	0.096341684
28	0xbcf41e27	-0.029799534
29	0x3e07874e	0.13235208
30	0xbc29683c	-0.010339793
31	0x3d6d6894	0.05796106
32	0xbd561379	-0.052264664
33	0xbd1dd9a7	-0.038537648
34	0x3d033834	0.03203602
35	0x3d4a605b	0.049408298
36	0x3deeee3c	0.11666533
37	0x3d820938	0.063494146
38	0x3d913c25	0.0709155
39	0x3ba270be	0.0049572876
40	0x3c816411	0.015794786
41	0x3be698f7	0.007037278
42	0x3d9681e6	0.07348995
43	0x3e087033	0.1332405
44	0x3d6c5d7e	0.05770635
45	0x3db9fb1a	0.09081097
46	0x3dc21358	0.09476346
47	0x3d3c9412	0.04603965
48	0xbcc71f4f	-0.024306921
49	0xbcfddc1b	-0.030988744
50	0x3af53410	0.0018707532
51	0xbcf25b12	-0.029584441
52	0x3d23d275	0.03999563
53	0x3d80ea04	0.06294635
54	0x3ce1237a	0.027482737
55	0xbd09248c	-0.03348212
56	0x3d8be3ba	0.06830545
57	0x3d74588d	0.05965476
58	0x3dcf2fc7	0.10116535
59	0xbb8f1b2e	-0.0043672537
60	0x3de4a94b	0.111651026
61	0xba7504c4	-0.00093467184
62	0xbbb2b3f9	-0.0054535833
63	0x3d1c3c1d	0.038143266
64	0x3db890d7	0.09012001
65	0x3d70f328	0.058825642
66	0x3daf64e9	0.08564169
67	0x3caaf5fe	0.020869251
68	0x3c973c77	0.01846145
69	0x3dc7f687	0.09763818
70	0x3db58cf2	0.08864774
71	0x3d7e297e	0.06205129
72	0x3dfe3a9c	0.124135226
73	0x3dbc7906	0.09202771
74	0x3d8cdf2b	0.068785034
75	0xbd35f97c	-0.04442738
76	0x3cb32de8	0.021872476
77	0xbc69da48	-0.014273234
78	0x3d052fe4	0.032516375
79	0x3d77f9c3	0.060540926
80	0xbbdef907	-0.0068045887
81	0xbd0cf814	-0.034416273
82	0x3de8bcaf	0.113641135
83	0xbc6ee9e2	-0.014582129
84	0xbbbb97ea	-0.0057248967
85	0x3d8dfc9f	0.06932949
86	0xbc846daf	-0.016165582
87	0x3db3540e	0.087562665
88	0x3def083b	0.11671492
89	0x3ccac4dc	0.024752073
90	0xbcc303d3	-0.023805534
91	0x3e00e78a	0.12588325
92	0xbd54e57c	-0.051976666
93	0x3d394365	0.045230288
94	0xbb3ba1bf	-0.0028630344
95	0x3ca88aa4	0.020573922
96	0x3b12adf7	0.0022381523
97	0x3beb5cdd	0.007182701
98	0x3df53f00	0.11974907
99	0x3bf8449c	0.0075765382
100	0xbc9abccd	-0.018888855
101	0xbc8c47c6	-0.017124068
102	0xbcd96aa7	-0.026540114
103	0xbd521746	-0.051291727
104	0xbcdace94	-0.026709832
105	0x3db397f2	0.08769216
106	0x3d9f10b4	0.07766858
107	0x3d96e48f	0.07367813
108	0x3d8d329d	0.06894419
109	0x3c872a78	0.016499743
110	0x3d926c18	0.071495235
111	0x3dcb544e	0.09928189
112	0x3e0ac31d	0.13550992
113	0x3b1768b7	0.0023103186
114	0x3d5a2d79	0.053266022
115	0xbbca28d3	-0.0061694174
116	0xbcb1aa5e	-0.021687683
117	0x3df10f7b	0.11770531
118	0x3c9bcb4f	0.019017844
119	0x3d85dd52	0.06536354
120	0x3e08f0a5	0.13373049
121	0x3dd33629	0.103130646
122	0xbcc4c185	-0.024018059
123	0x3a1c10ac	0.0005953412
124	0x3d6c645b	0.057712894
125	0x3e0007a2	0.12502912
126	0x3da064bd	0.07831714
127	0x3cbac341	0.022798182
128	0x3de224a2	0.110421434
129	0x3d650aa5	0.055918355
130	0x3da230f5	0.07919494
131	0x3db50949	0.08839662
132	0x3cc9fa75	0.02465556
133	0x3dbb4341	0.09143687
134	0x3d3d7988	0.04625848
135	0x3c6ea2d2	0.014565187
136	0x3da075ab	0.078349434
137	0x3cf68793	0.030093944
138	0x3da0cffa	0.078521684
139	0x3c66b455	0.01408108
140	0xbd0cc52b	-0.03436772
141	0xbcbbf382	-0.022943262
142	0x3d59647d	0.05307435
143	0x3c4638ec	0.012098532
144	0x3d571dc1	0.05251861
145	0x3d1ca0f8	0.03823945
146	0x3dd77410	0.10520184
147	0x3e0c9a16	0.13730654
148	0x3dca2989	0.098712035
149	0x3dac32c8	0.08408123
150	0x3d48f377	0.04906031
151	0xbd394a27	-0.045236733
152	0xbd60b13b	-0.05485652
153	0xbc9f9527	-0.019480301
154	0x3ad81d38	0.00164882
155	0xbd1f28f4	-0.038857415
156	0x3d949128	0.07254249
157	0x3cafe6cd	0.02147236
158	0x3d5b1857	0.05349001
159	0x3d6dbe4d	0.058042813
160	0xbd876f1c	-0.06612989
161	0x3d55000e	0.052002005
162	0xbd18fbe5	-0.0373496
163	0x3d8ece78	0.069729745
164	0xbc388f5d	-0.011264649
165	0x3d0d5244	0.034502283
166	0x3dc605e1	0.0966909
167	0x3dfc426c	0.123173565
168	0x3dc25e02	0.09490587
169	0x3cfe4866	0.031040382
170	0x3b700342	0.0036623036
171	0x3d29cff6	0.041458093
172	0x3ce858f0	0.028362721
173	0x3dd276e9	0.102765866
174	0x3c636cf8	0.013880961
175	0xbc6deeab	-0.014522235
176	0x3dbb6337	0.09149783
177	0xbcd91485	-0.026499042

fc.2.weight f4 [89, 178]
0	0xbd0fef8d	-0.035140563
1	0x3dad944e	0.084755525
2	0xbd9527f6	-0.072830126
3	0xbd3aed2f	-0.045636352
4	0x3d1c00f0	0.03808683
5	0xbd84d522	-0.06485964
6	0xbc29c313	-0.010361451
7	0x3d2e1bed	0.0425071
8	0xbcb7108f	-0.022346763
9	0x3dc39919	0.095506854
10	0xbcae6275	-0.021287182
11	0x3dcfc6e0	0.10145354
12	0x3df4861b	0.11939641
13	0xbd53be6e	-0.05169528
14	0x3dc86a87	0.097859435
15	0xbd7d3b74	-0.061824277
16	0x3dd9671b	0.10615369
17	0xbe160dc3	-0.14653687
18	0xbe052041	-0.13000585
19	0xbe08a0b2	-0.1334255
20	0x3da5d0a4	0.08096436
21	0xbe014d0e	-0.1262705
22	0xbe0b5661	-0.1360717
23	0xbd7fe719	-0.06247625
24	0x3cba032d	0.022706592
25	0x3d269956	0.040673576
26	0x3d85de35	0.06536523
27	0xbd3828f8	-0.044960946
28	0x3dcf1b83	0.10112669
29	0xbccf9876	-0.025341254
30	0x3d865b61	0.06560398
31	0x3bde15db	0.0067775077
32	0x3cf4fa86	0.029904615
33	0x3be379f8	0.00694203
34	0x3d953fef	0.07287585
35	0xbde02a2f	-0.10945546
36	0xbdbd01fb	-0.09228893
37	0x3cbd18c3	0.023083096
38	0x3e1cc942	0.15311149
39	0x3e134bf0	0.14384437
40	0x3d9a54d4	0.07535711
41	0x3db60991	0.088885434
42	0x3d948ae0	0.07253051
43	0x3ce15c6f	0.027509896
44	0xbe31d711	-0.17367198
45	0xbd260ade	-0.040537708
46	0x3dd5ffa9	0.10449154
47	0x3db0114e	0.085970506
48	0x3c510b36	0.012759021
49	0x399ee6e8	0.00030308147
50	0xbe883e58	-0.26610065
51	0xbc449342	-0.011998
52	0xbd38ef22	-0.04514993
53	0xbc3f7dbd	-0.011687693
54	0x3da734bf	0.081643574
55	0x3c334fc6	0.010944312
56	0xbe00231e	-0.12513396
57	0xbd5a2a34	-0.053262904
58	0xbdb4790a	-0.08812149
59	0xbd1d2966	-0.03836956
60	0xbe12ef48	-0.14349091
61	0xbd81790f	-0.06321918
62	0x3c486c25	0.012232815
63	0xbdb0d8da	-0.08635111
64	0xbc19cb4e	-0.0093868505
65	0xbd848f33	-0.064726256
66	0x3d13463e	0.03595566
67	0xbe16b5ec	-0.14717835
68	0xbd2a851b	-0.041630846
69	0xbe0be682	-0.1366215
70	0x3dcf0e2a	0.101101235
71	0xbd892c8a	-0.06697948
72	0xbd876a02	-0.06612016
73	0xbe068a04	-0.13138586
74	0xbd62fc1b	-0.055416208
75	0xbe012c17	-0.12614475
76	0x3e012e81	0.12615396
77	0xbdf79be8	-0.12090284
78	0xbd412883	-0.047157776
79	0x3da5a4e2	0.080880895
80	0x3d0b44ee	0.034001283
81	0xbc268966	-0.010164594
82	0xbccb8922	-0.024845663
83	0x3cf96693	0.030444419
84	0x3db706bc	0.08936831
85	0x3e191cb3	0.14952354
86	0xbda28aba	-0.07936616
87	0x3db27231	0.087131865
88	0xbd489224	-0.048967496
89	0x3d26c30d	0.04071336
90	0x3d093ad4	0.03350337
91	0xbde05883	-0.10954382
92	0xbc9db44d	-0.019251013
93	0x3d5b2c71	0.05350918
94	0xb9c4a4e8	-0.00037506898
95	0xbd56776c	-0.052359983
96	0xbdd09099	-0.1018383
97	0x3e0c5ada	0.13706532
98	0xbe12a6db	-0.14321463
99	0xbde6fdaa	-0.11278851
100	0xbe0cbc21	-0.1374364
101	0x3d0a2751	0.0337289
102	0xbdbe8543	-0.093027614
103	0xbc933688	-0.017970338
104	0x3d026087	0.031830337
105	0x3db460e5	0.08807544
106	0xbe2bb7ec	-0.1676938
107	0x3ce80db9	0.028326856
108	0x3dfeb732	0.124372855
109	0x3d453d71	0.0481543
110	0xbdce82e1	-0.10083557
111	0x3d6ed9b1	0.058313075
112	0xbe8edcef	-0.27902934
113	0xbcf0ed86	-0.029410135
114	0x3bb908e8	0.0056468137
115	0x3a907b94	0.0011023157
116	0xbbc8860d	-0.0061194957
117	0x3e065d59	0.13121547
118	0x3cd07e01	0.025450708
119	0xbe2b037f	-0.16700552
120	0x3d6d9a87	0.058008697
121	0xbd7b71c4	-0.061387792
122	0xbd0be8eb	-0.034157675
123	0x3b900c05	0.004395964
124	0xbdbc1d7e	-0.09185313
125	0xbe0b4e49	-0.13604082
126	0xbba6196d	-0.005068949
127	0xbdc4a1fd	-0.09601209
128	0xba0cb939	-0.00053681765
129	0xbdf3c626	-0.11903028
130	0xbbc9d51d	-0.0061594383
131	0xbd50de08	-0.050992996
132	0x3cf12784	0.029437788
133	0xbdbe2be5	-0.09285716
134	0x3e07eb6f	0.13273405
135	0xbbfe3fd3	-0.0077590733
136	0x3dbc8e77	0.092068605
137	0x3dc3b8b4	0.09556714
138	0xbd39049b	-0.045170408
139	0x3d90b33a	0.07065435
140	0x3d8c4e16	0.06850831
141	0x3d66dbc2	0.05636192
142	0xbe20a138	-0.156865
143	0xbd2ec657	-0.04266962
144	0x3bead48f	0.0071664522
145	0xbe02937e	-0.12751576
146	0xbc796c56	-0.015223583
147	0x3db6e3e7	0.08930188
148	0x3d107eb4	0.035277084
149	0x3d72e3bc	0.059299216
150	0xbe01eadc	-0.12687248
151	0x3db50c2b	0.088402115
152	0xbc4253b7	-0.0118607795
153	0x3dc6e87e	0.09712313
154	0xbd4a74d2	-0.049427815
155	0x3d2bba66	0.04192581
156	0xbdb2cded	-0.087306835
157	0x3dcf76b5	0.101300634
158	0x3d0bdcfa	0.034146287
159	0x3dbc3a6f	0.09190833
160	0xbc6fc2fe	-0.014633892
161	0x3dd91276	0.10599224
162	0xbc36a9b3	-0.011148858
163	0x3d15f9ec	0.036615297
164	0xbe101dae	-0.14073822
165	0x3c9a667d	0.018847698
166	0xbdc699ac	-0.09697279
167	0xbc9c15f1	-0.019053431
168	0xbb94b403	-0.0045380606
169	0xbd144a53	-0.036203694
170	0xbe0ba2fb	-0.13636391
171	0xbbe1b36f	-0.006887845
172	0xbd974643	-0.07386448
173	0xbda382e3	-0.07983949
174	0xbdb32c0d	-0.087486364
175	0xbd761a3c	-0.060083613
176	0x3d9afa8f	0.075673215
177	0xbde085c9	-0.109630175
178	0xbe0710ed	-0.1319005
179	0xbd7c7027	-0.061630394
180	0x3ce673f5	0.028131464
181	0xbe118474	-0.14210683
182	0x3d04a588	0.032384425
183	0x3b4c7496	0.003119742
184	0x3dadb4ca	0.084817484
185	0x3de3c9d5	0.11122481
186	0x3da02c4c	0.07820949
187	0xbd89a4da	-0.06720896
188	0x3d42f458	0.047596306
189	0xbe32a495	-0.17445596
190	0x3d846d8f	0.06466209
191	0xbadc3a86	-0.0016802109
192	0x3d983e7d	0.07433794
193	0xbca05827	-0.019573284
194	0x3c763808	0.015028007
195	0xbd9c6d5d	-0.07638047
196	0x3cd5ea4a	0.026112694
197	0xbc0dfd1b	-0.008666302
198	0x3ccde617	0.02513413
199	0xbb8e9af4	-0.004351968
200	0xbdf7f1cd	-0.12106667
201	0x3d440450	0.047855675
202	0xbdf89f5a	-0.12139769
203	0x3d187f73	0.03723092
204	0x3dad648b	0.08466443
205	0x3d89a865	0.06721572
206	0x3d2cdbe9	0.04220191
207	0xbd6df947	-0.058099058
208	0xbe108317	-0.14112507
209	0x3da4ae87	0.08041101
210	0xbe1ae207	-0.15125285
211	0xbe1fb564	-0.15596539
212	0x3cf1e4eb	0.029528102
213	0xbd1f2848	-0.038856775
214	0xbd3ccb86	-0.046092533
215	0xbd2cc746	-0.04218223
216	0xbc136b33	-0.008997726
217	0xbcc026c6	-0.023455989
218	0xbd58015d	-0.052735675
219	0xbd827dbf	-0.063716404
220	0xbd14e11d	-0.036347497
221	0xbe10408c	-0.14087123
222	0x3d39b2c5	0.045336504
223	0xbd8a6b95	-0.06758801
224	0xbb529218	-0.0032130536
225	0xbc22b4e9	-0.009930828
226	0x3d3900f6	0.045166932
227	0xbdd65dae	-0.10467087
228	0xbe5a2124	-0.21301705
229	0x3e08da3d	0.13364501
230	0x3d8a7148	0.06759888
231	0xbc5dcd50	-0.01353772
232	0x3c663a6d	0.014052016
233	0xbda3fa8f	-0.08006775
234	0xbd5fbc95	-0.054623205
235	0xbbdede70	-0.006801419
236	0xbd118e28	-0.03553596
237	0x3cc75a61	0.024335088
238	0x3d2ec4f4	0.042668298
239	0x3e094dc1	0.13408567
240	0x3d8ba7b4	0.06819096
241	0x3d3fd499	0.04683361
242	0x3d3441c7	0.044008043
243	0xbe037069	-0.1283585
244	0x3dd13cb5	0.10216657
245	0xbad2f8af	-0.0016095842
246	0xbd92d90e	-0.07170306
247	0xbe01bb68	-0.12669146
248	0xbdde593d	-0.108568646
249	0xbdea5e12	-0.11443724
250	0xbda35404	-0.07975009
251	0xbd093155	-0.033494312
252	0xbcba0b35	-0.022710422
253	0x3da24154	0.079226166
254	0x3d9ad389	0.075598784
255	0xbe02f96c	-0.1279046

fc.2.bias f4 [89]
0	0x3ce9148c	0.02845218
1	0x3dd66aff	0.10469627
2	0x3cad48d1	0.021152886
3	0x3d78ebb8	0.060771674
4	0x3c875341	0.01651919
5	0xbccb0266	-0.024781417
6	0xbdaab8ee	-0.08336054
7	0x3d3291e8	0.04359618
8	0x3af1e2b5	0.0018454405
9	0x3bc72a0c	0.0060780104
10	0xbbc7e6d4	-0.006100515
11	0xbd4c6a8b	-0.049906295
12	0xbd104392	-0.03522069
13	0x3d4edad6	0.050501667
14	0xbb08baf6	-0.002086339
15	0xbcae2064	-0.02125568
16	0x3caa10d7	0.020759983
17	0xba5768e6	-0.000821723
18	0xbc8126d7	-0.01576559
19	0xbce259b1	-0.027630659
20	0x3d57dc8d	0.052700568
21	0x3c46d3a4	0.01213542
22	0xbd1ca9fd	-0.03824805
23	0xbd9b6ced	-0.07589135
24	0x3d045dc2	0.032315977
25	0x3c15d670	0.009145364
26	0x3db4c27d	0.08826158
27	0x3d92140b	0.07132729
28	0x3d6ac1ec	0.057313845
29	0x3d5a00e0	0.05322349
30	0x3d0f51fe	0.034990303
31	0x3d61155f	0.05495202
32	0xbc1d3bad	-0.009596747
33	0xbd376c8a	-0.044781245
34	0x3af41225	0.001862113
35	0xbd4f198c	-0.050561473
36	0x3d1f3c5b	0.03887592
37	0x3c8a430a	0.01687767
38	0xbd40d9a9	-0.047082577
39	0xbc83d641	-0.016093375
40	0xbd1b1967	-0.037866022
41	0x3b21edea	0.0024708458
42	0x3ce39d51	0.027784975
43	0x3d41c596	0.047307573
44	0xbb8534ac	-0.004065117
45	0x3ca78af2	0.020451996
46	0x3c93964b	0.018016001
47	0xbd4a5477	-0.04939696
48	0xbc7b173f	-0.0153253665
49	0xbdc81ca9	-0.097710915
50	0xbd2a9d39	-0.041653845
51	0xbc9a60b4	-0.01884494
52	0xbb1990a4	-0.002343216
53	0xbd044a7f	-0.032297608
54	0xbdaa5b8b	-0.08318242
55	0xbd02e903	-0.0319605
56	0xbdb7a333	-0.08966675
57	0xbd652464	-0.055942908
58	0xbda5e502	-0.081003204
59	0x3d327155	0.043565113
60	0xbd93385a	-0.071884826
61	0xbd8a63ac	-0.06757292
62	0xbd935169	-0.07193262
63	0xbbf59ff3	-0.007495874
64	0x3ce55d43	0.027998572
65	0x3bbb6b8b	0.005719607
66	0xbdcd0fa4	-0.10012749
67	0xbbc47810	-0.005995758
68	0xbdb31859	-0.08744878
69	0xbdb45149	-0.088045664
70	0xbd0a4d22	-0.033764966
71	0xbda56ddd	-0.080775954
72	0xbdbd0cc9	-0.09230954
73	0x3d4eae57	0.050459232
74	0xbbdc2412	-0.006718167
75	0xbd1152da	-0.035479404
76	0x3d11abe1	0.035564307
77	0x3cd93aac	0.026517235
78	0xbd715f24	-0.058928624
79	0xbaf336a6	-0.0018555715
80	0x3c580547	0.013184852
81	0x3cf91d19	0.030409383
82	0xbd41ebe9	-0.047344122
83	0x3c213430	0.009839103
84	0x3b9041ce	0.004402376
85	0x3d633733	0.055472564
86	0x3c8f6285	0.017503032
87	0xbd947c0c	-0.072502226
88	0xbcf07e26	-0.029357027
