inventory/model.pth (torch, 435089 bytes, 16 tensors)

conv.0.weight f4 [32, 3, 5, 5]
-0.048624337 0.017841926 0.016937789 0.008225907 -0.10079337 -0.082168795 -0.07956226 0.12311017
0.06693165 -0.040817708 -0.00085262797 0.12870952 0.10771622 -0.05944316 -0.08488245 0.018041901
-0.07599803 -0.04323274 -0.011716728 -0.10477184 -0.046554133 0.09133027 0.026498582 -0.083105035
-0.07787518 -0.067496054 0.07494876 0.016736416 0.049461115 0.027177481 -0.06405683 0.065103814
0.017212916 0.03066146 -0.07264929 0.04649985 0.11655792 0.07680828 0.033081073 -0.078523815
-0.019303963 0.009082314 0.08393605 -0.08376935 0.013562424 -0.057345845 0.004552309 0.12373507
0.06456799 -0.12441919 -0.0127258515 0.08349892 0.028915364 0.071901046 -0.027704775 0.047061104
-0.06333489 -0.09791251 -0.058161423 -0.0029649672 -0.05497658 -0.045812517 -0.03277946 0.014345825
-0.07864279 -0.04180876 0.090870954 0.07706221 0.04380371 -0.043574806 0.110204265 0.03957371
0.032241214 0.09463162 -0.09459399 0.13598353 0.08410459 -0.032352965 -0.06525814 -0.04257768
0.018336268 -0.01188332 0.06319536 -0.037478138 0.021114256 -0.028287362 0.036839295 -0.009704962
-0.040798802 -0.03178777 0.023923531 0.09437847 0.05381041 -0.096278585 -0.01409551 0.0377105
-0.013013682 0.061428558 0.0643092 0.05651171 -0.07513607 0.046078943 0.079389505 -0.0015658665
0.050259825 0.12442564 -0.09962019 0.09299714 -0.07874481 -0.102366835 -0.02216883 -0.05912413
0.057706095 -0.06656352 -0.02333106 0.08618685 0.012620076 0.007162898 -0.0059935455 -0.04791338
-0.05316262 -0.056155697 -0.030140119 0.062360074 0.057375304 0.1581705 -0.07912093 0.06728945
0.043014016 -0.028150542 -0.0031146535 0.11514262 0.09473073 -0.061517756 0.031920303 -0.06264965
0.019528765 0.08524718 -0.04012013 0.06665239 -0.006309232 0.051446274 0.10385337 0.006730341
0.09746789 -0.02123976 -0.018374708 0.0016194845 0.043818302 0.080688246 -0.01698431 -0.059837513
0.02932464 0.13242671 0.032182027 -0.040921215 0.07958648 -0.093601316 -0.042487044 0.12061892
0.10944329 -0.04387871 0.11860222 -0.04456436 -0.053562492 0.03325174 0.07041762 0.018595492
0.01085183 -0.09942691 -0.08936568 0.12725691 0.034586895 -0.074498005 0.09858123 0.036660597
-0.021423262 0.017276103 0.03986488 0.049737252 -0.05405894 -0.061556898 0.086034656 -0.080087155
0.08092322 0.11239794 -0.058202237 -0.033998426 0.04340941 -0.10260151 -0.09554702 0.021861367
0.010677187 -0.064674586 0.07456164 0.10373099 -0.100919515 -0.079088636 0.06855452 -0.08476271
-0.10658828 0.019089347 0.07313391 0.09278722 -0.06040721 -0.109579675 -0.07138495 0.00061688136
0.09041153 -0.101302244 -0.05904673 -0.16283847 0.03521857 0.0058092386 0.006146289 0.050255243
-0.028056594 0.02094291 -0.11208582 -0.080651954 -0.053760417 -0.07242802 0.07939815 -0.11277847
-0.08558021 -0.032536183 0.038710322 -0.046361882 -0.027746953 -0.07817044 -0.031256676 0.03973454
-0.042137478 -0.018904116 -0.10071484 -0.06513086 -0.09721708 -0.07653691 -0.091377266 -0.042858537
-0.08495716 -0.034918234 0.063171305 -0.053723305 0.099053614 0.06367806 -0.044871606 0.032413777
0.08882608 0.04321419 0.10090839 0.0040392475 0.08675964 0.030628249 0.05762466 0.056236375
00000000: 502a 47bd 3b29 923c 1ec1 8a3c f4c5 063c
00000010: c16c cebd 1d48 a8bd 8af1 a2bd 2f21 fc3d
00000020: 7613 893d 7830 27bd e582 5fba 6ecc 033e
00000030: 529a dc3d ac7a 73bd dad6 adbd 9ccc 933c
00000040: dba4 9bbd d014 31bd 85f7 3fbc 9e92 d6bd
00000050: 8caf 3ebd 5d0b bb3d 8e13 d93c f932 aabd
00000060: 067d 9fbd 5f3b 8abd bc7e 993d cf1a 893c
00000070: bd97 4a3d 4fa3 de3c 3a30 83bd 2655 853d
00000080: 1a02 8d3c be2d fb3c 27c9 94bd a076 3e3d
00000090: ebb5 ee3d a94d 9d3d 0580 073d 18d1 a0bd
000000a0: 5823 9ebc fccd 143c aae6 ab3d 448f abbd
000000b0: ee34 5e3c 7ae3 6abd 892b 953b d068 fd3d
000000c0: 393c 843d 7dcf febd 1780 50bc 7b01 ab3d
000000d0: eadf ec3c db40 933d 20f5 e2bc 25c3 403d
000000e0: b9b5 81bd 5b86 c8bd ac3a 6ebd e54f 42bb
000000f0: 1f2f 61bd e8a5 3bbd c143 06bd c00a 6b3c
00000100: 790f a1bd aa3f 2bbd 8d1a ba3d cbd2 9d3d
00000110: 856b 333d 7f7b 32bd c6b2 e13d 0b18 223d
00000120: 5d0f 043d 39ce c13d 7eba c1bd 443f 0b3e
00000130: 073f ac3d 8b84 04bd 0fa6 85bd ef65 2ebd
00000140: f135 963c 42b2 42bc 926c 813d ad82 19bd
00000150: cef7 ac3c e6ba e7bc cde4 163d 9001 1fbc
00000160: a51c 27bd e533 02bd 48fb c33c 8049 c13d
00000170: 4e68 5c3d b52d c5bd dbf0 66bc 5376 1a3d
00000180: 5737 55bc 839c 7b3d 8bb4 833d d378 673d
00000190: f1e0 99bd 46bd 3c3d f796 a23d c33d cdba
000001a0: 3fdd 4d3d dfd2 fe3d ac05 ccbd 4975 be3d
000001b0: f544 a1bd b4a5 d1bd 689b b5bc 252c 72bd
000001c0: 3a5d 6c3d 7452 88bd c720 bfbc bb82 b03d
000001d0: 6fc4 4e3c beb6 ea3b 8165 c4bb d240 44bd
000001e0: 0cc1 59bd 8403 66bd 69e8 f6bc 476d 7f3d
000001f0: 5e02 6b3d 73f7 213e 270a a2bd 0dcf 893d
00000200: 772f 303d f79b e6bc 371f 4cbb e5cf eb3d
00000210: 2f02 c23d 0bfa 7bbd ddbe 023d 764e 80bd
00000220: cafa 9f3c 1396 ae3d 0155 24bd 0c81 883d
00000230: adbd cebb 54b9 523d 13b1 d43d 318a dc3b
00000240: 3f9d c73d 01ff adbc 8e86 96bc e244 d43a
00000250: d27a 333d e13f a53d ae22 8bbc 2e18 75bd
00000260: 3a3a f03c de9a 073e 4dd1 033d 019d 27bd
00000270: 3dfe a23d 0cb2 bfbd e506 2ebd 0d07 f73d
00000280: ce23 e03d 2aba 33bd b9e5 f23d 1e89 36bd
00000290: 5864 5bbd fa32 083d 1d37 903d 9355 983c
000002a0: e0cb 313c 56a0 cbbd 5b05 b7bd a34f 023e
000002b0: fdaa 0d3d 6992 98bd f5e4 c93d 6c29 163d
000002c0: d67f afbc 9d86 8d3c 5b49 233d 4ab9 4b3d
000002d0: e86c 5dbd 1623 7cbd f032 b03d bc04 a4bd
000002e0: 13bb a53d e430 e63d 7865 6ebd ef41 0bbd
000002f0: 11ce 313d be20 d2bd 28ae c3bd 9c16 b33c
00000300: 5eef 2e3c 1c74 84bd c6b3 983d ea70 d43d
00000310: e4ae cebd 39f9 a1bd 5066 8c3d 1298 adbd
00000320: f54a dabd 4361 9c3c 3bc7 953d 3a07 be3d
00000330: 8d6d 77bd 4f6b e0bd 4632 92bd 35b6 213a
00000340: ae29 b93d 8d77 cfbd fcda 71bd 21bf 26be
00000350: 5941 103d 6d5b be3b cf66 c93b 71d8 4d3d
00000360: f1d6 e5bc 7790 ab3c 408d e5bd da2c a5bd
00000370: e233 5cbd 2455 94bd 7f9b a23d 66f8 e6bd
00000380: ad44 afbd a944 05bd b78e 1e3d f5e5 3dbd
00000390: 944d e3bc d317 a0bd 0007 00bd afc0 223d
000003a0: 5998 2cbd cedc 9abc 9543 cebd 5463 85bd
000003b0: c019 c7bd 62bf 9cbd 0124 bbbd 6f8c 2fbd
000003c0: 05fe adbd 6c06 0fbd f55f 813d f80c 5cbd
000003d0: 9fdc ca3d a569 823d 4acb 37bd 4fc4 043d
000003e0: 73ea b53d 5d01 313d 0fa9 ce3d aa5b 843b
000003f0: 0aaf b13d 18e8 fa3c d607 6c3d 1d58 663d

conv.0.bias f4 [32]
0.05640687 0.028668543 -0.108689025 0.11074141 -0.08560529 0.08103277 -0.0768062 0.11285763
0.013759059 0.01662812 0.09219695 -0.10258142 -0.022159114 0.05345376 -0.07385513 0.037912767
-0.13089046 -0.10561137 -0.017508008 -0.016599635 0.046083808 -0.009223406 0.031259924 0.052434616
0.015122547 -0.13866441 0.06574534 -0.11846518 0.06398377 0.022493757 -0.07308937 0.07871748
00000000: e40a 673d 4bda ea3c 5a98 debd 64cc e23d
00000010: d451 afbd 82f4 a53d 924c 9dbd e721 e73d
00000020: ad6d 613c b237 883c c1d1 bc3d 3516 d2bd
00000030: 0887 b5bc 54f2 5a3d 5c41 97bd 6b4a 1b3d
00000040: 2608 06be c64a d8bd f46c 8fbc f5fb 87bc
00000050: 60c2 3c3d c51d 17bc 680a 003d aec5 563d
00000060: 8fc4 773c 0bfe 0dbe 7ea5 863d df9d f2bd
00000070: ec09 833d d444 b83c e1af 95bd a136 a13d

conv.1.weight f4 [32]
0.99872035 0.97433096 1.0005318 0.9949144 0.9806411 1.0713675 1.0555968 0.9561955
0.96056837 0.9670088 0.9848895 0.9904943 1.0576984 1.0502572 0.9698213 0.9250501
1.0312247 1.0040854 0.9600924 0.9729117 1.0161422 1.0153921 1.0197856 0.9948849
1.0000621 0.9923429 1.0134103 1.0029238 0.97901326 0.99456745 0.97744095 1.020767
00000000: 23ac 7f3f c16d 793f 6d11 803f b6b2 7e3f
00000010: 4c0b 7b3f 9222 893f cc1d 873f 3ac9 743f
00000020: cfe7 753f e48d 773f b821 7c3f 0991 7d3f
00000030: a962 873f d46e 863f 3546 783f 15d0 6c3f
00000040: 2cff 833f df85 803f 9ec8 753f be10 793f
00000050: f310 823f 5ef8 813f 5688 823f c7b0 7e3f
00000060: 0902 803f 2f0a 7e3f 6eb7 813f cf5f 803f
00000070: 9da0 7a3f f99b 7e3f 9239 7a3f 7ea8 823f

conv.1.bias f4 [32]
-0.040874574 -0.039387662 -0.021054285 0.0456552 0.031846404 -0.10708769 -0.042353947 0.008480359
-0.02835058 -0.0661298 -0.031432424 -0.040547192 -0.024388188 -0.05261859 -0.034783375 0.064240545
-0.04328631 -0.008670961 -0.041887816 -0.030810464 -0.025975274 -0.016691782 0.07539793 -0.04597136
-0.038741127 -0.04791493 -0.07119009 0.029588386 -0.03301622 -0.03409314 0.010699581 -0.0026648084
00000000: 196c 27bd f554 21bd 097a acbc f200 3b3d
00000010: 6071 023d ca50 dbbd 557b 2dbd 34f1 0a3c
00000020: 7a3f e8bc 106f 87bd 49bf 00bd d014 26bd
00000030: bdc9 c7bc 9786 57bd 0379 0ebd 8c90 833d
00000040: fc4c 31bd a510 0ebc 8f92 2bbd 3a66 fcbc
00000050: 19ca d4bc 34bd 88bc 3b6a 9a3d 774c 3cbd
00000060: 04af 1ebd 7242 44bd 1ccc 91bd 5863 f23c
00000070: 043c 07bd 40a5 0bbd 4c4d 2f3c 11a4 2ebb

conv.1.running_mean f4 [32]
0.084437996 0.4944657 -0.35588574 0.009390051 -0.31727076 0.03319477 -0.020870415 -0.60013944
0.17908461 0.31272945 -0.17608678 -0.5465567 0.015690146 0.046060618 -0.30316314 -0.3081034
-0.28306213 -0.42834967 0.045316506 0.034857325 0.10724719 0.528782 0.042384557 -0.16101116
0.15739962 -0.14183803 0.19017091 -0.18497355 0.51021963 -0.2200666 -0.008525667 0.08593955
00000000: d4ed ac3d 9c2a fd3e a836 b6be bad8 193c
00000010: 5071 a2be 3df7 073d 6ff8 aabc bda2 19bf
00000020: f561 373e 131e a03e 1850 34be 24eb 0bbf
00000030: 9f88 803c 0faa 3c3d 3338 9bbe bbbf 9dbe
00000040: 85ed 90be a650 dbbe cd9d 393d 8ec6 0e3d
00000050: 6aa4 db3d 425e 073f 6e9b 2d3d 1ce0 24be
00000060: 5e2d 213e fd3d 11be 2abc 423e b569 3dbe
00000070: c19d 023f 2459 61be 3daf 0bbc 1301 b03d

conv.1.running_var f4 [32]
0.012969411 0.06320047 0.042829305 0.010179117 0.022398483 0.016532682 0.009946015 0.12566194
0.027423589 0.06431117 0.03081747 0.057770837 0.030594887 0.034516543 0.022177774 0.04043309
0.037475776 0.061647218 0.0070743905 0.046833016 0.010735503 0.07322456 0.01830794 0.02768333
0.017517785 0.006749844 0.05140378 0.025161944 0.06484015 0.018829605 0.014897656 0.0038209818
00000000: a77d 543c 3f6f 813d c86d 2f3d 50c6 263c
00000010: 067d b73c 8c6f 873c 9cf4 223c 86ad 003e
00000020: 6fa7 e03c 93b5 833d eb74 fc3c 1da1 6c3d
00000030: 21a2 fa3c 3861 0d3d 2aae b53c 2b9d 253d
00000040: 3380 193d cb81 7c3d 4ad0 e73b fad3 3f3d
00000050: f7e3 2f3c c2f6 953d 88fa 953c 27c8 e23c
00000060: 7581 8f3c cc2d dd3b c58c 523d 6c20 ce3c
00000070: eaca 843d 8b40 9a3c 4c15 743c 7069 7a3b

conv.4.weight f4 [32, 32, 3, 3]
-0.001138603 0.03946887 -0.008700114 -0.046109244 0.022321723 -0.0009776845 -0.009165892 -0.07128618
0.01508654 -0.049458556 0.045565907 -0.007110355 -0.043171994 -0.038128242 -0.0056499336 0.018050216
-0.005151772 0.0926436 0.027971897 -0.02292184 0.025360975 0.058360644 -0.055462316 0.02176667
0.00058975385 -0.009231061 0.014839522 -0.032752506 0.037054177 0.0005068021 -0.025667423 0.018914131
0.056754135 -0.058159858 0.03554127 -0.023483334 -0.032405972 0.053056322 0.04383274 0.032602172
-0.015220538 -0.04624219 0.0016264248 -0.06885499 -0.03834944 0.002010711 -0.0049725776 -0.06704034
0.031917002 0.011874613 -0.026004018 -0.043218404 -0.040456764 0.061225697 -0.02121642 -0.03378384
-0.013490576 -0.03467044 0.050620932 -0.040296078 0.06503465 -0.064011246 -0.0063333013 0.007501445
0.06489151 0.0030663195 -0.05394502 0.09646168 0.0264654 0.03306953 0.024700757 -0.014263455
0.058838196 -0.0382655 0.024420224 -0.030781105 0.027348299 -0.024126085 -0.011509324 0.020733995
-0.024285035 0.0068271724 -0.079938844 0.007815408 0.044970978 -0.01744773 -0.021328963 0.02642641
-0.02642082 -0.018235942 -0.01981301 -0.09528421 -0.03622027 0.04283858 0.016724903 -0.09175887
0.04645595 0.06167334 -0.0009113405 -0.01663508 0.065165944 -0.022502534 -0.03291414 0.036729522
-0.03126516 0.00014306844 -0.009313489 0.015919875 -0.0038505518 0.16553834 -0.031965207 -0.0017535465
0.002421483 -0.013419296 -0.041711636 -0.013548053 -0.051311944 0.007813872 0.14185633 -0.05792768
0.025612827 0.11415203 -0.013216105 0.0047413693 0.13182811 0.014516755 0.007969831 -0.07966779
-0.0044941874 -0.022180209 0.04177676 -0.059619937 0.03560541 -0.035136364 0.03874309 -0.001401648
0.006458059 -0.005167918 -0.06837992 -0.027940867 -0.0020409313 -0.008904088 -0.030820837 -0.039200988
0.02911577 0.008681231 0.012616727 0.023054726 -0.06237152 -0.06682048 -0.003631732 0.026430266
-0.033058584 -0.0032063203 -0.04824418 -0.03582549 -0.0062436364 0.0073387087 0.045235775 -0.050879072
0.059254073 -0.04476037 0.020054601 0.053508874 0.02795948 0.047478657 -0.0064926194 -0.018959995
0.04401117 0.014633513 0.0018144881 -0.065937996 -0.01840125 0.030114286 -0.056950785 0.06258059
-0.05481711 0.03889725 0.06921028 -0.01651009 0.009101595 0.11554082 0.019475294 -0.029887985
0.06366442 -0.044403028 -0.012540371 0.048298173 -0.06597193 0.038250774 0.04598245 -0.035997737
0.031978257 -0.041777954 0.015749255 -0.007592708 0.04494828 -0.033876687 0.00966419 -0.03334843
-0.024447437 0.025232118 -0.038672365 -0.037233654 0.042076845 0.022989096 -0.012247859 -0.005787755
0.03810746 -0.08208121 -0.0029854265 -0.024413325 0.010840339 -0.06409362 -0.04718679 0.0061105443
-0.07286978 0.033832148 0.02780146 -0.06826908 0.0066556423 0.014433274 -0.056526843 -0.0122187
-0.000474174 -0.041436225 0.053354643 0.018870521 -0.005531969 0.07166891 0.038238503 0.0100947805
0.03422112 0.015488037 -0.022658119 -0.049250834 -0.018433359 0.007978393 0.06284716 0.04837552
-0.016780527 -0.04071779 -0.03570563 0.028384333 -0.006630175 0.007966775 -0.03872668 -0.03299714
0.05107736 -0.017003592 -0.0076965266 -0.015388393 -0.024828903 0.002225814 0.0075851693 -0.02636106
00000000: 2d3d 95ba 1caa 213d ec8a 0ebc 0cdd 3cbd
00000010: 0cdc b63c a625 80ba 8a2c 16bc 7dfe 91bd
00000020: 892d 773c 0e95 4abd 51a3 3a3d fbfd e8bb
00000030: 1ed5 30bd 5c2c 1cbd 1423 b9bb 0cde 933c
00000040: 32d0 a8bb eebb bd3d 5225 e53c 95c6 bbbc
00000050: d2c1 cf3c 920b 6f3d 742c 63bd 0450 b23c
00000060: b699 1a3a e03d 17bc 7721 733c 7e27 06bd
00000070: 1fc6 173d eada 043a 7d44 d2bc cff1 9a3c
00000080: 0677 683d 0839 6ebd b993 113d 1f60 c0bc
00000090: 20bc 04bd 9651 593d f689 333d db89 053d
000000a0: 905f 79bc 7368 3dbd c32d d53a d803 8dbd
000000b0: 4d14 1dbd 22c6 033b 01f1 a2bb 724c 89bd
000000c0: 67bb 023d bd8d 423c 6106 d5bc c805 31bd
000000d0: feb5 25bd ccc7 7a3d 0fce adbc ec60 0abd
000000e0: 9407 5dbc 9702 0ebd e557 4f3d 800d 25bd
000000f0: e330 853d 5418 83bd 9587 cfbb aece f53b
00000100: d7e5 843d 4ef4 483b 74f5 5cbd b48d c53d
00000110: f7cd d83c ea73 073d 3e59 ca3c 44b1 69bc
00000120: 5200 713d 49bc 1cbd ec0c c83c a828 fcbc
00000130: 8a09 e03c 11a4 c5bc 9b91 3cbc 57da a93c
00000140: 69f1 c6bc 79b6 df3b fab6 a3bd 320c 003c
00000150: 7d33 383d 8bee 8ebc 14ba aebc 337c d83c
00000160: 7a70 d8bc 8b63 95bc e54e a2bc 5e24 c3bd
00000170: b55b 14bd 8277 2f3d aa02 893c 13ec bbbd
00000180: 9848 3e3d 2f9d 7c3d 07e7 6eba 4b46 88bc
00000190: b975 853d 3c57 b8bc fad0 06bd b271 163d
000001a0: e50f 00bd a404 1639 9b97 18bc 666a 823c
000001b0: 8a59 7cbb e282 293e f3ed 02bd 42d7 e5ba
000001c0: beb1 1e3b 9bdc 5bbc d2d9 2abd a7f8 5dbc
000001d0: 792c 52bd c105 003c c942 113e 9345 6dbd
000001e0: fed1 d13c 8ac8 e93d 5d88 58bc 7d5d 9b3b
000001f0: f3fd 063e afd7 6d3c e593 023c de28 a3bd
00000200: fa43 93bb 45b3 b5bc 1c1e 2b3d 0934 74bd
00000210: fad6 113d 26eb 0fbd 13b1 1e3d 81b7 b7ba
00000220: 209e d33b a357 a9bb c60a 8cbd 3fe4 e4bc
00000230: 25c1 05bb 74e2 11bc fb7b fcbc 3791 20bd
00000240: 3284 ee3c b93b 0e3c 63b6 4e3c 44dd bc3c
00000250: 4779 7fbd 2dd9 88bd 5a02 6ebb 4984 d83c
00000260: 7068 07bd 2121 52bb b09b 45bd c0bd 12bd
00000270: 6b97 ccbb 8d79 f03b 2649 393d 9366 50bd
00000280: 66b4 723d a656 37bd 8c49 a43c 1f2c 5b3d
00000290: 480b e53c fb78 423d 0ac0 d4bb fe51 9bbc
000002a0: 0e45 343d 67c1 6f3c 1ed4 ed3a 800a 87bd
000002b0: 38be 96bc 3cb2 f63c 3a45 69bd 412a 803d
000002c0: e887 60bd b952 1f3d 1fbe 8d3d 2b40 87bc
000002d0: db1e 153c aaa0 ec3d a78a 9f3c a6d7 f4bc
000002e0: 7e62 823d f3df 35bd 2176 4dbc 4ed4 453d
000002f0: 4b1c 87bd d8ac 1c3d 1858 3c3d 5d72 13bd
00000300: a2fb 023d 5c1f 2bbd 9504 813c 40cc f8bb
00000310: b01b 383d 48c2 0abd 8d56 1e3c 5d98 08bd
00000320: fe45 c8bc 96b3 ce3c ea66 1ebd 5182 18bd
00000330: c558 2c3d a153 bc3c 3eab 48bc 35a7 bdbb
00000340: 9116 1c3d 321a a8bd 25a7 43bb 74fe c7bc
00000350: ad9b 313c 8443 83bd ef46 41bd f63a c83b
00000360: c03c 95bd 9493 0a3d e3bf e33c a9d0 8bbd
00000370: 9317 da3b 8a79 6c3c b188 67bd f130 48bc
00000380: 8f9a f8b9 08b9 29bd 668a 5a3d 5a96 9a3c
00000390: 8545 b5bb 26c7 923d fa9f 1c3d 9464 253c
000003a0: 722b 0c3d 89c1 7d3c 859d b9bc 3ebb 49bd
000003b0: 8e01 97bc ceb7 023c 03b6 803d 6925 463d
000003c0: 5177 89bc b3c7 26bd 1140 12bd 4386 e83c
000003d0: f041 d9bb 1487 023c de9f 1ebd 0228 07bd
000003e0: 7e36 513d 1e4b 8bbc 2533 fcbb 991f 7cbc
000003f0: fc65 cbbc f6de 113b 038d f83b 26f3 d7bc

conv.4.bias f4 [32]
0.012162682 0.004372408 -0.032772332 -0.034977898 -0.027549561 0.0319134 0.029046943 0.015783507
0.03829228 -0.03762989 -0.029914038 -0.02223562 -0.061019294 0.04900768 0.036720503 0.027161064
0.011275016 -0.021624796 -0.04386673 -0.026752764 0.00013797513 -0.020118406 -0.02180674 -0.046664584
0.0051610945 0.050277986 -0.009316951 -0.022668801 -0.01461303 -0.036011387 -0.04148288 0.037385967
00000000: fc45 473c 6b46 8f3b 483c 06bd fc44 0fbd
00000010: 9eaf e1bc a0b7 023d dbf3 ed3c 6a4c 813c
00000020: 5ed8 1c3d cd21 1abd 490e f5bc 7a27 b6bc
00000030: 5eef 79bd 47bc 483d 3d68 163d e180 de3c
00000040: d8ba 383c 7c26 b1bc 9aad 33bd 9d28 dbbc
00000050: 6bad 1039 5bcf a4bc 0ca4 b2bc 5d23 3fbd
00000060: 661e a93b 4af0 4d3d 20a6 18bc ecb3 b9bc
00000070: 7d6b 6fbc ad80 13bd f4e9 29bd 0722 193d

conv.5.weight f4 [32]
1.1128448 1.0979849 1.117985 1.0922669 1.1045779 1.0979289 1.1119306 1.0806482
1.1060755 1.0968814 1.1109505 1.0971384 1.11285 1.0947746 1.1007596 1.0901945
1.1086401 1.1082615 1.1008753 1.1227052 1.1054479 1.1153533 1.1080858 1.1029371
1.1010683 1.1062685 1.0919328 1.1069254 1.0956643 1.1264893 1.1036338 1.0972463
00000000: b371 8e3f c58a 8c3f 221a 8f3f 67cf 8b3f
00000010: cf62 8d3f ef88 8c3f be53 8e3f ae52 8a3f
00000020: e293 8d3f 9c66 8c3f a033 8e3f 086f 8c3f
00000030: de71 8e3f 9321 8c3f b1e5 8c3f 7e8b 8b3f
00000040: ebe7 8d3f 83db 8d3f 7be9 8c3f ceb4 8f3f
00000050: 517f 8d3f e6c3 8e3f c1d5 8d3f 0b2d 8d3f
00000060: ceef 8c3f 359a 8d3f 74c4 8b3f bbaf 8d3f
00000070: ba3e 8c3f cd30 903f df43 8d3f 9172 8c3f

conv.5.bias f4 [32]
0.08525954 0.07911052 0.1043783 0.06823354 0.07993974 0.088258885 0.083703086 0.07037752
0.081730425 0.085952 0.09331344 0.0785478 0.09074388 0.08405671 0.0846817 0.08470714
0.09108525 0.09059068 0.07766196 0.08004371 0.07954263 0.08962047 0.09749225 0.0940401
0.08381286 0.0833948 0.07875989 0.09028148 0.08657003 0.09208996 0.09516274 0.07311139
00000000: 8e9c ae3d b204 a23d 4ac4 d53d 07be 8b3d
00000010: 72b7 a33d 13c1 b43d 866c ab3d 1722 903d
00000020: 4862 a73d 9a07 b03d 1e1b bf3d abdd a03d
00000030: edd7 b93d ed25 ac3d 996d ad3d f07a ad3d
00000040: e78a ba3d 9b87 b93d 3c0d 9f3d f5ed a33d
00000050: 3fe7 a23d f08a b73d 04aa c73d 1998 c03d
00000060: 14a6 ab3d e5ca aa3d dd4c a13d 7fe5 b83d
00000070: a14b b13d a999 bc3d afe4 c23d 6dbb 953d

conv.5.running_mean f4 [32]
-0.043914482 -0.2768845 -0.51856494 -0.30128813 0.09043987 0.1711424 0.0040122583 0.1262596
0.15530792 -0.068827555 -0.8715555 -0.30849004 -0.42629838 0.25944027 0.25861573 0.24853401
-0.04604224 -0.48934907 0.15875325 0.15185349 -0.16142522 0.14860094 -0.015459109 -0.026749896
-0.101567015 0.038692754 0.5288106 -0.19410087 0.06468692 -0.051996198 -0.008495892 -0.043433025
00000000: acdf 33bd cec3 8dbe acc0 04bf 7042 9abe
00000010: 8a38 b93d f43f 2f3e 4379 833b 324a 013e
00000020: 0a09 1f3e 76f5 8cbd 431e 5fbf 68f2 9dbe
00000030: c843 dabe 5bd5 843e 4869 843e b37f 7e3e
00000040: ca96 3cbd f68b fabe 3690 223e 7b7f 1b3e
00000050: a74c 25be d82a 183e 3448 7dbc 9922 dbbc
00000060: 5e02 d0bd 4b7c 1e3d 2260 073f 61c2 46be
00000070: 937a 843d f7f9 54bd 5b32 0bbc d4e6 31bd

conv.5.running_var f4 [32]
0.008237313 0.031826586 0.026478203 0.023549939 0.015057255 0.02240992 0.010100067 0.02226152
0.025125058 0.031358898 0.04299374 0.028628374 0.0166582 0.028731791 0.04278824 0.026119791
0.02090659 0.025629083 0.034094732 0.012183464 0.01795011 0.0152550535 0.017179409 0.02455273
0.02153025 0.015991421 0.07864033 0.017291117 0.024915805 0.0071197366 0.020356845 0.015646975
00000000: cbf5 063c 985c 023d d1e8 d83c cdeb c03c
00000010: b4b2 763c 0295 b73c c07a 253c cb5d b63c
00000020: 11d3 cd3c 3072 003d 341a 303d 0d86 ea3c
00000030: c776 883c ef5e eb3c b942 2f3d 2cf9 d53c
00000040: 4c44 ab3c 15f4 d13c eba6 0b3d 279d 473c
00000050: 1c0c 933c 55f0 793c d5bb 8c3c cf22 c93c
00000060: 3560 b03c 7100 833c 2e0e a13d 1aa6 8d3c
00000070: 3b1c cc3c ae4c e93b 66c3 a63c 162e 803c

fc.0.weight f4 [326, 128]
0.1527657 0.115254074 -0.04510037 0.028835101 0.0836847 0.019960565 0.06450134 -0.067259945
0.045482855 -0.004522689 0.0514751 -0.059313916 0.032106403 0.14022 -0.0494754 0.08526038
-0.06103105 0.030886699 -0.07210944 -0.09646681 0.031814985 -0.10549113 0.09182819 0.16613106
0.037016097 0.042543765 -0.053344633 0.09475457 -0.15178883 0.07910724 -0.09491663 0.0052536577
-0.037681714 -0.04237147 0.04397575 -0.01549586 -0.061210323 -0.03295721 -0.05580864 0.04746129
0.093925245 0.09733414 0.13785298 0.1523558 -0.0045373077 0.10051696 0.10542381 0.008212323
0.08936854 0.02418478 -0.005525599 0.06641675 -0.034093082 -0.05640288 0.07232194 0.018161092
-0.040430862 0.10867845 -0.05294467 0.048093073 -0.044097792 -0.09090295 0.10326161 0.09768764
0.052066036 -0.06852924 -0.0029556986 0.0052877315 -0.042177726 0.08121276 0.114396475 0.13651066
-0.13157313 -0.084457636 -0.014921291 -0.058821905 -0.122369826 -0.052939463 -0.055837087 -0.0015659255
0.15998143 -0.007514387 -0.02193435 0.07698437 -0.042244855 0.056643467 0.048490997 0.010269352
0.0027306168 0.05445394 -0.003231632 0.088518806 0.07033607 -0.04054843 0.06198857 0.020501437
-0.017607877 0.03956648 -0.026287995 0.06524478 0.064904116 -0.04962766 0.07575054 0.01659571
0.03053802 -0.04552908 -0.09522014 0.07298598 0.0504958 0.099739626 -0.01904289 -0.07672784
-0.118269384 -0.08545813 0.08651951 -0.040427025 -0.03706314 0.1014166 -0.08871024 -0.07266757
-0.12400906 -0.05514612 0.035886392 0.037663817 0.10934788 0.03600511 0.08021824 -0.08252641
0.09753872 -0.006642825 -0.067987196 0.09806972 -0.055875845 -0.0430587 0.082272366 0.07080407
0.041731253 0.15563601 0.043340914 0.11057631 -0.00487062 -0.08436584 -0.04899376 -0.032982007
-0.024660489 -0.03662238 -0.017630277 -0.05646488 -0.022249617 0.11581359 0.09964764 0.10299141
0.068921655 -0.07388629 0.10864598 -0.012417506 -0.16787633 0.12614667 -0.015153187 0.014416052
0.11158858 0.040044997 0.027892934 -0.030082928 0.07581659 0.012720278 -0.0223619 -0.053245578
0.016923333 0.05357427 0.08253972 -0.011676878 -0.084850304 -0.031928852 -0.018337663 0.0218815
-0.04540177 -0.017413935 0.103766136 -0.13348679 -0.063490026 0.08445961 -0.032682296 0.08377842
-0.019304233 0.018484853 0.13943937 0.0721984 0.03440974 -0.017878367 0.0577062 0.08124231
-0.017196044 0.07269442 0.0030920568 0.07628866 0.05991285 0.03792836 -0.08107321 0.03809036
-0.08673448 0.08610173 0.0034848023 0.11482311 0.12199054 0.046076253 0.1226258 -0.06566241
0.08052762 -0.17151785 0.021691041 -0.014957788 -0.039305586 0.005129245 -0.12894472 0.06605266
0.0012791811 -0.011573475 -0.06273026 0.0977622 0.06479932 0.111600585 -0.09042956 0.09399069
0.10272241 -0.08314286 0.039017603 -0.011753463 0.090338305 0.03884285 -0.024870722 0.009150552
0.031414185 -0.029385224 0.08380346 0.12941822 -0.13669243 -0.026223445 -0.09047276 0.025645155
0.055327162 -0.068594284 -0.046393745 0.08963809 0.047033757 -0.06601738 -0.17427963 0.03779569
0.085305676 0.030722026 -0.064992 0.13576137 0.09030752 0.035695374 0.088896 0.10570555
00000000: 9d6e 1c3e 540a ec3d 2abb 38bd 9737 ec3c
00000010: e262 ab3d 5784 a33c 4719 843d 95bf 89bd
00000020: 3b4c 3a3d 1133 94bb 8ed7 523d 26f3 72bd
00000030: 0182 033d d595 0f3e b8a6 4abd fe9c ae3d
00000040: b2fb 79bd 1a06 fd3c 1dae 93bd 6490 c5bd
00000050: 6e50 023d bc0b d8bd 6b10 bc3d 431e 2a3e
00000060: 319e 173d 5f42 2e3d e77f 5abd af0e c23d
00000070: 886e 1bbe fa02 a23d a663 c2bd e026 ac3b
00000080: 2458 1abd b58d 2dbd eb1f 343d 59e2 7dbc
00000090: adb7 7abd 24fe 06bd 9a97 64bd c566 423d
000000a0: e15b c03d 1f57 c73d 5529 0d3e 2903 1c3e
000000b0: b2ad 94bb d6db cd3d 70e8 d73d fb8c 063c
000000c0: da06 b73d 291f c63c 1510 b5bb 8105 883d
000000d0: 30a5 0bbd b506 67bd 861d 943d 92c6 943c
000000e0: d59a 25bd cf92 de3d 83dc 58bd 3efd 443d
000000f0: e39f 34bd 532b babd d37a d33d 7510 c83d
00000100: 3243 553d 0f59 8cbd 65b4 41bb b544 ad3b
00000110: 8dc2 2cbd e052 a63d b348 ea3d 73c9 0b3e
00000120: 1bbb 06be 20f8 acbd 6e78 74bc 3def 70bd
00000130: 089d fabd 0dd7 58bd 6eb5 64bd be3f cdba
00000140: 2cd2 233e 3f3b f6bb aaaf b3bc fba9 9d3d
00000150: f108 2dbd fb02 683d 7f9e 463d c940 283c
00000160: 26f4 323b 180b 5f3d cac9 53bb 5949 b53d
00000170: 5c0c 903d 1c16 26bd bae7 7d3d a1f2 a73c
00000180: 653e 90bc 7610 223d ec59 d7bc 0e9f 853d
00000190: 73ec 843d 6046 4bbd 1923 9b3d baf3 873c
000001a0: df2a fa3c b37c 3abd c702 c3bd ac79 953d
000001b0: afd4 4e3d 4a44 cc3d d6ff 9bbc 7c23 9dbd
000001c0: 3837 f2bd ac04 afbd 2431 b13d cf96 25bd
000001d0: 85cf 17bd 82b3 cf3d b7ad b5bd bcd2 94bd
000001e0: 76f8 fdbd e6e0 61bd 9cfd 123d 6045 1a3d
000001f0: c8f1 df3d 187a 133d 7649 a43d 9b03 a9bd
00000200: 61c2 c73d 0eac d9bb df3c 8bbd c7d8 c83d
00000210: 12de 64bd 525e 30bd 6a7e a83d b901 913d
00000220: 64ee 2a3d 0c5f 1f3e 3e86 313d d575 e23d
00000230: b999 9fbb ffc7 acbd aead 48bd 2418 07bd
00000240: cb04 cabc 5901 16bd 5f6d 90bc b847 67bd
00000250: d444 b6bc ad2f ed3d 1014 cc3d 29ed d23d
00000260: cc26 8d3d b251 97bd c981 de3d cc72 4bbc
00000270: c6e7 2bbe 982c 013e 1345 78bc 4e31 6c3c
00000280: 8e88 e43d 3906 243d b97f e43c 7970 f6bc
00000290: ba45 9b3d b768 503c 4e30 b7bc 0918 5abd
000002a0: cda2 8a3c b270 5b3d 960a a93d 6050 3fbc
000002b0: ffc5 adbd d4c7 02bd de38 96bc d540 b33c
000002c0: 35f7 39bd aba7 8ebc 5783 d43d c3b0 08be
000002d0: 0f07 82bd 29f9 ac3d dfdd 05bd 0594 ab3d
000002e0: e923 9ebc 8c6d 973c 32c9 0e3e c1dc 933d
000002f0: 3af1 0c3d a775 92bc 565d 6c3d 5e62 a63d
00000300: b8de 8cbc d0e0 943d 1ba4 4a3b 3b3d 9c3d
00000310: 2d67 753d c55a 1b3d b609 a6bd a304 1c3d
00000320: d9a1 b1bd 1b56 b03d 4861 643b 6128 eb3d
00000330: 2dd6 f93d 74ba 3c3d 3c23 fb3d 037a 86bd
00000340: aaeb a43d 60a2 2fbe 69b1 b13c 8311 75bc
00000350: e5fe 20bd 3a13 a83b 160a 04be 9e46 873d
00000360: 32aa a73a ac9e 3dbc b978 80bd 8c37 c83d
00000370: 82b5 843d d98e e43d 2233 b9bd 317e c03d
00000380: 2060 d23d ce46 aabd ecd0 1f3d 9991 40bc
00000390: 4a03 b93d ae19 1f3d afbd cbbc 32ec 153c
000003a0: 29ac 003d 48b9 f0bc 26a1 ab3d 3686 043e
000003b0: 1af9 0bbe 8dd2 d6bc c849 b9bd ca15 d23c
000003c0: bc9e 623d 297b 8cbd 5e07 3ebd 2d94 b73d
000003d0: 78a6 403d 1f34 87bd 5c76 32be a7cf 1a3d
000003e0: beb4 ae3d c2ac fb3c 871a 85bd 0705 0b3e
000003f0: 26f3 b83d 5035 123d 1b0f b63d 277c d83d

fc.0.bias f4 [326]
-0.005208363 -0.028905813 0.09954916 0.054064162 0.08301962 0.020368762 0.086848244 0.10582591
-0.02025985 0.04827986 0.06860611 -0.05462052 0.025683707 -0.060953524 0.10884865 0.057331365
0.008784425 -0.014831687 0.09398955 -0.042866554 0.027700393 -0.0119021265 -0.0063570905 0.02465782
0.096276686 0.05164217 0.0331069 -0.002222174 0.054571003 -0.022396537 0.12558666 -0.029422268
0.00058494444 0.0969448 -0.018465849 0.036766976 0.005799456 -0.060039453 -0.08975412 0.07269768
0.042822763 0.055862263 0.036855005 0.01948144 -0.01027068 0.09439718 0.06439181 -0.06619875
0.026981402 -0.014874259 0.065671325 -0.023776384 0.09257955 0.099591754 -0.029718382 0.09971415
0.10706169 -0.019333493 0.054265562 -0.0007073273 0.009092958 -0.029338451 0.06908077 -0.015148458
0.08912275 0.0007797732 -0.039738197 -0.03489184 0.1073159 0.093828164 0.008853703 0.059892323
0.03120853 0.026626758 0.036449816 0.024947096 0.03353717 -0.0035508592 0.07898099 -0.019135872
0.10018518 -0.024321932 -0.045413043 -0.035243087 0.033206735 0.039886076 0.13442911 0.0796152
0.072072476 -0.028046742 0.03903951 0.024301438 0.0076185837 -0.055001624 0.0124907615 -0.010490362
0.11008881 0.11365262 0.056951787 0.109668024 0.019515662 0.049677446 0.0018681907 0.0019795236
0.075911954 0.034583945 0.114568494 0.061774764 -0.0118401665 -0.03314151 -0.0038740323 0.05843489
0.009236956 0.023928635 0.002413138 0.0030562524 0.09702647 -0.0046368814 0.035635903 0.019688277
0.0067854216 0.07919799 0.031782094 0.014147157 0.10923132 -0.05385814 0.051634345 0.003348896
0.050233755 0.06437188 0.031405527 -0.04768228 -0.010805313 -0.009324122 -0.031983785 0.061809175
0.0682389 0.065561086 -0.0024203958 0.107498646 0.0669753 -0.036714237 -0.021850625 0.015734876
-0.020999031 0.09932636 0.077672854 0.097559705 0.110812865 0.034389902 0.08359983 -0.017918171
-0.034103215 -0.03818747 0.08489326 0.061854538 0.043580912 0.11782319 0.08317921 0.09768478
0.036672626 0.08579766 0.11553372 -0.0021826888 0.037319474 -0.015651083 0.056945205 0.12835127
-0.0021941117 0.0656244 -0.055269737 -0.0068318807 0.044652976 -0.026267229 0.09800336 -0.00236395
-0.046870433 -0.05542481 -0.011895852 -0.019352665 0.1337061 0.10535065 -0.011333727 0.11479931
0.06638164 0.026061002 -0.049331408 0.12163101 0.13244525 0.005188461 -0.022577072 0.0009787119
0.044594456 0.08958171 0.08926169 0.013525985 0.07571367 0.061550826 0.075627595 0.0850154
0.057358 0.09089057 0.055788375 -0.08051037 -0.0038130227 -0.022519127 0.056115888 0.078067265
0.05244632 0.0048556398 0.06892806 -0.013515862 0.061497778 0.095691726 0.07910961 -0.012176524
-0.038176056 0.08340332 -0.020713208 -0.08953028 0.12046044 0.057225905 0.075184576 0.0027107252
0.0039031976 0.03360093 0.078503825 0.08974892 -0.039226692 0.0030357998 0.08131141 0.12573664
-0.061840843 -0.006522801 -0.005194589 -0.0053994255 0.07331233 -0.017271392 0.028992284 0.05339495
0.01916781 -0.06338414 -0.038732696 0.006217219 0.07313971 -0.026073076 0.045165338 0.049505856
0.06737593 0.06599819 -0.060812257 0.020202182 0.13096808 0.08729675 0.010902408 0.058183156
00000000: eaaa aabb e2cb ecbc 6ee0 cb3d 6272 5d3d
00000010: 3106 aa3d 64dc a63c 7edd b13d 41bb d83d
00000020: fcf7 a5bc 1ac1 453d 5c81 8c3d c4b9 5fbd
00000030: a366 d23c 67aa 79bd 0aec de3d 4bd4 6a3d
00000040: 8dec 0f3c 9b00 73bc 987d c03d d794 2fbd
00000050: efeb e23c 2301 43bc 244f d0bb 32ff c93c
00000060: b62c c53d bd86 533d 1a9b 073d e5a1 11bb
00000070: d885 5f3d f178 b7bc ca99 003e f806 f1bc
00000080: f556 193a ff8a c63d b145 97bc f898 163d
00000090: 5d09 be3b eeeb 75bd 02d1 b7bd 85e2 943d
000000a0: ec66 2f3d d4cf 643d 46f5 163d 8a97 9f3c
000000b0: 5b46 28bc 4f53 c13d dadf 833d 3693 87bd
000000c0: 1a08 dd3c 2ab3 73bc b07e 863d b1c6 c2bc
000000d0: 599a bd3d c3f6 cb3d f773 f3bc ef36 cc3d
000000e0: 2943 db3d 4661 9ebc 9145 5e3d ee6b 39ba
000000f0: a1fa 143c 3157 f0bc 387a 8d3d 3d31 78bc
00000100: fd85 b63d b269 4c3a 85c4 22bd bfea 0ebd
00000110: 70c8 db3d fb28 c03d 1f0f 113c a751 753d
00000120: 08a9 ff3c 5c20 da3c 674c 153d da5d cc3c
00000130: 465e 093d 88b5 68bb c9c0 a13d d5c2 9cbc
00000140: e32d cd3d ca3e c7bc 0703 3abd 0e5b 10bd
00000150: c903 083d 955f 233d c9a7 093e 4b0d a33d
00000160: bc9a 933d 48c2 e5bc e5e7 1f3d cf13 c73c
00000170: 50a5 f93b 6249 61bd 0da6 4c3c c4df 2bbc
00000180: 3e76 e13d b4c2 e83d 4746 693d a199 e03d
00000190: 4fdf 9f3c 947a 4b3d 14de f43a e5ba 013b
000001a0: ba77 9b3d e5a7 0d3d e3a2 ea3d 8907 7d3d
000001b0: 42fd 41bc 64bf 07bd 7ae3 7dbb 6c59 6f3d
000001c0: 9a56 173c fc05 c43c bd25 1e3b 684b 483b
000001d0: d0b5 c63d fbf0 97bb f4f6 113d 4f49 a13c
000001e0: 3e58 de3b 8e32 a23d f12d 023d 7ac9 673c
000001f0: acb4 df3d 5a9a 5cbd 897e 533d 2779 5b3b
00000200: e9c1 4d3d 67d5 833d 15a3 003d 7f4e 43bd
00000210: c408 31bc 34c4 18bc 6e01 03bd 9e2b 7d3d
00000220: d6c0 8b3d e444 863d 819f 1ebb 4028 dc3d
00000230: 592a 893d ab61 16bd 1500 b3bc 6de6 803c
00000240: 2906 acbc 9e6b cb3d f212 9f3d 62cd c73d
00000250: dbf1 e23d 6ddc 0c3d 6336 ab3d 21c9 92bc
00000260: d0af 0bbd 776a 1cbd 84dc ad3d 2f5b 7d3d
00000270: e681 323d 494d f13d dd59 aa3d f50e c83d
00000280: 0936 163d afb6 af3d f19c ec3d 710b 0fbb
00000290: 4edc 183d b336 80bc 603f 693d 846e 033e
000002a0: 16cb 0fbb 1666 863d 8562 62bd f8dd dfbb
000002b0: 0ae6 363d 5f2e d7bc fcb5 c83d 80ec 1abb
000002c0: 36fb 3fbd 2005 63bd d2e6 42bc 7b89 9ebc
000002d0: 40ea 083e 15c2 d73d 19b1 39bc e71b eb3d
000002e0: 19f3 873d e27d d53c bb0f 4abd ae19 f93d
000002f0: ba9f 073e f703 aa3b 8df3 b8bc 1f48 803a
00000300: ada8 363d 9e76 b73d d5ce b63d 189c 5d3c
00000310: c50f 9b3d b81c 7c3d a4e2 9a3d 8e1c ae3d
00000320: 39f0 6a3d d624 ba3d 5a82 643d 9fe2 a4bd
00000330: e8e3 79bb 087a b8bc c6d9 653d bbe1 9f3d
00000340: f4d1 563d 0f1c 9f3b 282a 8d3d a271 5dbc
00000350: 18e5 7b3d 06fa c33d 3804 a23d 0b80 47bc
00000360: 7f5e 1cbd 5ccf aa3d bfae a9bc a75b b7bd
00000370: f7b3 f63d b665 6a3d 5ffa 993d 6ca6 313b
00000380: cacc 7f3b 21a1 093d 9dc6 a03d 48ce b73d
00000390: 2bac 20bd 45f4 463b 9986 a63d 1bc1 003e
000003a0: d34c 7dbd 38bd d5bb 5f37 aabb aaed b0bb
000003b0: c624 963d bc7c 8dbc 3a81 ed3c aab4 5a3d
000003c0: d005 9d3c 8bcf 81bd 2da6 1ebd d0b9 cb3b
000003d0: 46ca 953d 3497 d5bc 4aff 383d a7c6 4a3d
000003e0: 64fc 893d 0f2a 873d 4616 79bd 0c7f a53c
000003f0: 7f1c 063e a3c8 b23d 03a0 323c 7651 6e3d

fc.2.weight f4 [163, 326]
-0.08209855 -0.07104973 -0.036196206 -0.052462503 -0.022667907 -0.09009914 -0.0919234 -0.019774277
0.059887223 0.024642747 0.02259961 -0.035599086 -0.10867494 0.004281884 -0.047468416 0.036737867
-0.10352607 0.042089403 -0.04537321 0.06480555 -0.02453329 0.04703801 0.027851183 -0.07102397
-0.11395385 -0.03313838 0.083701156 -0.1252804 -0.020589836 -0.02919838 -0.039987966 -0.018896645
-0.048245937 0.05946755 0.088371016 -0.010541946 0.10254004 0.07554212 -0.039098177 -0.013725529
0.015658649 -0.05976389 0.10072782 -0.08475763 -0.06733498 -0.02947282 0.05309693 -0.053831723
-0.06294428 0.025015917 0.012690673 0.037353862 -0.05918764 0.07920269 0.04665736 -0.08436341
-0.08574236 0.026449189 -0.05698064 0.020028733 -0.096342295 0.123078935 -0.06321293 0.083455026
0.10961475 -0.0027731555 -0.053034846 0.031930223 -0.08728985 0.05327 0.05619122 0.10487668
-0.015228379 -0.07148706 -0.09367221 0.06960236 0.02901042 0.12030741 0.053780537 0.025867913
-0.08728081 0.08566446 0.0464434 -0.014229889 0.009434229 0.058326934 0.079119116 -0.09345857
0.050446242 -0.021057531 -0.08411303 0.023699002 -0.018765314 -0.06136339 -0.070736475 -0.1478038
-0.10797168 0.017520666 0.010823298 0.044136018 -0.021518597 0.055730585 0.034183394 -0.019270608
-0.05247586 -0.07443674 0.028067876 -0.013553516 0.031195737 -0.08677388 0.088520996 -0.012791328
-0.026049385 -0.04756283 -0.119649015 0.04733799 -0.019086162 -0.017967418 0.04958633 -0.001887764
-0.12476792 -0.0713209 -0.12179966 0.0711684 -0.104491 0.011807006 0.071998194 -0.11977652
0.01057108 0.004267023 -0.010987416 0.037592333 -0.08850798 0.06498605 -0.07560481 -0.06290901
-0.096171774 0.06629435 -0.018545479 0.019914692 0.021273442 0.04801418 0.017455665 -0.096258596
-0.0053463257 0.012866502 0.021975387 0.07653925 -0.01713145 0.021552881 0.050563328 0.11060518
0.042121436 -0.08038037 0.089412354 -0.01747734 -0.108500406 -0.073823884 -0.058148753 0.005276065
-0.0068539134 0.1155721 -0.14786544 0.08744761 -0.07992664 -0.043848906 -0.053183302 0.12030438
0.08239477 -0.055055026 0.032448024 -0.08044724 0.01119477 0.032532528 0.054659914 0.038280353
-0.040598467 -0.108617656 0.005648795 0.035899416 0.09941665 -0.09040219 0.08170452 0.025313372
0.029895619 -0.010684451 -0.030751131 0.021408223 -0.087101325 -0.007984419 -0.064149685 -0.03747354
-0.0075806067 -0.083133735 0.085876286 -0.13263068 -0.088904835 0.118780084 0.039092124 -0.067957304
-0.062604845 -0.011417451 -0.0955842 0.07168206 -0.08366138 -0.07387645 -0.015378518 -0.055308573
-0.0966449 -0.06557786 -0.10218957 -0.06240146 -0.12786885 0.12700804 0.08342504 -0.058289304
-0.06951074 -0.037331447 -0.027872298 0.03647683 -0.089922495 -0.052868288 -0.048809733 -0.038742337
0.011973639 0.014912297 -0.07962068 0.08317861 0.08449998 -0.090756476 -0.034635313 -0.10928524
-0.006808024 -0.094100565 -0.06693928 0.0686681 0.11828934 0.0014055048 -0.04897705 -0.038867824
0.02597577 -0.012559783 0.06640447 0.11471629 0.0042289766 0.004531805 0.016587872 0.020358743
-0.10682569 -0.11198315 0.017940488 -0.011922065 -0.118718535 -0.109191336 -0.016310504 0.08997875
00000000: 4923 a8bd 8582 91bd 7942 14bd ece2 56bd
00000010: 0cb2 b9bc e685 b8bd 5642 bcbd aafd a1bc
00000020: 4e4c 753d 96df c93c d122 b93c 59d0 11bd
00000030: f890 debd 0c4f 8c3b 3e6e 42bd 727a 163d
00000040: 7a05 d4bd f065 2c3d 42d9 39bd c6b8 843d
00000050: 0afa c8bc eeaa 403d 2a28 e43c 0475 91bd
00000060: a360 e9bd 1cbc 07bd 836b ab3d 8149 00be
00000070: 04ac a8bc 7131 efbc 6cca 23bd 23cd 9abc
00000080: 889d 45bd 3f94 733d ddfb b43d 20b8 2cbc
00000090: 8300 d23d d4b5 9a3d 6925 20bd 0be1 60bc
000000a0: 9146 803c fbca 74bd 634a ce3d 6995 adbd
000000b0: ece6 89bd fc70 f1bc 2b7c 593d a77e 5cbd
000000c0: eee8 80bd 2eee cc3c 8aec 4f3c 5d00 193d
000000d0: bd6e 72bd 0535 a23d ca1b 3f3d b9c6 acbd
000000e0: b199 afbd f8ab d83c 8864 69bd 4c13 a43c
000000f0: 1c4f c5bd cf10 fc3d c875 81bd 78ea aa3d
00000100: b37d e03d d4bd 35bb 113b 59bd 44c9 023d
00000110: 05c5 b2bd a531 5a3d c428 663d 96c9 d63d
00000120: 7380 79bc cf67 92bd 37d7 bfbd af8b 8e3d
00000130: 43a7 ed3c bb63 f63d fb48 5c3d f2e8 d33c
00000140: 48c0 b2bd d970 af3d 6f3b 3e3d 7b24 69bc
00000150: 0692 1a3c 39e8 6e3d 3409 a23d 3567 bfbd
00000160: b8a0 4e3d d880 acbc 7443 acbd 6924 c23c
00000170: b7b9 99bc 2e58 7bbd 49de 90bd e159 17be
00000180: 4220 ddbd 8087 8f3c 3454 313c f8c7 343d
00000190: c547 b0bc c145 643d e303 0c3d 65dd 9dbc
000001a0: edf0 56bd 4a72 98bd 9aee e53c 910f 5ebc
000001b0: 348e ff3c 81b6 b1bd 7f4a b53d b892 51bc
000001c0: 8565 d5bc 3ed1 42bd 8b0a f5bd 7be5 413d
000001d0: 955a 9cbc 6830 93bc 091b 4b3d d96e f7ba
000001e0: 5386 ffbd b110 92bd 1a72 f9bd bdc0 913d
000001f0: 61ff d5bd 2c72 413c ca73 933d 644d f5bd
00000200: 5332 2d3c 62d2 8b3b 9004 34bc 6bfa 193d
00000210: ac43 b5bd 6817 853d b2d6 9abd 70d6 80bd
00000220: b5f5 c4bd 55c5 873d b0ec 97bc 2324 a33c
00000230: a445 ae3c 84aa 443d 2fff 8e3c 3a23 c5bd
00000240: 3b30 afbb 05ce 523c ba05 b43c 9cc0 9c3d
00000250: 4157 8cbc ab8f b03c 7e1b 4f3d f884 e23d
00000260: 8787 2c3d 779e a4bd d31d b73d a32c 8fbc
00000270: 7635 debd fa30 97bd 632d 6ebd d7e2 ac3b
00000280: cb96 e0bb 11b1 ec3d 0a6a 17be bc17 b33d
00000290: 94b0 a3bd e99a 33bd bcd6 59bd 2562 f63d
000002a0: 97be a83d 6181 61bd 38e8 043d 86c1 a4bd
000002b0: 456a 373c d440 053d 13e3 5f3d dccb 1c3d
000002c0: 944a 26bd ef72 debd 8719 b93b 440b 133d
000002d0: f59a cb3d c924 b9bd b354 a73d fd5d cf3c
000002e0: a8e7 f43c d60d 2fbc cce9 fbbc 4c60 af3c
000002f0: 2e62 b2bd 15d1 02bc e960 83bd db7d 19bd
00000300: bd66 f8bb 0542 aabd e8df af3d 56d0 07be
00000310: bd13 b6bd f942 f33d 101f 203d 332d 8bbd
00000320: f836 80bd 4310 3bbc a6c1 c3bd 0bce 923d
00000330: a856 abbd 894c 97bd 2ef6 7bbc 3e8b 62bd
00000340: c3ed c5bd af4d 86bd c448 d1bd ac98 7fbd
00000350: 0df0 02be 650e 023e bfda aa3d c4c0 6ebd
00000360: a65b 8ebd dce8 18bd 7254 e4bc ba68 153d
00000370: 4929 b8bd 6b8c 58bd b7ec 47bd 49b0 1ebd
00000380: 152d 443c b552 743c 2b10 a3bd 8c59 aa3d
00000390: 530e ad3d 88de b9bd c2dd 0dbd f1d0 dfbd
000003a0: d815 dfbb ccb7 c0bd 7617 89bd dca1 8c3d
000003b0: ae41 f23d ea38 b83a 299c 48bd de33 1fbd
000003c0: 23cb d43c 8cc7 4dbc 11ff 873d 60f0 ea3d
000003d0: 3a93 8a3b 897f 943b 4ae3 873c 61c7 a63c
000003e0: 6dc7 dabd 6c57 e5bd eef7 923c c454 43bc
000003f0: b422 f3bd b59f dfbd 9b9d 85bc c746 b83d

fc.2.bias f4 [163]
-0.034038782 -0.04402759 -0.014762994 -0.022922624 -0.049432706 0.033092406 -0.040212825 -0.02566949
-0.041729625 -0.033111706 -0.02933089 -0.025231102 0.029993944 0.041105866 -0.014415321 -0.0018503672
-0.052258432 0.00985961 -0.033123612 0.004933623 0.009432344 0.02475276 0.0059548286 0.07874563
0.023460837 -0.030681102 -0.018887337 -0.01866614 -0.06355024 -0.017940449 0.03290168 0.030087454
-0.061443336 -0.021431992 -0.047124896 0.02485679 -0.04172129 -0.0053535155 -0.012143855 -0.023976618
-0.027135925 -0.07205136 -0.093415 -0.01745638 0.051286835 -0.033804134 -0.046739943 0.017937893
0.015307506 -0.028308738 -0.08522517 -0.094032176 -0.0021745213 -0.00911413 0.02308731 0.05571432
-0.030945787 0.010753122 -0.051771715 0.039926074 -0.0032029375 0.011347507 0.023527198 -0.0017975997
-0.051435318 -0.0590328 -0.031186402 0.007034287 -0.028991671 -0.009796277 0.024110692 -0.017277127
0.052312445 0.02308162 0.020208176 -0.020198302 -0.057371087 0.023560649 -0.063106015 -0.0057545365
-0.0337315 -0.050647017 -0.01261436 -0.002577026 -0.020375684 -0.056698967 -0.06680113 -0.047824774
-0.051086925 -0.044729687 -0.050691005 0.03427138 0.01632761 -0.0054439707 -0.04434 0.011340339
-0.007478704 0.029546821 -0.01997333 0.040326286 0.011057836 0.009864133 -0.0258027 0.031942748
0.03145111 0.018319665 0.026357362 -0.04170845 -0.011613576 -0.08201547 0.04440198 -0.030832224
-0.053587575 0.05740047 0.05616669 -0.0994144 -0.032866772 0.01812229 -0.035448976 0.010721966
-0.034953043 0.04912177 -0.011563274 -0.008064656 -0.061827064 -0.044098068 -0.0071699824 -0.01995331
0.013656838 -0.001856635 0.052106388 -0.025477111 -0.03143721 -0.075910866 -0.068207376 -0.053862963
-0.011148227 -0.043152567 0.059912663 0.013511673 -0.00978583 0.040144876 -0.047619715 0.017938212
-0.042665485 -0.018578256 0.047152743 0.04896229 -0.092236534 0.0069777775 0.05435422 -0.011287922
0.06239396 0.035407342 0.006675007 -0.020445116 -0.021230776 -0.09044062 0.06873149 -0.013412387
-0.06591371 -0.00599631 -0.010504619
00000000: 406c 0bbd 4656 34bd 7ce0 71bc 3ac8 bbbc
00000010: f379 4abd e78b 073d 34b6 24bd d348 d2bc
00000020: afec 2abd 24a0 07bd 5647 f0bc 75b1 cebc
00000030: dcb5 f53c a05e 283d 3d2e 6cbc 0588 f2ba
00000040: f00c 56bd 348a 213c a0ac 07bd 3baa a13b
00000050: 1e8a 1a3c 4dc6 ca3c b920 c33b 6445 a13d
00000060: f130 c03c ef56 fbbc 9eb9 9abc bce9 98bc
00000070: a126 82bd d9f7 92bc e9c3 063d f779 f63c
00000080: 02ac 7bbd 2592 afbc 0906 41bd 78a0 cb3c
00000090: f2e3 2abd 8b6c afbb 05f7 46bc 9d6a c4bc
000000a0: 294c debc aa8f 93bd 5d50 bfbd af00 8fbc
000000b0: 2512 523d 3476 0abd 6272 3fbd 7df2 923c
000000c0: 55cc 7a3c bae7 e7bc 898a aebd f193 c0bd
000000d0: 6a82 0ebb 6f53 15bc 9921 bd3c b334 643d
000000e0: 0582 fdbc dd2d 303c 940e 54bd 8689 233d
000000f0: 60e8 51bb e5ea 393c 1cbc c03c 709d ebba
00000100: d7ad 52bd 61cc 71bd a07a ffbc e07f e63b
00000110: f17f edbc 9080 20bc c983 c53c c388 8dbc
00000120: 9345 563d aa15 bd3c 9e8b a53c e976 a5bc
00000130: f2fd 6abd 4302 c13c ba3d 81bd 8d90 bcbb
00000140: 0b2a 0abd 3f73 4fbd 76ac 4ebc 52e3 28bb
00000150: e8ea a6bc 2d3d 68bd 08cf 88bd e9e3 43bd
00000160: 8640 51bd 7a36 37bd 5fa1 4fbd 2660 0c3d
00000170: 7bc1 853c 5663 b2bb dc9d 35bd d4cc 393c
00000180: eb0f f5bb 2d0c f23c 1c9f a3bc 2d2d 253d
00000190: ed2b 353c 2c9d 213c 2f60 d3bc 66d6 023d
000001a0: e1d2 003d 1f13 963c 65eb d73c 7bd6 2abd
000001b0: de46 3ebc baf7 a7bd dade 353d dc93 fcbc
000001c0: a57e 5bbd c11c 6b3d 0b0f 663d c799 cbbd
000001d0: 4f9f 06bd 3275 943c f232 11bd 2fab 2f3c
000001e0: ec2a 0fbd e933 493d e373 3dbc 9e21 04bc
000001f0: 603e 7dbd 2da0 34bd 2cf2 eabb 2075 a3bc
00000200: eec0 5f3c 555a f3ba 826d 553d 60b5 d0bc
00000210: 4ec4 00bd 2877 9bbd 4fb0 8bbd 699f 5cbd
00000220: 0ea7 36bc bfc0 30bd fb66 753d 1060 5d3c
00000230: bf54 20bc f46e 243d e40c 43bd 28f3 923c
00000240: 01c2 2ebd 6d31 98bc 3c23 413d af8c 483d
00000250: 82e6 bcbd d7a5 e43b 88a2 5e3d faf0 38bc
00000260: cf90 7f3d 4a07 113d 04ba da3b 847c a7bc
00000270: 2aec adbc ef38 b9bd 18c3 8c3d a1bf 5bbc
00000280: c4fd 86bd b27c c4bb 911b 2cbc
