inventory/model.pth (torch, 468497 bytes, 16 tensors)

conv.0.weight f4 [32, 3, 5, 5]
-0.04875073 -0.08697629 0.094937995 0.0513572 0.12947929 0.04711441 -0.098477334 -0.07822308
0.0028877477 -0.0010934918 0.023530547 -0.08247907 -0.06327511 -0.03346993 0.062238008 0.101783805
0.073854186 -0.08665189 -0.012166045 0.11589317 0.087357454 0.019653793 0.0985525 0.13460758
0.028156465 0.07383093 -0.11153429 -0.022796145 -0.031267673 -0.032544795 -0.036802627 0.04717276
-0.025861615 -0.11532914 -0.09402263 -0.101241395 0.07599983 -0.0053794365 -0.016980046 -0.02774745
-0.07583209 -0.09559157 0.044075247 0.0473066 0.08346797 0.107492924 0.09780668 0.1210284
-0.06384529 -0.033755817 0.04119099 0.07035541 0.06626132 0.04808155 0.017694948 0.002546356
-0.0027601027 -0.11641852 -0.0004357047 0.016849551 0.054798532 0.06463733 -0.021658374 0.05214656
0.054721262 0.0946664 0.08080538 0.08396689 0.02416503 -0.08366831 0.11348514 -0.029513136
-0.07619361 0.08794321 0.06813241 0.10404974 -0.07147697 0.098499954 0.027252384 0.0125571
-0.06634128 0.036929976 -0.049129505 -0.08064887 0.013428264 0.066016674 -0.07925966 -0.06940092
-0.08633873 0.013531128 0.022509992 -0.07162464 -0.013501336 0.05800113 -0.060836717 -0.086851925
-0.118058376 -0.03551062 -0.10046328 -0.06662984 0.057172716 -0.061207026 0.1122095 -0.048907336
-0.002715688 0.0087821 -0.0020489981 -0.08877412 -0.10307421 -0.08849655 -0.06872015 0.09932433
-0.027908908 0.12826231 0.11162502 -0.094561055 0.024544997 0.06324424 0.07507448 0.09816111
0.049618945 0.06711546 0.027945545 0.109741665 -0.06583609 -0.021014197 0.032878924 0.011052303
-0.05696648 -0.009583435 0.040047377 -0.09491309 0.04075875 -0.08056928 -0.024102004 -0.08448654
0.09235667 -0.012493559 -0.051149722 -0.06750256 -0.03972109 0.08698647 -0.010341617 -0.017424835
-0.005079254 0.06504282 -0.100230664 0.011357813 -0.093441606 -0.044916127 0.026430663 0.037402272
-0.03958693 0.1016965 0.07639991 -0.0017903978 -0.044002518 0.0034023987 0.074335374 0.122472085
0.09944721 0.014768121 0.010232114 0.09223561 0.09820328 0.0038101508 -0.01775816 0.06262463
0.022439687 0.069455765 -0.06600426 0.038658593 -0.037608895 -0.10551971 -0.088138305 -0.0066716904
0.11540688 0.0824455 0.1274609 -0.02321555 -0.012101694 0.11815634 0.09378318 -0.07681231
-0.07156028 -0.044204444 0.11101881 0.028215794 -0.03192787 0.05282609 0.10640052 -0.11692299
0.08702166 0.066218436 0.10079953 0.009289407 -0.058568932 0.03487939 0.10353694 0.035793874
-0.05022546 0.032074705 0.0013144515 0.10213615 -0.10148503 0.08881975 -0.008411014 -0.0114793675
-0.10820026 -0.025058009 0.029216489 -0.04129197 -0.09835532 -0.06858241 0.053841718 -0.020444673
-0.016842257 0.07047062 0.07889459 0.10838322 -0.08441645 -0.07543686 0.04774939 0.107340716
0.082053 -0.090683736 0.01593909 -0.0889903 0.04651245 -0.10558111 0.018390602 -0.009770555
0.019224824 -0.10256459 -0.09407358 0.021293357 -0.08855842 -0.097865075 -0.014202671 0.08079931
0.08145527 0.029340792 -0.044124305 0.11088456 -0.0683779 0.114873596 0.11154955 0.16174507
-0.03262581 0.13731396 -0.074701056 0.04911568 -0.097125255 -0.03465497 -0.041824088 0.038331173
00000000: d8ae 47bd a020 b2bd da6e c23d ed5b 523d
00000010: 3896 043e 0afb 403d 7cae c9bd 6c33 a0bd
00000020: 5e40 3d3b 7f53 8fba 22c3 c03c c9ea a8bd
00000030: 6296 81bd c417 09bd 48ed 7e3d 0774 d03d
00000040: dd40 973d 8c76 b1bd 1754 47bc 6659 ed3d
00000050: 77e8 b23d fe00 a13c e5d5 c93d 92d6 093e
00000060: 63a8 e63c ac34 973d 176c e4bd fbbe babc
00000070: 8812 00bd b14d 05bd 5abe 16bd 3938 413d
00000080: bddb d3bc af31 ecbd f08e c0bd a657 cfbd
00000090: cda5 9b3d fc45 b0bb bd19 8bbc 9f4e e3bc
000000a0: db4d 9bbd 83c5 c3bd 3f88 343d 91c4 413d
000000b0: 41f1 aa3d 4025 dc3d de4e c83d bddd f73d
000000c0: 52c1 82bd 8a43 0abd e2b7 283d 7f16 903d
000000d0: 04b4 873d 29f1 443d fff4 903c c4e0 263b
000000e0: d7e2 34bb d56c eebd 4b6f e4b9 1208 8a3c
000000f0: 6d74 603d 9460 843d e76c b1bc a297 553d
00000100: 6723 603d 75e0 c13d 4b7d a53d d5f6 ab3d
00000110: bef5 c53c 4a5a abbd e66a e83d 88c5 f1bc
00000120: 650b 9cbd 921b b43d 0189 8b3d 0818 d53d
00000130: 8562 92bd 58ba c93d 6440 df3c 4bbc 4d3c
00000140: f0dd 87bd e343 173d 053c 49bd 3c2b a5bd
00000150: 3902 5c3c c033 873d e352 a2bd 1222 8ebd
00000160: 5cd2 b0bd aab1 5d3c e066 b83c f0af 92bd
00000170: b534 5dbc 9892 6d3d ec2f 79bd 6cdf b1bd
00000180: 97c8 f1bd 9573 11bd b1bf cdbd 3a75 88bd
00000190: f02d 6a3d 38b4 7abd 18ce e53d 0f53 48bd
000001a0: aff9 31bb cce2 0f3c 7c48 06bb 35cf b5bd
000001b0: 9218 d3bd ae3d b5bd 26bd 8cbd 8e6a cb3d
000001c0: 39a1 e4bc 3257 033e a99b e43d 3aa9 c1bd
000001d0: 9712 c93c 3286 813d a6c0 993d b108 c93d
000001e0: 3c3d 4b3d d573 893d 0eee e43c 3dc0 e03d
000001f0: 12d5 86bd f725 acbc 0dac 063d b814 353c
00000200: af55 69bd d703 1dbc b808 243d cb61 c2bd
00000210: a6f2 263d 8201 a5bd 9171 c5bc 4707 adbd
00000220: 7e25 bd3d c9b1 4cbc 5f82 51bd c83e 8abd
00000230: 95b2 22bd f625 b23d e36f 29bc 87be 8ebc
00000240: df6f a6bb 2c35 853d bc45 cdbd 1f16 3a3c
00000250: 505e bfbd f9f9 37bd 1e85 d83c 2033 193d
00000260: e825 22bd 4146 d03d 8e77 9c3d c8ab eaba
00000270: fc3b 34bd c7fa 5e3b 253d 983d a5d2 fa3d
00000280: fbaa cb3d fdf5 713c 99a4 273c 06e6 bc3d
00000290: cd1e c93d b9b3 793b 9079 91bc 5841 803d
000002a0: 6fd3 b73c d33e 8e3d 3e2d 87bd 7958 1e3d
000002b0: c90b 1abd b81a d8bd db81 b4bd 329e dabb
000002c0: 715a ec3d 30d9 a83d 1c85 023e 8a2e bebc
000002d0: 2f46 46bc f4fb f13d 6511 c03d c64f 9dbd
000002e0: 328e 92bd b80f 35bd d45d e33d cf24 e73c
000002f0: ccc6 02bd 2c60 583d 84e8 d93d 5275 efbd
00000300: 6938 b23d 889d 873d fc6f ce3d 9932 183c
00000310: fae5 6fbd b1dd 0e3d 2d0b d43d 999c 123d
00000320: 36b9 4dbd c460 033d ac49 ac3a c22c d13d
00000330: 62d7 cfbd 21e7 b53d 5ace 09bc f513 3cbc
00000340: 1998 ddbd 7446 cdbc 6b57 ef3c c521 29bd
00000350: 846e c9bd ef74 8cbd 2289 5c3d 967b a7bc
00000360: c6f8 89bc e752 903d 7d93 a13d 06f8 dd3d
00000370: 88e2 acbd a47e 9abd dd94 433d 73d5 db3d
00000380: 670b a83d 65b8 b9bd b292 823c 8c40 b6bd
00000390: d783 3e3d e93a d8bd e3a7 963c ae14 20bc
000003a0: 617d 9d3c 620d d2bd a6a9 c0bd 686f ae3c
000003b0: 1e5e b5bd 7c6d c8bd 52b2 68bc 1c7a a53d
000003c0: 05d2 a63d 1a5c f03c b0bb 34bd 7217 e33d
000003d0: b609 8cbd d942 eb3d 1774 e43d 80a0 253e
000003e0: a4a2 05bd 089c 0c3e defc 98bd 862d 493d
000003f0: 9be9 c6bd 5ff2 0dbd bc4f 2bbd 2601 1d3d

conv.0.bias f4 [32]
0.08387147 -0.08065508 -0.09520484 0.07255985 0.10257105 -0.0052566864 0.017278789 -0.09702497
0.044444017 0.076962724 -0.010569049 -0.052690778 0.035845693 -0.018163603 -0.0288641 0.10278153
-0.060014293 -0.11555344 0.025652543 0.04944383 0.017737735 -0.0038625698 -0.06676625 -0.030820496
-0.050718054 -0.018100793 0.10535473 -0.05337917 -0.014667565 -0.019679938 -0.006719776 0.05038791
00000000: cec4 ab3d 7e2e a5bd c1fa c2bd 429a 943d
00000010: c510 d23d 4840 acbb 3f8c 8d3c 07b5 c6bd
00000020: ee0a 363d a29e 9d3d ce29 2dbc 49d2 57bd
00000030: efd2 123d d6cb 94bc 6874 ecbc 1f7f d23d
00000040: 8cd1 75bd 48a7 ecbd 4825 d23c 9d85 4a3d
00000050: ba4e 913c 2b23 7dbb bebc 88bd 447b fcbc
00000060: bcbd 4fbd 1d48 94bc 38c4 d73d 1ea4 5abd
00000070: 3a50 70bc d237 a1bc 9131 dcbb 8e63 4e3d

conv.1.weight f4 [32]
0.98407894 0.9904272 0.97927177 1.0829823 1.0076745 0.9933841 1.024707 0.9952008
0.97559285 0.9928555 0.9642268 1.0277672 1.0584865 0.9873263 0.97288436 1.0157348
1.102986 0.970411 0.9906945 0.9772737 0.96231204 0.9891903 1.0295955 0.97471905
0.9968474 0.9892026 0.9934151 1.002156 1.0183002 0.9599493 1.0638138 1.0148934
00000000: 99ec 7b3f a38c 7d3f 8eb1 7a3f 2a9f 8a3f
00000010: 7afb 803f 6c4e 7e3f 9929 833f 7bc5 7e3f
00000020: 74c0 793f c72b 7e3f 91d7 763f e08d 833f
00000030: 7c7c 873f 6bc1 7c3f f30e 793f 9903 823f
00000040: a52e 8d3f db6c 783f 289e 7d3f 9c2e 7a3f
00000050: 155a 763f 933b 7d3f c9c9 833f 3087 793f
00000060: 6431 7f3f 623c 7d3f 7450 7e3f a646 803f
00000070: a957 823f 3dbf 753f 0d2b 883f 07e8 813f

conv.1.bias f4 [32]
-0.009046552 -0.011515534 0.0044004396 -0.037453186 0.021497125 0.01503697 -0.0059165168 -0.025504772
-0.023764184 -0.02148989 -0.0033951649 -0.063679926 0.041076116 -0.019024534 0.0005400546 0.04064317
-0.06875145 -0.03347614 0.016736731 -0.01491581 -0.05225154 -0.01677074 -0.028031938 -0.020107886
0.011183232 -0.04750101 0.013715319 -0.011089897 -0.088036 -0.055967744 -0.08354049 -0.0650244
00000000: fd37 14bc a6ab 3cbc 9031 903b 8368 19bd
00000010: bd1a b03c a05d 763c 57df c1bb 62ef d0bc
00000020: 1bad c2bc 910b b0bc 6a81 5ebb 9f6a 82bd
00000030: 6e3f 283d 57d9 9bbc 7392 0d3a 7479 263d
00000040: 8fcd 8cbd 471e 09bd 781b 893c 7161 74bc
00000050: b605 56bd ca62 89bc 3ca3 e5bc 4bb9 a4bc
00000060: e039 373c 6b90 42bd 38b6 603c 66b2 35bc
00000070: 384c b4bd 6f3e 65bd 4717 abbd 832b 85bd

conv.1.running_mean f4 [32]
0.53706056 -0.36302686 0.5522054 0.08427283 0.35438135 0.15443055 -0.1928338 -0.32961786
-0.6365315 0.29918122 -0.09661657 -0.11703696 0.042813245 -0.039926015 0.18505314 -0.050916314
-0.09519684 -0.029544272 0.030967783 0.06848081 -0.39321396 0.19863495 -0.26018703 -0.06921852
-0.15116848 0.16349658 -0.20897792 -0.0626921 -0.101028316 0.082777224 -0.218977 0.0071400087
00000000: cd7c 093f a8de b9be 555d 0d3f 3c97 ac3d
00000010: 7971 b53e 0b23 1e3e 3976 45be acc3 a8be
00000020: baf3 22bf 482e 993e e9de c5bd 13b1 efbd
00000030: f15c 2f3d 7689 23bd 927e 3d3e a08d 50bd
00000040: 90f6 c2bd d406 f2bc 26b0 fd3c ab3f 8c3d
00000050: 5753 c9be f666 4b3e 3c37 85be 70c2 8dbd
00000060: e9cb 1abe a66b 273e 4ffe 55be b764 80bd
00000070: efe7 cebd 1b87 a93d 823b 60be bcf6 e93b

conv.1.running_var f4 [32]
0.058888175 0.025084179 0.11585423 0.026851783 0.023986638 0.0256515 0.032131534 0.017770546
0.15946043 0.051253207 0.029163482 0.016396446 0.008137789 0.00936681 0.025467671 0.026859602
0.02809436 0.009910608 0.019580785 0.01678343 0.05089706 0.017496033 0.025535908 0.0060841297
0.019266877 0.02552899 0.037039813 0.023311479 0.02902873 0.014008728 0.036521338 0.010825946
00000000: ba34 713d 567d cd3c fc44 ed3d 45f8 db3c
00000010: a07f c43c 1823 d23c 5b9c 033d 8993 913c
00000020: 9849 233e e2ee 513d 41e8 ee3c d751 863c
00000030: 5c54 053c 4077 193c 94a1 d03c ab08 dc3c
00000040: 2526 e63c 1a60 223c e267 a03c 677d 893c
00000050: 7079 503d d753 8f3c ae30 d13c 615d c73b
00000060: 92d5 9d3c 2c22 d13c 0fb7 173d b7f7 be3c
00000070: a9cd ed3c dd84 653c 6697 153d 4f5f 313c

conv.4.weight f4 [32, 32, 3, 3]
0.002576856 0.02406145 -0.01766753 -0.032475043 -0.00508619 0.0020906627 0.08055451 -0.048909403
0.06283404 0.008935232 -0.051683903 -0.0074970163 0.011764044 -0.0049412083 -0.020440523 -0.028496915
-0.066817574 -0.01021565 0.019366115 0.029439386 0.001576866 -0.012293757 -0.0024162354 -0.08455483
-0.05465009 0.00028077303 -0.02512265 0.019626807 -0.016982434 -0.04331811 0.06406653 -0.119994216
-0.02828244 0.08892139 -0.056074325 -0.05845709 -0.02032849 0.008783961 0.030702224 0.058848735
0.05511303 -0.10170369 0.015766386 0.010342173 -0.038665146 0.03803279 0.007497214 -0.020970717
-0.0019594913 -0.058921974 0.04241501 -0.015300125 0.034445785 0.017053414 -0.013060585 0.023089737
0.032518398 0.033653375 0.017259045 -0.09279519 -0.011630829 -0.008459771 -0.04171247 -0.01811813
-0.025366848 0.016614398 0.025527824 -0.014285556 -0.0759865 -0.0063939737 0.015534125 0.0033818895
0.0008112388 0.034770582 -0.03583017 -0.027707484 0.074316934 0.01330573 -0.07250004 0.03357412
0.03819634 0.029380612 0.04475904 -0.06346947 -0.012414911 0.045464348 0.02577556 0.001700715
-0.043063562 0.027611826 0.011213089 -0.017566063 0.008287359 -0.010830686 -0.013481357 -0.009323703
0.018348532 0.01680306 0.026220473 0.08148235 -0.026128545 0.031185562 0.019771598 0.15641703
0.04718818 -0.036692984 0.010225704 0.038107984 0.023992665 -0.06140924 0.05390302 -0.026546555
0.01739565 0.026488401 -0.0044648014 -0.022102112 0.028008824 -0.050187554 0.025583744 0.0041054995
0.013914415 -0.012992239 -0.015787227 -0.031437904 -0.0044652415 -0.013771691 -0.029916218 -0.04404068
0.0040010903 0.009067141 0.057436373 0.010759344 0.002873938 -0.020977043 0.013590983 -0.030404782
-0.02311646 -0.066963516 0.0030558116 0.01395401 -0.0152124185 -0.038003296 0.064312585 -0.031681143
0.0015512529 -0.017887816 0.023789642 0.028066147 -0.009869406 0.065686174 0.06415444 0.020828923
-0.017066076 0.03686599 -0.009387933 0.019269962 0.051950064 -0.021378962 0.044235803 -0.07903643
0.021676762 -0.0066500255 -0.04074207 -0.005880898 0.037745178 0.004545986 -0.024070013 0.018065015
0.050189823 0.04354326 0.062374666 0.0100837555 -0.009148622 -0.045309518 -0.057899237 0.023447102
0.029387152 -0.05172756 -0.04213845 0.031327967 -0.01983544 0.03067401 -0.014865358 0.049903803
0.018796213 0.014668701 -0.0028041652 0.0254452 -0.039629273 0.011559072 -0.0706385 -0.029680222
-0.008323807 0.036707006 0.0060980734 0.005694252 0.019757008 -0.011914237 -0.00095642434 -0.032115433
0.006591429 -0.05833136 -0.03723117 -0.07918445 0.025818018 0.039889846 0.039340425 0.050154403
0.03561048 -0.015173985 -0.020846242 -0.014176012 0.057428308 -0.008848093 -0.017559826 0.047772292
0.0036508467 0.06441962 0.021519398 -0.043449465 -0.0027602804 -0.007813747 -0.023583157 -0.07884522
0.027949242 -0.057295177 -0.008851192 0.04791042 0.020189729 0.039060432 -0.011863937 -0.011849966
-0.040065333 -0.06819538 0.008409885 0.013317322 -0.024365842 -0.03389699 0.006683217 -0.042580243
0.087197766 -0.0105814645 -0.0018044473 0.017894382 0.05962794 -0.0024027077 -0.09721865 0.062104654
0.05921675 0.040292863 0.03194545 -0.04350831 -0.03495466 -0.003874001 0.0059772874 -0.044234823
00000000: 78e0 283b 851c c53c 7fbb 90bc 8d04 05bd
00000010: 0eaa a6bb 8003 093b c3f9 a43d 3a55 48bd
00000020: 22af 803d 1465 123c 80b2 53bd 88a9 f5bb
00000030: fabd 403c dce9 a1bb e272 a7bc 5d72 e9bc
00000040: a7d7 88bd 8b5f 27bc b0a5 9e3c de2a f13c
00000050: d8ae ce3a c16b 49bc b459 1ebb 152b adbd
00000060: c6d8 5fbd b834 9339 04ce cdbc 66c8 a03c
00000070: bf1e 8bbc 556e 31bd 5035 833d 87bf f5bd
00000080: 93b0 e7bc 6b1c b63d 31ae 65bd b470 6fbd
00000090: ef87 a6bc 9aea 0f3c 3b83 fb3c 5f0b 713d
000000a0: 33be 613d 064a d0bd 8228 813c 3872 293c
000000b0: 585f 1ebd 45c8 1b3d 30ab f53b c8ca abbc
000000c0: cf6a 00bb 2b58 71bd 5dbb 2d3d 60ad 7abc
000000d0: 0617 0d3d 9ab3 8b3c 10fc 55bc b026 bd3c
000000e0: 0332 053d 1fd8 093d d762 8d3c 680b bebd
000000f0: 3c8f 3ebc da9a 0abc b2da 2abd 796c 94bc
00000100: 23ce cfbc eb1a 883c ba1f d13c f70d 6abc
00000110: cf9e 9bbd 8a84 d1bb d882 7e3c b1a2 5d3b
00000120: 50a9 543a 996b 0e3d a8c2 12bd cefa e2bc
00000130: 7a33 983d 4700 5a3c e77a 94bd 0485 093d
00000140: c473 1c3d 9caf f03c 4155 373d 48fc 81bd
00000150: e967 4bbc d338 3a3d 4427 d33c 87ea de3a
00000160: 6b63 30bd 3232 e23c 1bb7 373c b4e6 8fbc
00000170: b4c7 073c 3173 31bc e9e0 5cbc 72c2 18bc
00000180: a94f 963c 92a6 893c 51cc d63c 38e0 a63d
00000190: 880b d6bc dd78 ff3c 0cf8 a13c c92b 203e
000001a0: 6548 413d 624b 16bd b689 273c 1e17 1c3d
000001b0: 448c c43c 4188 7bbd 6ac9 5c3d 2978 d9bc
000001c0: 5281 8e3c 34fe d83c 784d 92bb 7d0f b5bc
000001d0: c372 e53c 7791 4dbd 0095 d13c 6d87 863b
000001e0: 49f9 633c 66dd 54bc 3754 81bc 08c5 00bd
000001f0: 2951 92bb a9a2 61bc db12 f5bc 0064 34bd
00000200: 941b 833b 598e 143c 6742 6b3d f647 303c
00000210: ae58 3c3b 0cd8 abbc b7ac 5e3c 7313 f9bc
00000220: bb5e bdbc 2b24 89bd 0344 483b 5c9f 643c
00000230: 823d 79bc 58a9 1bbd 51b6 833d 16c4 01bd
00000240: 6953 cb3a 7889 92bc 7fe2 c23c faea e53c
00000250: 4ab3 21bc 7986 863d 6763 833d 6ba1 aa3c
00000260: 28ce 8bbc cb00 173d d8cf 19bc 0adc 9d3c
00000270: 97c9 543d ef22 afbc 9a30 353d dadd a1bd
00000280: 7793 b13c 75e8 d9bb 28e1 26bd 8cb4 c0bb
00000290: b09a 1a3d 7ff6 943b 7a2e c5bc 15fd 933c
000002a0: d893 4d3d 6b5a 323d 947c 7f3d 5636 253c
000002b0: 1ae4 15bc 7996 39bd c027 6dbd 2314 c03c
000002c0: 53bd f03c 47e0 53bd 5e99 2cbd c151 003d
000002d0: ef7d a2bc 1048 fb3c d58d 73bc ee67 4c3d
000002e0: 84fa 993c fe54 703c 16c6 37bb 7472 d03c
000002f0: 4e52 22bd 4362 3d3c ebaa 90bd f023 f3bc
00000300: 9460 08bc 165a 163d 59d2 c73b d996 ba3b
00000310: 73d9 a13c ef33 43bc 8db8 7aba 798b 03bd
00000320: eafc d73b ddec 6ebd b67f 18bd 752b a2bd
00000330: 4f80 d33c 8963 233d 6d23 213d b46e 4d3d
00000340: 4bdc 113d 4e9c 78bc bdc5 aabc 8142 68bc
00000350: f239 6b3d 98f7 10bc a0d9 8fbc e1ac 433d
00000360: 0b43 6f3b 6fee 833d 7349 b03c 11f8 31bd
00000370: d2e5 34bb 3b05 00bc 7731 c1bc 9a79 a1bd
00000380: cff5 e43c 59ae 6abd 9704 11bc b73d 443d
00000390: ee64 a53c d5fd 1f3d f560 42bc 5c26 42bc
000003a0: 8c1b 24bd 05aa 8bbd 9dc9 093c e630 5a3c
000003b0: e09a c7bc 92d7 0abd e3fe da3b 9f68 2ebd
000003c0: be94 b23d e15d 2dbc 3483 ecba 3d97 923c
000003d0: 6d3c 743d bf76 1dbb 921a c7bd 7361 7e3d
000003e0: 438d 723d 210a 253d 3bd9 023d c535 32bd
000003f0: 9e2c 0fbd f4e2 7dbb 1fdd c33b 932f 35bd

conv.4.bias f4 [32]
0.009266848 0.02797782 0.024661327 0.013692719 -0.062212117 -0.018498033 -0.041709837 -0.05599878
0.016946906 0.045489497 -0.02221452 0.05590956 -0.054610968 0.03108131 -0.058322713 0.03225279
-0.06141986 0.010516716 -0.04497285 0.0665734 -0.026028175 -0.013282561 -0.05054516 -0.033859637
-0.04806943 -0.024132414 0.020594543 0.005493432 -0.0024187686 -0.012347764 -0.0011826428 -0.06470111
00000000: fad3 173c be31 e53c 8d06 ca3c 6d57 603c
00000010: 22d2 7ebd 3089 97bc efd7 2abd fa5e 65bd
00000020: 3dd4 8a3c 3253 3a3d 3afb b5bc 6c01 653d
00000030: c0af 5fbd 3b9e fe3c cce3 6ebd 801b 043d
00000040: 6493 7bbd 4e4e 2c3c 7335 38bd a257 883d
00000050: 0a39 d5bc 199f 59bc 7108 4fbd 67b0 0abd
00000060: 73e4 44bd 57b1 c5bc e3b5 a83c 3f02 b43b
00000070: 3484 1ebb 474e 4abc e802 9bba 0482 84bd

conv.5.weight f4 [32]
1.1226584 1.1011997 1.0986682 1.0997096 1.122491 1.0878066 1.0968597 1.1169753
1.1283525 1.1016636 1.100495 1.1091939 1.1200176 1.100888 1.1097584 1.1102967
1.1046171 1.1052665 1.1168146 1.104233 1.116835 1.1082964 1.1124072 1.0910809
1.0946994 1.1103418 1.112616 1.0954443 1.088712 1.1206111 1.0921931 1.0963366
00000000: 45b3 8f3f 1df4 8c3f 29a1 8c3f 49c3 8c3f
00000010: c9ad 8f3f 3f3d 8b3f e665 8c3f 0cf9 8e3f
00000020: db6d 903f 5003 8d3f 05dd 8c3f 11fa 8d3f
00000030: bd5c 8f3f e6e9 8c3f 900c 8e3f 341e 8e3f
00000040: 1864 8d3f 5f79 8d3f c8f3 8e3f 8257 8d3f
00000050: 73f4 8e3f a8dc 8d3f 5c63 8e3f 8aa8 8b3f
00000060: 1c1f 8c3f ae1f 8e3f 336a 8e3f 8537 8c3f
00000070: ea5a 8b3f 2f70 8f3f fccc 8b3f c254 8c3f

conv.5.bias f4 [32]
0.07620058 0.08557361 0.076764055 0.08381573 0.08773194 0.07201544 0.08180097 0.09505228
0.09251822 0.08065933 0.0893466 0.084773265 0.0951028 0.08527776 0.08897186 0.09461055
0.082240775 0.09006084 0.099243835 0.08979754 0.08542476 0.08805312 0.0938552 0.08022957
0.07426493 0.07415086 0.08460437 0.080935806 0.07758876 0.09206833 0.08890465 0.06852986
00000000: 0d0f 9c3d 3841 af3d 7936 9d3d 95a7 ab3d
00000010: ceac b33d d57c 933d 4487 a73d c5aa c23d
00000020: 317a bd3d b830 a53d 5afb b63d 9b9d ad3d
00000030: 42c5 c23d 1ba6 ae3d e136 b63d 2dc3 c13d
00000040: da6d a83d d171 b83d 5a40 cb3d c6e7 b73d
00000050: 2df3 ae3d 3255 b43d 2837 c03d 674f a43d
00000060: 3618 983d 68dc 973d 0e45 ad3d acc1 a53d
00000070: dbe6 9e3d 528e bc3d a413 b63d 6259 8c3d

conv.5.running_mean f4 [32]
0.11430664 -0.09209393 0.09458834 -0.15692843 0.08369104 -0.016878957 -0.06798425 -0.1913533
-0.24435991 0.02968928 -0.1251377 -0.1327701 0.03881476 0.058305643 -0.5320976 0.481224
-0.006819325 -0.137317 -0.3032216 0.09931479 0.045318067 -0.30967546 -0.52708554 0.08845562
0.09229945 0.012632279 -0.13475704 -0.23817012 0.11623633 -0.21436536 0.05223992 0.37172586
00000000: 9a19 ea3d be9b bcbd 88b7 c13d d9b1 20be
00000010: 3566 ab3d bd45 8abc 543b 8bbd 1ff2 43be
00000020: 7c39 7abe ef36 f33c 1924 00be e3f4 07be
00000030: 3afc 1e3d e6d1 6e3d 8c37 08bf fe62 f63e
00000040: a574 dfbb d49c 0cbe dd3f 9bbe 8d65 cb3d
00000050: 709f 393d c88d 9ebe 14ef 06bf 3828 b53d
00000060: 7e07 bd3d 9ef7 4e3c c0fd 09be dee2 73be
00000070: 500d ee3d 9882 5bbe 87f9 553d da52 be3e

conv.5.running_var f4 [32]
0.010105318 0.020315161 0.020020701 0.02059658 0.012880063 0.02767225 0.03945811 0.018719153
0.014580542 0.017044118 0.018606614 0.028829603 0.00968883 0.0241584 0.020955814 0.028558569
0.014460231 0.026911074 0.017114025 0.020350335 0.0064505106 0.022784827 0.027070671 0.034263376
0.034881722 0.017427871 0.02518792 0.0338161 0.018049175 0.016399633 0.026712023 0.025297342
00000000: c790 253c fb6b a63c 7402 a43c 29ba a83c
00000010: e606 533c eab0 e23c d49e 213d e958 993c
00000020: 3ae3 6e3c 1ba0 8b3c e66c 983c 0f2c ec3c
00000030: e6bd 1e3c d6e7 c53c 87ab ab3c a9f3 e93c
00000040: 9bea 6c3c 9d74 dc3c b632 8c3c bfb5 a63c
00000050: ce5e d33b 3fa7 ba3c 50c3 dd3c c157 0c3d
00000060: 23e0 0e3d e5c4 8e3c e656 ce3c c082 0a3d
00000070: dddb 933c 8658 863c 2cd3 da3c 5f3c cf3c

fc.0.weight f4 [344, 128]
0.0269004 0.09161808 0.056947805 0.10503407 0.09164751 0.037070513 0.038269393 0.104491755
0.06923528 0.03278278 0.09714041 0.06615193 0.03758462 -0.038226362 -0.008098161 0.023958858
0.054227844 0.023432186 -0.08757959 0.08839026 -0.07074395 -0.04674276 0.098553 -0.018792108
-0.08560891 -0.11663156 0.04724241 -0.079354644 0.0987169 0.06716026 -0.054487355 -0.0983725
-0.10393235 -0.02105388 -0.01775984 -0.0036476038 0.103740655 0.017013643 0.016104277 0.043459482
0.0038420453 0.0604719 0.054737307 -0.019130683 -0.04139547 0.076516815 0.0012881472 -0.014598643
0.06630681 0.044437587 -0.104598895 -0.014774006 0.043925278 -0.018149432 -0.008483254 -0.020582443
-0.012831611 -0.08693455 0.0092363795 0.031336423 0.09360856 0.10021318 -0.058909208 0.124154754
0.09695451 0.033082195 -0.054890644 0.03651948 0.090542756 0.09578545 0.082299255 0.05338696
-0.03786223 -0.081391454 -0.063022986 -0.071576126 -0.046271376 0.17436717 -0.016346006 0.04711064
-0.019464495 0.036648452 0.0468876 0.06307801 -0.06457515 0.014399738 0.05810394 0.07589773
0.0061058374 -0.048652954 0.064400814 -0.05093698 0.06465526 0.014661333 0.038345434 -0.050799564
-0.07189341 0.02245407 0.0744399 0.038131204 -0.0039429977 0.10489363 0.1016955 0.010249231
0.06948982 -0.0038102346 -0.076517664 -0.08507713 0.02501411 0.09104928 -0.028030388 -0.0016971525
0.08716519 -0.016690519 0.04175987 -0.06846324 -0.13600989 -0.13270521 0.079354085 0.014500582
-0.069276534 -0.09744511 0.09801594 0.10524869 0.08824664 -0.018069912 0.09395555 0.092394106
0.15897883 0.11684263 0.124688685 0.039890986 0.05753585 0.019965513 0.049049318 -0.049435135
0.08051527 -0.050861746 0.13292941 -0.02738067 -0.0047095115 -0.09751025 0.055727273 0.09903374
-0.038373407 -0.077034846 -0.021326754 -0.06401578 0.0091086095 -0.0049172943 0.018022036 -0.10513996
0.14463586 0.084916055 0.06749134 0.11839164 -0.032402586 0.0067461473 0.0923379 0.09319318
-0.012924547 0.05852161 0.09464214 0.12371771 -0.06144785 0.103255205 0.035164658 0.039110225
-0.15238263 -0.0024072016 -0.04825959 -0.036293633 0.01466918 0.11020694 0.01891762 -0.089851834
0.0106163025 -0.0288893 -0.012624411 -0.012753871 -0.10555311 0.10877882 0.063697174 -0.019594517
0.024757888 0.033446047 0.13325067 0.04782095 0.090746544 -0.051140036 0.051311303 -0.06401469
-0.16190337 -0.11764304 -0.06305426 0.013326327 0.06636201 0.16323498 0.09608957 0.11318358
0.11625077 -0.018363375 -0.082008444 -0.09292603 -0.07639011 -0.029209951 -0.075116165 0.07951754
-0.04712124 0.09763948 0.085953765 0.027761413 0.005763444 0.10288696 0.11642542 -0.12861486
0.15090202 -0.009949886 0.025702974 0.06561728 0.06840402 -0.12686832 0.052357975 0.03680631
-0.14504947 -0.08972872 0.08185756 -0.0691877 -0.05294075 0.069893 0.07736317 0.1667105
0.034593914 0.028227724 0.0064394525 -0.014723177 -0.017263856 -0.026227968 0.053206474 -0.060684875
0.14455195 0.007150495 0.10839653 0.028347153 -0.037477255 0.14078374 0.12611797 0.107374825
-0.081134684 -0.0098709455 0.07310016 -0.054387357 -0.06354218 0.022732638 -0.053236496 0.018210951
00000000: 3a5e dc3c 43a2 bb3d 1a42 693d 1a1c d73d
00000010: b1b1 bb3d 40d7 173d 5ec0 1c3d c6ff d53d
00000020: 3acb 8d3d 3c47 063d 8df1 c63d aa7a 873d
00000030: 55f2 193d 3f93 1cbd 26ae 04bc 5e45 c43c
00000040: 041e 5e3d dbf4 bf3c ee5c b3bd f405 b53d
00000050: 34e2 90bd 5675 3fbd 28d6 c93d e8f1 99bc
00000060: b953 afbd 87dc eebd 4281 413d b084 a2bd
00000070: 162c ca3d 528b 893d 222e 5fbd 8577 c9bd
00000080: 7cda d4bd 3079 acbc 157d 91bc a30c 6fbb
00000090: fb75 d43d 3260 8b3c 1eed 833c 9202 323d
000000a0: d3ca 7b3b 62b1 773d 3a34 603d f3b7 9cbc
000000b0: 4c8e 29bd d9b4 9c3d 0cd7 a83a 262f 6fbc
000000c0: ddcb 873d 3004 363d f237 d6bd ac0e 72bc
000000d0: feea 333d 1eae 94bc 59fd 0abc 839c a8bc
000000e0: ad3b 52bc be0a b2bd 2f54 173c 9f5a 003d
000000f0: d8b5 bf3d 913c cd3d c84a 71bd d944 fe3d
00000100: 1690 c63d 3281 073d 03d5 60bd 7395 153d
00000110: 7b6e b93d 292b c43d 838c a83d 49ac 5a3d
00000120: 6d15 1bbd 90b0 a6bd 3212 81bd 8196 92bd
00000130: 0e87 3dbd 4f8d 323e 0fe8 85bc 16f7 403d
00000140: 0174 9fbc b01c 163d 360d 403d 0b2f 813d
00000150: fa3f 84bd e1ec 6b3c 66fe 6d3d 4570 9b3d
00000160: 7a13 c83b 5248 47bd 93e4 833d 4ba3 50bd
00000170: fa69 843d 1636 703c 1a10 1d3d 3413 50bd
00000180: da3c 93bd 99f1 b73c f273 983d 772f 1c3d
00000190: 4334 81bb 79d2 d63d bb45 d03d 64ec 273c
000001a0: ae50 8e3d 21b5 79bb 4bb5 9cbd eb3c aebd
000001b0: 64ea cc3c 0b78 ba3d fc9f e5bc fd72 deba
000001c0: aa83 b23d 8eba 88bc 660c 2b3d 7536 8cbd
000001d0: 2d46 0bbe e0e3 07be 6584 a23d d993 6d3c
000001e0: dbe0 8dbd 4d91 c7bd 95bc c83d a08c d73d
000001f0: a8ba b43d 5a07 94bc c46b c03d 1f39 bd3d
00000200: 59cb 223e 304b ef3d c85c ff3d bb64 233d
00000210: b6aa 6b3d b78e a33c f0e7 483d 7f7c 4abd
00000220: 31e5 a43d 6854 50bd a61e 083e 6d4d e0bc
00000230: 3f52 9abb 74b3 c7bd 4842 643d 34d2 ca3d
00000240: 6f2d 1dbd 72c4 9dbd 72b5 aebc b51a 83bd
00000250: 473c 153c 4121 a1bb f3a2 933c 9f53 d7bd
00000260: 6c1b 143e 78e8 ad3d e638 8a3d 5177 f23d
00000270: 93b8 04bd c90e dd3b a71b bd3d 11dc be3d
00000280: 7bc1 53bc 5bb4 6f3d bdd3 c13d b65f fd3d
00000290: beb0 7bbd 7777 d33d d108 103d 0b32 203d
000002a0: 310a 1cbe 24c2 1dbb d9ab 45bd a2a8 14bd
000002b0: 0057 703c 2db4 e13d 20f9 9a3c 3d04 b8bd
000002c0: 00f0 2d3c 41a9 ecbc 9ed6 4ebc 9df5 50bc
000002d0: 3b2c d8bd 6ec7 de3d aa73 823d ae84 a0bc
000002e0: 0ed1 ca3c b9fe 083d dd72 083e e7df 433d
000002f0: 53d9 b93d 3778 51bd cd2b 523d 221a 83bd
00000300: ffc9 25be d6ee f0bd 9822 81bd ab56 5a3c
00000310: cee8 873d 1227 273e 9cca c43d cbcc e73d
00000320: e214 ee3d ca6e 96bc 0bf4 a7bd 0150 bebd
00000330: 6b72 9cbd b549 efbc 81d6 99bd 18da a23d
00000340: 3402 41bd 35f7 c73d 8708 b03d e76b e33c
00000350: 46db bc3b 66b6 d23d 7370 ee3d 9db3 03be
00000360: 0f86 1a3e d904 23bc 0b8f d23c 5a62 863d
00000370: 6817 8c3d c5e9 01be 5175 563d 37c2 163d
00000380: d987 14be b1c3 b7bd f0a4 a73d 48b2 8dbd
00000390: 66d8 58bd 1024 8f3d 9570 9e3d 28b6 2a3e
000003a0: 59b2 0d3d d43d e73c 0b02 d33b 7b39 71bc
000003b0: ee6c 8dbc 09dc d6bc 08ef 593d b490 78bd
000003c0: 6d05 143e b34e ea3b 00ff dd3d 4a38 e83c
000003d0: c081 19bd 9d29 103e 1225 013e 55e7 db3d
000003e0: f129 a6bd bfb9 21bc 89b5 953d 47c5 5ebd
000003f0: 6722 82bd cc39 ba3c 830e 5abd 222f 953c

fc.0.bias f4 [344]
0.03857774 0.06337771 0.07460095 0.001600872 0.06327477 -0.043995466 0.046600763 0.033921838
-0.021163106 -0.058587633 0.07138667 0.02968956 0.024432791 0.04396461 -0.02217831 0.085093394
0.1030927 0.059472203 0.14008969 -0.022058453 -0.02674257 -0.0030871448 -0.041700937 0.061110903
0.016832832 -0.03589958 0.062602274 0.057363544 -0.024181293 -0.028322121 0.050027993 0.03814022
0.10053993 -0.027550992 0.011105806 0.01942162 0.07928752 0.022552263 0.021924768 0.10375897
-0.054953743 0.019228699 0.034581423 0.09802503 0.070094354 -0.0040509924 0.01647954 0.14537564
0.06177919 0.033275884 -0.023833917 -0.037057873 -0.042211447 0.04494988 0.089816056 0.07598395
-0.013024318 0.0035589584 0.032336105 -0.033992764 -0.06447435 0.007846652 0.013096043 -0.00044013342
-0.052401863 0.1238036 0.078701474 0.015214913 0.11285936 -0.013703045 0.021028599 0.09407614
0.14464964 0.09667157 0.100194156 0.010024887 -0.0116004655 -0.0264187 -0.021279242 0.15054333
-0.02666131 -2.2471651e-05 0.014246336 -0.079656556 0.003079731 0.0781877 -0.016960023 0.069891594
-0.024294486 -0.07765361 0.07749885 -0.014833155 0.08982986 0.024901519 -0.03190048 -0.05209904
0.06640952 0.10655586 0.0090529015 0.08850577 0.088377975 0.07352264 0.08902982 -0.027340861
-0.06620029 0.04927964 0.04778652 -0.03688948 -0.036319442 0.08237916 -0.010082792 0.010816471
0.08921938 0.024731558 0.031841356 0.073075265 0.053804602 -0.0022798392 -0.005519384 0.038810045
0.031377625 -0.010302865 0.09823469 0.051310845 0.04775316 0.069095165 -0.026250945 0.029924799
-0.031848926 0.048285943 0.044853114 0.036321662 -0.036843006 0.063890696 0.009624705 0.048373267
0.039632987 -0.008381424 0.04145909 0.0933895 0.08687502 -0.069562055 0.016635854 0.088119954
0.12487219 0.0048406967 0.050567638 0.0038027784 0.11621959 0.079487585 0.0630559 -0.024034396
-0.05400772 -0.04212816 -0.029290052 -0.035877034 0.014349701 0.041390166 0.047080103 0.0030164865
0.012474666 -0.004479984 -0.037410945 0.09237886 -0.009743662 0.009932742 -0.04871298 -0.0040055374
0.021421647 -0.0015055292 0.08447835 -0.05751219 0.10805958 -0.0050465176 -0.002919899 -0.06799774
0.06131671 0.038814656 0.10294906 -0.030561633 0.029163573 0.023346158 -0.024117086 0.04130552
0.0028575123 0.04427274 0.042490702 0.0985238 0.024980636 0.09723988 0.0667362 0.027000038
0.060861178 0.09149474 -0.024593612 0.08078436 0.046681635 0.022181034 0.07661023 -0.005854116
0.031007985 -0.069541655 0.01605726 0.115322135 -0.035759233 0.01984355 0.09743485 0.08296428
0.091139354 -0.028910728 -0.004377946 0.026687413 0.011213555 -0.02971797 -0.006573114 -0.009557367
0.04528826 -0.036227584 0.014522714 0.12093913 0.08500397 0.041701205 0.06882242 0.039725695
0.041087627 -0.008041786 0.07568875 0.10216865 0.029314045 0.12172715 -0.011629344 0.04413137
-0.019936502 -0.029771581 0.02871329 0.01985205 0.042078987 0.022366444 0.023732599 0.09566502
0.047642082 0.07154461 0.100986294 0.046108764 -0.030873075 0.08271178 -0.016352035 0.0012173178
-0.066149615 0.101467825 -0.073783115 -0.0033962887 -0.07456933 0.008760783 0.12884606 0.12158328
00000000: b103 1e3d 2ccc 813d 62c8 983d 5ad4 d13a
00000010: 3496 813d 9734 34bd 71e0 3e3d a0f1 0a3d
00000020: 405e adbc 96f9 6fbd 2d33 923d 8537 f33c
00000030: 4727 c83c 3c14 343d 4aaf b5bc 7245 ae3d
00000040: 4422 d33d 2099 733d ac73 0f3e eeb3 b4bc
00000050: 3c13 dbbc b251 4abb 9ace 2abd 6d4f 7a3d
00000060: 02e5 893c 700b 13bd 9f35 803d 09f6 6a3d
00000070: d917 c6bc cb03 e8bc 27ea 4c3d eb38 1c3d
00000080: e1e7 cd3d 9eb2 e1bc 20f5 353c 171a 9f3c
00000090: 7f61 a23d 86bf b83c 929b b33c 957f d43d
000000a0: 2d17 61bd 8185 9d3c 40a5 0d3d 59c1 c83d
000000b0: a18d 8f3d 30be 84bb 1a00 873c 5add 143e
000000c0: 2d0c 7d3d 4b4c 083d 593f c3bc ffc9 17bd
000000d0: e9e5 2cbd 5e1d 383d 7bf1 b73d 799d 9b3d
000000e0: f363 55bc 6a3d 693b dd72 043d ff3b 0bbd
000000f0: 210b 84bd 3e8f 003c c990 563c b5c1 e6b9
00000100: 56a3 56bd be8c fd3d 3d2e a13d f847 793c
00000110: cf22 e73d bd82 60bc 2b44 ac3c feaa c03d
00000120: 091f 143e befb c53d 9832 cd3d 6c3f 243c
00000130: e10f 3ebc 086c d8bc ce51 aebc 0828 1a3e
00000140: d268 dabc 8181 bcb7 7769 693c fa22 a3bd
00000150: 50d5 493b df20 a03d bfef 8abc 5323 8f3d
00000160: 3b05 c7bc db08 9fbd b8b7 9e3d c306 73bc
00000170: b8f8 b73d 45fe cb3c 14aa 02bd ce65 55bd
00000180: b701 883d f539 da3d 9f52 143c 8342 b53d
00000190: 83ff b43d 0a93 963d 4455 b63d f1f9 dfbc
000001a0: 0594 87bd 73d9 493d ccbb 433d 6c19 17bd
000001b0: b2c3 14bd 68b6 a83d 4b32 25bc 9137 313c
000001c0: a6b8 b63d d699 ca3c 156c 023d 7ca8 953d
000001d0: 3762 5c3d 5b69 15bb f3db b4bb 48f7 1e3d
000001e0: d385 003d 59cd 28bc 452f c93d 522b 523d
000001f0: d198 433d c481 8d3d 390c d7bc da24 f53c
00000200: 0574 02bd 7bc7 453d e6b7 373d 06c6 143d
00000210: b1e8 16bd 20d9 823d f0b0 1d3c 0c23 463d
00000220: 3356 223d 3d52 09bc 02d1 293d ff42 bf3d
00000230: 88eb b13d 8d76 8ebd ea47 883c 3c78 b43d
00000240: febc ff3d b59e 9e3b 0320 4f3d 0938 793b
00000250: 8904 ee3d 63ca a23d 7423 813d c8e3 c4bc
00000260: 3337 5dbd 948e 2cbd b1f1 efbc ccf3 12bd
00000270: 021b 6b3c bc88 293d 11d7 403d 3fb0 453b
00000280: 8b62 4c3c d4cc 92bb 383c 19bd 2131 bd3d
00000290: e1a3 1fbc f1bc 223c 4387 47bd e240 83bb
000002a0: 737c af3c 2d55 c5ba fc02 ad3d e791 6bbd
000002b0: 574e dd3d 425d a5bb c75b 3fbb 6642 8bbd
000002c0: 3b27 7b3d 1efc 1e3d f5d6 d23d 645c fabc
000002d0: 72e8 ee3c 7140 bf3c 3291 c5bc fa2f 293d
000002e0: 1a45 3b3b 5557 353d bb0a 2e3d d9c6 c93d
000002f0: 31a4 cc3c b425 c73d fdac 883d 2f2f dd3c
00000300: 9249 793d 9861 bb3d 8b78 c9bc 4572 a53d
00000310: 3e35 3f3d 00b5 b53c d3e5 9c3d e2d3 bfbb
00000320: 7504 fe3c db6b 8ebd 848a 833c 032e ec3d
00000330: 4678 12bd f18e a23c ec8b c73d 2de9 a93d
00000340: 45a7 ba3d 31d6 ecbc df74 8fbb 909f da3c
00000350: 0fb9 373c 1a73 f3bc 4763 d7bb 8196 1cbc
00000360: 2f80 393d 6063 14bd adf0 6d3c efae f73d
00000370: 9016 ae3d e2ce 2a3d c5f2 8c3d 69b7 223d
00000380: 804b 283d b2c1 03bc b402 9b3d cc3d d13d
00000390: 0224 f03c 164c f93d 0189 3ebc 18c3 343d
000003a0: e051 a3bc 88e3 f3bc 2238 eb3c c4a0 a23c
000003b0: 045b 2c3d d539 b73c de6a c23c 06ec c33d
000003c0: 5824 433d fb85 923d e7d1 ce3d 8bdc 3c3d
000003d0: 88e9 fcbc cb64 a93d b4f4 85bc 688e 9f3a
000003e0: 7379 87bd 5dce cf3d 9a1b 97bd 4594 5ebb
000003f0: ceb7 98bd 6389 0f3c 39f0 033e a800 f93d

fc.2.weight f4 [172, 344]
0.051437445 -0.11224858 0.020790944 -0.10015891 0.08405111 0.08238467 -0.038420543 0.003764397
-0.025907433 0.03544957 0.007357313 -0.055003606 0.0146189695 0.0863285 -0.021537462 -0.031104472
0.057718482 -0.010290107 -0.028811555 0.044107705 0.011309593 0.052098926 0.017044188 -0.014315068
-0.048657935 0.047942568 -0.04111448 -0.048140243 -0.055160783 -0.04859921 0.008321409 -0.09645992
0.032423988 0.06937446 -0.099429205 -0.08393864 -0.11080427 -0.029346967 -0.0696453 0.0068168934
-0.013016492 -0.013478124 -0.02099723 -0.057769574 -0.028898943 0.10930269 -0.01577874 0.05793329
-0.059433654 -0.039741024 -0.06363314 0.03184395 -0.007478014 0.043245938 -0.102978185 0.04500734
-0.04598731 -0.07948001 0.0083266795 -0.07183888 0.0012198557 0.041066233 -0.09406805 -0.10122298
0.09807059 -0.013700718 -0.018866297 -0.08985696 -0.085400105 -0.024427067 -0.07903537 -0.120343626
-0.13912822 -0.01726882 -0.022073947 0.019036084 0.02983921 -0.012950746 0.048556674 0.028231088
0.02339643 0.028688932 -0.0068548713 0.004685655 0.029668085 -0.07609492 -0.102866255 -0.024311831
0.051072605 -0.0565192 -0.02807304 0.005002479 0.010868443 -0.037815265 0.08588473 -0.032851912
-0.041353058 0.061934702 -0.106574446 -0.016777841 -0.06380274 -0.11912616 0.03753272 -0.02482493
-0.042640958 -0.067487136 0.035834633 -0.03313184 -0.102153 0.020455515 0.10094953 0.051055327
0.01031961 0.07107051 0.10713994 0.12049031 -0.089259125 -0.080946565 0.039922822 0.08305608
0.039114833 0.014529973 -0.05873078 -0.0039357105 -0.017016437 0.0006733325 0.06928901 -0.14313991
-0.022516608 -0.14636028 0.06288922 -0.045633864 -0.12012005 -0.09704433 0.002035895 -0.04407174
0.0046236617 -0.004855977 0.046498243 0.049647927 -0.07093033 -0.034529522 -0.12165941 -0.023226893
0.051597532 -0.08936539 -0.06535892 0.04656431 0.058788132 0.09863883 -0.06823329 -0.008049087
-0.09939383 0.015919795 0.15383375 -0.09183987 -0.06332205 0.04325389 -0.123014286 0.01243127
-0.06140235 -0.043664765 -0.051890768 -0.06595704 -0.028695555 -0.04761634 0.06736121 0.07100924
0.046255216 0.100804724 0.042685527 -0.05255827 0.05824193 0.07215821 0.003404572 -0.045499902
-0.025979578 -0.113571666 0.06681697 -0.036177516 -0.0059818155 0.07662314 -0.067858435 -0.08121317
-0.054562908 -0.023261588 -0.07726587 0.13942432 -0.12886374 0.073784254 -0.06518739 0.0854982
0.07941299 -0.10072452 -0.043953724 -0.046915222 0.0027193644 0.008807164 -0.03959556 0.08474992
-0.09459961 -0.04640172 -0.071445405 -0.11228864 0.07431211 -0.033991348 0.037151556 0.03684016
-0.106533505 0.032233924 0.009797847 -0.10521598 0.03449485 -0.104386635 -0.0012648263 0.0021070533
-0.006053592 0.061516784 -0.11565928 -0.07762144 0.02966625 0.011740531 0.062143005 -0.10692622
0.052949186 -0.019907748 0.0060419883 0.0064141024 -0.042741675 0.030155763 0.0034766947 0.013379396
0.05051465 0.0632944 0.1146379 0.084824614 -0.058897454 -0.00684602 0.025504885 0.042561267
-0.019622412 0.098247044 -0.038147442 -0.038017817 -0.10359852 -0.079398766 0.012561034 0.075846545
0.10082933 -0.065156505 0.010455391 0.11166111 0.010345498 -0.13325512 -0.028359583 -0.11708835
00000000: 12b0 523d 95e2 e5bd c551 aa3c 1d20 cdbd
00000010: fd22 ac3d 4bb9 a83d dc5e 1dbd 1ab4 763b
00000020: d33b d4bc 9133 113d 9d15 f13b 764b 61bd
00000030: 6784 6f3c ffcc b03d 556f b0bc cece febc
00000040: 376a 6c3d d697 28bc 3606 ecbc 48aa 343d
00000050: df4b 393c af65 553d 41a0 8b3c bf89 6abc
00000060: 8b4d 47bd 6d5f 443d a867 28bd b42e 45bd
00000070: 46f0 61bd f70f 47bd 8556 083c c78c c5bd
00000080: 04cf 043d 3214 8e3d 8aa1 cbbd 06e8 abbd
00000090: 59ed e2bd 0d69 f0bc 32a2 8ebd 3f60 df3b
000000a0: 2043 55bc 59d3 5cbc 6202 acbc ca9f 6cbd
000000b0: 7abd ecbc 17da df3d 6b42 81bc 754b 6d3d
000000c0: b470 73bd 7cc7 22bd 1752 82bd cd6e 023d
000000d0: 210a f5bb a722 313d 3ae6 d2bd 9e59 383d
000000e0: 315d 3cbd 6ac6 a2bd a06c 083c 4320 93bd
000000f0: 91e3 9f3a 1135 283d c0a6 c0bd fe4d cfbd
00000100: 3cd9 c83d fa78 60bc 7e8d 9abc ed06 b8bd
00000110: 40e6 aebd 461b c8bc 4cdd a1bd b876 f6bd
00000120: a177 0ebe 5777 8dbc 6cd4 b4bc 90f1 9b3c
00000130: 5c71 f43c 5e2f 54bc 5de3 463d e244 e73c
00000140: dfa9 bf3c 0d05 eb3c d49e e0bb 1f8a 993b
00000150: 7c0a f33c a7d7 9bbd 8bab d2bd 9b29 c7bc
00000160: 8231 513d ad80 67bd 6ff9 e5bc d6eb a33b
00000170: 8e11 323c 2ee4 1abd 55e4 af3d ba8f 06bd
00000180: d361 29bd 3eaf 7d3d b443 dabd af71 89bc
00000190: 03ab 82bd 6bf8 f3bd e9bb 193d a75d cbbc
000001a0: 49a8 2ebd b236 8abd 56c7 123d 41b5 07bd
000001b0: 9835 d1bd 5392 a73c a1be ce3d 641f 513d
000001c0: 9513 293c 6a8d 913d 2f6c db3d a0c3 f63d
000001d0: 7dcd b6bd 50c7 a5bd 1d86 233d 4e19 aa3d
000001e0: e036 203d 200f 6e3c b08f 70bd 22f7 80bb
000001f0: 0e66 8bbc 9482 303a 65e7 8d3d 4593 12be
00000200: c074 b8bc 78df 15be 10cc 803d 93ea 3abd
00000210: 8001 f6bd 2dbf c6bd a66c 053b 9284 34bd
00000220: 1682 973b e31e 9fbb f174 3e3d a05b 4b3d
00000230: ec43 91bd d46e 0dbd 9228 f9bd 5346 bebc
00000240: ef57 533d 3405 b7bd e6da 85bd 38ba 3e3d
00000250: d3cb 703d 2803 ca3d e5bd 8bbd 51e0 03bc
00000260: fe8e cbbd 3b6a 823c 9886 1d3e 8b16 bcbd
00000270: feae 81bd fe2a 313d eaee fbbd 87ac 4b3c
00000280: 0881 7bbd d3d9 32bd 6a8b 54bd 7c14 87bd
00000290: f112 ebbc 5a09 43bd adf4 893d 4b6d 913d
000002a0: 1c76 3d3d b572 ce3d 05d7 2e3d 5747 57bd
000002b0: 178f 6e3d afc7 933d 3d1f 5f3b 1b5e 3abd
000002c0: 20d3 d4bc 4398 e8bd 56d7 883d e02e 14bd
000002d0: 1b03 c4bb 98ec 9c3d 5df9 8abd 1753 a6bd
000002e0: 5b7d 5fbd 168f bebc 923d 9ebd 40c5 0e3e
000002f0: dbf4 03be 331c 973d f780 85bd ae19 af3d
00000300: 47a3 a23d a848 cebd d208 34bd 2d2a 40bd
00000310: 5d37 323b ec4b 103c f42e 22bd 5e91 ad3d
00000320: 71bd c1bd bb0f 3ebd f851 92bd 96f7 e5bd
00000330: f330 983d 833a 0bbd 3b2c 183d b5e5 163d
00000340: 3d2e dabd b807 043d 2687 203c 7a7b d7bd
00000350: 794a 0d3d a9c8 d5bd 87c8 a5ba 7d16 0a3b
00000360: 365d c6bb 06f9 7b3d c6de ecbd fdf7 9ebd
00000370: a306 f33c 5b5b 403c aa89 7e3d 22fc dabd
00000380: 3fe1 583d 9315 a3bc dffb c53b 642d d23b
00000390: e511 2fbd 3809 f73c 42d9 633b 4135 5b3c
000003a0: 73e8 4e3d 7fa0 813d 46c7 ea3d 87b8 ad3d
000003b0: 753e 71bd 9454 e0bb 9fef d03c b954 2e3d
000003c0: 2ebf a0bc bf35 c93d 7e40 1cbd 92b8 1bbd
000003d0: 762b d4bd d29b a2bd cccc 4d3c 6f55 9b3d
000003e0: 9c7f ce3d c670 85bd 174d 2b3c 94ae e43d
000003f0: 2a80 293c 0874 08be 5b52 e8bc 04cc efbd

fc.2.bias f4 [172]
-0.059738398 0.020021914 -0.061027516 0.013167631 -0.008112857 0.051781353 -0.072324015 -0.025265647
-0.013261536 0.024835948 -0.035033133 -0.028077008 0.021509722 -0.0144400345 0.024134876 -0.04504515
0.04273931 0.031809077 -0.047968023 0.015866067 -0.0068131643 0.0249598 0.023613589 -0.0105069205
0.061847568 0.030554935 0.04810903 -0.036322728 -0.057075635 -0.044808716 0.05318725 0.03170927
-0.04135419 0.014220053 -0.0070552314 0.030289132 -0.05902574 0.0019286409 -0.0005859481 0.027314452
-0.04240765 -0.036971975 -0.012132051 -0.03565832 0.06480917 -0.008445397 -0.0036965555 -0.059560113
-0.07936934 0.035938814 -0.04212877 0.011266313 -0.02988918 -0.015624678 -0.06681049 -0.08176647
0.013919823 -0.052853525 -0.0015555936 0.028921446 -0.0014039021 -0.05602047 0.019050261 0.0431177
-0.014499622 0.021509692 -0.02735119 -0.049673345 -0.029034797 -0.005690972 -0.035130348 0.030209957
-0.0071768994 -0.024568718 0.039585464 0.03833954 0.07865545 0.024183556 0.029015813 -0.032868918
0.015062634 0.031184923 0.05423094 -0.018466726 0.010227978 -0.0061138333 0.02522455 0.060000516
0.027420647 -0.017688341 -0.002406858 -0.006766812 -0.018148692 0.023703251 -0.056114268 -0.05195166
-0.012218984 -0.0840116 -0.08381515 -0.02746028 -0.0043509905 0.034339692 0.01576741 0.032816075
-0.050541244 0.019793687 -0.034672257 -0.038976192 0.047804546 -0.014929586 0.00045664824 -0.014189651
-0.07749156 -0.008846275 0.030624697 0.015089555 -0.033826135 -0.07360056 0.029856512 -0.020260567
-0.10478476 -0.00017903592 0.025917944 0.018851291 -0.041392934 -0.06596196 -0.027334692 -0.047876634
-0.040823784 -0.03998384 0.03766166 -0.017695555 -0.06498396 0.029600533 0.08172562 -0.046900265
-0.025077838 -0.013951696 0.024776317 0.0024903398 -0.06065667 -0.0728142 0.010185176 0.047063414
0.0021729725 -0.02262266 -0.07853142 -0.034320824 -0.013918367 0.034981333 -0.03616541 -0.05796026
0.016052108 -0.034028944 0.007701701 -0.0051435414 0.09098088 -0.0009563554 0.026722932 -0.03939441
0.012239137 0.03530868 0.0014376101 -0.027765224 0.040006325 -0.02854704 0.025271542 -0.0050889323
0.032593437 -0.0002952723 0.009623211 -0.050460733
00000000: 40b0 74bd ff04 a43c fdf7 79bd 0cbd 573c
00000010: caeb 04bc af18 543d 9d1e 94bd e7f9 cebc
00000020: ea46 59bc c274 cb3c e77e 0fbd c101 e6bc
00000030: 2835 b03c e595 6cbc 81b6 c53c 4381 38bd
00000040: 6a0f 2f3d 3c4a 023d 1e7a 44bd 8ef9 813c
00000050: f740 dfbb 7f78 cc3c 4971 c13c 3825 2cbc
00000060: e053 7d3d 584e fa3c f90d 453d 24c7 14bd
00000070: 24c8 69bd 5889 37bd e0da 593d 94e1 013d
00000080: 0363 29bd 3afb 683c 922f e7bb ea20 f83c
00000090: f9c4 71bd 73ca fc3a 509a 19ba 8fc2 df3c
000000a0: a5b3 2dbd ed6f 17bd 83c5 46bc 750e 12bd
000000b0: acba 843d 905e 0abc e941 72bb 4ef5 73bd
000000c0: 648c a2bd 9434 133d 388f 2cbd 5796 383c
000000d0: 27da f4bc a6fe 7fbc f0d3 88bd 2e75 a7bd
000000e0: f80f 643c f07c 58bd 0fe5 cbba abec ec3c
000000f0: 2303 b8ba b875 65bd 4b0f 9c3c 2f9c 303d
00000100: d38f 6dbc 1835 b03c 9a0f e0bc 4776 4bbd
00000110: 62da edbc 557b babb d7e4 0fbd df7a f73c
00000120: 322c ebbb 5644 c9bc 5e24 223d ec09 1d3d
00000130: 1c16 a13d 981c c63c 92b2 ed3c 8fa1 06bd
00000140: 44c9 763c 8677 ff3c 4321 5e3d 8847 97bc
00000150: 4093 273c 8d56 c8bb b7a3 ce3c 1ac3 753d
00000160: 44a1 e03c 24e7 90bc 60bc 1dbb 22bc ddbb
00000170: 91ac 94bc 522d c23c 13d8 65bd 44cb 54bd
00000180: 2232 48bc 460e acbd 47a7 abbd 62f4 e0bc
00000190: c192 8ebb c7a7 0c3d a82a 813c 266a 063d
000001a0: 5604 4fbd 5f26 a23c 7f04 0ebd 80a5 1fbd
000001b0: b3ce 433d 399b 74bc 4a6a ef39 b67b 68bc
000001c0: e5b3 9ebd f7ef 10bc a5e0 fa3c 2e3a 773c
000001d0: 468d 0abd e4bb 96bd a595 f43c 7df9 a5bc
000001e0: 6499 d6bd 97bb 3bb9 de51 d43c 066e 9a3c
000001f0: a38b 29bd 1017 87bd 01ed dfbc 4a1a 44bd
00000200: d736 27bd 18c6 23bd 1d43 1a3d 45f6 90bc
00000210: 4f16 85bd d17c f23c c35f a73d 7e1a 40bd
00000220: 0a70 cdbc a895 64bc b4f7 ca3c f834 233b
00000230: 2173 78bd 9c1f 95bd b9df 263c 91c5 403d
00000240: 6e68 0e3b 2853 b9bc 15d5 a0bd fe93 0cbd
00000250: dd09 64bc 9648 0f3d 2e22 14bd bd67 6dbd
00000260: b67f 833c ef61 0bbd 8d5e fc3b 278b a8bb
00000270: 2f54 ba3d edb3 7aba 0dea da3c 085c 21bd
00000280: a986 483c d69f 103d 316e bc3a e573 e3bc
00000290: acdd 233d 7bdb e9bc 4406 cf3c 0fc1 a6bb
000002a0: b280 053d c7ce 9ab9 acaa 1d3c eaaf 4ebd
