inventory/model.pth (torch, 483857 bytes, 16 tensors)

conv.0.weight f4 [32, 3, 5, 5]
00000000: e7de d83d 796c 00bd 6ce5 a33d bf9b 833d
00000010: e82f 813d 84fb de3d 8213 083b 33ad 01be
00000020: 6fb7 cc3d a9e4 0bbd bc9c 3abd ffeb 97bc
00000030: 3d6f 393d 4e82 08bd ac91 bbbd eee8 f33d
00000040: 7e0e 663c ac1d 10bd e219 b03d ffee d13d
00000050: e1bc c53c 0336 cfbb bc86 b13b 8274 ec3b
00000060: a89b a6bb 0c85 953d 851b dc3d 32ee 3cbc
00000070: c306 adbd 2083 cb3d b315 d43d 14a4 893c
00000080: 5260 f0bd 1914 a83d 2db8 24bc 7470 e13c
00000090: e2ed 47bd 1c95 543d 3c50 01be 7e02 a73c
000000a0: 1e1b 9dbd 1445 0abd 421f 7cbc 46e3 e9bd
000000b0: 1856 b93c c9b4 4fbd 0d5d 523d 7257 b43d
000000c0: f417 eebd a325 b3bd 34cc 3dbd ba50 ce3d
000000d0: 7c6f 103c 86e4 bebd 3ee5 a0bd 21d3 c73d
000000e0: c235 b2bd 0262 90bc c2f5 053d 9658 59bd
000000f0: 5826 2ebd ca5c 80bd 273c 5c3b 8731 21bc
00000100: b4e5 193d 8ea9 4cbd 4fa3 ab3d 7010 c03d
00000110: 384d acbd 9120 753d 9b05 82bd 18b8 d13d
00000120: 2698 e9bd fc39 e6bd 5caf dbbd 9a75 68bd
00000130: a3f5 ec3d 6eca 3a3c c2ed 2a3c ef12 e0bd
00000140: d610 6bbc e02b 42bd 0ba4 b13c f7d7 3f3d
00000150: 60ab 783d 436a c73c bbdf 7a3d 50c1 d83d
00000160: 1e01 5a3d 2c34 12be 41a6 8f3d 93f9 bebb
00000170: e656 48bd 652d 2dbd 381b 51bd 51d5 cdbd
00000180: 6d7f b4bb e0b6 f5bd b564 9f3c 44ac 27be
00000190: 8d45 3f3d 706e a4bd b8ab 0b3e 3b9c 893b
000001a0: a2b1 0d3d 50fc abbc d4a9 cf3c 0ab2 1cbd
000001b0: b7f8 1e39 7872 27bd af10 853d 30b4 89bd
000001c0: 6094 25bd 133c 8bbd 1de1 e93c 158c 00be
000001d0: c0e6 aebb 51bc fa3d f8fd 6e3d 9d1f 743d
000001e0: 420c a33d b410 8cbd 1969 623d d683 653d
000001f0: 95cc 14be 989b 163d 2b1b 83bd ffd1 293d
00000200: d35b 86bd f1fd b5bd 304c 343d e39c d1bd
00000210: 87f4 763b f0ab 95bc c64b 84bd c160 87bd
00000220: cf97 5f3d d73f c03c 2d38 bd3d c88d ab3c
00000230: 8ebe eabc 4e8d babd 0183 05bd 369f 9ebd
00000240: 2c72 8a3d 0386 36bd 9bec 893c 0a62 de3c
00000250: 5d73 753d 5bdb 6ebb aaec c93c baf6 7b3b
00000260: 9291 503d fefc abbd 2c38 583b bb57 14be
00000270: bdbb 01bd 816b 6fbd 8c2b 713d c404 28bd
00000280: d36b ff3c 4183 01bd 86fa 6bbc 2082 b73d
00000290: 0e59 803d 3109 c1bd e553 d7bd a21c 1fbd
000002a0: a7e9 b73d b455 983d 61cf e93b 47e2 463d
000002b0: 0155 66bc a8eb d43d d3fc ac3d 0853 9bbc
000002c0: ca61 76bd 52b7 babd e11e a53d 5de0 3cbd
000002d0: 44a7 a5bc 204b b23d 1d14 a0bd ba6f 1a3d
000002e0: b1db 963d 3e92 c03d efad a23d 055e 48bd
000002f0: d0ff 25bd 68d1 9c3d 4e9c a53c 166e 503c
00000300: fb4a c0bd ade9 74bd c38a 923c 3c0a f53d
00000310: 9a52 623d ff1f de3d e935 143d 8026 bdbd
00000320: a302 e53d ef25 f0bc 91aa a03d 5b7e 32bd
00000330: 66f8 adbc 2a35 c03d 083c a9bd ceaf 8ebd
00000340: dd21 593d 2ef3 df3d 2d10 023e b902 ba3c
00000350: 1b39 aabd de88 383b c0b0 f43d a50f 013d
00000360: 081f 66bc 1137 b13d ddd5 5a3d 0059 93bb
00000370: 2554 b43d a4aa a03d e567 b13d b3c2 7cbd
00000380: bb78 a5bd b858 37bd f3fc 393c ceef 98bd
00000390: c324 423d 3960 06be 6717 703c 12ab 6e3d
000003a0: 4b66 abbd dfd3 873d 3fa9 2e3c ff31 b3bd
000003b0: f3ae cf3d 240d 323d 6f93 773d 6f06 e9bb
000003c0: f9a8 073c 3820 32bd 2a15 793d 3f9e 773d
000003d0: 1b2f 713c e05b fabd 1d81 ce3d 585a 8c3c
000003e0: bfbc 223c 14ea 0a3d e2d7 77bd 39ef 7d3c
000003f0: 197a fabd 280b 213d 6be4 fbbc 5898 833d
0.1058939 -0.031353448 0.08002743 0.064261906 0.063079655 0.108878165 0.002076358 -0.12663727
0.09995925 -0.034153614 -0.04555963 -0.018545149 0.0452721 -0.033327393 -0.09158644 0.11909662
0.014041541 -0.035184547 0.08598687 0.10250663 0.024137916 -0.0063235774 0.005417673 0.0072160373
-0.0050844736 0.07300767 0.107474364 -0.0115314 -0.08448555 0.099371195 0.10355701 0.016801871
-0.11737122 0.08206958 -0.010053677 0.027519442 -0.048810847 0.051900014 -0.12628263 0.02038693
-0.07671188 -0.033757284 -0.015388312 -0.11420302 0.02262406 -0.05070952 0.05135827 0.08805741
-0.116256624 -0.08747413 -0.04633732 0.10073991 0.008815642 -0.09320931 -0.078562245 0.097570665
-0.0870166 -0.017624859 0.032705076 -0.053062998 -0.042517036 -0.06267698 0.003360519 -0.009838468
0.037572578 -0.049966387 0.08380758 0.09378135 -0.08413166 0.05984551 -0.063487254 0.10240191
-0.11405973 -0.112415284 -0.107268065 -0.05675278 0.11570289 0.011400802 0.010432662 -0.10941111
-0.014347276 -0.047405124 0.021684667 0.04683682 0.06071031 0.024342662 0.061248522 0.105837464
0.05322372 -0.14277714 0.07014132 -0.0058280914 -0.048910998 -0.04227962 -0.05105135 -0.100504525
-0.0055083544 -0.11997771 0.0194572 -0.16374308 0.04669719 -0.08028877 0.13639724 0.0041995323
0.034593232 -0.020994335 0.025349535 -0.03825573 0.00015160708 -0.04088065 0.06497323 -0.06723821
-0.040424705 -0.067985676 0.028549725 -0.12553437 -0.005337566 0.1224295 0.058347672 0.05960046
0.07961322 -0.06839123 0.05527601 0.05603393 -0.14531167 0.03676948 -0.06401666 0.041460034
-0.06560483 -0.08886326 0.04401797 -0.10235002 0.003768237 -0.018270463 -0.06459765 -0.06610251
0.054588135 0.023467941 0.0923923 0.02094163 -0.028655317 -0.09108983 -0.03259564 -0.07745211
0.06760058 -0.044561397 0.016836455 0.027146358 0.059924472 -0.0036446664 0.024648983 0.003844662
0.050920077 -0.08397864 0.0032992465 -0.14486592 -0.03167318 -0.058452133 0.05887942 -0.04102017
0.031179344 -0.031619314 -0.014402991 0.08960366 0.06266986 -0.09425581 -0.105140485 -0.038845666
0.089801125 0.074382216 0.007135317 0.04855564 -0.014058352 0.1039651 0.0844666 -0.01896049
-0.060151853 -0.09116997 0.0806253 -0.046112407 -0.02022136 0.08705735 -0.07816336 0.037704207
0.073661216 0.094028935 0.079433315 -0.04891779 -0.040527165 0.076571286 0.020216133 0.012721559
-0.093893014 -0.059793163 0.017888432 0.11964843 0.055254556 0.108459465 0.036184225 -0.09235859
0.111821435 -0.029314963 0.07845033 -0.043577533 -0.02123661 0.0938514 -0.08263403 -0.06967126
0.05301081 0.10935055 0.12701483 0.022706376 -0.08311673 0.002815775 0.11947775 0.03150906
-0.014045484 0.08653081 0.053426612 -0.0044966936 0.08805112 0.07845047 0.086623944 -0.061709117
-0.08079668 -0.044762343 0.011351812 -0.07467614 0.04739834 -0.13122644 0.014654017 0.058268614
-0.0836912 0.06632208 0.010660469 -0.087497704 0.10140791 0.043469563 0.060443338 -0.0071113626
0.008280032 -0.043487757 0.0608112 0.06045365 0.0147207035 -0.12224555 0.1008322 0.017132923
0.009932696 0.03391464 -0.060508616 0.01549893 -0.122303195 0.03931728 -0.030748567 0.06425542

conv.0.bias f4 [32]
00000000: 7383 9ebd 4036 683c 115f d9bd 52a5 a23d
00000010: e215 cf3d 522a e7bd dc49 81bd e9ee a13d
00000020: d7cb 3dbc 93ea a3bd 5459 463d 87ab d9bd
00000030: 0c4b f2bd 5eb4 c8bd 6a31 223b 5694 683d
00000040: 61bf a8bc ef22 3d3c 7b43 883b e814 80bd
00000050: 190a 2b3d 68f2 14bd 5f24 b4bc 6fcb 78bd
00000060: 64c7 473d 3a19 d13b 23a6 243d 02f3 ed3d
00000070: 3d64 f33b 3a20 c1bd a7d0 703c 1a33 5cbd
-0.07739916 0.01417309 -0.106138356 0.079416886 0.10111596 -0.11287369 -0.06312916 0.079068966
-0.011584244 -0.08003726 0.048425034 -0.10628419 -0.1183072 -0.09800027 0.0024748691 0.05678209
-0.02059907 0.011543973 0.004158435 -0.062539876 0.041757677 -0.03636399 -0.02199 -0.060740884
0.048774138 0.006381181 0.040197503 0.11618616 0.007427721 -0.09429975 0.014698184 -0.05375967

conv.1.weight f4 [32]
00000000: 253b 7a3f b6f0 7d3f 5c32 7d3f 5ab2 6d3f
00000010: f254 803f 32c2 7c3f c61d 803f d2a8 853f
00000020: 3428 793f 8905 7e3f b1ac 7a3f 3566 803f
00000030: eeb8 813f 3245 813f 2d6a 883f 1433 7c3f
00000040: 1451 823f 64bf 833f 73a1 823f 9fb3 8f3f
00000050: 2bbf 763f d7e0 803f bc29 7d3f f137 7e3f
00000060: ea69 7c3f 4bf5 7d3f 102e 803f f229 803f
00000070: 65f2 823f 6677 773f be8d 803f e866 7a3f
0.977465 0.9919542 0.9890497 0.9285027 1.0025923 0.9873382 1.0009086 1.0442145
0.9732697 0.99227196 0.97919756 1.0031191 1.0134561 1.0099242 1.0657402 0.9851544
1.0180993 1.0292783 1.020552 1.1226691 0.9638545 1.0068616 0.98891807 0.9930411
0.9859911 0.9920241 1.0014057 1.0012801 1.0230223 0.9666656 1.0043256 0.9781327

conv.1.bias f4 [32]
00000000: 1b81 dbbb c4ce 9ebb 4559 debb 8028 73bd
00000010: 8536 9f3a 0d47 383b 97ab 4ebc 853a 65bd
00000020: d0b0 aebc 764b ce3c 4b38 273d 26ed 66bd
00000030: 85a5 243d c120 2dbc 09a9 be3c 891a da3b
00000040: 7f11 2dbc b23b 14bc f1c6 8dbd f160 1bbd
00000050: 765d 04bc 7941 dd3c 51c1 7a3c 67a2 d7bc
00000060: f613 08bd f183 e4bc f36c f2bc 3f97 9a3c
00000070: 6ae3 1ebc 70d7 95bd e08f 41bb a8ff 1b3c
-0.00669874 -0.0048464257 -0.006785544 -0.059364796 0.0012146985 0.0028118521 -0.012614152 -0.05596401
-0.021324545 0.025182467 0.04082517 -0.056378506 0.040196914 -0.010566891 0.023273962 0.0066559953
-0.010563253 -0.009047436 -0.06922711 -0.037934247 -0.008078923 0.027008759 0.015304879 -0.026322557
-0.03322216 -0.027894946 -0.029592967 0.018870948 -0.009697774 -0.07316482 -0.002953522 0.009521402

conv.1.running_mean f4 [32]
00000000: 0d1f 1dbe b63c 45be f6fc b23e 243e cd3e
00000010: b217 84be 5115 943d ab5d 023b d860 3f3d
00000020: 79cd 843f 4ea8 c6be 3a97 d03e e07c 87be
00000030: 8ea7 9bbe ccad 0dbe de8a 803b 36dc 23bd
00000040: 24d2 a6be 0d07 333d c753 063e 9b97 53be
00000050: 0ba3 a83e 56c4 73bd 0762 143c 5ecf 97be
00000060: de12 823d 0b17 acbd dc9a 3fbd 5fd7 e43d
00000070: afd0 77be 39b4 a93e f1d1 39bb 0bac 09be
-0.15343876 -0.1926144 0.3495862 0.40086472 -0.25799328 0.07230628 0.0019892256 0.046723217
1.0375205 -0.3880028 0.40740377 -0.2646246 -0.30401272 -0.1383583 0.0039228043 -0.04000493
-0.325822 0.043707896 0.13117896 -0.20663302 0.32936892 -0.059513412 0.009056575 -0.29650396
0.06351255 -0.084028326 -0.046778545 0.11173891 -0.242007 0.3314531 -0.0028353895 -0.13444535

conv.1.running_var f4 [32]
00000000: a30e bc3c 2c24 573c 6509 6a3d b89b 273d
00000010: 635e 223d 60c2 053d 5e7f 0c3c 4cc8 d83b
00000020: b6c5 8e3e ab0a 023d ab18 213d 949b ef3c
00000030: d22e fc3c a408 5d3c 9e4b ac3c 1594 5e3c
00000040: ba40 023d 7710 f03c 085d ae3c c051 b43c
00000050: 3396 113d 40b0 363c 401a 9d3c 27d8 0f3d
00000060: be13 df3b 02b1 fc3b 81c8 7e3c 1e0f 823c
00000070: 40cb 023d 64a5 533d 3228 db3b 2fc5 e33c
0.022956198 0.013131183 0.057137866 0.04091999 0.039640795 0.032656074 0.008575289 0.006615674
0.27885216 0.031748455 0.039330166 0.02924899 0.030784044 0.01349083 0.02103215 0.01358511
0.03180001 0.029304726 0.021284595 0.022011638 0.03554363 0.01115042 0.019177556 0.03511825
0.0068077734 0.0077115307 0.015550734 0.015876349 0.031932116 0.0516714 0.0066881413 0.027803985

conv.4.weight f4 [32, 32, 3, 3]
00000000: 81e1 263d 9d64 573d 33d0 86bd 7af6 e2bc
00000010: 7559 88bd 460a a63d bb17 293d d95f 943d
00000020: f4b1 45bd a738 2b3d 7d50 633d 2eb7 5cbc
00000030: 4d87 52bd 4a21 563d d25f b9bc 8db6 113d
00000040: 227b 0f3d 32f3 0c3d 28bc c0bb 40fc 343d
00000050: 9d4b 5d3c b7a9 9dbd d357 be3c 73c7 cc3c
00000060: 8f0f bebc 1639 26bc 5394 6bbd 5838 06bd
00000070: 0134 0fbd aa47 58bd a7e3 46bc 2527 4d3d
00000080: 6ecc 983c 8e71 353d 4a59 de3c be51 5e3c
00000090: cdcf 513d 4ac9 4fbd b83e 753b c5b8 8abc
000000a0: df2d 9cbd 6672 92ba f41b 51bd fbd5 83bc
000000b0: 26e3 e6bb f729 59bd 2fb4 723c e7ba 79bd
000000c0: 0a7a 2dbc 6f3d 593d c3b5 323d 1668 24ba
000000d0: 0f1d 283d bea3 913a 56d2 12bd 77e7 ed3a
000000e0: 39da 94bb c4e7 61bd d91b 763c 0742 6dbb
000000f0: 414d 963a 38eb e039 258f 4dbd 0690 47b9
00000100: 8668 bd3d f1b6 a6bc 1377 9d3c cc0b a33d
00000110: 6c58 e63b cbdf 90bb 2875 253d 257c babc
00000120: b401 0d3d cbd6 44bc fc99 023d 3f94 bdbc
00000130: a351 603c c7d5 263d d779 613d 4534 f53c
00000140: 1855 b43c 5ff7 ef3a 0ff4 a93b a577 8bbd
00000150: 32f5 ab3c a1d9 213d 68fa ec3c 5eb8 263d
00000160: 7180 523d 52f4 13bd 3343 743c 8544 56bd
00000170: 4b64 8dbd 0dcf debc b9ef 5b3d 8646 c73c
00000180: 68cb a23c cadd 7a3d 3a07 a7bd 807e 8339
00000190: 3e6d ea3c 556a 14bd 911a c53b 4ac7 db3c
000001a0: 61fc 503d e21d 86bd a89b 6c3d e522 89bc
000001b0: e9fb 8b3c 44f4 a13d f015 1e3b bdc9 b1bc
000001c0: de15 743d 7b1c 8fbc 1e4c 293c d4f7 92bb
000001d0: 49c1 36bd d266 f7bc b5e5 6fbc 2230 703d
000001e0: 3e6d 1aba 8af0 273d ec99 7fbc 1ef3 213d
000001f0: 9678 a13b 698f d4bc 9429 2d3d ce1d 7b3d
00000200: 24aa 453d 9ccc 1f3d bf52 3bbd 3915 6cbd
00000210: 0f8e 323c 9df9 e5bd bf34 46bd e08a 003d
00000220: 3034 45bd 5c43 bfbc f330 87bc b456 05bc
00000230: 96e6 7f3c 0f8f 5d3d fa6a 04bc b783 1b3d
00000240: 0fab 793d 41b1 fa3c 2af0 f83c d687 0d3d
00000250: ff8d 703d ba66 313d 8b1d b53c 6e22 a5bd
00000260: b732 97bd 3fc1 f43b ac9e da3d e4aa a7bc
00000270: ed45 3b3c 1f0c f23c eff5 61bd 8cd6 db3c
00000280: e16a fc3c f0ac 50bd 7b3c af3c d5d9 613a
00000290: 37d3 893c 2344 fa3c 8a0b 23b9 66fa 683d
000002a0: 7d51 2fbd db4d 043d fbe9 91bd 0c11 8e3c
000002b0: 4302 f5bc ab7d fdbc a8b4 5ebd 56c4 8bbb
000002c0: 5a6f e8bc 0028 b9bc 8460 ef3c 7bc4 bcbb
000002d0: b434 28bc 9cf0 f03c 780a 68bd 130a 1bbd
000002e0: f235 fc3b d3d1 15bd 23e3 3e3c 6bc6 ecbb
000002f0: 9902 86bc 4c77 79bd 8323 b7bc 0c4d 313c
00000300: 11c1 9bbd 8755 a3bb c63a 8c3b 14ea 8b3d
00000310: 1bdd 143d c7f0 5a3d 5401 f93b 523d 903d
00000320: 9268 81bd fae9 3dbd 9ed0 c03b 9040 1b3d
00000330: 9190 abba 3cce dbbc 5340 ea3c 2747 5cbd
00000340: b5c8 81bd 0d5b 733b 22bb 28bd 5960 103d
00000350: 88b4 2dbd 81c0 23bd e1b9 ab3c ac14 4bbd
00000360: feaa 32bd 1630 963c c91e 003d 8562 eb3c
00000370: 2f82 24bd 4511 92bd 54b4 963c 5ba3 0cbd
00000380: fe6f 803c 17b3 e83b 943a 33bd 6cdd 9abc
00000390: 21ff 75bd b086 b8bb b6b8 3d3c 4b7b 8b3d
000003a0: e63e 933d 5fa1 f73c 9f5f 7fbd c768 273d
000003b0: e8a1 95bb ba79 c03c f7e4 0e3d 4eda df3a
000003c0: 398d a0bc 7e2c c63b a246 263d cb66 6cbc
000003d0: 566f 5dbb 8df7 933b 9840 1a3d 6fe7 28bd
000003e0: 5103 08bd ef65 1b3c 5905 d8bc 4991 3a3b
000003f0: 8ca4 c43c f7c2 04bd ca8c 903a 0b54 0abc
0.0407424 0.052586187 -0.065826796 -0.02770542 -0.066576876 0.08107428 0.041282397 0.07244844
-0.048265412 0.041802075 0.05549668 -0.013471408 -0.051398564 0.05227784 -0.022628698 0.035574485
0.035029538 0.034411617 -0.005881805 0.044185877 0.013506797 -0.07698386 0.023235237 0.024997449
-0.023200778 -0.010145446 -0.0575145 -0.032768577 -0.034961704 -0.05280272 -0.0121392375 0.05008616
0.018652167 0.044297747 0.027142186 0.013569294 0.051223565 -0.050729074 0.0037421416 -0.016933808
-0.07625937 -0.0011173009 -0.05105205 -0.016093245 -0.007046121 -0.053018536 0.014813467 -0.06096926
-0.010588178 0.053037103 0.043630373 -0.00062716135 0.041043337 0.0011111421 -0.035845123 0.0018150647
-0.0045426157 -0.05515267 0.015021288 -0.0036202685 0.0011467115 0.0004289986 -0.05018534 -0.00019031772
0.09248452 -0.020350905 0.019221818 0.079612345 0.0070295837 -0.0044212095 0.040394932 -0.022764275
0.034425452 -0.012014101 0.031885132 -0.023141978 0.013691339 0.040731218 0.055047836 0.02993215
0.022013232 0.0018307975 0.0051865648 -0.0680993 0.020990942 0.039514188 0.028927997 0.04070317
0.051392023 -0.036121674 0.0149086 -0.05231144 -0.06903895 -0.027198339 0.053695414 0.02432562
0.019872382 0.06124667 -0.08155675 0.00025080517 0.028616544 -0.03623422 0.00601513 0.026828427
0.051021937 -0.065486684 0.057765633 -0.016740272 0.017087894 0.07907918 0.0024121962 -0.021702642
0.059591167 -0.017469635 0.010333089 -0.00448511 -0.044617925 -0.030200396 -0.014642169 0.058639653
-0.0005890912 0.04100088 -0.015600663 0.039538495 0.004927705 -0.02594729 0.04227598 0.06130772
0.048257962 0.03901349 -0.04573321 -0.057637427 0.010898127 -0.112292506 -0.048390146 0.03138244
-0.048145473 -0.02334755 -0.016502833 -0.008138347 0.015618941 0.05409151 -0.008082146 0.03796741
0.06095415 0.0306021 0.030387957 0.03455337 0.058729168 0.04331086 0.022108814 -0.080632076
-0.0738272 0.007469326 0.106747955 -0.02046723 0.011430246 0.029546795 -0.05516618 0.026835702
0.030812683 -0.050946176 0.021391144 0.00086155283 0.016824348 0.030550068 -0.0001554919 0.056879424
-0.042802323 0.03230081 -0.07124706 0.017342113 -0.029908305 -0.030943712 -0.054371506 -0.0042653484
-0.028373409 -0.022602081 0.029220827 -0.005760727 -0.010266472 0.029411606 -0.05665061 -0.037851404
0.0076968605 -0.036577057 0.011650833 -0.0072258017 -0.01635866 -0.060904786 -0.0223558 0.010821592
-0.07605184 -0.004984561 0.0042794673 0.06831756 0.036343675 0.05345228 0.0075990353 0.07042946
-0.06318773 -0.046365716 0.005884244 0.03790337 -0.0013089349 -0.026831739 0.028595125 -0.053778794
-0.0633711 0.0037133128 -0.04119409 0.035248134 -0.042408496 -0.039978508 0.020962657 -0.04958026
-0.043620102 0.018333476 0.03127936 0.028733501 -0.040163215 -0.071322 0.018396534 -0.034335475
0.015678402 0.0071014273 -0.043757036 -0.01890441 -0.060057763 -0.0056312904 0.011579683 0.06810626
0.07189731 0.030228315 -0.06234705 0.040871408 -0.00456642 0.023495544 0.034886327 0.001707861
-0.01959859 0.0060477844 0.040594704 -0.014428805 -0.0033788285 0.0045155943 0.037659258 -0.041236337
-0.033206288 0.009484752 -0.026369737 0.0028467944 0.024004243 -0.032412495 0.0011028287 -0.008442889

conv.4.bias f4 [32]
00000000: e868 53bd 7709 2abd e355 d3bc d155 f6bb
00000010: 4007 fb3c 15f2 3a3d 16f7 09bd 1d8d 8ebc
00000020: 8217 3b3d 950d 563d 18e1 6f3d 8508 533d
00000030: 652a 2b3d 74b8 333d 43f9 ba3c 6f5c f03c
00000040: bdcf d8bc f939 2fbd f306 b93c 496f 273d
00000050: cee7 f3bc 42c9 98bc 5492 36bd c3fd d5b9
00000060: 9a29 5dbd e720 443d 5d52 64bd 6f47 44bc
00000070: 8e9b 5dbc c3b9 f23a 16a0 f4bc c17c 4d3d
-0.05161372 -0.041512933 -0.02579779 -0.0075175543 0.030643106 0.045641024 -0.033682905 -0.017401272
0.045676716 0.052259047 0.058564276 0.051521797 0.041788477 0.04387708 0.022823935 0.02934095
-0.026466245 -0.042779896 0.022586321 0.040877614 -0.029773619 -0.018650655 -0.044573143 -0.00040815593
-0.053994752 0.04788294 -0.05574261 -0.011979922 -0.013525857 0.0018518496 -0.029861491 0.050167803

conv.5.weight f4 [32]
00000000: 91c7 8d3f dfb2 8d3f 5d02 8e3f 869c 8c3f
00000010: 66db 8c3f 8c6e 8c3f d1f4 8d3f 75a5 8f3f
00000020: a6a2 8c3f 7560 8e3f 03a6 903f 0310 903f
00000030: 9231 8e3f a713 8e3f ba90 8a3f dd23 8e3f
00000040: ada5 8c3f 99b6 8b3f f510 8e3f 01d6 8c3f
00000050: 36ce 8d3f a0f3 8d3f b2b8 8d3f 961c 8d3f
00000060: df28 8c3f 629d 8d3f ec7f 8d3f c735 8d3f
00000070: eb05 8f3f 0e9d 8e3f 262c 8e3f c1f4 8c3f
1.1076528 1.1070212 1.1094471 1.0985267 1.1004455 1.0971236 1.1090337 1.1222368
1.0987136 1.1123186 1.1300663 1.1254886 1.1108878 1.1099747 1.0825417 1.1104695
1.098806 1.0915099 1.1098925 1.1002809 1.1078556 1.1089973 1.107199 1.1024349
1.0949973 1.1063654 1.1054664 1.1032037 1.1173681 1.1141679 1.1107223 1.1012193

conv.5.bias f4 [32]
00000000: 5721 a93d 3e29 ba3d 93b6 ba3d 48fc a33d
00000010: ae40 9d3d a939 a03d 15cf b93d 370c bd3d
00000020: 99a3 b53d 81b9 b83d 04a3 bf3d 182a e23d
00000030: f8fe b33d c743 be3d be68 953d 1d1e c23d
00000040: 5390 9d3d 00f1 953d 3150 b93d 93c7 9c3d
00000050: 1309 ba3d 74a3 bb3d c0e9 a43d 52fa ab3d
00000060: 3f0a a03d 5521 ad3d 2ac2 af3d f2b9 c13d
00000070: dff1 9f3d d336 be3d 9166 b53d b900 be3d
0.08258312 0.090898976 0.091168545 0.08007103 0.07678352 0.07823498 0.09072701 0.092308454
0.088690944 0.09019757 0.09357265 0.11043185 0.08788866 0.09290271 0.072953686 0.094784
0.07693543 0.07321358 0.090484984 0.07655253 0.09083762 0.091620356 0.08052397 0.08397354
0.07814454 0.08453623 0.08581956 0.094592944 0.07809805 0.09287801 0.088574536 0.092774816

conv.5.running_mean f4 [32]
00000000: 187d 403a 2abd 3abf 92ae 47be a313 9e3e
00000010: a68a 3dbe 9f04 483d 2b3c 0a3e 938b 803d
00000020: a5fc ce3e 41c3 61be 5f44 17bc 45c6 adbd
00000030: cd6a ccbc f717 453e 096b 3fbb 8d73 07bf
00000040: 8ab1 1abe 001b 853d f992 a13c bccc 163e
00000050: 5b4d 36bd 7fe6 59be 7aa7 eebe 60cf 833d
00000060: d7a6 af3d f267 393e 4212 903e b022 e4bd
00000070: 48e5 a2bd 2a4c acbe e340 fc3c d283 c83d
0.0007342859 -0.7294489 -0.19500187 0.30874357 -0.18509921 0.048832532 0.13499515 0.06276622
0.40427127 -0.2204714 -0.0092326095 -0.084850825 -0.02495327 0.19247423 -0.0029208085 -0.5291069
-0.15106788 0.064992905 0.019723402 0.14726537 -0.044507366 -0.21279334 -0.4661215 0.06436038
0.08576744 0.18106058 0.2813893 -0.111394286 -0.07953888 -0.3365186 0.03079266 0.09790768

conv.5.running_var f4 [32]
00000000: 7bde 903c 78e6 1c3d 9df1 c13c 6562 453d
00000010: 85da e23c b301 9e3c 206a 9d3c 5e7a 643c
00000020: 281f f13c df28 bf3c 84cd 453c 3da1 853c
00000030: f44b a83c 2eaa 973c 276d 3b3d ad53 003d
00000040: aba8 823c 5943 dc3c b9f6 a83c 7de4 b53c
00000050: f4b3 663c a39c af3c 2641 bb3c d86d 8e3c
00000060: e04f 3c3d c13f 723c c3c2 a93c 3c9e e23c
00000070: 50b0 1b3c b054 ef3c 1543 743c 881c a13c
0.017684212 0.03830573 0.02367478 0.04818954 0.027692089 0.01928792 0.019215643 0.01394519
0.029433802 0.023334919 0.0120729245 0.016312236 0.02054403 0.018513765 0.045758393 0.0313298
0.015949568 0.026887583 0.020625459 0.022203678 0.01408099 0.021436995 0.022858214 0.017386362
0.045974612 0.014785708 0.020722752 0.027663343 0.009502485 0.029215187 0.014908572 0.019666925

fc.0.weight f4 [352, 128]
00000000: a243 84bc 0a73 d93d 0400 273e ccff 573c
00000010: 7417 d7bd 41a6 733d 79f0 4ebc b9dc 20be
00000020: d075 ab3d 3dba 143e a3f5 ab3d 4799 c03d
00000030: d417 d9bc 9b78 233e 26b8 f13d d697 29bd
00000040: d8d1 dd3c 3f2f b63d 5b1f 303e 2231 943d
00000050: 7a79 f2bc 9924 8fbd a505 173e 48e6 933d
00000060: 9439 453d bb69 c63b 15fc e8bd 8493 cdbb
00000070: e6a1 1f3d 69ef 853d 5b3e b4bd 1e5b dcbd
00000080: fd5c 433d e27f 923d 21c5 39bd f33b d33b
00000090: c995 073e ed6f 2e3d 5094 d1bd 40fc 863c
000000a0: 13b4 85bd 8bc9 133e 5842 30be 09cb d13d
000000b0: 7533 fdbd b987 cbbd 6f2a 5c3b abf2 113d
000000c0: f132 73bd d36f c9bc 8d77 c9bd 3cc1 afbd
000000d0: cf32 053e ae51 5abd 6155 41bc c301 c13d
000000e0: 4182 163d 6594 a9ba 384b 81bb b7ce 06bd
000000f0: af60 7e3c cdc7 c43d 8da1 683c 4920 7ebd
00000100: 8b3b 9539 961b 0f3e 4fb8 d93d 559e a0bd
00000110: f515 f83d 8083 06be 00df 443d c76b 6dbd
00000120: 5953 bd3d c18d d0bd e2f2 b43d e7c4 79bd
00000130: 833e 993d 409c dd3c fda8 6dbd ae1d 37bd
00000140: 1dea 903d c0dd f83d 8331 aebd 569c 8d3d
00000150: 2184 df3d ac2b 203e f946 f43c a2b2 013d
00000160: 097d 2c3e d2bb 243e a9cc febd 75f9 af3b
00000170: bea1 2ebc f232 d13d 9ad6 86bb 5791 8e3d
00000180: bd22 9a3d 8b85 193d f4e9 423e 6a80 04bd
00000190: 5a4b 153d 41b0 413d a0a5 833d 8023 463d
000001a0: ebbe 8b3d 2d35 163d 342f 863d d7c0 0c3e
000001b0: d2a6 95bd 3ac4 6abd 349a 19be ad16 733d
000001c0: dc61 193e 3b47 c93d 7c52 9dbd dd22 d43d
000001d0: 13a8 d9bc 0bfd c13d 56a5 f2bd 4c57 b4bd
000001e0: 9aae 69bc f4dc 0dbe a8c2 85bd 227d ccbc
000001f0: 7187 ac3d bcea 963d 635f f23a cc19 083e
00000200: 20f4 293e 7017 27bd ee05 55be bffa a53c
00000210: e20e d33d 18cd b13c 9fb7 e33d e530 bbbc
00000220: 3e80 e13d a0e0 fb3d db70 75bc 8414 833d
00000230: 48a1 b23d 3a7a f43d 1439 bbbd 6b24 90bd
00000240: cda6 2f3d 01aa 06bd d5f8 68bd 9963 943d
00000250: 3d13 433d 7838 373d b117 833d 720d 133d
00000260: 79fd da3d 913d 1b3d a051 dcbd fda9 bfbd
00000270: a049 8c3d f0b7 37bc 52f4 9c3c 7390 113d
00000280: c45e 153e 99d2 ad3d e83d f7bb 6040 e03c
00000290: 0f68 ef3d a3b5 ac3d 9ef2 9f3c 29db f73d
000002a0: bd5a 093e 0819 09be e108 2cbd 898f 1f3e
000002b0: ebb1 cebc 3d62 c8bd aad1 95bd 0b14 853d
000002c0: bc96 323d 229d a1bc aab6 273e 1fa0 aa3d
000002d0: 5fb1 30bd 2468 b4bd b516 1c3e 2d31 cbbd
000002e0: 0ac6 82bd 2c69 24bd 32c9 a73c f6d4 403c
000002f0: b478 dc3c e5ad 9d3d 5aa3 023e a990 0fbe
00000300: 0c21 8c3d 8dc2 2cbd b091 953d d93c 67bb
00000310: 8602 55bc d077 a43d b865 d83c 3393 16bd
00000320: aac5 0c3e ecc0 f23d d3a2 a73c cc4d bdbd
00000330: 5738 b2bc 5bdd e0bc 5586 c3bc 2433 20bc
00000340: 63fc 9b3d ad9d ef3c 2b2f 863d 4fcd febd
00000350: 529c 4bbd e7b3 0b3e 49c1 72bd 8708 8d3d
00000360: 79c5 13be 9546 ffbd f5ca 8f3d 9456 bdbd
00000370: 81b7 a63d 720d 56bd 90dc 4d3d 6164 dbbb
00000380: 6912 a6bd fd2d b63d 35e7 d1bd a8fb a13b
00000390: f9dd 10bd 1c6e 063e 65c9 c93c f5f7 fb3d
000003a0: 0cf0 adbd c81f d1bc a538 c7bd 7aa9 633d
000003b0: 8ff3 a23c 1aff 11bd aeb9 143e 0dff 033e
000003c0: 4f4e 8c3d a422 c8bb 10c0 d0bd 520a a1bd
000003d0: 5ee6 a93b 0d6d ea3d 4d9c 933d cc91 76bc
000003e0: 8f38 933b 5053 36bd 19f8 4fba 00ff c9bd
000003f0: d733 14bc 98d8 0d3d d463 02bd a4f9 d7bc
-0.016145531 0.10617645 0.163086 0.013183545 -0.1050252 0.059484724 -0.012630575 -0.15709199
0.0837208 0.1452417 0.08396461 0.09404235 -0.02650062 0.15963976 0.11802702 -0.041404568
0.0270776 0.0889573 0.17199461 0.07235934 -0.02959894 -0.06989402 0.14748247 0.07221657
0.048150614 0.0060550845 -0.11376206 -0.0062736887 0.038972758 0.065398045 -0.08800956 -0.10759567
0.047696102 0.07153298 -0.045354012 0.0064463555 0.13240732 0.04258721 -0.102333665 0.016477704
-0.06528487 0.14432351 -0.17212808 0.10243804 -0.1236333 -0.099379964 0.0033594628 0.035631817
-0.059374753 -0.024589455 -0.098372556 -0.085817784 0.13007663 -0.053300552 -0.011800141 0.09424164
0.036745314 -0.0012937902 -0.0039457344 -0.032911982 0.015525981 0.096084215 0.014198673 -0.06204251
0.00028463858 0.13975367 0.10630857 -0.078426994 0.12113563 -0.13136101 0.048064232 -0.057964113
0.09244413 -0.101832874 0.08835389 -0.060978796 0.07482626 0.027052045 -0.058022488 -0.04470604
0.070759036 0.121516705 -0.08505537 0.06914584 0.109138735 0.1564166 0.029818999 0.0316645
0.16844572 0.16087273 -0.124413796 0.005370314 -0.0106586795 0.10214795 -0.004114938 0.06961315
0.07526157 0.037480872 0.19034559 -0.032349028 0.036448814 0.04728723 0.06428075 0.0483737
0.06823524 0.036671806 0.06551972 0.13745438 -0.07307209 -0.057316042 -0.1500023 0.059347797
0.14978737 0.09828039 -0.07681748 0.10358212 -0.026569402 0.09472092 -0.118479416 -0.08805713
-0.01426282 -0.13853818 -0.06531268 -0.024962012 0.08424271 0.07368991 0.0018491562 0.1329109
0.16597033 -0.040793836 -0.20803043 0.020261167 0.10305573 0.021704242 0.11119007 -0.022850463
0.110107884 0.12298703 -0.01498052 0.064003974 0.08722168 0.11937375 -0.09141746 -0.07038196
0.042883683 -0.032876972 -0.05687793 0.07245559 0.04762577 0.044731587 0.06401003 0.035901494
0.10692877 0.03790051 -0.10757756 -0.093585946 0.0684998 -0.011213288 0.01915947 0.035538148
0.14586931 0.08487434 -0.0075452216 0.027374446 0.116897695 0.08433082 0.019524869 0.12102348
0.1341352 -0.13388455 -0.042000655 0.15582098 -0.025231322 -0.097843625 -0.07315381 0.064979635
0.043600783 -0.019728247 0.16378275 0.08331322 -0.043137904 -0.08808926 0.15243037 -0.09921489
-0.06385429 -0.040139362 0.02048168 0.011769524 0.026913024 0.076991834 0.12757626 -0.14020027
0.06842241 -0.042177726 0.07303178 -0.003528407 -0.01300109 0.08030665 0.02641569 -0.036761474
0.13747278 0.11853203 0.020463383 -0.09243354 -0.02175538 -0.0274493 -0.023867765 -0.009777818
0.07616498 0.02924999 0.06551965 -0.12441503 -0.049709626 0.13642846 -0.059266362 0.06886392
-0.14430799 -0.12464634 0.07021133 -0.09245029 0.08140469 -0.052258916 0.050259173 -0.0066953157
-0.0810898 0.0889549 -0.10249177 0.00494333 -0.03536794 0.13127941 0.024632165 0.123031534
-0.08493051 -0.02552785 -0.09727601 0.055581547 0.019891528 -0.035643674 0.14523956 0.12890263
0.06850874 -0.006107645 -0.10192883 -0.078632966 0.0051849326 0.11446581 0.072075464 -0.015049409
0.0044928263 -0.044513047 -0.0007933393 -0.098630905 -0.009045563 0.034630388 -0.031833485 -0.026364155

fc.0.bias f4 [352]
00000000: 83fa 193d 23f2 bebc b44d a8bd 8fcd ef3d
00000010: fc2d c23c 8b52 c53d fc0e f63d 0211 90bd
00000020: 2f1f 9d3d 3a6d 15bd c4b8 10bc b420 7ebd
00000030: 9748 59bc b041 ad3d e164 573b 5366 1ebb
00000040: 72ac 3cbc 573d ff3c 9e9a ad3c e011 dcba
00000050: a5c5 a6bc e829 8b3c 470c 3c3d 4747 f93d
00000060: 640a a23d a299 08bc 5d6c 9e3d 1383 883d
00000070: 04b1 ca3c 5a05 e03d fec8 093c f7a0 f13c
00000080: cfc9 7ebc 7ce4 223d 2207 423d ba48 823d
00000090: 3f99 353d b3a1 a4bc 4612 4b3d 4921 7fbd
000000a0: d362 8b3d 203d 3a3a 9f59 c33d 80b4 e13b
000000b0: 9329 0d3d 2914 eb3d 5f78 c03d 186b 0c3d
000000c0: 55a5 4d3d 1ad8 e03d f5cd 4f3c ae68 c53d
000000d0: 9a6a 9e3d 8275 1d3d 69a4 0abd c5b4 673d
000000e0: d85c 05bd bc72 493d a8f2 c23d a7a6 8e3d
000000f0: 43fa ce3d d473 093e 3152 353d 7df9 38bd
00000100: 9f18 8e3d 9a0e 103e e743 1b3d baca 25bd
00000110: 4335 febc 73ac 43bc e4ea e83c d4f0 d1bc
00000120: 905c 2e3d 00d3 23bd 66e4 933d c844 d23c
00000130: 8111 5c3d 2d49 b8bc f176 2a3c 3bca 6dbc
00000140: 73dc ff3c 57b4 433b ec51 233d fb5e e0bc
00000150: 1932 aabb f3fb 9f3d 3b97 703d a820 6f3b
00000160: 6aea ec3d e39a 3f3b 08dd 413d db8b 4c3d
00000170: 9c09 be3d dd57 93bd dfe2 973d fa24 c53d
00000180: 0357 a2bd 184f 62bd b78c b83d f6ab 833d
00000190: c418 cf3d eb8d 56bd 5399 e93c d92c e63d
000001a0: fa80 cfbc b9a5 bd3d 228d 13bd a59e 4e3d
000001b0: 7462 9b3c 5172 1e3b bc53 01bd 81cb a03d
000001c0: e383 133d 1d2e 2dbd 09c6 473d cb3d 413d
000001d0: 59cf e03c 729c 32bd 6b50 8d3d 65fa 28bd
000001e0: 26b6 903d f2cd 68bd b5d2 dbba c324 d63c
000001f0: cbcb f8bc b03b 90bc d807 6e3d d813 c93d
00000200: d264 27bd 6454 2ebd df28 873d d450 533d
00000210: c483 91bd 9d8b 503c e353 88bd 9e0e 303d
00000220: 802b 7dbc 2433 4f3c cfe6 a43c d67c 25bc
00000230: 9feb 943d 817b 86bc 78e0 95bc 42cf de3c
00000240: 5e6d c53d 1752 9abc 875f 723c 9e77 d93d
00000250: 28b5 803d 7bc7 00bb df62 a63d fd9a 8b3d
00000260: 954e 3f3d bc55 38bd 3dd5 713c 1ace 98bc
00000270: 3299 cf3d bb7c af3d 17c2 c93b 4703 543d
00000280: 0dd2 ba3a 8a05 ef3d 9261 c93b 877c cb3d
00000290: 7aa0 d63d ca4d b53d 63cb c3bb d179 27bc
000002a0: a0c3 3a3b f5ad 5abb b403 55bd 1b89 cf3d
000002b0: 925f 84bd c0e6 743c ee80 d13c a587 bb3d
000002c0: c2b3 72bd 5430 0d3e c4e5 8c3c aa00 183c
000002d0: 0e5d 173e 8b90 563d ebf2 c93d d2f5 dbbc
000002e0: ca4e 64bd 565e e43c 3c9b 363d 0a73 0ebc
000002f0: 2d3d 9abb 7a6d 64bc 393c d2bc 87d4 cbbc
00000300: b00b 993d df2b 003d 85d8 a83d a089 69bc
00000310: a02a b73d a55b 023e f5fd b03d 3b91 19bd
00000320: bc5e 0f3c 38d4 9f3d f512 44bd b89a c83d
00000330: 906f cb3c 3ec5 c23d 45a2 2f3d 03cf 1b3d
00000340: f48f 433d 4615 633c 3705 8a3c 6e82 c83c
00000350: 59a0 77bc f08b 1bbd c4bd 843d d1cb 873c
00000360: caaf 7bbc 3fc9 b83d c8c1 a43c e1a1 923d
00000370: ca9e b63c d7fd 463d d6be 10bd 5c3c bf3b
00000380: 3cdb 833b 1244 4a3c c735 aa3d 9c22 8bbd
00000390: 65ce 993d 347e a13d 6373 d8bc ad7f 2d3d
000003a0: 74ce 4a3d e55b 31bd 088a 0dbc 4acf cbbc
000003b0: 9635 d83c 164f 21bd b9d4 433d 4cc2 1e3c
000003c0: 2f22 193c 5f97 cc3d b2f2 d83d 19cb a73d
000003d0: 3537 cc3d b350 7d3d a9db 143d 480c 4bbc
000003e0: d52e af3b e096 0cbb ba11 aabc fb24 efbb
000003f0: 8be4 a73c 2dd5 b73d e3de d6bb 5ef5 d23d
0.037592422 -0.02330882 -0.08217946 0.11709129 0.023703568 0.096348844 0.12014577 -0.07034494
0.076719634 -0.03648112 -0.008833114 -0.062042907 -0.013261936 0.084597945 0.0032866525 -0.0024169877
-0.011515724 0.031157179 0.021191891 -0.0016789995 -0.020357916 0.016987756 0.045910146 0.12171798
0.07912138 -0.00833741 0.077355124 0.066656254 0.02474261 0.10938521 0.008409737 0.0294957
-0.015551045 0.03976868 0.047370084 0.06361528 0.0443356 -0.020096635 0.049577974 -0.062287603
0.068059586 0.0007104445 0.09538578 0.0068879724 0.034463476 0.114784546 0.09397959 0.03428182
0.0502065 0.10978718 0.012683381 0.09639107 0.077351764 0.038442142 -0.0338482 0.05656888
-0.032559246 0.049181685 0.09518939 0.0696538 0.101063274 0.13423091 0.044267837 -0.045159806
0.0693829 0.1406807 0.037906554 -0.04047654 -0.031031257 -0.011942971 0.028432317 -0.025627531
0.042568743 -0.039996147 0.07221298 0.025667563 0.05372763 -0.02249583 0.010404334 -0.0145135475
0.031233048 0.002986213 0.03987305 -0.02738904 -0.0051939604 0.078117274 0.058737975 0.003648797
0.115681484 0.0029236607 0.047329932 0.049938064 0.092791766 -0.07194493 0.07416319 0.09626193
-0.079267524 -0.05525121 0.09011214 0.06429283 0.101121455 -0.052381437 0.028515493 0.11239023
-0.025330056 0.09260125 -0.036023267 0.050444264 0.018967845 0.0024177025 -0.031573996 0.07851315
0.03601445 -0.042280305 0.048772845 0.04717807 0.027442621 -0.04360623 0.06900104 -0.04125442
0.07065992 -0.05683703 -0.001677117 0.026140576 -0.030370614 -0.017606586 0.05811295 0.09818238
-0.040867634 -0.04256095 0.065995924 0.051590756 -0.071052104 0.012728599 -0.06656625 0.04298269
-0.015452266 0.01264647 0.02012959 -0.010100564 0.07271504 -0.016416313 -0.018295512 0.027198438
0.09640001 -0.018837972 0.014793283 0.10618518 0.06284553 -0.001965015 0.08124327 0.06816671
0.0467058 -0.045003638 0.014760313 -0.018652964 0.101366416 0.08568712 0.0061571705 0.051760938
0.0014253274 0.11670978 0.0061456645 0.09935861 0.10479827 0.08852728 -0.0059751733 -0.010221914
0.002849795 -0.0033367847 -0.052005485 0.10133573 -0.06463541 0.014947593 0.025574174 0.091567315
-0.05925346 0.13787967 0.017199405 0.009277502 0.14781591 0.05238394 0.09860786 -0.026850615
-0.0557392 0.027877014 0.044581637 -0.00869442 -0.0047069998 -0.013942117 -0.025663482 -0.024881614
0.07472932 0.03129184 0.08244423 -0.014254004 0.08943677 0.12730272 0.086421885 -0.03749202
0.008750614 0.078041494 -0.04786964 0.09795135 0.02483347 0.09510277 0.04287936 0.03803922
0.047744706 0.013860052 0.01684819 0.024476256 -0.015113913 -0.03797525 0.064815074 0.01657668
-0.015361736 0.0902276 0.020111933 0.07159782 0.022292513 0.048581924 -0.035338245 0.005836053
0.0040239375 0.012345331 0.083110385 -0.067937106 0.0751007 0.078853995 -0.026422208 0.04235809
0.049513295 -0.043300528 -0.008638866 -0.024879117 0.02639274 -0.039382063 0.04781029 0.009689879
0.009346529 0.09989809 0.105931655 0.08193035 0.099714674 0.06184454 0.036342297 -0.012393065
0.005346159 -0.0021452233 -0.020760406 -0.0072981096 0.02049472 0.08976207 -0.006557332 0.10300706

fc.2.weight f4 [176, 352]
00000000: 8e61 ccbb fda9 af3d df23 863b 8979 bd3c
00000010: c110 88bb 390b a13c 13d2 b5bd c94f 86bd
00000020: 6e57 f6bc 6ab5 4dbd 1d68 233c b542 c43d
00000030: 8a64 e13c 6a68 b13d b8c8 2f3d a1cf 48bd
00000040: 36d0 0cbc 446f 523a 2d63 47bd 2557 b0bd
00000050: 5b77 523d 1a9f 2dbc 24f3 d53c 5297 933d
00000060: 5659 a8bd f3f3 a53c af3d c1bd 9ea9 b3bd
00000070: 5a83 97bd 0046 c5bd 739b a5bd cf23 16be
00000080: 9787 ad3d 949c 573d 02a9 1bbd cc70 8ebd
00000090: 8a71 97bd 22ca 48bd d07f abbc 81e8 9eba
000000a0: a397 cf3c 6b20 42bd e244 253d 976b 803c
000000b0: 474c a3bd bf04 04be 5e32 fbbd 109b f5bb
000000c0: 12e8 edbd 5c7d 40bd aaf8 603d c59a 05be
000000d0: ee93 c4bd 2fbd e9bd f4b1 7ebd 6010 e43c
000000e0: ca4d 11be cc49 8cbd fb61 813d 7574 fabd
000000f0: b8bb 1bbd c5ff f7bd d569 73bd 3ff8 2f3d
00000100: 6ed7 0fbb 2e76 dc3c a874 0a3d d282 febc
00000110: 5822 3cbd 08dc da3d d029 273d ff6a f7bb
00000120: 2d5c bdbd 0fe9 b1bd 637b 0a3e acc0 20be
00000130: 6c9c b6bd ad8a 8bbd 8589 743d 2b29 1fbd
00000140: f201 82bc f0b6 24bd 1dfe f4bb fca5 2e3d
00000150: 595e 3d3c f401 e53c ad80 09be 5c69 eabd
00000160: ad88 80bd 56ff d8bd 4d7b 0c3c fe73 12bd
00000170: 05fd 443d dc12 253c 8006 b4bb a267 3bbd
00000180: 82ae 18bd 2374 a73d 3779 60bd 006e ee3c
00000190: be09 17bd b986 6fbd c6e5 3b3d d5ce 18bd
000001a0: c092 043e f960 56bc 7d0f 003d 21d2 9138
000001b0: ae07 843d 2d08 d7bd ee11 30bc 4372 833d
000001c0: 8f26 993c 7c85 5a3b 4187 4cbd 36a7 3dbd
000001d0: 9e46 9b3c 12d1 d7bd d289 343c 458c bbbb
000001e0: b614 053d b3c1 97bd 0fed 073d a375 73bb
000001f0: 7d22 77bc 5add e7bc c1b2 173e b98d 9b3d
00000200: 63b3 cdbb bb98 8bbd 25ae 9a3d 8fd7 e4bd
00000210: 6416 433d a509 0fbc 25e6 b93d 94d5 d93d
00000220: abf9 a2bb 1189 9f3d d7f3 1738 db64 383d
00000230: f46d 1ebe 5a45 99bd 3fe3 663d fa12 86bd
00000240: 0d06 963d d4ca e9bc 21b6 033d 6e7e af3d
00000250: 5515 ffbd 00dd af3b dc53 26bc 997f d73d
00000260: 4123 f3bd 8485 3a3d 0061 83bd 162f 3b3d
00000270: 34ad 993d c019 c9bc ad4e 4ebd b33e 1a3b
00000280: db47 40bd 4447 80bd 7f75 85bd b5be b2bd
00000290: a30b 04bd a2e1 c33d 412a 753c bcb9 9d3d
000002a0: 8125 babc 800b c2bd d8d4 b13c f032 e53d
000002b0: 189e 3fbc 7cda ebbc 24a2 b73d 8b14 84bd
000002c0: a1d2 d2bd e940 6b3d 848e 34bd 0526 493c
000002d0: 01aa 873d 4702 19be ae8d 25bd 1f28 9cbd
000002e0: 825e c1bc e9ca 07bc 14c5 bebd 7600 b83c
000002f0: 9f63 3d3d a8b5 553c b451 cd3a 3520 a5bc
00000300: ae15 2e3d 4946 443b 0387 93bd d3df 8abb
00000310: ed5e 52bd f993 453b 614e abbd 5973 b7bc
00000320: b9e9 8bbd c6a1 9cbd 4126 9bbd 4ff8 f9bd
00000330: e345 513c 7b2e fb3c ce88 27bd 6dc1 133e
00000340: 5ef7 07be f1d7 d23d 9a9d 83bd 0f01 b5bd
00000350: fe89 753d d972 d63d 0cf4 82bd 8781 7d3d
00000360: 32fd 2d3d d7fd 883c be7e 05bd f24c bfbd
00000370: 01de 1b3d 8531 103d b950 263c 716e 9abb
00000380: 6a06 41ba 9880 9fbc 94d6 aabc 773f 98bc
00000390: 2526 74bc 8e06 12bd 6188 a63d b278 c43d
000003a0: fed7 c0bd af3a d6bd 48a9 8dbd b7f8 81bd
000003b0: 4967 d8bc 60e5 a4bd 5906 afbc 832e 8cbd
000003c0: ac28 4dbc f31f 483d b156 cd3d 3a41 5b3d
000003d0: 2931 ec3b 6707 db3d d911 fbbd 43a5 ff3c
000003e0: 7ca6 d23c 7d7c 85bd 648a 4d3d e353 5c3c
000003f0: 6d88 4dbd 20c5 7e3b 8d1b 64bc 709b b33c
-0.0062372154 0.085773446 0.0040936316 0.023129242 -0.004152388 0.019658672 -0.08877959 -0.065581866
-0.030070987 -0.050221838 0.009973553 0.09583036 0.027513761 0.086624935 0.04291603 -0.049026135
-0.008594563 0.0008027444 -0.048678566 -0.086103715 0.051383357 -0.010597015 0.026116915 0.072065964
-0.082201645 0.020257926 -0.09435593 -0.08772586 -0.073981 -0.09632492 -0.0808629 -0.14662097
0.08473127 0.05263956 -0.038002975 -0.06955108 -0.07394703 -0.049020894 -0.02093497 -0.0012123735
0.02534086 -0.047394197 0.040348895 0.015676303 -0.07973533 -0.12892435 -0.12265466 -0.0074952915
-0.116165295 -0.046994552 0.054924645 -0.13047321 -0.09598528 -0.11413037 -0.062181428 0.02783984
-0.1418983 -0.06850013 0.063175164 -0.12229244 -0.03802082 -0.12109331 -0.0594271 0.042961355
-0.0021948474 0.026911821 0.03380266 -0.03106824 -0.04593119 0.10686499 0.04081136 -0.0075505967
-0.09246097 -0.086870305 0.13523631 -0.15698498 -0.08916554 -0.0681356 0.05970146 -0.03885762
-0.015870068 -0.040213525 -0.0074765817 0.042638764 0.011558139 0.027955033 -0.13427992 -0.11445877
-0.06276069 -0.105955765 0.008574319 -0.03575515 0.04809286 0.010075297 -0.005493939 -0.04575313
-0.0372758 0.08176448 -0.0548031 0.029105186 -0.036874525 -0.05847809 0.045873426 -0.037306625
0.12946606 -0.0130846435 0.03126477 6.953278e-05 0.06446777 -0.10499606 -0.010746462 0.06418278
0.018695144 0.0033343723 -0.049933676 -0.046302043 0.018954571 -0.10537924 0.011019187 -0.0057235085
0.032490455 -0.07409992 0.03318506 -0.0037148974 -0.015083906 -0.02830379 0.14814283 0.07595391
-0.006277488 -0.068162404 0.07552747 -0.11173927 0.047628775 -0.008730327 0.090771 0.1063644
-0.0049736104 0.07789815 3.62283e-05 0.04501806 -0.15471631 -0.07483931 0.056369063 -0.06546588
0.07325373 -0.028539099 0.032156114 0.085690364 -0.12455241 0.0053669214 -0.01015183 0.10522384
-0.118719585 0.045537487 -0.06414986 0.0456992 0.07503739 -0.024548411 -0.050368 0.0023535907
-0.046943527 -0.06263593 -0.06516551 -0.08727781 -0.03223766 0.095645204 0.014963687 0.07701442
-0.022722961 -0.0947485 0.021707937 0.11191356 -0.011695407 -0.028790705 0.08966473 -0.06449231
-0.102940805 0.05743495 -0.044081226 0.012277131 0.066242225 -0.14942275 -0.04041832 -0.0762484
-0.023604635 -0.008288124 -0.093149334 0.022461157 0.046237584 0.0130437985 0.0015664608 -0.02015696
0.042501144 0.002994912 -0.07203486 -0.0042381077 -0.05136006 0.0030148013 -0.08364559 -0.02239387
-0.068316884 -0.07648043 -0.07575656 -0.12205564 0.01277301 0.030661812 -0.04090195 0.14429255
-0.13277957 0.10295094 -0.064265445 -0.088380925 0.059946053 0.10471124 -0.063942045 0.061891105
0.042477794 0.016722603 -0.032591574 -0.09340848 0.038053516 0.035203476 0.010151082 -0.0047128727
-0.00073633215 -0.019470498 -0.020854272 -0.01858495 -0.0149016725 -0.035650782 0.08131481 0.09593333
-0.09416197 -0.10460412 -0.069170535 -0.06346267 -0.026416438 -0.08051562 -0.021365331 -0.06844809
-0.012521904 0.048858594 0.10026301 0.053529 0.007208009 0.10694771 -0.122592635 0.031206733
0.025714152 -0.06517885 0.050180808 0.0134477345 -0.050178934 0.003887482 -0.013922584 0.021924704

fc.2.bias f4 [176]
00000000: 56b5 363d c564 85bd baa9 68bc 56ab 213b
00000010: 1df4 bb3c b231 833d 6191 a53c d3a4 d0bc
00000020: e8a9 1c3c d181 e1bc e65d 18bd 37cd 88bb
00000030: a970 523d 6123 393d a486 64bc 8e8b d93c
00000040: b883 8c3c 6a92 e43c 6812 393c 6030 5d3a
00000050: 8e55 653d 6028 dcbc b776 17bd 380e 433d
00000060: a2fe db3c bb27 be3c dcfc ed3c 7261 333c
00000070: c01c 6dbd 27a6 433c edcf 113d 1770 793d
00000080: 391f df3c b188 14bd a0b5 50ba 69f5 36bb
00000090: 01c9 4ebd 9b40 28bd 8764 b5bc 6007 40bd
000000a0: ab51 88bd 4301 39bd 3ef2 9dbd 40f4 0fbc
000000b0: 0d4a 7b3d 0323 80bc 3614 c4bc 186b cb3c
000000c0: 6f34 93bd a4f6 203d ed1f 7fbd bb55 b43c
000000d0: f378 c3bc 1c2d e43c 9fbd c6bb 999a 81bc
000000e0: 54eb bdbc 7fb1 80bc dd70 c8bc c50a 00bd
000000f0: 5a5b c0bb d846 97bc c080 b33c 0aa2 d4bb
00000100: 093e 383c 18f5 e3bb 2220 36bd 65bf 0dbb
00000110: a2ef 01bd d033 0bbc 5a50 97bc 777b 373d
00000120: 52a9 8338 afa4 97bd f439 013d a190 02bd
00000130: 7b0c 95bc 8e80 05bd 1d34 923c 80ba 3fbc
00000140: 364b e4bc bc77 fd3c 7cb8 43bc ea38 89bb
00000150: 755f 67bb b52e 323d 8e5f 71bd 2d8d 803d
00000160: f8b7 3dbd b566 51bd b334 62bd 6969 f13c
00000170: 6a09 053d 2518 3cbd 0f8c d7bd a281 633d
00000180: 10e1 2a3d 77f2 8b3c 1016 d9bc ab53 1a3c
00000190: b14f 1d3d f925 2fbd a663 babd 4031 ee3c
000001a0: dd95 e53c d84d 753b 2744 19bd 1838 3f3d
000001b0: 45a0 20bc e676 aebc ba15 27bd 6499 8dbc
000001c0: f61f b1bd 30f4 adbd c5d9 823c c6b2 4d3d
000001d0: f114 01bd b94e 473d a5c4 b5bc 4d91 49bd
000001e0: 7098 c33c 925a 4d3d 9b22 b6ba 34ee 81bd
000001f0: 9ac4 a9bc 0a78 703d 0c1b 26bd 45a5 89bd
00000200: efbb 60bb 0749 403d 0b34 b83c 0373 c2bd
00000210: 82da 06bb f182 f53c 1039 d9bc aa37 8bbc
00000220: bea3 3f3d 7910 ffba f257 43bd d606 a0bd
00000230: a5ed 853b 3779 903b d848 45bc 28ba ccbb
00000240: 87d4 c1bc 9692 debc ffcb 563b 0f88 063d
00000250: 84eb 04bd 92be a7bd 6226 61bc 46ac 85bc
00000260: e00b d8bc 1bcd f1bc 279d 3cbd 2363 14bd
00000270: 8900 e9bc 0708 83bd 9375 c33c 65a8 d13c
00000280: 8eab a03d 0c3a 8d3d 0db0 e33c 9fd9 583c
00000290: 8acd 1fbd 433c d1bc 1ae5 9d3c 4a76 0b3d
000002a0: adf9 423d 6290 5cbd bb6d 08bd f2db a8bd
000002b0: ec2d 213d 7823 02bd 2de7 cebb d832 583c
0.04460653 -0.06513361 -0.014200622 0.0024668775 0.02294355 0.06405963 0.020210924 -0.02546922
0.009561993 -0.027527722 -0.037198924 -0.004174854 0.051376972 0.045199756 -0.013948116 0.026555803
0.017152652 0.027901847 0.011295892 0.00084376894 0.055989794 -0.026874721 -0.03697845 0.047620982
0.026854817 0.023212304 0.029051237 0.010948526 -0.057888746 0.011941469 0.035598684 0.060897913
0.027236568 -0.03626317 -0.00079616345 -0.0027917272 -0.05048466 -0.041077238 -0.022142662 -0.046882033
-0.06656202 -0.04516722 -0.0771222 -0.008786261 0.061349917 -0.015641695 -0.023935419 0.02483134
-0.07187735 0.039297715 -0.062286306 0.022013536 -0.023861384 0.027853541 -0.006065085 -0.015820788
-0.023183502 -0.015709637 -0.02446788 -0.03126027 -0.005870265 -0.018466398 0.021911979 -0.006489043
0.011245259 -0.0069567077 -0.044464238 -0.0021628973 -0.031722672 -0.00849624 -0.018470932 0.04479548
6.278105e-05 -0.07404458 0.03154941 -0.03187621 -0.018194428 -0.032593302 0.017847115 -0.01170218
-0.027867895 0.030940883 -0.01194584 -0.004187693 -0.00353047 0.043501575 -0.05892902 0.06276927
-0.046318024 -0.05112334 -0.05522604 0.029469209 0.03247968 -0.045921464 -0.10524761 0.05554355
0.041718543 0.01708339 -0.026499778 0.009419362 0.038406078 -0.042760823 -0.09101038 0.029076219
0.028025562 0.0037430432 -0.03741851 0.046684355 -0.009803836 -0.02129693 -0.040792204 -0.017285056
-0.08648674 -0.08493841 0.015972981 0.05021932 -0.031514112 0.04865906 -0.022188494 -0.049210835
0.023876399 0.050135203 -0.0013895811 -0.06344262 -0.02072363 0.05870823 -0.040553138 -0.06720976
-0.0034291705 0.046944644 0.022485754 -0.09494593 -0.0020577018 0.029969664 -0.026516467 -0.016994316
0.046787016 -0.0019459865 -0.047691293 -0.07813804 0.0040871673 0.004408981 -0.012041293 -0.0062477775
-0.023660911 -0.027169507 0.00327754 0.0328446 -0.032451168 -0.08190645 -0.013742061 -0.016317498
-0.02637285 -0.029516747 -0.04604831 -0.036227357 -0.028442638 -0.063980155 0.023859775 0.025592992
0.078452215 0.06895837 0.027793908 0.013235479 -0.039014377 -0.02554143 0.019274283 0.034048356
0.04760139 -0.05384863 -0.033307772 -0.08245076 0.039350435 -0.031772107 -0.0063141794 0.013195716
