inventory/model.pth (torch, 483857 bytes, 16 tensors)

conv.0.weight f4 [32, 3, 5, 5]
000000 31 c7 0b bc 8e 91 d2 3d b9 ad 9d bc d9 fe 02 3d
       -0.008531378 0.102816686 -0.019247876 0.031981323
000010 9e 0c a2 bd f0 77 ac bd 63 e1 2e bd 4d 8e a1 3c
       -0.07912563 -0.08421314 -0.042695414 0.019721175
000020 e5 08 a5 3d 66 ac cc bd f1 c8 94 3d 12 75 b5 bb
       0.08058337 -0.0999382 0.07264889 -0.0055376375
000030 89 87 28 bd f5 cc 51 3d 5f aa d3 3c ed 96 cf 3d
       -0.04114488 0.051220853 0.025838075 0.10136209
000040 8c 58 84 bd 1a ef aa 3d 17 dc 1e bb 19 6f 62 bd
       -0.064622015 0.08346386 -0.002424007 -0.055281732
000050 13 7a 4d bd b5 c9 ea 3d 4b 9f 83 3d 39 81 cc bd
       -0.050165247 0.11464254 0.06426867 -0.09985585
000060 60 fe f3 3d 23 91 b1 bc c5 b8 a3 bc 83 9d 3e 3d
       0.119137526 -0.021675652 -0.019985566 0.046536934
000070 7d 10 66 3b 55 11 b9 bd 51 e6 f4 bd c1 96 b1 bc
       0.0035105043 -0.09036509 -0.11957992 -0.02167833
000080 37 dc 7d ba 46 21 ab bd cf b2 f5 3c 95 e3 0d 3d
       -0.00096839987 -0.08355956 0.02999249 0.034640867
000090 70 c2 80 3c 72 52 90 bd 11 12 02 3d d3 11 cb 3c
       0.015717715 -0.07046975 0.03175551 0.024788773
0000a0 dd 8a 23 3d 13 ae 99 3d 73 9e 37 bd a4 f4 2a 3d
       0.039927352 0.07503905 -0.044828843 0.041737214
0000b0 73 42 ab 3c 6e a5 0b be 5d f7 64 3d 10 62 3f 3d
       0.020905709 -0.13637325 0.055899967 0.04672438
0000c0 f5 54 39 bd cb fc 47 3d 7b 9e 0e bd 3f ff 8f bd
       -0.045247037 0.048825067 -0.034819108 -0.07031106
0000d0 46 e6 36 3a 2e 74 58 bd 35 34 df 3d f1 99 dd 3a
       0.00069770624 -0.052845173 0.108986296 0.001690684
0000e0 8f 80 8a bc c3 72 80 bd c1 b3 f4 3d b2 25 64 3d
       -0.016907005 -0.06271889 0.11948348 0.05570001
0000f0 73 69 d8 bd 95 4d 64 bd c9 06 c2 3d 28 46 a9 3c
       -0.10566988 -0.05573805 0.094739504 0.020663336
000100 e4 0e 57 3d 3f bf dd bb ca fe e4 3c 49 58 b2 bd
       0.052504435 -0.006767183 0.027953524 -0.08708245
000110 57 ad bd bc 17 c2 f2 3d 5d 6c 1c bd e5 16 01 be
       -0.023153944 0.11853426 -0.03818928 -0.1260639
000120 5c 4a 48 3c c8 02 df 3d 3a 6c 46 bd 56 0c 17 bd
       0.01222476 0.10889202 -0.048443057 -0.036877
000130 44 77 67 3d 75 4e c1 3d ed 5c 36 bd 55 bf 38 bd
       0.056510225 0.094387926 -0.044522215 -0.045104343
000140 1a 6a b0 3d 8b 1b 00 bd d0 9d b9 bd bf 4e b7 3d
       0.08613987 -0.031276267 -0.090633035 0.089505665
000150 a5 a5 98 3d a1 2e 20 bc 93 8e e3 bd 30 af b4 3d
       0.07453469 -0.009776742 -0.11111178 0.08822477
000160 8a 09 c2 3c c1 94 d9 3d 5f 1f c4 bd ca b4 95 3d
       0.02368619 0.10624076 -0.09576296 0.073098734
000170 15 32 88 3d 60 5a ad 3b 5e fd e5 bd 83 b9 59 bd
       0.066501774 0.0052903146 -0.112299666 -0.053155433
000180 03 aa 53 bd 71 5e 03 be a6 17 f9 bd 10 6c 94 bc
       -0.051675808 -0.12828995 -0.12162714 -0.018117934
000190 8d 44 f5 3d e2 3a b2 bd f5 5b 12 3d 42 a5 a4 bd
       0.11975966 -0.08702637 0.03573223 -0.08039333
0001a0 de 61 c8 3d 91 86 f9 bc 9d 29 e7 3c be 3a 95 3d
       0.09784292 -0.030459674 0.028218085 0.07286595
0001b0 1b 46 e9 3d aa 4e 80 3d 97 5d 9a bd 2f dc 5a ba
       0.11390325 0.06265004 -0.07537382 -0.000834885
0001c0 79 b4 0f 3d aa 8f ee 3d da 31 b5 bd 20 02 e4 3d
       0.03508422 0.116484955 -0.08847399 0.11133218
0001d0 11 3c 7a 3d 99 03 97 3d a8 53 41 bd cd 24 c2 bd
       0.06109244 0.07373733 -0.04719892 -0.094796754
0001e0 9b 28 1a 3a 2e 5a 8a 3d 3d 24 f1 bd 5e 16 b6 bd
       0.00058806845 0.06755482 -0.1177449 -0.08890985
0001f0 68 01 da 3c f8 90 82 bd a4 24 09 3e 7a 09 9b 3d
       0.026611999 -0.06375307 0.13392884 0.07570167
000200 0b 56 c7 bd 3f ab e7 3c 56 d8 6d bd 7c 8e b9 3b
       -0.09733208 0.028279899 -0.058067642 0.0056627374
000210 99 be 8a bd 32 0a 7d 3c 68 ce c3 3d 00 1f 00 bc
       -0.06774635 0.015444325 0.09560853 -0.007819891
000220 5f cd 94 3d 43 6c 02 be 88 98 c2 bd fe 80 ea bd
       0.07265734 -0.12736611 -0.09501749 -0.114503846
000230 3d 6e 12 bd 04 56 b9 bd 07 f0 ad 3d 3a 3b a4 3d
       -0.035749663 -0.09049609 0.08493047 0.08019109
000240 c8 ed 02 3d eb f7 ba 3c b4 36 aa bd 17 8e 0e bd
       0.031965047 0.022823295 -0.08311215 -0.034803476
000250 52 e3 8b bd c7 7d 4d 3b 9c d8 a0 bc 9e b4 95 bd
       -0.06830467 0.0031355487 -0.019634537 -0.073098406
000260 f9 de bd 3d d3 1f b6 bc 97 df ff bd 91 f8 57 bc
       0.09271044 -0.022231972 -0.12493818 -0.013181821
000270 2b 27 0e bd 76 69 d9 bd d8 f8 8b 3d 9e 6c 92 3d
       -0.034705322 -0.10615818 0.068345726 0.07149623
000280 33 37 ca bd 10 1c d1 bd 75 9a 36 3d b3 6d 89 3d
       -0.0987381 -0.102104306 0.044580895 0.067103766
000290 96 ed 9a 3d 6e 87 c6 3d 8a 7c cb bd 33 26 a2 3d
       0.07564847 0.096938 -0.09935863 0.07917442
0002a0 aa c3 93 ba 79 bb 76 bd 6c 91 34 3d d5 a5 c4 bd
       -0.0011273522 -0.06023738 0.044083998 -0.096019424
0002b0 cd 8c f2 bc c5 f3 be 3d ae 0c 90 3d 92 ba 6f bd
       -0.029608155 0.09323839 0.070336685 -0.058527537
0002c0 a8 1b 40 3d 5c 42 03 3e e4 5c c5 bd b9 be 87 3d
       0.046901375 0.12818283 -0.09636858 0.06628174
0002d0 ff 48 ea 3c b7 a0 53 3d 4e 8a 0c 3e 8a e7 97 bc
       0.02859926 0.05166694 0.13724634 -0.018543024
0002e0 55 4e bb bd 62 d0 d3 3d ae df bd ba 84 75 2d bd
       -0.091458 0.1034248 -0.0014486217 -0.0423484
0002f0 8c 52 77 3d e7 46 9f bb 58 d7 f1 3b 96 c6 b2 3d
       0.060381457 -0.004860747 0.0073804073 0.087292835
000300 c8 d0 79 bd 87 b5 b4 3d 64 a0 23 bd 75 c5 5c 3c
       -0.060990125 0.08823686 -0.039947882 0.013474812
000310 05 75 bd bd 03 d8 af 3c 86 e2 93 bd 93 b2 b2 3c
       -0.09250835 0.021465307 -0.0722094 0.021813666
000320 e7 02 ac 3d b9 2a a6 3c 77 22 a2 3b 78 98 45 bd
       0.08398991 0.020284044 0.004947956 -0.04824111
000330 32 27 29 bd 33 62 5a bd 83 0b 39 bd fe 70 e2 3d
       -0.041297145 -0.053316306 -0.045176994 0.11056708
000340 2d ed 3c bd 18 f5 c8 bc 30 b0 06 bd 3a a6 ef bd
       -0.046124626 -0.024530932 -0.03288287 -0.11701627
000350 76 d6 3d bd 33 95 a5 3d 30 7f c4 3c 5f 96 8e bd
       -0.046347104 0.08085098 0.023986429 -0.06962275
000360 2d fb c6 bc 15 7c c5 3b 18 df 24 3c cb 22 66 bd
       -0.024289692 0.0060267546 0.010062955 -0.056185525
000370 cb 8b 76 bd e5 d1 a5 3c 41 22 a6 bd 69 c1 e8 bb
       -0.06019191 0.020241687 -0.08112002 -0.0071031344
000380 ec 02 6e bd e6 4b 98 3d d2 a6 83 3c e8 61 fa bd
       -0.058108255 0.074363515 0.016070757 -0.122257054
000390 14 3b 67 3c 68 d9 c8 bd 86 a4 79 3d 90 50 89 3d
       0.014113206 -0.09807092 0.060947917 0.06704819
0003a0 51 c8 20 3c 8f ac da bd fc 17 b0 3d f5 ca 1a bd
       0.009813384 -0.10677444 0.08598325 -0.03779121
0003b0 58 da c7 bc f5 60 ac 3d 05 13 80 bd 2c a9 ee bc
       -0.024396107 0.084169306 -0.06253628 -0.029133402
0003c0 73 0a d8 bd 6d f2 68 bd ea 7b 64 bc 79 d6 13 bd
       -0.10548868 -0.05687182 -0.013945559 -0.03609321
0003d0 e7 af 12 bd 1b dd b2 3d 37 73 af bd 34 50 7a 3d
       -0.035812285 0.08733579 -0.08566897 0.061111644
0003e0 21 18 54 3d ea 62 64 bd 89 3e 06 bd ef 71 02 3e
       0.051780824 -0.055758394 -0.032774482 0.12738775
0003f0 de 1e b9 3d 30 53 a7 bc 0a b6 ea bd 82 cd 4a 3d
       0.090390906 -0.02042541 -0.114605024 0.049512394

conv.0.bias f4 [32]
000000 09 70 60 3d 0c 6c 90 3d bf 9a 52 bd 51 ab 1d bb
       0.054794345 0.07051858 -0.05141711 -0.0024058411
000010 5c 42 92 3d 13 bc ab 3d ab 1d f0 3c 8e cc 32 bd
       0.07141563 0.08385482 0.029311022 -0.04365211
000020 39 09 10 3d 9b e7 e4 3c 9c 86 8f 3d d9 19 70 3d
       0.035165045 0.02794247 0.070080966 0.0586184
000030 1d 02 e6 bd e9 c7 9c 3c 6c eb d6 3d 4a 76 cc bd
       -0.11230872 0.019138293 0.10494122 -0.09983499
000040 f0 3c 3b bd c6 b1 9d 3c 71 ef 83 3d 17 df a0 bc
       -0.04571241 0.019249808 0.06442154 -0.019637628
000050 10 6b e3 3a be fd 63 3d 7c 81 be bd 89 a5 ae 3d
       0.0017350633 0.05566191 -0.09302041 0.08527667
000060 2c 4b 77 3d ce a2 44 3d 15 80 83 3d 14 56 56 bc
       0.060374424 0.048006825 0.06420914 -0.013082046
000070 58 fc a0 3c 5f 53 d0 3d dc 6e e2 3d 16 5b d3 bb
       0.019651577 0.10172152 0.11056301 -0.0064500673

conv.1.weight f4 [32]
000000 29 1c 82 3f 00 80 7d 3f bd a2 7c 3f af be 79 3f
       1.0164844 0.9902344 0.9868582 0.97556585
000010 36 4a 81 3f 64 50 81 3f 49 b5 80 3f b9 97 81 3f
       1.0100772 1.0102658 1.0055324 1.0124427
000020 5e 34 7e 3f 64 06 7b 3f 3b 08 72 3f 7d ed 83 3f
       0.99298656 0.98056626 0.9454381 1.0306851
000030 e7 0e 8b 3f 6b 2c 83 3f 71 9e 74 3f 5a d1 7c 3f
       1.0863923 1.024793 0.9555426 0.98756945
000040 ce af 7f 3f 50 9d 81 3f 9c b1 7f 3f d9 4d 81 3f
       0.9987763 1.0126133 0.99880385 1.0101882
000050 7d ef 7c 3f f8 16 7d 3f 5c 84 80 3f 9d 4f 7c 3f
       0.9880293 0.9886317 1.0040393 0.9855898
000060 24 e9 76 3f 67 9c 81 3f 5d 32 80 3f 8f f8 7c 3f
       0.96449494 1.0125855 1.001537 0.9881677
000070 de d5 86 3f 54 b6 81 3f ce 04 7f 3f e9 50 80 3f
       1.0534017 1.0133767 0.99616706 1.0024692

conv.1.bias f4 [32]
000000 e0 4d e0 bc a9 94 f4 bb f7 c7 ee bc f4 1d 2b bc
       -0.027380884 -0.0074640107 -0.029148085 -0.010444153
000010 00 ae de bc 55 67 8b bd e3 5b 33 bd d8 b3 db bc
       -0.027182579 -0.068068184 -0.043788802 -0.026819155
000020 24 78 47 3c eb 3c 06 3d 21 20 e4 bb 18 a9 1d bc
       0.01217464 0.03277294 -0.006961838 -0.009622835
000030 a9 50 91 3c 1d b7 9c bc 68 8f f7 bb 94 80 07 bd
       0.017738657 -0.019130284 -0.007554937 -0.033081606
000040 e8 91 52 3c e1 b3 6e 3b 69 d6 b4 bc ac d7 1d bd
       0.01285217 0.0036423134 -0.022074895 -0.03853576
000050 10 f6 8e 3c b3 09 7c 3c 7e bc ce bc c7 ff a9 bc
       0.017451316 0.015383172 -0.025236364 -0.020751847
000060 c2 12 68 bc 7d 4d 47 3d b2 4d 30 3c 9f 20 62 3c
       -0.014164628 0.048657883 0.0107607115 0.013801723
000070 6b b3 a3 bd 48 37 f5 3c 4a 7d 89 bd 89 e8 48 3b
       -0.07993206 0.029933587 -0.0671335 0.003065618

conv.1.running_mean f4 [32]
000000 61 45 bf 3d 2a 27 9d bc bb f0 2a be 24 29 28 3f
       0.09339405 -0.019183714 -0.16693394 0.65687776
000010 69 75 eb 3d e5 cd 01 3e 94 80 17 bc 1f 80 f0 bd
       0.114970036 0.12676199 -0.009246964 -0.11743187
000020 d8 ca ff 3d 58 ca 1e 3f 1f f6 31 3f 9c 66 47 be
       0.12489861 0.620275 0.69516176 -0.19472736
000030 3f 07 a0 bd e4 d0 94 3b 99 4b be 3e 2c b6 3b 3d
       -0.07813882 0.0045415033 0.3716705 0.04582803
000040 26 96 86 bc 4a ad f9 bd aa 9e da be 37 7d 11 be
       -0.016429018 -0.121912554 -0.42699176 -0.14207922
000050 d9 33 5a be 49 22 0f be ac 04 4a be 7d a9 0e bd
       -0.21308841 -0.13977922 -0.19728345 -0.034829605
000060 87 98 9f 3e e2 ec aa be 36 71 ef 3c 50 55 f4 be
       0.31171057 -0.33383852 0.029228788 -0.47721338
000070 de 4e 5e bd ae cb 34 3e 74 c0 53 3e a0 78 85 3e
       -0.054274432 0.17655823 0.20678884 0.26068592

conv.1.running_var f4 [32]
000000 a2 60 1e 3c b0 3e 85 3c 20 6e 49 3c 28 3f 0a 3e
       0.009666594 0.016265243 0.012294322 0.13500655
000010 7a b8 bf 3b 41 77 09 3c 87 42 15 3c f3 f0 af 3c
       0.0058508487 0.008390249 0.0091101 0.021477198
000020 d6 de 85 3c fd 41 ba 3d 46 0f 0b 3e a6 b2 06 3d
       0.016341608 0.090946175 0.13580045 0.032885216
000030 c7 5b 32 3d ec 0b 5d 3c 23 9d 19 3d 59 5b 68 3d
       0.043544557 0.013491612 0.037503373 0.05672774
000040 46 a2 aa 3c 59 fa cc 3c 21 6d 98 3d 8e 99 4e 3d
       0.020829331 0.025021719 0.0744269 0.05043941
000050 07 fb 7d 3d 5e 37 16 3d 45 63 d4 3c 34 33 26 3d
       0.062006976 0.036673896 0.025926242 0.040576175
000060 b6 e8 95 3c 38 98 3c 3d 37 d1 d4 3b a2 77 5c 3d
       0.018299442 0.046043605 0.006494667 0.05382503
000070 69 5a 4c 3c 52 91 58 3c 9f 54 90 3c f1 b1 e2 3c
       0.012472727 0.013218241 0.017618475 0.02767274

conv.4.weight f4 [32, 32, 3, 3]
000000 c6 10 a2 3c 60 2f 48 3d 62 26 8f 3c c2 ec 13 bb
       0.019783389 0.048873305 0.017474357 -0.0022571539
000010 e6 75 c1 3b 6f 5d 4b 3d ce e4 79 bd b2 87 25 bd
       0.005903947 0.049649652 -0.06100922 -0.040412612
000020 ac d2 e9 bc b6 ff 29 bd d5 81 41 bd 2c ee 1d bd
       -0.028542839 -0.04150363 -0.047242958 -0.038557217
000030 8d 99 eb 3c 2d 05 3c bd 99 7f d3 bc bf c4 54 bc
       0.028759742 -0.045903374 -0.02581768 -0.012986361
000040 96 a3 6a bd d5 f5 4a 3c cc 4e 46 3d 0e 07 c5 3c
       -0.057284914 0.0123877125 0.04841499 0.024051215
000050 74 a2 40 bd e3 64 02 3d c6 7e 33 3d 42 6a cd 3c
       -0.047029927 0.031834494 0.043822072 0.025075082
000060 70 1a 32 3d 35 4c 29 bc cb be ce bc 78 f8 15 3d
       0.043482244 -0.010333111 -0.025237462 0.03661391
000070 08 69 6e bc 52 90 da bc 3a ed 4b 3d c6 ee 59 3c
       -0.014551409 -0.026680145 0.049786784 0.013301557
000080 c3 0e 25 bc 6e 8f aa 3c e2 d2 e7 3c 71 37 f2 bc
       -0.01007432 0.020820346 0.028298799 -0.029567452
000090 16 2a 4f 3d 9a d6 d5 bc 46 ad b4 3c c5 6a 13 bd
       0.050577246 -0.026103307 0.02205528 -0.035990495
0000a0 c9 f5 ab bd 1a a2 8c bd df af 3b 3c f3 00 e0 bb
       -0.08396489 -0.06866856 0.011455505 -0.0068360507
0000b0 e8 66 b0 3b 67 95 95 bc 7f b8 96 bc ad 87 b5 3c
       0.005383361 -0.018259717 -0.018398521 0.022159422
0000c0 35 f6 7f 3b 32 b7 8d 3b 0f 58 b7 3c 02 fd 36 3c
       0.0039056663 0.004324817 0.022380857 0.01116872
0000d0 48 e2 a0 3d a7 bf 21 3c 6c 57 0a 3d 26 58 a3 bc
       0.0785566 0.009872354 0.03377478 -0.019939493
0000e0 7c 96 7e bc 55 a4 0e 3d 4a df df 3d 30 21 0a 3c
       -0.015538808 0.034824688 0.10931261 0.008430764
0000f0 20 e0 6b 3b 52 b1 07 3a 33 3c f7 bc 94 79 41 ba
       0.0035991743 0.0005176264 -0.030180072 -0.0007380482
000100 79 00 18 bd dd 03 9a bc 61 47 cc 3c fc 5c 99 bd
       -0.037109826 -0.01880067 0.02493638 -0.074884385
000110 09 f3 d4 bb 9c 77 df bb ca c8 04 bd dd 62 be bb
       -0.0064986986 -0.0068196785 -0.03241805 -0.0058101253
000120 3e 26 89 3b 45 59 6e 3d 3e c1 26 bd a7 11 35 3c
       0.004185467 0.058190603 -0.040711634 0.011051572
000130 d9 7d 6d 3d cd 5d 81 3d 26 11 7d 3d d6 69 00 bc
       0.057981346 0.06316719 0.061783932 -0.007837733
000140 b7 db 88 3d 64 5a 1a 3c 13 6b cb bd bf ad f5 3c
       0.06682532 0.009420965 -0.09932532 0.029990075
000150 a6 a2 8a 3a 9d 29 32 3c fa 7a 75 bc d7 97 54 3c
       0.0010577037 0.010874179 -0.014982933 0.012975655
000160 b8 59 90 3b 1c ff 6d bd 9e 4c eb 3c 94 07 2f 3d
       0.0044052266 -0.05810462 0.028723057 0.042731836
000170 6d 23 09 3d 12 ce 40 3d 39 c3 6a 3d 24 d7 3d bd
       0.03348105 0.047071524 0.057315085 -0.046347752
000180 d6 d4 10 3d bc 12 02 3d 6e c5 38 3d 5c 67 8a bc
       0.035359226 0.031756148 0.04511016 -0.016894989
000190 95 c4 07 3c 2c 39 4e bc 29 08 1d 3d 88 37 dd bb
       0.008286615 -0.012586873 0.03833786 -0.0067510046
0001a0 a2 d3 f6 3c 31 bf 99 bc 21 51 08 3d 71 1b 4b 3c
       0.030130211 -0.018767925 0.033280496 0.012396679
0001b0 cc 02 16 bd 0c bb 22 be 3c 9a 28 bb ef d3 fb 3c
       -0.03662376 -0.15891665 -0.0025726696 0.030740706
0001c0 e0 99 8f bd 8e 6f da bc 95 19 b8 39 90 01 7c bd
       -0.07011771 -0.026664522 0.00035114275 -0.061524928
0001d0 19 ea 12 bd 78 09 74 3d 64 26 24 bd b5 49 dc 3a
       -0.035867784 0.059579343 -0.040075675 0.0016806634
0001e0 40 62 37 3c eb ee 40 3d a7 01 3f bc 9e a9 17 bb
       0.011192858 0.04710285 -0.011658109 -0.0023141871
0001f0 86 de 8a bd be d9 02 bd 87 06 8e 3b 0c f9 19 bc
       -0.06780724 -0.031945936 0.004334274 -0.009397756
000200 c3 d4 62 3c 2f 81 16 bd 0f 7f 49 bc e9 1f ff ba
       0.013844672 -0.036744293 -0.01229836 -0.0019464466
000210 2a b4 4c bd dd 20 83 bc 02 d2 e4 bc fa ed 2e 3b
       -0.049976505 -0.016006881 -0.02793217 0.0026692138
000220 0f e9 4d 3b d6 31 88 bd 65 64 8e bd 1f cb 40 bd
       0.0031419431 -0.066501305 -0.069527425 -0.04706871
000230 b6 12 88 3c 8f db fc bc bb f5 d9 bc 40 3c bd 3c
       0.016610485 -0.030866412 -0.026606431 0.023100019
000240 8f 9a 80 3d 89 d3 65 bd 43 0d 20 bd ab 5d 27 bd
       0.0627948 -0.05610994 -0.039075147 -0.040860813
000250 94 3e 05 bd f2 b7 73 ba 7d 90 5f bd 50 4f 26 bd
       -0.032530382 -0.00092971243 -0.054581154 -0.040602982
000260 84 19 54 bd 4a 14 15 bd d4 1a ce bc 7d 53 d9 bc
       -0.051782146 -0.036396302 -0.025159277 -0.026529068
000270 4a a9 7b 3d fb 61 ae 3d 43 a4 0d 3d d8 cb 8d bc
       0.061440744 0.08514782 0.03458048 -0.017309114
000280 c5 a9 8e 3d fa 3b 91 3d d9 6c 69 bc 92 e4 70 3d
       0.06965975 0.07091518 -0.014247143 0.05881173
000290 48 2a 85 bc 9e cc 37 bd 19 02 8b 3d 60 1a c5 bc
       -0.016255513 -0.044872873 0.067875095 -0.024060428
0002a0 aa 07 41 3d 13 51 50 bd aa 71 94 bb c9 fa aa bc
       0.04712645 -0.05085857 -0.0045301514 -0.020871537
0002b0 94 55 17 3d 88 51 cf 3c 54 02 30 3c 63 f3 39 3c
       0.036946848 0.025307432 0.010742743 0.011349532
0002c0 45 56 07 3c 02 0c 10 3d d4 6b 98 3d 64 71 ad ba
       0.008260314 0.0351677 0.074424416 -0.0013232646
0002d0 d1 2e 2d bd ac be 4d 3b a6 54 11 3d 49 98 52 bd
       -0.042280976 0.0031394167 0.035481118 -0.05141476
0002e0 ac 6d 99 bd 56 ee 83 3c 82 27 02 bd 27 1e 37 bd
       -0.074916214 0.016104858 -0.03177596 -0.04470649
0002f0 5a cb 65 bc d6 93 40 3c 64 76 88 bc ac 04 0c 3c
       -0.014025534 0.011753997 -0.016658016 0.008546036
000300 76 1e 4a bc 93 c1 a6 3c ba 5d a4 3d d9 12 2d 3d
       -0.012336364 0.020355975 0.080256894 0.042254303
000310 3e db aa 3d 29 74 21 3d 5c 2c 80 bd 74 c8 57 bc
       0.083425984 0.03941742 -0.06258461 -0.01317035
000320 c6 4e 42 bb dc b3 4c b9 87 d3 38 bd 05 cd 86 3d
       -0.0029649003 -0.00019521959 -0.045123603 0.06582073
000330 69 c9 14 3d f4 f0 11 ba 5c 5f a4 3c ca d7 11 bd
       0.036324892 -0.0005567216 0.020065002 -0.035606183
000340 26 bd 8f 3c 8e b6 22 3c 67 c7 0b 3d 91 68 aa 3d
       0.017546248 0.00993122 0.03412571 0.08320726
000350 41 cf 0f 3d 5d d9 84 3b 93 bd 1f bc cb 61 a1 3c
       0.035109762 0.004054232 -0.009749788 0.019699952
000360 d7 46 09 3d 48 ca 01 3d e3 6f 03 bd 7b 52 14 bd
       0.033514824 0.03168705 -0.032089125 -0.036211472
000370 51 43 13 bd 93 4f a4 ba c9 f8 8a 3c 75 53 ea bc
       -0.03595287 -0.0012535922 0.016964333 -0.028604249
000380 e2 5c 43 bc 30 38 97 3c a5 fc 89 bd c4 fd 01 3d
       -0.011924 0.01845941 -0.06737641 0.03173615
000390 8c 86 5d bd 89 18 27 bd 29 8d 89 ba 78 75 60 3c
       -0.054083392 -0.040794883 -0.001049434 0.013699882
0003a0 0e 96 62 3d 1d 23 ca 3c 3b 58 78 bc 19 fe f0 3d
       0.055318885 0.024674946 -0.0151577545 0.11767215
0003b0 26 42 84 bc 16 d1 c5 bc 9c 9f da 3d e4 d1 c4 3c
       -0.016144823 -0.024147552 0.10674974 0.024025865
0003c0 87 e1 61 3d 5e cf 04 3d 6c 2e 2a 3d 07 7a 41 bc
       0.05514672 0.032424323 0.041548178 -0.011808879
0003d0 bf 0e e4 3c e1 c9 7a 3c 34 2e f1 bc 73 e9 99 bd
       0.027839063 0.015306921 -0.029440977 -0.0751523
0003e0 b1 24 37 bd 5e ac 6c bd 7e 1b 71 bd 65 11 1c bd
       -0.044712726 -0.05778157 -0.05886411 -0.038102526
0003f0 a2 b0 13 bd 3d 59 d5 3d b2 51 ef bc fb 02 50 3d
       -0.036057122 0.104174115 -0.02921376 0.050784092

conv.4.bias f4 [32]
000000 a4 f1 ae bb 65 e0 24 ba 85 6a a2 bc 27 5c 38 bc
       -0.0053388644 -0.0006289541 -0.019826183 -0.01125244
000010 77 05 f8 bc d5 92 26 3d 0a ee 0a 3d c3 d2 8c bc
       -0.030276043 0.040667374 0.033918418 -0.017190343
000020 13 4d 12 bd 03 cc d2 3b 10 c1 06 bd 7b 31 9b 3c
       -0.035718035 0.0064330115 -0.032898962 0.018944493
000030 3c c8 7a 3d df 5e 67 bd 6c 9b 5a bc 9f ed cf bc
       0.061226115 -0.05648696 -0.0133427195 -0.025381861
000040 1d 4e e5 3c 5e 3b 4d bc 1c 7b 8e 3b 1f 4b ba bc
       0.027991349 -0.012526361 0.004348172 -0.022740899
000050 91 6b 3f bd 50 f0 ca bc 8b a2 e3 3c 78 ed 90 ba
       -0.046733443 -0.024772793 0.027787467 -0.0011057099
000060 91 4f 3b 3d f6 3b 1e 3c f7 fc 4f 3c 34 33 f8 bc
       0.045730177 0.0096578505 0.012694589 -0.030297853
000070 cc 4a 00 3d 7a 43 89 3b 74 bb 11 bd 08 c5 2e bd
       0.03132133 0.004188952 -0.03557916 -0.042668372

conv.5.weight f4 [32]
000000 3d e4 8d 3f ac 52 8c 3f b5 5c 8d 3f 98 a5 8d 3f
       1.1085278 1.096273 1.1043917 1.106616
000010 0e 76 8c 3f bf bb 8d 3f 0a 15 8d 3f b5 eb 8c 3f
       1.0973527 1.107292 1.1022046 1.1009432
000020 a1 4e 8b 3f 2d 6e 8d 3f 41 91 8c 3f 91 df 8c 3f
       1.0883371 1.1049248 1.0981828 1.1005727
000030 47 cc 8e 3f f8 fa 8d 3f d2 62 8e 3f f4 2f 8d 3f
       1.115609 1.1092215 1.1123908 1.1030259
000040 ce c5 8e 3f b5 a7 8d 3f 7f 14 8c 3f 31 38 8f 3f
       1.1154115 1.1066805 1.0943755 1.1189023
000050 bb 79 8d 3f d3 c5 8c 3f df d6 8d 3f 43 5d 8d 3f
       1.1052774 1.0997871 1.1081198 1.1044086
000060 99 1c 8c 3f 1c 41 8d 3f db 6a 8d 3f 03 34 8d 3f
       1.0946227 1.1035495 1.1048235 1.1031498
000070 ec 36 8c 3f 9a 9d 8b 3f 11 c0 8a 3f 8c 8c 8b 3f
       1.0954261 1.0907471 1.0839864 1.0902267

conv.5.bias f4 [32]
000000 bd 0b b1 3d 29 50 ae 3d 8d fd ab 3d 40 a9 a7 3d
       0.08644817 0.08511383 0.0839797 0.08186579
000010 e6 b3 99 3d d0 01 98 3d 60 12 ac 3d 88 d8 b1 3d
       0.07505016 0.07422221 0.08401942 0.08683878
000020 99 cb 95 3d f6 a9 c3 3d ef 10 ab 3d 08 ac 9d 3d
       0.07314224 0.09553902 0.08352839 0.07698828
000030 68 1a ba 3d fa f3 a1 3d a9 27 b8 3d c0 a3 a0 3d
       0.09087068 0.07907863 0.089919396 0.07843733
000040 1c 8a a9 3d 00 7f ba 3d b1 87 a5 3d 27 b6 9b 3d
       0.082782954 0.091062546 0.08082522 0.07603102
000050 4a 3a ab 3d 6f 62 9b 3d c0 26 a5 3d d4 e5 b2 3d
       0.08360727 0.07587134 0.080640316 0.087352425
000060 1b e3 97 3d 49 29 b0 3d a9 08 af 3d 0e d8 b9 3d
       0.07416364 0.086016245 0.08546574 0.09074412
000070 62 fe ac 3d 93 0f a7 3d 96 67 a0 3d 01 9e ab 3d
       0.08446957 0.081572674 0.078322574 0.08379746

conv.5.running_mean f4 [32]
000000 95 dc be 3d 56 44 06 bf c6 1f 6c be aa d2 a9 3d
       0.093194164 -0.5244802 -0.23058996 0.08292134
000010 62 aa 99 be d4 76 af 3d 4f 95 6c 3c 9d f5 64 bf
       -0.30012804 0.085675865 0.014439895 -0.89437276
000020 2a 6c 8d bd 63 82 26 3e be 89 3d 3e 7e a6 03 bd
       -0.06905396 0.16260676 0.18509576 -0.0321412
000030 6c 3d 3b 3b b1 2a 5d 3d 6b f5 80 be 53 e1 5f 3e
       0.0028570546 0.05399579 -0.2518724 0.21863298
000040 9c f6 97 3d 81 b5 ce be 26 17 51 bd 12 16 15 bd
       0.07420084 -0.40372851 -0.051047467 -0.036398
000050 84 34 c1 3d c8 ac 5d 3e c9 72 10 3e 7a 49 8f be
       0.09433845 0.21647942 0.14106287 -0.27985746
000060 92 e8 18 3e 61 3a 0d bd ec 16 31 3e 60 ce 7a be
       0.14932469 -0.034479503 0.172939 -0.24492788
000070 8a 51 bd be 3e 38 21 be 1b 37 bd 3e c9 37 6f 3d
       -0.36976272 -0.15744111 0.36956105 0.05840281

conv.5.running_var f4 [32]
000000 42 f3 82 3c d2 74 82 3c 81 82 8f 3c d3 f1 c0 3c
       0.015985135 0.015924845 0.017518284 0.02355281
000010 4e 1d 56 3c 87 53 34 3c 50 31 b9 3c b0 f1 39 3d
       0.01306851 0.011006243 0.022606522 0.045396507
000020 d7 6f 55 3c fb 29 8c 3c ed 6e c6 3c ee 86 ee 3c
       0.013027153 0.017109862 0.024222815 0.029117074
000030 0f 2a 99 3c 1c 5a 53 3c bd f0 58 3c 81 4a 5a 3c
       0.018696813 0.012899902 0.01324099 0.013323427
000040 dc ba 85 3c e3 af 61 3c 16 b3 de 3c 13 92 4f 3c
       0.016324453 0.013774845 0.027185004 0.012669104
000050 24 19 42 3c bc 6c ae 3c 3c ab 5d 3c 3e 58 8f 3c
       0.011846814 0.021292083 0.013529595 0.017498132
000060 24 bd ed 3c 2c e2 b2 3c c3 6a e4 3c 2c 4f 8c 3c
       0.029020853 0.021836363 0.02788294 0.017127596
000070 07 44 ce 3c d1 84 f0 3c 07 82 0d 3d 88 1e b4 3c
       0.025178922 0.029360207 0.034547832 0.021987215

fc.0.weight f4 [352, 128]
000000 fa 14 bc 3d 1b 08 11 3d 02 c4 0a 3e be 15 c9 bd
       0.091836885 0.03540812 0.13551334 -0.098186
000010 0d 76 d8 bd 46 e2 09 3e 42 4c a2 bc f6 23 a8 bc
       -0.105693914 0.13465223 -0.019811753 -0.02052496
000020 1d a7 db 3c 01 60 26 3d c7 6d f8 3d 65 95 93 bc
       0.026813084 0.0406189 0.12130313 -0.018015573
000030 74 01 33 bd f6 19 aa bd 86 da 73 3d 4a 5e 26 3e
       -0.043702558 -0.08305733 0.059534572 0.16246906
000040 ac d9 26 3c c5 6e 63 3c 6e 46 37 3e 69 4f 10 3e
       0.010183733 0.01388139 0.1789796 0.14092793
000050 95 95 dd 3b 3f 63 6f 3d 6e 7c 79 bd ca ed f6 bd
       0.0067622163 0.058444258 -0.06090968 -0.120570734
000060 0a 11 28 be 44 e5 64 bd 7d f7 bf bd 3f 4b ff bd
       -0.1641275 -0.055882707 -0.093733765 -0.12465524
000070 b8 ff f3 3d 57 dc cc 3d 3a 73 dc 3d bd 1d 2f 3e
       0.11914009 0.10002964 0.10764165 0.17101188
000080 06 d4 8d bd 79 bf fa bd 17 c1 ba bd f8 38 1f bd
       -0.06925206 -0.12243552 -0.0911886 -0.03887269
000090 d4 5e 0e 3e db 49 31 3e 3a a8 1e be e5 5e 9e bc
       0.13903362 0.1731333 -0.15493861 -0.019332359
0000a0 a6 e0 15 3d 13 f5 3d 3d 2f aa d8 3d bc 97 d9 3c
       0.036591195 0.0463763 0.10579335 0.02656161
0000b0 e1 0f 3c bd 5c f9 aa 3c 23 a7 0d 3e 94 dc 14 3d
       -0.04591358 0.020870857 0.13833289 0.036343172
0000c0 cd e8 22 3e a0 c1 97 3d 65 d3 2b 3e d3 1c 78 3d
       0.15909119 0.07409978 0.1677986 0.060574364
0000d0 df ef 15 be 71 22 44 3d f1 97 21 3d 5b fd df bc
       -0.14642285 0.04788441 0.039451543 -0.027342489
0000e0 00 dc ed 3c 63 bd 3c bd 30 6a 08 bd aa 60 a0 3d
       0.029035568 -0.04607905 -0.033304393 0.07830937
0000f0 22 cc 2f bc ae d7 98 bd f9 89 72 3b 1c 7d 3b 3d
       -0.010729821 -0.07463013 0.0037008508 0.04577361
000100 e2 bd b3 3d ca 54 bb 3d 44 01 1f 3e 27 e7 96 3d
       0.08776452 0.091470316 0.15527827 0.073683076
000110 44 a8 65 3b 2d 82 15 3d 60 61 87 bc 3d 8b dc 3d
       0.003504292 0.0365011 -0.016525924 0.10768745
000120 6f 42 f6 bb 1f 6b 71 bd 12 1e 17 be a6 01 e4 ba
       -0.0075152437 -0.05894005 -0.14757565 -0.0017395511
000130 18 e2 a5 bd c3 a1 91 3d 59 ff 81 3d 71 2a 92 3d
       -0.080997646 0.07110932 0.06347532 0.07137001
000140 8a 3e f5 3c a8 41 79 bd 14 30 44 bd f6 f1 98 bc
       0.029937048 -0.06085363 -0.047897413 -0.018670063
000150 2a 54 af bd a8 bb 2c 3d 43 d3 89 bc 0f cd 92 3d
       -0.08560975 0.04217115 -0.01682437 0.07168018
000160 6a ab f5 3d 4b b0 b0 bc 5d b3 c1 3d 43 2d d1 3d
       0.11995585 -0.021568438 0.09458039 0.10213711
000170 28 83 3f 3e 64 61 2b 3e bb b6 d6 bc 92 d8 0e be
       0.18702376 0.1673637 -0.02621018 -0.13949803
000180 b5 0f 8f 3d 49 a2 d0 bd a9 32 04 bd 81 92 07 be
       0.06985418 -0.101872034 -0.032274876 -0.1323948
000190 f9 1b 4c 3d ae f2 a9 bd d0 72 36 3e 3c 0c e6 3b
       0.049831364 -0.082982406 0.17817235 0.0070205014
0001a0 02 83 e2 bd 3b b7 94 bd 45 65 20 bc 9c 7e 05 3e
       -0.11060144 -0.07261511 -0.00978977 0.13036579
0001b0 61 43 8d bd 24 dc 7a bd 99 9b f2 3c 94 86 f4 3d
       -0.06897617 -0.0612451 0.02961521 0.11939731
0001c0 43 5a 34 bd de 0d b9 3d 16 a3 b9 bc 93 be 8c 3d
       -0.044031393 0.09035848 -0.022660773 0.06872287
0001d0 ed e0 a3 bd 7a 2b 73 3d 44 12 09 3e 49 f1 ce 3d
       -0.080018856 0.059367634 0.13385874 0.10104615
0001e0 37 4b 38 be 86 9e 70 3c 6c ff 0d 3a eb b3 fa bd
       -0.17997442 0.014686232 0.0005416784 -0.12241348
0001f0 24 a6 42 be d0 e2 7e 3d b5 09 43 bc 5f a6 2a 3e
       -0.1900869 0.062228024 -0.01190417 0.16665028
000200 77 d3 25 bd 45 0b f9 3b 50 5a 75 bd bb d4 12 bd
       -0.04048487 0.0076002204 -0.05990058 -0.035847407
000210 59 40 a5 bb f2 72 41 3d 5e f1 24 be 4a d5 41 3d
       -0.005043071 0.04722876 -0.161077 0.04732255
000220 3c 24 38 bd 59 27 15 bd cb 27 4f bd 85 ee fe bd
       -0.04495643 -0.036414478 -0.05057506 -0.12447838
000230 f7 c7 05 3e 28 cb 57 3d 62 64 85 3d ee 12 32 3d
       0.13064562 0.05268398 0.06513287 0.043475084
000240 b9 f1 28 bd bc 34 3a bd e8 c4 18 be ce 11 51 3c
       -0.04124615 -0.045460448 -0.14918864 0.012760593
000250 9b 93 e9 3d b0 3b b5 bd 1d 1a 01 3d e7 9d 14 3d
       0.11405107 -0.08849275 0.031519044 0.0362834
000260 ae dd 4d 3d c0 09 c8 bc 3a c9 4e bd f4 66 5b bc
       0.05026024 -0.024418712 -0.050484873 -0.013391245
000270 c5 6a 67 3d 5f 21 d7 bc ca 81 e4 3d e4 ad 51 3d
       0.056498308 -0.02626103 0.11157568 0.051191226
000280 0d c6 15 3d 1e b9 11 bc bb 5d 4e bc a2 fb e4 bc
       0.03656583 -0.008894233 -0.012595589 -0.02795202
000290 dc 23 0f 3e 1c f2 ae 3d 29 64 06 bc 66 79 fd 3d
       0.13978523 0.085422724 -0.008202591 0.123766705
0002a0 ed 17 42 3c 60 1a 6c 3d 4b ca 6d bc 86 63 85 3d
       0.011846525 0.05764234 -0.014513562 0.06513123
0002b0 30 fe ad 3d 75 90 bd 3d d4 58 e7 3d 85 19 00 bd
       0.08495748 0.092560686 0.112962395 -0.031274337
0002c0 49 54 ac 3d eb 53 c9 3d d1 7b c6 3d 77 48 1f 3e
       0.084145136 0.09830459 0.09691585 0.15554987
0002d0 1b 9d 2c 3d 53 a2 00 bd a5 a3 c8 3d 18 98 25 3d
       0.042142015 -0.031404804 0.09796838 0.04042825
0002e0 97 fb 2e bd 6e 17 c3 3d 28 69 d5 bd d0 a1 a2 bb
       -0.042720404 0.09525953 -0.104204476 -0.004963137
0002f0 9c 88 83 3c e4 44 80 bd f9 bc 10 3e 7a ef 7c 3d
       0.016056351 -0.0626314 0.14134587 0.06175182
000300 5b 8c 12 3e e6 7a 23 3e d2 b9 0e 3e 9d df 2d 3d
       0.14311354 0.15964851 0.13938072 0.042449582
000310 4e 44 14 3c 3b e2 1f 3d 99 c4 82 3c bf 62 29 bd
       0.009049488 0.03903411 0.015962886 -0.041353937
000320 f7 c5 1f 3c 7a a8 59 3d 64 7e 2d bd 05 c8 00 3d
       0.009751788 0.053139187 -0.042356864 0.031440753
000330 9c fa 48 3d 6d 94 c6 bb f7 6c b1 3d 8c d0 b4 bd
       0.049067125 -0.006060174 0.086633615 -0.0882884
000340 fd 31 83 3d 67 39 9d 3d 85 11 91 bb 88 f8 80 3d
       0.06406019 0.07676964 -0.0044271373 0.062974036
000350 0c db 22 3c eb 6c 11 3d 06 07 1b 3d f3 e7 8b 3d
       0.00993992 0.035504263 0.037848495 0.0683135
000360 c9 3b e7 3c 25 ae 1e ba 34 58 56 3d 3b ad 8c bd
       0.02822675 -0.0006053171 0.05233021 -0.068689786
000370 9e 24 cc 3d af 32 ea 3d 9c 7e 09 be 96 ca 59 bd
       0.09967922 0.114354484 -0.13427204 -0.053171717
000380 55 a6 de 3c 3f 8f 1d bd 02 25 fd 3c 5b 42 0a be
       0.027178923 -0.03846669 0.030901436 -0.13501875
000390 72 33 e0 3d 61 66 9c bd f4 40 02 be b4 f0 a6 3b
       0.109473124 -0.07636715 -0.1272009 0.005094612
0003a0 7a 85 39 3c 07 c2 3a bd 06 61 e4 bb 5a c5 ad 3d
       0.011323327 -0.045595195 -0.006969574 0.084849074
0003b0 be 9a 1b 3e d0 b4 0b bd d8 a4 c9 3d 40 ee c9 3d
       0.15195748 -0.034107983 0.098458946 0.09859896
0003c0 eb 27 04 3d e3 fb ea 3d ad 5f 19 bc ce aa 8a bd
       0.03226463 0.11473825 -0.00936119 -0.0677086
0003d0 89 20 3c 3d fe 10 97 bd fe 2d fd ba f6 86 92 3c
       0.045929465 -0.07376288 -0.0019316075 0.01788662
0003e0 1f 21 d5 3d 8f d9 08 3d 7b eb 5b bb 2e f8 bb 3d
       0.10406708 0.033410605 -0.0033557105 0.09178196
0003f0 4f 3f c0 3d 9b c6 42 bd 6c f3 fa 3d b3 18 d0 3d
       0.09387075 -0.047552686 0.1225346 0.10160961

fc.0.bias f4 [352]
000000 d3 b4 5d 3d d9 5f aa 3d af 5e 0e bd cd c1 21 3e
       0.054127526 0.08319063 -0.034758266 0.15796585
000010 73 c2 ac 3c d0 73 71 bd 0a 34 ed 3c 94 e0 83 bd
       0.021088814 -0.058948338 0.028955478 -0.06439319
000020 ad f2 48 3d 12 6e af 3d 12 39 6a 3d d0 6b 84 bc
       0.04905956 0.08565916 0.057183333 -0.01616469
000030 de 36 82 3d 3d 6c 8a 3d 5d 24 69 bd 1d 22 50 3c
       0.06358121 0.06758926 -0.056919444 0.012703446
000040 bf 6d f2 3d 57 df 9d 3c ee 5c b3 bc f2 30 96 bc
       0.11837339 0.019271536 -0.021894898 -0.018333886
000050 fb 6e 0e 3e 97 c2 d5 3d ac 64 c7 3b 47 7b ee bc
       0.13909523 0.10437506 0.006084999 -0.029111518
000060 93 eb ea 3c 24 f9 4f bd 76 3e 62 bc 8b 64 5f 3d
       0.028676784 -0.05077471 -0.013808837 0.054539245
000070 ca 0e 19 bc aa ad 25 3d bd 60 6d bc ab 26 9a bb
       -0.009341905 0.040448822 -0.014488396 -0.0047043166
000080 8c cd 3d bd 9f a2 db bc 58 ba 9a 3d 6f 44 01 3d
       -0.046338603 -0.026810942 0.075550735 0.031559404
000090 8e 08 ca 3d 1c d2 b6 3d 8e 5b 7b bd da 70 ba 3d
       0.09864913 0.08926794 -0.06136661 0.09103556
0000a0 2e 15 47 3d 77 6c 05 3d 8e 38 01 3e 5c dc a2 bc
       0.048604183 0.032574143 0.1261923 -0.019880466
0000b0 d3 89 27 3d df 92 d9 3d 05 76 6b 3d 22 99 4d bd
       0.040902924 0.106237166 0.0574856 -0.050194867
0000c0 cb 66 20 3d 87 ca fa bc 4d 69 26 bd 56 71 63 bb
       0.03916053 -0.03061415 -0.040627766 -0.0034705005
0000d0 1c 44 ca 3c ac 49 64 3d 62 f2 18 3c ca 0a 09 3c
       0.02469068 0.05573432 0.009335132 0.008364389
0000e0 e4 6d 12 bc 95 c0 34 3d b6 ce d8 bc 55 ef 8d 3b
       -0.008937333 0.044128973 -0.026465755 0.004331509
0000f0 26 3d 90 3c dd 9b 24 3d c6 94 a1 3d 67 92 12 bd
       0.017607283 0.040187705 0.078897044 -0.03578415
000100 23 e1 33 3d 43 85 fd 3c a5 b9 90 3d f4 c8 22 3d
       0.04391588 0.030947333 0.07066659 0.039742425
000110 85 47 0b bd 1e b3 09 3c e9 d0 93 bc e8 71 6e 3d
       -0.034003753 0.008404521 -0.018043952 0.0582141
000120 e3 9f 00 3e 75 1d 66 3d 8b 28 5e bd b5 f1 c4 3d
       0.12560992 0.056180436 -0.054237884 0.096164145
000130 5b 83 c8 3c 68 8d 9f 3d ce 41 ee 3b af b4 ac 3c
       0.024476698 0.07790643 0.007271028 0.02108225
000140 70 ac 9d bb 05 b5 68 3d c5 bd b2 3c bf 1e 3f bd
       -0.004811816 0.05681326 0.021819005 -0.04666018
000150 cc 3e c4 3b 7b 15 93 3d ad 3e 8d 3b e8 e0 04 bd
       0.0059889313 0.071818314 0.00431045 -0.03244105
000160 dc 26 dc 3d f2 5f 26 bd 4e e4 19 bd 52 1f 0e 3d
       0.10749599 -0.040618844 -0.037571244 0.034697838
000170 c8 69 15 3d 09 17 a3 3d 67 97 05 bd d4 5e 97 3c
       0.036477834 0.07963378 -0.03261509 0.018477835
000180 61 c2 a0 bc 59 11 a4 3d 8b 42 91 3d c0 34 99 bc
       -0.019623937 0.08011121 0.0709277 -0.018701911
000190 83 2e bb 3d 6e 8e bc 3c 6d e6 d7 bb 1b a9 b5 3c
       0.09139731 0.023017135 -0.006588748 0.022175362
0001a0 97 43 5d 3c 6b b3 d4 3d bb ec f5 3c a6 24 8f bc
       0.013504884 0.10385784 0.030020108 -0.01747353
0001b0 07 eb b8 3d 6f 15 d8 3d b1 8d 39 3c f4 7a 11 bd
       0.09029203 0.10550963 0.011325286 -0.035517648
0001c0 7b ed 18 3c 59 5a 1d 3d 7f 49 c1 3d 5e 31 c6 3d
       0.0093339635 0.03841624 0.094378464 0.09677385
0001d0 65 f0 8d 3d 8f 0b e6 3c 61 41 88 3d 62 e2 6c 3d
       0.06930617 0.028081683 0.06653095 0.057833083
0001e0 9f d9 65 3d bd 30 4e 3d 1b e5 93 3c 5a 50 c8 bb
       0.056115743 0.05033945 0.018053582 -0.0061130943
0001f0 df 08 1f bd 64 cd f5 3d 56 2e 9c 3d 24 cd 01 bd
       -0.03882682 0.12002066 0.076260254 -0.031689778
000200 69 50 bb 3d 47 00 ec bc 70 bb ec 3d 8c aa 69 3d
       0.091461964 -0.028808726 0.11559188 0.05704741
000210 3f 32 09 bc f1 21 25 bd 66 fc 1d 3d 70 45 dd 3d
       -0.008373796 -0.040315572 0.038570784 0.1080426
000220 b4 44 6a 3d 31 b3 81 3d 5b 92 99 3d 06 5e 34 3b
       0.057194427 0.06333006 0.07498618 0.0027521863
000230 b2 d1 f9 3d 23 c4 bd 3d 5a 3d 21 bc 59 25 8e bd
       0.12198199 0.09265926 -0.0098412875 -0.06940717
000240 cd b5 a9 3c e6 a0 48 bd a5 e8 86 bb 33 a1 9f bd
       0.020716572 -0.04898157 -0.004117089 -0.07794418
000250 c5 9e 21 bd 39 d3 a0 3d 67 b1 b0 3d 77 2e 61 3d
       -0.039458055 0.078527875 0.08627587 0.054975953
000260 ef 96 b6 3d d5 19 0a 3d 1a aa 58 3d 43 52 20 bd
       0.08915507 0.03371604 0.052896596 -0.03914095
000270 86 c8 a7 bd d3 c1 8a bc e6 09 85 3c 83 05 61 3d
       -0.08192544 -0.016938126 0.016240072 0.054936897
000280 05 99 55 3d 73 16 d3 bc 7a 04 97 3c 8a f3 8b bc
       0.052147884 -0.02576754 0.018434752 -0.017083902
000290 32 32 98 3d de 40 96 3c d3 93 3f 3d 20 e7 48 bd
       0.07431449 0.018341478 0.046771836 -0.049048543
0002a0 aa 80 7b 3d 0c 16 d4 3d f9 19 34 3d 2c 45 29 bc
       0.061402 0.103557676 0.043970082 -0.010331433
0002b0 31 72 a0 3d 41 dc 94 3d 74 be c5 3d 4e be 40 3c
       0.0783428 0.072685726 0.09655467 0.011764122
0002c0 34 84 dc 3b a1 2b 0d bd 1a 59 1c 3d 4d 6c ec 3c
       0.006729627 -0.034465436 0.03817091 0.028860236
0002d0 21 8f 10 bd 06 87 ef 3d 8f b9 a7 3b ab 67 33 3b
       -0.03529275 0.116956756 0.005118556 0.0027375023
0002e0 37 97 06 bd d8 7d 91 3d 93 35 c6 bc 95 57 d4 bc
       -0.032859053 0.07104081 -0.024195468 -0.025920669
0002f0 2c 5a 4e 3d bd 20 0b bd ca 67 bd 3d f5 43 b0 3d
       0.050378963 -0.03396677 0.09248312 0.08606712
000300 37 f9 b6 3d 0c c5 4b 3d 51 0f 78 3b 4f d7 e7 3d
       0.08934253 0.049748465 0.0037850926 0.11320364
000310 87 8b d4 bc c1 b2 bf 3d f7 48 40 3d a5 4d dd 3c
       -0.025945438 0.093602665 0.046944585 0.027014563
000320 d2 2b 9d 3d 36 d4 07 3c 57 64 dc 3c 39 55 6d 3d
       0.07674374 0.008290341 0.026903315 0.057942603
000330 60 a7 2c 3d 97 6d 89 3d 7a 6f 53 3c 2e f3 c1 bb
       0.04215181 0.06710356 0.012904996 -0.005918882
000340 84 b2 9f bc a2 d1 4f 3d fe b9 a3 3d 64 39 8e 3d
       -0.019494303 0.05073703 0.079944596 0.0694454
000350 cf ea 47 3c 96 03 56 bd ee a7 12 3d d4 6d 84 3d
       0.012201979 -0.052249514 0.03580468 0.064662606
000360 03 ea 85 bc f9 e7 b2 3d 4b e3 18 3c db 2f a9 3d
       -0.016346937 0.087356515 0.009331535 0.08261081
000370 1f f0 c7 3d e0 b5 6b bd 24 e7 6a 3d 26 d8 c4 3d
       0.09762596 -0.057546496 0.05734934 0.096115395
000380 e2 a8 2b bd 2d 84 de 3d 82 93 08 3c 22 97 60 3d
       -0.041909106 0.10865054 0.00833595 0.05483163
000390 d6 22 59 bd 90 c1 e2 bb ca 11 0f 3d 37 b4 12 3c
       -0.053011738 -0.006920047 0.034929074 0.008954099
0003a0 ec 99 0c 3e 16 0d f4 bc 43 d1 b2 3d bc ca 7f 3d
       0.13730592 -0.029791396 0.0873132 0.062449202
0003b0 8f 75 a2 3b ad 8d 7e bd 30 d3 09 bd f9 a1 17 bd
       0.0049578617 -0.06214683 -0.03364867 -0.037019704
0003c0 a5 5b 9b 3d bc b3 95 3b b0 ba db bb e2 e6 ca 3d
       0.07585839 0.004568545 -0.0067056045 0.09907319
0003d0 53 a3 08 bd 3b 33 67 3b d7 59 f7 3c 06 41 8f 3d
       -0.033358883 0.0035278338 0.030194206 0.06994824
0003e0 64 07 5e 3c d8 24 8b 3d 6c 6c bb 3d 25 40 0d 3d
       0.013551567 0.06794137 0.09151539 0.034485
0003f0 a5 ee 31 3d 1e 55 08 3d 55 9f 0a bd 24 c0 02 3e
       0.04344048 0.0332843 -0.033843357 0.12768608

fc.2.weight f4 [176, 352]
000000 b2 3e bc bd a3 9b 7b 3d 6c 4d ac bd 44 a5 db bd
       -0.09191646 0.061427724 -0.084132046 -0.10724881
000010 54 33 2a 3d df ab f7 bb 8b 34 01 3d 87 c4 8f bd
       0.041552857 -0.0075583304 0.03154425 -0.070199065
000020 7e e5 21 3c b9 c3 23 3c 43 97 00 3d 9e 44 ab 3d
       0.009881375 0.009995394 0.031394254 0.08362697
000030 64 37 11 3c 83 c1 ad 3c 70 60 7a ba 16 79 24 3d
       0.008863304 0.021210438 -0.00095511135 0.04015454
000040 6a 19 c0 3d 3e 5b 68 3d c9 fb 08 3d ce e7 6a 3d
       0.09379847 0.05672764 0.033443246 0.057349972
000050 5e 38 e3 bd aa 96 82 bc 86 0d c6 bc c6 ca ed bd
       -0.110947356 -0.015940983 -0.02417637 -0.116109416
000060 4a 36 0e be c1 8d 7e bd 34 c9 89 3d 43 10 a6 bd
       -0.13887897 -0.062146906 0.067278296 -0.081085704
000070 07 bc 50 3d 2f d1 ce bd cd 52 b8 bd 61 52 35 bd
       0.050960567 -0.10098492 -0.09000168 -0.044268016
000080 aa 59 80 3c 63 1e a8 3d 98 4b 98 bd 03 91 6c 3c
       0.015667755 0.08208921 -0.07436293 0.01443887
000090 52 af 33 bc ac 70 14 3c 2d 07 9b bd b1 64 de 3c
       -0.010967093 0.009060066 -0.07569728 0.027147623
0000a0 27 5e e1 bd ba cc 4f bd 6d d5 8c bc 98 73 a5 bd
       -0.11004286 -0.05073235 -0.017191613 -0.080786884
0000b0 41 70 b4 3d 34 ed 39 bc 6b 49 55 bd ca 59 15 3c
       0.08810473 -0.011348058 -0.05207197 0.009115646
0000c0 86 85 0d bd 4e 36 8f 3d 23 15 d0 bc e0 b9 43 3d
       -0.034551166 0.0699278 -0.025400704 0.047784686
0000d0 76 ed 7d bd 9e fb b0 3c da f1 8b bd ec cb 46 bd
       -0.06199404 0.021604355 -0.06833239 -0.04853432
0000e0 97 37 9b bd 53 e1 c0 bd f2 c3 87 bc e7 18 97 3d
       -0.07578962 -0.09417977 -0.016572926 0.073777966
0000f0 0b e1 c6 bd 3c 91 ff bc 1f bb 04 be 93 bd 91 bd
       -0.09710892 -0.031197183 -0.12962006 -0.071162365
000100 0f 89 86 bd 7f bd a8 3b e3 86 28 bd 6f 20 9f be
       -0.065691106 0.005149543 -0.041144263 -0.31079432
000110 36 ec df 3b b8 a4 8a 3c 04 e8 9b 3d aa a6 cd bd
       0.0068335785 0.016924247 0.07612613 -0.10041554
000120 ea 99 3f bd fa 2d a3 bd ae f2 3f bd 4b 2c 88 3d
       -0.046777643 -0.07967754 -0.046862297 0.06649073
000130 bf ba 52 bd 86 0a 46 3d ea 50 f3 bd 9a 93 c3 bd
       -0.051447626 0.04834988 -0.118806675 -0.09549637
000140 8b 2c fc bb c1 28 ca 3d 6c 82 0b be ef fa d9 bc
       -0.0076957396 0.098710544 -0.13623971 -0.026608912
000150 11 09 74 3d 9a bc 8d bc d0 44 5a 3d 93 8a 8a 3d
       0.05957896 -0.017301846 0.05328828 0.06764712
000160 c8 f2 bb 3c d9 f9 0b bc 2a 9d 80 bc 56 64 24 3d
       0.022942916 -0.008543455 -0.015699942 0.04013475
000170 0d e3 d9 bd 17 44 71 3d b0 24 04 bd f3 34 e4 3d
       -0.106390096 0.058902826 -0.03226155 0.11142912
000180 2a 07 e0 bd 4b 8a 04 be a3 bf a9 3c 3f ac f8 bc
       -0.109388664 -0.1294338 0.020721262 -0.03035557
000190 0c bb 97 3c 6d fb 01 be 3b 32 67 3d 6e f0 27 bd
       0.018521808 -0.12693568 0.056444388 -0.041000776
0001a0 56 6f 94 bc e6 cb b6 bd 1b 81 27 b9 98 61 e1 3d
       -0.018119495 -0.08925609 -0.00015974457 0.11004943
0001b0 68 d2 a7 bd 2b 1d 80 bc 14 2f 09 be 11 1a 6d bd
       -0.08194429 -0.015638908 -0.13396865 -0.057886187
0001c0 ef 1d 86 3d 93 c8 c3 bd 6f e2 72 bd b5 18 d0 bd
       0.06548678 -0.09559741 -0.059297975 -0.101609625
0001d0 49 85 f2 3b 08 e5 65 bd f9 85 f9 bc 7a c8 80 3d
       0.0074011427 -0.056126624 -0.030459391 0.06288238
0001e0 34 38 1d 3d ad 22 00 be c0 67 57 3c 6f 71 1b bd
       0.038383678 -0.12513228 0.0131472945 -0.037949976
0001f0 3d 15 2e bc f0 93 c3 bd e5 66 9a bd 75 eb db bd
       -0.010625181 -0.09549701 -0.07539157 -0.10738269
000200 cd e8 59 3d b5 12 d7 bd a8 0d 26 bc 3f 5f 64 3c
       0.05320053 -0.10501615 -0.010135092 0.013938724
000210 d8 eb 74 3d 44 48 81 3c a5 49 cc 3d e4 7e 43 bd
       0.05979523 0.01578153 0.09974984 -0.047728434
000220 5c d8 94 3d 07 cc c7 3d 8b c5 35 bd 0d 84 73 bd
       0.0726783 0.09755712 -0.044377845 -0.059452105
000230 dc 07 15 be 61 14 8d ba e4 78 93 3d 17 5d 15 3d
       -0.1455378 -0.001076352 0.072007924 0.03646573
000240 be 58 1e bc 60 75 32 bd c7 2b 5d bc 2a be 79 bc
       -0.0096647125 -0.04356897 -0.013499207 -0.015243093
000250 bd 08 a9 bd 0d 1e 41 3d a7 64 37 3d 14 ea 98 bd
       -0.0825362 0.0471478 0.044773724 -0.07466522
000260 fe e2 00 3d f6 41 5a 3d 26 fc e4 bc 9d f0 c4 3c
       0.031466477 0.05328556 -0.027952265 0.024040515
000270 e3 58 60 bd e7 c6 cd 3b 52 3d 85 3b 73 69 bd 3c
       -0.05477227 0.0062798145 0.004066148 0.023121571
000280 47 24 87 bd 0f 68 fe bc 47 da be 3d bb 3e 55 bd
       -0.06598716 -0.031055478 0.09318977 -0.052061778
000290 11 d0 04 bd 5a 56 84 3d d8 0b 56 3d b7 06 63 bd
       -0.03242499 0.06461783 0.05225739 -0.055426326
0002a0 d8 7a ce bd 67 7d 07 bd 3b 3a f4 39 1d 9d d1 3c
       -0.10082024 -0.033078577 0.00046582692 0.025587613
0002b0 a5 d2 31 3d da 9f aa bc f1 d0 a3 bd 16 f9 ed 3c
       0.043413777 -0.020828176 -0.07998837 0.029049437
0002c0 d1 03 90 3c 03 87 6f bd ff c2 87 bd 99 f2 e1 bd
       0.017579945 -0.058478367 -0.066289894 -0.110326
0002d0 68 17 8e 3d 04 aa 64 bd 37 e9 4b 3c 77 f7 ca bb
       0.06938058 -0.055826202 0.0124457395 -0.006194051
0002e0 a7 54 56 3d cb e1 ce bd 2f 89 ac 3c 4d 29 91 ba
       0.052326825 -0.1010166 0.021061508 -0.0011074931
0002f0 a0 b0 cb 3d 51 23 64 3d 4a 80 5f 3d ff d9 68 bd
       0.09945798 0.055697743 0.054565705 -0.056848522
000300 0b bd 31 3d c5 e2 95 3d d6 48 4a 3d d8 33 22 bc
       0.043393176 0.073186435 0.049385868 -0.009900056
000310 9c 0e bf 3c 3a e0 e2 bd 11 07 2e 3d 42 d6 32 3d
       0.023322396 -0.11077924 0.042487208 0.043661363
000320 e9 1e 95 3d 5c 84 8d 3d 02 7a e7 3c 56 0e 1d bd
       0.07281286 0.06910011 0.02825642 -0.03834375
000330 21 32 0f bd 40 c8 d1 bd db 85 e6 bd b4 aa a9 3c
       -0.034959916 -0.10243273 -0.11256 0.02071128
000340 aa 0c bd bd f3 f2 9f bc e5 73 19 bd d3 a6 f1 bd
       -0.09230931 -0.019525027 -0.03746404 -0.11799397
000350 37 0a 30 bd bf 1d 92 bd f3 d6 c2 3d b6 f6 28 bd
       -0.04297849 -0.0713458 0.095136546 -0.041250907
000360 87 ce 97 3d 4a e8 a7 3c 98 eb 8a 3d ff 66 79 bc
       0.07412439 0.020496506 0.06783217 -0.01522231
000370 4e 94 a9 bd 8b 99 87 3b 82 b2 77 3d ab cc c3 3c
       -0.0828024 0.004138177 0.060472973 0.023901304
000380 ca b2 1b bc 30 1c ae bd 4f 7c e1 bd 85 fb 79 3d
       -0.009503076 -0.0850147 -0.11010038 0.061030883
000390 c2 1b b7 3d 6a 4e 88 3d b8 de 30 bc d7 a0 1c 3d
       0.08940841 0.06655581 -0.010795288 0.038239326
0003a0 70 b8 92 3d 73 ec 74 3c 94 b7 75 3d c6 93 89 3c
       0.07164085 0.014948952 0.059989527 0.016794097
0003b0 c1 97 af bc 6a ea 03 3b 97 09 05 bd bf e3 07 bd
       -0.021434667 0.0020128735 -0.03247985 -0.03317618
0003c0 74 96 65 bc b2 92 75 bb 6b 47 ec 3d fc 9a ac 3c
       -0.014012922 -0.003747147 0.115370594 0.021069996
0003d0 aa 2f b1 3d 7e db d5 bd 79 d6 39 bd 02 5d cf 3b
       0.08651669 -0.104422554 -0.045370553 0.006328226
0003e0 67 0b 71 bd 16 65 03 3d 0c a8 02 3d 3d 4c db 3d
       -0.058848765 0.032078825 0.031898543 0.10707901
0003f0 47 01 da 3d d2 1a 45 bc 51 93 86 bd d9 3b 35 bd
       0.10644775 -0.01203032 -0.06571067 -0.04424653

fc.2.bias f4 [176]
000000 3a ef 93 3b d2 dd 99 3b 42 74 54 3c 78 31 9d bd
       0.004514602 0.0046956325 0.012967171 -0.07675451
000010 aa 63 76 3d 7d 7f a7 3c b9 a1 7c bc 83 a9 4e 3d
       0.06015364 0.020446533 -0.015419417 0.050454628
000020 8f 6b ba 3c 88 0d 0e 3d 9c 0b 97 bc e2 82 ab bd
       0.022756366 0.034680873 -0.018438153 -0.08374573
000030 a6 f8 5d 3d 53 0d 29 3d e8 f8 ad bc 3d 5c cb 3c
       0.054192208 0.041272473 -0.021236852 0.024824256
000040 1d 3c 72 3c b7 ed 84 bb b1 6e b8 3b 9a 8a 71 3b
       0.01478484 -0.004056658 0.00562843 0.0036856295
000050 7e 58 23 bd 3c b0 a9 3c bd 60 7d 3c f0 67 f8 3c
       -0.039879315 0.020713918 0.015464959 0.030322999
000060 20 9c dd 3c 6d d5 a7 3a 9b 0f b8 3c 76 e9 a3 bd
       0.027051985 0.0012804695 0.022468379 -0.080035135
000070 91 30 fa bb 09 8a d2 3c a7 c3 26 bc fd 03 37 bd
       -0.007635184 0.025700586 -0.010178483 -0.044681538
000080 5c 70 02 bd 37 15 05 bc ce 81 1f 3d 55 ce 4a bd
       -0.031845436 -0.008122734 0.03894215 -0.04951318
000090 1e 40 b3 bd 91 e5 fa 3c c9 7f 25 bc 8d 5f 17 3b
       -0.08752464 0.030627044 -0.010101267 0.0023097724
0000a0 7b c5 5d 3c 76 7c 8c bd f5 09 d0 bd 76 dd b8 3c
       0.013535853 -0.068596765 -0.10158149 0.022566538
0000b0 8b b3 47 3d 9f 47 e8 bc b1 20 83 bd 0d 1d 80 bb
       0.04875521 -0.028354464 -0.0640272 -0.003909713
0000c0 73 e0 92 bd b6 c8 64 bc 60 31 2d 3d 0e 11 ab bc
       -0.071717165 -0.013963869 0.042283416 -0.020882156
0000d0 f4 4b 8c 3c 66 ba 51 bd db 43 38 bd 9d dc 7a bd
       0.017126061 -0.051203154 -0.044986587 -0.06124555
0000e0 82 98 b2 bc 4e 53 2f bd 60 53 ab 3c 11 bd ad 3c
       -0.021801237 -0.042804055 0.02091378 0.021208318
0000f0 fb 85 1d bc fa d9 56 3b 00 35 81 bd c6 6e 5f bd
       -0.009614463 0.0032783733 -0.06308937 -0.054549
000100 a6 90 5b 3b cf f2 61 bc 21 bf f5 bb 54 70 7b bd
       0.0033502965 -0.0137908 -0.007499591 -0.06138642
000110 76 14 e8 bc 09 1d 5f 3d 1d 40 73 bd 59 2d a2 bc
       -0.028330069 0.05447105 -0.059387315 -0.019797014
000120 4c ba 11 bd a5 84 02 3c f6 ff 7a bd e6 52 86 3d
       -0.035578057 0.007966195 -0.06127926 0.0655878
000130 6e e7 d5 bc 01 49 99 3c b3 9f bb 3c f6 eb 16 3c
       -0.02611133 0.018711569 0.022903299 0.009211531
000140 51 1d 08 3a 83 32 53 3d 5f 03 71 bd a3 4b 3e bd
       0.0005192357 0.051561844 -0.058841106 -0.04645885
000150 d2 b3 a6 bc 4e 30 2c 3d bb bd 01 bc b4 19 a9 3d
       -0.020349417 0.042038254 -0.00791877 0.082568556
000160 a1 85 eb 3c af bd bc bc bc ce 9e bd b7 2b 01 3d
       0.028750243 -0.023039667 -0.07754275 0.03153583
000170 ee 42 64 bd 2e 62 84 bd 30 0a 95 3b 6e c3 ad 3c
       -0.05572789 -0.06464039 0.0045483336 0.021211352
000180 0a 73 0a bc 39 0e 07 bd c4 b5 67 bc 67 41 36 bd
       -0.008450279 -0.03297255 -0.014142457 -0.044495966
000190 5f 32 96 3c 50 be 71 3b d8 b2 bb bc fc ae ca 3c
       0.018334566 0.0036887117 -0.022912428 0.024741642
0001a0 a5 e3 fd 39 21 42 a3 bd ed 47 97 bb 2d eb 23 bc
       0.0004842553 -0.079715975 -0.0046167285 -0.010004801
0001b0 de df 52 3c 68 5a d5 bb 9f f7 4d 3d dc 0c d2 bc
       0.012870757 -0.0065110214 0.050284978 -0.025640897
0001c0 6e a3 ee 3c 3d 15 e5 bc 8a 8b 07 3d 3f 47 52 3d
       0.029130664 -0.027964229 0.03309206 0.051337477
0001d0 95 87 0e bd 30 28 3c 3c b8 c9 e9 bc 12 ad 27 3c
       -0.03479727 0.011484191 -0.02853857 0.010234134
0001e0 07 9c 16 3d ac cd 9b 3d c1 d4 08 bd 91 34 5e bd
       0.036769893 0.07607588 -0.033406023 -0.05424935
0001f0 52 2f a7 3c a4 54 83 bc 3a b8 ce 3c 5f ef 97 bd
       0.020408306 -0.01603157 0.02523433 -0.07418703
000200 33 a2 10 bd ed 42 cd 3c 0f d9 94 3c dc 8b 7a bd
       -0.035310935 0.025056327 0.018169908 -0.061168537
000210 44 e0 1c bd c2 86 6a 3d d0 27 d7 3c e6 33 bf 3c
       -0.038299814 0.05725742 0.026264101 0.023340177
000220 f6 76 c9 3c d0 8d 18 3d da ee 32 3c 07 9f 33 bd
       0.024592858 0.037244618 0.010921204 -0.043852832
000230 f4 be 95 3c 6f 83 6e bd ed e0 89 bc 7e e4 a2 bc
       0.01827953 -0.058230814 -0.016830886 -0.019884344
000240 2c 12 ae 3c 07 12 24 3d eb 32 36 bd 9c 10 26 3b
       0.0212489 0.040056255 -0.044482153 0.002533949
000250 8e a1 0b 3d 91 2d 80 3a 22 4e 75 3d 72 41 c5 bb
       0.034089617 0.0009779205 0.059888966 -0.0060197646
000260 30 8b 53 3d b7 eb 80 bb c7 97 d8 3c af b6 e2 3a
       0.05164641 -0.0039343494 0.02643956 0.0017296876
000270 c2 7e 7e 3d 4a 33 83 bd d6 0d ae bd ea 8a ca bc
       0.062132604 -0.06406267 -0.08498733 -0.024724443
000280 9f b8 97 bb a8 4c 3c 3d e4 ea 22 3c d4 69 be bb
       -0.004630163 0.045971543 0.009943698 -0.0058109555
000290 51 c1 88 3c b7 1b 05 3d 8d f8 a1 3c de 3d 1f 3d
       0.016693743 0.032497134 0.019771839 0.03887736
0002a0 37 e9 c6 3b 01 15 48 bd 32 cf 4c 3d c9 55 89 3c
       0.006070282 -0.048848156 0.050002284 0.016764538
0002b0 4f 09 67 bc 6d 60 0c bd a5 76 6d bd 20 29 56 bd
       -0.01410134 -0.034271646 -0.057974476 -0.052285314
