inventory/model.pth (torch, 161105 bytes, 16 tensors)

conv.0.weight f4 [32, 3, 5, 5]
0.046042323 -0.038185664 0.104844585 -0.0030480546 -0.11048329 -0.031231614 0.030820567 -0.0745006
0.0043538143 0.04488462 -0.023534274 -0.026703406 0.10784587 -0.081225604 -0.076639555 0.06104829
-0.10549313 -0.07622049 0.10100763 0.040745016 0.08858071 -0.11595714 0.06540093 0.03682346
0.050782908 -0.04559361 0.067937195 0.0048224204 -0.003036811 0.018128484 -0.104970634 0.06872512
-0.0011677985 -0.027470043 -0.05472585 -0.110644355 -0.036067247 0.016819129 -0.04192043 0.06745906
-0.04938018 0.03870182 0.06308182 0.091652736 0.009369672 -0.06741634 0.09220724 0.111114934
-0.086524494 -0.109274216 0.09201974 0.13236092 -0.06412583 0.012803032 0.021015331 -0.08140048
0.10998961 0.025155827 -0.08652713 -0.050933555 -0.027696017 0.07121401 0.111854285 -0.030918233
-0.042674378 -0.11934325 0.08641183 -0.004645031 0.07968577 0.05076293 0.059852093 -0.029793527
-0.08831023 -0.07450634 -0.0063105724 -0.07279934 -0.039389357 0.081596926 0.061838675 0.08927413
-0.060866874 -0.08585734 0.06513954 -0.01526514 0.06734874 0.009674107 -0.049295697 -0.013140407
0.08721885 0.02395887 0.059958305 -0.10798357 0.012980964 -0.04191492 0.07812167 0.07280159
-0.041464444 -0.055826116 -0.045444123 0.076722 -0.10797203 0.023175059 -0.057554115 -0.021576863
0.10903741 0.051445328 0.05800333 -0.05702516 -0.04026863 0.004193827 0.00365177 -0.030082827
-0.08769346 -0.025981795 0.08939589 -0.055900767 0.10025811 -0.105422415 -0.08305146 -0.015182422
-0.037721574 -0.09901744 0.061682068 0.12167653 0.107453786 -0.12968025 0.08236578 -0.10081502
0.027388545 -0.0349692 -0.023956398 -0.061492845 -0.0022733912 -0.040586036 0.10678185 -0.0537706
-0.054423075 -0.08370664 0.109204635 0.044203997 -0.115953885 -0.018226888 0.08886021 0.079567105
0.12609722 0.056140523 0.035054155 -0.07815795 -0.01983594 0.041106943 0.12830172 0.05941872
-0.09786997 -0.09414627 0.0888996 0.021753255 -0.001996867 0.023937369 -0.033196665 -0.06660295
0.099164665 0.019338032 0.03710981 0.016158888 -0.045477606 0.1176082 0.09111091 0.086882755
-0.07153306 -0.016782474 0.080525234 0.06803736 0.09538012 -0.08643183 0.012945099 0.050197292
-0.11517449 -0.05386968 0.06774046 0.0556356 0.050340835 0.100042015 0.06475626 -0.030930469
-0.09574436 -0.019294295 -0.025138553 0.052619476 -0.10965649 -0.009111108 -0.0586668 -0.023016324
-0.12434057 -0.038769383 -0.03663286 -0.06441018 -0.13036786 -0.10626917 -0.14082533 0.010418779
0.060803905 0.055643596 0.08073106 0.04803864 0.03901887 0.027675204 0.075836316 0.10421917
-0.045431558 0.10076162 -0.08595035 0.09396599 0.028299375 0.06782623 -0.103317514 -0.0076900474
-0.10750022 -0.079868056 0.027040483 -0.09966011 0.03306537 -0.08946384 -0.11913074 0.06317706
-0.022461087 -0.07360966 0.023200443 -0.08102937 -0.061415263 -0.037160147 -0.1276163 -0.05327426
0.007965693 -0.015198382 -0.08598313 0.02987711 0.03367465 0.13154837 -0.02496965 0.10863559
-0.015732767 -0.06791867 -0.03938054 0.05304375 0.038993903 -0.018070618 0.101982154 0.0101188775
0.13749982 -0.008825345 -0.02036183 0.050978355 -0.057779886 -0.11885149 -0.020363124 0.03041371
00000000: e096 3c3d 9268 1cbd c2b8 d63d dfc1 47bb
00000010: 1045 e2bd 71d9 ffbc 6a7b fc3c c593 98bd
00000020: 71aa 8e3b efd8 373d f3ca c0bc 1ac1 dabc
00000030: 4cde dc3d 9c59 a6bd 33f5 9cbd c60d 7a3d
00000040: c80c d8bd 7d19 9cbd 17dd ce3d 3fe4 263d
00000050: ce69 b53d f07a edbd ecf0 853d 32d4 163d
00000060: bd01 503d 5dc0 3abd a822 8b3d 6505 9e3b
00000070: 3c05 47bb 3082 943c d8fa d6bd c1bf 8c3d
00000080: d110 99ba db08 e1bc 3628 60bd 8299 e2bd
00000090: 40bb 13bd 45c8 893c c2b4 2bbd fa27 8a3d
000000a0: df42 4abd cd85 1e3d 0b31 813d 6eb4 bb3d
000000b0: 4183 193c 9411 8abd 26d7 bc3d 3a90 e33d
000000c0: c133 b1bd 29cb dfbd d874 bc3d 9f89 073e
000000d0: 6754 83bd cfc3 513c 5828 ac3c 4bb5 a6bd
000000e0: 3c42 e13d 9813 ce3c 2335 b1bd b49f 50bd
000000f0: c2e2 e2bc a7d8 913d dc13 e53d 3c48 fdbc
00000100: 54cb 2ebd 3c6a f4bd aff8 b03d 5835 98bb
00000110: 4b32 a33d caec 4f3d 7827 753d 8e11 f4bc
00000120: fedb b4bd c896 98bd ebc8 cebb d217 95bd
00000130: bc56 21bd 4a1c a73d 8d4a 7d3d 5bd5 b63d
00000140: 8b4f 79bd f9d5 afbd e167 853d a31a 7abc
00000150: 23ee 893d 2580 1e3c 49ea 49bd dd4a 57bc
00000160: cc9f b23d 6445 c43c d796 753d 7d26 ddbd
00000170: 1cae 543c fbae 2bbd 41fe 9f3d 0019 953d
00000180: 9fd6 29bd eda9 64bd 9e23 3abd 6d20 9d3d
00000190: 7120 ddbd 9fd9 bd3c ddbd 6bbd f6c1 b0bc
000001a0: 014f df3d 56b8 523d e694 6d3d 3793 69bd
000001b0: b8f0 24bd 5f6c 893b 8952 6f3b 4370 f6bc
000001c0: a198 b3bd c6d7 d4bc 3115 b73d 34f8 64bd
000001d0: 2054 cd3d b5e7 d7bd e216 aabd b1bf 78bc
000001e0: f081 1abd a8c9 cabd 56a6 7c3d 8b31 f93d
000001f0: bb10 dc3d e6ca 04be 64af a83d 1b78 cebd
00000200: f15d e03c dd3b 0fbd 3540 c4bc ecdf 7bbd
00000210: 2dfd 14bb 8b3d 26bd 71b0 da3d 903e 5cbd
00000220: bbea 5ebd 636e abbd aea6 df3d 400f 353d
00000230: 3b79 edbd 8e50 95bc 57fc b53d 14f4 a23d
00000240: a11f 013e 9bf3 653d f294 0f3d 4611 a0bd
00000250: fb7e a2bc c15f 283d 8761 033e 0b61 733d
00000260: 0d70 c8bd c2cf c0bd fe10 b63d e233 b23c
00000270: dedd 02bb 4d18 c43c 3af9 07bd 2167 88bd
00000280: d816 cb3d cb6a 9e3c 7500 183d a55f 843c
00000290: ba46 3abd 91dc f03d 5b98 ba3d 96ef b13d
000002a0: ed7f 92bd 667b 89bc 6aea a43d 2c57 8b3d
000002b0: a756 c33d 2c03 b1bd ae17 543c ad9b 4d3d
000002c0: 9ae0 ebbd 74a6 5cbd 83bb 8a3d 28e2 633d
000002d0: 3132 4e3d d4e2 cc3d ee9e 843d e561 fdbc
000002e0: 9e15 c4bd 120f 9ebc 5eef cdbc 8587 573d
000002f0: 9593 e0bd c246 15bc 994c 70bd bb8c bcbc
00000300: 45a6 febd a5cc 1ebd 560c 16bd 7ce9 83bd
00000310: 277f 05be a7a3 d9bd 8434 10be 87b3 2a3c
00000320: 840d 793d 8aea 633d 5356 a53d 2ac4 443d
00000330: 40d2 1f3d 1cb7 e23c 1250 9b3d dc70 d53d
00000340: 7116 3abd 1c5c ce3d bd06 b0bd 3e71 c03d
00000350: 17d4 e73c 7ae8 8a3d 2298 d3bd cbfc fbbb
00000360: 1329 dcbd dd91 a3bd 0184 dd3c 9a1a ccbd
00000370: 8e6f 073d d138 b7bd d1fa f3bd f962 813d
00000380: 5000 b8bc a9c0 96bd db0e be3c baf2 a5bd
00000390: 928e 7bbd 3d35 18bd d9ad 02be 1c36 5abd
000003a0: 8a82 023c a202 79bc ec17 b0bd d7c0 f43c
000003b0: 6eee 093d 9eb4 063e 278d ccbc 567c de3d
000003c0: 01e2 80bc f218 8bbd 7d4d 21bd 6744 593d
000003d0: 12b8 1f3d d508 94bc 05dc d03d a6c9 253c
000003e0: c1cc 0c3e 2e98 10bc dacd a6bc aece 503d
000003f0: 9aaa 6cbd 6968 f3bd 91d0 a6bc 2c26 f93c

conv.0.bias f4 [32]
-0.09211205 0.025230855 -0.07572071 -0.055224128 -0.036498748 -0.025943395 -0.049431857 -0.045879338
-0.102457166 0.03648284 0.04912024 -0.085884005 0.061701216 0.041556023 0.09736443 0.08892342
-0.10369857 -0.049196012 0.11445573 0.06829456 -0.09250935 -0.09840421 -0.09318803 0.046829715
-0.060211565 0.061627112 0.07578619 -0.11246713 -0.09716673 0.09240358 0.021051086 0.029641312
00000000: 3ea5 bcbd f0b0 ce3c 7613 9bbd b232 62bd
00000010: b67f 15bd 3e87 d4bc 0f79 4abd f9eb 3bbd
00000020: 10d5 d1bd 086f 153d 4e32 493d f4e3 afbd
00000030: 6aba 7c3d a636 2a3d 0167 c73d 7b1d b63d
00000040: ea5f d4bd c281 49bd c467 ea3d 05de 8b3d
00000050: 8b75 bdbd 2588 c9bd 5ed9 bebd 84d0 3f3d
00000060: 67a0 76bd b66c 7c3d ca35 9b3d 2b55 e6bd
00000070: 5aff c6bd 173e bd3d 5473 ac3c 56d2 f23c

conv.1.weight f4 [32]
0.98427474 1.025188 0.98849994 0.99441177 1.000397 1.0276823 1.0244739 1.0100644
0.9578509 0.9756472 1.0125952 1.0607578 1.0441077 0.987159 0.98544717 0.95155007
1.0411329 0.9533432 0.98475087 0.9544838 0.97321886 0.98198134 1.0092499 0.9733211
0.9992261 1.0342433 0.96988696 1.0507492 0.9832931 1.030309 0.96039385 1.040112
00000000: 6ef9 7b3f 5c39 833f 550e 7d3f c591 7e3f
00000010: 020d 803f 188b 833f f621 833f ca49 813f
00000020: b735 753f 04c4 793f b89c 813f e9c6 873f
00000030: 52a5 853f 74b6 7c3f 4446 7c3f c998 733f
00000040: d843 853f 4d0e 743f a218 7c3f 0d59 743f
00000050: df24 793f 2163 7b3f 1a2f 813f 922b 793f
00000060: 48cd 7f3f 1662 843f 834a 783f f37e 863f
00000070: 19b9 7b3f 2ae1 833f 5fdc 753f 6422 853f

conv.1.bias f4 [32]
-0.099694744 -0.0034398693 -0.0013534783 -0.04568006 -0.103397116 -0.10936452 0.0046997885 -0.0027518326
0.008285442 -0.0074885846 0.002430559 -0.0497728 -0.100979 4.2336243e-05 -0.0047952263 -0.01436329
-0.023176625 -0.064443335 -0.021878036 -0.08086259 -0.0028845707 -0.057344273 -0.029060742 -0.05347968
-0.040455837 0.007174588 -0.10995479 0.038268566 0.012880122 -0.026615629 -0.04685277 0.039201073
00000000: c22c ccbd 6e6f 61bb 3267 b1ba 041b 3bbd
00000010: dec1 d3bd 81fa dfbd af00 9a3b 1758 34bb
00000020: aabf 073c cd62 f5bb 034a 1f3b 90de 4bbd
00000030: 14ce cebd 3292 3138 4621 9dbb 0154 6bbc
00000040: e8dc bdbc defa 83bd 9139 b3bc 499b a5bd
00000050: 110b 3dbb d4e1 6abd cb10 eebc 820d 5bbd
00000060: 05b5 25bd ce18 eb3b fa2f e1bd 80bf 1c3d
00000070: 2607 533c 0509 dabc b1e8 3fbd 4e91 203d

conv.1.running_mean f4 [32]
-0.050384354 0.05105501 -0.1459586 0.07476853 0.10061917 -0.015405883 -0.05630361 -0.18523812
0.116646536 0.030298881 -0.07171537 -0.09219447 0.050767906 -0.4141082 -0.35909307 -0.32386485
-0.032218985 0.4314631 -0.3700011 0.056744628 -0.17423573 -0.2990401 -0.07189923 0.54668564
-0.452385 -0.0021244443 0.20969807 0.026690532 -0.14560042 0.051259525 0.71196276 0.13635923
00000000: d35f 4ebd 0f1f 513d 2c76 15be 3e20 993d
00000010: 6c11 ce3d f568 7cbc 9d9e 66bd 10af 3dbe
00000020: 61e4 ee3d 5c35 f83c 82df 92bd 74d0 bcbd
00000030: 02f2 4f3d fd05 d4be 0cdb b7be 9dd1 a5be
00000040: 0ef8 03bd bbe8 dc3e c970 bdbe 0e6d 683d
00000050: da6a 32be c91b 99be e73f 93bd 97f3 0b3f
00000060: 029f e7be 433a 0bbb 17bb 563e 1aa6 da3c
00000070: 4718 15be 82f5 513d 3143 363f c1a1 0b3e

conv.1.running_var f4 [32]
0.0036025997 0.019874278 0.031102777 0.012342557 0.01573905 0.01936295 0.0136626335 0.023557523
0.041351438 0.022568537 0.023254408 0.029976513 0.01900409 0.04915402 0.12921332 0.0498673
0.037194606 0.07830712 0.08675875 0.0148771815 0.019785767 0.031448554 0.011373211 0.067273654
0.065614 0.013949188 0.012671924 0.036285125 0.028745716 0.007170221 0.1263101 0.02608874
00000000: 9819 6c3b 62cf a23c 40cb fe3c 7038 4a3c
00000010: 2eef 803c 0d9f 9e3c 3dd9 5f3c b5fb c03c
00000020: 2060 293d a7e1 b83c 0780 be3c 4e91 f53c
00000030: 77ae 9b3c ba55 493d 7f50 043e a741 4c3d
00000040: 5f59 183d 7c5f a03d 92ae b13d 6cbf 733c
00000050: c315 a23c 33d0 003d b456 3a3c c5c6 893d
00000060: a260 863d 238b 643c e79d 4f3c b69f 143d
00000070: 237c eb3c 2cf4 ea3b 6f57 013e 0eb8 d53c

conv.4.weight f4 [32, 32, 3, 3]
-0.042594295 0.03173369 -0.017998027 -0.0035038705 -0.04693245 0.012365043 0.062080625 0.0056089507
0.03534946 -0.02793104 0.09916223 0.009303753 -0.013317862 -0.017346546 0.04686659 -0.020240365
-0.028728181 -0.11220666 0.051936213 0.07964299 -0.00015001207 0.025780058 -0.031189749 -0.0344884
-0.015443459 -0.00041035796 -0.009147661 0.0048453193 0.044454042 -0.05980157 0.014141853 -0.0034072222
0.04879197 0.0152466735 -0.014410141 -0.011628115 0.02138475 0.03457339 -0.07961635 0.017843356
0.019861544 -0.0149977775 0.021100352 0.0052157007 -0.0024182585 -0.02385203 0.059558608 -0.08229477
-0.012592877 0.015252397 0.06599709 -0.03268485 0.025662942 0.062065538 -0.020190647 -0.062464744
0.01709677 -0.034306284 0.016700547 0.030972164 -0.011874394 0.032518394 0.018936532 0.045316327
-0.092376895 -0.010684754 -0.015810657 0.028961815 -0.028349856 -0.0010776162 -0.058340255 0.06579778
0.03597909 0.062430993 0.005165803 -0.019114528 0.0189099 -0.015232024 -0.013831677 -0.0053778915
0.028301049 0.05345646 0.0004686809 0.059625324 0.008221181 -0.0394669 -0.06269363 0.018130155
0.012188861 -0.038879365 -0.0132033555 -0.024197834 -0.009971317 0.05292217 0.042035826 0.07444931
0.031274255 -0.025775917 0.036155645 0.0044144425 -0.058877263 0.021253861 0.06615735 0.08537952
-0.0045344788 -0.030965649 -0.021395687 -0.042767044 0.06740002 0.06711546 -0.052881565 -0.046972997
-0.08932265 0.0012239835 0.012529402 -0.08519854 -0.0073095714 0.0076818243 0.047170226 -0.018229637
0.008033509 -0.039439507 0.048138864 0.008400596 0.04732229 -0.01644797 0.004047184 0.020959858
0.059943244 -0.027419375 0.05921465 0.075438336 0.024367247 0.0038233094 0.0080677625 0.022098705
0.04720088 -0.033600997 -0.0003953709 -0.015086706 0.0030159676 0.008803454 -0.055122286 -0.023901135
-0.041882493 -0.011179728 -0.06491019 0.019572923 0.04921078 0.025760408 -0.033535134 -0.010281283
0.043658074 -0.008761438 0.010255806 -0.04625358 0.010906675 0.019873034 -0.031802308 -0.06680476
0.035636723 -0.0099852905 -0.018593539 -0.017938657 0.012331432 0.020583335 0.014171842 0.008723137
-0.066094466 0.052102767 -0.045286946 -0.0077840122 -0.04561897 -0.036615983 0.007921907 0.03014868
-0.06733687 -0.017165039 0.015451357 0.015641397 -0.030661099 0.027160512 -0.0012573507 -0.03922278
-0.044691622 -0.0075560636 -0.023883166 0.06275892 0.037130795 -0.0025867 -0.061088603 -0.035895426
-0.05330855 -0.024792459 0.021847833 0.012726819 -0.0851777 0.02056498 -0.026595818 0.051972467
0.043476626 -0.020809777 0.04043848 -0.0438891 -0.023986457 -0.02890824 0.026506564 -0.004887955
0.1161843 -0.048405103 -0.033718437 0.017272172 0.025394093 -0.033580985 0.04120977 -0.017068421
0.005430814 -0.059167277 -0.048190527 0.030345751 -0.009078526 0.038133662 -0.031444624 -0.03692017
0.044377968 -0.022499543 -0.02025163 -0.029969199 0.03351405 0.017206725 -0.050541505 0.006534987
-0.025276419 0.049712386 -0.03885463 0.010133205 -0.0062427386 0.0097111035 0.050317537 0.04941388
0.041480456 0.0015033969 0.0022294407 0.020952964 -0.06488141 0.026872644 -0.0074118795 0.004570174
-0.0713206 0.03680719 5.026733e-07 0.0023536608 0.03257818 -0.0012755054 0.08624665 0.007094185
00000000: 5b77 2ebd 30fb 013d 9970 93bc 31a1 65bb
00000010: 3e3c 40bd c096 4a3c 4148 7e3d 4acb b73b
00000020: 98ca 103d a3cf e4bc 9115 cb3d c56e 183c
00000030: 2933 5abc 581a 8ebc 2ef7 3f3d 1fcf a5bc
00000040: 5d57 ebbc 9bcc e5bd 11bb 543d dd1b a33d
00000050: 8f4c 1db9 b330 d33c a581 ffbc b543 0dbd
00000060: 9006 7dbc 5025 d7b9 12e0 15bc 7cc5 9e3b
00000070: 7115 363d 7ef2 74bd 3bb3 673c b44b 5fbb
00000080: 17da 473d 2fcd 793c 8318 6cbc d983 3ebc
00000090: 122f af3c d49c 0d3d e60d a3bd 3b2c 923c
000000a0: adb4 a23c 3db9 75bc a5da ac3c 78e8 aa3b
000000b0: a57b 1ebb 5565 c3bc baf3 733d 298a a8bd
000000c0: 5b52 4ebc 31e5 793c 7b29 873d 8de0 05bd
000000d0: 173b d23c 6f38 7e3d db66 a5bc 08db 7fbd
000000e0: 870e 8c3c bf84 0cbd 96cf 883c 56b9 fd3c
000000f0: d18c 42bc 0232 053d c920 9b3c 9d9d 393d
00000100: 1930 bdbd 1b0f 2fbc 5a85 81bc 5441 ed3c
00000110: f53d e8bc cd3e 8dba 31f6 6ebd fdc0 863d
00000120: cf5e 133d a4b7 7f3d e545 a93b 1296 9cbc
00000130: efe8 9a3c bd8f 79bc 429e 62bc 0639 b0bb
00000140: 9ad7 e73c 29f5 5a3d 49b9 f539 af39 743d
00000150: 22b2 063c 0ba8 21bd 8565 80bd b185 943c
00000160: cab3 473c f83f 1fbd e352 58bc 893a c6bc
00000170: bc5e 23bc ebc4 583d c22d 2c3d e178 983d
00000180: 6f19 003d 0428 d3bc f117 143d 07a7 903b
00000190: 4929 71bd 941c ae3c 817d 873d 75db ae3d
000001a0: f795 94bb acab fdbc 0246 afbc 7f2c 2fbd
000001b0: 0609 8a3d d573 893d 579a 58bd c266 40bd
000001c0: cbee b6bd 126e a03a 1f48 4d3c 927c aebd
000001d0: 2185 efbb d0b7 fb3b 9135 413d 5256 95bc
000001e0: fb9e 033c 528b 21bd 422d 453d a7a2 093c
000001f0: 04d5 413d e5bd 86bc 3d9e 843b 02b4 ab3c
00000200: 0c87 753d 999e e0bc 108b 723d 6a7f 9a3d
00000210: d29d c73c 7d90 7a3b a62e 043c 5808 b53c
00000220: b655 413d 33a1 09bd c949 cfb9 3b2e 77bc
00000230: 8aa7 453b 5d3c 103c e8c7 61bd 50cc c3bc
00000240: fa8c 2bbd 2e2b 37bc a2ef 84bd 6557 a03c
00000250: 3e91 493d 7e07 d33c 235c 09bd d472 28bc
00000260: cfd2 323d 228c 0fbc f807 283c 6574 3dbd
00000270: e9b1 323c c6cc a23c 2343 02bd efd0 88bd
00000280: d0f7 113d 5899 23bc 7a51 98bc 17f4 92bc
00000290: c609 4a3c 629e a83c 0331 683c 7deb 0e3c
000002a0: 895c 87bd b669 553d ce7e 39bd 0711 ffbb
000002b0: f5da 3abd a4fa 15bd e3ca 013c 5dfa f63c
000002c0: eae7 89bd b29d 8cbc b027 7d3c 6322 803c
000002d0: fc2c fbbc b97f de3c b0cd a4ba 11a8 20bd
000002e0: 900e 37bd db98 f7bb a1a6 c3bc c087 803d
000002f0: 7616 183d a085 29bb 0b38 7abd 1507 13bd
00000300: 115a 5abd 8e19 cbbc 3afa b23c 2684 503c
00000310: a571 aebd e477 a83c 79df d9bc 15e1 543d
00000320: 8c14 323d 4479 aabc d2a2 253d 0fc5 33bd
00000330: 3f7f c4bc f9d0 ecbc 4b24 d93c 232b a0bb
00000340: 09f2 ed3d 6e44 46bd 581c 0abd 5f7e 8d3c
00000350: 4607 d03c 378c 09bd 93cb 283d 13d3 8bbc
00000360: f8f4 b13b 6359 72bd 6e63 45bd a797 f83c
00000370: 19be 14bc 0b32 1c3d 14cc 00bd 9b39 17bd
00000380: acc5 353d f650 b8bc bfe6 a5bc f781 f5bc
00000390: 0746 093d 1ef5 8c3c 9c04 4fbd 7223 d63b
000003a0: 7e10 cfbc 379f 4b3d 0826 1fbd be05 263c
000003b0: e38f ccbb 521b 1f3c c319 4e3d 3566 4a3d
000003c0: 69e7 293d a10d c53a cf1b 123b 8da5 ab3c
000003d0: 8be0 84bd 0524 dc3c 5adf f2bb 66c1 953b
000003e0: 8910 92bd 23c3 163d 72ef 0635 e03f 1a3b
000003f0: b370 053d dc2e a7ba 15a2 b03d 5676 e83b

conv.4.bias f4 [32]
-0.039467357 0.05585833 0.04565215 -0.045018848 0.0039284853 -0.045766942 0.06441448 0.0444913
-0.01979575 -0.045581933 -0.024945209 0.001464738 0.021620886 -0.029870015 0.009651037 -0.047351636
-0.01876991 0.03006631 -0.016598513 0.033874437 -0.020311462 0.021412866 0.03750319 0.012247546
-0.012247514 -0.010147456 0.035769757 -0.03699266 0.0056228726 0.037056483 0.043685358 -0.028725542
00000000: 86a8 21bd b4cb 643d c0fd 3a3d af65 38bd
00000010: 86ba 803b 1e76 3bbd bdeb 833d 823c 363d
00000020: b22a a2bc 1fb4 3abd e559 ccbc 74fc bf3a
00000030: 491e b13c f6b1 f4bc 621f 1e3c caf3 41bd
00000040: 5bc3 99bc 9f4d f63c 9bf9 87bc ecbf 0a3d
00000050: 3964 a6bc 096a af3c f29c 193d eea9 483c
00000060: cca9 48bc 8441 26bc 4f83 123d 9e85 17bd
00000070: 1340 b83b 8ac8 173d 6bef 323d d451 ebbc

conv.5.weight f4 [32]
1.1240163 1.1327136 1.1088061 1.1259127 1.1193078 1.1339751 1.1220609 1.1209025
1.1326389 1.1147156 1.1327218 1.1269232 1.1313946 1.1033943 1.1439224 1.1264187
1.1364417 1.1225982 1.1103152 1.1252415 1.1016166 1.1039417 1.116586 1.1344289
1.1267548 1.1086688 1.1297129 1.1088775 1.1048054 1.1416932 1.1147273 1.1096526
00000000: c4df 8f3f c2fc 903f 5ced 8d3f e81d 903f
00000010: 7a45 8f3f 1926 913f b19f 8f3f bc79 8f3f
00000020: 50fa 903f 00af 8e3f 07fd 903f 053f 903f
00000030: 8ad1 903f 063c 8d3f 0d6c 923f 7d2e 903f
00000040: ec76 913f 4cb1 8f3f cf1e 8e3f ea07 903f
00000050: c601 8d3f f64d 8d3f 4aec 8e3f f734 913f
00000060: 8039 903f dce8 8d3f 6f9a 903f b3ef 8d3f
00000070: 436a 8d3f 0123 923f 62af 8e3f 1909 8e3f

conv.5.bias f4 [32]
0.09401824 0.083232895 0.09819237 0.09147214 0.08449968 0.115356624 0.10611381 0.11129442
0.10220099 0.10214105 0.10153972 0.09546782 0.127196 0.08280127 0.111439474 0.09882488
0.10375676 0.10372085 0.0930976 0.10063372 0.09934718 0.08354271 0.10592262 0.10249124
0.10269087 0.09734701 0.11141605 0.09499644 0.09716982 0.102636576 0.099141784 0.09473454
00000000: a38c c03d 0276 aa3d 1519 c93d bf55 bb3d
00000010: 2b0e ad3d 1840 ec3d 3252 d93d 54ee e33d
00000020: c14e d13d 542f d13d 0ff4 cf3d a284 c33d
00000030: ab3f 023e b693 a93d 613a e43d b364 ca3d
00000040: 6d7e d43d 996b d43d f4a9 be3d 0d19 ce3d
00000050: 8976 cb3d 7118 ab3d f5ed d83d ede6 d13d
00000060: 974f d23d df5d c73d 192e e43d 7e8d c23d
00000070: f800 c73d 2033 d23d d90a cb3d 2f04 c23d

conv.5.running_mean f4 [32]
0.018634867 0.11582634 0.06585757 0.19078764 -0.055858083 -0.46021965 0.25447252 -0.40800792
-0.37884343 0.25684303 -0.11460489 -0.11805271 -0.08892348 -0.07804708 0.14164448 -0.13292848
-0.14234608 -0.021409255 0.011005862 -0.23870865 0.18305278 0.16791181 -0.33015284 0.15989809
-0.15274039 0.066346146 -0.09209322 -0.10099041 0.06765319 -0.0014710777 -0.10926319 -0.06534156
00000000: 26a8 983c 5c36 ed3d 55e0 863d d65d 433e
00000010: 72cb 64bd e9a1 ebbe 394a 823e 6ae6 d0be
00000020: c4f7 c1be ee80 833e f8b5 eabd 9fc5 f1bd
00000030: 831d b6bd 26d7 9fbd 400b 113e 671e 08be
00000040: 2cc3 11be 7662 afbc ee51 343c 0a70 74be
00000050: 3072 3b3e 13f1 2b3e cb09 a9be 53bc 233e
00000060: fa67 1cbe 7de0 873d 5f9b bcbd 0fd4 cebd
00000070: c18d 8a3d 2dd1 c0ba 61c5 dfbd ccd1 85bd

conv.5.running_var f4 [32]
0.011879158 0.009975331 0.038051102 0.018835781 0.014342668 0.0182849 0.011796603 0.026815366
0.028392611 0.017075278 0.013941385 0.013300866 0.013473418 0.058202937 0.011184573 0.017671937
0.012753041 0.031348005 0.023453446 0.011020116 0.019613767 0.03189647 0.027165497 0.013023927
0.011115722 0.031044455 0.014612534 0.032420583 0.034056097 0.009192341 0.013852621 0.016592046
00000000: cda0 423c 926f 233c 79db 1b3d 7f4d 9a3c
00000010: 82fd 6a3c 37ca 953c 8a46 413c e6ab db3c
00000020: 9f97 e83c 74e1 8b3c 686a 643c e0eb 593c
00000030: 9cbf 5c3c 3466 6e3d 803f 373c bdc4 903c
00000040: 22f2 503c c466 003d 7121 c03c b78d 343c
00000050: 0dad a03c dfa5 023d 2d8a de3c 4f62 553c
00000060: b81e 363c f150 fe3c 6969 6f3c 72cb 043d
00000070: 687e 0b3d 799b 163c 1bf6 623c 0bec 873c

fc.0.weight f4 [136, 128]
0.09596375 0.09004561 0.082105085 0.02425601 0.04886425 -0.062746264 0.02032394 0.12169722
-0.03163105 -0.16920163 -0.05126903 0.082973495 0.034520008 0.09010622 0.16900726 0.029940851
0.07098298 0.06975 0.016252654 0.12855169 -0.003992311 -0.1532876 -0.041224316 -0.027091488
0.10285421 -0.055553745 0.00952204 -0.06355987 -0.17501326 0.024445748 0.045530725 -0.026906764
0.052337 0.03507516 0.07090927 0.027686974 0.0027982388 0.07999437 0.036737595 -0.0035961184
0.059521135 0.09900681 0.11007325 0.07205611 0.16003174 -0.012837668 0.11304931 0.092928916
-0.043976836 -0.13190463 0.10395275 0.058235276 0.06457278 0.064452715 0.10946238 0.0028802385
0.10421498 -0.11910736 0.05228698 0.14508016 -0.072660476 -0.11853825 -0.17826441 0.016929014
-0.017544597 -0.13523781 0.083174095 -0.074931666 0.020910958 -0.10706414 0.06051503 -0.11151988
0.07369553 -0.041182436 0.07165072 -0.041407112 -0.033777565 0.12742975 0.002865843 -0.024803994
-0.021817124 0.1171868 -0.05265424 -0.03204715 0.03273599 -0.012884377 0.0077089975 -0.011202148
-0.06409153 0.06002767 0.02347033 -0.019264909 0.05897897 -0.017757501 0.10093637 0.09913157
0.1419259 0.08493834 -0.012448564 -0.029163038 -0.041090243 0.10065234 -0.03908651 0.085596986
-0.076430656 0.03979895 0.10807584 -0.03120871 0.11112418 0.11122065 0.10821556 0.12084711
0.122229815 0.08867073 0.08275932 0.10363388 0.061731998 -0.14936098 -0.09029668 0.10020557
-0.08295339 0.027522791 0.03424979 -0.041800622 -0.068599746 0.08823405 -0.033909116 -0.037994754
0.007284969 0.03706576 0.06399827 0.038817625 -0.061748352 -0.048313063 0.07117802 0.122778036
-0.15479249 -0.088547684 -0.07270223 -0.12710899 -0.029353352 0.08168249 0.15081011 -0.027957208
0.050221343 0.10059847 -0.016655546 0.11863478 0.114343055 -0.09537089 0.08675537 0.023948539
0.0047227694 0.08105803 0.14013271 0.14654756 -0.038202465 0.0720991 -0.03596303 -0.080701694
0.05375467 -0.06482723 0.0042934874 -0.011589198 0.09174458 0.041644394 0.06597259 0.048747513
0.07907746 -0.08324638 -0.07240293 -0.13960288 0.07854091 -0.04981267 0.004348668 -0.0354284
0.025723089 0.012252739 0.080133416 0.13074146 0.12469935 0.1442627 0.12993065 0.14358713
0.1692905 0.017786102 0.004945239 -0.06174282 -0.093586616 -0.15025192 -0.047863487 0.038157113
0.119729914 -0.14057419 -0.07567567 0.07977179 0.022218347 -0.005201261 0.16158997 0.10918821
0.02834111 0.12790743 -0.027341584 0.11043039 0.04025684 0.06764441 -0.06976103 0.031889055
-0.033506844 -0.040993534 0.08822112 0.15970738 0.11597163 0.106212825 0.06696996 0.1473147
0.011366178 -0.11674011 0.12667103 -0.0048524 -0.064934924 -0.0050402484 0.03227972 0.1390336
-0.002175927 -0.079929054 0.07069562 -0.071060255 -0.024114218 -0.054166198 -0.026796121 0.026375795
0.13002706 -0.012293446 -0.074646406 -0.0030658112 -0.020861525 0.119451575 -0.02229563 0.0982652
0.046985317 0.091831304 -0.16716306 0.09275175 0.14907612 -0.031497456 0.16481555 0.0020260601
0.0011429917 0.12939169 -0.063193835 0.012231233 -0.011153776 -0.009232308 -0.082283586 -0.024480375
00000000: a488 c43d d569 b83d b626 a83d 8ab4 c63c
00000010: e125 483d 1d81 80bd 647e a63c 643c f93d
00000020: 8f8f 01bd 3143 2dbe 79ff 51bd 02ee a93d
00000030: da64 0d3d 9c89 b83d 3d10 2d3e 8446 f53c
00000040: 865f 913d 17d9 8e3d 4924 853c 0ea3 033e
00000050: efd1 82bb 6df7 1cbe d4da 28bd f8ee ddbc
00000060: 3aa5 d23d 538c 63bd 5502 1c3c ad2b 82bd
00000070: ad36 33be 7342 c83c 6d7e 3a3d 936b dcbc
00000080: 525f 563d f9aa 0f3d e138 913d cbcf e23c
00000090: a862 373b 17d4 a33d 297a 163d dbac 6bbb
000000a0: 6fcc 733d 15c4 ca3d 166e e13d 2792 933d
000000b0: 5cdf 233e 1555 52bc 6686 e73d 8451 be3d
000000c0: 0e21 34bd 0212 07be 2ee5 d43d 1d88 6e3d
000000d0: bc3e 843d c9ff 833d d02d e03d 62c2 3c3b
000000e0: aa6e d53d 8fee f3bd df2a 563d e58f 143e
000000f0: 04cf 94bd 2fc4 f2bd f28a 36be b7ae 8a3c
00000100: b0b9 8fbc c87b 0abe 2e57 aa3d c675 99bd
00000110: 754d ab3c 7244 dbbd 9cde 773d 8964 e4bd
00000120: afed 963d eaae 28bd 9dbd 923d 819a 29bd
00000130: 585a 0abd f27c 023e ded0 3b3b bf31 cbbc
00000140: d3b9 b2bc a2ff ef3d f9ab 57bd df43 03bd
00000150: 2c16 063d fe18 53bc c29b fc3b 3789 37bc
00000160: 6c42 83bd 93df 753d d944 c03c 71d1 9dbc
00000170: ef93 713d 2e78 91bc bab7 ce3d 7e05 cb3d
00000180: 0655 113e 27f4 ad3d 10f5 4bbc 53e7 eebc
00000190: 3e4e 28bd d022 ce3d 2d19 20bd 794d af3d
000001a0: ad87 9cbd 3904 233d de56 dd3d 69a9 ffbc
000001b0: 1395 e33d a7c7 e33d 1fa0 dd3d b17e f73d
000001c0: a053 fa3d 0099 b53d b87d a93d 003e d43d
000001d0: b1da 7c3d 16f2 18be 77ed b8bd 9438 cd3d
000001e0: 78e3 a9bd 7a77 e13c 8249 0c3d 2137 2bbd
000001f0: 067e 8cbd 0eb4 b43d 49e4 0abd 63a0 1bbd
00000200: c0b6 ee3b 44d2 173d 8611 833d 3bff 1e3d
00000210: d7eb 7cbd ebe3 45bd c8c5 913d 0d73 fb3d
00000220: ec81 1ebe 7d58 b5bd e8e4 94bd dc28 02be
00000230: 7176 f0bc 2649 a73d f76d 1a3e 8406 e5bc
00000240: e5b4 4d3d 9206 ce3d 3671 88bc cbf6 f23d
00000250: b12c ea3d d051 c3bd cdac b13d ba2f c43c
00000260: 76c1 9a3b c101 a63d f37e 0f3e 9010 163e
00000270: 307a 1cbd b1a8 933d f84d 13bd ee46 a5bd
00000280: db2d 5c3d 24c4 84bd 62b0 8c3b 9fe0 3dbc
00000290: 95e4 bb3d 5093 2a3d a31c 873d 79ab 473d
000002a0: 5df3 a13d 147d aabd fd47 94bd 0ff4 0ebe
000002b0: 0eda a03d 5f08 4cbd 457f 8e3b 5f1d 11bd
000002c0: 3ab9 d23c b6bf 483c fd1c a43d 17e1 053e
000002d0: 5f62 ff3d 9ab9 133e 8a0c 053e 8108 133e
000002e0: 7d5a 2d3e 29b4 913c ac0b a23b 0ae6 7cbd
000002f0: 57aa bfbd a4db 19be 810c 44bd a24a 1c3d
00000300: f534 f53d aef2 0fbe d8fb 9abd 645f a33d
00000310: 4003 b63c 576f aabb d777 253e 119e df3d
00000320: 9e2b e83c 2afa 023e 75fb dfbc 5429 e23d
00000330: 5be4 243d 2789 8a3d dfde 8ebd 199e 023d
00000340: 793e 09bd d6e8 27bd 46ad b43d 558a 233e
00000350: 8982 ed3d 1c86 d93d 8c27 893d aad9 163e
00000360: 3539 3a3c 7015 efbd 0db6 013e e200 9fbb
00000370: 9afc 84bd ab28 a5bb bd37 043d d35e 0e3e
00000380: ff99 0ebb d8b1 a3bd ddc8 903d 0a88 91bd
00000390: 2e8b c5bc 60dd 5dbd 8a83 dbbc 0d12 d83c
000003a0: d025 053e 736a 49bc 37e0 98bd c7eb 48bb
000003b0: cae5 aabc 07a3 f43d 53a5 b6bc 443f c93d
000003c0: ad73 403d 0d12 bc3d cb2c 2bbe a1f4 bd3d
000003d0: 69a7 183e 7a03 01bd 68c5 283e a6c7 043b
000003e0: 70d0 953a 417f 043e c56b 81bd 8265 483c
000003f0: 54be 36bc 1b43 17bc 4c84 a8bd 118b c8bc

fc.0.bias f4 [136]
-0.008963435 0.08230178 0.10872793 -0.0016219072 0.12890194 0.07985076 0.11636974 0.03997814
0.0062019196 -0.007988392 0.0439037 0.0040942733 -0.009605739 -0.028208025 0.0058933743 0.077224076
0.09937892 -0.011188499 0.08568075 0.01160634 0.15603079 0.046727315 -0.0040634214 0.1023761
0.1319974 -0.009613646 -0.03132045 -0.0041874545 0.07858156 0.03286875 0.05386687 0.0023372923
0.12478479 0.07543538 0.053379074 0.047190752 -0.021180224 0.0034015207 0.017538587 0.06950918
-0.079364315 0.07699124 -0.022374524 0.14459018 -0.032535166 0.0320596 0.08128201 0.04427544
0.0055146343 0.037053686 0.062454358 0.14066187 -0.009546277 -0.0049663954 -0.04433435 0.06260821
-0.022191886 0.12234788 0.11178773 0.07764038 0.014878994 0.12615766 0.048993424 0.05850802
-0.0029406874 0.10034984 0.0700088 0.03907365 0.14337538 -0.025582194 0.12131529 0.1262489
0.024748398 0.016585262 0.011504097 0.07217795 0.10104441 0.03207431 -0.0067892387 0.043626398
0.09035808 0.07678676 0.09201564 -0.043700922 0.038385298 0.096275985 0.09385949 -0.05412124
-0.02001865 0.11545177 0.034011234 -0.05318969 0.06420286 0.12562948 0.020661892 0.089814
0.0025852118 -0.009502561 0.024711104 0.04233197 0.023101628 -0.020662818 0.06751828 0.0068601347
0.12639801 0.08526024 -0.017767975 0.08867868 0.1220606 0.041742634 0.07991267 0.11061208
0.056580678 -0.0017571561 -0.0055676843 0.14110333 0.021566758 0.07606549 0.0019656739 0.09087276
0.021844136 0.12160968 0.042452276 -0.049940504 -0.014840274 -0.021319732 0.047540113 0.06812322
0.09903702 0.05673099 0.13498445 -0.02719209 0.03671796 0.049777266 0.013638442 0.041986838
00000000: 5fdb 12bc d68d a83d c0ac de3d 2d96 d4ba
00000010: dffe 033e cc88 a33d 4253 ee3d 1ec0 233d
00000020: 7939 cb3b bfe1 02bc 5ed4 333d 4129 863b
00000030: 6461 1dbc 8414 e7bc 351d c13b a827 9e3d
00000040: 2d87 cb3d f74f 37bc 6479 af3d 8528 3e3c
00000050: 89c6 1f3e 2465 3f3d 7326 85bb 90aa d13d
00000060: 542a 073e 8e82 1dbc df49 00bd ea36 89bb
00000070: 5eef a03d 62a1 063d 82a3 5c3d 422d 193b
00000080: 2b8f ff3d dd7d 9a3d 04a4 5a3d 174b 413d
00000090: 2682 adbc 0cec 5e3b 15ad 8f3c d45a 8e3d
000000a0: c289 a2bd 95ad 9d3d c74a b7bc 730f 143e
000000b0: 9843 05bd ed50 033d 2f77 a63d 2a5a 353d
000000c0: 1bb4 b43b 9bc5 173d 24d0 7f3d aa09 103e
000000d0: fd67 1cbc 25bd a2bb ef97 35bd bc38 803d
000000e0: c2cb b5bc 8691 fa3d f7f0 e43d eb01 9f3d
000000f0: 06c7 733c 792f 013e 54ad 483d 1ba6 6f3d
00000100: 8cb8 40bb 3884 cd3d c660 8f3d b10b 203d
00000110: ffd0 123e c091 d1bc 2774 f83d 6447 013e
00000120: 27bd ca3c d1dd 873c ae7b 3c3c 08d2 933d
00000130: 5ff0 ce3d 5a60 033d 4378 debb 98b1 323d
00000140: a80d b93d 6042 9d3d b272 bc3d bdff 32bd
00000150: e739 1d3d 582c c53d 6739 c03d 3cae 5dbd
00000160: 27fe a3bc fa71 ec3d 5d4f 0b3d 6fdd 59bd
00000170: ca7c 833d 04a5 003e 2143 a93c 67f0 b73d
00000180: a86c 293b a1b0 1bbc f16e ca3c 4a64 2d3d
00000190: a03f bd3c 1245 a9bc 0647 8a3d fbca e03b
000001a0: 7b6e 013e ec9c ae3d 258e 91bc 2b9d b53d
000001b0: e8fa f93d 53fa 2a3d 41a9 a33d 9688 e23d
000001c0: 24c1 673d 6050 e6ba 1f71 b6bb 647d 103e
000001d0: c5ac b03c 39c8 9b3d 89d2 003b 7f1b ba3d
000001e0: 79f2 b23c 7f0e f93d 70e2 2d3d 6a8e 4cbd
000001f0: 9f24 73bc b8a6 aebc 6cb9 423d 3084 8b3d
00000200: ecd3 ca3d c15e 683d 5d39 0a3e f2c1 debc
00000210: 9265 163d 3fe3 4b3d c673 5f3c 64fa 2b3d

fc.2.weight f4 [68, 136]
0.008953141 0.06746058 -0.040065397 0.10278523 -0.061215978 0.14708148 -0.17176571 0.10841048
-0.109207325 0.034882497 -0.022586012 -0.047400955 0.14392874 -0.061994094 0.025742307 0.11270625
-0.11639791 -0.1435528 0.07162008 -0.15122269 -0.14803234 0.15504338 -0.08169354 -0.16521715
0.08770831 -0.03184037 0.039523393 0.08671172 0.019346632 -0.18159598 0.096100695 -0.13521932
0.046842646 0.090894684 -0.011683844 -0.101989955 0.015211844 -0.022608189 -0.0710558 0.059533626
0.08675347 0.0356127 -0.12832297 0.0074803494 0.030632732 -0.10543466 -0.018788481 -0.052533153
0.012199371 -0.009505258 -0.059410688 0.0029089672 0.073329434 -0.10748586 -0.040789768 0.008621948
0.08736513 0.04910028 -0.07800977 -0.11711889 -0.0732141 0.06756233 -0.10684504 0.06362498
-0.018134274 -0.13545613 0.039907318 -0.052413777 -0.009743405 -0.064481184 -0.016289368 -0.023155553
0.12246526 -0.14602716 0.10023065 -0.19312955 -0.08985132 0.032414347 -0.011954862 -0.07488263
0.06555387 0.061131638 -0.043603677 -0.03402674 0.0552314 -0.06253198 0.023481362 0.06547437
0.13757919 -0.1153829 -0.0884714 -0.006465663 -0.104834914 0.06906036 0.02238878 0.13210289
-0.10173291 0.102530055 -0.02811089 -0.080378555 -0.041844495 0.009348937 0.08278069 -0.14517885
0.0090652555 0.040407 0.09125345 0.11925206 0.08305602 -0.01517801 -0.14732176 -0.095167056
-0.09833546 0.025622368 0.025475182 -0.030908765 0.042518057 0.14090112 -0.013112907 0.041155428
-0.13827102 -0.02972392 0.07837026 -0.01345642 -0.08236374 0.0022381032 -0.15449937 -0.15075895
0.022735452 -0.06674811 -0.21031265 -0.004801799 -0.21006918 0.07633045 -0.1472632 -0.0043261778
-0.15064703 -0.13222857 -0.005770385 -0.074620105 0.045202862 -0.022710519 0.040314186 -0.15139122
0.07954513 -0.060128737 -0.13202746 -0.08222928 -0.12976739 -0.01447109 0.05869918 -0.16179213
0.06793583 0.022521384 -0.15591674 0.15233237 -0.14930919 -0.015190684 -0.078598365 0.1193965
-0.12869069 -0.13260125 0.04688474 0.044215128 -0.069680475 0.13872382 -0.036496777 0.055646077
-0.114338495 -0.038944315 -0.03502392 0.08337751 -0.0893067 -0.077126205 -0.0714286 -0.12958366
-0.052652802 -0.09008265 -0.08258392 -0.034181427 -0.025523435 -0.12683089 0.111829385 -0.033393577
0.13870169 -0.066479534 -0.08845315 0.12083385 -0.015447694 0.1180007 -0.042422596 -0.15577409
-0.031493526 0.1374479 -0.06383949 0.047264453 0.08643297 0.07549403 -0.073604055 -0.09979454
0.065571405 -0.0361069 -0.07489601 0.12040845 0.027139574 -0.02802187 -0.13779756 -0.018421045
-0.14873146 -0.16045307 -0.116940305 0.08931226 0.05987725 -0.03887223 0.08797859 0.12143898
-0.04423648 -0.15389128 0.11222418 0.10208263 -0.06609244 -0.12846793 0.06374051 0.010623467
-0.14582819 0.01905835 -0.029458888 -0.0066848104 -0.043224297 -0.033984862 -0.16240977 -0.039852194
0.112503186 -0.082568586 0.004024788 -0.05151193 0.002022516 0.0738683 -0.10179295 -0.1335413
-0.06693243 -0.029296786 0.07726493 -0.033014208 0.09345188 -0.15300341 -0.12939769 0.13407396
0.12274895 0.01995114 -0.07638928 -0.03613889 -0.033502933 0.065235846 -0.08948259 0.04309511
00000000: 32b0 123c c628 8a3d 9d1b 24bd 1081 d23d
00000010: 9bbd 7abd 879c 163e 5ae3 2fbe 5006 de3d
00000020: 17a8 dfbd f3e0 0e3d 4d06 b9bc 8127 42bd
00000030: 0e62 133e 85ed 7dbd 88e1 d23c 89d2 e63d
00000040: 0762 eebd 81ff 12be 8cad 923d 1fda 1abe
00000050: ca95 17be b1c3 1e3e f14e a7bd af2e 29be
00000060: 6aa0 b33d 0c6b 02bd 48e3 213d ea95 b13d
00000070: d47c 9e3c 4cf4 39be 71d0 c43d ef76 0abe
00000080: 13de 3f3d fe26 ba3d 986d 3fbc 1ce0 d0bd
00000090: 193b 793c cf34 b9bc b485 91bd 88d9 733d
000000a0: ceab b13d 9fde 113d 1967 03be b81d f53b
000000b0: 7ff1 fa3c 21ee d7bd 4dea 99bc 012d 57bd
000000c0: dfdf 473c f1bb 1bbc 9f58 73bd 5fa4 3e3b
000000d0: be2d 963d 8c21 dcbd 2c13 27bd 1243 0d3c
000000e0: 7dec b23d 601d 493d 96c3 9fbd 07dc efbd
000000f0: 46f1 95bd 1e5e 8a3d 93d1 dabd d04d 823d
00000100: 548e 94bc 03b5 0abe db75 233d d4af 56bd
00000110: cda2 1fbc b60e 84bd 4871 85bc b7b0 bdbc
00000120: 11cf fa3d 2588 15be ba45 cd3d c1c3 45be
00000130: f803 b8bd e8c4 043d 53de 43bc 105c 99bd
00000140: 1b41 863d 2b65 7a3d c599 32bd 9f5f 0bbd
00000150: 523a 623d c410 80bd fc5b c03c 6d17 863d
00000160: 8fe1 0c3e df4d ecbd 7e30 b5bd eadd d3bb
00000170: b0b3 d6bd 856f 8d3d ad68 b73c fb45 073e
00000180: 5859 d0bd 47fb d13d cf48 e6bc 839d a4bd
00000190: 2265 2bbd 492c 193c ec88 a93d c4a9 14be
000001a0: 7086 143c cf81 253d 17e3 ba3d 6d3a f43d
000001b0: 4619 aa3d 30ad 78bc 84db 16be f2e6 c2bd
000001c0: 1a64 c9bd 00e6 d13c 54b1 d03c 6134 fdbc
000001d0: 6a27 2e3d 6248 103e 85d7 56bc 9892 283d
000001e0: eb96 0dbe 947f f3bc 9680 a03d 5178 5cbc
000001f0: 52ae a8bd 24ad 123b 1535 1ebe 8e60 1abe
00000200: b33f ba3c 3cb3 88bd 335c 57be 6958 9dbb
00000210: 601c 57be 2453 9c3d 2acc 16be 9cc2 8dbb
00000220: 3743 1abe ed66 07be 7f15 bdbb 6dd2 98bd
00000230: a326 393d 690b babc 7d20 253d 4d06 1bbe
00000240: 8fe8 a23d 8d49 76bd 3532 07be d367 a8bd
00000250: bee1 04be 2718 6dbc 8d6e 703d d6ac 25be
00000260: f121 8b3d c47e b83c a3a8 1fbe 04fd 1b3e
00000270: 82e4 18be 59e2 78bc 2ef8 a0bd 2786 f43d
00000280: 7ec7 03be 9fc8 07be 370a 403d ec1a 353d
00000290: a3b4 8ebd 9e0d 0e3e a57d 15bd 24ed 633d
000002a0: 4d2a eabd 1384 1fbd 3e75 0fbd d4c1 aa3d
000002b0: 6ee6 b6bd 58f4 9dbd 2849 92bd 94b1 04be
000002c0: 77aa 57bd 417d b8bd c221 a9bd d301 0cbd
000002d0: 8616 d1bc f5df 01be ce06 e53d b4c7 08bd
000002e0: d107 0e3e 6c26 88bd ed26 b5bd bd77 f73d
000002f0: 5318 7dbc 5aaa f13d 51c3 2dbd 3e83 1fbe
00000300: 5bff 00bd 24bf 0c3e 47be 82bd 5f98 413d
00000310: c503 b13d 9d9c 9a3d b9bd 96bd 1461 ccbd
00000320: 4d4a 863d d4e4 13bd 1463 99bd b598 f63d
00000330: d053 de3c 1f8e e5bc ce1a 0dbe bbe7 96bc
00000340: 0f4d 18be cf4d 24be 667e efbd 59e9 b63d
00000350: d941 753d 7d38 1fbd 1e2e b43d 00b5 f83d
00000360: 5031 35bd ad95 1dbe cad5 e53d b310 d13d
00000370: 795b 87bd 198d 03be 628a 823d 0d0e 2e3c
00000380: fc53 15be 4220 9c3c c453 f1bc 410c dbbb
00000390: f60b 31bd b633 0bbd bf4e 26be 0e3c 23bd
000003a0: 1268 e63d b819 a9bd 5ee2 833b 2cfe 52bd
000003b0: 308c 043b 4348 973d d278 d0bd 0dbf 08be
000003c0: df13 89bd d0ff efbc 133d 9e3d e839 07bd
000003d0: b363 bf3d edac 1cbe d480 04be af4a 093e
000003e0: cd63 fb3d 9370 a33c fc71 9cbd 5f06 14bd
000003f0: 5f3a 09bd 5f9a 853d a642 b7bd 8084 303d

fc.2.bias f4 [68]
0.08014233 -0.07492748 -0.02935245 -0.094469026 0.084747806 -0.03282024 -0.008428761 0.016810486
-0.006225911 0.029910345 -0.13791284 -0.055308644 -0.055135284 -0.009252382 0.031285316 -0.11363639
0.022309288 -0.09298192 0.058552083 -0.10363942 -0.07209721 -0.036182933 0.022925828 -0.024008516
-0.06722155 -0.07091435 0.021823598 0.017739378 -0.095979944 -0.04890481 0.025163291 0.026193706
0.04998432 0.015379721 -0.010947116 -0.059423666 -0.10344243 0.040679287 -0.07359152 0.013086928
-0.064377755 -0.058310345 -0.022095433 0.06061335 0.09105297 0.064585745 -0.11881657 -0.039574172
-0.005650707 0.07355652 -0.021347329 -0.06209559 0.012917218 -0.054027624 -0.07513891 -0.07151902
0.028826213 -0.0035045622 -0.038935505 -0.022168765 0.07289401 -0.03563163 0.06511969 0.0937188
0.11030234 0.03626945 0.013662735 -0.01992048
00000000: a921 a43d 9473 99bd 8d74 f0bc fa78 c1bd
00000010: 4290 ad3d 846e 06bd c918 0abc 25b6 893c
00000020: ba02 ccbb 8a06 f53c 0639 0dbe 518b 62bd
00000030: 89d5 61bd 4e97 17bc 0825 003d 32ba e8bd
00000040: f8c1 b63c 4e6d bebd 4fd4 6f3d e740 d4bd
00000050: b4a7 93bd 8e34 14bd f2ce bb3c 82ad c4bc
00000060: 74ab 89bd 8b3b 91bd 67c7 b23c 2c52 913c
00000070: 2291 c4bd 6950 48bd 3f23 ce3c 2f94 d63c
00000080: 5cbc 4c3d 3afb 7b3c 885b 33bc 3b66 73bd
00000090: a0d9 d3bd 539f 263d 27b7 96bd 8e6a 563c
000000a0: 7cd8 83bd d4d6 6ebd 7b01 b5bc b445 783d
000000b0: fb79 ba3d 8845 843d 1a56 f3bd 8718 22bd
000000c0: 9129 b9bb cda4 963d 98e0 aebc f257 7ebd
000000d0: bda2 533c 124c 5dbd 6ee2 99bd 9078 92bd
000000e0: f324 ec3c ccac 65bb d67a 1fbd 459b b5bc
000000f0: 7449 953d 79f2 11bd 795d 853d a4ef bf3d
00000100: 31e6 e13d 468f 143d aad9 5f3c 4630 a3bc
