inventory/model.pth (torch, 476113 bytes, 16 tensors)

conv.0.weight f4 [32, 3, 5, 5]
0.018573675 0.07367311 -0.056492187 -0.087852225 0.03173296 -0.090328075 0.078218356 0.104156956
0.07239734 0.013752506 0.01098913 -0.035332777 -0.0151009 0.06375857 0.048690237 -0.12148364
0.112211786 0.11288451 0.13253409 -0.033561338 0.023263292 0.08172822 0.0034195909 0.071956165
-0.0058823843 0.07535639 0.067072034 -0.06175142 -0.0726125 -0.038958848 -0.02265857 0.08177224
0.05915668 0.06737183 0.061423752 0.0393124 -0.06114019 0.032811265 -0.08939401 -0.10826508
-0.031979043 0.022363456 0.07034315 -0.030340707 -0.09361688 -0.053367585 0.033866175 0.048436075
0.05941373 -0.06887771 0.11238168 0.102368765 -0.08704863 -0.040666662 -0.08112359 0.015719565
-0.015839126 0.07855738 -0.025111688 0.0830795 0.09090043 -0.050938252 0.09581634 -0.10095328
-0.072404854 0.094199255 0.0418357 0.120255694 -0.07097991 -0.08484408 0.05503729 0.08703835
0.08668136 0.026834536 0.055849243 0.11535254 -0.013038563 0.07211964 -0.10624801 -0.10288736
0.02640932 0.09299396 0.11141725 0.097489625 -0.11920753 -0.047006197 0.097323745 0.052276358
0.022782374 -0.028534135 -0.08589782 -0.09365194 0.072154924 0.0354487 -0.020750249 -0.027001217
-0.025514813 -0.04752909 0.04948301 0.09892413 -0.051476933 -0.046614747 -0.10506863 0.060326245
-0.04565943 0.025069628 -0.013509323 -0.044019446 0.09056021 -0.07159566 0.09444226 -0.011936345
-0.09731936 -0.026219638 -0.010177884 -0.094144836 0.06814789 0.03609978 -0.013029153 -0.011911871
-0.08966661 0.06039962 -0.10129015 -0.099461704 -0.011253635 -0.005712165 0.013758888 -0.07600888
-0.09650953 -0.025524035 0.08787981 0.109340005 -0.016911535 0.079648785 0.0023719769 -0.013780439
0.03966309 -0.0512922 -0.06745816 0.075317234 -0.08428265 0.09896203 0.0048649097 0.089932606
0.057561677 -0.108910546 0.0742615 -0.10116983 0.0028311904 0.067970544 -0.00090193213 0.056268137
-0.02377859 -0.05021831 -0.1242154 0.06079586 -0.037622325 0.05648831 0.07565627 0.04169286
0.099329695 0.072851844 -0.0641962 -0.07288562 0.04449071 0.061109427 0.014014222 0.063367315
-0.07205468 -0.008759719 0.0735115 -0.037787482 -0.13006225 -0.09192557 -0.073401146 0.011261802
0.10873586 -0.109381236 0.02336517 0.03752145 -0.010333749 -0.05272205 -0.025820658 -0.023781665
-0.015400875 0.063687496 0.0820802 -0.077262886 -0.037809998 -0.07102954 0.063010275 -0.06301962
-0.004388927 -0.040328104 0.042211793 0.113914885 -0.09162763 0.09610389 -0.10438862 0.13068953
0.014592721 0.049458668 0.07367399 0.014171441 -0.0972909 0.04252448 0.05259374 -0.13331065
-0.049378652 -0.013698064 0.103638045 0.0042421194 0.022721099 0.07102217 -0.017675098 0.023072606
-0.059269387 0.06046502 0.017242145 -0.07078676 -0.040214904 -0.12227676 0.044870522 -0.043544903
0.04066605 -0.083844826 0.0476589 -0.031594526 -0.045452107 0.100932315 -0.026789773 -0.011986125
-0.01725782 0.08388487 0.06201238 0.037994415 -0.08870827 -0.0915165 -0.03040782 -0.08441519
0.029553397 -0.08791594 0.107340306 0.062367894 0.04708899 0.07357999 -0.093386814 0.07474581
-0.0018037957 -0.02328443 -0.109275855 0.09357943 0.045327257 0.035811987 -0.06670765 0.058824006
00000000: d227 983c ede1 963d 5a64 67bd deeb b3bd
00000010: 6cfa 013d edfd b8bd f230 a03d 3e50 d53d
00000020: 0e45 943d 3152 613c c00b 343c 1ab9 10bd
00000030: c469 77bc da93 823d 6a6f 473d 6acc f8bd
00000040: 4bcf e53d fe2f e73d 04b7 073e 9d77 09bd
00000050: a992 be3c 2061 a73d 371b 603b c15d 933d
00000060: 04c1 c0bb 7354 9a3d 105d 893d 0fef 7cbd
00000070: ddb5 94bd 5093 1fbd 779e b9bc 3478 a73d
00000080: 464e 723d 3efa 893d 7997 7b3d 0a06 213d
00000090: 236e 7abd 1b65 063d 3514 b7bd 15ba ddbd
000000a0: 75fc 02bd 9133 b73c 1210 903d 138d f8bc
000000b0: 35ba bfbd f897 5abd 42b7 0a3d e864 463d
000000c0: d05b 733d c20f 8dbd 5e28 e63d b7a6 d13d
000000d0: 8d46 b2bd 1692 26bd 2024 a6bd 51c6 803c
000000e0: 0ec1 81bc b1e2 a03d 07b7 cdbc 9625 aa3d
000000f0: 012a ba3d a1a4 50bd 5b3b c43d 98c0 cebd
00000100: ff48 94bd 8aeb c03d e95b 2b3d 9e48 f63d
00000110: ea5d 91bd bcc2 adbd c86e 613d 2a41 b23d
00000120: ff85 b13d 1ad4 db3c 2dc2 643d f43d ec3d
00000130: b29f 55bc 76b3 933d 8f98 d9bd 9cb6 d2bd
00000140: 5c58 d83c 9e73 be3d ba2e e43d a4a8 c73d
00000150: 1423 f4bd 9289 40bd ac51 c73d bc1f 563d
00000160: 1aa2 ba3c 6bc0 e9bc 32eb afbd 97cc bfbd
00000170: f6c5 933d a832 113d 6dfc a9bc a831 ddbc
00000180: 7104 d1bc ddad 42bd b2ae 4a3d bc98 ca3d
00000190: 7ad9 52bd 1bef 3ebd 392e d7bd a718 773d
000001a0: 6205 3bbd d25e cd3c 3556 5dbc bc4d 34bd
000001b0: a277 b93d bfa0 92bd f26a c13d a990 43bc
000001c0: 5f4f c7bd 91ca d6bc 24c1 26bc 02cf c0bd
000001d0: 1f91 8b3d 5ddd 133d 3b78 55bc 022a 43bc
000001e0: 21a3 b7bd 9865 773d 3671 cfbd 94b2 cbbd
000001f0: 2b61 38bc 1d2d bbbb f56c 613c 8baa 9bbd
00000200: caa6 c5bd c817 d1bc 54fa b33d a7ed df3d
00000210: 0f8a 8abc e71e a33d 2b73 1b3b 5ac7 61bc
00000220: c475 223d c517 52bd 8127 8abd ec3f 9a3d
00000230: 629c acbd 9bac ca3d d269 9f3b 962e b83d
00000240: cbc5 6b3d 7e0c dfbd 6a16 983d 2132 cfbd
00000250: 7e8b 393b 2434 8b3d a46f 6cba 6b79 663d
00000260: 51cb c2bc b7b1 4dbd a564 febd 1405 793d
00000270: de19 1abd 4960 673d adf1 9a3d 22c6 2a3d
00000280: 5e6d cb3d 5933 953d 4c79 83bd 0e45 95bd
00000290: e43b 363d e14d 7a3d e89b 653c b9c6 813d
000002a0: 6791 93bd ed84 0fbc 338d 963d 0cc7 1abd
000002b0: 0a2f 05be 7943 bcbd 5753 96bd 6c83 383c
000002c0: e8b0 de3d 4503 e0bd 5068 bf3c 18b0 193d
000002d0: e34e 29bc 14f3 57bd d885 d3bc c4d1 c2bc
000002e0: f453 7cbc 976e 823d aa19 a83d 013c 9ebd
000002f0: a8de 1abd ef77 91bd 880b 813d 6e10 81bd
00000300: fdd0 8fbb 152f 25bd 46e6 2c3d 354c e93d
00000310: 44a7 bbbd 1ed2 c43d b3c9 d5bd 7ad3 053e
00000320: 4f16 6f3c 2c95 4a3d 64e2 963d 552f 683c
00000330: 7440 c7bd 262e 2e3d 896c 573d 9682 08be
00000340: 4541 4abd d86d 60bc 2f40 d43d 7a01 8b3b
00000350: 9921 ba3c 1274 913d 5ecb 90bc c302 bd3c
00000360: 75c4 72bd 2baa 773d 663f 8d3c a6f8 90bd
00000370: 62b8 24bd 3d6c fabd 27ca 373d 245c 32bd
00000380: 7291 263d d6b6 abbd fb35 433d 4369 01bd
00000390: fd2b 3abd 9ab5 ce3d 3a76 dbbc 7461 44bc
000003a0: 4660 8dbc d5cb ab3d b200 7e3d 08a0 1b3d
000003b0: aeac b5bd 016d bbbd d219 f9bc dfe1 acbd
000003c0: f719 f23c 460d b4bd 3cd5 db3d 7a75 7f3d
000003d0: 63e0 403d 1bb1 963d 9641 bfbd 5514 993d
000003e0: 576d ecba fdbe bebc 05cc dfbd 92a6 bf3d
000003f0: 13a9 393d 97af 123d 059e 88bd 71f1 703d

conv.0.bias f4 [32]
-0.07092738 0.06763419 0.034972474 -0.008728179 -0.112380356 0.09120967 -0.030960683 -0.007252883
0.054662842 0.08701227 0.028602887 0.07504444 -0.11030688 -0.10217425 -0.03918298 -0.052317675
0.012986323 -0.045139253 0.071518116 0.071508296 0.047258373 0.07256152 -0.033302378 -0.10963506
0.10854688 -0.0020788917 -0.053019624 -0.048495732 0.0676247 0.10790113 -0.084885865 0.10421547
00000000: 6042 91bd cb83 8a3d 4c3f 0f3d a300 0fbc
00000010: ac27 e6bd 23cc ba3d 42a1 fdbc 98a9 edbb
00000020: 25e6 5f3d 7d33 b23d 9a50 ea3c e6b0 993d
00000030: 93e8 e1bd bc40 d1bd 557e 20bd 0f4b 56bd
00000040: 96c4 543c f0e3 38bd 1778 923d f172 923d
00000050: ff91 413d 229b 943d 1368 08bd 5988 e0bd
00000060: d44d de3d 043e 08bb 1b2b 59bd 76a3 46bd
00000070: d27e 8a3d 45fb dc3d a4d8 adbd ec6e d53d

conv.1.weight f4 [32]
0.97594976 1.0354893 1.0143777 0.98140496 1.0145701 0.9601568 0.9588971 0.9981294
1.00242 0.9849284 0.97738206 0.98588663 1.0731428 1.0534103 0.980717 1.0192418
0.94713944 0.9948385 0.98421466 0.9794865 0.9916138 0.9907245 1.0547259 0.9893608
1.0748023 1.0203387 1.0022942 1.0308304 1.0130274 0.97401536 1.0085076 0.97375524
00000000: d8d7 793f ea8a 843f 21d7 813f 5b3d 7b3f
00000010: 6fdd 813f d6cc 753f 487a 753f 6985 7f3f
00000020: 4c4f 803f 4524 7c3f b635 7a3f 1163 7c3f
00000030: be5c 893f 26d6 863f 4510 7b3f 8476 823f
00000040: bb77 723f bcad 7e3f 7ef5 7b3f a1bf 7a3f
00000050: 67da 7d3f 1fa0 7d3f 4201 873f c046 7d3f
00000060: 1f93 893f 759a 823f 2d4b 803f 40f2 833f
00000070: e2aa 813f 1259 793f c716 813f 0648 793f

conv.1.bias f4 [32]
-0.02747102 0.006361355 -0.05509857 0.00033954374 0.022882087 -0.04102929 0.01954886 -0.048146762
-0.018335873 -0.02199842 0.013953277 -0.013660845 0.036391307 -0.07362892 -0.101588845 -0.066777326
0.0065259784 -0.023707604 -0.09477801 0.037966717 -0.040787376 -0.027537214 -0.054739848 -0.020916902
-0.11226973 -0.052835006 -0.014115106 0.004807698 -0.021054616 0.014077882 0.031361856 0.0094816405
00000000: e80a e1bc ea72 d03b 0aaf 61bd ca04 b239
00000010: 3773 bb3c 540e 28bd ee24 a03c 8a35 45bd
00000020: 1d35 96bc 0836 b4bc 499c 643c bdd1 5fbc
00000030: 0d0f 153d c2ca 96bd d00d d0bd 8dc2 88bd
00000040: e0d7 d53b 7336 c2bc f91a c2bd fd82 1b3d
00000050: aa10 27bd b995 e1bc e436 60bd ec59 abbc
00000060: aced e5bd 8569 58bd 0c43 67bc e589 9d3b
00000070: bb7a acbc eba6 663c 4a75 003d e258 1b3c

conv.1.running_mean f4 [32]
0.40702015 0.0012900069 0.005170816 0.0034924073 -0.10397445 0.8215117 -0.13307299 0.035768345
-0.11192356 0.6359457 -0.019138329 0.1474107 -0.03580384 -0.17278013 0.0005872668 0.0032746776
-0.75452614 -0.34763184 0.11270416 -0.19695592 -0.061418496 -0.07387447 -0.06350564 -0.21197806
0.09556358 -0.29751995 -0.18402492 -0.080690235 0.09605334 0.19512461 -0.5235194 0.53488934
00000000: f264 d03e 7315 a93a f36f a93b dfe0 643b
00000010: 8ef0 d4bd 974e 523f 4944 08be d481 123d
00000020: 2e38 e5bd 56cd 223f fcc7 9cbc d5f2 163e
00000030: 0ca7 12bd 46ed 30be cff2 193a f99b 563b
00000040: a028 41bf cdfc b1be 70d1 e63d d0ae 49be
00000050: f691 7bbd 804b 97bd 3f0f 82bd c710 59be
00000060: d7b6 c33d 8954 98be 0771 3cbe ec40 a5bd
00000070: 9db7 c43d bfce 473e 5e05 06bf 82ee 083f

conv.1.running_var f4 [32]
0.078012094 0.009836733 0.013650677 0.008641497 0.015175708 0.14073275 0.03249857 0.0122250235
0.017326977 0.07589934 0.0056328247 0.012729562 0.009691838 0.008184377 0.033383198 0.009723014
0.14203851 0.040452205 0.017148847 0.019479955 0.012639951 0.030665183 0.012942429 0.012442058
0.03360321 0.043300614 0.016116323 0.017194405 0.0287815 0.021585401 0.050061848 0.05494754
00000000: cec4 9f3d 402a 213c 17a7 5f3c 1195 0d3c
00000010: 88a3 783c 3f1c 103e 381d 053d 774b 483c
00000020: 4ef1 8d3c 1d71 9b3d 8f93 b83b a78f 503c
00000030: 84ca 1e3c c417 063c d2bc 083d 474d 1f3c
00000040: 8b72 113e 36b1 253d bd7b 8c3c 6d94 9f3c
00000050: cc17 4f3c 8d35 fb3c 7b0c 543c c6d9 4b3c
00000060: 85a3 093d fc5b 313d 6106 843c 48db 8c3c
00000070: 2ec7 eb3c ded3 b03c a70d 4d3d ac10 613d

conv.4.weight f4 [32, 32, 3, 3]
0.032243673 0.059189305 -0.022377003 -0.009621111 0.01356747 0.033044547 -0.04502925 0.019845853
0.018845536 -0.05277675 0.08657473 -0.024464456 -0.076963045 0.099288344 -0.005587838 0.0059048315
0.07106756 0.017167965 0.04610779 0.0011370162 0.033066884 0.02439436 -0.0101345815 0.016256021
-0.045862928 0.0055257306 -0.072942875 0.037390456 0.06292433 0.037774194 -0.033019632 0.06964129
0.045067288 0.036342412 0.00011461432 0.004824179 -0.06310677 0.024962274 0.031139206 0.03221861
-0.037042573 -0.044256218 -0.04626379 -0.050010998 -0.03589831 -0.04600927 -0.060301222 0.04872177
-0.026607692 -0.02449433 -0.02987873 -0.019942267 -0.026274614 -0.052802924 -0.012087637 -0.04312174
0.0090037985 0.053985797 -0.011913346 -0.03585235 0.0045334497 0.03456018 -0.01671634 0.02582514
0.054844458 -0.045511164 0.032388996 0.075084046 0.025802018 -0.0065584593 -0.004973053 0.05506087
-0.023938974 -0.048360504 -0.07131221 -0.05310816 -0.0013212622 0.014585225 -0.0028362898 -0.021218656
-0.06944861 -0.0016995271 -0.013333859 0.0475596 -0.006381234 0.009373445 -0.030015195 -0.024856979
0.046090905 0.0063514276 -0.062884 0.02013272 -0.002259508 0.04373213 0.002943271 0.02918918
0.009843303 0.04203978 -0.024267597 -0.048918404 -0.0031096172 0.031206015 -0.01314056 0.016176997
0.028040953 0.04892205 0.017346233 -0.034158 0.0015135806 -0.021109117 0.007829654 -0.006545727
-0.08185645 -0.0186493 -0.005164704 0.021762 -0.07350996 -0.03777968 0.052156277 0.02986924
-0.015869036 -0.0469055 -0.0026512633 -0.0064430414 -0.0033594007 0.03316382 0.01066452 -0.011012389
0.047237553 -0.052526195 -0.0821494 -0.064201824 0.039326973 0.031427447 -0.036993712 -0.010204665
0.024155643 -0.055614226 0.010939262 -0.022246096 0.013473724 0.050789826 0.044257723 -0.0154332025
-0.03732324 0.018012533 0.038921475 0.017385442 -0.053375732 0.032568034 0.00020333291 0.024369176
-0.046572227 0.05701532 -0.012110192 -0.012485646 0.059036598 0.00836788 -0.044002075 -0.030481737
-0.04596215 0.003640333 0.013500492 -0.021553751 -0.014896779 -0.04764731 0.04791614 0.012708008
0.0012992568 -0.01534463 0.012947158 0.020870818 -0.025806326 0.029794877 -0.007935912 -0.052797228
-0.0027367794 0.027277883 0.0091668395 -0.023007732 -0.020366762 0.022666879 0.0483177 -0.040634952
0.054506615 0.05129908 -0.03509392 -0.05650636 0.02125002 0.02820157 0.011302192 -0.057504933
0.024896774 0.025792262 0.011298498 0.04449333 0.03790321 -0.021832852 0.06626017 0.07023308
-0.044278182 0.025315339 0.071414135 -0.020482304 0.048524864 0.063644506 0.020993367 0.019152561
0.036051694 -0.0074001728 0.062425736 0.044733483 0.021474667 0.005646508 -0.005411758 -0.009050319
0.03731553 0.0057966104 -0.041005593 -0.060189057 0.0425198 -0.046315644 0.03058411 0.013323774
0.021674156 0.024511248 -0.030855026 0.04336246 -0.023328349 -0.038814634 0.0508046 0.027248768
0.027459381 -0.007917119 0.015664473 -0.029977188 -0.062202487 0.0021044617 -0.025672808 0.041323055
0.013936377 0.008160788 -0.055384822 0.05436316 0.0052221725 -0.05786895 -0.023679847 0.051193073
0.026561275 -0.022814333 0.027662752 0.02404899 0.013209603 0.0665092 0.024883213 0.035230316
00000000: f111 043d 7c70 723d fa4f b7bc dda1 1dbc
00000010: 184a 5e3c b859 073d 9770 38bd c593 a23c
00000020: f461 9a3c 6f2c 58bd 184e b13d af69 c8bc
00000030: cd9e 9dbd b057 cb3d 2f1a b7bb 517d c13b
00000040: de8b 913d d5a3 8c3c 86db 3c3d ef07 953a
00000050: 2471 073d aed6 c73c 840b 26bc 592b 853c
00000060: c4da 3bbd 3011 b53b 1363 95bd bc26 193d
00000070: 79de 803d 1db9 1a3d 983f 07bd 18a0 8e3d
00000080: 7a98 383d c8db 143d 185d f038 2614 9e3b
00000090: 1f3e 81bd af7d cc3c a617 ff3c a9f7 033d
000000a0: f4b9 17bd 0246 35bd 1a7f 3dbd 55d8 4cbd
000000b0: 1b0a 13bd 3774 3cbd 6afe 76bd 7b90 473d
000000c0: 60f8 d9bc 55a8 c8bc 3dc4 f4bc f75d a3bc
000000d0: dc3d d7bc e147 58bd 390b 46bc 6ca0 30bd
000000e0: ab84 133c 3620 5d3d 3230 43bc ead9 12bd
000000f0: 558d 943b fa8e 0d3d b5f0 88bc 3e8f d33c
00000100: 95a4 603d ea69 3abd 53aa 043d aac5 993d
00000110: c15e d33c 58e8 d6bb fef4 a2bb 8287 613d
00000120: ab1b c4bc aa15 46bd 230c 92bd f187 59bd
00000130: 342e adba def6 6e3c 0ce1 39bb bfd2 adbc
00000140: 133b 8ebd abc2 deba 4276 5abc dbcd 423d
00000150: ac19 d1bb 1493 193c 6de2 f5bc dda0 cbbc
00000160: d1c9 3c3d a31f d03b 54c9 80bd 60ed a43c
00000170: 4114 14bb 7620 333d e5e3 403b 261e ef3c
00000180: ce45 213c e831 2c3d d7cc c6bc aa5e 48bd
00000190: b8ca 4bbb c2a3 ff3c 814b 57bc 9f85 843c
000001a0: 24b6 e53c 7d62 483d b019 8e3c 42e9 0bbd
000001b0: 5663 c63a 07ed acbc f347 003c 8a7d d6bb
000001c0: 5ba4 a7bd 6bc6 98bc ad3c a9bb 3946 b23c
000001d0: 648c 96bd debe 1abd d2a1 553d 56b0 f43c
000001e0: c8ff 81bc fb1f 40bd d1c0 2dbb 2620 d3bb
000001f0: 6429 5cbb c9d6 073d 3dba 2e3c 4f6d 34bc
00000200: 2a7c 413d b525 57bd f23d a8bd 3f7c 83bd
00000210: 5215 213d 11ba 003d b886 17bd 7831 27bc
00000220: 0ee2 c53c becb 63bd 973a 333c 723d b6bc
00000230: e5c0 5c3c fe08 503d 9647 353d 8bdb 7cbc
00000240: 41e0 18bd 058f 933c 206c 1f3d ea6b 8e3c
00000250: 83a0 5abd 0f66 053d c335 5539 dea1 c73c
00000260: 85c2 3ebd e588 693d d469 46bc 9890 4cbc
00000270: 5cd0 713d 6f19 093c 853b 34bd d6b4 f9bc
00000280: cf42 3cbd a792 6e3b 2b31 5d3c 7e91 b0bc
00000290: 9f11 74bc d329 43bd b743 443d 4035 503c
000002a0: d34b aa3a 0b68 7bbc 5120 543c 47f9 aa3c
000002b0: ca67 d3bc 6314 f43c a105 02bc e841 58bd
000002c0: 8a5b 33bb de75 df3c 8330 163c b67a bcbc
000002d0: 32d8 a6bc e4af b93c c8e8 453d d670 26bd
000002e0: 5442 5f3d fc1e 523d a4be 0fbd 3773 67bd
000002f0: 8614 ae3c fb06 e73c d42c 393c 4b8a 6bbd
00000300: 52f4 cb3c 4b4a d33c 561d 393c a33e 363d
00000310: 6540 1b3d cfda b2bc 69b3 873d 5cd6 8f3d
00000320: 0a5d 35bd 1d62 cf3c 9341 923d 81ca a7bc
00000330: 02c2 463d 0d58 823d 48fa ab3c d5e5 9c3c
00000340: f1aa 133d 267d f2bb 21b2 7f3d 753a 373d
00000350: a4eb af3c 5806 b93b 1e55 b1bb ca47 14bc
00000360: 2bd8 183d 7ef1 bd3b 7bf5 27bd cd88 76bd
00000370: 3e29 2e3d 79b5 3dbd 878b fa3c f54b 5a3c
00000380: 008e b13c d0cb c83c aec3 fcbc d69c 313d
00000390: 181b bfbc 18fc 1ebd 7c18 503d cf38 df3c
000003a0: 7ff2 e03c ceb6 01bc c852 803c b892 f5bc
000003b0: 09c8 7ebd 02eb 093b c84f d2bc 5d42 293d
000003c0: 6755 643c d3b4 053c 32db 62bd e8ab 5e3d
000003d0: c21e ab3b fe07 6dbd 3dfc c1bc d4af 513d
000003e0: 0897 d93c 20e5 babc ff9c e23c 6302 c53c
000003f0: 176d 583c fa35 883d e1d7 cb3c aa4d 103d

conv.4.bias f4 [32]
-0.013714996 -0.044706505 -0.008228284 -0.025902804 -0.0570626 0.024020467 -0.018493129 0.042562984
-0.054212984 -0.04816446 -0.037258163 0.05067487 0.045694727 0.017259618 0.038111545 0.02088993
-0.051200066 0.030043341 -0.04642931 -0.016604805 -0.05869589 0.029821077 0.02713437 -0.029081395
0.009917033 -0.008837347 0.023142539 -0.03996182 -0.040787484 -0.0024112668 -0.052808393 0.046287477
00000000: ddb4 60bc 2b1e 37bd edcf 06bc 1e32 d4bc
00000010: 79ba 69bd 92c6 c43c e77e 97bc 8656 2e3d
00000020: 6f0e 5ebd 1948 45bd 049c 18bd 7490 4f3d
00000030: 652a 3b3d 0b64 8d3c da1a 1c3d 5c21 ab3c
00000040: 29b7 51bd 741d f63c a92c 3ebd cd06 88bc
00000050: 1a6b 70bd 554b f43c e648 de3c 1b3c eebc
00000060: 0d7b 223c 85ca 10bc 6c95 bd3c 01af 23bd
00000070: c710 27bd 5806 1ebb 9d4d 58bd f097 3d3d

conv.5.weight f4 [32]
1.1058921 1.0998291 1.1178089 1.1174703 1.1111876 1.1028464 1.1092644 1.1023623
1.1085733 1.1014048 1.1170472 1.1071607 1.1098169 1.1189736 1.1043451 1.0993121
1.1085724 1.1097406 1.0975474 1.1017584 1.1087532 1.1042657 1.1020427 1.0803814
1.0881094 1.1002964 1.1182201 1.0969126 1.113534 1.1012936 1.1044389 1.0978261
00000000: df8d 8d3f 33c7 8c3f 5d14 8f3f 4409 8f3f
00000010: 653b 8e3f 122a 8d3f 60fc 8d3f 351a 8d3f
00000020: bbe5 8d3f d5fa 8c3f 67fb 8e3f 71b7 8d3f
00000030: 7b0e 8e3f 873a 8f3f 2e5b 8d3f 42b6 8c3f
00000040: b3e5 8d3f fb0b 8e3f 6f7c 8c3f 6b06 8d3f
00000050: a0eb 8d3f 9458 8d3f bc0f 8d3f f049 8a3f
00000060: 2b47 8b3f 83d6 8c3f d621 8f3f a267 8c3f
00000070: 4888 8e3f 30f7 8c3f 415e 8d3f 9185 8c3f

conv.5.bias f4 [32]
0.083055764 0.073667616 0.09543979 0.08708717 0.091725506 0.09001129 0.0820937 0.08091399
0.09092038 0.082939655 0.09234671 0.080964 0.080885045 0.09263782 0.080133356 0.08307369
0.09833102 0.09271676 0.07473247 0.08172369 0.086949416 0.08678779 0.08258923 0.070867985
0.072250806 0.08387536 0.090716615 0.08690343 0.08069833 0.08579177 0.091998026 0.0757817
00000000: 2419 aa3d 0cdf 963d f075 c33d c25a b23d
00000010: 95da bb3d d757 b83d be20 a83d 3cb6 a53d
00000020: 7734 ba3d 44dc a93d 4620 bd3d 74d0 a53d
00000030: 0fa7 a53d e6b8 bd3d f51c a43d 8a22 aa3d
00000040: c661 c93d 49e2 bd3d 560d 993d c05e a73d
00000050: 8912 b23d ccbd b13d 8b24 a93d 3c23 913d
00000060: 3bf8 933d d8c6 ab3d a2c9 b93d 6dfa b13d
00000070: 2b45 a53d 98b3 af3d 7669 bc3d 7033 9b3d

conv.5.running_mean f4 [32]
0.095415935 0.05099666 0.014869939 -0.43891585 -0.20648156 -0.08674361 0.07310302 0.17495623
0.19882031 -0.48953193 0.18560164 0.022455547 0.118673556 -0.05181608 0.007279687 -0.09834809
-0.4415533 -0.26182407 0.50730133 -0.27947333 -0.0035393005 0.26198965 0.025549773 -0.31254584
0.08829603 -0.33914244 -0.51923746 0.026117519 -0.10852671 -0.11385035 -0.26098776 0.2585012
00000000: 6e69 c33d e0e1 503d 0ba1 733c 94b9 e0be
00000010: e76f 53be a2a6 b1bd 09b7 953d ba27 333e
00000020: 8d97 4b3e eea3 fabe 5b0e 3e3e b2f4 b73c
00000030: 1f0b f33d 193d 54bd 718a ee3b b96a c9bd
00000040: 4613 e2be ce0d 86be 80de 013f 2117 8fbe
00000050: 9cf3 67bb 8223 863e c24d d13c 0206 a0be
00000060: 8dd4 b43d 14a4 adbe bfec 04bf 68f4 d53c
00000070: 4043 debd 5f2a e9bd 30a0 85be 455a 843e

conv.5.running_var f4 [32]
0.017714499 0.016900035 0.018991305 0.014302458 0.022411851 0.018975304 0.01623234 0.027358057
0.019659076 0.0224994 0.020250484 0.015258593 0.011987173 0.018975401 0.015022726 0.027362227
0.030547569 0.019194394 0.04111588 0.03317573 0.01489547 0.029122656 0.021487378 0.09646988
0.021570116 0.029661078 0.019717462 0.04935756 0.012862502 0.022983348 0.017667422 0.015308364
00000000: ff1d 913c f171 8a3c a793 9b3c db54 6a3c
00000010: 0f99 b73c 1972 9b3c aff9 843c 011e e03c
00000020: 120c a13c a950 b83c 58e4 a53c 2dff 793c
00000030: d965 443c 4d72 9b3c e121 763c c026 e03c
00000040: e53e fa3c 903d 9d3c 2069 283d 46e3 073d
00000050: 210c 743c a392 ee3c 4c06 b03c 0092 c53d
00000060: d0b3 b03c cafb f23c 8486 a13c 272b 4a3d
00000070: 3ebd 523c 9347 bc3c 45bb 903c efcf 7a3c

fc.0.weight f4 [348, 128]
-0.099197924 -0.05761774 0.0084992 0.16009639 -0.040137123 0.047485203 0.12620173 0.017782865
-0.11984634 -0.016504541 -0.023014134 -0.010028284 0.18899903 0.1997522 -0.038686883 0.082095616
0.05286567 -0.018195648 -0.008156975 0.026219202 -0.041218024 -0.15287237 -0.022136042 0.14402933
0.024145942 0.016506791 0.010728592 0.103121616 -0.13131313 0.08233307 0.018951213 0.0007065437
0.01495692 -0.022359684 0.006382285 0.0007320608 0.05732516 0.04493951 -0.0024391555 -0.008900971
0.15728077 0.11121379 0.092311904 -0.039783638 -0.14221656 0.004385868 0.03814073 -0.0016101645
0.10224392 -0.070217445 -0.13802691 -0.021933476 0.19712925 -0.0030984862 0.0018341969 -0.08074523
0.13280804 0.16410813 -0.08500402 -0.091692425 0.0022315271 0.15001638 0.17106809 -0.16751789
0.12914638 -0.15440561 -0.07950213 -0.013871771 0.13172416 -0.018409703 0.11707213 -0.05600158
-0.017474499 -0.0042083655 0.15831435 0.116206475 -0.09159805 -0.1308148 -0.12382138 -0.09409245
-0.07986054 -0.0081364885 -0.11865767 -0.06891621 0.078896254 0.032496464 0.07897934 0.029286342
0.118813746 0.032257754 0.17570628 0.07932874 -0.05137367 0.072552204 0.100771055 0.08907238
-0.08640337 -0.065165766 0.124024756 -0.009140546 0.15752083 0.0021283103 0.05160375 0.005434429
0.12576744 0.09221017 0.04368849 -0.10277173 0.03726925 -0.031119796 0.091696694 0.1691169
-0.07770161 0.07530296 0.05720228 0.10882424 0.13393945 0.09918542 -0.02761502 0.062295042
0.081353076 0.072690986 -0.08275498 0.07025616 0.0052961777 0.045017153 0.15266435 0.16402787
-0.00044332672 -0.048327032 -0.15241738 -0.022971598 -0.030800514 0.06463301 -0.0855809 -0.12505682
0.1271638 -0.10229459 -0.083280705 -0.13771431 0.17541955 0.10804863 0.043677658 0.021718532
-0.00095640967 0.13871054 -0.01662999 0.07056307 -0.16630827 -0.0067019463 -0.049194556 -0.12859225
0.02571673 0.08428487 0.0054164953 0.051703308 -0.08546297 0.010490643 0.002344641 0.07778099
0.09756605 0.10307653 0.03197266 -0.13315988 0.039904058 0.09486504 -0.0038814219 0.03631665
0.095201656 0.055180337 0.22467972 0.020588117 -0.16541833 0.16679008 -0.07207059 -0.13507763
0.05573898 0.05621319 0.0014415352 -0.00018519521 -0.1250879 0.15986608 -0.010324173 -0.06974496
-0.023678144 0.09014394 -0.0044060294 -0.12266188 0.062047336 0.048685923 0.057809316 -0.11455486
-0.04398166 0.03261154 0.11818049 -0.035158597 0.12863839 -0.07171864 0.14039575 0.078878164
-0.022375215 -0.1227398 0.12011667 0.019197632 -0.018282354 0.03406622 -0.009329121 0.12709218
-0.05608977 0.1599699 -0.19515273 -0.1812627 0.046278194 -0.012175441 0.06411716 0.13958842
-0.101704575 0.064994656 0.06934323 0.031180235 -0.009514807 0.07833136 -0.05536424 -0.092721425
-0.06430902 -0.0042124363 0.027787155 0.12695253 0.18369855 0.088083014 0.053878807 0.14986686
0.14155903 0.14013413 0.015871037 0.16102955 -0.04804934 -0.07000518 0.114215076 0.046955824
0.08419183 0.07092466 -0.108687565 -0.12091789 0.12594423 -0.072488256 0.051198624 0.080025315
0.04375973 -0.08171791 -0.040888444 0.17816362 0.1295363 0.16434774 -0.12644878 -0.07178557
00000000: 4828 cbbd 9400 6cbd 3b40 0b3c 4ff0 233e
00000010: d366 24bd d87f 423d 073b 013e 5fad 913c
00000020: ff71 f5bd 8834 87bc 2388 bcbc ac4d 24bc
00000030: f688 413e d78b 4c3e 2376 1ebd bf21 a83d
00000040: ac89 583d 0a0f 95bc d5a4 05bc a7c9 d63c
00000050: 3bd4 28bd 938a 1cbe a556 b5bc 6d7c 133e
00000060: b6cd c53c 4039 873c fac6 2f3c 6d31 d33d
00000070: f376 06be 3e9e a83d 933f 9b3c 5837 393a
00000080: df0d 753c a82b b7bc 7d22 d13b c5e7 3f3a
00000090: c9cd 6a3d 7e12 383d 3dda 1fbb 61d5 11bc
000000a0: 360e 213e 0ec4 e33d 060e bd3d 2bf4 22bd
000000b0: 38a1 11be 54b7 8f3b 7439 1c3d 280c d3ba
000000c0: 4365 d13d 2ace 8fbd ed56 0dbe d5ad b3bc
000000d0: 40dc 493e f90f 4bbb 6f69 f03a c15d a5bd
000000e0: d5fe 073e f60b 283e 9616 aebd 3dc9 bbbd
000000f0: d03e 123b e59d 193e 792c 2f3e cf89 2bbe
00000100: f33e 043e 811c 1ebe 03d2 a2bd 6d46 63bc
00000110: b3e2 063e f2cf 96bc 83c3 ef3d ea61 65bd
00000120: ae26 8fbc 54e6 89bb 281d 223e a9fd ed3d
00000130: c297 bbbd 51f4 05be 1096 fdbd 8bb3 c0bd
00000140: ec8d a3bd e84e 05bc cb02 f3bd f123 8dbd
00000150: 5c94 a13d 031b 053d ecbf a13d e9e9 ef3c
00000160: 9f54 f33d b520 043d 59ec 333e 1b77 a23d
00000170: 336d 52bd 4096 943d 0e61 ce3d 946b b63d
00000180: 40f4 b0bd a175 85bd b100 fe3d 3bc2 15bc
00000190: 244d 213e 1f7b 0b3b 745e 533d 4b13 b23b
000001a0: 2ec9 003e b0d8 bc3d b4f2 323d fc79 d2bd
000001b0: a4a7 183d f1ee febc 7acb bb3d fb2c 2d3e
000001c0: 0622 9fbd 7038 9a3d f04c 6a3d 3edf de3d
000001d0: 6c27 093e ba21 cb3d e538 e2bc 1629 7f3d
000001e0: 719c a63d 03df 943d 717b a9bd 76e2 8f3d
000001f0: 8f8b ad3b e863 383d 0b54 1c3e ecf6 273e
00000200: 4e6e e8b9 91f2 45bd 4d13 1cbe ef2e bcbc
00000210: 5c51 fcbc 505e 843d 0a45 afbd e50e 00be
00000220: 3a37 023e d37f d1bd 138f aabd fb04 0dbe
00000230: 2fa1 333e 9a48 dd3d 58e7 323d 10eb b13c
00000240: 91b7 7aba 230a 0e3e 9e3b 88bc 5f83 903d
00000250: b74c 2abe 009c dbbb 3b80 49bd b0ad 03be
00000260: e4ab d23c 8c9d ac3d db7c b13b d9c6 533d
00000270: 3607 afbd f2e0 2b3c 8ca8 193b a44b 9f3d
00000280: b6d0 c73d ca19 d33d c4f5 023d 105b 08be
00000290: 7072 233d 9a48 c23d 745f 7ebb c5c0 143d
000002a0: 16f9 c23d c704 623d 7112 663e 69a8 a83c
000002b0: 6c63 29be 05cb 2a3e bf99 93bd ca51 0abe
000002c0: 8f4e 643d cd3f 663d e5f1 bc3a f630 42b9
000002d0: 0b17 00be efb3 233e b826 29bc 72d6 8ebd
000002e0: abf8 c1bc 639d b83d 7460 90bb 2736 fbbd
000002f0: 5925 7e3d e46a 473d 76c9 6c3d bd9b eabd
00000300: 1d26 34bd ae93 053d 9d08 f23d 7602 10bd
00000310: c8b9 033e 39e1 92bd e7c3 0f3e e08a a13d
00000320: 3a4c b7bc 015f fbbd bbff f53d 5a44 9d3c
00000330: e0c4 95bc 0589 0b3d 2bd9 18bc 7424 023e
00000340: 63be 65bd 26cf 233e 1ed6 47be ee9c 39be
00000350: 348e 3d3d 807b 47bc dc4f 833d 44f0 0e3e
00000360: 7d4a d0bd eb1b 853d d303 8e3d b16d ff3c
00000370: fee3 1bbc 316c a03d 9dc5 62bd bbe4 bdbd
00000380: 73b4 83bd 7a08 8abb e3a1 e33c d8ff 013e
00000390: 791b 3c3e de64 b43d 06b0 5c3d b376 193e
000003a0: daf4 103e 527f 0f3e fa03 823c eee4 243e
000003b0: 62cf 44bd e05e 8fbd 98e9 e93d c054 403d
000003c0: c46c ac3d f340 913d 9697 debd cca3 f7bd
000003d0: 86f7 003e b974 94bd a6b5 513d 50e4 a33d
000003e0: 673d 333d b85b a7bd a47a 27bd 8670 363e
000003f0: 2aa5 043e c64a 283e ca7b 01be 5004 93bd

fc.0.bias f4 [348]
0.03873614 0.073378615 -0.0292244 0.11767292 -0.058600947 -0.0430788 0.052231614 0.08803309
0.06944636 -9.8306504e-05 -0.0067683607 -0.026375353 0.012198595 -0.059609216 0.07035418 0.057453066
0.024353733 0.07187938 0.044523485 0.069532156 0.05048018 0.031919703 -0.01578371 -0.04118733
0.047942158 0.024649713 0.071193576 -0.045482576 0.030140296 0.036324017 0.056579474 0.092422076
0.013178673 0.09975638 0.039160274 0.022764236 0.10084601 -0.05712227 0.0742537 0.16486712
0.020557161 -0.048933066 -0.042108364 -0.054983325 0.0039144726 0.054255754 0.03635613 0.06377889
0.01626277 -0.047144007 -0.049007855 0.02984029 -0.061011985 -0.018372705 -0.050922338 0.050578427
0.04243294 0.10721189 0.10663763 0.0408971 -0.017803166 -0.027243124 0.07724544 0.0054731653
0.076106995 0.10913409 -0.009792225 0.004146078 0.14555155 0.04463556 -0.024095755 0.099582665
0.09547289 0.06857327 0.04182059 -0.022550045 -0.054466445 -0.08732506 0.007226914 -0.015026103
-0.029794857 0.036976837 0.024240732 0.12535568 -0.027348965 0.017649615 -0.010768169 0.1065743
-0.037095375 -0.022070715 0.11404491 0.08988965 0.021953948 0.03744474 -0.0351768 -0.028443439
0.028039504 -0.06633937 0.009898918 -0.041884623 0.07475039 0.06656578 0.07215258 -0.073626816
-0.016026499 0.07292298 0.041571602 0.07279827 0.08809919 0.08139735 -0.04050357 -0.04020207
0.07009349 0.075723045 0.06371651 -0.07065549 -0.00081985263 0.0464807 0.07250455 0.10493825
0.066424906 0.08795065 0.028593725 -0.060772005 0.051254403 0.04243058 0.10246434 0.058731902
0.095209554 0.088401854 -0.025130404 0.13984372 0.056686014 0.036271743 -0.029786266 0.034384083
0.10219887 0.034716357 0.021432068 0.0067421296 0.02939426 0.020999368 -0.059382502 -0.0033754818
0.08165867 0.12904668 0.08024668 0.06294393 0.13226517 -0.026090523 0.07866836 0.04324647
0.039848827 0.030973652 -0.017229129 -0.058687385 0.022502685 0.05418849 0.023796791 0.029739982
0.06261198 0.0009931118 0.09904933 0.07240369 0.041441817 0.07241108 0.024858499 -0.018919941
0.082891725 0.08697908 0.07548819 -0.0059623607 0.07614865 0.018573683 -0.063632056 0.11702824
0.042135812 0.022570804 0.11686757 0.007087397 0.06650313 0.022654949 -0.0023638 0.0893696
0.0874182 0.01317447 -0.008521306 0.12650475 0.00033264433 -0.042746898 0.096367344 0.066848375
0.045518115 0.06848667 -0.028191645 0.05851487 -0.020997863 0.073634535 -0.0135878045 0.018538104
0.07186997 0.05960391 0.11055827 -0.009401492 0.046580218 0.12652457 0.07445198 0.07989947
-0.0057817404 0.004701266 -0.018719066 0.0375251 0.031960018 0.10573455 -0.022019211 0.10368486
0.08890553 0.10924844 0.12060808 0.07247919 0.11694037 -0.054392427 0.024965951 0.06831917
0.09899923 0.005078088 -0.009138019 0.044417053 -0.0373249 -0.0318126 -0.094830684 0.0032420147
-0.002168667 0.06330457 -0.048875414 0.10103791 -0.011464899 -5.781917e-05 0.14133948 0.026390871
-0.000552693 -0.023037221 -0.0104247 -0.050223492 -0.0514136 0.046760857 0.12702006 -0.042406593
-0.0050254716 0.041229714 0.077129275 -0.021659404 0.023215316 -0.022703784 -0.05090815 -0.00045243578
00000000: c9a9 1e3d 8747 963d 0268 efbc 80fe f03d
00000010: 8c07 70bd 6573 30bd d1f0 553d b14a b43d
00000020: e539 8e3d e729 ceb8 20c9 ddbb 2011 d8bc
00000030: 9edc 473c cb28 74bd da15 903d e853 6b3d
00000040: 7b81 c73c 7f35 933d 425e 363d e066 8e3d
00000050: 4ec4 4e3d 3cbe 023d d74c 81bc 0cb4 28bd
00000060: ff5e 443d 32ee c93c f0cd 913d f04b 3abd
00000070: c8e8 f63c 7ec8 143d e1bf 673d c947 bd3d
00000080: 5ceb 573c 134d cc3d 8666 203d 107c ba3c
00000090: 5a88 ce3d 0bf9 69bd 5312 983d edd2 283e
000000a0: 7e67 a83c 0a6e 48bd d279 2cbd 3236 61bd
000000b0: fa44 803b 483b 5e3d 2aea 143d 829e 823d
000000c0: 8039 853c 131a 41bd 76bc 48bd a073 f43c
000000d0: b4e7 79bd 5b82 96bc f193 50bd 532b 4f3d
000000e0: 2ace 2d3d e891 db3d d464 da3d b883 273d
000000f0: f2d7 91bc f92c dfbc db32 9e3d 3d58 b33b
00000100: fcdd 9b3d b281 df3d 926f 20bc d3db 873b
00000110: 770b 153e c7d3 363d 7664 c5bc fff1 cb3d
00000120: 4a87 c33d 2570 8c3d 114c 2b3d dfba b8bc
00000130: 3518 5fbd 7bd7 b2bd c0cf ec3b 0b30 76bc
00000140: 5814 f4bc 0675 173d 8094 c63c 3d5d 003e
00000150: f00a e0bc ed95 903c f96c 30bc a043 da3d
00000160: 52f1 17bd a5cd b4bc 6190 e93d 1118 b83d
00000170: c4d8 b33c a85f 193d 8c15 10bd 3702 e9bc
00000180: 1ab3 e53c f0dc 87bd 122f 223c 368f 2bbd
00000190: bc16 993d a453 883d bbc4 933d a8c9 96bd
000001a0: 014a 83bc a558 953d fc46 2a3d 4217 953d
000001b0: 596d b43d a7b3 a63d 12e7 25bd edaa 24bd
000001c0: 2d8d 8f3d af14 9b3d cd7d 823d d3b3 90bd
000001d0: 61eb 56ba 8c62 3e3d 447d 943d dde9 d63d
000001e0: c809 883d 781f b43d 633d ea3c 11ec 78bd
000001f0: 23f0 513d b0cb 2d3d d3d8 d13d dd90 703d
00000200: 3afd c23d 080c b53d 47de cdbc 3133 0f3e
00000210: 982f 683d ae91 143d 5402 f4bc 53d6 0c3d
00000220: a44d d13d bd32 0e3d 4e92 af3c 15ed dc3b
00000230: 3bcc f03c de06 ac3c 113b 73bd 3037 5dbb
00000240: a93c a73d d024 043e 5f58 a43d bfe8 803d
00000250: 8570 073e cbbb d5bc e11c a13d 3623 313d
00000260: 8638 233d 75bc fd3c 1a24 8dbc 2f62 70bd
00000270: 8d57 b83c c0f4 5d3d 7df1 c23c 43a1 f33c
00000280: b63a 803d 4d2b 823a 60da ca3d 6348 943d
00000290: e5be 293d 434c 943d 0da4 cb3c fefd 9abc
000002a0: 23c3 a93d 1722 b23d 8d99 9a3d e85f c3bb
000002b0: d3f3 9b3d d627 983c 8651 82bd 80ac ef3d
000002c0: 9a96 2c3d 68e6 b83c 4458 ef3d 653d e83b
000002d0: cb32 883d df96 b93c fce9 1abb 6907 b73d
000002e0: 5008 b33d bbd9 573c f39c 0bbc 768a 013e
000002f0: c466 ae39 5f17 2fbd 3e5c c53d cde7 883d
00000300: 3471 3a3d bd42 8c3d 2af2 e6bc 4aad 6f3d
00000310: b603 acbc b4cd 963d 629f 5ebc 39dd 973c
00000320: 9030 933d 3b23 743d 606c e23d b708 1abc
00000330: e6ca 3e3d a88f 013e 487a 983d 55a2 a33d
00000340: c174 bdbb 140d 9a3b ba58 99bc ebb3 193d
00000350: 82e8 023d 5b8b d83d a261 b4bc ba58 d43d
00000360: 1a14 b63d a5bd df3d 5e01 f73d f86f 943d
00000370: 6f7e ef3d 98ca 5ebd 6585 cc3c ecea 8b3d
00000380: 1cc0 ca3d 1766 a63b a1b7 15bc a8ee 353d
00000390: ffe1 18bd ee4d 02bd 9736 c2bd fb77 543b
000003a0: 3220 0ebb d4a5 813d 9631 48bd f7ec ce3d
000003b0: 46d7 3bbc dc82 72b8 4cbb 103e ab31 d83c
000003c0: 99e2 10ba 8eb8 bcbc 5ccc 2abc 26b7 4dbd
000003d0: 1197 52bd 5088 3f3d 8c11 023e 89b2 2dbd
000003e0: b6ac a4bb 7de0 283d f4f5 9d3d 106f b1bc
000003f0: 0c2e be3c 49fd b9bc 1085 50bd e734 edb9

fc.2.weight f4 [174, 348]
-0.009547185 0.08186007 0.10664783 0.059432473 -0.023621844 -0.029851679 -0.088720016 0.038458493
-0.09502765 0.015967924 -0.060264707 -0.056669798 -0.026473107 -0.117738426 0.005286306 -0.023610057
0.10630655 0.112134255 -0.107166685 0.017770609 -0.077784866 0.07333799 0.021612462 -0.04144773
-0.013221658 -0.14640488 -0.101909325 -0.090527415 -0.038018048 0.043372072 -0.011213969 0.008348785
-0.0019788097 0.09109809 -0.068048805 -0.062262792 -0.027226914 -0.017350692 -0.046438247 -0.031074211
-0.06321652 0.0053312853 0.102331996 -0.088008866 0.050146878 -0.10589365 0.06985155 0.002571704
-0.09151885 0.025111206 -0.06514264 0.0201342 0.05788609 -0.11066571 -0.08436897 -0.13216953
0.045387633 0.053830896 -0.07874201 -0.09004225 -0.009388253 0.011965363 0.025584444 -0.07765002
-0.07621175 -0.079117715 -0.09444197 0.1533818 -0.01928521 0.017829506 -0.00014353986 -0.050867092
0.06327999 0.019085355 -0.020372165 0.06374215 -0.07013902 0.021091757 -0.104154676 0.10742977
-0.09118182 -0.07202745 -0.019482045 -0.0097017605 -0.014280764 -0.046851516 0.020652473 -0.07363629
0.021191735 -0.026058262 0.07300096 -0.11745398 -0.06157421 0.06404655 0.009879453 -0.07096563
0.05438166 -0.011896136 0.012950435 0.029277291 -0.11943549 -0.031947132 0.11612833 -0.13665785
0.08446412 0.051934995 0.0049205027 -0.007970869 -0.0911899 -0.079427116 0.066223204 0.11403235
-0.09171843 -0.116471685 -0.08523629 -0.075949945 0.0517654 -0.009476451 -0.04938933 -0.048971154
0.092564695 0.097346626 -0.06538376 -0.022271642 -0.08525262 -0.12222856 -0.08224001 -0.048822027
-0.072576225 -0.07505787 -0.09900328 -0.050871216 -0.08431791 0.007278728 -0.08297533 0.030345056
-0.077022605 -0.032183062 0.035255693 0.009042726 -0.011563057 0.013165494 -0.040559143 -0.049130954
0.14567727 0.0006930982 0.0356287 -0.058718108 0.032288328 0.011650633 -0.02062517 0.121937804
-0.01289696 0.036481246 0.08249195 0.038964704 0.038947504 0.020707076 -0.06141492 0.084331445
-0.035860073 0.02940852 0.01378542 -0.09372495 0.0935231 -0.057805177 -0.09665657 -0.086324066
0.07996675 -0.04214239 -0.029976496 0.11875629 0.07930903 -0.05459758 -0.0033388557 -0.008122732
0.08393657 0.11318809 -0.0025344894 -0.029019712 -0.09855508 0.053538915 -0.06792245 0.043240484
-0.02748518 -0.13334525 0.11778831 -0.12891792 0.12751882 0.026709318 0.07940519 -0.119642034
0.058857992 -0.02117095 -0.046280593 -0.010924829 -0.033908296 0.060684796 -0.033872623 -0.100467704
-0.020486413 -0.059970487 -0.017461674 0.006887037 -0.008956907 0.08386789 -0.050381962 -0.030910613
0.028547646 -0.07823869 0.11863732 0.0022313036 -0.055917874 -0.010335553 -0.03974791 -0.085990585
-0.10247358 0.03903198 0.06599346 0.04138428 -0.017831247 0.07991663 -0.085010186 0.07367197
0.07972942 -0.046735086 -0.13250622 0.072427265 -0.07994638 0.08170996 0.009669047 -0.16831978
0.028498577 -0.018105183 -0.016840694 -0.12352594 0.033994496 -0.11795493 0.12473866 -0.09090343
0.0304981 -0.054185186 -0.102386005 0.10091981 -0.104057774 -0.011478842 -0.0590006 -0.01949055
0.010454001 -0.09880266 -0.009503106 -0.014649259 0.112869866 0.069420815 -0.02209129 -0.03702949
00000000: cc6b 1cbc 41a6 a73d 2d6a da3d 776f 733d
00000010: 9982 c1bc 828b f4bc d7b2 b5bd a786 1d3d
00000020: db9d c2bd 2acf 823c 20d8 76bd 971e 68bd
00000030: 21de d8bc d820 f1bd c038 ad3b e169 c1bc
00000040: 40b7 d93d a5a6 e53d 357a dbbd ab93 913c
00000050: ac4d 9fbd 3a32 963d 9e0c b13c 18c5 29bd
00000060: a79f 58bc 29eb 15be d6b5 d0bd 7066 b9bd
00000070: d0b8 1bbd eaa6 313d ccba 37bc 58c9 083c
00000080: ebae 01bb a391 ba3d 2c5d 8bbd 4507 7fbd
00000090: fa0a dfbc 0a23 8ebc 0836 3ebd 588f febc
000000a0: aa77 81bd 10b2 ae3b 7093 d13d fe3d b4bd
000000b0: d066 4d3d c5de d8bd 540e 8f3d 098a 283b
000000c0: 3c6e bbbd 04b6 cd3c 8169 85bd 7af0 a43c
000000d0: f719 6d3d b4a4 e2bd a3c9 acbd 7357 07be
000000e0: 62e8 393d c97d 5c3d 7e43 a1bd 1268 b8bd
000000f0: 30d1 19bc 5f0a 443c 7896 d13c f906 9fbd
00000100: e814 9cbd 7808 a2bd cb6a c1bd 1e10 1d3e
00000110: 04fc 9dbc 2f0f 923c 3083 16b9 035a 50bd
00000120: f098 813d e458 9c3c 87e3 a6bc 3f8b 823d
00000130: 0ca5 8fbd 9fc8 ac3c 0c4f d5bd 2404 dc3d
00000140: 89bd babd 2183 93bd cf98 9fbc 22f4 1ebc
00000150: def9 69bc 60e7 3fbd 602f a93c a0ce 96bd
00000160: 4a9a ad3c 2378 d5bc 8781 953d b68b f0bd
00000170: 3d35 7cbd d62a 833d 6edd 213c 6e56 91bd
00000180: 4ebf 5e3d 03e8 42bc 102e 543c eed6 ef3c
00000190: 989a f4bd ffda 02bd b1d4 ed3d 09f0 0bbe
000001a0: 86fb ac3d cab9 543d 2b3c a13b 3f98 02bc
000001b0: c5c1 babd afaa a2bd 08a0 873d cb89 e93d
000001c0: dfd6 bbbd b588 eebd 5d90 aebd a58b 9bbd
000001d0: f507 543d 1e43 1bbc 774c 4abd fa95 48bd
000001e0: 8f92 bd3d ab5d c73d ece7 85bd 0573 b6bc
000001f0: ed98 aebd f852 fabd 736d a8bd 9bf9 47bd
00000200: d8a2 94bd f1b7 99bd 3bc2 cabd 565e 50bd
00000210: deae acbd 6582 ee3b f8ee a9bd 3296 f83c
00000220: 07be 9dbd 63d2 03bd 4668 103d f127 143c
00000230: fa72 3dbc 16b4 573c 5821 26bd 8a3d 49bd
00000240: 6c2c 153e 08b1 353a 66ef 113d 6682 70bd
00000250: c440 043d 4ce2 3e3c 1ef6 a8bc 87ba f93d
00000260: c54d 53bc 5c6d 153d 8af1 a83d 7499 1f3d
00000270: 6b87 1f3d e3a1 a93c 368e 7bbd f7b5 ac3d
00000280: 03e2 12bd 23ea f03c 3edc 613c def2 bfbd
00000290: 0a89 bf3d 1fc5 6cbd e1f3 c5bd acca b0bd
000002a0: 9cc5 a33d 809d 2cbd 4591 f5bc 7f36 f33d
000002b0: c66c a23d b6a1 5fbd b4d0 5abb 3515 05bc
000002c0: f0e6 ab3d 28cf e73d ad19 26bb bfba edbc
000002d0: 3fd7 c9bd 9f4b 5b3d ed1a 8bbd ef1c 313d
000002e0: 9a28 e1bc a88b 08be ff3a f13d 0f03 04be
000002f0: 4b94 023e 80cd da3c 309f a23d e206 f5bd
00000300: 1415 713d b36e adbc b890 3dbd 0efe 32bc
00000310: 6de3 0abd 9f90 783d 05be 0abd 03c2 cdbd
00000320: 1fd3 a7bc 9da3 75bd c90b 8fbc a7ac e13b
00000330: febf 12bc eec2 ab3d 515d 4ebd 4138 fdbc
00000340: c1dc e93c 9b3b a0bd 20f8 f23d 103b 123b
00000350: 240a 65bd 7456 29bc b4ce 22bd d51b b0bd
00000360: abdd d1bd ffdf 1f3d 9427 873d 9082 293d
00000370: d612 92bc 55ab a33d d219 aebd 54e1 963d
00000380: 2e49 a33d 4a6d 3fbd b6af 07be bf54 943d
00000390: edba a3bd 8d57 a73d ec6a 1e3c 055c 2cbe
000003a0: d975 e93c 5251 94bc 7ff5 89bc 2bfb fcbd
000003b0: d03d 0b3d 5b92 f1bd fc76 ff3d 942b babd
000003c0: 27d7 f93c 49f1 5dbd c1af d1bd 0caf ce3d
000003d0: 3e1c d5bd c111 3cbc 9daa 71bd a5aa 9fbc
000003e0: 4247 2b3c 0d59 cabd eab2 1bbc 7203 70bc
000003f0: 5128 e73d 802c 8e3d cbf8 b4bc 3cac 17bd

fc.2.bias f4 [174]
-0.06405493 -0.06986853 -0.05713739 -0.004139451 -0.014182123 0.052029625 0.019038541 0.0017848336
-0.053697236 -0.005717659 -0.027497536 -0.0139246145 0.05124108 -0.020789888 -0.0041282177 -0.022927724
0.0010444769 0.0062792753 -0.0088033425 0.026160339 0.06526435 -0.02950827 0.037431262 0.048473828
0.03677771 -0.03016856 0.0062245904 0.021741949 -0.015646951 -0.024845006 -0.045681767 -0.015309593
-0.054991543 0.030096918 0.012450944 0.036330897 -0.060371444 0.016301012 -0.064905934 -0.046179757
-0.033537947 -0.07795967 -0.04470316 0.014480351 0.03064931 -0.006988835 -0.04627832 0.0042829807
-0.08794823 -0.020603497 -0.039007656 0.014187855 0.022117022 -0.027676867 -0.018198969 -0.040028457
0.016490519 -0.0061198417 0.012833827 0.02064461 -0.023438893 -0.034627657 -0.039439104 0.002563704
0.037452575 -0.006798884 0.061582968 -0.068949774 -0.045254186 0.05576862 0.014147086 -0.055858634
0.02868976 0.027507603 -0.00971158 0.023390073 -0.065443136 -0.012744314 0.030346066 0.039346103
0.00629571 0.028309813 0.0048499913 -0.06536848 -0.051518667 -0.0098375855 0.003124365 0.022849202
0.0055287727 -0.0033999358 -0.10313154 -0.013649574 -0.046041217 -0.011157721 -0.060486753 -0.011606742
0.004751316 -0.08733977 0.0022411332 -0.008934055 0.028512895 0.010373361 0.029065846 0.018639378
-0.0027802063 -0.017873215 -0.064161785 -0.0055189687 0.035598118 -0.011173068 -0.009603687 0.032533694
-0.07125741 -0.049014796 -0.011681002 -0.0066578407 0.0481081 -0.04000269 0.03340939 0.010817831
0.028761093 -0.017908614 -0.06467274 0.013317019 0.027039206 -0.01642662 0.00046682666 -0.077016
-0.035007633 -0.065573834 -0.025943268 0.053484302 -0.010725494 -0.051669527 -0.021812838 -0.00695991
-0.03399903 0.01663595 -0.03944505 0.033915326 -0.017696077 -0.033061128 -0.082954094 -0.009823902
-0.040585086 0.00067079836 -0.02590281 0.007117999 -0.06035905 -0.025893534 0.040758654 0.025258904
0.0039489963 -0.024031617 -0.025725009 -0.037212227 0.008295735 -0.018147573 0.05371675 0.03026863
-0.024490884 0.026213067 -0.08864946 0.03598855 0.042260915 -0.004801807 -0.0063275187 -0.09107205
-0.012310319 0.0011996981 -0.005118483 -0.016159289 -0.076369405 -0.018136794
00000000: 3b2f 83bd 3b17 8fbd e508 6abd 3ba4 87bb
00000010: 235c 68bc 041d 553d b7f6 9b3c 14f1 e93a
00000020: a2f1 5bbd 335b bbbb 8342 e1bc 1124 64bc
00000030: 2be2 513d 8e4f aabc 0046 87bb ecd2 bbbc
00000040: d4e6 883a 61c2 cd3b e53b 10bc 354e d63c
00000050: 51a9 853d 54bb f1bc 8651 193d 7e8c 463d
00000060: 39a4 163d 0e24 f7bc a6f7 cb3b 2c1c b23c
00000070: 092e 80bc c187 cbbc ce1c 3bbd 16d5 7abc
00000080: d03e 61bd d08d f63c 0bff 4b3c b5cf 143d
00000090: 0c48 77bd b389 853c 67ed 84bd fc26 3dbd
000000a0: 165f 09bd 52a9 9fbd a91a 37bd fe3e 6d3c
000000b0: 4314 fb3c 9902 e5bb 568e 3dbd 3f58 8c3b
000000c0: 341e b4bd aac8 a8bc 7ec6 1fbd 2d74 683c
000000d0: c22e b53c 99ba e2bc 0116 95bc e1f4 23bd
000000e0: 2017 873c f488 c8bb f944 523c e31e a93c
000000f0: ec02 c0bc bbd5 0dbd e68a 21bd d103 283b
00000100: df67 193d 2cc9 debb 6c3e 7c3d 8a35 8dbd
00000110: 745c 39bd a36d 643d 2ec9 673c 06cc 64bd
00000120: ca06 eb3c a057 e13c 521d 1fbc 8a9c bf3c
00000130: 0d07 86bd 87cd 50bc 5098 f83c 6129 213d
00000140: 3e4c ce3b fbe9 e73c adec 9e3b e9df 85bd
00000150: 3d05 53bd d32d 21bc 25c2 4c3b 402e bb3c
00000160: b52a b53b 75d1 5ebb a136 d3bd 76a2 5fbc
00000170: b795 3cbd e0ce 36bc f5c0 77bd 342a 3ebc
00000180: edb0 9b3b 31df b2bd fadf 123b 2560 12bc
00000190: e093 e93c 08f5 293c 7f1b ee3c 9cb1 983c
000001a0: 1f34 36bb d96a 92bc 4167 83bd 77d8 b4bb
000001b0: 55cf 113d 3e0f 37bc c858 1dbc 0d42 053d
000001c0: 68ef 91bd bdc3 48bd ac61 3fbc 042a dabb
000001d0: 000d 453d dcd9 23bd 49d8 083d 463d 313c
000001e0: 629c eb3c 16b5 92bc 2473 84bd a02f 5a3c
000001f0: 5381 dd3c 1e91 86bc 6ac0 f439 91ba 9dbd
00000200: 2a64 0fbd 934b 86bd fa86 d4bc 5b12 5b3d
00000210: fbb9 2fbc 6da3 53bd d6b0 b2bc f50f e4bb
00000220: 9142 0bbd 1e48 883c 2291 21bd ccea 0a3d
00000230: 5df7 90bc 1b6b 07bd d6e3 a9bd 6ef4 20bc
00000240: 8c3c 26bd 84d8 2f3a 2132 d4bc 1a3e e93b
00000250: 0d3b 77bd ad1e d4bc 8cf2 263d c3eb ce3c
00000260: 9566 813b f4dd c4bc 41bd d2bc d96b 18bd
00000270: d6ea 073c 38aa 94bc 1806 5c3d ebf5 f73c
00000280: 1ba1 c8bc c9bc d63c d98d b5bd bb68 133d
00000290: c819 2d3d 7a58 9dbb 1357 cfbb fc83 babd
000002a0: 38b1 49bc 303f 9d3a f3b8 a7bb 7c60 84bc
000002b0: 9067 9cbd 9d93 94bc
