inventory/model.pth (torch, 464721 bytes, 16 tensors)

conv.0.weight f4 [32, 3, 5, 5]
00000000: 65b9 22bd 8bd9 593c 07bf 07bd 9e93 ab3d
00000010: 2774 ecbd 4f11 e8bd 97a7 b0bb 8fe7 ecbc
00000020: b698 cfba 0da4 eebd 8618 193c c804 363d
00000030: 55d4 b8bd 7557 963d fd7f ff3c 9a12 ad3d
00000040: 3d78 d2bc ff01 e03c ebc8 f7bd 0930 093d
00000050: d216 403d 0dad c6bd 1cec a2bd 64c6 a53d
00000060: a547 e0bd d86d d9bc eb59 423d ab84 ccbd
00000070: 86c3 88bd e23b 6bbd 36f1 933d f708 a73d
00000080: a291 063a 3dac 823d 3ae6 9c3c 297f cbbd
00000090: 9e40 eb3c b69b b23c c349 a4bd fdbf 9d3d
000000a0: 9ce3 0a3d c36d ae3c 7dd1 ea3d f802 c73d
000000b0: 004f 0abd d9dc bdbd b963 b6bd c978 ab3d
000000c0: 0edc 6fbd a973 85bd 581b f0bd a8da b73c
000000d0: be6a a5bd b70c 8f3c 4d95 9a3d 2ae1 633d
000000e0: c9b2 da3d 48a1 9dbd 9a80 a0bd b988 81bd
000000f0: 1a18 a0bd 0ce4 85bd 1d9d 3dbd 28c2 c0bd
00000100: e214 a5bc 4b9c d9bd a646 a5bd 3350 353c
00000110: efe8 4e3d 2672 3dbd 48a3 283d e3e9 a23d
00000120: e762 d93c b3e5 a7bd 855f 56bd d421 5f3d
00000130: 4026 733d 9bb0 473d 7bac a23d 5ebc c8bd
00000140: c9f0 bbbc 528f 733d 2a54 61bd da1a aabd
00000150: 4ce4 0b3d d44d ffbd 4ae5 a33d 0c44 a93d
00000160: 2d55 ecbd d21a 82bd b9bb 9f3c cb82 f03a
00000170: 07cf 243b c556 923d 0046 d2bd 22ae d9bc
00000180: 75bf dabd af45 dabd b67c 833d 8f68 493d
00000190: fb87 36bc a2ff bb3c b8b3 14bc 02a8 d5bd
000001a0: 1858 dabb 3c40 8f3d 1ed3 ef3c 8159 d83d
000001b0: edf1 aebc 6c6a c4bd 9f01 36bd 7e33 ce3d
000001c0: 923f 21bc 61c2 df3d 57d6 72bd 961a 78bd
000001d0: 0468 823c 2f65 ec3d 3eff 6e3d bb5e c2bc
000001e0: 201d 08bc b862 68bc 9d96 1abd 53e3 2bbd
000001f0: 0c7c 10bc 5621 683c bb17 cebd d125 a0bd
00000200: 7d8d ad3d 3bf0 debd ba15 533b 88dd fbbd
00000210: 2cb8 95bd 36cc c9bd da71 e4bd 2850 703d
00000220: d231 94bd c94e d8bd 4155 8f3d b552 1bbd
00000230: 4a4f aebd ae43 b63d 9048 8e3d 0534 9bbd
00000240: d3e6 953c c0f3 bdbd d21e 93bd 7493 053d
00000250: c4ce afbd 894c e3bd 7fb1 053d af41 683c
00000260: fc96 e93c 560c 05bd 2cee 56bd 4f6c e1bd
00000270: 326b 02bc bac2 d0bd 98a7 fdbc 8570 8f3b
00000280: 0f2f b8bd e476 883c 7ea6 a43d 7283 a8bd
00000290: a24a fabd f8fa 6f3d 2fab 9fbd d821 3f3d
000002a0: 5d0a 04bd 5426 d5bc 33bd a13c 27f3 f13d
000002b0: 5308 2cbc 6b9b 043e 3ee7 ca3d b430 b8bd
000002c0: 3f30 69bd 6b61 dd3d 1267 1cbd 7acf df3c
000002d0: 6abc aa3d f329 be3d f849 9cbd aebe cb3d
000002e0: c66e debb 6899 93bd 698c e5bc 502a 113d
000002f0: d201 4cbd f86d 3cbd 5bb7 ce3d 050f 9bbd
00000300: b7b0 213d e1dc 30bc 1f0b a93d bd2f ec3d
00000310: 34d5 3dbd 3142 053c bceb 9cbd a106 163d
00000320: acda 693d c2fb a73c eb94 f9bd a395 38bd
00000330: d16c 97bd d1f7 e1bd 71e2 efbd b12c 703c
00000340: 0e82 84bd 0f64 b33b ce3f 0b3d 2f4a 9abc
00000350: 2bcc b5bd 7c88 a4bc 4505 903c e278 873d
00000360: 1a68 383d 7f9c 043e eb23 143e e8df 953d
00000370: 5023 a03b 23fd 713c 2301 b73b 3caf 83bb
00000380: 16f5 1c3d 79f1 513d 1e49 3fbd cadc c23d
00000390: 952b 063e 6556 413c fe17 9b3d 5a0c 16bc
000003a0: 91b5 943d f43e 043e e2e0 3f3b bd00 98bc
000003b0: ec1b 89bb 94ba 243d b94e 553d 2194 17bd
000003c0: 8303 b2bd 8140 253c f232 b03d 7ab8 b93d
000003d0: f3c1 293c 912f 823d 7c2f 243c 1c09 fa3d
000003e0: 25d9 8c3d b93b a0ba aee2 a4bd 2833 6a3d
000003f0: c62e 1ebd 129e c63b 16b9 2fbd dd13 1c3a
-0.039727587 0.013296495 -0.033141162 0.08377765 -0.11545592 -0.11331426 -0.005391072 -0.02891901
-0.0015838358 -0.11652384 0.009344226 0.044438154 -0.09024874 0.073409 0.03118896 0.084508136
-0.0256921 0.027344702 -0.12098869 0.033493076 0.046896763 -0.097009756 -0.079551905 0.08094481
-0.10951165 -0.026541635 0.047449034 -0.09986242 -0.06677918 -0.057430156 0.07223742 0.08156007
0.00051333953 0.06380508 0.01915275 -0.09936363 0.028717335 0.021802764 -0.080218814 0.077026345
0.03390847 0.021292573 0.11465738 0.09717363 -0.033766747 -0.09270639 -0.08905739 0.08372647
-0.05855947 -0.06516201 -0.117239654 0.02244313 -0.08077 0.017462118 0.07548008 0.055634655
0.10678632 -0.076967776 -0.07837029 -0.06324906 -0.07817097 -0.06537637 -0.046292413 -0.09412032
-0.02015156 -0.10625514 -0.08070116 0.011066484 0.05051511 -0.04625144 0.041171342 0.079547666
0.026536418 -0.081981085 -0.05233719 0.05447562 0.05936265 0.04875241 0.07943054 -0.09801553
-0.022941964 0.059462853 -0.055011906 -0.08305903 0.034153268 -0.124660164 0.08002718 0.08264932
-0.115396835 -0.06352772 0.019498693 0.0018349526 0.0025147812 0.07145456 -0.10267258 -0.02657229
-0.10681049 -0.10657822 0.06420271 0.04917198 -0.011140819 0.022949044 -0.009076051 -0.104324356
-0.0066633336 0.069946736 0.029275473 0.105639465 -0.021355594 -0.09590611 -0.04443514 0.10068415
-0.0098418165 0.10925747 -0.05928644 -0.06057223 0.01591874 0.11542737 0.058348887 -0.023726812
-0.008307725 -0.014183693 -0.037741292 -0.04196484 -0.008818638 0.014168104 -0.1006312 -0.07819713
0.084742524 -0.10885664 0.0032208995 -0.12298113 -0.073105186 -0.09853403 -0.11154528 0.058670193
-0.07236065 -0.10561902 0.06998683 -0.037920672 -0.08511217 0.088996276 0.06947434 -0.07578281
0.018298542 -0.09275007 -0.07183613 0.032611325 -0.08584359 -0.11098582 0.032639977 0.014175816
0.028514378 -0.032482468 -0.052473232 -0.11006986 -0.007960128 -0.10193391 -0.030963704 0.004377427
-0.08993351 0.016658254 0.08039568 -0.08228196 -0.12221266 0.05858895 -0.077963226 0.046663135
-0.032236446 -0.026019253 0.019743538 0.11813956 -0.0105000315 0.12949912 0.09907387 -0.089936644
-0.056930777 0.10809597 -0.038184233 0.027320612 0.083367184 0.09285345 -0.07631296 0.09948479
-0.0067881076 -0.07206994 -0.028021054 0.035440743 -0.049806423 -0.046003312 0.10093566 -0.07571224
0.03947517 -0.010794849 0.08254074 0.11532543 -0.046345904 0.008133457 -0.0766215 0.036627416
0.057093307 0.02050579 -0.12186607 -0.04506458 -0.07393802 -0.11033595 -0.11713112 0.014659093
-0.064701185 0.0054745744 0.033996396 -0.018834202 -0.088768326 -0.020084612 0.017580638 0.066148534
0.045021154 0.12950324 0.14466827 0.07318097 0.004887022 0.014769825 0.0055848523 -0.0040186923
0.03831967 0.051255677 -0.04670059 0.095147684 0.13102563 0.011800383 0.075729355 -0.009158218
0.072611935 0.1291464 0.0029278328 -0.01855504 -0.0041842368 0.040216997 0.05207703 -0.0370065
-0.08692076 0.01008618 0.08603467 0.09068389 0.0103611825 0.06356729 0.010021087 0.12208769
0.068773545 -0.001222483 -0.08051048 0.057177693 -0.038618825 0.006061324 -0.04290112 0.00059538876

conv.0.bias f4 [32]
00000000: f870 193d 2100 2fbd 1050 f13c 7f08 5cbd
00000010: 6414 b23d d435 bcbd 10af 4abd 46a6 bf3d
00000020: 58ac e7bd 4495 d63d ca2a a63b 3ede 58bd
00000030: 01e4 e63c 4980 993d 8bd0 24bd 8df0 473d
00000040: 3a34 d8bd a7cc 5d3d 1af7 d5bd ce3b f1bc
00000050: 086e a23d 1471 df3d 6920 bc3d 96ef 903d
00000060: 9660 9d3d 43e9 3d3d 4ccc e53d 2658 14bd
00000070: 7722 83bd 152e 99bd 4875 dd3c 85c2 8dbd
0.03746125 -0.042724732 0.029457122 -0.05371904 0.086952955 -0.091899544 -0.04948336 0.09357886
-0.11312169 0.10477689 0.005071019 -0.05294632 0.028184893 0.074951716 -0.040237945 0.04881339
-0.105568364 0.05415025 -0.104475215 -0.029447462 0.07931143 0.1091024 0.09185869 0.070769474
0.07684438 0.046365034 0.11220607 -0.036216877 -0.06403058 -0.074794926 0.027033463 -0.06921867

conv.1.weight f4 [32]
00000000: 99c6 7f3f 4b6e 833f 9816 813f 54b5 773f
00000010: eb98 793f 2b92 783f 8545 7e3f a16d 7c3f
00000020: 42aa 7e3f c8b2 893f 3627 7c3f 4eb2 723f
00000030: 0090 7c3f f19f 7b3f 4144 803f fba7 7c3f
00000040: 8310 7d3f a0b4 7e3f 6d54 823f 8386 893f
00000050: fc07 803f beb1 7a3f f4e1 7e3f 172c 7c3f
00000060: d798 763f 86a0 853f 50e9 843f 7737 7e3f
00000070: 733a 873f 8b91 803f 2275 813f ee2c 803f
0.9991241 1.0268034 1.008502 0.9676106 0.9749896 0.97098035 0.9932483 0.9860478
0.9947854 1.0757685 0.9849733 0.9480332 0.98657227 0.98290926 1.002083 0.9869382
0.9885332 0.9949436 1.0182015 1.0744175 1.0002437 0.97927463 0.9956353 0.98504776
0.96326965 1.0439613 1.0383701 0.9930338 1.0564712 1.0044416 1.0113871 1.0013711

conv.1.bias f4 [32]
00000000: 894d d3bc df57 79bd f3d7 6abc 4bcb 14bd
00000010: 9e62 1abd 598a a7bc 1b45 4dbd 749f 47bd
00000020: b258 c4bd f82e 9e3d 799f 793c 664d d93b
00000030: e1df 4abd 4e0d 99bb 9db4 babc 0400 e63c
00000040: a136 c23b 3fd8 a8bd 85d3 913c 07de c3bc
00000050: 6af8 90bc 1201 4cbd 59b9 f53c f986 35bd
00000060: 350a 02bd 8140 b03b 6370 47bd 1294 84bc
00000070: e3e1 bbbd 1c89 0cbc 372e a3bd a015 693c
-0.025793808 -0.060874816 -0.014333713 -0.036326688 -0.037691705 -0.020451711 -0.050114732 -0.04873605
-0.0958723 0.07723802 0.015235775 0.006631541 -0.049529914 -0.0046707755 -0.022791201 0.02807618
0.0059269224 -0.08244371 0.017801056 -0.023909582 -0.017696578 -0.04980571 0.029995607 -0.044318173
-0.031748015 0.005378783 -0.048691165 -0.016183887 -0.09173944 -0.008577611 -0.07967799 0.014226347

conv.1.running_mean f4 [32]
00000000: 9082 e0be 4315 11bf dfdb 7f3d a2aa d93e
00000010: 6cdd b7be fb59 80bc 3ebb 72bd ba67 063f
00000020: 1d46 40be 1f20 593e fcf8 d2be 653f 3a3e
00000030: 19da 14bb 3486 713e 2f85 19bf 6435 a23e
00000040: 0af1 d23e 447b 1d3d 7dee 6cbe 4537 a9bc
00000050: be6f 4c3d 2f40 943e ac00 d43d 93af 17be
00000060: e70f e53d 1ff6 e33d 858e 0e3d 9c63 1cbe
00000070: 483e b0bd 89f8 9fbe 8b34 743d 03d1 18bf
-0.4384961 -0.5667307 0.062465545 0.42512995 -0.3591112 -0.015667906 -0.0592606 0.52502024
-0.18776746 0.2120366 -0.41205585 0.18188246 -0.0022713004 0.2358635 -0.5996885 0.3168136
0.41199523 0.038447633 -0.23137851 -0.020656237 0.049911253 0.28955218 0.10351691 -0.1481307
0.11184674 0.11130928 0.034803886 -0.15272373 -0.08605629 -0.31244305 0.05962042 -0.59693927

conv.1.running_var f4 [32]
00000000: 5a77 5e3d 0dd7 9d3d 88a8 813c 0fc1 a93d
00000010: acff 953d abf8 9f3c 3452 da3b 5b1b 843d
00000020: e9fb 833c 3e31 be3c 6fe8 473d 0d28 a33c
00000030: 062a f03b dd68 fe3c 36f7 da3d 1241 033d
00000040: 27b4 9e3d 7546 433c d1d6 543c 3438 e63b
00000050: eddc 2a3c 31b0 813c c2de ac3c 9e27 053d
00000060: 330f 8e3c 5cce 2b3c 42eb b43c 7854 bc3c
00000070: cb8b 933b 42eb f73c 934e 753c d4a2 a33d
0.05431304 0.07707033 0.015827432 0.08288776 0.07324156 0.019527754 0.0066626314 0.0645053
0.016111331 0.02321684 0.04880565 0.019916559 0.0073292283 0.031055862 0.10691683 0.032044478
0.07749205 0.011918654 0.012990669 0.007025743 0.010428649 0.015831085 0.021102313 0.032508485
0.017341232 0.010486212 0.022084836 0.022989497 0.0045027486 0.030263547 0.014972347 0.079900414

conv.4.weight f4 [32, 32, 3, 3]
00000000: 206e 263c cd6d 293c e22f 55bd 809a c13c
00000010: bd4b fa3c 3993 e8b9 d943 d63c a301 d03c
00000020: f6a9 173b 34d5 02bd 0b6a 01bc 2557 3e3d
00000030: d21a 1c3b 9931 463c 5958 893d 64ea 26bd
00000040: e8ed b23c 2803 283c dd06 11bd e54f ad3d
00000050: 6d60 80bc 816d e4bc fbfa 853d 44d4 163d
00000060: c727 4a3d 270a f2bb d68e ce3c 5daa 78bc
00000070: 5836 e53c 81d4 84bd 1faf 3abd 3769 403d
00000080: 2dff e2bc 82aa a6bb 765e 923d 9a84 d33c
00000090: 1079 34bd bffd 1f3d 1944 f73b dab2 2dbd
000000a0: 051f 0fbd 4a78 2abd abe1 213d aff2 0bbd
000000b0: 58d6 133c bb32 ffbb 88c3 bcbb c18b 83bc
000000c0: d292 273c 8f53 8abc ff50 e13c 2858 0dbb
000000d0: 316c 623d a297 79bd a301 77bb e7c1 463d
000000e0: ab2c dfbb 40de 14bc 0821 0dbc a111 83bc
000000f0: 2516 633d 3798 0a3d eee9 973b 89de 49bd
00000100: 3d0b 7c3d ec16 0d3c 01f8 2b3c df27 e83c
00000110: 4b5a 1b3d 02cf 2ebd f81d 9fbc c608 c0bc
00000120: bf64 8e3c b497 4fbd c309 24bd f6bc 4b3c
00000130: 0d03 7bbd 5e4d 81bd d0da 853d abdd 02bd
00000140: bf85 7ebc d48b 4cbd 05ff 6d3d 6b3b 183d
00000150: 6de3 bbbc 792f cabc 771c a0bc d913 963c
00000160: de57 ecbb fb3b 0bbb 14f0 893c b2f0 473d
00000170: 69e4 8bbc b816 0b3d c54d 64bd c617 d03b
00000180: e0a1 b2bc 84c1 003d 7f24 8c3c 0c79 613d
00000190: be58 9d3c c28c 3ebd 3e92 ff3a 2700 a0bc
000001a0: 9add a0bc a5d8 123d 7c57 6b39 ada7 48bd
000001b0: c117 3dbb 0ef9 9ebd 9020 963c dcbb 40bd
000001c0: 6b47 39bc c242 b33c 4f4d 503c af85 a3bd
000001d0: 8223 b13c ede4 093d 8c39 29ba 3226 a8bc
000001e0: 62d1 ad3b 69f5 91bb adbf d3bc b622 79bc
000001f0: dd7b 253c 4700 a83b da7c d53c c83f b13c
00000200: c44d d73c c558 30bc 3820 debb 80bd 5a3d
00000210: 50a7 26bd 8bbc 91bd efdb 113c eb01 863c
00000220: f398 343d 4914 4abb 8cfc 173c 16eb 5bbd
00000230: f51b 333d 8a16 993c b68e 6a3c e842 47bd
00000240: 399f b8bc b01f 31bc 120b a23b a7a3 dbbb
00000250: 40e1 1bbd 0dd5 223d 6abc 923d 9757 3c3c
00000260: ecac b5bc d8c4 99bc 7c6d 7a3b a84a 1abc
00000270: 7cb0 033d a572 8f3d 698a 6e3c 7421 3ebd
00000280: 92bd ae3c 068b 1c3d fac5 3e3d 26e8 323d
00000290: 58a9 d13c 9ebb 9cbc 1ba4 89bb 6a6f 3c3d
000002a0: 15c8 313b 0479 1abb 767f c6bc b635 633d
000002b0: a940 0d3e 7f38 91bc bd8c 26bd b7f0 dc3d
000002c0: 4777 afbd 008d e93a 8986 5bbb 62fb 633c
000002d0: 0694 8c3d ecce 9cbd f6c1 153c febd 5d3d
000002e0: de3f a6bc bed0 23bd 8ec6 06bd d0a4 3c3c
000002f0: d6f9 01bd 017c 363d 2afd 713d 617e 473d
00000300: b493 e0bc a31a 453c 5f4c 2e3d 501d 9b3c
00000310: 92aa 053d 3a9e 5e3d b782 d6bb de69 88ba
00000320: 33b9 f7bc a5cb 493d 14b7 08bd ee3b 58bd
00000330: 1c59 2abd 017f 8abd cd59 7c3c a8de 56bd
00000340: 2494 c93c 0951 11bd 2ce3 86bb ac49 323d
00000350: 925d 6b3d 40d0 7f3d 961b 603d d477 cdbc
00000360: a509 c63c 986d 193d ae15 5136 657b 8d3d
00000370: 647c c5bc b786 0d3c 18a3 cb3c fd78 823d
00000380: d134 c6bb 80c5 23bd 3c14 683d 3b32 883a
00000390: b2bf 0fbd 0b36 55bc d852 ecbc 5357 0ebd
000003a0: a634 f9bc 6282 3a3c 39d9 b3bc 0c6f 683b
000003b0: 76c0 91bc d604 0bbd 4179 bfbd 6b9e 0b3d
000003c0: 7074 dfbb 7e6f 34bd 23b9 ffbc 1480 193d
000003d0: e502 5dbd 6100 0bbd fc62 06bd 16de 8ebc
000003e0: 0a83 abbc 3440 8d3c 6ead 8e3b 9cdd 8a3b
000003f0: 5efa a43c 48c8 82bc 9947 89bd 80f4 82bd
0.010158092 0.01034112 -0.052047618 0.023633242 0.030553693 -0.00044360178 0.0261554 0.025391405
0.0023142076 -0.031941608 -0.007898818 0.046469826 0.0023819697 0.012096786 0.06706304 -0.040750876
0.021841958 0.010254659 -0.035406936 0.08462504 -0.01567098 -0.027884247 0.06542011 0.036823526
0.04935434 -0.007386464 0.025214594 -0.0151773365 0.027980015 -0.064858444 -0.045577165 0.04697534
-0.027709568 -0.005086244 0.07146923 0.025820065 -0.044060767 0.03906035 0.0075459597 -0.042406894
-0.034941692 -0.041618623 0.039521854 -0.034166988 0.0090232715 -0.00778803 -0.005760614 -0.01605785
0.010227876 -0.016885547 0.027504442 -0.0021567438 0.05527896 -0.060935624 -0.0037690185 0.048524763
-0.0068107448 -0.009086192 -0.008613832 -0.015999617 0.05544104 0.03383657 0.004636041 -0.04928449
0.061534155 0.008611422 0.01049614 0.028339325 0.037927907 -0.042677887 -0.01942347 -0.023441684
0.017382024 -0.050681785 -0.040048372 0.0124351885 -0.061282206 -0.06313585 0.06535876 -0.03194968
-0.015534817 -0.049938038 0.058104534 0.03716604 -0.022935594 -0.02468084 -0.019544823 0.018320011
-0.007212623 -0.0021245468 0.016838111 0.04881353 -0.017076688 0.033957213 -0.05573823 0.0063504903
-0.021805704 0.03143455 0.017107246 0.05504708 0.019207355 -0.046520956 0.001949854 -0.019531323
-0.019636918 0.03585114 0.00022443937 -0.048988033 -0.002885327 -0.07762347 0.018326074 -0.047054157
-0.011308531 0.021882419 0.012713744 -0.079844825 0.021623377 0.033665586 -0.00064554135 -0.020526025
0.0053045014 -0.004454304 -0.025848234 -0.01520603 0.010100332 0.005126986 0.02606051 0.021636859
0.026282199 -0.010763352 -0.006778743 0.053403378 -0.040686905 -0.0711604 0.008902534 0.016358336
0.044091176 -0.0030834845 0.00927652 -0.053690992 0.043727834 0.018687505 0.0143162515 -0.04864779
-0.02253686 -0.010810778 0.0049451673 -0.0067028585 -0.038056612 0.039753962 0.071648434 0.011495492
-0.022177182 -0.01877062 0.003821223 -0.0094172135 0.03215073 0.070042886 0.014559367 -0.046418622
0.021330629 0.03821852 0.046575524 0.043678425 0.025593445 -0.019132432 -0.004200471 0.04600469
0.0027127315 -0.0023570666 -0.0242307 0.055471145 0.13794197 -0.017727135 -0.040661562 0.107881
-0.08567672 0.001781851 -0.0033496937 0.013914915 0.06864171 -0.07656655 0.009140482 0.05413627
-0.020294126 -0.039993994 -0.0329042 0.011513904 -0.031732403 0.044551853 0.059079327 0.04870451
-0.02741418 0.0120302765 0.042553302 0.018934876 0.03263337 0.054350115 -0.006546344 -0.0010407527
-0.030239677 0.049266476 -0.033377722 -0.05279153 -0.041588888 -0.06762505 0.01540227 -0.052458435
0.024606772 -0.03547767 -0.0041164365 0.04352729 0.057462282 0.062454462 0.054713808 -0.025081553
0.02417452 0.037458032 3.1156046e-06 0.06908301 -0.024107166 0.008638076 0.024858043 0.06370733
-0.0060487767 -0.039983273 0.056659922 0.0010390946 -0.035094924 -0.013013373 -0.028848097 -0.034751248
-0.030420613 0.011383625 -0.021954166 0.003546658 -0.017791968 -0.03394016 -0.09349299 0.034086626
-0.0068193004 -0.04405164 -0.03121621 0.03747566 -0.05395784 -0.03393591 -0.032809243 -0.017439883
-0.020936508 0.017242528 0.0043541705 0.0042378437 0.020138916 -0.015964642 -0.06703109 -0.06394291

conv.4.bias f4 [32]
00000000: fc5e 513d 1c2d d83c 5ded bbbc f4c2 31bc
00000010: 9288 28bc 050e 983c 59aa e9bc 2018 a0bb
00000020: 59db da3c 5d32 0b3d f564 f3bc 02b7 813c
00000030: e284 2cbc 1391 2abd 8ca6 d6bb 8493 553d
00000040: 0775 5b3d 7666 bbbc bf38 613d 7b12 3a3d
00000050: 3eb7 e43c 3511 633d 3f12 3a3c 78ce 433d
00000060: d076 04bd da60 1fbc 0a19 7a3d 800e d83c
00000070: 0514 193d 468c cebb d171 3d3b 34f9 d73c
0.051115975 0.026388697 -0.022940332 -0.010849703 -0.010286467 0.018561373 -0.02852361 -0.0048856884
0.026715921 0.033983577 -0.029711226 0.015834335 -0.010529729 -0.04164226 -0.0065506157 0.052142635
0.053578403 -0.022876006 0.054985758 0.04542778 0.027919408 0.05543633 0.011356889 0.047804326
-0.03233987 -0.009727681 0.061059035 0.026374102 0.037372608 -0.006303343 0.0028906951 0.026363946

conv.5.weight f4 [32]
00000000: 9f49 8d3f 323f 8e3f a9eb 8c3f 2c37 8d3f
00000010: eec5 8d3f 55b7 8c3f b3b0 8c3f fd86 8d3f
00000020: a3a7 8c3f 97f0 8d3f e5db 8e3f 3c1b 8f3f
00000030: 22e1 8d3f 18c2 8d3f 2b1a 8e3f 8825 8b3f
00000040: edff 8c3f d126 8d3f 2800 8c3f 85ef 8c3f
00000050: 113b 8d3f 70b5 8c3f 8594 8f3f 0523 8e3f
00000060: 5147 8e3f 91d4 8d3f 994e 8e3f a25c 8c3f
00000070: a89c 8e3f 2b6e 8e3f 9097 8d3f ebc5 8d3f
1.1038092 1.1113036 1.1009418 1.1032462 1.1076028 1.0993448 1.0991424 1.105682
1.0988659 1.1089047 1.1160856 1.1180186 1.108433 1.1074858 1.1101736 1.0870829
1.1015602 1.1027471 1.0937548 1.1010596 1.1033651 1.099287 1.12172 1.1104437
1.1115514 1.1080495 1.1117736 1.0965769 1.1141558 1.112737 1.1061878 1.1076025

conv.5.bias f4 [32]
00000000: 1696 9a3d f447 af3d b6c3 ab3d 7d73 b63d
00000010: 950d aa3d 370d b43d 1b3d 863d e6ea af3d
00000020: 292a b83d cc46 b23d ba5c ba3d c816 a93d
00000030: 8ce4 af3d 6fbd b93d fe07 b43d 3b34 983d
00000040: 969e ab3d 3f80 ae3d 86a3 923d 4863 b93d
00000050: 4ad1 ba3d 2367 a53d ff2f c13d 812a ac3d
00000060: ba25 b63d 64d3 c13d 970a a93d bcb1 a33d
00000070: ce0b b73d ecd6 a43d fe65 ba3d d930 b93d
0.07548158 0.08558646 0.08386938 0.089087464 0.08303372 0.08791583 0.06554624 0.08589725
0.089924164 0.0870491 0.090997174 0.08256298 0.08588514 0.09069335 0.08790587 0.07431837
0.08379857 0.08520555 0.07160096 0.090521395 0.0912195 0.080763124 0.09432983 0.084065445
0.088939145 0.09464148 0.08253973 0.079928845 0.089377984 0.080488056 0.09101485 0.0904252

conv.5.running_mean f4 [32]
00000000: 1e7f 4c3e 58bb 98be 550f 86bd 29b1 e33d
00000010: 0607 10be cdfe 863e d50f 833d d7be d6bd
00000020: d9c9 243f 3f05 23be 0ea7 47be 9533 7ebd
00000030: a889 333e 2146 38be f55d ddbe fe78 bebc
00000040: 4879 633e 2a8d 243d e48c 793e 4035 e1bd
00000050: 4142 d3be b289 173e f0a7 1d3e 101d 49be
00000060: 7628 2dbe 75db 01bf 4be0 b9be 1da1 f9bc
00000070: ecd6 a73d d400 303e eaf0 4cbe a085 003e
0.19970366 -0.29830432 -0.06545893 0.11117775 -0.14065179 0.26366273 0.06399504 -0.104856186
0.64370495 -0.1591997 -0.1949732 -0.06206091 0.1753298 -0.17995502 -0.43235746 -0.023251053
0.22214234 0.040173687 0.24370152 -0.10996485 -0.41261485 0.1479862 0.15396094 -0.19639993
-0.16909966 -0.5072549 -0.36303934 -0.030472333 0.0819529 0.17187816 -0.20013776 0.12550974

conv.5.running_var f4 [32]
00000000: fb90 113c 58f1 d73c 5efb 5b3c ca9a 1b3d
00000010: 3271 773c 2820 1e3d 5b14 713c e2f8 8e3c
00000020: a76b 123d b197 6e3c e16e 623c 0003 5a3c
00000030: c506 7c3c 98dc 923c 424e 0e3d f601 123d
00000040: ed16 c23c 90b5 b33c 3b28 983c 3f00 bd3c
00000050: c190 b33c 9fe0 ea3c aef5 aa3c 6e13 a53c
00000060: d540 413c ec0c 783d 2a98 163d 5812 a53c
00000070: 1cb7 ce3c 2151 ae3c 74bc e63c 696c 053d
0.008884664 0.026360199 0.01342663 0.037989415 0.015102671 0.038604885 0.014714326 0.017452661
0.035747197 0.014562533 0.013820381 0.013306379 0.015382473 0.017927453 0.0347426 0.0356464
0.023692572 0.021937162 0.01857387 0.023071406 0.02191961 0.02867156 0.020869102 0.020150866
0.011795242 0.0605592 0.03676621 0.020150349 0.025233798 0.02127892 0.028166033 0.03257409

fc.0.weight f4 [342, 128]
00000000: 29bf 2fbd ccaa 183d d387 833d 333f 033e
00000010: 9331 0cbd 6dc4 05bd 294a 01bd f0ca ba3c
00000020: c2b9 4b3d b02f 86bd 4652 c0bd 2d4b 3abc
00000030: 74af ab38 9805 3e3c 2108 f63c 2e0e c7bd
00000040: 9797 29bd 4e3b 17be 9f99 6c3d a35b 133d
00000050: ce39 c1bd 1681 673d 30cd d53d 54b0 0f3e
00000060: b80d de3d 8038 363d 1e9e 863c 60a9 bebb
00000070: fbac 7dbc 1b89 a3bc b87a 66bd 2a19 de3c
00000080: c9f0 d3bb 843a 0a3e 1202 f9bd f1d1 b03d
00000090: 5ca9 a13d 6046 673b b88c 0a3d 4410 e43d
000000a0: 6d44 ee3d 9540 17be d4a4 653a 8fb9 c43c
000000b0: 959a bf3c 9aff d1bd 962c b63d 9964 203d
000000c0: c5ac 1f3e 1a60 be3c 66d0 143e 61f7 353c
000000d0: 8c67 2b3d 27cc c2bd 1f01 1cbb 9808 b53d
000000e0: 3554 8cbd 0b85 06bd b456 aebd 7b7d cf3d
000000f0: f155 b73d 6525 013e 152b 083e 7272 c03d
00000100: 4dde b83c c2ea f33d 87b6 71bd d2f6 cf3d
00000110: 1dcb b1bd d09b cabd 5052 59bd 5e42 6c3d
00000120: df83 fb3d 7818 d9bc f7ec 27bd 7d17 43bd
00000130: 4edc 043e 5a51 4cbd 7448 eb3d bfaa e5bc
00000140: 6a6d d03d 6dec f63a a8b7 6b3d 9a60 da3d
00000150: 7ac7 b13c 8f9b f23d 1427 1f3d c5b4 4b3c
00000160: cf39 633d 9f69 1b3e ccbf a7bc 7daf e8bc
00000170: 3324 e1bb 51cc 6dbd 60e7 e93c 39b0 2bbd
00000180: 3a00 35bd 573d 13bd 0636 5cbd 7fc4 233e
00000190: e59c 6abd a29b 9e3d 5b7c 6abd aba1 d8bd
000001a0: e235 d03d d3b3 053d fa78 843d 267e a03d
000001b0: de72 4abd 2878 03be 7fb6 94bd 8a34 73bd
000001c0: 496e b23d c821 083e 9002 62bc 88c6 193b
000001d0: ad02 2b3e 0b1d 843c 40c0 79bd ca82 393b
000001e0: 52fd 543d 99a1 b73d 9a2a 14be cfc3 d13d
000001f0: 68b4 843d b625 ea3d 46d8 0fbe 2266 463d
00000200: df72 62bd 7c84 3a3a 5ae8 37bd 50a6 a7bd
00000210: 9bfa 04bd 60e7 a2bd befa fbbd 1ece 0ebd
00000220: 88f2 373d cd4c bbbd 722c 753c 81b1 863d
00000230: 7469 cc3b f8ef cdbd 3c16 ec3d fcee d1bc
00000240: 661c fb3d d4d7 e63c 868a 063e 8715 e23d
00000250: 717a 3dbd 493e 8c3d 696c c03d 962f ef3d
00000260: e84a 14bd 88f1 26bd 9cb0 f1bc 3e9d bf3d
00000270: 1a7d 0e3e 7999 e83d 7a31 383e 12c5 3c3d
00000280: 80b6 c7bb f80f fabd 4c43 6abd e53b af3d
00000290: aa65 8cbd 114d 993d 46d0 adbd 9a75 5f3d
000002a0: 4bfc 013d 6f5e 70bd d64d 843d 6d2f bcbd
000002b0: ed37 55bd 5a5b 98bd e35f 7e3d 1122 c83b
000002c0: 22bb 9b3d 52e9 06bd d40a 9d3c 4031 033e
000002d0: ec90 f43c 6c77 c1bc 57ce b8bd f752 273e
000002e0: e0ec 043b 2dd3 863d 1cb2 27bd 8a99 8bbd
000002f0: f27c 0bbe b76c 923d 644b 08be f53e 8a3d
00000300: 80bb 23be 7976 24be 50a0 c5bc 9f9c aebb
00000310: 2f8c 863c f470 863d 3d4d c03d d27c 153b
00000320: 888e 033d cdee 77bd 131a ffbb 6270 e63d
00000330: 8af8 1ebe fb88 0b3e 0d73 843d 25c9 733d
00000340: b3f4 dabd 8b4a 223e 19b4 8ebd 7fbd 3abd
00000350: f529 023e c77a 283e 7b8d cfbc bb28 a33d
00000360: 8ee3 e13d e665 163e 519d d93d 1826 a23c
00000370: 6943 9abb 860c fbba 1528 083e c8a8 5a3e
00000380: f262 733d 8dfb ba3c 3945 a1bd 1a9b cd3d
00000390: 1ef6 103e d214 053d 2be2 653d 9333 ec3d
000003a0: c8b3 cabd ceda 4cbd 1bcf dcbd 0509 bb3d
000003b0: f381 2c3d b238 edbd b7cb 513d 62ef 123e
000003c0: a455 963c 4180 9f3c 0b26 9dbd 2044 e93d
000003d0: fc22 a73d df9f f3ba ddbc 0b3c 3124 7a3d
000003e0: b1fd 3e3d 9986 02bd cbc8 19be 3790 ba3d
000003f0: a407 c63d cc9a db3d e6c1 bb3d 8be6 a53d
-0.042906914 0.03727226 0.06422391 0.12817077 -0.034226965 -0.03265803 -0.031564865 0.022801846
0.0497377 -0.065520644 -0.093906924 -0.011370462 8.186596e-05 0.011598013 0.030033173 -0.097195014
-0.041404333 -0.14768717 0.057763692 0.035976063 -0.094348535 0.05651959 0.10439527 0.14032108
0.108424604 0.044487476 0.016432818 -0.005818531 -0.015483136 -0.019962838 -0.056269377 0.027111609
-0.006467913 0.13498884 -0.12158598 0.08633793 0.07893631 0.003528975 0.033825606 0.11135915
0.11634145 -0.1477073 0.0008760218 0.024014262 0.02338914 -0.1025383 0.08895223 0.039158437
0.1559325 0.023239184 0.14532623 0.011106343 0.041846797 -0.09511595 -0.002380438 0.0883953
-0.06851999 -0.032841723 -0.08512631 0.101313554 0.08951939 0.12611921 0.13297684 0.09396829
0.022566939 0.11910011 -0.059011962 0.10154499 -0.08681319 -0.09893 -0.053057015 0.05768048
0.12281012 -0.026500925 -0.04099747 -0.047629822 0.12974665 -0.04988227 0.11488429 -0.02803552
0.10177119 0.0018838771 0.057548195 0.106629565 0.021701563 0.11846077 0.038855627 0.0124332355
0.055475052 0.1517701 -0.020477198 -0.028403992 -0.0068707704 -0.05805618 0.028552711 -0.041916106
-0.04418967 -0.03594717 -0.05376246 0.15992926 -0.057278533 0.07744528 -0.0572475 -0.10577711
0.10166527 0.032642197 0.06468387 0.07836561 -0.049425952 -0.12838805 -0.07261371 -0.059376277
0.087124415 0.13294137 -0.013794556 0.002346428 0.1670024 0.01612713 -0.06097436 0.0028306716
0.051999398 0.08966369 -0.14469376 0.10242426 0.06479722 0.11432974 -0.14047346 0.048437245
-0.05528533 0.00071150786 -0.044899322 -0.081860185 -0.03246556 -0.079542875 -0.12303685 -0.034864537
0.04490903 -0.09145508 0.01496421 0.06576825 0.006238157 -0.10055536 0.11527678 -0.025626652
0.12261276 0.028179087 0.1313878 0.11039262 -0.046259347 0.068478175 0.093956776 0.11678998
-0.03620425 -0.040757686 -0.02950316 0.093561634 0.1391491 0.113573976 0.17987624 0.04608638
-0.0060947537 -0.12210077 -0.057193086 0.08556346 -0.068553284 0.074854024 -0.08486991 0.054555513
0.031734746 -0.05868381 0.064601585 -0.09188733 -0.052055288 -0.07439299 0.062103163 0.0061075767
0.07604052 -0.032937355 0.019170202 0.12811756 0.02985426 -0.023616515 -0.09023731 0.16340242
0.002028279 0.06583247 -0.040941343 -0.068163946 -0.13621882 0.07149642 -0.13310009 0.06750289
-0.15989494 -0.16060819 -0.024124295 -0.0053287293 0.016424267 0.06564513 0.09389732 0.0022809994
0.03211835 -0.060530473 -0.0077850907 0.11251904 -0.15524498 0.13626473 0.06467257 0.059518
-0.10691204 0.15848748 -0.06967945 -0.045590874 0.12711318 0.16453086 -0.025336018 0.07966753
0.11029731 0.14687309 0.10625709 0.019793555 -0.004707743 -0.0019153513 0.1329654 0.21353447
0.059420533 0.022825027 -0.07874531 0.10039349 0.14156386 0.03249056 0.056123894 0.115332745
-0.09897572 -0.050013356 -0.1078169 0.0913258 0.042116117 -0.115830794 0.05121967 0.1434913
0.018351384 0.019470336 -0.07673272 0.11389947 0.081609696 -0.0018587074 0.008528915 0.06106967
0.046628658 -0.031866644 -0.15018003 0.09109538 0.09669426 0.107228845 0.091678426 0.08100613

fc.0.bias f4 [342]
00000000: 1444 ea3b 4226 a63d 5e1f 7a3d a238 113e
00000010: 2e16 463d cfb9 2d3d 3276 bf3c 33c3 ca3d
00000020: 056b 783d 2d65 e13d 56da 90bd c989 4b3d
00000030: 3e9f 09bc 2bc2 b13c 5db4 27bd a5e6 7a3d
00000040: 79f8 dd3a e91d a03d eadf 88bd b720 8c3d
00000050: 4f2f 863c 1856 19bc 265f ca3c 74a1 66bc
00000060: ecd0 11bd 4476 4e3d ba39 fb3d 711b 8f3d
00000070: 2532 a33d 9820 4f3d 7dd5 3b3d e0da d13d
00000080: 8a3b 783d 3bcc 57bd 9063 993c d0be 383d
00000090: 7118 da3b 4919 d83d 8cd2 b2bc 175c 9eba
000000a0: a89d c13d edb2 793d 12b0 94bc a2f5 f63d
000000b0: 9936 0c3c 32bd 703d 124f dd3d c99f 573d
000000c0: 6f8e 4dbd a0ec 9e3d 691c c73d 9404 7ebd
000000d0: c3e3 dbbc 15a0 0c3e 38e7 903d 5725 9e3c
000000e0: 875d 6f3c a6fa 143d 3500 a33d 29a4 c7bb
000000f0: faeb b03d ffc2 74bc dff1 153e 06c7 9b3c
00000100: 50f8 94bc f099 763d 922a 263d 85bc 9cbd
00000110: edea c03c 6561 b33d 74e0 d53d d362 573d
00000120: 0a20 bc3b 9358 b43d 5694 5bbd 6c84 883d
00000130: e54a 8fbd 0ce9 a7bd 3d1c be3d 784c e33d
00000140: aed1 9e3c 2849 e6bc 2f9b 243d fc13 6f3d
00000150: ac1b 973d 4fca ff3c d74d 93bd 7533 3b3c
00000160: 7edc 233d e706 b83c 47a0 733d db89 8e3d
00000170: 5530 63bc 3988 0e3b 9139 e43d 597a cebc
00000180: 3ab6 c0bc f9e9 3f3b b604 e7bc b7c3 ae3d
00000190: f954 cb3d ebd2 7a3c 905b 3f3d 03b7 14bd
000001a0: 2640 27bd af02 9f3d da45 ff3d 2e03 e53d
000001b0: fa8f b33d 3d01 c0ba 5c15 b6bc fba9 843c
000001c0: 99aa d93b 11ef 53bc 61d6 acbb 93e2 4b3d
000001d0: e1ea 833c f72e b8bb 6ecc cd3d 6b7e 06bc
000001e0: 184e 65bd 1c79 483d a971 893a ed40 8c3d
000001f0: e135 393b 798d ac3b 7774 183d 43c5 00bd
00000200: 954a 583d be23 913d 0a99 723d 7e0d d13d
00000210: ee2e 973d b547 873c 912d 7f3b 1915 613d
00000220: ec00 a03d a4db 943c 35a4 383d 8f02 36bd
00000230: ab89 2e3c bb1f 8a3c c0f6 69bd d83d 143d
00000240: 15b0 8a3c 7355 ec3d 753a 023d 5c0e 043d
00000250: 8a56 d63d 2ca8 eabb 0f49 63bd 4efe 933c
00000260: 79cb 9d3d ba95 f23b 8895 c03c edab 6ebd
00000270: 3519 ab3d 7588 103e c9d4 253d e4df c03b
00000280: cf55 d03d 0254 7fbc 8059 903c 98ea 3ebc
00000290: a144 243d a125 213b fad3 a63d 2e34 cbbc
000002a0: bdb9 aeba 1910 293d fed7 40bd 1d5d d2bc
000002b0: e645 dc3b 4fac 083b 9d6c a7bc 1597 103e
000002c0: a9c7 1ebd 3388 66bd b029 d63d f68f b03d
000002d0: 2c1b 04bd 230b a6bb d012 5c3d f826 023d
000002e0: d876 c83b faf3 cfbc c464 2d3d 0be3 8cbb
000002f0: 07bb 313d c517 013e e062 47bd fe87 29bd
00000300: 7a6c f6ba bf0b fe3d d8df eb3d ff30 e33c
00000310: 328f 0ebd 5479 063e d96b 823b cf88 383d
00000320: 41fe 793d 9504 8b3d a2bf 633d 9a50 cdbc
00000330: 88b6 913d f183 53bd 194f 8dbd fbd3 d53d
00000340: 2132 173b 0494 44bc b7e3 fb3c 4fc1 c13c
00000350: 48a7 1d3b 19ff 653c 7720 3e3c 241f 08bb
00000360: 483c d63b b0eb 3dbd eec5 f5bc 270a 593b
00000370: 1aa1 3fbd 772c 803d de01 123e 616f 843d
00000380: a4a2 1dbd 2110 043d 4fb0 c4bc 0931 053d
00000390: 0a1c d43d b5d0 96bd 0987 923c bbcc 003d
000003a0: 9946 16bc 042b 0c3d 688f 273c 7596 4c3b
000003b0: 12bc 0c3d 819d 23bd bab1 8d3a 5db1 be3c
000003c0: d62c d13d 98ec c53d 1a72 083e 25af 193e
000003d0: 929b bd3c 038d a73d 8bf4 413d 0461 b63d
000003e0: add5 c03d e24b 73bc 0f32 cc3d 5b97 c63d
000003f0: c84d 0b3d b46f b03d a8ee 62bb c965 063e
0.007149229 0.08112766 0.06106507 0.1418176 0.048360996 0.04241353 0.02337179 0.099005125
0.060648937 0.11005626 -0.07072894 0.04969195 -0.008399783 0.021699032 -0.040943492 0.061255116
0.0016935013 0.07818205 -0.06683333 0.06842177 0.01637998 -0.009358905 0.024703573 -0.014076579
-0.035599634 0.050405756 0.1226687 0.06987656 0.07968549 0.050568193 0.045857895 0.10246825
0.060603656 -0.052685004 0.018724233 0.045103848 0.0066557457 0.10551698 -0.021828912 -0.0012081888
0.09453899 0.060961653 -0.018150363 0.120585695 0.008557939 0.05877418 0.10806097 0.052642617
-0.050184663 0.077599764 0.09722216 -0.062016085 -0.026842004 0.13732941 0.070753515 0.019304914
0.014609701 0.03637185 0.07959024 -0.0060925675 0.08638759 -0.014939069 0.14643048 0.0190158
-0.01818481 0.0602054 0.040567942 -0.07653145 0.023549521 0.08758811 0.10443202 0.05258448
0.005741124 0.08805957 -0.05360826 0.066658825 -0.06996707 -0.08198747 0.0928273 0.1109857
0.019387092 -0.028111055 0.040187057 0.058368668 0.07378325 0.031224398 -0.07192581 0.0114258425
0.0400052 0.022464229 0.059479024 0.069598876 -0.013866504 0.0021748675 0.111437924 -0.025204824
-0.023524392 0.0029283746 -0.028200489 0.085334234 0.099283166 0.015309076 0.04671818 -0.036307346
-0.04083266 0.07764184 0.12464495 0.11182247 0.08767696 -0.0014648807 -0.022226982 0.016194334
0.0066426513 -0.012935416 -0.0052745794 0.049776625 0.01610321 -0.005620833 0.100487575 -0.008208851
-0.05598268 0.048943624 0.0010486144 0.06848321 0.0028260874 0.0052658883 0.037220445 -0.031438123
0.052805502 0.070868954 0.05922798 0.102076516 0.07381998 0.016513685 0.0038937072 0.05495176
0.07812676 0.018171139 0.045078475 -0.044436034 0.01065294 0.016860833 -0.057120085 0.03619179
0.016929666 0.11539736 0.03179403 0.032240257 0.10465725 -0.007161161 -0.055489596 0.018065598
0.07704825 0.0074031027 0.023508802 -0.05826943 0.08354417 0.14114554 0.04048613 0.005886065
0.10172617 -0.015583994 0.017620802 -0.011652611 0.040104512 0.002458908 0.081459 -0.024805155
-0.0013330501 0.041275118 -0.047080986 -0.025679165 0.0067221997 0.0020854657 -0.020437533 0.14120133
-0.03876463 -0.056282233 0.1045717 0.08621208 -0.032252476 -0.0050672456 0.05372888 0.031775445
0.006117683 -0.025384892 0.042332426 -0.0042995266 0.043391254 0.12606724 -0.04867828 -0.041389458
-0.0018800639 0.12404584 0.11517304 0.027733324 -0.03480453 0.1313222 0.0039801416 0.045052346
0.06103349 0.06787983 0.055602677 -0.025062848 0.07114893 -0.0516395 -0.06899852 0.10440823
0.002307065 -0.01199818 0.030748231 0.023651747 0.0024056006 0.014037871 0.01160442 -0.0020770514
0.006537948 -0.046367347 -0.030001607 0.0033117624 -0.046784498 0.06258481 0.14258525 0.06466556
-0.038485184 0.032241944 -0.024009852 0.032517467 0.103569105 -0.073640265 0.017886655 0.031445246
-0.009172105 0.03422071 0.010227062 0.003121761 0.034359045 -0.03994513 0.0010810413 0.023277933
0.1021363 0.09664267 0.13324776 0.15008219 0.02314547 0.08181193 0.047352355 0.08905223
0.094157554 -0.014849635 0.099704854 0.096968375 0.034009725 0.08615056 -0.0034627113 0.13124765

fc.2.weight f4 [171, 342]
00000000: 0b5a 473c 2168 403d 202e 6f3d fc39 e33c
00000010: 57f4 6c3d 7770 fdbc 9034 03bb 1da9 c43d
00000020: ef63 e63d d411 3abd b82c 8cbc 5296 c8bc
00000030: 40c8 823d 82a4 28ba 26d8 20bd c063 623d
00000040: 4cf8 a33d 70b0 88bd a217 dfbd e08f d33d
00000050: 8caa 1e3e 5938 6cbb bd97 903c 0a38 b13b
00000060: 9d8c 73bd 3362 22be 752f e53b e639 9ebd
00000070: 48f1 f7bc f4b1 ab3d f463 2ebd 1fcc 53bb
00000080: 101f 01bd 7ba8 313c 11bf e9bd 3185 30bc
00000090: 2848 aebd 86ab 603d 19eb 9f3b 9f8a 083d
000000a0: f982 e9bc b101 d5bd b29c acbc 3b8f cebd
000000b0: 55ce 37bd e68a c5bd 7ce1 d7be b16c 113d
000000c0: c4c0 bebc a35c 913d 1b6e 0c3c 1ff4 8e3d
000000d0: 67a5 b83d 660c 24bd 3c9d a83d c20f da3d
000000e0: c647 58bd aaed dcbb 4c61 9f3d 269f 51bd
000000f0: 355b 8bbd cf46 dfbd 8778 643d 82ff c53d
00000100: c3e6 183d 0b40 c2bd 0bd4 be3d 7bfa 5e3d
00000110: 0eb0 69bd e724 803b 8723 fa3b c08e b43d
00000120: d795 03be 3e52 74bc 301c e7bc d126 dabd
00000130: 9a91 02bd 9342 46bd adb9 253b 2f37 acbd
00000140: 465e e4bd fdeb 3a3c e6bb 8d3d 12e5 5a3d
00000150: 0b15 b9bd de98 8fbd e970 853c 3ff1 243c
00000160: 4945 d3bd ab4d edbd c17d e7bd 54df b73d
00000170: 8bef ebbb 9f36 11be f825 163d d6ef 04be
00000180: af63 e2bd d2be 463b 9c3a 683d dac1 ecbc
00000190: aa34 37bd 701b f8bc c213 b13c d85f b5bc
000001a0: 9feb 17bd 16bd 23bd fbc5 e33b 5805 a53d
000001b0: c04b 1d3e 0ac6 913d 25a9 1fbd d733 873c
000001c0: 1de5 7d3c dc99 3fbc d8f3 9ebb dcfd c13d
000001d0: 81d0 f53c 8eb1 5c3d 0229 9ebc 350a a8bd
000001e0: ba56 1bbd caae dcba 1be7 503c 1d38 c9ba
000001f0: f55c 903d f30a df3d e668 53bd cecc 8fbd
00000200: 184b 593d 2051 d5bc 6849 7c3d 4257 333d
00000210: e3e0 8dbd 45a1 ccbd b8e7 20bd 6be6 7abc
00000220: 457f 2abd 6ee2 4a3c f737 053c 5cea 13bd
00000230: 68f3 903d 236c 583d d8ca 323d 3c37 a3bd
00000240: d3aa 00be dc71 183c 4d25 fcbd ee8b cf3c
00000250: d39c c3bc bde6 523c d4b6 95bb e70d 10be
00000260: 1f7f cabd 5135 a4bd 97df c7bb e53f 28bd
00000270: abcf 59bb a544 9f3d 844a 2d3c e813 51bd
00000280: d32e 8ebd e323 99bd 32bc 163d 2d2e 8bbe
00000290: 1db1 02be 168a fbbd 5db0 7fbd 1daa f63c
000002a0: e5fe 14bd 995d ae3c 66c4 3d3d fced 37bd
000002b0: e3e1 9a3c c596 a53c 509a 663d 6f0a e73b
000002c0: 137d bd3d 61b8 b9bd 1690 b13b 369a eebd
000002d0: 4044 eb3a 7386 0bbd 7959 ffbc f309 593b
000002e0: 33a6 933d 6573 d13d 7b12 dfbd 42bc e1ba
000002f0: 43d3 84bd ffde 353d 48fa 4a3c dac9 b4bd
00000300: c6ce 18bd c5e1 813d 31da d03d 0d4b 86bd
00000310: e1ce 4e3d 808e 0abd e6f3 afbd 1d36 afbc
00000320: aa33 bf3d 9624 35bd 1b61 c5bc 58ce 53bd
00000330: d3a3 b83d fedc 533c 6806 83bd 0342 763d
00000340: e3cb 49bd 37f1 fc3c 0066 b6bd 94c3 57bd
00000350: df8b 423c deb0 44bd 74f7 fe3c 7c62 4c3d
00000360: 9cbc ccbd e641 a0bc ee44 30bd 90e2 693d
00000370: 3519 323d f2cf 3cbe ac84 ebbd c82f b4bd
00000380: 8042 ad3d 4b30 15bc fb18 3dbc d77a bd3b
00000390: 729d 62bd d0bc 23bc 06b4 86bd 37ee 3abd
000003a0: 8760 67bd a2cc a33d b7be c03d 3fcb 33bd
000003b0: 6b3b 6cbc 66eb aa3c 8de8 02be fbe4 0fbe
000003c0: fe8b 4f3d 4f0a 163d 5fcf 0abe 20fe 353d
000003d0: d4d7 273d 8683 bdbd 3dec ebba 0f7f d1bd
000003e0: ed2f a1bd 1812 cbbc d5de aa3d 82d5 27bd
000003f0: 603a 2bbd 1971 f03d d827 e9bc 3f59 c7bd
0.012167464 0.046974305 0.058393598 0.02773761 0.057850208 -0.030937416 -0.0020020343 0.09602568
0.112495296 -0.04542716 -0.017111167 -0.02448574 0.06385851 -0.0006433205 -0.039268635 0.05527091
0.08006343 -0.06674278 -0.108931795 0.10330176 0.15494746 -0.0036044328 0.01765048 0.0054082917
-0.05946027 -0.15857773 0.0069941827 -0.07725887 -0.030266419 0.08383551 -0.04257579 -0.003231771
-0.031523764 0.0108433915 -0.11413396 -0.010773943 -0.085098565 0.054851077 0.0048803207 0.033335324
-0.028504835 -0.10400713 -0.021070812 -0.10085913 -0.044874508 -0.096456334 -0.42164218 0.035504047
-0.023285277 0.07097747 0.008571173 0.06980156 0.09015923 -0.040050887 0.08233115 0.10647537
-0.052802823 -0.006742199 0.0778223 -0.051177166 -0.06804506 -0.109021775 0.055779006 0.09667875
0.037329447 -0.094848715 0.09317788 0.054438096 -0.057052664 0.003910649 0.0076336297 0.0881629
-0.12850128 -0.014912186 -0.028211683 -0.10651935 -0.031877138 -0.048403334 0.0025287673 -0.08408963
-0.11150794 0.011408803 0.069206044 0.053441115 -0.09037217 -0.07011579 0.016289191 0.010067283
-0.103159495 -0.115870796 -0.113032825 0.08978143 -0.0072001866 -0.14180993 0.036657304 -0.12982115
-0.110541694 0.003032614 0.05669652 -0.02890103 -0.04472796 -0.03028652 0.021615867 -0.022140428
-0.03708994 -0.03997525 0.0069510913 0.0805766 0.15360928 0.07117851 -0.03897967 0.016504211
0.015496519 -0.011694398 -0.004850846 0.09472248 0.030006649 0.053880267 -0.019306663 -0.08205072
-0.037924506 -0.0016836759 0.012750412 -0.0015351806 0.0704898 0.1089076 -0.05161371 -0.07021485
0.05305013 -0.02603966 0.061593443 0.043784387 -0.06927659 -0.09991697 -0.039283484 -0.015313725
-0.04162528 0.012383087 0.008131019 -0.036112174 0.07077676 0.052837502 0.043650478 -0.079695195
-0.12565164 0.00930449 -0.12311802 0.025335278 -0.02387849 0.012872395 -0.004568914 -0.14067803
-0.09887528 -0.08017982 -0.006099652 -0.04107656 -0.0033235352 0.07776765 0.010576848 -0.051044375
-0.06942525 -0.07477548 0.03680057 -0.27183667 -0.12762876 -0.12282197 -0.062424053 0.030110413
-0.0363759 0.021284865 0.04632988 -0.044904694 0.01890654 0.020213494 0.056299508 0.0070508043
0.09252372 -0.090683706 0.0054187877 -0.11650507 0.0017949417 -0.034063768 -0.031170594 0.0033117502
0.07209434 0.10227088 -0.10892197 -0.0017222243 -0.064856075 0.04440212 0.012388773 -0.08827563
-0.03730657 0.0634189 0.10197867 -0.065572836 0.050490264 -0.033827305 -0.08591442 -0.021388108
0.09336026 -0.044224344 -0.024094155 -0.051710457 0.09015622 0.012931107 -0.06397706 0.060121547
-0.049266707 0.030876739 -0.08906174 -0.052676752 0.011874168 -0.048020236 0.031123854 0.04989861
-0.09996912 -0.019562673 -0.043034486 0.057100832 0.04348107 -0.184387 -0.114999145 -0.08798176
0.084599495 -0.009105752 -0.0115416 0.005782466 -0.055325933 -0.009993747 -0.065773055 -0.045637336
-0.05648854 0.07998015 0.09411376 -0.043895002 -0.014418463 0.0208642 -0.12784024 -0.14052193
0.050670616 0.036630925 -0.13555668 0.044431806 0.040977314 -0.09253602 -0.0017999482 -0.10229313
-0.07870469 -0.024788901 0.08343283 -0.0409751 -0.041803718 0.11740322 -0.028461382 -0.09733819

fc.2.bias f4 [171]
00000000: 0015 e53c 9fc4 4c3c b7e6 3ebc c3c6 32bd
00000010: 24aa db3c c653 383d 15d0 a7bc 3bfa 943b
00000020: 2760 63bc 7f93 acbd 2f59 55bd fadf b4bc
00000030: cf83 f3bb dbd1 383c 0094 27bd 031b 9f3b
00000040: 873a 36bd 23c2 00bd 3ee5 503a e6e5 773d
00000050: ed7d 0d3d 095e 0abc 3755 4fbd 946a 8e3d
00000060: 2b1a fb3c ef79 0b3d 88c3 543d 2e5b b53a
00000070: 31d7 c9bd b653 c1bb 1019 c2bc f2c9 753c
00000080: 88b5 063c 88e5 203c 5248 0cbd abda 92bc
00000090: 8a9c 223c 324e 93bc c33e 2dbd 4e64 e83c
000000a0: 9d82 8abb 9a0f 81bc 8c26 83bd b9b3 46bc
000000b0: eb84 c93c 771a 663c 8884 45bd 43f0 123c
000000c0: 60bb 8bbd f622 d9bc c878 10bd d375 563c
000000d0: de39 b9bc 01c6 7ebd c809 97bd b833 3fbd
000000e0: 9308 8fbc 3cbd 69bc e4fe bb3c 921e 45bc
000000f0: a011 49bc 5353 0fbd 7bfd 1b3d f7b4 4bbd
00000100: 0a46 31bd 5000 d2bc d581 37bc 7cc9 0d3a
00000110: 76d7 3e38 a788 eeb9 c920 d23c 16c7 f83c
00000120: 8602 2abd 32a6 b33c e81c 80bb f400 193d
00000130: 5719 65bc 4684 34bc 7d9d 0c3d c9dc 2dbd
00000140: 1476 67ba 79ca 633c 0c0e 33bd 079c 0ebc
00000150: 0b24 3dbd e8fb 35bd 9220 933c 2876 62bb
00000160: 2bae 883d 6228 c1bd 3bcb 01bd c38c 5cbd
00000170: e553 40bd 70cd 0abd 205f 9abd 6601 4fbd
00000180: da2d 03bd d728 30bd 213c 49bd 7e1c bfba
00000190: d291 853d 6cd4 85bc 40c6 acbd 5bf1 24bd
000001a0: 0978 33bd a121 693c c42c f0bc 942c 52bd
000001b0: 5996 ccbc a98a 033d ba17 523c 2d76 fabc
000001c0: dfd6 1e3c e961 9bbc 5fce 413d 2764 9a3c
000001d0: 8e9f 563d 6295 68bd a511 f3bc 00ae 923d
000001e0: 0f09 32bd d648 b53c c163 7b3d d879 a5bc
000001f0: 8ccd 55bd 6b7d 38bc 0e89 503d 08c3 e1ba
00000200: 794d 70bd 0b86 83bc e49f 9f3c bb93 4bbc
00000210: 56a8 dabc 5c43 283b 8989 6c3d 5686 1bbc
00000220: 079b 4dbc c852 193d eee0 94bc 5738 da3c
00000230: 182b 97bd 89f2 85bd 9c90 6dbd 657d 223c
00000240: aa7d 75bd 4db7 553c d71e d7bc a245 843c
00000250: 9a8f fd3b f5e8 d93c 4ea1 74bd ad42 a1bd
00000260: 7fc4 f0bc 517e 7b3d cf90 03bd 9c2a 55bd
00000270: 5d0e 153d d0a5 d3bc 6126 863d 042a 9f3d
00000280: bc2b 0fbd bb35 433d 272b a2bc f416 8e3d
00000290: a246 a7bc 8bb7 433d aa21 833b f3e5 7b3d
000002a0: 0d77 8ebd 5864 84bd ff1d a0bc
0.027964115 0.01249805 -0.011651686 -0.043646585 0.026814528 0.045001768 -0.020484963 0.0045464314
-0.013877905 -0.0842657 -0.052087005 -0.022079457 -0.0074314843 0.011280502 -0.04091263 0.004855515
-0.04448941 -0.031435143 0.000796873 0.060521983 0.03454392 -0.008445271 -0.050618377 0.06953922
0.030652126 0.03405183 0.051944286 0.0013836378 -0.09855498 -0.0058998717 -0.023693591 0.015001761
0.008221991 0.0098203495 -0.034248658 -0.017926535 0.009925017 -0.017981622 -0.042296182 0.028368142
-0.004226996 -0.01575451 -0.064038366 -0.01212781 0.024599513 0.014044396 -0.048222095 0.008968416
-0.06822848 -0.026505928 -0.035271436 0.013089615 -0.022610601 -0.06220055 -0.073749125 -0.046680182
-0.017460143 -0.014266308 0.02294869 -0.012031214 -0.0122722685 -0.034991574 0.038083535 -0.04973313
-0.043279685 -0.025634915 -0.011200388 0.00054087467 4.5500194e-05 -0.0004549671 0.025650399 0.03036837
-0.041506313 0.021929834 -0.003909696 0.037354425 -0.013983092 -0.011017865 0.03432988 -0.042446885
-0.00088295457 0.013903254 -0.043714568 -0.008704192 -0.04617695 -0.04442969 0.017959867 -0.003455529
0.06673845 -0.094315305 -0.031687956 -0.05384518 -0.046955008 -0.033887327 -0.07537675 -0.050538443
-0.03202615 -0.043007698 -0.04912961 -0.0014580635 0.06521954 -0.016336642 -0.08436251 -0.040269237
-0.043815646 0.014229209 -0.02931822 -0.051312044 -0.024974035 0.03211466 0.01282304 -0.030573929
0.009694784 -0.018967586 0.04731595 0.018846584 0.052398257 -0.056783088 -0.0296715 0.07162094
-0.04346567 0.022129457 0.06137443 -0.020199701 -0.052197978 -0.011260371 0.050911956 -0.0017224262
-0.058667634 -0.016055128 0.019485421 -0.012425358 -0.026691597 0.0025674915 0.05774835 -0.009492477
-0.012549168 0.037432462 -0.018173661 0.026638193 -0.07381266 -0.065404005 -0.05799924 0.009917592
-0.059934296 0.013044191 -0.026259823 0.016146485 0.007738066 0.02660034 -0.059724145 -0.078740455
-0.029390572 0.06139976 -0.032120522 -0.05204259 0.03639065 -0.025835901 0.06550289 0.07771686
-0.034953818 0.047658663 -0.019795967 0.06937972 -0.020419423 0.047782462 0.004001816 0.061498594
-0.06956301 -0.064644516 -0.019545553
