inventory/model.pth (torch, 472337 bytes, 16 tensors)

conv.0.weight f4 [32, 3, 5, 5]
000000 2f be 87 3d 71 9b f7 3c cd a0 37 3a 90 b0 5d 3d
       0.066280715 0.030225487 0.0007004857 0.05412346
000010 0c 7c d9 bd 79 68 b5 bc ca cc d1 bc c4 ad b1 3d
       -0.10619363 -0.022144543 -0.025610346 0.08675721
000020 9c 94 5f bc 30 c0 3d bd 95 b7 ac bd c2 1f 2c bb
       -0.013646271 -0.046325862 -0.08433453 -0.0026264046
000030 1b e4 95 bd a2 ad a4 3c e0 66 8d 3c 60 ef 96 bc
       -0.07318898 0.020102326 0.017260969 -0.01842469
000040 82 73 11 3e b2 0d b0 3d f7 49 16 bd 2d 91 15 be
       0.14204219 0.08596362 -0.036691632 -0.14606161
000050 40 72 5d bd d8 37 8e bd 44 3f 95 bd 13 52 d9 bd
       -0.054064035 -0.06944245 -0.072874576 -0.106113575
000060 b0 73 09 be 82 54 cb 3d 90 93 bc 3d 40 7e 7a 3d
       -0.13423038 0.09928228 0.09207833 0.061155558
000070 5c 6b 53 3d 79 39 f6 3c b2 36 5f bd b0 4f 2f 3d
       0.051616058 0.030056702 -0.05449552 0.042800605
000080 d2 18 c1 bd fe aa 4f 3d fa 0e a6 3d b1 28 41 3d
       -0.09428562 0.05070018 0.08108325 0.047157947
000090 3d ed 29 3d 42 67 89 39 56 f0 c5 bd 01 91 c1 bc
       0.041486014 0.0002620761 -0.09664981 -0.023628714
0000a0 a1 b2 9d 3d f0 e1 b8 bb 38 82 81 bc 99 15 2b bc
       0.077000864 -0.005642168 -0.015809163 -0.010442161
0000b0 8e b5 d4 bd 97 f6 70 bd a6 d9 8c bd a0 09 86 bd
       -0.10386191 -0.058828916 -0.06877451 -0.065448046
0000c0 fb 85 a9 bc 59 fc 00 3d 83 f0 a8 3d 54 87 94 bd
       -0.02069377 0.031490657 0.08248999 -0.07252374
0000d0 ce 8b a9 bc b1 52 ca bd fc e1 c0 bc e9 82 87 3d
       -0.020696547 -0.098790534 -0.023545258 0.06616766
0000e0 f8 f8 d3 3d f5 46 f0 bd 36 5f 06 bd 79 fc 58 3b
       0.103502214 -0.11732284 -0.032805644 0.003310947
0000f0 87 36 24 3d f2 d8 ce 3c d2 90 cd bc a7 96 25 bd
       0.040091064 0.025249932 -0.02509347 -0.040426876
000100 82 58 c1 bd af 92 a2 3d 39 48 a6 3d 4e 6c 2d 3b
       -0.0944071 0.07938134 0.08119244 0.002646226
000110 55 a9 53 3d 97 91 30 bc 10 3f 56 3d 5e d1 5f bd
       0.05167516 -0.010776899 0.052306235 -0.054643027
000120 35 02 72 bd 83 24 d7 bd c5 53 aa 3c 0f 56 e9 3b
       -0.059084136 -0.10505011 0.020791898 0.0071208547
000130 7c eb 8a bd c7 81 d5 3d 65 47 07 3d ed f3 0c 3b
       -0.06783196 0.10425144 0.03302707 0.0021507696
000140 1e 1b ec bd 92 db e0 bd 27 82 83 bd 0f b0 bc 3d
       -0.1152861 -0.1097938 -0.06421309 0.09213268
000150 77 6b 6e 3c ac c9 f5 bc 5e a3 3f 3d 62 7c bf bd
       0.014551989 -0.030003391 0.04678666 -0.09349896
000160 e3 48 41 3b 3c 55 43 3d 9c df 46 3c 8c 64 fe bd
       0.0029492907 0.047688708 0.012138274 -0.124215215
000170 fb d0 c6 3c 37 01 eb 3d 01 aa 09 3e 97 cc 0e be
       0.024269572 0.11474841 0.13443758 -0.13945232
000180 fa 9a 60 3d 93 5f 67 3d 1c b6 05 3d 38 e0 db 3b
       0.054835297 0.05648763 0.032644376 0.0067100786
000190 ad ed 92 bd 34 57 03 bc e2 28 8c 3d 98 5f bc 3d
       -0.07174239 -0.008016396 0.06843735 0.091979206
0001a0 05 d9 2a 3d 75 97 eb bc 49 cf d7 3b 5f 67 52 3d
       0.041710872 -0.028758744 0.0065859896 0.051368114
0001b0 74 c0 db 3d d9 67 c5 bd a6 51 56 bc 6c 72 c5 3d
       0.10730067 -0.09638948 -0.01308099 0.09640965
0001c0 2f 6f a6 3d 64 72 98 bd f0 11 b4 bd f7 39 91 bc
       0.08126675 -0.07443693 -0.08792484 -0.017727835
0001d0 7e c8 87 bd 54 a5 48 3d 54 54 80 3d 17 ae a9 bd
       -0.06630038 0.048985794 0.06266084 -0.08285158
0001e0 7e 78 3e 3d 87 25 2e bd 29 9b 6b bd c6 8c 51 3c
       0.04650163 -0.042516258 -0.05752102 0.012789911
0001f0 cb 4a 39 bd 51 78 45 3c dc 19 af 3d 76 16 aa bd
       -0.045237344 0.012052611 0.08549854 -0.08305065
000200 a3 c0 4a 3d 6d ec 00 bd cd 29 1e 3d 06 5e 2d bd
       0.04950012 -0.031475473 0.038614083 -0.042325996
000210 4b fe ba bd 44 4f a9 3d d5 fc b8 3d 63 f3 20 bd
       -0.09130534 0.08267072 0.09032599 -0.03929461
000220 ed 98 e9 bd 3a db 37 3d 41 d9 eb 3c 81 1a d1 3d
       -0.114061214 0.044886805 0.028790118 0.10210133
000230 03 63 b5 bd 94 55 a3 3b 2b 19 bf bd 1f 22 2e bd
       -0.088567756 0.004984567 -0.09330972 -0.04251301
000240 63 42 db 3c f2 b3 8e 3d 7f b7 b0 3d 5f 1d 87 bd
       0.026765054 0.069679156 0.08628749 -0.06597399
000250 00 91 3f bc 14 e8 e6 39 96 56 d9 bb b0 00 cd bd
       -0.011692286 0.0004404193 -0.0066326363 -0.10009897
000260 8e 4d 91 3d 6b 19 5c bc 96 86 a4 3d eb e3 91 bd
       0.070948705 -0.0134337945 0.08033483 -0.0712355
000270 55 4e db 3c 4c 54 60 bd f2 97 0a bd 5a 35 24 3d
       0.02677075 -0.05476789 -0.033836313 0.040089943
000280 04 aa 03 3d 14 ef b7 3d c4 aa b1 bd 3b ba 92 3c
       0.03214456 0.089811474 -0.08675149 0.017911067
000290 cd 02 e1 bc ed ec 97 bd 10 70 ef bd 32 73 a3 bd
       -0.027467156 -0.07418237 -0.11691296 -0.07980956
0002a0 b2 68 aa 3d 47 3c 99 bd 1c 97 dd 3d bb 8c e1 3d
       0.0832075 -0.074822 0.108198375 0.1101317
0002b0 9d 7a b2 3d 3d 8d e3 bd b4 43 cc 3d 8e 30 12 3d
       0.08714793 -0.111109234 0.09973851 0.035690837
0002c0 0b 4b 85 b8 a4 42 e1 3c 52 a7 d2 bb 46 3f 9f 3d
       -6.355912e-05 0.027497597 -0.0064286375 0.0777574
0002d0 85 11 0e bd 41 82 48 bc c5 66 bf 3c 3a 65 7d 3d
       -0.034684677 -0.012238086 0.023364434 0.061864115
0002e0 40 bc 68 3d 8f c0 95 bd 70 6f 8b 3d da 5b 60 3c
       0.056820154 -0.07312118 0.068083644 0.013693774
0002f0 d5 7c bb bd 2d f2 cf bc a7 e1 f2 bd 45 ee e8 bc
       -0.09154669 -0.025384033 -0.11859446 -0.028433928
000300 9b aa 98 3d 46 93 8f 3d 2f c2 cc 3d d2 a1 f8 bc
       0.074544154 0.07010512 0.09997975 -0.0303506
000310 1a c7 c7 bd e2 ce 63 bd d5 8e 56 3d 78 35 0c 3d
       -0.097547725 -0.05561722 0.05238231 0.03423068
000320 d4 99 b8 3d 59 7c aa bd da d7 e7 3d a1 e9 4e 3d
       0.090137154 -0.08324499 0.11320467 0.050515775
000330 dd a9 a5 bd f4 00 e6 3d 60 d1 97 3d c3 1b 90 bd
       -0.080890395 0.112306505 0.07412982 -0.07036545
000340 a9 ae 3f bd 79 f4 60 bd 92 62 87 bd ee 72 3c 3d
       -0.04679743 -0.054920647 -0.06610598 0.046008043
000350 0c ec 9f 3c 25 da a7 bd 26 fc 03 bd ed 6b f8 3d
       0.019521736 -0.08195905 -0.03222289 0.1212996
000360 dd 41 b8 ba e9 ac 25 3c 5b 28 af bc dd cf b8 bd
       -0.0014057715 0.010112026 -0.021381548 -0.09024022
000370 54 4d 06 3e cc f6 ab bd ad fa 1e bd 3b 7f da bd
       0.13115436 -0.08396682 -0.03881328 -0.106687985
000380 f7 94 90 3d b9 a4 53 bc 7f 02 5d 3c 84 02 5f bd
       0.07059663 -0.012917691 0.013489365 -0.05444576
000390 53 8b f5 bc 1b b4 eb 3c fd 94 da 3c 33 87 d4 3d
       -0.029973662 0.028772404 0.026682371 0.1037735
0003a0 7f 34 ee 3d a7 59 ad bd b7 e1 02 3d 06 89 c1 bc
       0.116311066 -0.084643655 0.03195354 -0.023624908
0003b0 49 a9 c7 3d 11 e0 2c 3d b8 fa 2b bc c2 f5 ad bd
       0.097490855 0.042205874 -0.010496788 -0.0849414
0003c0 76 f2 47 bd 6b 2f ae bd b0 1f 85 bd 8e f2 ac 3a
       -0.048815213 -0.08505138 -0.065001845 0.0013194846
0003d0 e3 3c dd bd 16 31 99 bd 63 36 82 bc fb 97 8e 3d
       -0.10802629 -0.074800655 -0.015895074 0.06962582
0003e0 a6 22 26 3d 4f 5c e5 bc d5 2e 11 3d 9f 2a 23 bd
       0.040560387 -0.027998118 0.035445053 -0.03983557
0003f0 e0 c3 a0 3d 2c 81 e8 3d 65 d5 fc bd b1 67 cf 3d
       0.0784986 0.113527626 -0.12345389 0.101271994

conv.0.bias f4 [32]
000000 03 0a a5 bd 6b 8a 38 3c 7c 51 5a bd 96 e1 38 3c
       -0.0805855 0.01126347 -0.053300366 0.011284253
000010 02 08 f8 3b ef 96 d1 3d 66 b4 d3 3c b4 db d1 3d
       0.007569314 0.102338664 0.025842857 0.10246983
000020 09 9b 25 bd 01 c6 b3 bd 7b 74 98 bc cb a0 28 bd
       -0.040431056 -0.087780006 -0.01861023 -0.04116897
000030 f5 b0 4a 3d f9 0f 8c bd d8 cb cc 3d 8a 1e f5 3d
       0.049485166 -0.06838984 0.099998176 0.119687155
000040 70 03 d5 bd c8 c4 44 bd 8e e1 c0 bd 3d c4 8d bd
       -0.10401046 -0.048039228 -0.09418021 -0.06922195
000050 63 c3 9f 3d 70 88 cf bd 86 c0 f2 3a 7b 39 48 3d
       0.07800939 -0.10133445 0.0018520511 0.048882943
000060 26 3d c8 bb d4 16 3a bc cf 2d c0 b9 c1 dd 12 3c
       -0.006110805 -0.011357982 -0.00036655224 0.008964003
000070 44 a1 25 3c c7 f9 9b bc a4 0d 8e bd 53 89 bd bc
       0.0101092495 -0.019040002 -0.069361955 -0.02313677

conv.1.weight f4 [32]
000000 f3 d5 7b 3f bc f6 81 3f d9 90 80 3f 2d 2c 85 3f
       0.98373336 1.0153422 1.0044204 1.0404106
000010 0a 80 7e 3f 40 21 79 3f 9c 1d 7f 3f 18 b3 77 3f
       0.9941412 0.9731636 0.99654555 0.9675765
000020 ce e7 80 3f 39 eb 7a 3f 80 3e 7f 3f 4d b3 78 3f
       1.0070741 0.9801517 0.9970474 0.9714859
000030 85 8f 89 3f 89 a9 7b 3f 3c 24 83 3f 93 7f 7b 3f
       1.0746924 0.98305565 1.0245433 0.9824154
000040 8d 88 75 3f 00 1c 79 3f fd 45 7e 3f 07 9e 85 3f
       0.95911485 0.9730835 0.99325544 1.0438851
000050 a1 67 86 3f da 47 83 3f bb a0 84 3f f0 d8 7d 3f
       1.0500375 1.0256302 1.0361551 0.99159145
000060 23 08 82 3f 5a 88 7d 3f bc 0d 80 3f 2b ed 7b 3f
       1.0158733 0.9903618 1.0004191 0.98408765
000070 c2 5b 7b 3f 50 03 79 3f c4 ae 84 3f 7c 93 74 3f
       0.98186886 0.9727068 1.0365834 0.95537543

conv.1.bias f4 [32]
000000 ef 50 a1 3c 78 67 1d 3d 28 1b d5 bc c9 fe f3 bb
       0.019691912 0.038428754 -0.026013926 -0.0074461442
000010 78 b5 ea bc b0 44 ef 3c a3 2f 58 bd 9e b8 1e bd
       -0.028650984 0.029207557 -0.052779805 -0.038750283
000020 ad 72 5c bc b2 c3 aa bd 25 81 9c 3c 00 6e e4 b9
       -0.013455075 -0.08338107 0.01910455 -0.00043569505
000030 66 00 19 3b 85 c0 f3 bc 19 d2 d5 3b da 4e f5 bc
       0.0023346185 -0.029754886 0.0065252897 -0.029944826
000040 ba b8 de bc 32 87 3f 3a 99 9e 61 bd 7a 29 9a bd
       -0.027187694 0.00073062174 -0.05508289 -0.07527442
000050 f6 dd 63 3d 2a 20 66 3c 55 79 a4 bd 68 d1 ec 3c
       0.0556316 0.014045754 -0.08030955 0.028908446
000060 20 8a 60 bd 51 50 6d bd 99 0d 39 3d 8c 3b 4c bc
       -0.054819226 -0.057937924 0.045178983 -0.012465369
000070 78 98 23 bd 7d 35 cc 3c 88 aa ad bc b6 d8 da 3c
       -0.039940327 0.024927849 -0.02119948 0.026714664

conv.1.running_mean f4 [32]
000000 39 41 b0 be 2d b1 66 3d c2 bc 8d bc 32 90 1f bc
       -0.3442476 0.05632131 -0.01730192 -0.009738969
000010 e8 3d a8 be d0 a2 bc be 36 66 a2 bc 87 de 35 3d
       -0.3285973 -0.36842966 -0.019824129 0.04440167
000020 ce 6c 4d 3d 0c 9f 5e 3d bb 45 0f 3f 90 0d 23 3e
       0.050152592 0.054350898 0.55965775 0.15923142
000030 35 52 32 3d 57 d0 13 be be 0a 03 3e 92 3c 8c 3e
       0.04353543 -0.14434944 0.12797067 0.2738996
000040 44 88 68 be 85 a0 b3 3e 34 00 bf bd 93 df 13 be
       -0.22708231 0.35083404 -0.093262106 -0.14440756
000050 b7 c1 98 3d 3a fb c9 bd 2c df 86 bd 00 3e 41 3e
       0.07458823 -0.09862371 -0.065855354 0.18871307
000060 eb c6 8b be 28 01 98 be b0 cb 74 3d c4 81 ee be
       -0.273002 -0.29688382 0.059764564 -0.46583378
000070 75 2f 9e be 8a 54 9c bd f4 fe fe bd 48 08 16 3f
       -0.30895582 -0.07633312 -0.12450972 0.58606386

conv.1.running_var f4 [32]
000000 82 25 15 3d ea 9d 4e 3c 9d 56 6b 3b b3 87 69 3c
       0.036412723 0.012610892 0.003590978 0.014253545
000010 9d 62 21 3d ca 31 77 3d 8b 48 04 3c 8e 34 3e 3c
       0.039400686 0.060350217 0.008073936 0.01160921
000020 e6 e2 f4 3c 3c d5 91 3c 4c 56 c6 3d 1a e3 e7 3c
       0.02989335 0.017801873 0.096844286 0.028306533
000030 3a 08 22 3c 2d 4d 13 3c ea 28 01 3c 00 22 02 3d
       0.009889657 0.008990568 0.00788329 0.031770706
000040 2d 13 d8 3c f8 35 7f 3d 17 9a a4 3c dd dc c1 3c
       0.026376331 0.062307328 0.020093007 0.023664886
000050 d3 68 87 3b b0 0a 38 3c 0d e5 c0 3c dc 4e 4f 3c
       0.004132369 0.011233017 0.02354672 0.012653079
000060 56 93 0c 3d f8 a6 48 3d 41 0a 1f 3c 51 bc 85 3d
       0.034320198 0.04898736 0.009707035 0.06530059
000070 ca db 44 3d 23 1c 46 3c b9 62 d1 3b 49 16 c2 3d
       0.04806117 0.012091669 0.0063899425 0.09476907

conv.4.weight f4 [32, 32, 3, 3]
000000 f6 7a 09 3c 95 27 0e 3d 07 62 f9 3c 6b 39 92 3d
       0.008391133 0.034705717 0.03044225 0.07139858
000010 3c b9 fd 3c 5e ac 08 3c 36 0b 6d ba 18 76 5a bc
       0.030972116 0.008341877 -0.0009042503 -0.01333382
000020 67 b6 1f bd f4 cb cf bb 5c a0 b5 3d ec ce 52 3d
       -0.03899231 -0.006341452 0.08868477 0.051466867
000030 b8 77 8d 3d 28 80 8a 3d 5c b4 99 bc 17 b6 02 3d
       0.069076 0.06762725 -0.01876276 0.031911936
000040 14 fd ef ba 03 8f 62 3d c2 1a 19 3c ac 44 9d 3c
       -0.0018309676 0.055312168 0.0093447585 0.019197784
000050 2b a5 6c 3c a0 79 14 bc f3 38 d8 3a e2 3f d8 3c
       0.014443676 -0.009062201 0.0016496464 0.02639765
000060 0b f8 50 3b d4 84 db bc b9 96 64 3d 2f 60 4c 3d
       0.0031886126 -0.026796736 0.055807803 0.049896415
000070 d5 eb 71 3d 45 89 cd 3c 7c 34 23 bc 4f fe 2f 3d
       0.059062798 0.02508987 -0.009961244 0.042967137
000080 7b de 8c 3d 63 fb 52 bb d7 57 4d 3c da 33 45 3c
       0.06878372 -0.0032193295 0.01253315 0.012036288
000090 d0 19 bc bc 07 6b 8d bc fa c3 2c 3d 9c c7 4c 3d
       -0.022961527 -0.017262949 0.042179085 0.04999505
0000a0 cc af 16 bd 0a 48 2c 3d d1 a9 4e bc 99 96 24 bd
       -0.036788747 0.04206089 -0.01261373 -0.040182684
0000b0 eb 5f 79 3d 10 ee 64 3d 1e 0f b4 3c ae b4 3f 3d
       0.06088249 0.055891097 0.021979865 0.04680317
0000c0 ca 39 3e 3d 81 35 a3 3a 37 f8 56 3d 38 fa 52 3c
       0.04644183 0.0012451858 0.05248281 0.01287704
0000d0 52 f4 9c bd 15 12 89 3b 98 b1 52 3d 6a ce 44 bd
       -0.07663788 0.0041830637 0.051438898 -0.048048414
0000e0 89 63 a9 3c 5a ef 04 bd f9 cb db 3c 4f aa c6 3c
       0.020677345 -0.032454826 0.02683066 0.024251131
0000f0 f5 19 db 3a e6 a7 3a 3d e0 a9 0c bc 32 46 cf 3c
       0.001671611 0.045570277 -0.008585423 0.025302026
000100 2d eb 18 3d 6a ca 80 3d bc 22 a7 3a 2c 8b 22 3d
       0.037333656 0.062886074 0.001275144 0.039683506
000110 9f 9a 8d 3d 51 ec 65 bd c8 b9 69 3c d5 30 bb bc
       0.06914257 -0.056133572 0.014265485 -0.022850433
000120 e0 44 11 3d c8 e0 b5 bc dc eb b2 bc 0a 98 3c 3d
       0.035466075 -0.02220191 -0.021840982 0.046043433
000130 5a a1 2a bc ef b2 16 3d 61 36 97 bb 95 52 51 bd
       -0.010414446 0.036791738 -0.004614637 -0.051104147
000140 a2 42 92 3c 3a 8b 95 3b 65 a2 69 3c ad 00 01 bd
       0.017854039 0.0045637162 0.014259909 -0.031494785
000150 76 66 c9 bc 97 ce e4 3c 1c 3c 63 bc 3b a7 0b bd
       -0.02458499 0.027930541 -0.013869312 -0.03409503
000160 f6 d2 81 3d 5e 33 20 3c 07 1c 41 3c e2 e6 e7 3c
       0.06339066 0.009777872 0.011786467 0.028308336
000170 f4 0f 20 3c 4c f6 06 3d 1a 0d 3b 3b 27 ad 45 bc
       0.0097694285 0.03294973 0.0028541745 -0.0120652085
000180 d6 12 a5 3c 8d d2 6a bd 27 8e b2 3c 9d fc 0c bc
       0.020150583 -0.057329703 0.0217963 -0.00860515
000190 d5 7a aa 3c d0 14 86 3b 29 f2 8a bb 0a d6 f6 bb
       0.020810524 0.0040918365 -0.0042402935 -0.0075328397
0001a0 df 5d 06 bc 76 b5 61 bd 77 c4 8f 3b 1c a4 25 3d
       -0.008201092 -0.055104695 0.004387434 0.04043971
0001b0 c0 93 0f 3d ff 43 16 be 09 72 0c 3c ac 88 16 bd
       0.035053015 -0.14674376 0.00857211 -0.036751434
0001c0 5a 48 c1 bd 71 27 64 ba e9 29 31 3d 2d 0d 3e 3c
       -0.09437628 -0.0008703387 0.04325286 0.011599821
0001d0 46 58 5b bd 5e 60 8e bc be c9 83 3c 28 43 06 bd
       -0.05355098 -0.017379936 0.01608741 -0.03277889
0001e0 48 a0 a4 bb 16 4f a7 3d f8 52 a2 3d dc 40 66 3b
       -0.00502399 0.08169381 0.07925981 0.0035133874
0001f0 aa 69 6c bc 5d 04 19 3d 3e 19 49 3b 67 c3 a8 3c
       -0.014429489 0.037357677 0.0030685212 0.020600988
000200 34 fe 05 bd 70 de f9 3b ab 3e 7b 3d 48 6f 54 3d
       -0.03271313 0.0076253936 0.06133906 0.05186394
000210 ec a0 fa 3c 7c 3b c1 bc 1d 83 75 3d 63 8f 98 bb
       0.030594312 -0.023587935 0.059939492 -0.004655765
000220 31 45 89 bc f5 6e 87 bd ec 35 e7 bb 14 5a 18 3d
       -0.016756626 -0.0661296 -0.0070559885 0.03719528
000230 ad 58 56 3c c5 ea de 3c 42 8b 58 bd 4e 0e a2 bc
       0.013082665 0.027211556 -0.05286718 -0.019782212
000240 c2 13 5a bd ff 20 96 bc 21 85 c1 bc c8 3e c9 bc
       -0.0532415 -0.01832628 -0.023623051 -0.02456607
000250 5f f2 bd 3c 43 bb ba bc 1b 27 21 bd 1f bf 35 bd
       0.02318686 -0.022794371 -0.039343935 -0.04437172
000260 a6 29 05 bd 72 c9 2c 3b 01 b7 ee bc 77 a5 0b 3d
       -0.032510422 0.0026365188 -0.029139997 0.034093346
000270 ca 96 20 bd 5f b7 1c 3b 05 a6 ee bc 11 2d 8b 39
       -0.039206304 0.0023913009 -0.029131899 0.00026545723
000280 ad 0c 74 3c 3f b7 3c 3c 55 0d 0f bd f7 3f be b9
       0.0148956 0.011518299 -0.034924824 -0.00036287282
000290 f1 50 66 bd bf 80 3b bc b4 3b 1d 3d bf cc 81 bc
       -0.056229535 -0.01144427 0.038387015 -0.0158447
0002a0 99 8f 91 bc a0 ea 1c bd 3c 78 fe bb 04 21 c7 3a
       -0.017768668 -0.038309693 -0.007765798 0.0015192335
0002b0 24 b7 d7 bc 5b 38 2f 3d 4c b6 54 bc 37 2b a4 bd
       -0.026332445 0.042778354 -0.012982916 -0.08016055
0002c0 41 fa 5a 3c b3 fb ed bc 9c 18 8e bd 68 b8 0d bd
       0.013365329 -0.029050684 -0.069382876 -0.03459969
0002d0 ae 7e 94 3c 0d 08 aa 3c 2c 71 67 3c 63 fe ae bc
       0.018126812 0.020755792 0.014126103 -0.021361535
0002e0 e4 07 e3 3c 29 d5 49 bc 9f 36 51 bc 1f 62 4e 3d
       0.027713723 -0.012318888 -0.01276937 0.050386544
0002f0 45 6f a5 3c 11 e0 49 3c a7 24 76 bd 1f f4 c6 3b
       0.020194659 0.012321488 -0.06009355 0.006071582
000300 e6 fe 1c 3d 81 a7 a6 ba 91 0c 3e 3b f2 fc be bb
       0.038329028 -0.0012714715 0.002899919 -0.0058284933
000310 65 ec 54 bd 3e b5 8f bc f8 ad ad 3d 5c b1 97 bd
       -0.051983256 -0.017542478 0.084804475 -0.074068755
000320 52 9b 92 3b 29 98 8a bb af ef 17 bc 00 4c 9b 3c
       0.004474082 -0.0042295647 -0.009273454 0.018957138
000330 0e 69 16 bd f9 d6 82 3a 0f 4b c2 bc dc c4 90 bc
       -0.03672128 0.000998228 -0.023717431 -0.017671995
000340 67 66 69 bd eb ef b3 bc 0b 05 3f 3d a1 2c 01 3d
       -0.056982424 -0.021964988 0.04663567 0.031536702
000350 55 ef e2 bc 4b ec 84 bc ee 21 c7 bc e9 fa da bc
       -0.027702013 -0.016225955 -0.024308171 -0.026730971
000360 f9 ff be 3c e6 9f 07 3d 99 18 d6 3c d8 3f 6b 3d
       0.023315417 0.033111475 0.026134776 0.057433933
000370 0e 4c 15 3c 3a 67 8a bd de f8 11 3c a6 b9 90 bd
       0.009112371 -0.0675797 0.008909432 -0.0706666
000380 8c 3f ca b9 42 57 89 3b de ef 7a bc 17 f4 16 3c
       -0.00038575788 0.00419131 -0.015315978 0.009213469
000390 cb b4 bc 3d a6 0f 05 3d 8c 89 f1 3c 89 a8 24 bd
       0.09214171 0.032485627 0.029484533 -0.04019979
0003a0 1a ac 85 3b 95 f1 66 3d 3e a8 26 3b de d1 1b bd
       0.004079354 0.056382734 0.002542987 -0.03804194
0003b0 39 ec 18 bc 7c 2a 50 3c 6a f8 b5 3c 9b d1 93 bc
       -0.009333664 0.012705442 0.02221318 -0.018044284
0003c0 11 68 8c bd 58 08 46 3a ab 3d 48 3c 47 32 3e bc
       -0.068557866 0.0007554344 0.012221734 -0.011608667
0003d0 57 bf 99 3a 3e 22 65 3b da ec 8e 3d 79 ad c0 bc
       0.0011729997 0.0034963037 0.069787696 -0.023520218
0003e0 89 43 ed bc 05 8b 6e bd 1f 50 86 3b e3 7b 83 3b
       -0.028962867 -0.058238048 0.0040989066 0.004012571
0003f0 0a f2 8d bd 53 08 6c bc 1a 75 9d bd cd 57 dc bc
       -0.06930931 -0.0144062815 -0.07688351 -0.026897335

conv.4.bias f4 [32]
000000 b0 ab 27 bd e5 16 f6 3c f0 a8 5d bc 00 38 45 bd
       -0.04093522 0.030040214 -0.013529047 -0.04814911
000010 01 18 60 bd ac bc 4d bd 65 88 4f 3c 3f 68 26 bd
       -0.054710392 -0.05022876 0.012666796 -0.04062676
000020 44 cc 54 3d 7d 1c 08 3d a6 7a 9f bc e8 8d 38 bb
       0.051952615 0.033230294 -0.019467663 -0.0028160755
000030 12 98 32 bc 82 8e 3a bd f9 08 04 3c c6 fc b9 3b
       -0.010900514 -0.045546062 0.00805878 0.005675885
000040 97 f2 d9 3c 38 c8 96 bb a6 d6 00 3d 08 51 6d ba
       0.026604934 -0.0046015047 0.031454705 -0.0009052907
000050 ca 76 0b 3d 5c f6 4a 3d 01 11 66 bd 10 6f fc 3b
       0.034048833 0.049551353 -0.05616856 0.0077036694
000060 ca ef 84 3c ec 89 eb 3b cc 74 26 3c 64 dd 76 bc
       0.016227622 0.0071880724 0.0101596825 -0.015067432
000070 5b c9 36 bd 2e eb 8d bc 4c 12 5c bd 6b 4a 6a bd
       -0.04462562 -0.017324056 -0.053728387 -0.057199877

conv.5.weight f4 [32]
000000 74 90 8d 3f 2a 3c 8d 3f f0 51 8f 3f 23 7e 8c 3f
       1.1059709 1.1033986 1.119688 1.0975994
000010 dd ac 8b 3f 90 07 8d 3f f9 05 8d 3f bb f6 8e 3f
       1.0912129 1.1017933 1.1017448 1.1169046
000020 29 e6 8d 3f 11 b0 8d 3f 18 af 8c 3f 90 c5 8c 3f
       1.1085864 1.1069356 1.0990934 1.0997791
000030 b6 53 8e 3f 88 77 8b 3f 52 c3 8d 3f e2 df 92 3f
       1.1119297 1.0895853 1.1075232 1.1474574
000040 de 08 90 3f c8 78 8e 3f 16 92 8f 3f ba 9b 8c 3f
       1.1252706 1.113061 1.1216457 1.0985024
000050 a7 39 8c 3f aa 30 8d 3f f6 2d 8d 3f c4 21 8c 3f
       1.0955094 1.1030476 1.1029651 1.0947804
000060 31 1e 8d 3f d1 ff 8c 3f f8 43 8e 3f 52 c6 8b 3f
       1.1024839 1.1015569 1.1114492 1.0919898
000070 e8 2e 8e 3f ba 9c 8e 3f 22 b6 8e 3f c5 dd 8c 3f
       1.1108065 1.1141579 1.1149333 1.1005179

conv.5.bias f4 [32]
000000 c2 b5 96 3d 3f 3c b1 3d 62 c4 c0 3d 75 fd ad 3d
       0.07358886 0.08654069 0.09412457 0.08495609
000010 2a a5 9b 3d 2a 16 b0 3d fc 4d a7 3d 82 76 c0 3d
       0.07599862 0.085979775 0.08169171 0.093976036
000020 6f 38 a1 3d d2 9d aa 3d 59 42 ae 3d f6 14 a5 3d
       0.07872092 0.08330883 0.085087486 0.080606386
000030 62 d9 c0 3d 7c 74 97 3d f9 3e bf 3d 58 2d e3 3d
       0.094164625 0.073952645 0.09338183 0.11092633
000040 58 90 c1 3d bd a2 ac 3d 46 c8 bc 3d e1 7e a5 3d
       0.094513595 0.08429477 0.092178866 0.08080841
000050 51 a3 a9 3d 13 b6 b9 3d 18 ab af 3d 32 66 b3 3d
       0.08283103 0.09067931 0.085775554 0.087597266
000060 b3 66 a8 3d 49 99 bd 3d 52 ff b0 3d 3a f0 a6 3d
       0.08222713 0.092577524 0.086424485 0.08151288
000070 0e 3a c1 3d c7 54 bf 3d 89 58 b3 3d 72 ac b1 3d
       0.09434901 0.09342342 0.08757121 0.086754695

conv.5.running_mean f4 [32]
000000 c5 b0 59 3d 00 08 a6 be ef e9 d5 bd a6 81 c4 3d
       0.053147096 -0.3242798 -0.1044501 0.09595041
000010 4a 6f 05 3e f2 cf 2a be 3e e3 a7 bd b2 07 0d bf
       0.13030735 -0.16680887 -0.0819764 -0.5508987
000020 40 58 a2 bd 57 bb da be dc 58 22 bb 36 fd 9d be
       -0.079269886 -0.42721054 -0.0024772203 -0.30857247
000030 39 14 55 3d e9 25 8a 3d 41 7e e2 bc 17 e6 9d 3d
       0.05202124 0.06745512 -0.027648093 0.07709902
000040 2c 66 08 3e d8 9b 79 bd 42 3c 80 3d 09 57 8e 3e
       0.13320225 -0.06093964 0.06261493 0.27800778
000050 58 a3 7f 3e 36 d3 6d 3e 48 13 ba be e3 cd f5 3c
       0.24964654 0.23225102 -0.36342835 0.030005401
000060 ac 1a 5d 3e 31 17 8d be 38 1b a7 3d 4a 67 44 bd
       0.21592206 -0.27556756 0.081594884 -0.047950067
000070 f6 6d 20 bd 50 c8 b2 be 55 f1 f3 3d f3 7c 4b bd
       -0.039167367 -0.3491845 0.11911265 -0.049679708

conv.5.running_var f4 [32]
000000 65 0d 66 3c af af 1b 3d 90 24 04 3c 02 0a 03 3d
       0.014041279 0.03800934 0.008065358 0.031991966
000010 d6 4a 07 3d c3 37 70 3c 82 97 a1 3c c0 52 a2 3c
       0.033030353 0.014661732 0.019725565 0.019814849
000020 d6 e2 a9 3c 01 8d a8 3c 15 40 7c 3c e1 bb a1 3c
       0.020738047 0.020575048 0.015396138 0.019742908
000030 08 7c a0 3c eb 0a fd 3c 9a 22 a4 3c 5a 28 0a 3c
       0.019590393 0.030888995 0.02003603 0.008432472
000040 48 9e 40 3c 8d af 29 3c 54 62 89 3c 41 e9 e0 3c
       0.011756487 0.010356796 0.01677052 0.027454974
000050 a9 9f 2c 3d 9f 0a d9 3c ae 17 b8 3c 46 b3 de 3c
       0.04214445 0.026494322 0.022472229 0.027185094
000060 33 44 a1 3c e4 08 c5 3c 1d 77 a1 3c fb d6 ac 3c
       0.01968584 0.024052091 0.019710118 0.021098604
000070 ab 3a d1 3c db 28 28 3d 82 bc b0 3c c4 15 0a 3d
       0.02554067 0.041054588 0.021574263 0.033712164

fc.0.weight f4 [346, 128]
000000 c2 4a 19 3e a3 75 aa bd 87 ae 25 be 95 b7 23 3d
       0.14969924 -0.08323219 -0.16179858 0.03997
000010 67 a0 97 3d e5 0d fb 3d ba 8b 07 3d c1 d2 2a 3d
       0.07403641 0.122585095 0.033092238 0.041704897
000020 86 9d 24 3e a7 30 1a 3e 04 d1 19 3e e4 c9 de 3c
       0.16075715 0.15057622 0.1502114 0.027195878
000030 62 7b 44 bd 49 4f 2b bd 28 b6 e5 3d 83 12 88 3c
       -0.04796923 -0.04182366 0.11216384 0.01661039
000040 eb 33 1c 3c ec 91 74 3d 30 92 53 3d 39 9e 14 3e
       0.009533863 0.059709474 0.051653087 0.14513482
000050 c6 58 bb 3c 24 81 b0 bd ee 97 26 3d 18 cf 5e 3d
       0.022869479 -0.086183816 0.040672235 0.05439672
000060 5e 00 81 bd 7b 93 a3 bd 1c 16 6f bd ae 19 19 3d
       -0.06298898 -0.07987114 -0.058370695 0.037378006
000070 72 9d 23 3e 73 11 4e 3c 0d 9e b4 bd 97 58 00 3e
       0.1597803 0.012577402 -0.08819208 0.12533794
000080 82 ab 68 3d 8b 65 1c 3d 61 e8 05 bd 18 3d a4 bd
       0.056804188 0.038182776 -0.032692317 -0.08019465
000090 06 3f fe 3d 4f 22 f8 3c 7d 47 9e bc 68 46 5f 3d
       0.124143645 0.030289797 -0.019321198 0.054510504
0000a0 64 d7 a7 3d 07 68 9e 3d f2 48 bf bd d0 1b 81 3d
       0.081953794 0.077346854 -0.09340085 0.06304133
0000b0 73 00 90 bc e4 e6 0b be 9d 8b 1e 3d 6f c9 2e bc
       -0.01757834 -0.13662297 0.038707364 -0.010668143
0000c0 fd cb c3 bc c7 8c 7a bd 4c 59 d1 bd 77 23 86 3b
       -0.02390098 -0.061169412 -0.1022211 0.004093583
0000d0 d6 ec 15 bd de b0 9b bd ff ba 3e 3d eb 42 1a 3d
       -0.036602817 -0.07602094 0.046565052 0.037661474
0000e0 5a ba 10 3d 58 f5 09 3d 4b b7 9e 3d 54 f5 51 bc
       0.03533397 0.033681244 0.07749804 -0.012814838
0000f0 59 9d ac 3b 9d ee d1 bc 0e cd 02 3e 33 1e b6 bc
       0.0052677807 -0.025626475 0.12773535 -0.022231197
000100 c7 90 2f 3e 99 54 16 3d 4c ff e4 3d 50 ad 2f 3e
       0.17145072 0.036701772 0.111815065 0.17155957
000110 f8 45 08 be 50 ed ba bd 87 71 28 be fc aa a7 bd
       -0.13307941 -0.09127295 -0.16449557 -0.081869096
000120 77 69 16 3e 3e 62 16 3e ca f5 7c 3d 52 59 15 3e
       0.14688669 0.14685914 0.06175784 0.14584854
000130 54 3c 5b 3d 6f cd 0b 3d eb a5 93 3d 25 cd bf bd
       0.05352433 0.034131464 0.07209381 -0.093653
000140 50 47 ea bb 97 fe 9c 3d 86 aa 83 3d fb 5e 11 3d
       -0.0071496144 0.07665747 0.06429009 0.03549097
000150 94 7a c2 3d dc eb 0b be a0 2e 05 3c 56 77 f1 bd
       0.09496036 -0.13664192 0.008128792 -0.1179034
000160 c3 01 0e 3d 13 ac 8f bd f0 5b 33 bc 45 2a 26 be
       0.03466965 -0.070152424 -0.010947213 -0.16227062
000170 74 36 e9 3c cd 9a 01 be e8 6d 6b bd 45 c6 80 3d
       0.028468348 -0.12656708 -0.05747786 0.06287817
000180 85 c8 1b 3e 79 09 36 bd 50 5a a3 3d 0e 55 b5 bc
       0.15213211 -0.044442628 0.0797621 -0.022135284
000190 1b b6 77 3b c3 3b d9 3d 4c c4 c0 bc 5e 26 a6 3c
       0.0037797752 0.10607102 -0.023531102 0.020281967
0001a0 9c 73 0c 3e 6f 3d 55 3a dc 54 db 3d ea 38 92 bd
       0.13715976 0.00081344595 0.10709545 -0.07139762
0001b0 24 86 aa bd 4b 59 99 3c 04 39 ff bd c5 b9 ac 3c
       -0.083263665 0.018719336 -0.12462047 0.021084676
0001c0 ef a5 d3 bd e1 61 95 bd 2e b2 3c 3e 21 27 65 bd
       -0.10334384 -0.072940595 0.18427345 -0.05594552
0001d0 4e 7e 0e 3d fa 22 9b 3d c1 34 9c 3d e8 e5 bf bd
       0.034788422 0.075750306 0.076272495 -0.09370023
0001e0 fd fd 0c 3e 3e 4a d4 3d 5a 40 ba 3d 80 1a 24 3e
       0.13768764 0.10365723 0.09094305 0.16025734
0001f0 90 15 b8 bb 86 ee 28 3d e7 35 9e 3d 09 7b 10 3e
       -0.005617805 0.0412431 0.07725125 0.14109434
000200 a3 58 0f 3d 4b 91 8b 3c 73 25 33 3e 40 3d de 3d
       0.03499664 0.017037055 0.17494754 0.10851526
000210 dd da 79 3d 13 52 89 3b 13 98 92 3d 70 63 07 3e
       0.06099974 0.004190692 0.07157912 0.13221526
000220 4c a3 3d 3e f5 f9 1c 3e e3 7b 15 3e d4 cb be 3d
       0.18519324 0.15329726 0.1459804 0.09316221
000230 97 53 4a bd f7 9f 04 3e 11 17 37 3d c1 8e 6d bd
       -0.049396124 0.12951647 0.044699732 -0.05799747
000240 2e ff 34 3d c8 8b 94 bd 1e dd a3 3d ec 07 98 3d
       0.04418867 -0.07253224 0.08001159 0.07423386
000250 5d f0 22 bb b7 e1 92 bd 37 d7 e1 bd c3 d3 54 3d
       -0.0024862506 -0.07171958 -0.11027377 0.051959764
000260 93 1f 89 bc ba b6 1e be a3 f5 bf 3d 4b ea d5 bd
       -0.016738689 -0.15499392 0.09373023 -0.104450785
000270 a5 27 dc 3d 67 f1 2f 3e 83 11 73 bd 8f 73 2a 3d
       0.10749749 0.17181931 -0.059342872 0.04161411
000280 24 c5 2f be 09 e7 6e 3d d4 49 01 be 3d 26 a6 3d
       -0.17165047 0.0583258 -0.1262582 0.08112762
000290 f7 3d c4 3d de 43 3b 3e a9 27 b5 3b 14 dd 16 3d
       0.09582131 0.18287608 0.0055284095 0.03683193
0002a0 f8 9d c9 bd 5d e1 17 3e 36 a4 83 bc 50 63 0f 3d
       -0.09844583 0.14832063 -0.016069513 0.03500682
0002b0 36 b0 9e bd a9 ad 59 bd 19 26 9f bd bb 0b 93 3c
       -0.07748453 -0.05314413 -0.077709384 0.01794993
0002c0 9f 5d ec bd 84 5e f8 3c d8 40 55 bd 47 97 b3 3b
       -0.11541294 0.030318506 -0.052063793 0.00548068
0002d0 d1 d6 ee 3d ad 82 5d 3d 05 59 df bd f8 b2 9f 3d
       0.11662067 0.0540797 -0.10905651 0.077978075
0002e0 cd a0 be 3b f1 5d e9 3d 01 d1 5a 3d 9a 12 1a 3e
       0.005817509 0.11394871 0.053421978 0.15046158
0002f0 03 ee 35 be ec 33 f9 3d 9c 28 17 3e 69 b6 05 be
       -0.17766576 0.121681064 0.14761585 -0.13057865
000300 af e7 6d 3e a6 4f 84 bd 43 62 e1 3d 7c 2e 63 3d
       0.23232912 -0.06460504 0.1100507 0.055464253
000310 ce 66 37 3d 58 1d d0 bd 1d 00 65 3e c7 16 66 bd
       0.044775777 -0.10161847 0.22363324 -0.056174066
000320 59 5f 63 3d 54 54 87 bd fe 0f 91 bd d9 9d 1e 3d
       0.055510852 -0.06607881 -0.070831284 0.038724754
000330 3a 76 e5 bd c7 df ed bd c6 40 df bd c4 e4 cc 3d
       -0.112041906 -0.11614948 -0.109010264 0.10004571
000340 9c 39 6c 3c ce 25 8e 3c 38 ba a9 bd a1 99 e3 3c
       0.014418032 0.017352011 -0.082874715 0.027783217
000350 57 4d dc 3d e2 7e b2 3d c6 dd f3 3d 22 93 5e 3d
       0.10756939 0.08715607 0.11907534 0.054339536
000360 51 50 1f 3d be 98 ad 3d 97 af 6d 3d 5e d2 84 bd
       0.038894955 0.08476399 0.058028784 -0.06485437
000370 4b e2 20 be 4b 8c 27 be 5a 86 e1 3d dc 5d 2e 3e
       -0.15711324 -0.16362111 0.11011954 0.17027992
000380 48 0e 04 3e e9 c9 b1 bc 92 e4 ee bd 45 1b d1 3d
       0.12896073 -0.021702724 -0.1166469 0.102102794
000390 af 7e 27 3d e4 56 c6 3d 09 9c ef 3c 57 1f 0a 3e
       0.0408923 0.09684542 0.029249208 0.13488518
0003a0 c6 84 ea bd bd 5c 1f 3e 18 dd bd 3d de bc f4 bd
       -0.11451106 0.1556272 0.09270686 -0.11950086
0003b0 27 f1 b5 bd 7a e1 f3 3d a1 e2 12 be e0 db 9d 3d
       -0.08883887 0.119082406 -0.14344265 0.077079535
0003c0 b1 07 14 3d f4 86 58 bd 1c 1c 9a 3d ac 4d 3e bc
       0.036140148 -0.052863076 0.07524893 -0.011615198
0003d0 be 90 ad 3c 0f 10 85 3d 65 f6 a8 3c b2 d0 8c 39
       0.021187183 0.064972036 0.020625303 0.0002685837
0003e0 48 bc 18 3e 11 93 45 3d 8b 9e 96 bd 6d ca 2f 3e
       0.14915574 0.048235957 -0.073544584 0.17167063
0003f0 6b ab 8d 3d 4f 5c 48 bd 08 85 b0 bd de e4 e5 3c
       0.06917461 -0.048916157 -0.08619124 0.028063234

fc.0.bias f4 [346]
000000 aa 2c 08 3e 66 02 a9 3c 50 8e 67 39 cc 8e 2e 3c
       0.13298288 0.020631026 0.00022082892 0.010654163
000010 ca 9f ce 3c 5d 05 8f 3d 77 28 53 3d 2f 23 2a bd
       0.025222678 0.06983445 0.051552262 -0.04153746
000020 0c 4f ce bc d8 16 02 bd 6d 9d 10 bc 0e a6 e1 3d
       -0.025184177 -0.031760067 -0.008826596 0.110180005
000030 25 ff cd 3d 50 74 74 3d 9e 5c 21 bd e6 6b 88 bd
       0.100584306 0.059681237 -0.039394967 -0.06661205
000040 7c 0e 2c 3d 33 90 60 3d 20 cb 58 3d 6a a7 ba 3c
       0.042006 0.05482502 0.05292809 0.022784907
000050 1c 4b 6e 3d bf 26 3d bb 59 1b 63 bd 26 70 8d 3d
       0.0581771 -0.0028862206 -0.055446003 0.06906156
000060 1e e2 5f 3d d4 f9 bb 3d e8 3d f5 bb ac 29 f1 3d
       0.054659 0.0917851 -0.0074841864 0.117755264
000070 c0 05 19 bd 49 8d b7 3d 94 43 b2 bb 04 81 a9 3d
       -0.037359 0.08962495 -0.005440185 0.08276561
000080 3a 7e 71 3d 5a 67 dd 3d 68 a0 21 bd 72 3a 1d bc
       0.05895827 0.10810728 -0.039459616 -0.009596454
000090 41 15 e9 3c 48 71 55 bd 8b 28 4f bb 52 7e ff 3d
       0.028452517 -0.052109987 -0.003160986 0.124752656
0000a0 b1 96 1e bd d7 ac ef bb 69 14 21 bd 35 a6 b5 bc
       -0.03871793 -0.0073143053 -0.039326105 -0.02217398
0000b0 5e 9b 39 bd b0 b8 56 bc 4b f7 ad 3d 2c 72 b3 3c
       -0.045314185 -0.013105556 0.08494433 0.021905027
0000c0 e7 a6 a3 bb cc a9 f3 3c 6f 95 e9 3d 6f 2a 9c bd
       -0.0049942615 0.029744051 0.11405455 -0.07625281
0000d0 ad 1a dd 3d 8f 4d b4 3d 1b 6a 1a 3d 46 d5 37 3d
       0.107961036 0.08803856 0.037698846 0.044881128
0000e0 91 49 a8 3d 93 bb 5c 3d af 88 2f 3d 9e 29 14 3e
       0.08217157 0.053889822 0.04285496 0.14469
0000f0 ea 93 c4 3d 0d e9 52 3d f3 9b 03 bb 17 13 0f bb
       0.09598525 0.051491786 -0.0020081967 -0.0021831447
000100 66 9b 77 3d d0 f1 4d 3d 82 af 81 3d 25 81 63 3c
       0.060450934 0.05027944 0.063323036 0.013885771
000110 80 ea 04 3d 4a 1d 51 3d 44 c7 5f bc 15 81 f2 bb
       0.0324502 0.051053323 -0.0136583485 -0.0074006417
000120 d6 b4 ac 3d 3b b8 00 bd 8d ee 83 bd c4 8e f7 bc
       0.08432929 -0.031425696 -0.06441984 -0.030219443
000130 41 a8 88 3d 40 d0 fb 3c 6c 96 05 3d 92 5c 83 bc
       0.06672717 0.03073895 0.032614157 -0.016035352
000140 db 8c f5 3b 8c cd a8 3c bd cc e7 3d 34 c7 af bb
       0.007493598 0.020605825 0.113183476 -0.005364323
000150 cd 49 a2 3d e6 b5 b4 3d 6c 59 61 3c 7f 08 aa 3d
       0.07924233 0.08823757 0.01375423 0.08302402
000160 7c dd 2e 3d 9a 56 a9 3d 97 58 64 b9 b6 42 45 3d
       0.042691693 0.08268471 -0.00021776777 0.048159324
000170 87 f0 3d 3d 20 48 4f bd 71 af a3 3d 68 c4 42 3d
       0.046371963 -0.050605893 0.07992447 0.04755059
000180 e4 42 6e 3d 7d cc d6 bc 2c e6 2e bc 28 02 45 bd
       0.05816926 -0.026220554 -0.010674994 -0.04809776
000190 e6 eb 4d bc 87 3c 6b 3c 4b d8 b9 3d c3 ad ca bc
       -0.01256845 0.014357693 0.09074458 -0.02474106
0001a0 df 17 d1 bc 3f ad 6e 3d 95 7f 8b 3d 76 e7 51 3d
       -0.025524078 0.05827069 0.06811444 0.05124613
0001b0 5f 87 ef bc 99 b5 b3 3d 74 85 1a 3d fb 52 12 bc
       -0.029239355 0.087748714 0.037724927 -0.008930917
0001c0 b7 a3 d0 3d 9c e1 cd 3d 3e 49 d4 3a 1c f9 ef 3c
       0.10187476 0.10052797 0.0016196144 0.02929359
0001d0 ed f8 06 bc 44 98 db bc 9c 8b e0 3c 50 bc a2 3d
       -0.0082380595 -0.026806004 0.027410321 0.07946074
0001e0 b6 b9 1e 3c 6d a6 24 3d 7e 86 2d 3c 60 0d de 3d
       0.009687832 0.04019778 0.0105911475 0.10842395
0001f0 54 5d 0d bb 83 dd 07 bd 43 a7 ba bc b4 8d d6 3d
       -0.002157052 -0.033170234 -0.022784835 0.104762465
000200 6c a3 53 3d 47 05 50 3d 12 9f 9d 3c 1b b3 0f 3d
       0.051669523 0.050786283 0.01924089 0.035082918
000210 cd 2e 91 3d 74 8e fa 3d 7b e9 5f bc c0 8b 96 bd
       0.07089005 0.12234202 -0.013666506 -0.07350874
000220 7d 60 bf 3b 34 56 c0 3d af 35 5f bc eb 03 96 bd
       0.0058403597 0.09391442 -0.013623639 -0.07324966
000230 86 20 98 3d 35 56 01 bd b4 6a 84 bd c5 bf 7e 3d
       0.07428078 -0.031576354 -0.064656645 0.062194604
000240 a5 9d 77 bd 92 01 a9 3d ba 1d 19 bc 51 94 bd 3d
       -0.060453076 0.08252253 -0.009345466 0.09256805
000250 79 3e 01 3e de 6b da 3d 26 c1 a0 3b 7c f3 b3 3d
       0.12621488 0.10665105 0.0049058376 0.08786675
000260 c4 e9 9a 3d 65 b0 74 3d 14 15 2a 3c 61 c9 9f 3d
       0.075641185 0.059738535 0.010381002 0.07802082
000270 be 6e d5 bc c5 d0 30 bd f7 4c 59 bd cb 46 f0 ba
       -0.026053783 -0.04316785 -0.053051915 -0.0018331645
000280 8d 9a 46 bd dc e1 02 bc 4a 6a 63 3d f2 72 7d 3d
       -0.048487235 -0.007988419 0.055521287 0.0618772
000290 57 e0 fd bb b9 43 97 3c 4d c0 c9 3d 24 77 a0 3d
       -0.0077476907 0.01846491 0.098511316 0.07835224
0002a0 55 72 07 3e 95 c9 6c 3d c9 6f 52 3d 34 57 a4 3d
       0.13227208 0.05780943 0.051376138 0.08024445
0002b0 b5 61 87 bc b1 59 29 3d c6 28 04 3e 09 b3 41 3d
       -0.016526083 0.041345302 0.12906179 0.04728988
0002c0 fd 5b 11 bd 69 92 e6 3d 5d f4 9b bb be eb df bc
       -0.035488117 0.11258394 -0.004759355 -0.02733409
0002d0 81 26 e5 3b c6 c7 6d 3d 2e c5 66 bc 79 5a 88 39
       0.0069931154 0.058051847 -0.014085097 0.0002600735
0002e0 e9 ae c5 3d a9 64 33 bd ec be 1d bd 6e fb 0b bd
       0.09652502 -0.04379717 -0.038512155 -0.03417533
0002f0 c0 59 b4 bd 3f 93 a2 3c e0 3b 79 3c c7 70 be bb
       -0.08806181 0.019845603 0.015212029 -0.005811784
000300 ec 9b 86 3c 40 3e e1 3d a9 dc 9d 3d ad 54 a5 3d
       0.016431771 0.10998201 0.07708103 0.08072791
000310 69 9b 83 3d 6d 0e 03 bd 65 04 00 3d 9e 7f ad 3c
       0.064261265 -0.03199618 0.03125419 0.021179017
000320 70 05 b6 3c 14 e4 da 3d b6 fb 98 3d 3d 9e 06 bd
       0.02221939 0.10688034 0.07469885 -0.03286575
000330 77 fb df bc 47 08 c2 3c cb e7 ec 3d 15 7f 84 bd
       -0.027341587 0.023685588 0.115676485 -0.064695515
000340 45 8b 21 3d d3 7d 94 3d ac 85 94 bc 3e dd ae 3d
       0.03943946 0.072505616 -0.018130146 0.08538292
000350 d9 de 7f bb 93 91 83 3d 30 a8 b8 3d e0 aa d7 3d
       -0.003904274 0.064242505 0.09016454 0.10530639
000360 c5 d6 f3 bc 50 fe 0c 3a f6 25 65 3c e4 ba 67 3d
       -0.029765496 0.00053784717 0.013986101 0.056574717
000370 9d 54 da 3b 79 26 a9 3d 1c ae 88 3d 83 c1 6d 39
       0.0066629187 0.08259291 0.06673834 0.0002267417
000380 8c 6f 53 bd 61 21 ff 3c 0b d1 93 3d e7 c4 ab 3b
       -0.05162005 0.031143846 0.07217606 0.0052419784
000390 ad 06 88 bc b5 f1 31 bd a7 ae 4e 3d 5f 70 6a bc
       -0.016604746 -0.0434434 0.05045953 -0.014309018
0003a0 3c 4b 71 3c 31 13 6e 3d 0f 5e c4 3d 7c ed b0 3d
       0.01472741 0.05812377 0.09588253 0.086390465
0003b0 82 80 49 3d 9e cd 6c bd 45 aa a0 3c 7e 7f 43 bd
       0.04919482 -0.05781328 0.01961244 -0.047729008
0003c0 81 6b 74 3c fe d7 ff bb c1 e0 54 bd 89 d5 6f 3d
       0.014918209 -0.0078077307 -0.051972155 0.058553252
0003d0 03 52 fe 3c dd cd aa 3c 0c 92 a3 3d df 34 17 bc
       0.031044966 0.020850116 0.079868406 -0.009228914
0003e0 9f 7c 12 3d 99 b7 37 3d fc 90 5b 3d ee 62 00 3e
       0.03576338 0.044852827 0.053605065 0.12537739
0003f0 54 57 08 bd 63 42 a7 3d 81 16 e0 bb c9 b7 a5 bb
       -0.033286408 0.08166959 -0.00683862 -0.0050573093

fc.2.weight f4 [173, 346]
000000 8d 72 12 be 81 19 41 bd 56 1a 97 3d d1 5a 30 bc
       -0.1430151 -0.047143463 0.0737807 -0.01076384
000010 46 1b fc bc 7a 11 02 bd 6c 94 90 3d 08 ff 8d bd
       -0.030774724 -0.03175495 0.07059559 -0.06933409
000020 ea c4 78 3d 86 b9 7e 3d 9b af 5d 3d 1e e6 9c bd
       0.060734667 0.062188648 0.05412255 -0.07661079
000030 61 95 b6 bd 77 ad 03 bd c4 42 74 3d 99 a0 8e 3d
       -0.089152105 -0.03214785 0.059633985 0.06964225
000040 a7 e2 62 bc df 30 c3 3d 5b 5c 94 bd 79 50 67 3d
       -0.013847983 0.09530806 -0.07244178 0.05647323
000050 71 f3 5e bc b5 c3 94 bd 33 e9 9e bb a7 b5 82 bd
       -0.013607846 -0.07263891 -0.004849577 -0.06382304
000060 38 05 32 3d 74 1b 01 bd 9d 4e f6 3c cb 57 a4 3d
       0.04346201 -0.031520322 0.030066783 0.08024558
000070 55 e7 ed bc a0 55 c1 3b b2 44 4e bd 21 de 7a bc
       -0.029040972 0.0059001 -0.05035848 -0.015311749
000080 2b 97 6d bc 39 23 12 bd 35 15 31 bd 2f c8 ed bd
       -0.014501373 -0.035678122 -0.043233115 -0.116104476
000090 9d 7b aa 3d 55 d6 d7 bd fa 8a b6 bd fb c6 c2 3d
       0.083243586 -0.105389275 -0.089132264 0.09510609
0000a0 2e 7d f3 bc cf 94 6d bd dc 31 60 bd a2 d4 3b 3c
       -0.029722776 -0.058003243 -0.05473505 0.01146427
0000b0 bb 7d 93 3d 53 20 ad bc 20 fe a3 bd b1 a7 c0 3d
       0.072017156 -0.021133577 -0.08007455 0.094069846
0000c0 ce b8 be bd 21 cb 7b 3c 47 fe 05 bd b5 56 1f 3d
       -0.093125924 0.015368254 -0.0327132 0.03890105
0000d0 52 2e 01 bd 82 a7 c9 bd 4c 1c a2 3b f2 17 f3 3b
       -0.031538315 -0.09846403 0.004947221 0.007418626
0000e0 20 a9 18 3c 38 be 19 3d d2 93 09 bd 51 ac 82 bb
       0.009317666 0.037534922 -0.033588238 -0.003987827
0000f0 d5 0c ff 3c 5d ae f3 bc d3 2b 2c 3d 30 a9 8b bd
       0.031134048 -0.029746229 0.04203398 -0.06819379
000100 eb bd b8 3d 2c ab c9 bd ea 6a be bd f9 cf 09 3b
       0.09020599 -0.098471016 -0.09297736 0.0021028502
000110 02 93 ff bd d6 0c 88 bc 9e 01 2a bd 8f 66 6d 3d
       -0.124792114 -0.016607683 -0.04150545 0.057959136
000120 3a da 84 bd 6c 66 cb 3d 56 2b d6 bd 49 9b 52 bd
       -0.06486936 0.09931645 -0.104574844 -0.051417623
000130 9f ca 05 be 38 95 de 3d 91 3a dc bc 95 95 d5 3d
       -0.13065575 0.10868305 -0.026883395 0.10428921
000140 c9 90 08 3c c7 51 62 3b 02 09 21 3d 0c e8 05 3e
       0.008335301 0.0034533606 0.03931523 0.130768
000150 93 90 8d bd a8 dd af 3d 00 f4 fe bd 17 2d 5e 3d
       -0.06912341 0.085871994 -0.12448883 0.05424222
000160 9f 24 c5 3d c6 7c 57 3d 3b a2 da 3c 27 34 80 3d
       0.096261255 0.052609228 0.026688686 0.06259947
000170 01 9a 3e bd 25 aa fa bd e0 07 83 3d 30 2b 59 bd
       -0.04653359 -0.12239484 0.063979864 -0.053019702
000180 8a e6 e2 3d ba e1 b4 3c 2d db 8a 3a 9f aa 49 3c
       0.11079128 0.022080291 0.0010593884 0.012308746
000190 6f b7 bb bd ce 67 93 3d d6 92 32 3b 44 02 ef bd
       -0.091658466 0.071975335 0.0027248166 -0.11670354
0001a0 6e e9 ba 3c 66 82 86 bd 89 aa b2 bc e3 c8 35 3c
       0.022816386 -0.0656784 -0.021809833 0.011095258
0001b0 ab 81 8a bd 8c 9b 25 bd 5e 12 f5 bc 5f 8e c1 bb
       -0.067630135 -0.040431544 -0.029915985 -0.0059068645
0001c0 38 c2 d7 bc 37 59 05 3d b5 36 fb bd c2 aa 29 3d
       -0.026337728 0.032555785 -0.12266294 0.041422613
0001d0 91 6a 73 3d 7a 07 26 bd 3e 0a 78 3d aa fa 68 bb
       0.0594278 -0.040534474 0.060556643 -0.0035549798
0001e0 4d 30 b7 bd ac 0c 8d 3e ca 1c a0 bd 28 79 e3 3c
       -0.089447595 0.2754873 -0.07817991 0.027767733
0001f0 77 f8 57 bd 74 fa 2a 3c 0d 04 6e bd cf 01 7a 3c
       -0.05272719 0.010435689 -0.058109332 0.01525922
000200 3b d7 b6 bd 37 88 1c 3d e6 51 3d bd 1a 73 97 bd
       -0.08927771 0.038215842 -0.046220683 -0.07395001
000210 9a 95 13 3d 6f 94 af bd f8 86 b6 bd 61 6b c3 3c
       0.036031343 -0.08573233 -0.08912462 0.023854913
000220 92 01 51 bc c1 6e 17 be 5f 4e 49 bd 33 ba 52 3d
       -0.012756722 -0.14788343 -0.049147006 0.051447105
000230 bb fb ad bd bd c8 64 bc 97 a6 e2 3c ad 19 51 bc
       -0.084952794 -0.013963875 0.027667327 -0.012762469
000240 ee 34 f7 bd 43 61 d1 3d df ee 5b bc b7 11 65 bd
       -0.120706424 0.10223629 -0.0134236505 -0.055925097
000250 15 2d f7 bd ee a5 04 be e3 66 ed 3b 64 b6 f1 bd
       -0.120691456 -0.12953922 0.007244931 -0.118023664
000260 87 fc f8 bd 44 5f 14 bd 56 90 e7 bd eb 54 45 3c
       -0.12157541 -0.036223665 -0.11306827 0.012044172
000270 4f 5f 91 bc 72 94 96 bd f4 35 90 3b df 8f 8e bc
       -0.017745642 -0.073525324 0.004400963 -0.017402587
000280 c8 0f 4f bd fd 2d 34 bd 7a 6b c1 3d 9d 0d 25 bb
       -0.05055216 -0.04398917 0.09444328 -0.0025185116
000290 6c d6 21 3c 13 ac 85 bd 67 3c 92 3c 2c 35 ba 3b
       0.009877782 -0.06526961 0.017851068 0.005682608
0002a0 b0 49 79 bd bc 92 46 3d 51 5e d7 3c a1 95 01 bc
       -0.06086129 0.04847978 0.02629009 -0.0079092095
0002b0 6b e5 2c bd de 34 e7 bd 29 d7 85 3d 48 05 cb 3b
       -0.042210978 -0.112893805 0.06535179 0.006195698
0002c0 34 ea 36 bd f6 0d 7f bc 28 1e 81 3c 69 15 8c bc
       -0.044656947 -0.015567293 0.01576145 -0.017100053
0002d0 ae 53 9d bd f0 22 92 3d 7c d9 d3 3c 9d bf 85 bb
       -0.07681976 0.0713557 0.02586054 -0.00408168
0002e0 61 ed a2 bd 93 50 51 3d e9 2c 25 bd 39 04 d1 bd
       -0.07955433 0.051102232 -0.040326033 -0.102058835
0002f0 02 9f 83 b9 02 a4 01 3c 68 53 83 bd a5 d2 e0 bd
       -0.00025104737 0.007912638 -0.06412393 -0.10977677
000300 7c d5 6c 3d 43 c9 5d 3d b5 ec af bd 7f c5 b2 3d
       0.057820782 0.054147016 -0.0859007 0.08729076
000310 86 f0 e6 bd 53 eb 70 38 f5 ea 83 bc e7 fc 9c 3c
       -0.11276345 5.743962e-05 -0.016103247 0.019163562
000320 10 11 09 be 1d 80 de bd 50 f5 05 bd f5 a0 4e bd
       -0.13385415 -0.108642794 -0.03270465 -0.05044647
000330 89 98 04 bd a4 4f 58 bd 04 8e 2c bd 0d 10 ee 3b
       -0.03237203 -0.052810326 -0.042127624 0.007265097
000340 55 7e a6 bd ab 0c 1b 3d 52 ae 05 be c9 f6 71 bd
       -0.08129565 0.037853878 -0.13054779 -0.059073243
000350 32 1f c2 bd 49 03 30 be 7a cc c4 bd ee 5d be bd
       -0.09478606 -0.17188753 -0.09609313 -0.092952594
000360 de d0 45 3d 55 11 2a bd 28 2a d0 bd 52 a2 40 bd
       0.048294894 -0.041520435 -0.10164291 -0.0470298
000370 c1 40 30 3d a1 c7 70 3d eb 45 d4 bd 1f b1 10 bd
       0.043030504 0.05878413 -0.10364898 -0.035325166
000380 36 2e d8 3c aa d9 df 3d 53 af bf 3c 19 dd 9d 3a
       0.026389223 0.10930188 0.02339903 0.0012044042
000390 a3 8a a7 3a e3 e6 ea 3d 6f 70 f3 bb 77 00 c9 3b
       0.0012782406 0.114698194 -0.0074291746 0.0061340886
0003a0 0c 5b f6 3d bd d9 e8 bd bd a6 72 3d c4 be bf bd
       0.120290846 -0.11369655 0.059241045 -0.093625575
0003b0 69 a9 5f bc e9 99 82 3c 92 7f 37 3d 42 ec 9a 3c
       -0.01365123 0.01594253 0.044799395 0.018911485
0003c0 b0 5a 05 be b5 ce 2a bd 45 4a 89 3d 60 74 25 bd
       -0.13022876 -0.041701037 0.06703619 -0.040394187
0003d0 0e 08 84 bc 97 a4 16 bd 77 62 95 3c c0 ec dc bc
       -0.016117122 -0.03677806 0.018235428 -0.02696836
0003e0 2e 10 36 3d af 66 21 3d ba aa b0 3d f6 81 64 bd
       0.044449024 0.039404567 0.086263135 -0.055788003
0003f0 03 b5 5f bd b4 31 10 bc f2 66 bc 3c bf ee 9a bd
       -0.054615986 -0.008800913 0.022998307 -0.075650685

fc.2.bias f4 [173]
000000 be 64 37 bd d5 b0 08 3d e1 b4 00 bc e7 ae ff bc
       -0.04477381 0.033371765 -0.007855625 -0.03121133
000010 43 79 94 3d 64 11 cb 3c 40 f3 05 3d a1 27 05 3d
       0.07249691 0.024788566 0.032702684 0.032508496
000020 35 d9 41 3d 7d b9 ce bd 7e b9 b6 bc 7b 09 04 bd
       0.047326285 -0.10093973 -0.022305246 -0.032235604
000030 3c 54 eb bb f3 60 24 3d 97 0d 7f bd 4e 30 64 bd
       -0.0071816724 0.04013152 -0.06226882 -0.05571013
000040 f0 72 cf 3c 89 55 6a bc 04 a9 c9 bb dd 98 36 bc
       0.025323361 -0.01430262 -0.0061541814 -0.011144844
000050 4d 4f a3 bb c6 52 2b 3d f2 82 26 3c 4e 32 f9 3c
       -0.0049838186 0.041826986 0.010163056 0.030419495
000060 e7 7e a7 bc 83 9c 34 bd 18 91 2b 3d 1f 64 d1 bb
       -0.020446254 -0.044094574 0.04188642 -0.006390109
000070 f2 53 17 38 cd 2c 68 bc a3 ea 69 bb 30 2b 21 bb
       3.6079386e-05 -0.014170838 -0.0035692833 -0.0024592392
000080 12 63 cc bc f7 5a d3 3c f2 c2 7c bc e6 58 bf bc
       -0.024949584 0.025800211 -0.015427338 -0.02335782
000090 fe 69 7f bd 06 6a 18 3d f0 31 2c bd 8c 5a aa 3c
       -0.06235694 0.037210487 -0.04203981 0.02079513
0000a0 b9 eb 3d bd 87 26 a8 bd 04 e8 d2 bd ea ec 02 3d
       -0.04636738 -0.082104735 -0.1029816 0.03196422
0000b0 8b 78 68 3d 4e 8c d6 3b de 3e 4f bd 8e 80 d7 bc
       0.056755584 0.0065474873 -0.050597064 -0.026306417
0000c0 8f ba 00 bc 7d f2 a5 bc 30 a9 7a bd 82 98 c4 3c
       -0.007856979 -0.020257229 -0.061196506 0.023998503
0000d0 5e 92 57 bd f2 c7 26 bd 15 2e a6 bd 86 0e 37 bd
       -0.05262982 -0.040718026 -0.08114258 -0.044691585
0000e0 26 af 65 bc 03 69 a3 bd 52 ab f9 ba 58 f6 2c 3d
       -0.014018809 -0.07979014 -0.001904825 0.04222712
0000f0 2e 0a 4f 3d 6c 93 f9 3c 41 91 0b 3d 5f 9b 86 3d
       0.050546817 0.030465804 0.03407407 0.065726034
000100 0b 79 49 3d 7f 16 c4 bc 01 74 80 bc 81 c5 f6 3c
       0.0491877 -0.023936508 -0.015680315 0.030123474
000110 1e 10 87 3c aa 0b 6a 3d 7c f8 40 3c 3f ae bd bc
       0.016487177 0.05714003 0.011777993 -0.023154376
000120 33 ec 43 3d 2f 4b 31 3a 7c 9c ec bc 87 24 b2 bc
       0.04783268 0.00067632174 -0.028883211 -0.021745933
000130 93 85 9a 3b d5 ea 19 3d c7 78 90 3d 59 13 37 3d
       0.0047156303 0.03757747 0.070542865 0.044696186
000140 33 23 3a 3d 24 a6 92 3d 20 8d f1 3b 7e e3 38 3c
       0.045443725 0.07160595 0.0073715597 0.011284707
000150 c9 2e 66 bd ab d2 eb bc cc 16 97 bd 16 84 9a 3d
       -0.05619696 -0.028786978 -0.07377395 0.07544725
000160 1c db cc 3c df ed a9 bb cc 60 21 bc ab 16 bf bc
       0.025006823 -0.005185827 -0.009849738 -0.023326239
000170 1b ea 87 bd 8f 1c 2c 3d 4b bc 62 bd b9 e2 d5 3c
       -0.06636449 0.042019423 -0.05535535 0.026109086
000180 d1 4f 2c bd e2 83 ac bd cc 3c c5 bd e9 74 f7 3c
       -0.042068306 -0.08423592 -0.09630737 0.030207114
000190 16 ec a8 3d f5 af 31 bc d5 f7 a5 3b 0e 63 85 3c
       0.08248155 -0.010845174 0.0050649443 0.016282585
0001a0 f4 03 90 3c 9f 4e 88 bd 4a 91 26 bd 07 1d 5a bc
       0.01758001 -0.06655621 -0.040665902 -0.013312585
0001b0 2b 6c a4 3b 23 e7 4f 3c c8 90 40 3d 7b 83 9a bc
       0.0050177774 0.012689385 0.047013074 -0.018861523
0001c0 c7 5a 4e 3b 48 de 37 bc 62 f0 2f 3d 0e b0 2a bd
       0.0031487213 -0.01122243 0.042953856 -0.041671805
0001d0 ad 26 1c 3d fc b9 81 bd 31 23 81 ba 38 72 a9 bb
       0.03812282 -0.06334302 -0.0009852407 -0.0051710866
0001e0 57 a5 30 3d 1e d0 3e bd f3 e0 d4 bc 5a 8a f0 bb
       0.04312643 -0.046585195 -0.02598617 -0.0073407115
0001f0 ee fc 5b bc 2d 29 aa bb 3b 09 ba bd 99 9b 5b bd
       -0.013427002 -0.005192897 -0.09083792 -0.053615186
000200 a4 83 07 bd 96 8c 8c bd ee 64 16 3c 56 db 89 3c
       -0.033084527 -0.06862752 0.009179337 0.01682822
000210 27 fe 3e bc 4d 0f 7e bc 23 eb a3 bc fe e5 65 bb
       -0.011657274 -0.015506578 -0.020009583 -0.0035079713
000220 51 50 6f bc df 20 aa bb d7 7f 37 3d d0 1c bf bd
       -0.014606551 -0.005191907 0.044799652 -0.093316674
000230 ff 9c 8e 3c 9f 29 a6 bd ea ef f8 bc 5b 56 45 bd
       0.017408846 -0.08113407 -0.030387837 -0.048178058
000240 6c 48 b2 bb 21 0d 13 bd ec 15 23 3d 28 c4 ca 3c
       -0.0054407623 -0.035901193 0.03981583 0.024751738
000250 8d 4d 19 bd 21 dc 59 bc fd dd 2d bd 08 e1 8f bc
       -0.037427474 -0.013297112 -0.042448033 -0.017563358
000260 c0 fd b9 3c 02 55 d2 bc 39 c6 93 3c a1 4e 5e bd
       0.022704005 -0.0256753 0.018038856 -0.054274205
000270 8e 5f af bd 67 d8 87 3d 6c ec f0 ba be cb 27 bc
       -0.085631475 0.06633072 -0.0018381006 -0.010241447
000280 ff aa 57 3d d4 53 05 3d 1d 50 0c bd db 38 4b 3d
       0.05265331 0.032550648 -0.03425609 0.04961477
000290 8c 4b a4 3a 8d dd 09 bb a3 e0 0b bd 8b ef 57 bd
       0.0012534722 -0.0021036596 -0.034149777 -0.05271868
0002a0 3c 76 96 bd 8f 26 99 3c b8 8c 9f bd c2 32 aa bd
       -0.0734677 0.018695144 -0.07790512 -0.083104625
0002b0 85 da 54 bd
       -0.05196621
