inventory/model.pth (torch, 409937 bytes, 16 tensors)

conv.0.weight f4 [32, 3, 5, 5]
00000000: 0a05 0e3e 3780 2dbc 1ad1 49bd 8d45 e3bb
00000010: 1314 e13d 168a cb3d 8e6f ae3d 16fe 883d
00000020: a23f d83d 6739 033e 3bef b73d dab0 08bd
00000030: 2816 c63d 7c32 153d 0f36 ea3d 8233 32bd
00000040: 75e4 a13d 41ab 183d a139 123d b6a6 baba
00000050: 7c7f 123d c8fc 93bd 5c98 c43d 5baa debd
00000060: d557 fdbc 6a0f 4a3d 6efd 4ebd c952 a7bd
00000070: af6c babd f84a 0dbd 34f5 283c 93ba 673c
00000080: 7f8f 9d3d d2d3 e0bd 7d9a a23d 208b d2bd
00000090: 2c12 c8bd d59e b83d 5c27 4b3d c14f b43d
000000a0: 77f7 8abc 14f6 7dbd 50c9 1ebd 9474 92bd
000000b0: 8d5d c43b 527f aa3d 35b3 56bd 9cd8 753b
000000c0: 420b b7bc 1a30 8bbb 9d43 293c 8ec5 1abc
000000d0: 7e45 b63d 2206 f33d 6b17 37bb 5729 3bbd
000000e0: 1c2f 91bd b463 adbc 8250 943d 3857 8abc
000000f0: ebf4 323d 754e cbbd 58b2 c93d 3050 d03d
00000100: eece 22bd 98a5 cc3d 1a51 d3bd fbb7 e6bb
00000110: 171f 8ebc 15c7 a43d f471 e93c 2f5e 95bd
00000120: 34e2 bd3d f96c d5bd 884a efbd 096f 633d
00000130: 56a0 ba3d 58e8 2dbd 784b d63c 708a b4bd
00000140: e6f0 9ebc 422c 3f3c 9574 c6bd 5156 b2bd
00000150: 9b27 683d 3ff3 aebd 9712 20bd 8a10 fd3d
00000160: d067 ef3d 67cd 28bb 3a32 bc3d ea76 acbd
00000170: 73b7 fb3d 1afe 4a3d f72c 74bc 4f16 bcbd
00000180: 0297 8e3d 6894 f13d 7c29 e53c 3624 babd
00000190: d27b 5a3d b1ed 833c e766 92bc a8d2 d3bb
000001a0: 640a 89bd ac1a 023e 9361 2a3d 01e4 653d
000001b0: 9902 753d 97f1 84bc dccc a7bc c3d1 c63d
000001c0: 3ac6 b73d f18e bd3c 8344 acbc 04a7 b7bd
000001d0: e9e4 b9bd 6743 0d3d ce27 b73c 54cf 1fbd
000001e0: 9207 8bbd f1db 50bd 7564 573d b345 3bbd
000001f0: 9998 bcbc f893 22bd a20d 953d 289f 443d
00000200: effa 083d 9967 473d 7eb3 cf3d 8044 4cbc
00000210: 89c0 143c e1cb 3e3c c8f9 cc3d 2978 033d
00000220: 759c 823d 79d7 a9bd fe8e b33d b3c2 073d
00000230: ff29 bebd c68c a8bd 9ca9 973d ca08 9c3d
00000240: 790c 8c3c f205 9abd 131b 7c3d a080 893d
00000250: 2768 cabd 40ce b73d 6356 95bb 8699 97bc
00000260: 2cc1 d53d 9d43 bd3d 27cf d43d 33c6 c0bd
00000270: bbb3 edbd b50c a23d ec53 c5bd 439e 55bd
00000280: edd0 b13d f480 b03d 4511 13bd 2078 6bb9
00000290: 818c cf3d 4d1e a63d 4aca d1bd cdf1 5b3b
000002a0: dbdb 4fbc 215e 9f3d 0616 8cbd 892d 7fbc
000002b0: a10f 7abd 34a5 1d3c 74ea 07be 2658 f73d
000002c0: d599 c73d 6a10 3ebd d65c c6bc d3c1 4c3d
000002d0: fbe7 213d 8fb7 873d 8574 853d c716 a93d
000002e0: f3fd 2a3c 523c 463d 3a2b ca3d f719 45bd
000002f0: 1f53 283d 8d35 10bc 1928 b1bd 7634 cf3d
00000300: 9db6 e23b d64c cdbd dcf1 8abd bbc3 04be
00000310: 421b edbc 2f42 cdbd fbf6 5f3b ffea 20be
00000320: 5e57 7abd 2e3d 5abd 0d32 9abc a1a0 b13d
00000330: 7506 17bd fb6a 483d a53c 453d eb27 80bd
00000340: f792 bfbd d151 0bbd 5ddd 153c 6820 9ebc
00000350: e8c4 783d b56d 6fbd c262 1ebd 267c a4bd
00000360: 5d32 e4bc 519e 683d 69e2 18bd d355 c4bb
00000370: 2693 873b b6e9 a4bd efa5 5b3d 9d9a bc3d
00000380: 7eab 663d 4002 6a3d f3cc a5bc f744 d7bd
00000390: 0aa1 a1bd bf45 febd 4410 ad3d 7b88 0dbc
000003a0: 72e7 8a3d 75c1 2ebd b197 7e3d 5067 4bbd
000003b0: 2013 693d efb9 8a3d f3c1 713d 3e1c b7bd
000003c0: 8f40 7fbc 7fce 153d 5f4c e13d 79e8 9bbd
000003d0: 8ec7 0b3d 54fd aa3c b71a 9dbc ab1a 243d
000003e0: b5a9 c73d feea 3f3d 9041 bcbd 0183 89bc
000003f0: 1643 c0bc d559 d73c c83d 243d e40b 0f3d
0.1386911 -0.010589651 -0.04927168 -0.0069357813 0.10990157 0.09938447 0.08517371 0.06689088
0.10559012 0.12814866 0.089811765 -0.033371784 0.09672195 0.0364251 0.11436092 -0.043506153
0.07904903 0.037272695 0.03569949 -0.0014240358 0.03576611 -0.072259486 0.09599373 -0.108723365
-0.03092567 0.049331106 -0.050534658 -0.08170087 -0.09102761 -0.034495324 0.010312367 0.014143604
0.07693385 -0.109779015 0.079396226 -0.10280442 -0.09769091 0.0901467 0.049598083 0.08804274
-0.016963704 -0.062002257 -0.038766205 -0.07151142 0.0059925974 0.08325066 -0.052417 0.0037513142
-0.022344235 -0.0042476775 0.010331062 -0.009446515 0.08899973 0.11866404 -0.0027937542 -0.04569372
-0.070890635 -0.021165706 0.07241918 -0.016887292 0.043690603 -0.09927074 0.098484695 0.101715446
-0.039748125 0.09992522 -0.10318203 -0.007040975 -0.01734881 0.080457844 0.02849672 -0.07293355
0.092716604 -0.104211755 -0.116841376 0.055525813 0.09112613 -0.04245791 0.026159033 -0.08815467
-0.019401979 0.011668267 -0.09690205 -0.0870787 0.056678396 -0.08542489 -0.03908023 0.1235667
0.116897225 -0.0025757195 0.091892675 -0.084211186 0.122908495 0.049558736 -0.014903299 -0.091839425
0.06962396 0.11795884 0.027973883 -0.09088938 0.05334074 0.016104551 -0.017871333 -0.006464321
-0.06691435 0.12705487 0.04159696 0.056125645 0.05981693 -0.01622848 -0.020483427 0.097079776
0.089733556 0.023139449 -0.021028763 -0.089674026 -0.09076864 0.034488108 0.022357848 -0.039016083
-0.06788553 -0.050991002 0.052586038 -0.045720767 -0.023021983 -0.039691895 0.07277991 0.048003346
0.033442434 0.048682783 0.10141657 -0.012467504 0.009079107 0.011645288 0.100085795 0.032097016
0.06377498 -0.08293051 0.08767508 0.033144664 -0.09285354 -0.082299754 0.07405397 0.07618864
0.017095791 -0.07520665 0.061549257 0.067139864 -0.09883147 0.08974886 -0.0045574172 -0.018505823
0.10437235 0.09241412 0.10391074 -0.094128035 -0.116065465 0.0791258 -0.096351475 -0.052152883
0.086824276 0.08618346 -0.03590514 -0.00022456096 0.10134221 0.08111248 -0.10243662 0.0033560873
-0.012686695 0.077816255 -0.06840138 -0.015574821 -0.06105006 0.009621907 -0.1327303 0.1207736
0.09746138 -0.046402372 -0.02421419 0.049989533 0.039527874 0.06626808 0.06516365 0.082562976
0.010436523 0.04839737 0.09871526 -0.048120465 0.041094895 -0.00880183 -0.08650226 0.10117428
0.006918742 -0.10024421 -0.06784412 -0.1296529 -0.028943662 -0.10022389 0.0034174311 -0.15714644
-0.061118476 -0.053281 -0.018822694 0.08673216 -0.036871392 0.04893015 0.04815354 -0.06257614
-0.09354203 -0.034013573 0.009147015 -0.019302562 0.06073466 -0.058454234 -0.0386684 -0.08031492
-0.027856046 0.056791607 -0.037325297 -0.0059916764 0.0041374145 -0.08052389 0.053625043 0.09209178
0.05631589 0.057131052 -0.020239329 -0.10511201 -0.07892044 -0.12415647 0.08450368 -0.0086384965
0.06782426 -0.042664964 0.062156383 -0.049659073 0.056903005 0.06773745 0.059022855 -0.08940934
-0.015579357 0.036573883 0.11000895 -0.076127 0.034125857 0.02087275 -0.019177778 0.040064495
0.09749166 0.046854965 -0.091921926 -0.0167861 -0.023469489 0.026287952 0.04009798 0.03492345

conv.0.bias f4 [32]
00000000: bb17 27bd e87b e93d b2de c03c a277 87bd
00000010: f3bf a93d c1b3 143c bda3 71bd b872 b43c
00000020: 09a7 af3c 05f6 ff3c 29d7 d73d 7866 34bd
00000030: 1d56 7ebd 0b64 e43c d2ad f5bc 97e9 543b
00000040: 6d0c ea3d 4888 85bd 1669 083d aa23 a6bd
00000050: dbd7 e33d 9f33 efbc 051f ed3d dcd9 bebd
00000060: 42b8 823c 5e7a 3f3d 8c4e b4bb bfcd 29bd
00000070: c66e ebbd 8c2a ae3c 0c7a 75bd 6560 dcbd
-0.040794116 0.11400586 0.02354369 -0.06614615 0.082885645 0.00907606 -0.058994044 0.022027358
0.021441953 0.031245241 0.105390854 -0.044043034 -0.062093843 0.027879735 -0.02999011 0.0032487863
0.11428151 -0.06520134 0.033303343 -0.08112271 0.111251555 -0.02919942 0.11578182 -0.09318897
0.015957002 0.046747558 -0.0055025276 -0.04145598 -0.11495738 0.021260522 -0.059930846 -0.10760573

conv.1.weight f4 [32]
00000000: 6f75 7c3f 58ce 773f 8bae 893f d25f 823f
00000010: e06a 743f dccc 743f db0f 783f b2b4 893f
00000020: 318e 7a3f dad4 7c3f a4d5 823f 9a2a 7f3f
00000030: 0a7d 7d3f e9ee 783f b2e4 813f 67b5 6f3f
00000040: 5710 853f a3af 7d3f 6834 823f f9eb 813f
00000050: 53e1 7b3f 10ad 823f 7138 7c3f 1eb1 793f
00000060: 3440 833f c8ef 833f dfec 833f 2bbf 803f
00000070: 8add 7d3f 384e 783f 25ad 823f 1825 7b3f
0.9861669 0.9679923 1.0756391 1.0185492 0.9547558 0.9562509 0.96899194 1.0758269
0.97873217 0.98762286 1.0221448 0.9967438 0.9901892 0.9723955 1.0147917 0.93636173
1.0395612 0.99096125 1.0172243 1.0150138 0.9839069 1.0209064 0.9852362 0.97535884
1.0253968 1.030755 1.0306662 1.005834 0.99166167 0.9699435 1.020909 0.98103476

conv.1.bias f4 [32]
00000000: 725b 1e3d e1c3 d4bc d4f9 b5bc 3776 a8bd
00000010: 5e21 69bc 065e 56bd b9a0 453d 7cb9 54bd
00000020: 0c1c e5bc 1064 0f3d f194 10bd c203 22bd
00000030: c782 64bd cbb4 8abd 27cd 8abd e172 8dbd
00000040: 8900 d8bd 1394 18bc 4b6f 6eb9 a50f c7bd
00000050: 94c6 84bc 80f5 b8bb 0c5c 80bd 289f cabc
00000060: 4e6e 33bd 1647 24bc c3a2 edbb 93db febb
00000070: 52fd 433c 2e05 dbbc 2c64 c6bc b8a7 e73c
0.038661428 -0.025972309 -0.022213854 -0.08225673 -0.014229147 -0.05233576 0.04824898 -0.051934704
-0.027967475 0.035007536 -0.03529829 -0.039554365 -0.05578878 -0.06772765 -0.06777411 -0.06906677
-0.10546977 -0.009312647 -0.00022738909 -0.09719781 -0.01620797 -0.0056445003 -0.062675565 -0.024734095
-0.043806367 -0.010026714 -0.0072520687 -0.00777764 0.011962252 -0.026735868 -0.024217688 0.028278217

conv.1.running_mean f4 [32]
00000000: 01a5 973e 4f0d 023f 333f 4cbd 9c2a 9abd
00000010: a438 a33d dcbf f63d 0b0b 1fbd 04df b83c
00000020: e830 863d fae9 113e 6321 503c 5ef0 ecbd
00000030: 15d3 41be c94f 903e 6c1b c73b 73e6 28be
00000040: cb31 943d d131 aa3e eeb9 4fbe 1e9c a2bd
00000050: 5ba7 12bd fffa c6bd 9f9c 843e 3b99 cc3e
00000060: 25de fabc 08be 603d 503d 5fbd 8f2c 33bf
00000070: 15f4 90be 92e4 cd3e 8a13 87be 6376 29bf
0.29618075 0.5080156 -0.04986496 -0.07527658 0.07969788 0.12048313 -0.03882889 0.02256728
0.06552297 0.14249411 0.0127032725 -0.11569284 -0.18928178 0.2818587 0.006076267 -0.1649416
0.0723606 0.33241132 -0.2028577 -0.07939933 -0.035804134 -0.097158425 0.25900742 0.39960656
-0.030623505 0.054868728 -0.05450183 -0.69989866 -0.2831122 0.40213448 -0.26382095 -0.6619627

conv.1.running_var f4 [32]
00000000: 027d 443d 79ec 413d 8873 283c 6015 413c
00000010: d779 f13b 593b 2f3c 09a1 093d f379 bf3b
00000020: 1689 7a3c a802 113d 9cbf a13c 0695 8d3b
00000030: 03b9 d23c e9c4 cb3c 168e 0e3c b6bb 9d3c
00000040: 77d4 1e3c 0b7e 163d a65a df3c 75a4 803b
00000050: 4989 543c 143d ca3b 4669 053d 629b 883d
00000060: 368e 423c eb02 e53c e5d7 233c 1ad4 c93d
00000070: ada4 9d3c 95c5 503d 8bfe 1c3d ec08 ae3d
0.04797078 0.04734466 0.010281451 0.011784881 0.007369261 0.010695302 0.03360084 0.005843395
0.015291473 0.035402924 0.019744687 0.0043207435 0.025722986 0.024874168 0.008700868 0.019254547
0.00969421 0.036741298 0.027264904 0.003925855 0.012972184 0.006171832 0.0325711 0.06670262
0.011874726 0.027955493 0.010000204 0.09854908 0.019243563 0.05096968 0.03832869 0.084977955

conv.4.weight f4 [32, 32, 3, 3]
00000000: 9a02 1bbd ea05 b0bd 47a6 67bb d163 90bc
00000010: 4f06 d63c aeca 333d 66d5 f1bc 26a0 883c
00000020: b239 383b 7b7b 353c 2471 95bc 5bed cbbc
00000030: cac6 b8bc 91ee 7fbc ae06 5cbb e220 25bd
00000040: 0563 493b 409e 14bc f90b 773d 9125 b83d
00000050: 5a8e 023d 6c80 27bd c628 52bd 802f f2bc
00000060: 57af 88bc c133 bbbc da2c 34bd 5ecb ec3b
00000070: 533a 03bd 39ef e4bc 9eb1 6dbc 0aaf 0cbd
00000080: 514f 34bd 875a 32bd 01f7 88bc 454e d83d
00000090: 91ca 8ebc 054f f73c 9d52 eabc 7043 ca38
000000a0: eb3c 48bd ec58 92bd a2b0 c23c 59a6 763c
000000b0: 9a35 fe3a 5b25 61bc e8df 333c 56ff ff3c
000000c0: 8880 663d bc8b b5bb 7fe1 7dbd 8b5e 22bd
000000d0: 8911 8dbb d842 1d3c ae34 1abd f58d fabc
000000e0: ee20 17bd 13e4 2abd 41df ae3c 000a e93c
000000f0: 8d28 c1bc 3a72 8a3d 3118 113d 4234 c83c
00000100: c119 ffbc 095b a4bd 0c87 0f3d d19c 82bc
00000110: 0f6c 73bc 9b28 223d d227 8d3d 49d4 b33c
00000120: 93af 5d3d 39e1 213b f267 2fbd 7402 2ebb
00000130: b4ec 0b3d 910c 26bc 0be6 bd3c 42e5 273c
00000140: f3d0 3a3d 4e59 613d 2425 aebb 591f 87bd
00000150: 243c 493d d07a 603d 0637 fcbb 5244 d23c
00000160: ca6c 2c3d a872 d6bc 5355 10bc 7790 3cbc
00000170: 0875 16bd 4c06 b73c 77d2 79bc 6b0d a5bb
00000180: 07bb 6bbd f9a5 adbd 3a54 5dbd b18e a23c
00000190: 893d e3bb 2d50 153d 4f48 063d 258d d9bc
000001a0: 64d7 ec3c d678 1abc a49a 45bb 2621 7dbc
000001b0: f9d9 2abd b859 543c f460 83bd 1fd6 7cbd
000001c0: 97c3 f83c b271 153d 966c 3b3c 69d2 033d
000001d0: ee56 323d c517 bd3c 97c5 1bbd 41bc 6d3d
000001e0: 0a23 37bc 8dd4 2c3d 9de0 59bd c332 d3b8
000001f0: 823a 2ebc b68f 8cbd acd3 58bc 5460 103d
00000200: d9b8 d83c f953 693d 5d0e 7e3d 3e9a 043c
00000210: d47c 703d 02b7 343c 05a1 e43c 0570 0d3d
00000220: 6ff6 a6bb d4f5 463c 74a1 0cbc e711 543d
00000230: 6448 7c3c cd44 9ebc c394 0f3c 1bb1 a03c
00000240: ff12 3abc ffdc 5c3c ba65 073d 3f63 353c
00000250: 5b79 ff3c 1719 3ebd 4d45 8c3b 51c2 493d
00000260: 357b 1b3d edda 9e3c c58b be3c 5c9e 49bd
00000270: 287c 3d3b f13a 083d 8a8f 9d3c 581c 993b
00000280: ac08 eb3c 67fb f4ba 1dc9 263c 7cee 643d
00000290: a6d2 ebbc fd95 5abc 1d4c 89bd c82f 2abd
000002a0: b963 6c3c 19c2 c2bc 3def df3c 0488 0cbd
000002b0: dffc d0bb 11cb 8abc b189 a1bc 5b0f 9f3d
000002c0: 7e49 ebbc 45c0 2f3c a685 d43c f919 1e3d
000002d0: 323c 84bd 3c6e c1b9 d658 00bd e7a0 aa3c
000002e0: 3ccb 963c 4417 86bd a9a4 c3bc 0539 3ebc
000002f0: 3da3 8cbd 27c8 53bd a3c0 043d 9feb 45bd
00000300: 5042 27bd c5a6 bd3b 7547 85bb 7c48 3dbc
00000310: ebe8 17bc b0f7 6a3d f740 6d3c 09a8 203d
00000320: 621c f93b 2129 013c 90df 283d 6239 08bd
00000330: 3cfb 2a3d b389 0fba dca8 61bc a4b3 bebb
00000340: 790e 57bd 6901 dc3b 022a c33c bbee 8e3c
00000350: 134e f23c 50f8 293d d261 7b3d 8f3c b53d
00000360: 13a1 4cbd 0421 343d 8764 a63b 0095 3cbc
00000370: 93f3 af3d 3c8f a3bc c3b5 e3bc f5db e63d
00000380: 52ec b23d e1fc f03c 63a2 e83a c8d8 b43c
00000390: 3309 23bb e2e4 a3bd 6f38 b0bb 673c 09bd
000003a0: 9658 c7bd 8e7f 9bbd 8f00 67bd 7d20 9d3c
000003b0: 134e e0bc aa1d abbb 68cb 60bc 80f7 8f3a
000003c0: 7818 d33c 9e0d 3cbc 754b a2bc a66c 003d
000003d0: 6854 4a3d 6ab2 163d 3062 f13c ef9a 4dbc
000003e0: 53e0 44bd b5c9 0dbc 2238 c5bb 9fe9 103d
000003f0: e09f c1bc e4f3 3a3d d9fa 1d3c f5cc 1ebd
-0.037844278 -0.08594878 -0.0035346912 -0.017625721 0.026126055 0.043894462 -0.029520702 0.016677927
0.002811056 0.011076803 -0.018242426 -0.024893453 -0.022555728 -0.0156208435 -0.0033573317 -0.040314563
0.0030729186 -0.009070933 0.060314152 0.0899154 0.03187404 -0.040893957 -0.051308416 -0.029563665
-0.016685171 -0.022851827 -0.043988086 0.0072263917 -0.032038044 -0.027946102 -0.014507679 -0.034346618
-0.044020955 -0.043543365 -0.016719343 0.10561804 -0.017430576 0.030189047 -0.028603846 9.644672e-05
-0.04888622 -0.07145867 0.023765866 0.015054309 0.0019394637 -0.013741816 0.010978676 0.031249683
0.05627492 -0.0055403393 -0.061982628 -0.039640944 -0.004305069 0.009598456 -0.037647896 -0.030585269
-0.03689664 -0.041721415 0.02134669 0.028447151 -0.023578906 0.06760068 0.03542346 0.024438981
-0.03114021 -0.08025176 0.0350409 -0.015943917 -0.014857306 0.039589506 0.06892361 0.021951811
0.05412252 0.0024700894 -0.04282374 -0.0026551755 0.034161285 -0.010134832 0.023180982 0.01024753
0.045609426 0.05501681 -0.005314486 -0.06597776 0.04912962 0.054804623 -0.007696989 0.025667343
0.042095937 -0.02617772 -0.008809405 -0.0115090525 -0.036732703 0.02234187 -0.015247933 -0.005037
-0.05755141 -0.084789224 -0.054035403 0.019843431 -0.006934826 0.036453415 0.032783803 -0.02655656
0.0289113 -0.009428224 -0.0030151987 -0.015449798 -0.04171178 0.012960844 -0.06414977 -0.06172764
0.030366702 0.03648538 0.011439463 0.032183085 0.043539934 0.023082623 -0.038030233 0.05804086
-0.011177788 0.04219489 -0.053192724 -0.00010070719 -0.010634067 -0.06863348 -0.01323406 0.035248116
0.02645533 0.05696485 0.062025417 0.008093415 0.058712795 0.011029961 0.027908811 0.03453066
-0.005095295 0.012143571 -0.008583415 0.051774886 0.015398119 -0.019319916 0.008763495 0.0196157
-0.011357068 0.013480424 0.033056 0.011071025 0.031185796 -0.046410646 0.0042807222 0.04925758
0.037959296 0.019391501 0.023260007 -0.04922329 0.0028913114 0.033259336 0.019233484 0.0046725683
0.028690659 -0.0018690646 0.010179785 0.0558915 -0.028786968 -0.013341424 -0.067039706 -0.041549474
0.014428073 -0.023774194 0.027335757 -0.034309402 -0.006377801 -0.016942533 -0.019718977 0.07766601
-0.028721567 0.010726993 0.025942635 0.03859899 -0.06456794 -0.0003689396 -0.03133472 0.020828677
0.018407457 -0.06547406 -0.023882227 -0.011610274 -0.06867073 -0.051704552 0.032410275 -0.04832041
-0.040834725 0.0057877027 -0.004067356 -0.011552926 -0.009271841 0.05736512 0.014480821 0.03922275
0.0076022604 0.007883341 0.04122883 -0.03325785 0.041743502 -0.0005475536 -0.013773169 -0.0058197547
-0.052504037 0.0067140353 0.023823742 0.01744782 0.029578244 0.041496575 0.061372586 0.08849441
-0.0499583 0.0439768 0.0050779018 -0.011510134 0.0859138 -0.01996576 -0.027796632 0.11272422
0.08736481 0.029417457 0.001774859 0.022076026 -0.002487731 -0.0800264 -0.005377821 -0.03350487
-0.09733693 -0.075926885 -0.056397017 0.01918053 -0.027380979 -0.005222042 -0.013720371 0.0010983795
0.025768504 -0.011477856 -0.019811371 0.031353615 0.049396902 0.036791243 0.029465765 -0.012549146
-0.048065495 -0.008654048 -0.0060186544 0.03537905 -0.023635805 0.04564275 0.009642326 -0.03876968

conv.4.bias f4 [32]
00000000: e299 bebc 5234 2a3d c5a8 7bbc ee90 103d
00000010: 2d34 19bd 3f2b 813b e535 7f3c 0485 203d
00000020: 1661 25bd 9ade 073d 55f0 1dbd 18ab 943c
00000030: a2ed 46bd 3217 7abc 3bd5 523d 8077 9cbc
00000040: f602 85bb e5a0 253d 6750 283d eddc 25bd
00000050: a0d7 7dbc d673 45ba 518e d83c 4b5c a73c
00000060: 8c6b 873d 8dc5 3e3d 603a dc3c 61d7 37bc
00000070: e270 af3c 0c6b e4bc 29e6 133d 8a87 f5bb
-0.023266736 0.041553803 -0.015360062 0.035294466 -0.037403274 0.003941923 0.015576814 0.039189354
-0.04037579 0.033171274 -0.038559277 0.01814799 -0.048566468 -0.015264319 0.051472884 -0.01909995
-0.004059191 0.040436644 0.041092303 -0.040493894 -0.015493304 -0.00075322145 0.02643505 0.02042975
0.0661231 0.046575118 0.026883304 -0.011220784 0.021416131 -0.027883075 0.03610817 -0.007492964

conv.5.weight f4 [32]
00000000: dcfb 8a3f f38b 8c3f 8493 8c3f e3d8 8b3f
00000010: e0c5 8d3f 28da 8c3f 42a1 8b3f f2d5 8d3f
00000020: 068b 8d3f 403f 8c3f 1637 8c3f 5e5c 8d3f
00000030: 84a6 8c3f af9e 8b3f c824 8c3f f149 8b3f
00000040: 1e2f 8c3f 36e5 8a3f c545 8c3f ff07 8b3f
00000050: 777d 8c3f b5dd 8b3f 4f68 8c3f aa3f 8c3f
00000060: b352 8b3f e048 8d3f 97bb 8b3f a1df 8c3f
00000070: c31a 8c3f 2027 8c3f e91a 8b3f 4c54 8c3f
1.0858111 1.0980209 1.0982518 1.0925564 1.1076012 1.1004076 1.0908587 1.1080916
1.1058052 1.0956802 1.0954311 1.1043813 1.0988317 1.0907801 1.0948725 1.088194
1.0951879 1.08512 1.0958792 1.0861815 1.0975789 1.0927035 1.0969332 1.0956929
1.0884613 1.1037865 1.0916623 1.1005746 1.0945667 1.094944 1.0867587 1.0963225

conv.5.bias f4 [32]
00000000: b348 9c3d 1f99 a63d 4236 af3d 86e6 b33d
00000010: 7b66 c43d b524 b23d ba72 af3d d7ed aa3d
00000020: 0421 b73d c4f1 b83d f81e b33d 79f7 aa3d
00000030: d7f3 b53d ca87 ae3d ca62 be3d fe20 a93d
00000040: de58 b53d 656a a23d ff0f b03d 9e1f a93d
00000050: f25d a53d a4eb ac3d 2f05 ab3d c736 aa3d
00000060: c9f1 a83d e81a ba3d d764 b43d 875b a23d
00000070: 05f1 a53d 4471 b73d 1ce8 bd3d acc1 ae3d
0.07631054 0.08134674 0.08555271 0.08784203 0.09589859 0.086984076 0.08566804 0.083461456
0.08941844 0.09030488 0.08746141 0.08347983 0.088843994 0.085219935 0.09296186 0.08258246
0.08854841 0.079304494 0.08596801 0.082579836 0.08074559 0.084433824 0.08350598 0.08311229
0.08249242 0.09087163 0.08808296 0.07927614 0.081026115 0.089571506 0.09272787 0.08533034

conv.5.running_mean f4 [32]
00000000: 7e79 463d 76c5 cc3c a3d4 91be 7112 eebd
00000010: b85b cabe 8abe 053e 5c45 423e 38b2 943d
00000020: d113 6cbd 3462 23bd bf49 92be d22b 843e
00000030: 0803 abbe ec22 e33e de46 663e 6c7c de3d
00000040: 91b9 88bd 9036 3abc 3715 7ebe 00fe 64bd
00000050: 7fc8 14be fec9 753c 5efc 8cbd 1e0f 13bd
00000060: e24b 7ebe d4ce 753b 6826 813e 4987 39bc
00000070: 037e 2bbd b451 cabe ebd7 7e3e 973d 513e
0.048455708 0.0249965 -0.2848254 -0.11624611 -0.395231 0.13060966 0.18971771 0.07260555
-0.057636086 -0.039888576 -0.2857189 0.25814682 -0.3340075 0.4436258 0.22487971 0.10863575
-0.06676019 -0.011365548 -0.2481278 -0.055906296 -0.14529608 0.015001772 -0.06884073 -0.03590309
-0.24833634 0.0037507312 0.25224614 -0.011323758 -0.04186822 -0.3951546 0.24887054 0.20433651

conv.5.running_var f4 [32]
00000000: 4fcb be3c 37e2 753c 0f98 c33c 46fc 973c
00000010: fc66 913c bd89 873c 5419 9f3c 3b13 e93b
00000020: 64c9 813c 2d11 843c 313d be3c c8a7 813c
00000030: f6fe 813c 79e4 b73c f65f 9e3c 4e16 c93c
00000040: d9c9 843c 4bed 473c b729 a03c 96f0 dc3c
00000050: a77a a23c dca3 863c db3e 483c 1abc 343c
00000060: a707 cd3c cbe6 463c 2803 983c 78fe 733c
00000070: 33a5 3c3c 3103 8f3c 105a f23c a90f cc3c
0.023290304 0.015007547 0.023876218 0.01855291 0.017749302 0.01654517 0.019421257 0.007112888
0.0158431 0.016121471 0.023222538 0.015827075 0.015868645 0.022447811 0.019332867 0.024546769
0.01620953 0.012202571 0.019551141 0.026970189 0.019833876 0.016435556 0.012222017 0.011031175
0.025028063 0.012139986 0.018556193 0.014892213 0.011513996 0.017457576 0.02958396 0.024909811

fc.0.weight f4 [312, 128]
00000000: 3201 a13b ad8c e43d 2d28 793d d475 fd3d
00000010: 543d 89bb 5580 f93d 9d06 893d 9f70 3f3b
00000020: 1636 a03d 7782 de3d 8685 203c 1ac1 0c3e
00000030: 1914 05bd 0a57 f2bd 294c 66bc a89f 063e
00000040: 71fe 0bbd d06a e5bc 360c d7bd 4d99 cd3b
00000050: fe63 823d c716 a43d e1b7 9a3d 2727 c9bd
00000060: 84b6 ea3d a934 e83d 56f8 d53d 97ce 013d
00000070: 9198 a23d f0f1 e4bd 8775 febd 4a55 fa3c
00000080: 7c74 b53d 6325 c5bd 7bdd a0bd 4c39 6b3c
00000090: ecf8 0dbe a8e6 c13d 9999 a33a 4675 77bc
000000a0: b6bd abbc 75f8 a8ba 17bf 773b a720 1f3e
000000b0: 2e40 023d 1cfa 343d a275 3bbd 34d2 cabd
000000c0: 41ff df3d 2c9b 23bd 6633 8b3d cf33 34bd
000000d0: fa88 ef3d 9b73 12be 5f64 203e 3f28 77bd
000000e0: d229 b83c 9479 d93b 6c96 da3d 6211 2dbd
000000f0: 667e 343d 7cec 813c f256 313d 54bf 3a3e
00000100: a55e 973d 92ff 973d 7148 003e b649 50bd
00000110: 7950 fabc 1d9f 17bc e0a2 b53d 6dcb ea3d
00000120: 2a38 41bd 5060 d13d b852 103d 41e6 57bc
00000130: e869 2f3d a3d6 5dbc e157 edbd 954d 6ebc
00000140: bfe4 9bbd 29dc 263d a66a dfbc 672b 07be
00000150: 7e3e 64bc 6773 15bd 0ac4 6bbc 04d3 ef3d
00000160: b01b f3bb 703a fd3d 8db2 443d 8bd3 f53c
00000170: f982 0a3d cdf6 bc3d 5de1 d43c 125a 643d
00000180: 9194 123e 977c 0fbd 298a f63c c90a 75bc
00000190: 5428 903d bb18 103e 1e50 b3bd afc1 dc3d
000001a0: acd7 0a3e e8e8 a0bd af37 4a3d 3428 30bd
000001b0: c70e 1abe ca4f dd3d 539d 9e3c e8cc d63c
000001c0: 9849 bbbd a5c0 89bc 75da e9bc 0dd1 fe3d
000001d0: ac1e 11bd 8db4 6d3d 98f6 dab5 8604 f8bd
000001e0: 4fa4 0ebc ac89 96bc 3b89 5b3d 49a7 493d
000001f0: 0c80 033d 6af0 703b 0e84 17be d9d2 953c
00000200: a947 0b3d f7d5 d53d 08e1 a6bd f974 c4bd
00000210: 65ed 0f3d d9b1 bb3c 31c9 20bd ece4 04be
00000220: 7a62 093e 7b18 683c 71b9 fe3d 8a9d 873d
00000230: deac 96bd 5ea7 cb3d cffc cb3d 2e17 ac3d
00000240: 97e0 d3bd cbc6 da3c d071 463d e28e f53d
00000250: a1b7 133c a8db ab3d 68bd 4ebd 0b8c 0d3d
00000260: 63d0 12bc ead9 0fbc fc6a 053e da82 d23d
00000270: d74b 06bd c436 693c f394 d7bc d29f 9bbd
00000280: a615 d53d 7561 63bd be74 13bd f411 da3c
00000290: 4f13 05be 75cd 45bd 14af b33d 0304 013e
000002a0: 2699 9bbd 906c 653d 44bb d9bc e766 ee3d
000002b0: c9d6 8b3d 50ff 433d 3eff 903d 6bd2 aabd
000002c0: f3fd 4e3c 0595 e83d 05c0 fe3c d4d5 1fbc
000002d0: fcc0 46bd 7bd6 bc3d c965 c13d e141 86bd
000002e0: 779b 143e e3b7 693d 1cb9 a03d aa30 72bd
000002f0: 511a 37bd b63d 9dbd 5e37 ebbd 14fe a8bd
00000300: be9b 493b 45f7 e13d c670 e53d faff ccba
00000310: faf4 6c3c 3c35 f93c d745 903d 2d70 3dbd
00000320: 31f8 39bd 258b 23bd 45ef 813c 4256 9b3d
00000330: 723d f93c fe3c c83d 7c16 58bd 6087 e43b
00000340: 9452 543c 50e6 043e 73d8 933d 81f3 b33d
00000350: 15e3 2abc 7100 bcbc 5ca4 ed3d 23c1 ddbb
00000360: f10a f9bc dc50 c5bd dc1a c8bc b2fb a8bd
00000370: f9df fc3d f5e0 333a 5aa6 633d ab22 d93d
00000380: e003 053e 62e9 5fbb d925 f63d cec9 dabd
00000390: 92f0 d33d 65d1 a13d 7c55 a9bd b64a 2d3d
000003a0: 5a04 b1bc d69c babd df0b ff3b 49c0 24bc
000003b0: 6059 4e3d 50c9 c53d 7cdb 2fbb 6658 e53c
000003c0: ec04 fe3d 4fd2 6b3d d66e f7bc 6eea bf3d
000003d0: 40b9 11bc b98d 913d 6fe4 e3bb 0853 763d
000003e0: abcd ccbc a30f c239 fafd b63d fb6f 7ebd
000003f0: 9801 b6bc d149 febd 8fa2 9b3c e6b4 e8bd
0.0049134726 0.11159644 0.06082933 0.123759896 -0.004188219 0.121826805 0.066907145 0.0029211415
0.07822816 0.10864728 0.0097974595 0.13745537 -0.03248987 -0.11833008 -0.014056244 0.13146842
-0.0341782 -0.028005034 -0.10500376 0.0062743784 0.06366728 0.08012157 0.07554603 -0.09821921
0.11460593 0.11338169 0.10447757 0.03169116 0.07939256 -0.111789584 -0.1242476 0.030558247
0.08860108 -0.096262716 -0.07854744 0.014356922 -0.13864487 0.09467822 0.0012481689 -0.015103644
-0.020964485 -0.0012891429 0.0037803107 0.155398 0.031799488 0.044183835 -0.04576648 -0.09903374
0.10937358 -0.039942905 0.06796913 -0.04399472 0.11696048 -0.14301912 0.15663289 -0.060341116
0.022480879 0.0066368077 0.10673222 -0.042252906 0.044065855 0.015859835 0.043295808 0.18237048
0.07391099 0.07421793 0.12527634 -0.050851546 -0.03055595 -0.009254244 0.088689566 0.11464582
-0.047172703 0.10223448 0.035235137 -0.013177455 0.04282561 -0.013539943 -0.11589027 -0.014544864
-0.07611989 0.040737305 -0.027272534 -0.1320015 -0.013930915 -0.03648701 -0.014390001 0.1171017
-0.007419072 0.12364662 0.04802184 0.030008098 0.03381631 0.09226761 0.025986368 0.05574996
0.14314486 -0.035030928 0.030095177 -0.014956185 0.07038942 0.14071934 -0.087555155 0.1077913
0.13558835 -0.07856923 0.04936951 -0.04300709 -0.150447 0.10806234 0.019362127 0.026220754
-0.09144896 -0.016815493 -0.028546551 0.12442217 -0.03542964 0.058033515 -1.6314034e-06 -0.12110238
-0.008706166 -0.018376194 0.05359767 0.0492318 0.032104537 0.0036764392 -0.14796469 0.018289017
0.034003887 0.10441201 -0.0814839 -0.09592623 0.035138506 0.022911953 -0.03925437 -0.12977952
0.13416472 0.014165993 0.12437714 0.06621845 -0.073571905 0.09944032 0.09960329 0.08402859
-0.103455715 0.02670612 0.048448384 0.11990143 0.0090159485 0.083915055 -0.0504736 0.034557384
-0.008960816 -0.008779982 0.13029093 0.10278864 -0.03278717 0.014234249 -0.026316142 -0.07598843
0.1040452 -0.055512864 -0.036000006 0.026619889 -0.12995647 -0.048291642 0.08773628 0.12599187
-0.0759757 0.056011736 -0.026578553 0.11640721 0.068280764 0.047850907 0.070799336 -0.08340915
0.012633788 0.11356548 0.031097421 -0.00975557 -0.048523888 0.092205964 0.09443242 -0.06555534
0.1451243 0.057060134 0.07847807 -0.05912844 -0.04470283 -0.07677786 -0.1148517 -0.082515866
0.0030762996 0.11033491 0.112031505 -0.0015640252 0.014462704 0.030420892 0.07044571 -0.046249557
-0.04540271 -0.03992762 0.015861163 0.07584812 0.030424807 0.09777258 -0.052755818 0.006974146
0.012959141 0.12978482 0.07219019 0.08786679 -0.010430117 -0.02294943 0.11603615 -0.0067674085
-0.030400725 -0.09634563 -0.02442687 -0.08251132 0.12347407 0.00068618293 0.055578567 0.106023155
0.1298976 -0.0034166207 0.120189376 -0.106830224 0.103486195 0.07901267 -0.08268258 0.042307578
-0.02160852 -0.09111945 0.0077833976 -0.01005561 0.050378203 0.09657538 -0.0026833704 0.027996253
0.124032825 0.057573613 -0.030204218 0.09370886 -0.008894265 0.071071096 -0.0069547216 0.06013778
-0.025000414 0.00037014214 0.08935161 -0.06211851 -0.022217557 -0.12416423 0.018998412 -0.11362629

fc.0.bias f4 [312]
00000000: bd33 f23d af80 093a 2113 d13d 4ce2 05bc
00000010: 625d dfbc 32e8 8cbd 436f 10bd d509 16bd
00000020: 680a c33d 979a d43d 1078 993d 5985 de3d
00000030: 9b40 b03c fde5 d1bc c551 733d 0160 e53d
00000040: c920 d2bb ce20 47bd 4645 ab3d 0a69 603d
00000050: 92f2 b43d d74d 9a3d 48d1 8fbb 8e36 25bb
00000060: 356e c0bc 50af 1dbd 0d08 d03c 4f64 6d3d
00000070: 65fb 403d cb09 9e3d a425 ac3d de57 c83d
00000080: eedc 3ebc 213d 71bd dfd3 8a3d 9de4 cc3a
00000090: aa59 fe3d 5ecc 383d 110c 3a3d 88a5 b53d
000000a0: b390 9b3d 95bb eb3d 321c 3bbd eb7e 753d
000000b0: 6f8d 9f3c c276 743d 9cee 9cbc f592 cc3d
000000c0: 8e24 2ebd c73f 303d 9be0 b43d 10b7 fb3d
000000d0: 5a84 c2bb 7e7b bc3d db7a 143d 204e 933d
000000e0: fdd4 8a3c 08e0 eeb9 3c99 883d e474 c23d
000000f0: 417c 03bd 74e7 7c3d 8046 c63d 8c95 82bc
00000100: 1bca 123d 059e 4b3d 0d0d 56bd 3d98 8f3d
00000110: a1ee 213d c04b 893b 10f0 4a3d ac77 38b8
00000120: 3518 993d 094d b3bc 00f2 d93d 43c8 8bbd
00000130: b910 873d 670d 253d bd10 8bbc cbf2 eabc
00000140: f212 ee3d 0c3c 0f3e c80c 4abc 66c9 3ebd
00000150: a471 443d 8824 913d 629f 0d3d a090 0b3b
00000160: 3b3c 81bc a66f 93bc 1ac8 f63c ff32 9ebc
00000170: 33b9 05bc 994a bebc 0de6 953c c03e a73d
00000180: a7e1 da3d a63a ea3d 98c1 2e3d b851 e23d
00000190: 65e6 cbbc 5269 ee3d d14e c83b 6dc7 d43d
000001a0: 2d8f be3b 370e 3b3d 7312 0a3e fc32 f33b
000001b0: 49f9 0f3d 1428 f138 7fed e63d d55f c23b
000001c0: e177 ad3c 669b cc3c 96b2 e53d 44dc 723d
000001d0: 2bd5 023d 7274 a1bc e568 ef3d a672 493c
000001e0: 3f6a 05bd 177e debc 45c0 643d 9e32 3cbc
000001f0: 13d3 50bc cc49 883d 15ea fb3c d1fe 0abc
00000200: 79ca 973d 93ab 973d a772 f23d 0a53 c13c
00000210: 9683 b53b c763 013e 3fff 22bd 0db8 af3c
00000220: ec5c 303d 679b f43b 57f2 123c 0b76 c13d
00000230: c2ae 463d a9b8 a33d 17df 6cbd 90f4 b23d
00000240: 32d1 1d3d 2d3c c03d 6748 b53d cfd0 8bbd
00000250: 8348 1f3d 2ecf db3d 0f96 333d 2af9 60bb
00000260: 2aca 003e c523 1fbd bf4c f43d dd9e aa3d
00000270: abf4 bb3d 0797 f33d 222a d03c 9a2d 85bc
00000280: 0837 503d efea 8d3c d6f1 03bd 018d 28bc
00000290: a6bc f93c dcd0 aa3d 8c09 61bd 58f6 be3d
000002a0: af68 863c fd72 b23d 23b4 b53d 7197 4a3c
000002b0: 46b2 9b3d 57a1 66bc 3e00 86bc f524 d63d
000002c0: daf2 7ebc d8a8 14bc 2519 dcbc 3a5b da3d
000002d0: c390 363d 5f7a cc3c 1065 29bd 7d7e 06bd
000002e0: 517d 003b 242c 483d d77d 973d 04a6 8fbd
000002f0: 6626 ae3d 2256 a33d 6d6d 043e a8c4 123d
00000300: 59bd b73d 7181 f83d 29e6 553d e116 a43d
00000310: c2e9 20bb 8519 ba3c e2f4 7ebc da0c 3dbd
00000320: e5f7 9f3d 1c1e ea3d f4e0 123d 074c ea3d
00000330: 17f5 783d 6cac 23bd 8751 823d ef39 e13d
00000340: 73cf 753c 33fe a43d 4a83 fbbc fb59 283d
00000350: f528 033c f0cf a5bc 1d01 00bd 8e83 8e3d
00000360: 3366 993d 2f5e 9a3d c280 663d 87be cd3d
00000370: 5e5d a23d 98c8 b5bc b982 ba3c ce1a e4bb
00000380: 22eb 993c 9643 2a3d b093 23bc 82e5 583b
00000390: d63c bc3d 2239 b83d 9e27 ca3d 2460 bc3c
000003a0: 767f b83d e7c7 a53d 14a2 e63c acc8 a6bb
000003b0: 2c1c 3fbd 64c7 313d 1003 c93d be20 94bc
000003c0: dad9 b33d 09f2 003e ff51 52bd 1d63 cc3d
000003d0: 1300 67bc b661 703d ad79 4abc 6e02 453d
000003e0: 84e0 8f3c 6695 cd3d b1d9 1f3d 91ec 2abd
000003f0: 80e2 e03c 5190 c33b f24b 333d 6aab 14bd
0.118262745 0.00052453106 0.10208727 -0.008171629 -0.027266208 -0.06880225 -0.035262357 -0.03663047
0.09523469 0.10381048 0.07493603 0.10865278 0.021515181 -0.025622362 0.059404153 0.11199952
-0.0064125997 -0.04861527 0.08362822 0.054787673 0.08835329 0.07534378 -0.004388962 -0.002520952
-0.02349005 -0.03849727 0.025394464 0.05795699 0.04711475 0.077167116 0.08405617 0.09782384
-0.011649353 -0.058896188 0.067786925 0.0015632097 0.12419446 0.045116775 0.045421664 0.08869463
0.075959586 0.11510388 -0.045681186 0.05993549 0.01947662 0.05968357 -0.019156747 0.09988967
-0.04251533 0.043029573 0.088319026 0.12290776 -0.0059361877 0.09203242 0.036249977 0.071926355
0.016947264 -0.00045561814 0.06669852 0.09494951 -0.03210092 0.06174417 0.096814156 -0.01594045
0.035837274 0.049711246 -0.05225854 0.07011459 0.039534215 0.0041899383 0.049545348 -4.398047e-05
0.0747532 -0.02188732 0.10641861 -0.06825306 0.065949865 0.040295985 -0.016975755 -0.028680226
0.11624707 0.1398775 -0.012332149 -0.046578787 0.04795994 0.07087046 0.034575827 0.002129592
-0.01577579 -0.017997574 0.030124713 -0.019311426 -0.008161831 -0.02322893 0.018298173 0.081662655
0.10687571 0.114369676 0.042665094 0.11050743 -0.024890134 0.11641182 0.0061129113 0.103896
0.0058154077 0.045667853 0.134836 0.0074218493 0.035149846 0.00011499241 0.112757675 0.005931834
0.021175327 0.024976443 0.11215703 0.059292093 0.031941574 -0.019708846 0.11689929 0.012295401
-0.032572027 -0.027159734 0.055847425 -0.011486677 -0.0127456365 0.06654701 0.030751267 -0.0084836045
0.074116655 0.07405772 0.118382744 0.023599166 0.005539368 0.12635718 -0.039794203 0.021450067
0.043057367 0.0074648145 0.008968911 0.09446343 0.048506506 0.079942055 -0.057829943 0.08738053
0.038529582 0.093864776 0.088517 -0.068269365 0.038887512 0.10732876 0.04384428 -0.00343282
0.1257712 -0.03885247 0.11928701 0.08331082 0.09177526 0.118940406 0.025410715 -0.016257096
0.050833732 0.01732394 -0.032213055 -0.010287524 0.030485462 0.08340618 -0.054940745 0.0932433
0.016407339 0.087133385 0.08872249 0.012365208 0.07602362 -0.014076552 -0.016357537 0.10456268
-0.01556083 -0.009073459 -0.026867459 0.10661931 0.04457165 0.024960695 -0.041356146 -0.032835472
0.0019605944 0.04887022 0.07397049 -0.07014087 0.08503418 0.07975413 0.12932368 0.035832077
0.08971662 0.12134064 0.05222145 0.08012176 -0.0024553393 0.022717247 -0.015561314 -0.046154834
0.07810954 0.11431524 0.035859063 0.11440282 0.06078061 -0.039959356 0.06363206 0.10997378
0.015003073 0.08056297 -0.030702252 0.041101437 0.00800537 -0.020240754 -0.03125106 0.06958686
0.07490196 0.07537495 0.056275137 0.10046106 0.07927965 -0.022190377 0.022767412 -0.006961203
0.018788878 0.04156836 -0.009983942 0.0033095782 0.09191291 0.08995272 0.09870838 0.022995062
0.09008686 0.08094769 0.028153457 -0.00508984 -0.046657726 0.043403044 0.09815037 -0.018082019
0.08781786 0.12592329 -0.05134773 0.09979842 -0.014099139 0.058686934 -0.012358111 0.04809802
0.017563112 0.10038261 0.039025966 -0.041729514 0.027451754 0.0059681316 0.0437736 -0.036296286

fc.2.weight f4 [156, 312]
00000000: b410 1dbd 75ce 493d 2dda f2bb bef1 3d3d
00000010: e304 c6bd bedf 1b3c 0fb1 18bd 8ed3 91bd
00000020: 40b6 69bc 27fd 86bd 35af ea3c 1a2b cdbc
00000030: 5d60 133d 443c b83d 86c9 f8bc 58be 463d
00000040: 9a91 563c 7bd5 32bd 5129 eabd 7b51 2639
00000050: 1dfa 493d c9d0 83bd 8c14 a9bd 2a45 a0bd
00000060: 7dc0 9d3d 40b1 3bbd a2f0 cf3d a14e 97bd
00000070: b0e2 19bd 1dc2 e63d 3e95 83bd 760d 6cbd
00000080: 27f9 063d 72ca 8bbc 9535 c83c b258 a5bd
00000090: e02a 2cbd 8a92 5e3c b1d7 3cbd f4f4 05bc
000000a0: f3f3 83bd bb93 373d 9f5e 7e3d b1c7 e13c
000000b0: c15e dfbb 9763 063d dd7e b7bd 604b 863d
000000c0: 138c f7bb 2666 bf3c 99b8 6ebd fc51 30bd
000000d0: 803c 183d 77ea d4bd b37a 0cbd eb92 3ebd
000000e0: 755e c93b ce81 993d 2adf 4cbd f315 203d
000000f0: 360f f23c faca 833d 13bd c73b eca1 d4bd
00000100: ffed a8bd 2e18 8d3d ed03 873d 178b 933c
00000110: 78e9 533b a9a6 943d 7266 353c 84b7 20bd
00000120: 87fa e23c 05b4 9d3d 9e42 c83c 4c53 73bc
00000130: 86f8 dcbc 564e ccbd 1a73 7e3a 4505 a3bd
00000140: e3a7 6ebd f173 703d 4901 6338 4329 b93d
00000150: eb69 e8bc b494 a93c 2e53 3d3d b617 58bd
00000160: d38f 8a3d 12e9 b8bd a552 f5bd 9083 b83d
00000170: 8dc9 b9bd a429 b03d 55b9 29bc b922 6bbd
00000180: 8c2f a23c 87db 763d 037d 71bd a162 3dbd
00000190: ab9c a13d 8326 023d 1f3e a93d 9485 d2bc
000001a0: f93b 9dbd f31e 15bc 50d3 503d b2b7 1e3c
000001b0: 3854 c3bd 77ea 913b a5e9 05bd 9d4a 0ebc
000001c0: c910 adbd e73d c7bd 9647 6d3c 7d3c a8bc
000001d0: 28bd 563c e7ec 05bd 85e6 7a3d 80ba a1bd
000001e0: cfef 22be 7422 0dbc b77e c5bd fdd3 e6bd
000001f0: 038b da3d ce74 513c 0aca 02be ad40 85bd
00000200: 58b4 adbd 6df1 ba3d 2003 a3ba f17d 25bd
00000210: 815d ae3d 4b5b c2bd 01d2 25bb 7f66 c33d
00000220: 0647 9abd 1fb8 47bc 7261 ac3d c47d 713c
00000230: 82d2 fdbb e0b4 d7bd e255 733d 0701 64bd
00000240: f25a f8be a67c 71bd d1d5 f2bb f31f 453d
00000250: 4e66 bbbd 13d9 903d 5c58 08bd 8128 323c
00000260: 2772 b63c b65e 133d 4485 0ebd a0de 213d
00000270: 8775 2c3c b7bd 91bb 0fd0 f2bc 2ff3 d43d
00000280: c6e3 bdbd 537c 91bc 8c32 11bd 865f cd3d
00000290: 7bb6 d8bd 03ac ddbd d44d 463c 8873 87bd
000002a0: b98d 8fbd 45c5 c73d 7ed3 183d 11a0 6fbd
000002b0: 3803 5cbd c0de 8dbd 2c57 5d3d 0ee9 853d
000002c0: f794 04be 2568 bdbd 9b67 c7bb 49d2 583d
000002d0: de40 ebbc 0565 083c 34c1 08bc 00fc 35bd
000002e0: 56ae d03c c3ad 223d c270 edbc 263b fc3b
000002f0: de5e 9d3d 3672 7b3c 94ae a3bd 51c7 8abd
00000300: 2325 d0bd 75aa d53c 1d7c 0c3d 177a 6a3c
00000310: 828b 12bd 07da 9d3d 53f9 603d e840 c23d
00000320: 6653 bfbb 3358 2abd ccc9 7e3d ee41 273d
00000330: 0f09 e1bd f161 a2bd b78e ae3d b423 7dbd
00000340: 96d7 243c 1e19 e73d c586 50bd dda4 f53b
00000350: f809 0bbe 0e34 fdba 7810 633d 4dad 2dbd
00000360: f754 943d 17b0 10bc fde4 b3bc 0ac9 b03d
00000370: 0c58 a63d f716 6a3c c43d d5ba 5993 96bd
00000380: cdaf a8bd 9c93 b6bd 9069 dd3d 110d c13d
00000390: 7417 b0bb 8d7b a2bc a217 bebd 28e1 dcbd
000003a0: 12f0 823d 6b45 d8bd 88f7 e63a 22b9 3dbd
000003b0: da5f 70bd b2ac 99bd 78d9 e93d ebb2 c6bd
000003c0: 942b b5bd 3685 3b3b b341 5f3d 17b4 9dbd
000003d0: e64e a2bc af46 df3c 2fba 40bd b515 27bd
000003e0: 225b 99bd 4eda cbbd b3f6 333d 851f a33c
000003f0: 9134 3cbd 66dd 1abd 29d8 fd3c 194c 6e3d
-0.038346007 0.04926916 -0.0074112625 0.04637312 -0.09668901 0.0095137935 -0.03727823 -0.07120429
-0.014264643 -0.06591254 0.028647998 -0.025044966 0.03598057 0.0899587 -0.030369531 0.04852137
0.013096238 -0.043660622 -0.11433662 0.00015861347 0.049310792 -0.06436307 -0.08255872 -0.07825692
0.0770273 -0.045823336 0.10153319 -0.07388044 -0.0375697 0.11267493 -0.0642495 -0.057630025
0.032952454 -0.017064307 0.024439612 -0.08073558 -0.042033076 0.013584742 -0.046104137 -0.008176077
-0.06443014 0.04481862 0.062101956 0.02756104 -0.0068167155 0.03280982 -0.08959744 0.065573454
-0.00755454 0.023364138 -0.058281515 -0.043046936 0.037167072 -0.10396283 -0.034296703 -0.04652683
0.0061452934 0.074954614 -0.050017513 0.039083432 0.029548269 0.06435199 0.0060955375 -0.10382447
-0.08248519 0.068893775 0.06592546 0.01801066 0.0032335203 0.072583504 0.011071788 -0.039237514
0.027707351 0.077003516 0.024445828 -0.0148514025 -0.026973974 -0.09975879 0.00097064825 -0.079599895
-0.058265578 0.05870432 5.4122214e-05 0.09041073 -0.028370818 0.02070079 0.046221904 -0.052756988
0.067657135 -0.0902883 -0.11978654 0.090094686 -0.09071646 0.08601692 -0.010359128 -0.05740616
0.019798063 0.06026795 -0.05895711 -0.046236638 0.0789121 0.03177501 0.08263802 -0.02569846
-0.076774545 -0.009101617 0.050982773 0.009687351 -0.09537548 0.004452999 -0.032693524 -0.008684781
-0.08450467 -0.09728604 0.014482399 -0.020536656 0.013106622 -0.03269663 0.061254997 -0.078969
-0.15911792 -0.008614171 -0.096433096 -0.11270902 0.10671046 0.012784196 -0.12772384 -0.065064766
-0.084816635 0.091280796 -0.0012436844 -0.04040331 0.08513928 -0.09490069 -0.0025302174 0.09541034
-0.07533078 -0.012189894 0.08417024 0.0147394575 -0.0077460418 -0.10532546 0.059408076 -0.055665042
-0.48506886 -0.058956765 -0.007410743 0.048126172 -0.091503724 0.070726536 -0.03328739 0.010873915
0.022271229 0.035978995 -0.03479506 0.039518952 0.010526068 -0.0044476646 -0.029640226 0.10397946
-0.0927196 -0.017759478 -0.035448596 0.10027985 -0.105816804 -0.10823824 0.012103517 -0.06613833
-0.07009453 0.09754423 0.03731107 -0.05850226 -0.053714007 -0.06927252 0.05403821 0.06538592
-0.1294745 -0.092483796 -0.006085349 0.05293492 -0.028717455 0.008324866 -0.008346844 -0.04442978
0.025473755 0.039716493 -0.028984431 0.0076974807 0.0768411 0.015347054 -0.079922825 -0.06776298
-0.10163333 0.026082257 0.03429805 0.014311335 -0.035777576 0.07707601 0.054925274 0.09485036
-0.0058387993 -0.04158802 0.062204167 0.04083436 -0.10988056 -0.07928837 0.085233144 -0.061801627
0.010061165 0.112840876 -0.050909776 0.00749646 -0.13578022 -0.0019317882 0.055435628 -0.0424016
0.07242768 -0.008831046 -0.021959776 0.08632095 0.08122262 0.014287702 -0.0016269018 -0.07352323
-0.08236656 -0.08914873 0.1081115 0.0942632 -0.0053738896 -0.019834304 -0.09281851 -0.10785133
0.06393446 -0.105601154 0.0017621377 -0.046319135 -0.05868516 -0.07503642 0.11418432 -0.09702095
-0.088462025 0.0028613335 0.054506015 -0.07700365 -0.019813012 0.027255384 -0.04705256 -0.040792186
-0.07488085 -0.09953748 0.043936443 0.01991249 -0.04594857 -0.0378088 0.030986862 0.05817804

fc.2.bias f4 [156]
00000000: 2947 c0bc ec9f 8bbd efcf ccbc b121 ccbd
00000010: 66be 5e3c 511b 453d 4f86 51bc c8f6 a7ba
00000020: 4370 283d 3823 9dbb 99be f5bb 4f1d 9cbd
00000030: 7fd3 bb3c accb 233d 9b33 5cbd 595e 0cbc
00000040: 0b71 58bd 4230 7e3d 4235 a33d ef81 d2bc
00000050: bff5 4b3d 129b 303d d420 4c3d 79a1 163d
00000060: b1e7 e63b 305d 4dbc d039 99bc c3f4 d1bc
00000070: 947a 20bd b4ad 1b3d 93c6 f9bc bc50 183d
00000080: 550e 223d 7882 03bd 937d 3abd 4296 3bbb
00000090: 8b17 dabd e3ab 0a3d ddbf 7f3c 9e48 0c3d
000000a0: 6e50 84bc c47b 8ebd b2a5 bfbd 2193 0a3d
000000b0: 52d8 883d bdbf 4f3d 61dd 93bd 9fe8 c33a
000000c0: 800c 383d 6dfe 93bd 6c7e 87bd 8222 edbc
000000d0: 6b38 f33b aed2 fabc 56f8 40bc 4f7d e33b
000000e0: 51bc 0e3d e421 783d 68ea 74bd 80ef 9fbb
000000f0: 2114 7ebd c617 a93c ebe0 a13c 5f55 dabc
00000100: 17f1 0d3d 3a1b cd3b 3679 283c fd54 433d
00000110: 49db 873b 510f 983c 75a3 4a3b f1fb b9bb
00000120: 1966 b93c 4c65 f23c 1c27 13bc be3f 3dbd
00000130: 5cb5 b63c 6772 053d ebed 59bc 540c 043d
00000140: 23b8 c3bc e29a b23c ed9f e73b 7d56 6d3d
00000150: d581 04bd bc19 63bd 747b f8bc ae4e bcbc
00000160: 226b 773b 61c8 abbd 047a 2d3c 59e5 a83c
00000170: c765 ad3c 023b 82bd c202 a6bd e95b 1d3d
00000180: cd25 f3bc 9d51 5ebc a153 ebbb dc30 22bc
00000190: 83a6 37bd 9f87 7a3c 0b5d a3bd ff09 e6bc
000001a0: 5243 23bd 0848 1cbd f96d a5bc 2d27 a53d
000001b0: 4fbe aebd 19f1 86bd a4a4 eebc 9275 24bd
000001c0: 26a1 b9bd 82ea b0bc 70b5 953c 120a 82bc
000001d0: da71 a5bc d1c3 96bd 9707 903c c812 c1bd
000001e0: 340d 85bd 754b 183d 3708 8e3d 3058 65bc
000001f0: abd2 7fbc 1391 c6bc f777 00bd fc82 8ebd
00000200: c2f3 70bd ed55 41bc 2c2c 063d ec53 8bbd
00000210: 1194 23bd 085b 45bd d55b 643c 67f0 15bc
00000220: 85a7 e2bc 1355 cdbc 133e 4fbd 872b 083d
00000230: 0921 1dbd 8b7f d63b 44ae 03bb c430 ab3c
00000240: ed56 213d 4a46 3fbd aeb0 a53c ab23 8fbd
00000250: d78d 8c3b 06d1 c33c 661c cbbc 1c3a db3b
00000260: 8bcd eebb 7475 8cbc c80b 81bc a5ef 743c
-0.023471432 -0.06817612 -0.025001494 -0.099673636 0.013595199 0.048121754 -0.012788369 -0.0012814635
0.041122686 -0.004795458 -0.0074995277 -0.07622778 0.022927998 0.03998916 -0.053760152 -0.008567416
-0.05284218 0.06205774 0.079691425 -0.025696723 0.04979491 0.043116637 0.049835995 0.036775086
0.0070466627 -0.012534425 -0.018704325 -0.025629407 -0.0391794 0.038007453 -0.030490195 0.03718637
0.03956445 -0.032106847 -0.045529913 -0.0028623496 -0.10649022 0.03385533 0.015609709 0.03424894
-0.016151633 -0.069572 -0.09357776 0.03383172 0.06681885 0.050719965 -0.07219959 0.0014946646
0.044933796 -0.07226262 -0.0661591 -0.028947119 0.007422497 -0.030618038 -0.011777958 0.006942428
0.03484756 0.060579196 -0.05979386 -0.0048808455 -0.062030915 0.020641219 0.01976057 -0.026652036
0.03465375 0.006259349 0.010282805 0.047688473 0.004146014 0.018561991 0.0030920182 -0.0056757857
0.022631692 0.029589318 -0.008981492 -0.046203367 0.022303276 0.032579806 -0.013301353 0.03223832
-0.023891514 0.02180237 0.007068625 0.05794381 -0.03235038 -0.055444464 -0.030332305 -0.022986736
0.0037753065 -0.083878286 0.010588173 0.020617174 0.021166695 -0.06358911 -0.08105995 0.03841773
-0.02968111 -0.013569263 -0.0071816 -0.009899344 -0.044836532 0.015291124 -0.07976731 -0.028080938
-0.039859124 -0.03815463 -0.02019404 0.08064113 -0.08532392 -0.065889545 -0.029131241 -0.040151186
-0.0906394 -0.021596197 0.018274993 -0.015873943 -0.02019589 -0.07361568 0.017581744 -0.0942741
-0.06496659 0.037181336 0.069351606 -0.013998076 -0.015614192 -0.024239099 -0.031364407 -0.06958577
-0.058826216 -0.011800271 0.03275697 -0.06803116 -0.03993613 -0.048182517 0.01393791 -0.009151555
-0.02766777 -0.02506498 -0.050596308 0.033244636 -0.038361583 0.006545966 -0.0020092884 0.020897277
0.03938954 -0.046697892 0.020225849 -0.06989225 0.0042893696 0.023903381 -0.024793815 0.006690277
-0.007287686 -0.01714585 -0.015752688 0.014949714
