inventory/model.pth (torch, 457233 bytes, 16 tensors)

conv.0.weight f4 [32, 3, 5, 5]
000000 c0 92 92 bd f1 17 26 3c 67 80 ad 3c 81 5c 80 3d
       -0.071568966 0.010137544 0.021179391 0.06267644
000010 7f d6 89 3c e2 79 92 3b c8 ca 2d 3d fc 23 a9 bd
       0.016825913 0.004470096 0.042429715 -0.082588166
000020 8c f7 b2 3c 26 37 54 bd 27 a1 71 3d cd d7 0f 3d
       0.021846555 -0.051810406 0.058991577 0.035117913
000030 12 f9 72 bd 8a 9c 20 3d 79 6f 11 3d 47 11 ab 3d
       -0.059319563 0.039211787 0.0355067 0.08352905
000040 4d f4 96 bd 11 07 45 3d 2a b7 f9 bc 13 73 9a bd
       -0.073708154 0.048102442 -0.030482847 -0.0754148
000050 bf 0f 9d bc 70 90 61 3c 36 ef 2c 3c 0b 6d ae bd
       -0.019172547 0.013767347 0.010555079 -0.08516892
000060 09 3e e7 bd aa 39 88 bd 7b e1 b9 3d f0 62 b2 bd
       -0.11291129 -0.066516235 0.0907621 -0.08710277
000070 f4 12 02 be 36 83 e1 bb d8 1a 76 bd ef 31 3e bd
       -0.12702543 -0.0068820966 -0.060084194 -0.04643434
000080 b6 76 bd bd 3c 1b f1 bb f5 ac 49 3d 14 03 50 3d
       -0.09251158 -0.007357983 0.04923721 0.050784186
000090 de 9c c2 bd dc 4c 56 bd 6c da b5 3c bf 06 00 be
       -0.09502576 -0.052319393 0.022198878 -0.12502573
0000a0 c2 40 bd 3d 34 a5 32 3d 61 73 8f bd f1 24 b5 3d
       0.09240867 0.04361458 -0.07004429 0.08844937
0000b0 20 43 6c bd c8 de a3 bd 83 e7 e9 bd 67 1b ba bd
       -0.057681203 -0.080014765 -0.114211105 -0.09087258
0000c0 fe c1 41 3d 9f 25 a4 3d 26 5c 58 bd 97 f7 22 bd
       0.047304146 0.08014988 -0.052822255 -0.0397869
0000d0 c7 37 b7 bd 06 84 18 bd 90 a2 c7 3d bc 4f 85 3d
       -0.089461856 -0.037235282 0.09747803 0.06509349
0000e0 a4 c1 98 3b 60 6c c3 3d 7c 1f a2 3d 33 2e 29 bd
       0.0046617556 0.09542155 0.079161614 -0.041303825
0000f0 51 07 12 3d ac 25 d1 3d 1a 8c 38 3d 74 23 a8 3d
       0.03565151 0.102122635 0.045055486 0.08209887
000100 1b 93 6a 3d a4 a5 86 3d fa c8 70 3d 93 3e b1 bc
       0.057269197 0.06574562 0.058785416 -0.021636283
000110 27 fc f0 3c a4 d5 4b 3c 27 10 87 bc a5 cf 25 bd
       0.02941711 0.012441073 -0.016487194 -0.04048123
000120 2e 94 a3 bc f5 8b 8f bd 51 60 dc 3d 46 aa 83 bc
       -0.019968119 -0.070091166 0.107605584 -0.016072404
000130 9d fe e1 3d 3e 16 d3 3d a2 2b 73 3d 83 b0 ca 3d
       0.11034892 0.10306977 0.059367783 0.09896948
000140 e5 34 46 bd 6b 3a 99 bc 24 b9 2c 3c 40 af de 3d
       -0.048390288 -0.018704614 0.010542188 0.1087327
000150 5e 35 ec 3d a8 4b 1c bc 40 3f c0 3d a7 c3 9b 3d
       0.115336165 -0.009539522 0.09387064 0.07605677
000160 9b dc cf 3d 42 8f ad bc c6 cc 6d 3d 6c 7c 13 bd
       0.10149499 -0.021186475 0.058056615 -0.03600733
000170 2e b3 14 bc f4 1e 16 bd 75 76 0b 3d 93 76 a7 bd
       -0.009075923 -0.036650613 0.034048516 -0.08176913
000180 20 93 4f 3d 77 60 e8 3b 86 39 c6 3d 87 2f c1 bd
       0.05067742 0.0070915776 0.096789405 -0.09432893
000190 fd f5 67 3d f4 b4 0f 3d 96 37 d4 3c 11 fa 8a bd
       0.056631077 0.03508468 0.025905412 -0.06785978
0001a0 e4 91 ab bb 8c 87 c4 bd d6 a7 da bd 70 45 03 3d
       -0.0052358974 -0.09596166 -0.106765434 0.032048643
0001b0 78 39 c2 bd 69 d9 90 bd 71 b2 84 3d 9c 44 a3 bd
       -0.094836175 -0.07072718 0.064793475 -0.079720706
0001c0 c9 67 57 bd 6b 5f 92 3c e9 b8 c9 bc 8d 50 d5 3d
       -0.05258921 0.017867764 -0.024624305 0.104157545
0001d0 59 db 7a bd 2b a8 a6 3d 7c c0 c3 3b 0a c5 a0 bd
       -0.061244342 0.08137544 0.0059738737 -0.07850082
0001e0 67 71 9a bc a6 63 1c 3e 47 df 3a 3c c8 91 39 3d
       -0.018852903 0.15272388 0.0114057725 0.045305043
0001f0 cb 05 cc 3d 3c c1 d1 3d d1 29 ac bd f2 0a 0f 3c
       0.099620424 0.10241935 -0.08406413 0.008730637
000200 bc 3c c4 3d 29 30 ce 3c ae 6e 81 3d c7 d3 89 3d
       0.09581897 0.025169449 0.063199386 0.067298464
000210 6b e2 c8 3d e3 09 f8 bc f3 7d be 3c 1f d1 d9 3d
       0.09808811 -0.030278152 0.023253417 0.1063559
000220 29 06 ba 3d bc 80 3b 3c 64 06 c9 bd 36 45 87 3d
       0.09083206 0.011444267 -0.09815672 0.06604998
000230 a9 66 c0 3d 2c ba 41 bd 9c 5d b4 3d 0d db 8a bd
       0.09394581 -0.047296688 0.08806917 -0.06780062
000240 59 ca ac 3d b8 17 c9 3d 7a df c6 bc 7e 2b 4b 3d
       0.08437032 0.09818977 -0.024276484 0.049602024
000250 0e 4c 5b bd 65 2a 62 bd d4 9a 81 bd a2 8c 16 bc
       -0.05353933 -0.05521621 -0.06328359 -0.009188803
000260 d1 62 86 3d 69 e3 b1 3c a6 59 bd bc b5 15 51 bd
       0.065618165 0.021714883 -0.023114037 -0.051046092
000270 0c 54 42 bd 01 d6 81 bd 34 cd 93 3d 35 4c 40 3d
       -0.047443435 -0.06339646 0.07216874 0.046947677
000280 85 b7 0c bd 10 52 e6 bb 74 b2 73 3d f4 36 31 3c
       -0.034354705 -0.0070288256 0.059496358 0.0108163245
000290 f1 95 dc bd 4f e2 e0 3c 5a 1f 89 3d d2 68 2f bb
       -0.107707866 0.027451662 0.06695433 -0.0026765359
0002a0 b1 38 a8 3d 30 e7 68 bc b6 11 89 3b 09 15 e7 3c
       0.08213938 -0.014215276 0.0041830195 0.028208273
0002b0 e1 a1 c0 bd a7 c7 89 3d d6 b4 8c 3c 21 a6 58 bc
       -0.09405876 0.06727534 0.017176073 -0.013223202
0002c0 86 34 c5 bd 40 ab fe bd 16 e6 52 3d b9 a9 d2 bd
       -0.09629159 -0.12435007 0.05148896 -0.10286278
0002d0 9e a6 25 3d 02 d1 4e 3b 8d 57 a5 bd b3 b1 86 3d
       0.0404421 0.0031557684 -0.080733396 0.06576862
0002e0 95 56 33 bd 22 1c f1 3d 0c 0b 21 bd eb 55 01 3c
       -0.043783743 0.11772944 -0.039317176 0.00789402
0002f0 28 86 ff bd 9a 56 49 bd e2 e4 c1 3d b3 19 b2 bd
       -0.1247676 -0.049154855 0.09467484 -0.08696308
000300 68 66 dd 3d 88 29 c7 3d c1 3a b7 3d 9d 35 0b 3e
       0.10810548 0.09724718 0.08946753 0.1359467
000310 2c c7 b5 3d b6 14 a8 bb c0 67 b4 3d 00 8a ba 3d
       0.0887588 -0.005129422 0.08808851 0.09108353
000320 fd d3 89 3d 9c 56 17 bd 18 c9 ee 3d d8 18 67 bd
       0.06729887 -0.03694783 0.11659449 -0.056420177
000330 c9 e8 83 ba 7f 94 6f 3d 64 5d 6c 3d 2d 2b 59 bd
       -0.0010063882 0.058491226 0.05770625 -0.05301969
000340 df 0f 1d 3d 57 4c 6c 3d bb 0c 53 3c 63 7f a3 bd
       0.038345214 0.05768999 0.012881453 -0.079832815
000350 1e 28 da 3d 94 b7 94 bb 74 05 09 3e ad ff eb bc
       0.10652183 -0.004538486 0.13380986 -0.02880844
000360 75 c8 db 3d 45 f0 c1 bd 65 08 0a bc d5 ad 05 bd
       0.107315935 -0.09469656 -0.008424853 -0.032636482
000370 30 d5 f0 3c 0d 09 ad bc 7d 81 11 bd 69 58 d5 3d
       0.02939853 -0.02112248 -0.03552388 0.104172535
000380 27 b3 ad 3c b5 5c 8a 3d d6 88 0d be c6 64 87 3b
       0.02120359 0.06755964 -0.1382173 0.004131886
000390 f2 ad f8 bd 8b da 86 3a dc 05 11 3d 73 fd 31 bc
       -0.121425524 0.001028852 0.03540598 -0.01086365
0003a0 86 a6 96 bd 88 77 0f 3a c4 3f ad bd a5 0d 26 bd
       -0.073559806 0.00054728286 -0.08459428 -0.040540356
0003b0 2c d1 9a 3c d5 c3 74 3b 78 cc ca bd 9e 69 b1 bd
       0.018898569 0.003734817 -0.099022806 -0.08662723
0003c0 01 7b f1 3c 00 04 cb bc b5 f5 fd 3d 71 de cb bd
       0.029477598 -0.02478218 0.124003805 -0.09954537
0003d0 73 06 0d bd cc 48 a5 3b fc ed 69 3d dc 86 f0 bc
       -0.03442998 0.0050440785 0.057111725 -0.029361181
0003e0 e5 f6 87 bd ed 18 88 3d 4b 6d 2a bd fe 66 a7 3d
       -0.06638888 0.06645379 -0.041608136 0.08173941
0003f0 92 63 49 bd f5 44 13 3c 00 c4 ca bc 9c 3d b8 bd
       -0.049167223 0.008988609 -0.024751663 -0.08996126

conv.0.bias f4 [32]
000000 b1 c6 4e bd 7e 91 be bd 77 29 be bd 59 45 73 bd
       -0.050482456 -0.09305094 -0.092852525 -0.059392307
000010 3b 2b 2b bc d7 fa bd b9 72 79 bc 3d eb 08 46 bd
       -0.010447319 -0.0003623578 0.09202851 -0.04834835
000020 1e 92 8e 3d 1d 80 98 3d ab 82 9b bd 61 7f eb bd
       0.069614634 0.07446311 -0.07593282 -0.11498905
000030 e2 43 09 be 1c a7 02 bd e8 a4 cd 3c da ec b7 bc
       -0.13404801 -0.03189765 0.025103047 -0.022451807
000040 8b 58 97 bc 1c ba d4 bd b0 7f 4a 3d 72 3d 6d bd
       -0.018474838 -0.1038706 0.04943818 -0.057919927
000050 e8 bc 75 3d 2c 8f 2b 3d 9e 69 a7 3d 76 9c df bd
       0.05999461 0.041884586 0.08174442 -0.109185144
000060 74 ae 96 3d 62 f8 a3 3d dc 52 47 bc aa 3c 9b bc
       0.07357493 0.0800636 -0.012165751 -0.018949825
000070 2c 07 e7 3c f5 d7 80 bd 8f c5 da 3d 4b 7c 9f 3d
       0.028201662 -0.062911905 0.106822126 0.07787379

conv.1.weight f4 [32]
000000 3f e8 75 3f b3 83 74 3f 16 42 7a 3f f3 2d 7b 3f
       0.96057504 0.9551346 0.9775709 0.9811699
000010 d0 94 7a 3f a6 a7 76 3f f4 85 80 3f 3e e6 7f 3f
       0.9788332 0.9634956 1.0040879 0.99960697
000020 25 b8 80 3f 60 a6 82 3f 76 8d 82 3f e7 e4 7d 3f
       1.0056196 1.0207024 1.019942 0.991774
000030 b9 45 85 3f fe 07 8a 3f e6 df 77 3f ac c7 7c 3f
       1.0411903 1.0783689 0.96826017 0.98742175
000040 bc 34 7e 3f 5d 26 85 3f 89 02 81 3f 4d a4 7d 3f
       0.99299216 1.0402333 1.0078899 0.9907883
000050 65 10 89 3f ab d3 7a 3f db ea 7f 3f 89 01 7c 3f
       1.0708128 0.9797923 0.99967736 0.9843984
000060 49 5b 83 3f 19 a8 7f 3f 5c b1 8e 3f 81 9c 76 3f
       1.0262233 0.9986587 1.1147876 0.96332556
000070 87 eb 82 3f 12 09 77 3f 5d 8d 7a 3f 2e 85 7c 3f
       1.0228127 0.96498215 0.97871953 0.98640716

conv.1.bias f4 [32]
000000 d4 65 a2 bc 4e 5e 6d bd 91 31 0a bd 21 00 e6 3d
       -0.019823946 -0.057951264 -0.033738676 0.11230493
000010 e4 04 2b 3c ee 3a 44 bc 61 dd 7f 3c fb b7 68 bd
       0.010438178 -0.011976941 0.015616746 -0.056816082
000020 56 1f 3a bc ff 31 91 bc 47 47 08 bd 66 fa 8f bc
       -0.01136001 -0.017724035 -0.0332711 -0.017575454
000030 d1 c7 0a bd 43 b7 ee bc b0 24 10 bd 66 e4 40 3b
       -0.033881966 -0.02914012 -0.035191238 0.002943301
000040 cc 4d 3c 3d ae 72 fe 3a 12 ed dd bc 3d 8c 91 bd
       0.04597263 0.0019412839 -0.027090583 -0.071068265
000050 46 63 39 bd 77 16 19 bc 38 d9 dd 3b 07 9f a9 bd
       -0.04526069 -0.009343735 0.0067702793 -0.08282285
000060 4c 9d bd bd 19 da a5 bc 2f 69 11 be b4 d3 d6 bc
       -0.092585176 -0.020245599 -0.1420028 -0.026223995
000070 ac c1 e1 37 a3 24 1c bd 59 57 3b bd ce 66 84 bd
       2.6912276e-05 -0.038120877 -0.045737598 -0.06464921

conv.1.running_mean f4 [32]
000000 ff 22 17 be 7a 70 09 3f 06 5c 97 3e 10 1f 3e bd
       -0.14759444 0.5368725 0.29562396 -0.046416342
000010 15 fd f6 be e3 25 07 3e 1c e7 7c be 4a 9d ea bd
       -0.4823996 0.13198046 -0.24697536 -0.11455782
000020 6c 8b 45 be c7 b3 bc bd 42 8b c9 be b1 15 e4 bd
       -0.19291466 -0.09213977 -0.39364058 -0.1113695
000030 d8 61 17 be f6 fd 54 bd e7 92 88 3e 73 0d d9 3d
       -0.14783418 -0.05200001 0.26674578 0.10598268
000040 e5 4d 05 3d 3e 9c ec bd d8 8b 3f be 8c d9 7d be
       0.03254499 -0.11553238 -0.1870569 -0.24790019
000050 4c 5a 24 bd be 68 00 bc 2d c4 13 3e fd 0b 34 3e
       -0.040125176 -0.0078374725 0.14430304 0.17582698
000060 b2 2e 76 3c f0 71 fe 3d 14 9d a5 bd 0f 76 39 3e
       0.0150257815 0.124240756 -0.08086601 0.18111442
000070 bf 7d 63 bd 68 09 b1 3d 7d 1b 68 bc 71 36 72 3e
       -0.055539843 0.08644372 -0.01416671 0.2365358

conv.1.running_var f4 [32]
000000 1d d9 87 3c 3d fe cd 3d 11 b2 32 3d 8f 6c a8 3c
       0.01658302 0.10058258 0.04362685 0.020559577
000010 b7 11 88 3d c0 25 70 3c a9 d9 05 3d 52 a2 b6 3c
       0.06644004 0.014657438 0.03267828 0.022294197
000020 96 09 cc 3c 65 b7 84 3c 0e 3d fd 3c 7d ea 74 3c
       0.024906915 0.01620073 0.030912902 0.0149484845
000030 43 7a ea 3b 50 0f d8 3c 1a 18 b2 3c 78 14 8c 3c
       0.007155688 0.02637449 0.021740008 0.017099604
000040 6e c2 83 3c 99 17 b1 3c eb be aa 3c 20 69 aa 3c
       0.016083922 0.021617698 0.02084299 0.02080208
000050 70 e5 c5 3c 32 a4 90 3c 45 9f 3c 3c 87 e6 1a 3d
       0.024157256 0.01765642 0.011512582 0.037817504
000060 46 f5 6a 3c 49 e6 71 3c 7b f0 11 3c f6 42 fe 3c
       0.014340704 0.014764377 0.008907433 0.031037789
000070 aa 9e 61 3c 0f 84 ec 3c 4f 48 c6 3c 1b 61 8f 3c
       0.013770739 0.028871564 0.024204401 0.017502358

conv.4.weight f4 [32, 32, 3, 3]
000000 0f e0 d3 bb 5e e7 9c 3d 08 c0 82 3c 05 45 ed bc
       -0.006465919 0.07661317 0.015960708 -0.028963575
000010 99 7d a8 bc e3 0c 32 bd f9 16 ab bc 05 9b bc 3b
       -0.020567702 -0.04346932 -0.020884978 0.0057557845
000020 0c 9c a1 bc 37 a7 88 bd 7b 92 f2 bc 00 a4 af b9
       -0.01972773 -0.06672519 -0.029610863 -0.0003350079
000030 df 25 ef ba a4 3b 65 bc b4 6b 50 3d 66 7f 21 3d
       -0.0018245539 -0.01399127 0.050883964 0.039428137
000040 59 8a 18 3d 74 7c 39 3d 77 d9 7f bb 1e 4c 05 bd
       0.037241314 0.045284703 -0.0039039531 -0.032543294
000050 b4 ed 5c 3c 30 eb be bb 46 07 74 bc 63 05 4c bd
       0.013484407 -0.0058263764 -0.014894312 -0.049809825
000060 8b d6 5c 3d 46 8a 03 3d 9f ea a1 3b ba b8 72 bd
       0.05391554 0.03211429 0.004941299 -0.0592582
000070 6f db 16 3d 23 cb 25 3c a0 a3 2b 3d 36 74 50 3d
       0.036830362 0.010119232 0.04190409 0.050892077
000080 6c 39 54 3d 41 af 84 bd 64 07 0c 3d d2 f8 30 3c
       0.051812574 -0.064787395 0.034186736 0.010801511
000090 ec 84 0d 3c b4 dc d6 3c 05 15 b5 bc 83 8a 0f bc
       0.008637648 0.026228286 -0.02210475 -0.008761051
0000a0 0b 3f e1 3b 33 9c b9 3b f8 df 52 3c 57 2e 36 bc
       0.0068739704 0.0056643724 0.012870781 -0.011119447
0000b0 96 e9 72 bc 22 ae 03 bd 1b 98 50 bd ca de 10 3d
       -0.014826199 -0.032148488 -0.05092631 0.03536872
0000c0 07 47 c8 3b 6f c0 1a bd 53 31 fe 3b 6a 34 e6 3c
       0.0061119827 -0.037781175 0.0077573447 0.028101165
0000d0 c2 b6 c5 3c 8d f1 41 bd bf 6f 09 3c 3e 95 8c bd
       0.024134997 -0.0473495 0.008388459 -0.06864403
0000e0 aa 7b be bc f1 c0 87 bd d5 9b 51 bd 6b 8b 33 3d
       -0.023252327 -0.066285975 -0.051174004 0.04383413
0000f0 76 bd 95 3c cb d2 9c bc 29 ec 3a 3d 48 94 84 bc
       0.018278819 -0.019143483 0.045635376 -0.016183987
000100 1c 82 58 3b 76 3a 8a bd f5 ca df bc 02 d0 38 bc
       0.0033036536 -0.06749432 -0.027318457 -0.011280062
000110 73 fe 78 bd 94 d7 1e 3d c9 eb 06 3a ee 62 77 3d
       -0.060789537 0.03877981 0.0005146829 0.06039708
000120 63 d2 0f 3c 7e a4 4b bd bf 4b 5c 3d 2c 96 0b bd
       0.008778187 -0.04971742 0.053783175 -0.034078762
000130 9c 2f bb bd b1 fa 3d 3b 83 ff 0e bd e9 a2 ed bc
       -0.0913994 0.0028988535 -0.034911644 -0.029008346
000140 6d e8 c2 3c b7 ce 25 3c cf f7 60 bb 97 c6 61 bc
       0.02379247 0.010120085 -0.0034327393 -0.013780258
000150 5f cd 2d 3c 43 44 bf bd ed ce aa bc 3f 8b 20 3d
       0.010608046 -0.09339192 -0.020850623 0.039195295
000160 f6 f0 9a 3d 73 46 0a 3c b5 e1 67 3a ef c8 10 3d
       0.07565491 0.008439648 0.00088455837 0.035347875
000170 6e 9d 84 3d 69 20 08 bc 61 18 2f bd 98 49 2a bd
       0.0647534 -0.008308508 -0.04274786 -0.04157409
000180 78 66 3d bd 9b 6e 96 3d ba c5 8a 3c d1 59 ae bd
       -0.0462403 0.07345315 0.016939986 -0.08513225
000190 a2 33 e6 bc a2 62 83 bd f4 38 55 3d 63 37 72 3d
       -0.028100792 -0.06415297 0.052056268 0.059134852
0001a0 3d 9c 3b bd 98 3b 4f 3c 9f 87 29 bd fd dc 1a 3d
       -0.045803297 0.012648486 -0.041389104 0.037808407
0001b0 7a c2 99 3d 9c 13 7f bd 2c df 2d 3c ab e7 d4 3c
       0.075077966 -0.06227456 0.01061229 0.025989374
0001c0 92 64 68 bd 80 84 81 3d 0b 59 8c bc 3e 81 95 3c
       -0.056736536 0.063241005 -0.017132303 0.018250104
0001d0 d8 50 0a 3d 30 13 86 3c 34 1e 17 be 72 05 46 3d
       0.033768505 0.016366571 -0.14757615 0.048345037
0001e0 9f ce 80 bc 5a 84 54 bc 15 3c 45 bd de 89 d5 3c
       -0.015723525 -0.012971008 -0.048153 0.026066717
0001f0 17 84 05 3d 24 a8 b6 bb 7d 5e ad bc ec b0 e7 bb
       0.032596674 -0.005574243 -0.02116322 -0.0070706513
000200 0e ff b8 3c 60 60 fb bc e0 30 84 3c 33 00 da ba
       0.022582557 -0.030685604 0.016136587 -0.001663214
000210 36 5a eb 3c 60 9b e1 ba 04 3f 59 3b 62 c1 1e 3d
       0.02872954 -0.0017212443 0.0033149133 0.038758643
000220 ed e8 81 3d 7d df 91 bc 06 b3 cc 3c bc cd 5f bc
       0.06343255 -0.017806763 0.024987709 -0.013659891
000230 33 38 ed bc 93 d8 fa bc ba 8f 67 3d fe 3a 3f 3b
       -0.028957462 -0.030620849 0.056533553 0.002917945
000240 39 e7 1c 3c 2f d8 3f 3d b2 86 91 bd 8d aa 1d 3d
       0.009576612 0.046837028 -0.07105769 0.038492728
000250 e5 cf 09 bc 41 bb bc 3c aa 6f c8 bc 93 86 e0 bc
       -0.008411382 0.023038508 -0.024467308 -0.02740792
000260 2d 93 73 3c 0c c6 b7 3c 1d 43 5a bd 3b ae 9a bc
       0.014866632 0.022433303 -0.05328666 -0.018881908
000270 38 e3 81 bc bc fb 0b 3d f8 15 44 bc e3 54 01 bd
       -0.015855417 0.03417562 -0.011968128 -0.031575095
000280 8b cd 8f bd 51 3e c6 3c a2 a6 fa bc b7 81 a1 3c
       -0.07021626 0.024199637 -0.030597035 0.019715173
000290 28 ee 0d 3c 0e 9c 78 3d dd 99 18 bc cc 75 d9 bc
       0.008662738 0.0606957 -0.009314028 -0.026545428
0002a0 9f ff b8 3c 0f a0 51 3d 09 42 1e 3c 8e 2e 55 bc
       0.022582827 0.051178034 0.009659299 -0.013011588
0002b0 26 77 91 bd 3d c7 8a 3c 25 f2 02 b9 60 59 87 bc
       -0.07102804 0.016940707 -0.00012487972 -0.01652211
0002c0 9c 3a 38 bd ee 14 9e bc 9e 38 92 3b 18 19 a1 bc
       -0.04497777 -0.01929709 0.0044623157 -0.019665286
0002d0 73 88 52 bd c6 5a d0 3c 92 5f 1c bc ac ab 4d 3d
       -0.05139966 0.02543391 -0.00954427 0.050212547
0002e0 51 29 9e bd 5a 6a 87 bd e1 9a 6e 3d 06 9a 78 bc
       -0.07722724 -0.06612082 0.058253173 -0.015173441
0002f0 ec 68 14 3d 8f ec df 3c c1 87 f7 bc 92 b0 9a 3b
       0.036232874 0.02733448 -0.0302161 0.004720756
000300 97 3a ab bb 6b d0 09 bd 3d 6a 57 bc f0 94 45 bb
       -0.0052254903 -0.03364603 -0.013147888 -0.0030148588
000310 93 e3 5a bc 11 30 11 3c e2 98 16 3b 33 1a 78 bc
       -0.013359922 0.008861558 0.002297931 -0.015142965
000320 3d 0a 80 3d b8 f6 6c 3c 5c cd eb bd 2a c1 5f bd
       0.06251953 0.014463119 -0.115137786 -0.054627575
000330 f1 42 46 bb ad 13 af 3d d1 5d 1f 3d cf a1 c1 bc
       -0.0030252303 0.08548675 0.03890783 -0.023636727
000340 dd 36 1a bd 5a a6 bc 3a e9 71 4f 3c 32 62 f2 3b
       -0.037649978 0.0014392838 0.012661436 0.0073969597
000350 26 ca 78 3d 1f 56 88 bc d5 d4 68 bd 79 58 55 bb
       0.06073966 -0.016642628 -0.056843597 -0.0032553955
000360 55 24 39 bd 39 e4 41 bb 8b 45 95 3d f9 9e 4e 3d
       -0.045200665 -0.0029585494 0.07288655 0.050444577
000370 e9 bc f2 3c 8d c0 39 bc 4a b4 27 3d 3f 93 44 3b
       0.029631095 -0.011337412 0.04094342 0.0029994992
000380 59 af 09 3d 9e 0f 1d bd fd 34 2e 3d d1 68 a1 bc
       0.03361449 -0.03834497 0.042531002 -0.0197033
000390 5e b1 c0 bc b0 ce ca bc 50 90 82 3d 5e 9f 13 bd
       -0.023522075 -0.02475676 0.06375182 -0.036040656
0003a0 19 3d ca 3c 1f 6f f0 3c d1 7d 40 bc 6e 4f 5d 3d
       0.024687337 0.029349862 -0.011748747 0.05403083
0003b0 80 d3 c9 bc f1 23 6b bd cb 2c 8e 3c 53 ef 84 3b
       -0.024636984 -0.057407323 0.017355343 0.00405685
0003c0 98 23 98 3c ff 52 fc 3c 53 5b 13 3d 1e 83 03 3d
       0.01857166 0.030801294 0.035975765 0.032107465
0003d0 e8 d0 2b bd c4 6d 20 bd 81 a1 f1 3c be 09 32 bb
       -0.041947275 -0.03916718 0.029495956 -0.0027166451
0003e0 2d 54 09 bc 33 ce 22 bd ba 69 b6 3b 96 28 48 3d
       -0.0083818855 -0.03974743 0.005566803 0.04886683
0003f0 0a e4 4d 3d ac b6 59 3d 35 10 35 bc 05 6f 76 bd
       0.050266303 0.053152725 -0.011051227 -0.06016447

conv.4.bias f4 [32]
000000 c6 d7 af 3b b7 ab 61 bc b4 81 e6 3b a0 08 b0 bc
       0.0053662984 -0.01377385 0.007034505 -0.021488488
000010 5d d0 ec bc 56 8e 11 bd fd a4 36 3d 1e 82 b9 bc
       -0.02890795 -0.035536133 0.04459094 -0.022645053
000020 bc 2a 07 3c 8d e9 03 3d fc a3 d9 3c 5f a8 39 bd
       0.008249935 0.032205153 0.026567452 -0.045326587
000030 45 23 27 ba 95 c6 f5 bc b8 e3 b8 3c 32 eb e7 bc
       -0.00063758 -0.030001918 0.022569522 -0.028310392
000040 92 9e 51 bd 28 13 f1 ba 77 5b b2 bc 61 26 07 bd
       -0.051176615 -0.001839255 -0.02177213 -0.032995585
000050 3d 56 c2 3c 6e 35 eb bc e6 d6 96 bb 5b 7d 10 bd
       0.023722762 -0.028712 -0.0046032546 -0.0352758
000060 eb b8 69 3d 70 ca 00 3c 7e 9f 2d 3d d9 1a 72 3d
       0.057061117 0.007860765 0.04238843 0.059107635
000070 f6 59 17 bd bc 1d 88 3b af 7a 40 3d 61 06 db bc
       -0.036951028 0.0041539352 0.046992 -0.02673644

conv.5.weight f4 [32]
000000 f7 4f 8e 3f 90 29 8e 3f 40 ff 8c 3f 78 30 8c 3f
       1.1118153 1.1106434 1.1015396 1.0952291
000010 05 84 8c 3f bb f7 8d 3f dd 2f 8c 3f f6 17 8d 3f
       1.0977789 1.1091226 1.0952107 1.1022937
000020 48 e4 8d 3f 1f 93 8d 3f 25 70 8e 3f ed 43 8d 3f
       1.1085291 1.1060523 1.1127974 1.1036354
000030 40 7c 8c 3f cb 94 8e 3f b1 5f 8d 3f 55 23 8b 3f
       1.0975418 1.1139158 1.1044828 1.0870157
000040 ef 20 8d 3f 57 f3 8c 3f 4c 93 8d 3f 97 87 8e 3f
       1.1025676 1.1011761 1.1060576 1.1135129
000050 b0 2a 8f 3f f9 cb 8c 3f 53 1c 8f 3f fd d7 8d 3f
       1.1184902 1.0999748 1.1180519 1.1081539
000060 38 05 8d 3f dd 3b 8d 3f 27 cf 8c 3f 62 04 8c 3f
       1.1017218 1.1033894 1.1000718 1.0938838
000070 b2 dc 8f 3f 21 fa 8d 3f 1a be 8c 3f 5e b4 8d 3f
       1.1239226 1.1091958 1.0995514 1.1070669

conv.5.bias f4 [32]
000000 d4 1f bf 3d ab 90 a6 3d ad b9 8d 3d b8 65 9c 3d
       0.093322426 0.08133062 0.069201805 0.07636589
000010 22 b2 9c 3d a5 f8 c0 3d 0e 20 b2 3d 21 13 c4 3d
       0.07651164 0.09422425 0.0869752 0.09573961
000020 13 84 b9 3d 15 78 c9 3d d6 9b b4 3d eb 62 af 3d
       0.09058394 0.09837357 0.08818786 0.08563789
000030 3e 28 99 3d e6 15 b2 3d 6a d5 9d 3d 65 c1 a9 3d
       0.07478379 0.08695583 0.07706721 0.0828884
000040 18 2f b0 3d b7 84 ac 3d 52 b0 a8 3d 66 3a b7 3d
       0.086027324 0.08423751 0.082367554 0.089466855
000050 42 df b1 3d e0 15 ae 3d 75 5b ba 3d 04 03 a7 3d
       0.08685161 0.08500266 0.09099475 0.08154872
000060 d4 68 b8 3d 3e c7 ae 3d 97 5a a5 3d 63 52 a4 3d
       0.090043694 0.08534096 0.08073919 0.080235265
000070 ab 8c b3 3d 98 ef ad 3d fc 3b 97 3d 10 cb a9 3d
       0.08767065 0.084929645 0.07384488 0.08290684

conv.5.running_mean f4 [32]
000000 47 6d 08 be ec eb 39 3e 09 eb b4 3d a4 6a 3f bd
       -0.13322936 0.18156403 0.08833892 -0.04673256
000010 22 ff 50 3d af bf da bd ad b2 e3 3d 3c 43 49 be
       0.051024564 -0.10681092 0.11118064 -0.19654554
000020 e7 99 ff 3d 90 be 0a bf 2f 16 6e be ba 07 27 3e
       0.124805264 -0.54197025 -0.2325065 0.16311541
000030 2c a7 4b 3d 7c 66 a7 3d 8f f5 42 3e 6a 76 31 3e
       0.049719974 0.08173844 0.19038986 0.17330328
000040 6a f8 ad be 0b d5 c4 3c 84 dc 51 bb 8d 37 83 be
       -0.33978587 0.024027368 -0.0032022307 -0.2562832
000050 d8 64 ca bc bd 8f 40 3e f5 91 41 3e 75 af 9c be
       -0.02470629 0.18804832 0.18903334 -0.30602613
000060 18 4d 4a be 06 60 a1 3e f7 93 1c bf 01 17 22 be
       -0.19755971 0.31518573 -0.61163276 -0.15829088
000070 6a f6 53 be d6 5a c1 3d 92 18 a3 be d4 9b c6 be
       -0.20699468 0.09441154 -0.31854683 -0.38790762

conv.5.running_var f4 [32]
000000 3f 6e 3a 3c 77 9b 63 3c 7e 4d 27 3c c5 73 52 3c
       0.011378824 0.013892046 0.010211347 0.012844984
000010 49 b4 a7 3c 73 72 98 3c f0 82 db 3c f1 c5 fc 3c
       0.020471709 0.018609261 0.026795834 0.030856105
000020 50 94 89 3c 24 7b d8 3c 87 a5 56 3c 2e f6 87 3c
       0.016794354 0.026425906 0.013100988 0.01659688
000030 95 c8 a9 3c f3 f0 81 3c 1f be a4 3c 0f 66 f2 3c
       0.020725528 0.015861964 0.020110188 0.029589681
000040 02 53 2d 3d c9 c9 b3 3c 9c bd 70 3c c6 99 9c 3c
       0.04231549 0.021946805 0.014693644 0.019116294
000050 a6 07 7c 3c 5b 50 43 3d bd 31 68 3c d9 4b ac 3c
       0.015382683 0.047684055 0.014172015 0.02103226
000060 ed fa bc 3c 32 ce 09 3d 7a e2 e6 3c 00 e8 c8 3c
       0.02306887 0.03364391 0.028184164 0.024524689
000070 e1 e8 4a 3c 2c 2c 59 3c 5c e8 cd 3c 4a 24 b7 3c
       0.012384624 0.01325516 0.025135212 0.022356171

fc.0.weight f4 [338, 128]
000000 ae 1a 87 bb 8e 93 bf 3d 17 46 93 bc 29 97 79 3d
       -0.0041230535 0.09354316 -0.017977757 0.060935173
000010 17 74 8c bd 09 6b 15 ba 08 0b a9 3d 5b 8b 62 bd
       -0.0685808 -0.00056998484 0.08254057 -0.05530868
000020 64 76 b7 3d f8 52 ac 3b 6c 3f 8b bc 09 5b c4 bc
       0.08958128 0.005258914 -0.016998015 -0.02396919
000030 25 b1 49 3d 52 9f 9a bd 82 49 2b 3d dc 4a 9e bc
       0.049241204 -0.07549919 0.04181815 -0.019322805
000040 37 fb 8f 3d b7 9c 0b 3e e6 3d f2 ba e6 84 ef 3d
       0.07030337 0.13634 -0.0018481582 0.1169527
000050 5f f3 ff bd 24 3f 0e bd c6 42 c8 3d a9 b1 a2 3d
       -0.12497591 -0.034728184 0.09778361 0.07944042
000060 ca 77 65 3d 40 46 66 3d 8a 3d 81 3d 15 6d 88 3d
       0.056022443 0.05621934 0.06310566 0.06661431
000070 29 df a0 bd d7 57 a5 b9 e7 67 f3 3a 73 66 46 3d
       -0.078550644 -0.00031536698 0.0018570394 0.048437547
000080 29 b5 c7 3c 27 7f 8c bd 21 cb 18 3c 1b 9a ee bc
       0.024378376 -0.0686019 0.009325773 -0.029126218
000090 75 a2 d5 bd 1e bd 14 bd 9b 5b a8 bd cb c4 a2 bd
       -0.10431377 -0.03631317 -0.08220597 -0.079476915
0000a0 74 af d4 3c 87 c2 73 bd e3 7d b1 3d f2 ef 9e bc
       0.025962569 -0.059511688 0.08666589 -0.019401524
0000b0 08 98 25 be b6 b1 59 bd 84 30 92 3d a1 58 94 3d
       -0.16171277 -0.053147994 0.0713816 0.07243467
0000c0 9e 3c b5 3d 01 ea 6b 3d 50 e1 ef 3d fb 2c 0e 3d
       0.088494524 0.05759621 0.11712897 0.034710865
0000d0 f3 ca 11 3c 0c 74 0b be 04 75 3e 3d 46 be 65 bd
       0.0088984845 -0.13618487 0.046498314 -0.056089662
0000e0 7d 54 02 3c ea ec 72 bd 23 62 01 3e e0 62 d8 3d
       0.007954714 -0.05930797 0.12635092 0.10565734
0000f0 f2 0f 6f bb c0 87 90 bd 3b f1 bb bc c0 bf 9b 3d
       -0.003647801 -0.07057142 -0.022942176 0.07604933
000100 c7 07 a2 3d 66 54 af bc b2 21 fa 3d ed 79 13 3e
       0.0791164 -0.021402549 0.12213458 0.1440198
000110 d4 fc e0 3c df 00 09 3e 1d 81 be 3d b3 6e 3b bc
       0.027464308 0.13379239 0.0930197 -0.011439967
000120 4c 56 a6 bc b1 da b1 3d d4 dc 79 bd d0 e0 3b bc
       -0.020304821 0.0868429 -0.061001614 -0.011467174
000130 82 32 2b 3d db 1b a3 3c 8c cd ea 3d 6c 93 15 3d
       0.041796215 0.019910743 0.11464986 0.036517546
000140 95 bb f1 3d 7d 5e 01 bd 43 b6 f2 3d 6e d3 37 bd
       0.118033566 -0.03158425 0.1185117 -0.04487937
000150 ec 7a 44 bd 5c 77 a2 3c ea d0 7f bd e1 03 e5 3d
       -0.04796879 0.019832306 -0.062455095 0.111823805
000160 33 50 05 3e 5b 49 42 3d 78 5e f5 bb 59 76 60 bc
       0.13018875 0.04743324 -0.007488068 -0.013700091
000170 0d 86 e5 3d 1c a9 a8 3d c3 cd bf 3c 8e 61 8e 3d
       0.11207209 0.0823538 0.023413545 0.06952201
000180 62 93 a0 3d 08 1f b9 3c 1c 4a c8 3c 11 2c ad 3c
       0.07840611 0.022597805 0.0244494 0.021139177
000190 42 13 fd bd 46 59 df 3c 01 53 1e bc fb 5f a8 3d
       -0.12357189 0.027264249 -0.009663344 0.08221432
0001a0 15 4f ed 3c e7 90 33 3d 46 e3 b8 3d 67 08 ef bc
       0.028968373 0.04383936 0.09027724 -0.029178811
0001b0 22 4a 6f bd 13 9a 15 be 35 ff 0b bd cd 34 f6 bb
       -0.058420308 -0.14609556 -0.03417893 -0.0075136186
0001c0 cf 93 98 bd a8 fc b2 3d 24 ae 6b bc 77 3f 01 3e
       -0.07450067 0.087395966 -0.01438478 0.12621866
0001d0 fc e2 1e 3d 39 a9 02 3e e5 8a be 3c 4b c8 8f 3d
       0.038790688 0.12759866 0.02325959 0.07020625
0001e0 4b 2a bc 3d 38 39 cd 3d 39 59 d0 bc 71 bf db 3d
       0.09187754 0.10020679 -0.02543317 0.10729874
0001f0 7a 2d af bd 42 ec 99 bc d0 08 cd 3c 7c 29 81 bc
       -0.08553596 -0.018789414 0.025028616 -0.015766852
000200 0f b9 de 3d ad a4 94 3d 28 a1 1c 3d ea 0c a8 3d
       0.10875141 0.07257972 0.038239628 0.08205588
000210 d6 23 ab 3d fa 7e 11 bd e0 78 c5 3d 41 96 a9 3d
       0.083564445 -0.035521485 0.09642196 0.08280612
000220 9e 50 71 bc e7 d6 c2 3d 50 21 9c bc 3a 05 00 3d
       -0.014728693 0.095136456 -0.019058853 0.031254984
000230 24 ba ee 3d 86 01 92 3d 07 b8 9b 3d 1b 97 9f 3d
       0.11656597 0.07129197 0.0760346 0.07792493
000240 66 ef 89 3d e5 20 c6 3d 8c a1 3c 3d f7 1b 35 3d
       0.06735115 0.09674243 0.0460525 0.044216122
000250 cc 28 5d 3d 7c 67 09 3e a3 08 84 3d a0 1c a7 bc
       0.053993985 0.13418382 0.0644696 -0.020399392
000260 24 e4 9c 3c 19 c1 1c bb b1 37 74 3c 5d 61 83 3d
       0.019151755 -0.0023918806 0.014905856 0.06415055
000270 23 bd 7c bd ee b4 87 bc f5 9e 1b 3c a2 f7 8c bd
       -0.061703812 -0.016565766 0.0094983475 -0.0688317
000280 65 dc eb 3d 9d 26 81 3d a3 1e 45 3e 33 94 cc 3d
       0.11516646 0.06306193 0.19249968 0.09989204
000290 4a 6e 28 3d 0d af a7 3d 67 8b 0a bd 6c c8 b2 3c
       0.041120805 0.08187685 -0.03382435 0.021824084
0002a0 ac f2 a2 3d ba 20 b6 bc b0 2a 9d 3c d7 ee 0a be
       0.07956442 -0.022232402 0.019185394 -0.13567673
0002b0 20 3b c9 3d a6 0a be 3d b9 d5 ec bc f8 7c 1c 3e
       0.0982573 0.09279375 -0.028910505 0.15282047
0002c0 f6 40 65 3d 09 0e 71 bd 58 92 30 3e 3e d9 9e 3d
       0.055970155 -0.058851276 0.17243326 0.077562794
0002d0 93 7b 3c 3d b9 f3 9c 3d 2c b3 66 3d b6 81 a7 bc
       0.046016287 0.07663674 0.056323215 -0.020447593
0002e0 6e e2 41 bb 15 f6 03 3e 9e f3 e8 3c 8c 75 6b bd
       -0.0029584426 0.12886842 0.028436478 -0.05748515
0002f0 88 8f 16 bd 15 d0 34 bc df 28 f3 bc 78 d2 a9 3d
       -0.036757976 -0.011035939 -0.029682575 0.08292097
000300 cf 2d 6a bc e7 7c d4 bd 4f b9 66 bc f1 2b 16 3d
       -0.014293148 -0.10375386 -0.014082267 0.036663
000310 b4 ef f9 3c c4 fa 31 3e 89 d5 0d 3d 06 48 22 bd
       0.030509807 0.17380816 0.03462747 -0.03961947
000320 5d 86 92 bc 2d 21 ab 3d 6d 2f 32 3d 92 61 9a 3d
       -0.017886335 0.08355937 0.04350226 0.07538141
000330 b4 a1 2f bc 08 67 31 3d 90 09 99 3c 80 8c b3 bd
       -0.010719705 0.04331115 0.018681318 -0.087670326
000340 db 9a 36 3e 71 4f 4f bc 43 50 08 3e d4 1f 96 bd
       0.1783251 -0.012653218 0.13311867 -0.073302895
000350 1f 9e 0d 3e 5c 2a e1 3d 28 7c 03 3d 4b b7 a7 3d
       0.1382985 0.109944075 0.032100827 0.08189257
000360 0d e8 47 3d 90 f1 26 bd f0 97 a8 3c b5 ab 4c bc
       0.048805285 -0.040757716 0.020580262 -0.01249211
000370 a7 c5 88 3d b5 fb be bd 85 78 f2 3d 15 a1 4d bd
       0.06678324 -0.09325353 0.118393935 -0.050202448
000380 bc 5f 07 3e 5f 6d 98 3d 87 8d 43 bc 0e 66 f6 3d
       0.13220114 0.07442736 -0.011935598 0.12031184
000390 1c df e3 ba b5 b3 40 bc 35 5d b5 bc 12 64 0a 3e
       -0.0017385217 -0.0117615955 -0.022139171 0.13514736
0003a0 09 17 09 be 5b b5 4d bd 7a d9 f4 bd 08 e6 8b bd
       -0.13387693 -0.050221782 -0.11955543 -0.06830984
0003b0 61 43 fb bd f9 d0 ba bd de 70 d8 3d c8 78 92 bd
       -0.12268711 -0.091218896 0.10568403 -0.071519434
0003c0 af 25 aa bc 0e d5 da bc ff 30 35 bd 21 6e ce bd
       -0.020769922 -0.02671292 -0.04423618 -0.10079599
0003d0 2f af 8b 3d fb 51 5c bc 95 6b 4b 3d 27 47 de 3d
       0.06820523 -0.01344728 0.049663145 0.10853415
0003e0 f3 d4 ec 3d 0d be c4 bd 6b a9 18 3d 31 44 0d 3e
       0.11564054 -0.09606562 0.037270945 0.13795544
0003f0 55 e1 3c 3d 96 7c 31 3d 8b 76 e7 bd 93 28 d6 bd
       0.04611333 0.043331705 -0.11301907 -0.10456958

fc.0.bias f4 [338]
000000 30 60 c9 bb 42 2a 3c 3d 58 0e ad bb 4b 09 d0 ba
       -0.0061454996 0.045938738 -0.005281251 -0.001587191
000010 27 34 71 3d ec 1d 81 3c 17 28 ab 3d 1b 31 25 bc
       0.058887627 0.015761338 0.08357256 -0.010082508
000020 fb 29 e9 3d 41 b5 d7 3d d2 b0 d1 bc 8c 4f 05 bd
       0.1138496 0.10532618 -0.02559701 -0.032546565
000030 eb 24 d5 3d 10 bd 8b 3d fc 9a 0f 3e a8 c8 16 3c
       0.10407432 0.0682317 0.14023966 0.009203114
000040 6a ba 30 3d cb 20 b0 3d e0 b3 c9 3d b9 e4 66 bd
       0.04314653 0.08600005 0.098487616 -0.05637047
000050 60 d9 b1 bc 1c 0b 3f 3d ce b3 e3 3d f6 b5 b5 bc
       -0.021710098 0.046641454 0.111182794 -0.022181492
000060 c8 b0 2c bd f1 aa ea 3a 7f 25 a2 3d 9b bd d7 3d
       -0.04216078 0.0017903728 0.07917308 0.10534211
000070 67 97 03 3d 99 ff 0e 3d 8c 2b 0b bd 01 9e 09 3d
       0.03212681 0.034911726 -0.033977076 0.03359795
000080 6c 57 8a 3d b3 35 ca 3d 33 9c 00 3b 22 0b 56 bd
       0.06754956 0.098735236 0.0019624352 -0.05225671
000090 c3 ba 73 3d d4 68 6a bc de 98 8f bd 79 24 cb 3c
       0.05950428 -0.01430722 -0.07011579 0.024797665
0000a0 38 eb d1 bc d5 a5 10 bc 6f 4f 62 bc 04 b5 a5 3d
       -0.025624856 -0.0088286 -0.013812884 0.080911666
0000b0 a5 42 85 bb b4 32 bb bb 8d e2 e7 3d bf d4 cc 3c
       -0.0040667825 -0.0057128314 0.11322508 0.025003789
0000c0 d3 21 73 3d 48 4c c2 3d 2b 2a 08 3e f7 cd 2d 3b
       0.05935843 0.09487206 0.13297336 0.002652047
0000d0 e7 c7 05 bc 91 d3 04 3c af 00 cd bb 76 9c b1 3d
       -0.008165336 0.008107082 -0.006256185 0.08672421
0000e0 64 00 e5 39 f6 36 85 3d e5 ad 8a 3c e5 a1 a1 3d
       0.00043678575 0.065046236 0.016928622 0.07892207
0000f0 52 50 ce 3c 86 dc 24 3d fd 41 63 bd d3 8d 59 bd
       0.025184784 0.04024937 -0.055482853 -0.05311377
000100 9c 50 a9 3d fd 60 d0 3c 2c f7 d0 3d c2 36 bd 3d
       0.08267328 0.025436873 0.10203394 0.0923896
000110 4a 96 84 bb 96 0e a8 3c 0a 73 24 bd 73 b9 ca 3d
       -0.004046236 0.020514768 -0.040148772 0.09898653
000120 6f 9c a8 3d bf fb e9 3d 2a 63 b2 3d 4d 3c 74 3d
       0.08232962 0.1142497 0.0871032 0.05962782
000130 50 b1 33 3d 3e d2 26 bd 07 4c 88 3c 15 55 0d 3d
       0.04387027 -0.040727846 0.016637815 0.03450497
000140 a5 cb b6 3d 78 80 9a 3d 5a cd db 3a 7a 32 46 bd
       0.08925561 0.07544035 0.0016769574 -0.048387982
000150 b8 72 3e 3d b2 b6 c1 3d 16 8b 04 3d dd e2 1f 3d
       0.046496123 0.094586745 0.032359205 0.039034713
000160 88 d8 cc 3d 04 9d 08 3e 45 26 87 3d e5 b9 d8 3d
       0.100022376 0.13341147 0.06599096 0.105823316
000170 ab 45 e7 3d 40 f0 98 3d 81 b6 b0 3c d1 63 ff 3c
       0.11292585 0.07467699 0.0215714 0.031175526
000180 f0 4c 95 3c f3 85 00 3d 3e 86 cb 3d b1 d9 07 3c
       0.018225163 0.031377744 0.09937714 0.008291648
000190 95 0d 13 bd a5 22 40 3d bb 92 90 3c 72 d0 d5 3d
       -0.035901625 0.04690804 0.017648092 0.104401484
0001a0 e3 9b 34 bc f5 5d ae 3d 61 21 89 3d ab df b9 3c
       -0.011023494 0.08514015 0.0669582 0.022689661
0001b0 31 8f a3 3d ac a3 de 3d d3 a7 8b 3d bb 0d b1 3d
       0.07986296 0.10871062 0.06819119 0.08645197
0001c0 54 e6 ae 3d 67 8d 2e bb e1 b8 c5 3d 53 e6 f6 3c
       0.08540025 -0.0026634575 0.096544035 0.030139124
0001d0 58 11 6a bd 10 5d 9d 3d d3 ef f1 3b f9 90 e2 bc
       -0.057145447 0.07683766 0.0073833256 -0.027657019
0001e0 86 31 ff 3b 99 ef b3 3d 86 9c a3 3d 46 60 d2 3d
       0.007787886 0.08785934 0.07988839 0.10272269
0001f0 13 ed 86 3d ac 3f 2f bd a0 aa 66 bd 20 96 97 3d
       0.06588187 -0.04278533 -0.056315064 0.07401681
000200 46 bc 38 3d f2 4e 01 3e bb d4 b4 3b 3e db 5e 3d
       0.045101427 0.12627771 0.0055185235 0.054408304
000210 2f 23 1d 3b e5 47 bd 3d c1 d7 70 3c fc 8a 54 3d
       0.002397727 0.092422284 0.014699877 0.05189036
000220 5f b1 6e 3d d4 18 ec 3d 74 3a 00 3e 0f 1d 88 3b
       0.058274623 0.11528173 0.12522298 0.0041538547
000230 ad f2 1e bd af 42 2e 3d ae 5d 2f 3c f9 71 da bc
       -0.038805652 0.042544063 0.010703487 -0.026665675
000240 80 4c f0 3d 52 69 b6 bc 2b 08 4c 3c 5f 6f 8d 3d
       0.11733341 -0.022267018 0.012453119 0.06906008
000250 4b 3f 92 bc 43 28 44 bd ce e7 e2 bc cc 89 06 bd
       -0.017852446 -0.04788996 -0.027698424 -0.032846257
000260 42 32 07 3e a3 cd bf 3d 47 a3 85 3d ce 3c d7 3d
       0.13202766 0.09365394 0.06525283 0.105096444
000270 e9 d1 9a 3d c5 ea c8 3d 0c d6 4a 3d f5 40 96 bc
       0.075595684 0.09810404 0.049520537 -0.01834152
000280 f2 74 a0 3d d9 9e 78 bc 6c 01 23 3d 07 d4 1e 3b
       0.078348055 -0.015174591 0.039796278 0.0024235265
000290 90 ba b3 3d 11 e6 f3 bc cb ea 4f 3d 21 b5 35 bd
       0.08775818 -0.02977279 0.050761025 -0.04436219
0002a0 4f 07 72 3d 5b 82 a8 3d 00 e2 87 3d be c8 d4 3d
       0.059089 0.08227988 0.06634903 0.10389851
0002b0 24 3d 00 bd ea 5c cc 3d 87 d5 cb bc 04 7e ea 3c
       -0.03130831 0.099786595 -0.024882091 0.028624542
0002c0 d1 be 89 bd 83 91 2f 3d ef 4a c9 3d 30 a6 ab bd
       -0.067258485 0.04286338 0.098287456 -0.08381307
0002d0 6a 03 05 3d d7 6d 02 3c 3d 04 66 3d e2 4c cb bc
       0.03247396 0.007960758 0.056156386 -0.024816934
0002e0 c8 94 8d 3d 04 e7 74 bb 75 45 e9 3c b2 fe fc 3d
       0.069131434 -0.0037369141 0.028475503 0.12353267
0002f0 a6 10 b8 3d ac ef 49 bb 76 4b 74 3b e5 24 79 bc
       0.089875504 -0.0030813022 0.0037276424 -0.01520655
000300 c6 23 7b bd 69 af 99 bc 28 88 92 3d e9 48 b9 3c
       -0.061313413 -0.0187604 0.07154876 0.022617774
000310 1b ba a1 3d 0c 4f 85 bd d4 c0 9e 3d 80 2c 84 bd
       0.07896825 -0.065092176 0.07751623 -0.064538
000320 21 ab 37 3d 68 e8 05 bd 4c a3 b7 3c 71 28 66 bb
       0.044840936 -0.032692343 0.022416733 -0.003511932
000330 94 87 12 bd ef 9c e3 3d fa 6a ac 3d 3d de 45 bc
       -0.03577383 0.11113917 0.08418842 -0.0120769115
000340 dc cb 80 3d 28 f0 07 3c 93 68 9d bc e5 e0 55 bc
       0.06288883 0.008297004 -0.019214904 -0.013054107
000350 bc d3 59 bc 1b 56 a1 bc 78 37 09 3e 4f 29 f5 3d
       -0.01329511 -0.019694379 0.13400066 0.119707696
000360 53 31 28 3d 74 9c e7 bc 1c a1 e6 3c af 3e 6d 3c
       0.041062664 -0.028272845 0.028152995 0.014480277
000370 48 8d 62 3d 2c 10 4d bc fb b4 1c bd 88 55 f4 3d
       0.055310518 -0.012516063 -0.038258534 0.11930376
000380 56 bb df 3d 66 0b 4e 3d 49 bb 9c 3c 02 f8 41 bd
       0.10924403 0.05030384 0.019132273 -0.04735566
000390 29 a6 a5 3d 81 03 13 bd 9d bd 83 3c 6f 5c ac 3c
       0.08088333 -0.035892013 0.016081626 0.02104017
0003a0 d0 f2 82 3d 61 9b 1d 3c 6a 55 aa 3d f5 b5 db bc
       0.06393969 0.009619565 0.08317073 -0.026820162
0003b0 d6 49 04 3d 71 b0 b7 3d 0e e5 53 bd 1e 61 55 3d
       0.032296978 0.089692004 -0.051732115 0.05209457
0003c0 53 1c 89 3d da 6e 89 bc 51 87 50 bd 1d 9d 10 bd
       0.066948555 -0.016776491 -0.050910298 -0.035306085
0003d0 6b 12 03 3e 8e f5 dd 3c 3b fd 25 3d 8a 17 23 3d
       0.12799995 0.027094629 0.040524703 0.03981737
0003e0 13 4d 6f 3d 05 cd 0b bd 1b f9 a1 3d 4f 31 82 3d
       0.058423113 -0.03413107 0.07908841 0.06357061
0003f0 23 90 c9 3d c0 cf df 3a ef 25 d8 bc cd 0e b8 3d
       0.09841945 0.0017075464 -0.026385276 0.08987198

fc.2.weight f4 [169, 338]
000000 e9 a1 02 3b 36 eb fc bd 28 09 83 bd c5 ca 9d bd
       0.0019932932 -0.123495504 -0.06398231 -0.07704691
000010 8b 37 89 3b 9a 57 85 3c 93 93 07 3d 85 64 98 bd
       0.0041875294 0.016277123 0.033099722 -0.074410476
000020 bc 16 9e bd b1 8d ef bd 95 87 bc bd ea fe b4 bc
       -0.0771918 -0.11696947 -0.09205548 -0.022094209
000030 a1 f2 03 bd 95 7f cd 3c 16 6e 83 bd 3f 96 29 bd
       -0.03221381 0.02508525 -0.064174816 -0.04140305
000040 9a a7 a9 3d 9d af ee 3b d0 71 06 3d 9a 2a 14 bc
       0.082839206 0.0072841183 0.032823384 -0.00904336
000050 45 90 e1 3d 04 7c df bd 5f 01 73 bd 64 87 df 3d
       0.11013845 -0.10912326 -0.05932748 0.109144956
000060 81 97 7c bd d1 81 d6 3d 34 53 75 bd 70 49 e1 bc
       -0.061667923 0.10473979 -0.0598938 -0.027500838
000070 38 85 6e bd 64 71 11 bd 3e bd 63 3d 03 2a a2 bd
       -0.058232516 -0.03550853 0.055600397 -0.07918169
000080 a4 b3 ac bd 8f 34 1d be dd e9 88 bd 82 a1 30 3c
       -0.08432701 -0.15352081 -0.06685231 0.010780694
000090 3e a8 64 bd 03 b5 5f bc aa ce eb bc c4 94 ad bd
       -0.05582451 -0.013653996 -0.028785069 -0.084756404
0000a0 c0 76 9f bd 5a 01 88 bb 45 96 e6 bd b9 62 45 bd
       -0.07786322 -0.0041505517 -0.112591304 -0.048189852
0000b0 ae 2e 5b 3d 1b e6 1d be f9 b8 21 3c 80 fd 4d 3b
       0.053511314 -0.1541981 0.009870761 0.0031431615
0000c0 03 a8 1b be 47 12 1c 3d 44 d3 ad bd f9 ab 16 3a
       -0.1520081 0.038103368 -0.08487561 0.0005747672
0000d0 17 07 9d 3d af 28 25 bd 4f e9 f5 bd 69 a1 da bd
       0.07667368 -0.040322002 -0.12007391 -0.10675318
0000e0 e8 48 ce bd 59 ff c3 bd b1 00 d2 3c fe 9f b8 bd
       -0.100724995 -0.09570188 0.025635095 -0.09014891
0000f0 c8 46 8a bd 6e 39 73 bc 9b 77 85 bd 53 20 84 bc
       -0.06751782 -0.014845235 -0.065169536 -0.016128695
000100 c4 aa 4e 3d 46 da 51 bc cc 07 93 3d b8 ea 16 bc
       0.050455824 -0.012808388 0.071792215 -0.009211235
000110 b9 09 2d bd 23 b3 f5 bc 37 a5 89 bd 2a b9 ac 3c
       -0.0422456 -0.029992646 -0.06720965 0.021084387
000120 de 31 2c bc 6d 59 36 bd 45 f6 96 3d 9d 05 f1 3d
       -0.010509936 -0.044518877 0.07371191 0.11768649
000130 b2 75 5b bd ff 55 03 3c c0 5a ce bc e0 e3 fb 3c
       -0.05357904 0.008016109 -0.025189757 0.030748308
000140 c9 6e b3 3d 90 f5 dd 3b 92 ab c2 bc 90 1e af bd
       0.08761365 0.006773658 -0.023763452 -0.08550751
000150 ed b1 d4 bc 6d 06 23 3d 30 5d 53 bd c7 66 c5 3d
       -0.025963748 0.03980105 -0.051602542 0.09638744
000160 d1 60 4b 3d cb 7e bb bd 11 ff 84 3d c6 d7 1c bd
       0.04965288 -0.09155043 0.064939626 -0.038291715
000170 5c aa fb 3d e2 f7 82 3b 35 ae c0 bd 5c fc 1f 3d
       0.12288353 0.003996835 -0.09408227 0.039059028
000180 cc fe d6 3c 4c 2a dd bc 9a f5 4e bd 7d f5 cc 3d
       0.026244543 -0.026997708 -0.050527193 0.10007761
000190 15 e5 48 3b c0 b0 44 bd 8f a3 cb 3c 34 33 c5 bd
       0.0030654122 -0.048020124 0.024858264 -0.09628907
0001a0 0d a0 a8 bd cd 56 fc 3d 82 af fa bd 8a ba cc 3b
       -0.08233652 0.123212434 -0.12240507 0.006247823
0001b0 12 c9 77 bd 8a 66 75 bd 32 25 91 bb c8 95 eb 3c
       -0.06049449 -0.059912242 -0.004429483 0.028757945
0001c0 06 a2 37 bd d4 d4 7a bd bf ce ce bd c7 4c 2f bd
       -0.044832252 -0.061238125 -0.100980274 -0.04279783
0001d0 be 4b c6 3d 38 a2 bb bd 7e 80 ae bd 7b 2c b5 3d
       0.096824154 -0.091618 -0.08520602 0.088463746
0001e0 76 14 b1 bd 25 27 56 bd 56 76 64 3d 61 ea 2a 3c
       -0.08646481 -0.052283425 0.055776916 0.010431857
0001f0 8d 70 ee 3b e2 84 58 3d 1b 31 73 bc 0a 67 cf bd
       0.0072766007 0.052861102 -0.014843251 -0.10127075
000200 a8 25 82 3b 9f 81 a5 3d d8 2c 1a bd 18 f1 aa 3d
       0.003971774 0.08081364 -0.037640423 0.08346766
000210 88 1d 39 3d c7 9d 06 3d b1 ae 8c bd 8a 7b b4 3d
       0.04519418 0.032865312 -0.06869257 0.08812626
000220 fb ed 92 bd c6 e0 1c bd 0b ce f3 bd a9 a8 30 bd
       -0.071742974 -0.0383003 -0.11904534 -0.043129597
000230 85 e5 f3 3c 81 9e 33 bd e4 85 70 3d af ac 7f 3d
       0.02977253 -0.043852333 0.058721438 0.062420543
000240 17 9a 9e bd 89 ce 22 3b fa ff d6 bc 02 02 82 3c
       -0.07744234 0.0024842343 -0.026245106 0.015870098
000250 38 63 28 bd d3 4d 84 3c 76 9d ba 3d b7 46 91 bb
       -0.041110247 0.01615039 0.091120645 -0.0044334787
000260 3e a0 f4 bd e0 91 76 3d c1 2f 53 bc 05 54 ab 3c
       -0.11944626 0.06019771 -0.012889803 0.020914087
000270 7a 63 3b 3d 99 05 d2 3c a7 2b fc 3c 2f 91 6e bd
       0.045749165 0.025637435 0.030782534 -0.058243927
000280 59 55 32 3d 8f 3b 46 bd 79 8d ed 3c 2f be 79 3c
       0.043538425 -0.048396643 0.028998123 0.015243097
000290 e7 5b 04 3d 32 e5 89 bd 12 e2 11 bd 46 04 32 3d
       0.032314207 -0.06733169 -0.035615988 0.043461107
0002a0 7c 7e 6d 3d cc 66 e9 3c 97 b9 55 3c c3 73 2e 3b
       0.057981953 0.0284914 0.013044736 0.0026619292
0002b0 48 4c 0b 3c 6c 67 cc 3d 35 91 98 bb fc 79 84 bd
       0.008502074 0.09980664 -0.004655982 -0.06468579
0002c0 48 d5 8a 3d 11 f6 37 3d 8d 46 5c 3d 49 0a ba bd
       0.067789614 0.0449124 0.05377822 -0.09083993
0002d0 14 8b 7b bd 3a 33 1c bd 16 90 cc 3c 91 66 e2 3d
       -0.061411932 -0.03813479 0.02497105 0.11054719
0002e0 e5 ad c4 bd 5e ed 73 bd cf f8 81 3d 76 a3 ed bd
       -0.0960348 -0.059552543 0.063462846 -0.11603443
0002f0 15 22 0c 3d 0c 1f ab bd 62 35 79 3d 9c bd cf 3d
       0.03421219 -0.08355531 0.060841925 0.10143587
000300 b8 83 d1 3d 88 be de bd ae a4 cc bb c9 45 bf bd
       0.102302015 -0.10876185 -0.0062452173 -0.09339482
000310 2e 4e 17 3d ae c1 ad ba f6 a7 ab 3d d5 c9 9e 3d
       0.036939792 -0.0013256574 0.083816454 0.0775334
000320 63 94 bb 3d 56 8d 00 bd ed 6b d8 bc b2 35 4d 3d
       0.09159162 -0.03138479 -0.02641865 0.050100036
000330 f8 eb af be c8 79 6d 3c 45 05 4c 3d 81 10 8b 3c
       -0.34359717 0.014494367 0.049809713 0.016975643
000340 e5 49 8a 3d d4 96 c8 bd d0 24 d9 3c 3d 2e c7 bd
       0.067523755 -0.09794393 0.026506811 -0.09725616
000350 2e 3a 80 bd 77 01 78 bc ea c5 d9 bd 77 7e 33 3d
       -0.06261097 -0.015137068 -0.10633452 0.04382178
000360 fc 80 cb ba e6 f6 f5 3c c3 39 b4 bd c2 d2 52 3d
       -0.0015526111 0.030024957 -0.0880008 0.051470526
000370 b3 83 81 bd 3b 4b cb bd 97 7c d7 bd c9 93 91 bd
       -0.06323948 -0.099264584 -0.105218105 -0.07108266
000380 24 2a b5 3b 34 c8 2e bc 65 c2 d1 bc c8 8d a5 bd
       0.005528705 -0.010667849 -0.02560539 -0.08083683
000390 27 4c d9 bd e3 c8 53 bd fb b0 79 bd 2d 11 eb bd
       -0.10610228 -0.051705252 -0.060959797 -0.114778854
0003a0 21 3c 37 3d 99 ef c5 3d 74 6c d0 bd 81 90 29 be
       0.044735078 0.0966484 -0.10176936 -0.1655903
0003b0 aa f4 95 3d 96 bf ed 3d 41 ae 2b 3c d7 b6 49 bb
       0.073220566 0.11608808 0.010478557 -0.0030779147
0003c0 98 b0 77 3c e7 dd 84 bd 66 37 4f 3d 6e 21 84 bd
       0.015117787 -0.06487637 0.05058994 -0.06451689
0003d0 4a 60 b3 3d ed d1 25 3d d8 76 57 bd 3b b2 b1 3d
       0.087586 0.040483404 -0.052603573 0.08676573
0003e0 2d d3 86 bd 28 0b 53 3d 02 09 69 3c 1e f4 d7 3d
       -0.06583247 0.05152431 0.014223339 0.105446085
0003f0 6a 8b eb bd e1 10 b1 bd db 6c a8 bd 1c 11 81 bb
       -0.115012005 -0.086457975 -0.082238875 -0.003938807

fc.2.bias f4 [169]
000000 3e 85 57 bd 85 1a 3a 3d a9 09 9f bc c4 55 9f bd
       -0.052617304 0.045435447 -0.019413786 -0.0778003
000010 b6 7a 96 bc 2c 00 03 bd e2 fe a2 bc 55 26 6d bc
       -0.01836906 -0.031982586 -0.019896928 -0.014474471
000020 43 f3 da 3c d3 b3 3b 3a de a4 5f 3c 4d 09 b5 bd
       0.026727324 0.000716028 0.013650147 -0.088396646
000030 dd 17 16 3d b3 b9 b7 bc e6 c5 df 3b bd c0 ed bc
       0.03664385 -0.022427415 0.0068290113 -0.029022569
000040 5e b1 8f 3b d4 cc 46 3c a1 0b 00 bd c5 b1 65 3d
       0.0043851575 0.012133796 -0.03126109 0.056077737
000050 b9 eb 3b bd 6e 4d b1 3c 1c 4e be 3c e6 c1 a6 3c
       -0.0458791 0.021643367 0.023230605 0.02035613
000060 eb 7b 0a 3d fd ef 33 bb 83 f9 05 3d 1a f8 74 3c
       0.033809584 -0.0027456277 0.032708656 0.01495173
000070 21 3f b4 bd eb b6 5f bc 8e ad df bc 7e 98 0f 3c
       -0.088011034 -0.013654451 -0.027304437 0.008764384
000080 26 20 49 3d 77 fb 23 3b a6 fa b0 3a ed 66 c5 3c
       0.049102925 0.002502171 0.0013502433 0.02409693
000090 7c 96 0f ba 0c 92 47 3d 9e ba 04 3d 75 1a 86 bc
       -0.0005477441 0.048723266 0.032404535 -0.016370038
0000a0 fe 9e 43 bd 06 e4 06 bd 75 a6 2d bc f4 54 07 3d
       -0.04775905 -0.032932304 -0.0105987685 0.033040002
0000b0 53 7f f5 bc dc a0 f7 bb b0 ea a4 bd 8d 66 7a 3d
       -0.02996794 -0.0075570177 -0.080525756 0.061132956
0000c0 24 01 1e bd b2 48 29 bd b6 cd b8 3c 61 87 0b 3d
       -0.038575307 -0.041329093 0.022559028 0.034064654
0000d0 87 40 55 3c 4c 9a e2 bc 7d 86 07 bd a8 46 3d bc
       0.013015873 -0.027661465 -0.033087242 -0.01155249
0000e0 c5 10 a1 bc be ba 37 3c 82 26 87 bc 41 1d 16 3c
       -0.019661317 0.011213956 -0.016497854 0.009162248
0000f0 19 fd 89 3c 1f 5a 82 bc a1 67 08 3d a9 f1 7c 3b
       0.01684432 -0.015912114 0.033301953 0.003859619
000100 c7 d7 63 bd be 23 d0 bc 35 ff c2 3c 51 5c bf bb
       -0.055625703 -0.025407668 0.023803333 -0.0058398624
000110 db 0f 27 bc b0 a7 54 bc 8d ca 09 3d 80 a7 63 bc
       -0.010196651 -0.012979433 0.033640433 -0.013894916
000120 76 f4 ed bb fd 65 a7 b8 3e 1c 56 bc 0b 3c ca 3b
       -0.007261808 -7.982177e-05 -0.013068257 0.0061717085
000130 9a 0d 01 3d 74 b6 6a 3d 0e bc 86 3b 77 27 01 3d
       0.031507112 0.057302907 0.0041117733 0.031531777
000140 93 c7 0c bd 02 ed 06 3c 2b 1a 78 3c cf 27 06 bc
       -0.034370016 0.008235218 0.015142958 -0.008188202
000150 65 65 db bc 8b 9a 68 3c ae be b3 bc 3f 93 99 3d
       -0.026781747 0.014197002 -0.02194151 0.07498788
000160 b4 70 f6 bb 69 3a f3 bc 38 9a 9f ba f8 c3 0d bd
       -0.0075207595 -0.029690938 -0.0012176698 -0.03461072
000170 66 a9 70 bd d2 0a 14 3c fd 86 37 bd 63 d9 42 bb
       -0.0587553 0.009035783 -0.04480647 -0.0029731623
000180 bd 46 8f 3c ec d4 6c bd 2f 9a 3b bd e8 74 1c 3d
       0.017489785 -0.057820246 -0.045801338 0.038197428
000190 61 97 bc bc 57 69 20 3d 0c 51 91 bd 10 ea 6f 3d
       -0.023021402 0.03916296 -0.070955366 0.05857283
0001a0 0f cf 1d bc df bc 32 bc f2 ae 23 bd 59 5d 50 bd
       -0.009631886 -0.010909288 -0.039961763 -0.050870273
0001b0 87 15 a1 3b d7 41 f7 3c af 07 14 3d 17 31 1a bd
       0.0049158963 0.030182762 0.03614014 -0.037644472
0001c0 cb fa 9f bd a3 f6 1a bc 91 93 b4 3c bf 74 7d bd
       -0.07811507 -0.009458217 0.022043021 -0.061878916
0001d0 07 11 5d bd d8 5f 99 bc b7 c3 e9 bc 5f 2c a0 bd
       -0.053971317 -0.01872246 -0.028535707 -0.07820963
0001e0 0f 1c 44 bb 2b 02 26 3c d3 b2 8d bc d0 01 70 bc
       -0.002992395 0.010132353 -0.017297184 -0.01464887
0001f0 a3 31 f0 ba da 2c da bc 3e 7a 90 bd a5 46 08 bd
       -0.001832534 -0.026632715 -0.07054566 -0.033270497
000200 ce c5 0f 3d 93 34 ba 3c 5c 61 b2 bd 01 44 c3 3c
       0.03510075 0.022730147 -0.08709976 0.023836138
000210 7e f7 d5 bc ab bb c9 bc 87 cb 7e bd e9 a0 a7 bb
       -0.02611899 -0.02462562 -0.062205818 -0.0051156175
000220 ae 98 95 bc d2 30 f1 3c c4 74 3e bd 49 06 a1 bc
       -0.01826128 0.029442225 -0.046498075 -0.019656317
000230 11 4b 44 bd 97 c8 ca bc e6 e7 b6 bc 1f e3 cc bc
       -0.04792315 -0.024753852 -0.022327375 -0.025010644
000240 9a e2 54 3d 8d df 49 bb a5 29 f3 3b 93 fd 12 bc
       0.051973917 -0.0030803413 0.007420736 -0.00897159
000250 b2 fe 8e bc ac c2 85 bc c9 4f a4 bc b5 57 a0 3c
       -0.017455433 -0.016328178 -0.020057576 0.019573072
000260 34 61 c3 bd a4 af d6 3c b3 43 85 ba b5 5d 36 3d
       -0.095400244 0.026206799 -0.0010167271 0.04452296
000270 19 de 1f bc e1 29 c6 bc f8 cd 0f bd b7 43 2f bd
       -0.009757542 -0.024189891 -0.035108536 -0.042789187
000280 34 5e f6 3b aa b0 95 bc db e0 c5 bd 67 79 6a 3d
       0.007518554 -0.018272717 -0.096620284 0.057244685
000290 2a ad ba 3c 38 cf 7a 3d 3b aa b3 bd 62 33 20 bc
       0.02278765 0.061232775 -0.08772703 -0.009777876
0002a0 65 24 88 bb
       -0.004154729
