inventory/model.pth (torch, 535249 bytes, 16 tensors)

conv.0.weight f4 [32, 3, 5, 5]
0.11342817 -0.06829906 -0.005157509 0.044531334 -0.00448635 -0.09522748 -0.050461277 0.050403543
-0.002105807 -0.01733566 0.001269948 -0.0064101005 -0.050050426 0.108750254 0.07708264 0.11519819
-0.046441972 0.08027495 -0.049909964 -0.06892059 -0.002339129 0.10551903 -0.017365953 0.025346534
-0.10308475 0.0967649 -0.059410222 -0.07564006 0.07785095 -0.06324823 0.004309217 0.08540368
-0.06562654 0.011518634 -0.044338804 -0.100363545 -0.029643161 0.08744582 -0.057349384 -0.09906936
-0.065256976 -0.08340281 0.068818435 -0.062762246 0.06733501 -0.08929972 0.0128599955 0.077236176
-0.07018648 -0.03906763 -0.048402146 -0.07559952 0.07156757 0.056371137 0.056645334 -0.096842974
-0.0238361 0.09497141 0.10887313 -0.06889935 -0.04108956 -0.027106144 0.052504268 -0.018260276
-0.09491863 -0.030178504 -0.07646878 -0.038725168 -0.09024156 0.032186568 -0.03379164 -0.15335906
0.0025750035 -0.048645057 -0.12535997 -0.04356769 0.11312409 0.049935915 0.052880406 0.08124702
0.035841968 -0.016206563 -0.07796766 -0.0022621579 -0.013660578 0.14198355 -0.011250304 0.06920726
0.06374548 0.1208953 -0.061595067 0.03822556 0.07982007 0.033960663 0.030022936 0.14875908
0.1424097 0.017249959 0.03840362 0.09614378 -0.04688772 0.08916565 -0.08485155 0.03909455
-0.016366292 0.021223877 0.07554102 -0.09746677 -0.04602791 -0.030849742 0.061532777 -0.068075396
0.036919784 -0.14950208 0.04714792 -0.04461653 -0.022284692 -0.03901067 0.00990521 0.0028252625
-0.08684718 0.08504427 -0.15334822 0.049623463 -0.028734757 -0.008831176 0.10722911 0.002438981
-0.0025104266 0.111576386 -0.058570165 -0.086958006 0.028747408 0.020081002 0.07961646 0.104598545
0.039275818 0.04220725 -0.01529743 0.103477836 0.028250981 -0.117038175 0.040128153 -0.08489483
-0.0016123753 0.010719483 -0.047837313 -0.01020169 0.05032946 0.02999199 0.10003964 0.10959502
0.010603275 -0.070384696 -0.023912292 -0.05117163 0.036947694 -0.12161727 0.028480776 -0.08814358
0.102393776 0.055105142 -0.050178126 -0.04569365 -0.059951916 0.06441346 0.033622965 -0.0014446755
0.08972857 0.07903966 -0.011041335 -0.046763096 0.058159716 0.04690523 -0.02899674 -0.0639979
0.0360546 -0.05365272 0.047135264 -0.07956948 0.045152098 0.0668645 -0.10197435 -0.007350306
-0.09170836 0.0436862 -0.027107833 -0.06669042 0.029326728 -0.10998244 -0.010240268 0.036663286
-0.09742304 0.045054194 -0.07368041 0.030522944 0.045813326 -0.11155605 -0.09213956 0.0785727
0.014141773 0.04086191 0.037335575 -0.007803098 -0.028044688 -0.023051554 0.05390961 0.011328506
-0.05745703 -0.110784404 0.06804402 0.11143645 0.022501225 0.014707653 0.07605287 0.09749274
0.086798236 0.03792871 0.04082029 -0.04611031 0.06688967 -0.024104413 0.074531086 0.030448362
-0.10371497 0.08958286 0.010208262 -0.030386664 0.07095892 -0.123592295 0.10432894 -0.068904474
0.058228645 -0.020976355 -0.075712055 -0.07226654 0.07637834 0.04025819 0.105178125 0.08821462
-0.049356695 0.11022127 0.106382 -0.08737644 0.11167593 0.08120314 0.054362703 -0.06968805
-0.013188328 0.037339352 -0.047311906 -0.022245595 0.05980882 -0.092545874 -0.13173863 -0.06380036
00000000: 074d e83d 61e0 8bbd 5200 a9bb 7d66 363d
00000010: 3b02 93bb a006 c3bd 7cb0 4ebd f273 4e3d
00000020: 9401 0abb 8403 8ebc 6274 a63a d20b d2bb
00000030: ad01 4dbd 74b8 de3d 81dd 9d3d 07ed eb3d
00000040: f039 3ebd 3167 a43d 646e 4cbd 3d26 8dbd
00000050: 134c 19bb 5c1a d83d 0b43 8ebc 89a3 cf3c
00000060: 191e d3bd ad2c c63d 2258 73bd 2de9 9abd
00000070: 5270 9f3d 4a88 81bd 5534 8d3b 20e8 ae3d
00000080: 3567 86bd a7b8 3c3c 9b9c 35bd 678b cdbd
00000090: 37d6 f2bc cb16 b33d 30e7 6abd e0e4 cabd
000000a0: 73a5 85bd 18cf aabd aef0 8c3d 7e89 80bd
000000b0: f0e6 893d c6e2 b6bd bbb2 523c 002e 9e3d
000000c0: eebd 8fbd 6105 20bd 5441 46bd ecd3 9abd
000000d0: 0592 923d 6ce5 663d f004 683d 9c55 c6bd
000000e0: ed43 c3bc 5f80 c23d e0f8 de3d 1a1b 8dbd
000000f0: 874d 28bd b40d debc b70e 573d 9396 95bc
00000100: b364 c2bd e938 f7bc aa9b 9cbd 489e 1ebd
00000110: 91d0 b8bd 10d6 033d 1a69 0abd 280a 1dbe
00000120: 64c1 283b 0a40 47bd 5d5e 00be 0974 32bd
00000130: 9aad e73d 9a89 4c3d 2099 583d d664 a63d
00000140: 07cf 123d a0c3 84bc 82ad 9fbd b640 14bb
00000150: 9ed0 5fbc 2364 113e 3253 38bc 89bc 8d3d
00000160: fd8c 823d f497 f73d 1c4b 7cbd 6892 1c3d
00000170: b478 a33d 561a 0b3d a9f2 f53c 4d54 183e
00000180: d9d3 113e c94f 8d3c 1d4d 1d3d 08e7 c43d
00000190: 560d 40bd 7b9c b63d a6c6 adbd 9b21 203d
000001a0: 9a12 86bc b2dd ad3c 40b5 9a3d a89c c7bd
000001b0: c387 3cbd 99b8 fcbc cb09 7c3d 1d6b 8bbd
000001c0: 3339 173d 1317 19be 2d1e 413d d3bf 36bd
000001d0: 638e b6bc a7c9 1fbd 7649 223c 0a28 393b
000001e0: efdc b1bd b12b ae3d 5107 1dbe f941 4b3d
000001f0: 2765 ebbc a3b0 10bc f09a db3d 50d7 1f3b
00000200: f885 24bb 2982 e43d 45e7 6fbd 0a17 b2bd
00000210: af7f eb3c ea80 a43c f40d a33d c337 d63d
00000220: aedf 203d 82e1 2c3d 12a2 7abc 30ec d33d
00000230: 9a6e e73c b6b1 efbd 6b5d 243d 57dd adbd
00000240: 5656 d3ba c5a0 2f3c 0ff1 43bd fd24 27bc
00000250: 4426 4e3d c3b1 f53c 95e1 cc3d 5b73 e03d
00000260: 5cb9 2d3c da25 90bd b6e3 c3bc 5899 51bd
00000270: 7756 173d 7a12 f9bd 8450 e93c 9f84 b4bd
00000280: d4b3 d13d eeb5 613d 9487 4dbd 4429 3bbd
00000290: 2490 75bd 34eb 833d 3cb8 093d 445b bdba
000002a0: 9dc3 b73d 8cdf a13d b7e6 34bc a98a 3fbd
000002b0: e238 6e3d b31f 403d 928a edbc 5511 83bd
000002c0: fdad 133d f4c2 5bbd e810 413d 53f5 a2bd
000002d0: 68f1 383d 41f0 883d eed7 d0bd d6da f0bb
000002e0: 98d1 bbbd 4df0 323d 3f11 debc fd94 88bd
000002f0: 9b3e f03c 793e e1bd ccc6 27bc 3e2c 163d
00000300: bb85 c7bd bf8a 383d c1e5 96bd 410b fa3c
00000310: c1a6 3b3d 8077 e4bd aab3 bcbd b9ea a03d
00000320: e5b2 673c d15e 273d 30ed 183d 21b1 ffbb
00000330: f9bd e5bc 9dd6 bcbc 53d0 5c3d 339b 393c
00000340: 1058 6bbd efe2 e2bd aa5a 8b3d cb38 e43d
00000350: 7d54 b83c 5ef8 703c 9bc1 9b3d 46aa c73d
00000360: 46c3 b13d 235b 1b3d 2d33 273d 2ade 3cbd
00000370: 74fd 883d 9e76 c5bc c1a3 983d d86e f93c
00000380: 8468 d4bd 3877 b73d 8e40 273c 74ed f8bc
00000390: e952 913d f51d fdbd 69aa d53d ca1d 8dbd
000003a0: 2981 6e3d 9bd6 abbc ec0e 9bbd 7b00 94bd
000003b0: 3f6c 9c3d c6e5 243d a167 d73d dea9 b43d
000003c0: 3f2a 4abd b0bb e13d cede d93d 6bf2 b2bd
000003d0: 5ab6 e43d d54d a63d 6dab 5e3d 9cb8 8ebd
000003e0: db13 58bc 26f1 183d 21ca 41bd 653c b6bc
000003f0: 18fa 743d b188 bdbd 7ee6 06be c3a9 82bd

conv.0.bias f4 [32]
-0.038913734 -0.099595636 -0.11105745 0.044148017 0.036930896 -0.10272597 -0.011937684 -0.0023046338
-0.0093412185 -0.044999376 0.11054716 -0.10123798 0.025092136 0.055491675 -0.014234333 0.04665458
-0.094243154 -0.062421575 0.044394225 -0.0088299345 0.058853738 0.020797113 0.09502303 0.06936456
-0.010881605 -0.07029 0.06876309 0.067651495 -0.11538088 0.04904849 -0.08456405 -0.013589205
00000000: 0264 1fbd ccf8 cbbd 1772 e3bd 8dd4 343d
00000010: da44 173d fe61 d2bd 4796 43bc 5709 17bb
00000020: e90b 19bc 4451 38bd 8d66 e23d dc55 cfbd
00000030: 068e cd3c 3d4b 633d 1f37 69bc df18 3f3d
00000040: 8e02 c1bd c4ad 7fbd b8d6 353d 6eab 10bc
00000050: 9e10 713d b55e aa3c 6f9b c23d 020f 8e3d
00000060: c248 32bc 34f4 8fbd aad3 8c3d de8c 8a3d
00000070: d04c ecbd 12e7 483d eb2f adbd 42a5 5ebc

conv.1.weight f4 [32]
1.0098779 0.9662051 0.96197313 1.0130193 0.9944696 0.974986 1.0156326 1.0590782
0.98618305 0.99827754 1.0065219 0.98960674 1.0326983 1.0325382 0.96659505 1.0352316
1.0065256 1.036702 0.9590986 0.99271727 1.0092049 0.95878124 0.97058994 1.0386794
1.0149156 0.99845916 1.0452687 0.99210864 0.9857494 0.99534905 1.0110891 0.99685967
00000000: ae43 813f 3859 773f df43 763f 9eaa 813f
00000010: 8f95 7e3f af98 793f 4000 823f e08f 873f
00000020: 7e76 7c3f 1e8f 7f3f b6d5 803f de56 7d3f
00000030: 752f 843f 362a 843f c672 773f 7882 843f
00000040: d5d5 803f a7b2 843f 7c87 753f b822 7e3f
00000050: a02d 813f b072 753f 9578 783f 72f3 843f
00000060: c1e8 813f 059b 7f3f 5dcb 853f d5fa 7d3f
00000070: 135a 7c3f 32cf 7e3f 5e6b 813f 3232 7f3f

conv.1.bias f4 [32]
-0.059802745 -0.015815413 -0.033984162 -0.0110793095 -0.088181175 -0.08131652 -0.0805663 -0.050142277
-0.043730903 -0.02000339 0.0006596282 -0.0065745483 -0.012012126 0.022667639 0.005684464 0.027380764
0.011513728 0.00868237 -0.0070998725 -0.029598951 -0.0021615159 -0.036762394 -0.05853083 -0.025852924
-0.0058633545 0.012612002 -0.03658602 -0.041167676 0.023816269 -0.028170807 -0.015356164 -0.041443005
00000000: b9f3 74bd 538f 81bc fa32 0bbd fe85 35bc
00000010: 5598 b4bd 4789 a6bd f2ff a4bd fd61 4dbd
00000020: 2d1f 33bd 26de a3bc e6ea 2c3a 4f6f d7bb
00000030: 82ce 44bc 7cb1 b93c bd44 ba3b a04d e03c
00000040: 13a4 3c3c 8040 0e3c 0ca6 e8bb 8079 f2bc
00000050: 38a8 0dbb 2a94 16bd 06be 6fbd 83c9 d3bc
00000060: 6221 c0bb 92a2 4e3c 39db 15bd 709f 28bd
00000070: 561a c33c 77c6 e6bc 6c98 7bbc 24c0 29bd

conv.1.running_mean f4 [32]
-0.46513894 0.35359418 -0.020161679 -0.03175958 0.108927414 0.23625626 0.048088532 -0.024372388
0.074369885 0.009706599 -0.28261083 0.32389614 0.13163732 0.07692015 0.2573154 -0.010135855
-0.28992772 -0.0606111 -0.51786876 0.014272951 -0.049510587 0.42461932 -0.14032626 -0.11646604
0.059098464 -0.6611004 0.12284061 -0.46462438 -0.46944523 0.3173652 -0.15275502 -0.029690722
00000000: b126 eebe 4c0a b53e 1b2a a5bc 5516 02bd
00000010: 5615 df3d 29ed 713e 7bf8 443d 9aa8 c7bc
00000020: 3d4f 983d 6d08 1f3c 5eb2 90be b7d5 a53e
00000030: efcb 063e 5088 9d3d d8be 833e db10 26bc
00000040: 6871 94be 5843 78bd 0c93 04bf 18d9 693c
00000050: 9dcb 4abd b467 d93e b0b1 0fbe bf85 eebd
00000060: 3b11 723d e03d 29bf dc93 fb3d 3fe3 edbe
00000070: 205b f0be b17d a23e d06b 1cbe f539 f3bc

conv.1.running_var f4 [32]
0.059823222 0.060865875 0.03863137 0.016551664 0.012008349 0.031698693 0.022868808 0.010029915
0.012736754 0.014829337 0.043960806 0.054437447 0.014962296 0.015222014 0.024104007 0.016753344
0.03524627 0.008828473 0.09120754 0.016512422 0.028318742 0.05366409 0.029721174 0.026519326
0.009884834 0.08133568 0.009832521 0.07687367 0.04055667 0.047572985 0.017339885 0.016536849
00000000: 3209 753d 7f4e 793d ed3b 1e3d 5b97 873c
00000010: abbe 443c 7dd6 013d 5e57 bb3c 8354 243c
00000020: d1ad 503c bff6 723c 3f10 343d cdf9 5e3d
00000030: 6b24 753c c165 793c c475 c53c 4f3e 893c
00000040: 655e 103d 4da5 103c 05cb ba3d 0f45 873c
00000050: b5fc e73c e0ce 5b3d d279 f33c 0f3f d93c
00000060: 00f4 213c 5293 a63d 9518 213c f16f 9d3d
00000070: c01e 263d e4db 423d 600c 8e3c 4978 873c

conv.4.weight f4 [32, 32, 3, 3]
-0.054510787 -0.052755937 -0.006160366 -2.2234968e-05 -0.08218898 0.045399528 -0.01685125 0.033955146
0.06534758 0.059664436 -0.018890843 -0.03758353 -0.046719436 -0.06043358 -0.071195036 -0.054417875
-0.051320408 -0.038075346 0.025945352 0.00046814082 -0.06079416 -0.071410745 -0.045397054 -0.004169232
-0.03713094 0.0024377853 -0.021060748 -0.006437659 -0.07747878 0.015734268 0.047376327 0.004647368
-0.029838223 0.019003382 0.020602569 0.0058534387 -0.039936684 0.040911317 -0.05048728 0.03292339
0.056472898 -0.064673476 -0.011774091 0.031663522 0.045354243 0.0051566344 -0.0021058524 -0.067255996
-0.039428107 -0.053782504 0.04065378 0.046590086 0.0022420448 -0.026087921 -0.014138933 -0.0483979
0.03381088 0.031002168 0.085387506 -0.030479472 0.027367948 0.0048055295 -0.0054471474 0.008850278
0.007918436 0.018187933 0.07212521 -0.06400919 -0.06804089 -0.015692126 -0.03715598 -0.030818474
-0.048996318 -0.0040368126 -0.0064754616 -0.026422583 0.03888833 -0.023912461 0.07224944 0.037238456
-0.00022122999 0.010711775 -0.015823063 -0.009811125 -0.010198253 0.00154239 0.02892048 0.04929095
0.0007397561 -0.003456649 0.016443914 -0.05868171 -0.040367853 -0.065851144 0.0129217105 -0.032683533
0.017268285 -0.044108838 -0.032561485 0.039524887 0.010199333 0.01788536 0.054472778 0.027399408
0.016425448 0.024062848 0.0032647892 -0.012768891 -0.010066464 -0.052781943 -0.030637085 -0.015151571
0.021308959 0.011030815 0.038996965 -0.042687036 0.004936456 -0.042356066 0.09383477 -0.003451848
0.07160526 0.03591706 0.045545556 -0.015110691 0.032285877 -0.060332805 0.064253345 0.060709983
-0.019445287 -0.024120813 -0.012092769 0.015642298 -0.045397557 0.0105041675 -0.013654846 -0.02285272
-0.05657662 -0.011826122 -0.0018980722 -0.023949858 0.00559887 0.057044975 -0.073192514 -0.039812624
0.033637878 -0.007380992 0.01338336 -0.053412262 -0.02316696 -0.07941151 -0.06240632 0.028651714
0.050556395 -0.006244821 -0.078413725 -0.005419722 0.032517523 -0.015558653 -0.032931536 0.029483385
-0.008233875 -0.050656006 -0.02630224 0.025433114 -0.0027759208 0.004428894 -0.030441463 0.0086350115
0.022427248 -0.033598207 0.013390659 -0.036306426 0.07659301 0.043312013 0.0012980989 0.026841719
0.010461104 -0.05613687 -0.009329832 -0.01234932 0.012018662 -0.01891895 -0.020556984 0.02625232
0.044576954 -0.02743607 0.03878911 0.026841404 0.03531496 -0.043164138 0.03913835 0.027112609
0.016921524 0.05365495 0.032801807 0.05460271 -0.0017395668 0.026979461 -0.010817042 0.02516129
0.0067847045 -0.026671752 0.0031022334 0.050336692 0.065630294 -0.021064721 0.017463718 0.017386766
0.068060294 -0.005021307 0.09713817 0.053404115 0.065324984 0.0533761 0.067175284 0.03188769
0.047122985 0.025487663 -0.03905333 -0.06457714 -0.040614177 0.03831423 0.014297978 0.01365554
0.0004730901 0.042691678 0.03929133 -0.053866796 -0.06918272 -0.04894169 0.028837137 -0.03640579
-0.0143503 0.038345497 0.01350659 0.046638798 -0.062850125 0.042414416 -0.06459903 -0.007112256
-0.006963983 -0.055347007 0.04619 0.03932108 0.0053094453 -0.007479051 -0.029705219 0.016381929
0.009001704 0.0577114 -0.055406835 -0.014801828 -0.029166576 0.075864024 -0.0254276 0.07090159
00000000: b446 5fbd 9c16 58bd e5dc c9bb 3b85 bab7
00000010: b252 a8bd dbf4 393d a20b 8abc 8d14 0b3d
00000020: f4d4 853d b262 743d f8c0 9abc 30f1 19bd
00000030: e15c 3fbd 3489 77bd b4ce 91bd 47e5 5ebd
00000040: 5935 52bd e5f4 1bbd 598b d43c cc70 f539
00000050: 4c03 79bd cc3f 92bd 43f2 39bd 0e9e 88bb
00000060: 9d16 18bd 40c3 1f3b 9787 acbc fff2 d2bb
00000070: 32ad 9ebd 27e5 803c ae0d 423d f348 983b
00000080: 4a6f f4bc fbac 9b3c b8c6 a83c 34ce bf3b
00000090: a694 23bd a092 273d c0cb 4ebd adda 063d
000000a0: 2050 673d 8773 84bd 1ee8 40bc 9cb1 013d
000000b0: 5fc5 393d fcf8 a83b 5702 0abb 83bd 89bd
000000c0: 5e7f 21bd 0b4b 5cbd 9484 263d 3fd5 3e3d
000000d0: 45ef 123b 56b6 d5bc fca6 67bc e03c 46bd
000000e0: 477d 0a3d 42f8 fd3c a5df ae3d 16b0 f9bc
000000f0: bf32 e03c b477 9d3b fc7d b2bb c200 113c
00000100: 54bc 013c dcfe 943c 62b6 933d 4017 83bd
00000110: 0659 8bbd c68c 80bc de30 18bd 0677 fcbc
00000120: 5db0 48bd 3d47 84bb 1c30 d4bb 2c74 d8bc
00000130: 5f49 1f3d 11e4 c3bc 84f7 933d 5a87 183d
00000140: f9f9 67b9 7180 2f3c 5e9f 81bc d7be 20bc
00000150: 9316 27bc 052a ca3a a4ea ec3c 4fe5 493d
00000160: 31ec 413a f288 62bb 63b5 863c 3c5c 70bd
00000170: c358 25bd f7dc 86bd 95b5 533c 2bdf 05bd
00000180: 3876 8d3c 78ab 34bd 315f 05bd d9e4 213d
00000190: 1a1b 273c 5284 923c d91e 5f3d b974 e03c
000001a0: a98e 863c 731f c53c 13f6 553b 9c34 51bc
000001b0: cfed 24bc e131 58bd a0fa fabc 4b3e 78bc
000001c0: 2090 ae3c 97ba 343c 48bb 1f3d 9ad8 2ebd
000001d0: ffc1 a13b 8e7d 2dbd 722c c03d 6638 62bb
000001e0: c7a5 923d c41d 133d fa8d 3a3d d592 77bc
000001f0: 323e 043d 881f 77bd 4297 833d 08ab 783d
00000200: b94b 9fbc 0399 c5bc c020 46bc 4724 803c
00000210: caf2 39bd ac19 2c3c 93b8 5fbc a135 bbbc
00000220: e3bc 67bd 5ac2 41bc bcc8 f8ba 7e32 c4bc
00000230: ba76 b73b fea7 693d f5e5 95bd 9012 23bd
00000240: dfc7 093d 40dc f1bb e145 5b3c d1c6 5abd
00000250: a3c8 bdbc 80a2 a2bd c59d 7fbd 00b7 ea3c
00000260: 3914 4f3d 5ba1 ccbb 6097 a0bd ec97 b1bb
00000270: 1831 053d b8e9 7ebc 38e3 06bd 2487 f13c
00000280: 60e7 06bc ac7c 4fbd cc77 d7bc 1b59 d03c
00000290: 39ec 35bb 4120 913b 6060 f9bc dd79 0d3c
000002a0: 59b9 b73c 469e 09bd 7f64 5b3c 0cb6 14bd
000002b0: ccdc 9c3d f067 313d f924 aa3a 2ae3 db3c
000002c0: 0d65 2b3c c6ef 65bd 27dc 18bc cd54 4abc
000002d0: ece9 443c eafb 9abc 1f67 a8bc 1b0f d73c
000002e0: 5396 363d 9cc1 e0bc 54e1 1e3d 81e2 db3c
000002f0: 6ba6 103d e1cc 30bd 894f 203d 431b de3c
00000300: 029f 8a3c 4bc5 5b3d 305b 063d 17a7 5f3d
00000310: 2d02 e4ba 0804 dd3c f639 31bc 0d1f ce3c
00000320: 3a52 de3b b87e dabc d74e 4b3b d92d 4e3d
00000330: 2d69 863d ec8f acbc 1210 8f3c b16e 8e3c
00000340: 3263 8b3d c789 a4bb 60f0 c63d 46be 5a3d
00000350: 1bc9 853d e6a0 5a3d 3293 893d ab9c 023d
00000360: 0804 413d 81cb d03c 62f6 1fbd 0541 84bd
00000370: 0d5b 26bd 62ef 1c3d 1142 6a3c 7cbb 5f3c
00000380: 1409 f839 78dd 2e3d f2ef 203d 6ea3 5cbd
00000390: abaf 8dbd 1577 48bd dc3b ec3c 3d1e 15bd
000003a0: 851d 6bbc 2b10 1d3d bf4a 5d3c 5308 3f3d
000003b0: 91b7 80bd bdba 2d3d 7f4c 84bd ed0d e9bb
000003c0: 2032 e4bb 8bb3 62bd ba31 3d3d 240f 213d
000003d0: dbfa ad3b d412 f5bb 5c58 f3bc 6533 863c
000003e0: e27b 133c ca62 6c3d 47f2 62bd 5e83 72bc
000003f0: beee eebc 995e 9b3d 8b4d d0bc da34 913d

conv.4.bias f4 [32]
0.055886086 0.032242525 -0.017229345 -0.036471877 -0.027987037 -0.014729633 0.045804594 0.01989325
0.044432454 -0.048118915 -0.05203593 0.01620559 0.04513675 0.040006742 0.03250721 -0.04122609
-0.054715972 0.015882097 -0.050466955 0.04830679 -0.050061945 0.009336745 -0.05546638 0.052250892
-0.051068433 0.0035162335 0.03534126 0.0069156988 0.047530644 0.04278091 0.043967277 -0.0036556008
00000000: cfe8 643d bd10 043d 8e24 8dbc 8963 15bd
00000010: 1245 e5bc 8f54 71bc 999d 3b3d 2bf7 a23c
00000020: cefe 353d 5718 45bd a123 55bd 96c1 843c
00000030: 50e1 383d 1cde 233d 4826 053d b0dc 28bd
00000040: db1d 60bd 2c1b 823c 70b6 4ebd 57dd 453d
00000050: c10d 4dbd 26f9 183c b730 63bd 0805 563d
00000060: 222d 51bd 9c70 663b ffc1 103d 169d e23b
00000070: 7eaf 423d 093b 2f3d 0817 343d ce92 6fbb

conv.5.weight f4 [32]
1.1077001 1.0887309 1.109395 1.094157 1.0845957 1.0986778 1.0751804 1.092872
1.0969 1.1023066 1.0965775 1.0925126 1.0844572 1.0933216 1.1135635 1.0969399
1.0927274 1.0931553 1.098944 1.107391 1.1074331 1.1085182 1.0907742 1.0872263
1.1003716 1.1019385 1.1072304 1.115797 1.1123062 1.1156718 1.1038607 1.1042694
00000000: 1ec9 8d3f 895b 8b3f a800 8e3f 560d 8c3f
00000010: 08d4 8a3f 79a1 8c3f 839f 893f 3be3 8b3f
00000020: 3867 8c3f 6218 8d3f a75c 8c3f 74d7 8b3f
00000030: 7ecf 8a3f f6f1 8b3f 4089 8e3f 8768 8c3f
00000040: 7ede 8b3f 83ec 8b3f 32aa 8c3f fdbe 8d3f
00000050: 5ec0 8d3f ede3 8d3f 7d9e 8b3f 3b2a 8b3f
00000060: fad8 8c3f 520c 8d3f bab9 8d3f 70d2 8e3f
00000070: 0d60 8e3f 55ce 8e3f 4f4b 8d3f b358 8d3f

conv.5.bias f4 [32]
0.082494676 0.07544664 0.0872462 0.08100495 0.079313666 0.0745555 0.0585338 0.07402642
0.07183132 0.06757324 0.083211325 0.08354567 0.072206594 0.07932171 0.09378351 0.08768481
0.075508535 0.08009439 0.08089392 0.08389137 0.08626761 0.08820511 0.079807125 0.07111059
0.08500296 0.08649456 0.09523001 0.08408082 0.07672297 0.08693304 0.08400772 0.086725324
00000000: f8f2 a83d c583 9a3d 23ae b23d ece5 a53d
00000010: 346f a23d 8eb0 983d 23c1 6f3d 2a9b 973d
00000020: 4d1c 933d d763 8a3d b36a aa3d fe19 ab3d
00000030: 0de1 933d 6c73 a23d 9211 c03d 1894 b33d
00000040: 38a4 9a3d 8708 a43d b6ab a53d 3dcf ab3d
00000050: 13ad b03d e1a4 b43d eb71 a33d 6ea2 913d
00000060: 0816 ae3d 0f24 b13d f407 c33d 9132 ac3d
00000070: ef20 9d3d f309 b23d 3d0c ac3d 0c9d b13d

conv.5.running_mean f4 [32]
0.09748359 0.1897994 -0.39594272 -0.083684064 0.19030151 -0.46136788 0.0077670487 0.02374647
0.1032889 -0.05854623 -0.16460149 -0.10129545 0.3043686 0.23985612 0.14041638 0.024009444
0.11060985 -0.34693864 0.15393537 -0.33678034 -0.27835298 -0.3290633 -0.11908801 0.053334516
-0.16879208 0.15481812 -0.091703065 0.039135665 0.1930267 0.03227677 -0.035466887 -0.5587785
00000000: 7aa5 c73d c65a 423e 01b9 cabe 8d62 abbd
00000010: 66de 423e 6938 ecbe ba82 fe3b f587 c23c
00000020: 2189 d33d 2cce 6fbd 4b8d 28be fd73 cfbd
00000030: 33d6 9b3e d89c 753e 50c9 0f3e 74af c43c
00000040: 6b87 e23d f1a1 b1be 3ca1 1d3e 796e acbe
00000050: 4884 8ebe fc7a a8be 6ae4 f3bd 4b75 5a3d
00000060: d5d7 2cbe a488 1e3e d1ce bbbd b84c 203d
00000070: cba8 453e a534 043d ba45 11bd 1c0c 0fbf

conv.5.running_var f4 [32]
0.012921578 0.021278413 0.019430775 0.038118534 0.04571761 0.02711739 0.01862353 0.027979994
0.011677722 0.019909758 0.019340333 0.057699304 0.026826631 0.024382317 0.020553416 0.024890227
0.029304972 0.03625346 0.045666944 0.013487965 0.025345331 0.024807837 0.029728739 0.023386482
0.034817997 0.012330136 0.01686088 0.011033202 0.013018105 0.01072836 0.014509879 0.025266446
00000000: 07b5 533c 1150 ae3c 4a2d 9f3c 2e22 1c3d
00000010: 6342 3b3d 4a25 de3c 6090 983c 4d36 e53c
00000020: eb53 3f3c ca19 a33c 9e6f 9e3c 1b56 6c3d
00000030: 86c3 db3c 6dbd c73c a35f a83c 97e6 cb3c
00000040: fb10 f03c 827e 143d 430d 3b3d a0fc 5c3c
00000050: 03a1 cf3c ce39 cb3c af89 f33c 0295 bf3c
00000060: 519d 0e3d 5704 4a3c d41f 8a3c 9ac4 343c
00000070: e449 553c 01c6 2f3c d8ba 6d3c 94fb ce3c

fc.0.weight f4 [378, 128]
0.16983332 0.14069815 0.027399806 -0.06582813 0.051515214 -0.02112742 0.03435741 0.033449676
-0.029742125 0.13387328 0.11542891 -0.044644415 0.056845922 0.10003511 -0.030026473 -0.05390004
0.029200876 -0.07224914 0.052649144 -0.026105411 0.16415253 -0.056703776 -0.04004772 0.12538601
0.023930091 -0.085207574 -0.039774053 0.010398629 0.044796307 -0.06283523 0.12203258 0.09131634
0.10835712 -0.005883971 0.11036904 0.0048273215 -0.05560042 -0.013013386 0.101413645 0.06888013
0.03154542 -0.11755234 -0.14780414 -0.036505792 0.046312984 -0.036743443 -0.028604252 0.020384023
0.029109363 -0.061647635 0.0948918 0.039145526 0.08843623 0.06511002 -0.032481648 0.045705985
0.1084478 0.05564076 0.013578516 -0.060690027 0.12397611 -0.06706659 -0.00020477486 -0.05881833
0.07143459 0.051068578 0.058554843 0.0871217 0.109288156 0.15850739 0.124829516 -0.022868041
0.054250047 0.11613577 0.039737076 -0.121520035 0.06999177 0.060444932 0.024216248 -0.049979523
0.12328851 0.058644596 -0.16060886 0.10768743 0.030124474 -0.115243785 0.114829175 0.010972586
-0.0444855 0.12946989 -0.07301508 0.01125527 0.05101166 0.094406046 -0.09647001 -0.023874654
-0.060485218 0.14043914 0.00018517213 0.00890045 -0.099916846 -0.017037971 0.0056184833 -0.07284799
-0.07322174 -0.08247435 -0.067396484 -0.028238991 -0.021593314 0.006466723 0.075846955 0.013774841
-0.023640292 0.10404843 -0.006965198 -0.01595744 0.07517309 0.0140009755 0.11814745 0.12670077
0.01597626 -0.101944625 -0.13051242 0.017314868 0.052853215 0.1545918 0.15164709 0.094958544
-0.06482716 0.023033062 -0.07965359 -0.06786031 0.05545369 0.07188565 0.033243276 0.062301766
-0.06796568 -0.002153277 -0.002241519 -0.02665633 0.014772806 0.10093671 -0.0118035 0.063636824
0.13401908 -0.009542959 0.042558603 0.021852994 -0.035440557 0.12951504 0.051289823 0.05162502
-0.045648653 0.07696137 -0.0558204 0.0033899825 0.050532434 0.034787048 -0.079251654 -0.0026495792
-0.018885843 0.06637332 0.041958507 -0.0358366 0.04323335 0.05932222 0.08528689 0.029213466
0.0038765357 -0.08719075 0.09703335 -0.0035343003 -0.022065753 0.110408574 0.0330913 0.04810369
0.037519254 0.009880203 0.038731605 0.004307395 -0.010382172 -0.018947285 -0.004397412 -0.045513984
0.08529825 -0.053906046 -0.012369678 0.10006917 0.09513119 0.100597575 0.11277708 0.06509627
0.12765339 0.100044884 0.06802993 -0.05316307 -0.07541771 -0.060885046 -0.045476343 -0.016055813
-0.028955862 -0.03316246 -0.032474753 0.07734736 0.0007278783 -0.06705905 -0.057300102 -0.07834997
-0.059776686 0.111171655 -0.03097542 -0.07238316 0.049830668 -0.056098703 -0.081895076 -0.017593842
-0.04084908 -0.029249866 0.014536275 0.06990047 0.005795562 0.03135329 0.09320495 0.10757652
-0.0032599953 0.07097926 0.06464034 0.11172927 -0.06494971 -0.026217755 -0.029008634 -0.055920392
0.03840904 -0.017469369 0.13579093 0.11305341 0.0014616289 0.0229316 0.15437566 -0.057921536
-0.04393374 0.10173579 0.1298782 0.10514082 -0.0768397 0.030690003 0.025092741 -0.03838039
-0.059738316 -0.12163457 0.10017201 -0.07029169 0.009195668 -0.13909547 0.11446178 -0.06747692
00000000: c9e8 2d3e 2d13 103e 8f75 e03c e6d0 86bd
00000010: 9e01 533d 6913 adbc 5bba 0c3d 8702 093d
00000020: c2a5 f3bc 1416 093e fe65 ec3d 10dd 36bd
00000030: 45d7 683d 35df cc3d 14fa f5bc 4ac6 5cbd
00000040: ad36 ef3c 5bf7 93bd a1a6 573d 04db d5bc
00000050: 9a17 283e 3842 68bd 1409 24bd 3165 003e
00000060: 0a09 c43c 4f81 aebd 1eea 22bd 035f 2a3c
00000070: 557c 373d c2af 80bd 38ec f93d 1004 bb3d
00000080: 56ea dd3d 54ce c0bb 2a09 e23d 822e 9e3b
00000090: 44bd 63bd 1936 55bc f5b1 cf3d 0711 8d3d
000000a0: c535 013d 48bf f0bd f859 17be 1987 15bd
000000b0: afb2 3d3d 4b80 16bd 7753 eabc 65fc a63c
000000c0: c276 ee3c 3b82 7cbd a256 c23d 0f57 203d
000000d0: 0e1e b53d 6758 853d 7a0b 05bd 3336 3b3d
000000e0: e119 de3d 91e7 633d 6d78 5e3c 1b96 78bd
000000f0: 30e7 fd3d 355a 89bd d5b8 56b9 7deb 70bd
00000100: 4c4c 923d 492d 513d 34d7 6f3d dd6c b23d
00000110: 78d2 df3d c34f 223e 9ea6 ff3d c255 bbbc
00000120: 4c35 5e3d 97d8 ed3d 58c3 223d 7fdf f8bd
00000130: d857 8f3d 1b95 773d 2761 c63c 54b7 4cbd
00000140: b07e fc3d 5135 703d a676 24be 3a8b dc3d
00000150: 9ac7 f63c ef04 ecbd 8f2b eb3d 5dc6 333c
00000160: 6d36 36bd c193 043e ee88 95bd 0668 383c
00000170: 9af1 503d f557 c13d 1292 c5bd c794 c3bc
00000180: 59bf 77bd 47cf 0f3e c42a 4239 31d3 113c
00000190: 34a1 ccbd 3793 8bbc 411b b83b 5431 95bd
000001a0: 48f5 95bd 50e8 a8bd 2b07 8abd 7555 e7bc
000001b0: 76e4 b0bc cee6 d33b a655 9b3d dfaf 613c
000001c0: 49a9 c1bc 5817 d53d 513c e4bb 2db9 82bc
000001d0: 59f4 993d 5964 653c 4af7 f13d d9bd 013e
000001e0: a5e0 823c 58c8 d0bd 0ca5 05be e9d7 8d3c
000001f0: 9d7c 583d 504d 1e3e 6049 1b3e a079 c23d
00000200: 1ac4 84bd d5af bc3c 6c21 a3bd 59fa 8abd
00000210: 6923 633d c938 933d 1a2a 083d 2330 7f3d
00000220: 9731 8bbd fe1d 0dbb 73e6 12bb 605e dabc
00000230: a409 723c e8b7 ce3d 7863 41bc 0654 823d
00000240: 4c3c 093e 125a 1cbc ee51 2e3d 0d05 b33c
00000250: 1e2a 11bd 979f 043e 4715 523d c274 533d
00000260: 15fa 3abd ec9d 9d3d efa3 64bd 782a 5e3b
00000270: 19fb 4e3d dd7c 0e3d b14e a2bd 90a4 2dbb
00000280: 7cb6 9abc bcee 873d afdc 2b3d 66c9 12bd
00000290: 7415 313d dbfb 723d e5aa ae3d 1451 ef3c
000002a0: 7a0d 7e3b 1091 b2bd 6cb9 c63d b89f 67bb
000002b0: 3dc3 b4bc e41d e23d be8a 073d 6008 453d
000002c0: caad 193d 93e0 213c 08a5 1e3d 0c25 8d3b
000002d0: fc19 2abc 5637 9bbc 2a18 90bb df6c 3abd
000002e0: d9b0 ae3d 96cc 5cbd 31aa 4abc 11f1 cc3d
000002f0: 24d4 c23d 1a06 ce3d abf7 e63d 3151 853d
00000300: 92b7 023e 55e4 cc3d 4753 8b3d 85c1 59bd
00000310: 9a74 9abd 9962 79bd 6745 3abd 7b87 83bc
00000320: d834 edbc 5cd5 07bd 3f04 05bd 4b68 9e3d
00000330: 16cf 3e3a 4156 89bd 83b3 6abd f375 a0bd
00000340: 66d8 74bd f7ad e33d 2ac0 fdbc 9f3d 94bd
00000350: 3e1b 4c3d c1c7 65bd 9bb8 a7bd f620 90bc
00000360: 5d51 27bd 6a9d efbc 8e29 6e3c fa27 8f3d
00000370: b3e8 bd3b 4f6c 003d 3de2 be3d 1451 dc3d
00000380: a5a5 55bb 935d 913d 2862 843d 51d2 e43d
00000390: 5b04 85bd 9ec6 d6bc 84a3 edbc c80c 65bd
000003a0: cc52 1d3d ec1b 8fbc c70c 0b3e 8c88 e73d
000003b0: 2194 bf3a 0ddb bb3c a714 1e3e 223f 6dbd
000003c0: def3 33bd db5a d03d cafe 043e 1254 d73d
000003d0: 225e 9dbd 9a69 fb3c 4b8f cd3c c134 1dbd
000003e0: 2ab0 74bd 8c1b f9bd fc26 cd3d 17f5 8fbd
000003f0: 6da9 163c 0b6f 0ebe f06a ea3d 5731 8abd

fc.0.bias f4 [378]
0.012763734 0.018259078 0.08069266 0.087170854 0.0048212144 -0.022003299 0.07625364 0.018907398
-0.035815362 0.030513925 0.071083464 -0.043796133 0.099145986 0.07376993 0.01801786 0.028544156
-0.0017504485 0.0029758248 -0.067564785 0.07403199 0.08273087 0.02230341 -0.067714505 -0.04218108
0.13165508 0.04514487 -0.05320391 0.026596451 -0.030875908 -0.0031952967 -0.044125948 -0.00086146133
0.08618654 0.10168671 0.12675416 -0.021499304 -0.05197667 0.05796761 -0.056792673 0.020390883
0.0036504497 0.013225661 0.07356143 0.104329206 0.05506353 -0.03997945 0.089276284 -0.011478463
0.031702656 0.09514859 0.013051858 0.08644146 -0.022725955 -0.0007584903 -0.0033474874 0.08243052
0.11975435 0.051682252 -0.021446407 -0.0030636135 0.020336954 0.020156598 0.09429386 -0.024113942
-0.017853491 0.020450467 -0.020611765 0.06495958 0.008570505 0.02282226 -0.05402069 -0.034010503
0.04174216 0.0070477175 0.101091176 -0.00521177 0.062561534 0.11300125 -0.038892828 -0.050037544
-0.06859593 -0.048175935 0.05655152 0.03225634 -0.033853773 0.0463746 0.041022357 0.059507553
0.06024671 0.05509974 0.0048424965 -0.03486625 0.09786289 -0.049407803 -0.01673074 0.0415895
0.024872188 0.012899034 0.020039544 0.080500476 -0.018134478 -0.04398185 0.024477718 0.11361823
0.117742136 0.05594768 0.019488912 0.019829864 0.042060837 -0.05932521 0.092888564 -0.008943889
-0.010589341 0.010917799 0.048106406 -0.04672876 0.05412994 0.07489074 0.098675705 0.066696964
-0.014309093 0.06032418 -0.015439768 -0.03445363 -0.025259143 0.083461806 0.039147396 -0.027858645
-0.065638155 0.10239782 0.018527642 -0.03159106 0.06542056 0.034486637 -0.060116474 0.05185852
0.022048011 -0.027640896 0.00086861383 -0.035064995 0.030743355 0.104645595 -0.04366709 -0.015456476
0.08764259 0.119797915 0.0121057145 0.07195967 -0.0388159 0.1123954 0.11229074 -0.006844368
0.09203083 0.051120147 0.076995425 0.107822485 0.059030034 0.061507285 0.001418003 0.13192342
-0.028077176 -0.066472374 -0.0038528852 0.030462595 -0.06894749 0.06291829 -0.075595655 -0.0017817665
-0.017485349 0.029156668 -0.007299038 0.059032902 0.035420123 -0.01420756 0.051090177 -0.0035078966
0.08087059 0.027850065 -0.046359282 0.06249359 0.008525348 0.009759752 0.09104594 0.02517037
-0.00746447 -0.042077787 0.113153055 0.08866994 0.019775083 0.04170574 0.10250001 -0.056232575
0.009952446 0.066974685 0.01477389 0.023978626 0.07263994 0.12033032 0.084399484 0.032005303
0.034282345 -0.011976093 0.007901306 0.057180405 -0.027846646 0.039850928 0.053998325 0.0193611
-0.018319853 0.0666685 -0.0045420816 0.068928696 0.029942358 0.05523325 0.053905133 0.11688549
-0.07354013 0.014110026 0.033999 -0.021063749 0.121752456 0.062999524 -0.050024442 0.04395656
0.09510392 -0.0044598505 0.065677926 0.11167456 0.050009355 0.023763131 0.11944294 0.010228767
-0.025271336 -0.007430467 0.060580987 -0.02262992 0.0275087 0.01851047 0.048998605 -0.0044340137
0.123847574 0.124510005 0.013655131 -0.0008500324 0.023139052 0.050462395 0.099678636 0.098953575
0.038185976 0.098765075 0.010382251 0.031174956 -0.046557635 -0.059524693 -0.0045059063 -0.021318594
00000000: fb1e 513c 1094 953c 3142 a53d a286 b23d
00000010: 47fb 9d3b 4340 b4bc de2a 9c3d b0e3 9a3c
00000020: 21b3 12bd 57f8 f93c 3594 913d 9363 33bd
00000030: 0d0d cb3d b014 973d 319a 933c 6fd5 e93c
00000040: 4e6f e5ba 0e06 433b 685f 8abd 159e 973d
00000050: cd6e a93d a4b5 b63c e7ad 8abd 11c6 2cbd
00000060: 97d0 063e d4e9 383d 58ec 59bd cde0 d93c
00000070: 79ef fcbc 2f68 51bb 69bd 34bd b1d3 61ba
00000080: 9282 b03d 1f41 d03d d8cb 013e 4f1f b0bc
00000090: 7de5 54bd 726f 6d3d 6f9f 68bd c80a a73c
000000a0: 623c 6f3b 71b0 583c 60a7 963d 8daa d53d
000000b0: 4c8a 613d 7ec1 23bd 7cd6 b63d 2a10 3cbc
000000c0: a5da 013d 44dd c23d 76d7 553c 3808 b13d
000000d0: c82b babc 6cd5 46ba 8561 5bbb 55d1 a83d
000000e0: c541 f53d c5b0 533d 60b0 afbc e8c6 48bb
000000f0: af99 a63c 731f a53c 241d c13d 9a8a c5bc
00000100: 7c41 92bc bd87 a73c 01da a8bc 8709 853d
00000110: 4e6b 0c3c c0f5 ba3c cd44 5dbd 994e 0bbd
00000120: d4f9 2a3d 8af0 e63b e408 cf3d 7fc7 aabb
00000130: 4320 803d 336d e73d 164e 1fbd 2bf4 4cbd
00000140: 067c 8cbd 2154 45bd 91a2 673d 391f 043d
00000150: 41aa 0abd 4bf3 3d3d 0f07 283d 31be 733d
00000160: 41c5 763d 44b0 613d cead 9e3b eacf 0ebd
00000170: 576c c83d d65f 4abd e80e 89bc c059 2a3d
00000180: c2c0 cb3c 7856 533c f829 a43c 6fdd a43d
00000190: c28e 94bc 5026 34bd 7f85 c83c adb0 e83d
000001a0: ca22 f13d 6529 653d 36a7 9f3c 3d72 a23c
000001b0: fc47 2c3d fefe 72bd 5c3c be3d 6489 12bc
000001c0: ea7e 2dbc 91e0 323c 390b 453d a866 3fbd
000001d0: 5bb7 5d3d 5160 993d 7d16 ca3d 6b98 883d
000001e0: b070 6abc 7d16 773d 15f7 7cbc 401f 0dbd
000001f0: 43ec cebc 06ee aa3d 0559 203d d037 e4bc
00000200: 4c6d 86bd f3b5 d13d 48c7 973c a165 01bd
00000210: 37fb 853d dc41 0d3d b13c 76bd 9969 543d
00000220: 089e b43c 296f e2bc b0b3 633a 50a0 0fbd
00000230: 7dd9 fb3c 6e50 d63d 43dc 32bd 293d 7dbc
00000240: f57d b33d 9c58 f53d 0c57 463c 975f 933d
00000250: 6cfd 1ebd 8f2f e63d b0f8 e53d b846 e0bb
00000260: a97a bc3d 5c63 513d c7af 9d3d 09d2 dc3d
00000270: 7ac9 713d 10ef 7b3d 49dc b93a ef16 073e
00000280: 1b02 e6bc ab22 88bd b080 7cbb b18c f93c
00000290: 5734 8dbd 4edb 803d e5d1 9abd 2a8a e9ba
000002a0: 6f3d 8fbc f7d9 ee3c c52c efbb 7ccc 713d
000002b0: b114 113d d3c6 68bc ef43 513d bde4 65bb
000002c0: 7b9f a53d d225 e43c 3be3 3dbd 47f9 7f3d
000002d0: e7ad 0b3c 5ee7 1f3c 4b76 ba3d 1732 ce3c
000002e0: 8398 f4bb c259 2cbd cabc e73d 9698 b53d
000002f0: 5bff a13c a3d3 2a3d 86eb d13d 2154 66bd
00000300: 960f 233c 062a 893d 300e 723c d36e c43c
00000310: 40c4 943d be6f f63d a3d9 ac3d fe17 033d
00000320: a56b 0c3d 6037 44bc 7b74 013c 0036 6a3d
00000330: a61e e4bc ba3a 233d 592d 5d3d 2b9b 9e3c
00000340: 8413 96bc 7f89 883d bed5 94bb 7d2a 8d3d
00000350: ad49 f53c 433c 623d a1cb 5c3d a961 ef3d
00000360: 359c 96bd bd2d 673c 8942 0b3d e28d acbc
00000370: 5a59 f93d e505 813d 6ee6 4cbd cb0b 343d
00000380: d8c5 c23d f023 92bb 2682 863d a2b5 e43d
00000390: 9cd6 4c3d e6aa c23c 809e f43d 8f96 273c
000003a0: d505 cfbc 467b f3bb c523 783d 6262 b9bc
000003b0: ed59 e13c 45a3 973c c3b2 483d 344b 91bb
000003c0: cca3 fd3d 1aff fe3d c5b9 5f3c b5d4 5eba
000003d0: 1c8e bd3c a8b1 4e3d 5024 cc3d 2ca8 ca3d
000003e0: e668 1c3d 5845 ca3d 511a 2a3c 9f62 ff3c
000003f0: 38b3 3ebd 2ad0 73bd 48a6 93bb 55a4 aebc

fc.2.weight f4 [189, 378]
-0.06524653 0.03460359 -0.10297068 -0.113317825 0.009775523 0.037582032 -0.14238024 -0.0038539495
0.018883215 -0.1196401 0.10843668 0.043818843 -0.07412254 0.03206674 0.023583068 0.124531545
0.051508363 0.062151644 0.033861592 -0.10319388 0.013987538 0.05842779 -0.06995127 0.055584926
-0.062007505 -0.12533276 -0.045606207 0.017021822 -0.05623078 -0.06484385 -0.0064733727 0.07157564
-0.10025149 -0.081182174 -0.035740133 0.060756043 -0.08281644 -0.015709473 0.06383355 0.06597446
-0.06377472 -0.01307942 0.0039022733 -0.012289854 -0.07467345 0.045794442 0.031932496 0.016830564
-0.13913618 0.0017836391 0.026611077 0.036903918 -0.016247768 0.09188177 -0.023438757 0.03503802
-0.051392872 -0.14345166 -0.0017529902 0.17713557 -0.0021581796 -0.019017305 -0.15905362 0.022685224
0.07061018 0.069135584 -0.05302387 -0.00974206 0.07089646 -0.0900137 -0.017376408 0.073931664
0.11990263 -0.0377476 -0.122626364 0.0987932 -0.12916619 -0.07106554 -0.097077854 -0.014179745
0.04455742 -0.067892596 -0.08573419 -0.04170306 -0.04028134 -0.014159639 0.096310936 -0.009526245
-0.051385418 0.0039667157 -0.020822776 0.06731565 0.03782634 0.067121245 -0.103014745 -0.12558322
0.11118894 -0.017885482 0.012520352 0.04417075 -0.02287643 0.046977863 -0.06190819 -0.03346669
-0.08628378 -0.012913896 -0.023427902 -0.05580649 0.025771115 -0.16474745 0.0050812424 -0.039009724
-0.019376338 0.084333256 -0.055863563 -0.070841484 -0.076380305 -0.078454934 0.10313566 -0.06321749
-0.105300926 0.042011607 -0.13199432 -0.0148907965 -0.12684879 0.075688906 -0.038655195 -0.33244178
0.02324973 -0.06612346 -0.019292137 -0.10490634 0.025576418 0.023752777 -0.09176496 -0.1653638
-0.06975861 0.012124092 0.07197953 0.09255988 0.038543496 0.021847278 0.08089437 -0.09022112
0.032290157 -0.089398146 -0.084454246 -0.11599084 -0.065764 0.072529174 -0.045871533 -0.0801204
0.05385999 0.0357568 0.0242757 -0.07412445 -0.06899117 0.032102823 -0.10833037 0.11567912
-0.0010954041 0.0821856 -0.0074553457 -0.090735145 0.03727837 -0.050228503 0.0045109554 -0.06297397
-0.061174106 -0.0024904867 0.023459602 -0.01655245 -0.0076930793 -0.030443743 -0.07866775 0.044618208
-0.05581387 -0.04024788 0.0028760505 -0.008632363 0.026305743 -0.06379594 0.052680183 -0.062679835
0.052293736 0.012542744 -0.053797767 0.03485736 0.08122118 -0.03507502 -0.042646993 -0.036065165
-0.061215527 -0.15920481 -0.034080867 -0.06164996 -0.006998966 -0.09970123 -0.08759076 0.116416134
0.10282313 0.03785542 0.027775697 -0.0049444046 -0.10038628 0.024180798 0.012052856 -0.019254792
0.035926104 0.018696027 -0.14141531 -0.13313538 0.018293578 -0.008729795 -0.042768855 0.10183495
0.12568003 0.07589894 -0.08866207 -0.1549992 -0.14531961 -0.113695905 -0.07200848 0.0005777288
0.019714149 -0.097017184 0.004104289 -0.048944537 -0.016054578 0.037970204 -0.068094 -0.009264477
0.08717715 0.07637188 -0.010379949 -0.07020845 0.015578567 0.017683743 0.016359918 -0.093583785
0.031324 -0.03216482 -0.12276308 0.040225226 -0.006208718 -0.018472534 -0.069459535 0.09338728
-0.04743421 -0.085660346 -0.064899504 -0.08649895 0.028444426 -0.012668564 -0.049089696 -0.016714087
00000000: f99f 85bd 7ebc 0d3d 4be2 d2bd 2d13 e8bd
00000010: 8429 203c 9eef 193d 20cc 11be 8b92 7cbb
00000020: f9b0 9a3c de05 f5bd 0d14 de3d 637b 333d
00000030: 8fcd 97bd 6a58 033d 4731 c13c 650a ff3d
00000040: 6ffa 523d b992 7e3d 74b2 0a3d 5057 d3bd
00000050: fd2b 653c fa51 6f3d 9d42 8fbd 05ad 633d
00000060: 95fb 7dbd 3b57 00be 93cd 3abd 5971 8b3c
00000070: 3f52 66bd dacc 84bd 961e d4bb 4096 923d
00000080: a750 cdbd d742 a6bd 3f64 12bd 54db 783d
00000090: aa9b a9bd 27b1 80bc 2abb 823d 9e1d 873d
000000a0: 529c 82bd 104b 56bc 48bd 7f3b 625b 49bc
000000b0: 65ee 98bd f492 3b3d a6cb 023d 40e0 893c
000000c0: b779 0ebe ffc8 e93a 79ff d93c 9028 173d
000000d0: 0a1a 85bc 822c bc3d a302 c0bc 0784 0f3d
000000e0: 5581 52bd fee4 12be 97c4 e5ba 0763 353e
000000f0: 3f70 0dbb 2eca 9bbc f4de 22be 5dd6 b93c
00000100: 129c 903d f596 8d3d 8f2f 59bd 299d 1fbc
00000110: 2a32 913d 1a59 b8bd f858 8ebc 7c69 973d
00000120: 838f f53d 3a9d 1abd 8823 fbbd 1754 ca3d
00000130: 2444 04be cf8a 91bd c1d0 c6bd 2952 68bc
00000140: d781 363d 460b 8bbd 6895 afbd d4d0 2abd
00000150: 0cfe 24bd d5fd 67bc ab3e c53d f813 1cbc
00000160: 8479 52bd 39fb 813b 8794 aabc cadc 893d
00000170: cbef 1a3d dd76 893d 65f9 d2bd e398 00be
00000180: 07b7 e33d 9384 92bc 2a22 4d3c 63ec 343d
00000190: 5a67 bbbc dc6b 403d 7193 7dbd 5e14 09bd
000001a0: 8db5 b0bd ce94 53bc dfeb bfbc 5995 64bd
000001b0: f21d d33c 8eb3 28be 8d80 a63b a9c8 1fbd
000001c0: 20bb 9ebc eab6 ac3d 31d1 64bd 5715 91bd
000001d0: 476d 9cbd fbac a0bd ca38 d33d 2c78 81bd
000001e0: 03a8 d7bd 5d14 2c3d 8529 07be 87f8 73bc
000001f0: a6e4 01be c902 9b3d e954 1ebd cf35 aabe
00000200: 3876 be3c bd6b 87bd 8b0a 9ebc 23d9 d6bd
00000210: a385 d13c 2f95 c23c 44ef bbbd 2155 29be
00000220: 9add 8ebd 21a4 463c 016a 933d 0990 bd3d
00000230: c9df 1d3d 10f9 b23c f3ab a53d dac5 b8bd
00000240: af42 043d 6016 b7bd 59f6 acbd 9b8c edbd
00000250: 47af 86bd 2d8a 943d cae3 3bbd 2a16 a4bd
00000260: 4b9c 5c3d b975 123d d5dd c63c 8fce 97bd
00000270: 3e4b 8dbd 407e 033d 50dc ddbd 2de9 ec3d
00000280: aa93 8fba ed50 a83d f94b f4bb 59d3 b9bd
00000290: 34b1 183d 67bc 4dbd a3d0 933b 7ff8 80bd
000002a0: b391 7abd 6f37 23bb 5a2e c03c 0199 87bc
000002b0: 3a16 fcbb 2865 f9bc 8f1c a1bd 95c1 363d
000002c0: 169d 64bd f6da 24bd 1f7c 3c3b c16e 0dbc
000002d0: 247f d73c 72a7 82bd 2dc7 573d 495e 80bd
000002e0: f531 563d 1580 4d3c 0c5b 5cbd 97c6 0e3d
000002f0: 4a57 a63d d3aa 0fbd 9dae 2ebd 11b9 13bd
00000300: 22bd 7abd 9606 23be 6198 0bbd ab84 7cbd
00000310: 9557 e5bb 2930 ccbd c962 b3bd 956b ee3d
00000320: ef94 d23d 490e 1b3d dc89 e33c ac04 a2bb
00000330: 5297 cdbd cf16 c63c 5879 453c 3abc 9dbc
00000340: 4027 133d 6928 993c 2dcf 10be a454 08be
00000350: 6adc 953c 6a07 0fbc 652e 2fbd d88e d03d
00000360: 44b2 003e e770 9b3d 7694 b5bd 1cb8 1ebe
00000370: aace 14be 66d9 e8bd 2f79 93bd b972 173a
00000380: 917f a13c f2b0 c6bd 467d 863b 117a 48bd
00000390: e484 83bc a586 1b3d de74 8bbd 08ca 17bc
000003a0: ef89 b23d dc68 9c3d a910 2abc 73c9 8fbd
000003b0: 3f3d 7f3c 7fdd 903c 3c05 863c dba8 bfbd
000003c0: 984d 003d 42bf 03bd 366b fbbd 35c3 243d
000003d0: 8072 cbbb b653 97bc cd40 8ebd d541 bf3d
000003e0: 604a 42bd b16e afbd 08ea 84bd 5d26 b1bd
000003f0: 4904 e93c cf8f 4fbc 4712 49bd fbeb 88bc

fc.2.bias f4 [189]
-0.05191248 -0.019934522 -0.04823148 -0.002092859 -0.009364134 0.01805062 0.06990094 -0.007942011
0.039753597 -0.000939308 -0.086128354 -0.07740742 -0.02103941 0.010755822 -0.05727381 -0.045944076
-0.028985117 0.042624447 0.072848216 0.049436763 -0.025088795 -0.018553495 -0.00033429108 0.06757106
0.01338766 0.023358105 -0.015644448 -0.060378388 -0.082177736 -0.02780148 -0.011470563 0.023277735
0.03460248 0.004791839 -0.034107205 0.016712638 9.252103e-05 -0.005486932 -0.009181253 -0.0075876373
-0.04430442 -0.082116336 -0.031044893 0.01882388 0.07248271 0.0073536267 -0.037993442 -0.04023012
-0.08862281 0.044943117 -0.05108839 -0.039160978 0.047870304 -0.022911005 -0.07513821 -0.044688497
-0.0037944806 0.0033265348 0.030756777 0.08558436 -0.00024540833 -0.047208488 -0.05617716 0.0035275503
-0.040533155 -0.02540235 0.021496331 0.015196023 -0.005294947 -0.046140462 -0.06679708 -0.012228557
0.027201029 -0.0002372402 -0.027955823 0.03246 0.034763765 0.0003190941 -0.034625914 -0.039447412
0.0080219805 -0.001690864 -0.058231067 0.020092247 0.02132782 0.024415992 -0.06742827 0.0510555
-0.018989475 -0.024060937 -0.05371235 0.026202986 -0.025401989 -0.04123785 0.0010942001 0.006799519
-0.022797149 -0.05782316 -0.009733205 -0.032775544 -0.02569541 0.002519838 -0.08628067 -0.0059067113
-0.023601612 -0.043658216 -0.006814688 -0.023616748 0.02277069 0.009115906 -0.043439534 0.049251933
-0.04765976 -0.079011634 0.031577405 -0.011370297 0.023747358 0.0831181 0.030475141 -0.03911334
-0.059391998 -0.0039290343 -0.046269458 0.01958442 0.0056059333 -0.0035879558 -0.02607971 0.06303067
-0.042265523 -0.0058059883 0.0045848857 0.014878174 0.030195463 0.0018029348 -0.031391192 0.015505451
0.02210374 -0.051170614 -0.04260368 -0.0065928367 -0.058422837 -0.022268629 -0.06870485 0.029230844
0.039169952 0.0312818 -0.011997544 0.028772112 0.065186664 -0.0063414234 -0.06662542 -0.018156277
-0.020000258 -0.07263008 -0.0022000445 -0.05467255 -0.079500265 -0.046063643 -0.055447124 -0.021451004
0.001454085 -0.054325208 -0.04011602 0.068625286 -0.028806094 -0.046159912 -0.05713637 9.724972e-05
-0.02282744 -0.044843946 -0.020751819 0.057560276 0.0676957 -0.037919633 0.059616186 -0.007683853
-0.038722657 -0.02869415 -0.016425716 0.013697903 0.007654213 -0.07228783 0.035368152 0.033376046
0.01962514 -0.0033315956 -0.0815342 0.0061244583 -0.047940247
00000000: 2ea2 54bd b94d a3bc 5f8e 45bd 5928 09bb
00000010: 066c 19bc e5de 933c 3928 8f3d 351f 02bc
00000020: abd4 223d e53b 76ba 1064 b0bd c887 9ebd
00000030: d75a acbc 3039 303c f197 6abd db2f 3cbd
00000040: 3272 edbc f996 2e3d 7231 953d 347e 4a3d
00000050: 0487 cdbc 80fd 97bc ca43 afb9 b262 8a3d
00000060: ea57 5b3c 7f59 bf3c c928 80bc 544f 77bd
00000070: cd4c a8bd eebf e3bc 07ef 3bbc f3b0 be3c
00000080: 54bb 0d3d dc04 9d3b ffb3 0bbd f1e8 883c
00000090: da07 c238 b9cb b3bb f76c 16bc b7a1 f8bb
000000a0: 8d78 35bd 9c2c a8bd dc51 febc 8a34 9a3c
000000b0: d171 943d b1f6 f03b 039f 1bbd 57c8 24bd
000000c0: e07f b5bd 4616 383d 0f42 51bd 4367 20bd
000000d0: a713 443d dcaf bbbc 10e2 99bd 490b 37bd
000000e0: d2ac 78bb fe01 5a3b a3f5 fb3c da46 af3d
000000f0: 26aa 80b9 b05d 41bd 061a 66bd 792e 673b
00000100: 1806 26bd 9718 d0bc 1319 b03c bdf8 783c
00000110: 3c81 adbb c8fd 3cbd e8cc 88bd 495a 48bc
00000120: b1d4 de3c aec3 78b9 9c03 e5bc c7f4 043d
00000130: 7364 0e3d 164c a739 e7d3 0dbd 9c93 21bd
00000140: a06e 033c fb9f ddba b383 6ebd 7f98 a43c
00000150: aeb7 ae3c 0c04 c83c d517 8abd 921f 513d
00000160: d18f 9bbc 711b c5bc 7b01 5cbd a5a7 d63c
00000170: d517 d0bc 05e9 28bd 436b 8f3a 80ce de3b
00000180: 16c1 babc fad7 6cbd 0578 1fbc a63f 06bd
00000190: 2e7f d2bc de23 253b ebb3 b0bd 168d c1bb
000001a0: 2b58 c1bc f5d2 32bd bf4d dfbb e977 c1bc
000001b0: 9989 ba3c e25a 153c a7ed 31bd 65bc 493d
000001c0: e136 43bd dad0 a1bd 4f57 013d 7b4a 3abc
000001d0: d289 c23c d339 aa3d 01a7 f93c 4f35 20bd
000001e0: 0645 73bd 21bf 80bb 0b85 3dbd 816f a03c
000001f0: fab1 b73b e923 6bbb 1ea5 d5bc 3916 813d
00000200: 9d1e 2dbd 2940 bebb cf3c 963b 96c3 733c
00000210: 7a5c f73c 7450 ec3a 0d94 00bd 930a 7e3c
00000220: e712 b53c 4798 51bd 3281 2ebd b908 d8bb
00000230: c94c 6fbd b36c b6bc 21b5 8cbd 8675 ef3c
00000240: ac70 203d 5821 003d 5991 44bc 7eb3 eb3c
00000250: 9680 853d b7cb cfbb e872 88bd 79bc 94bc
00000260: 95d7 a3bc 14bf 94bd 9f2e 10bb 53f0 5fbd
00000270: 09d1 a2bd 3bad 3cbd 861c 63bd 04ba afbc
00000280: ff96 be3a 1c84 5ebd b250 24bd 6a8b 8c3d
00000290: c2fa ebbc 2d12 3dbd d407 6abd 8cf2 cb38
000002a0: 9d00 bbbc 49ae 37bd b8ff a9bc 53c4 6b3d
000002b0: 0ba4 8a3d 9e51 1bbd 1a30 743d d5c8 fbbb
000002c0: a69b 1ebd fe0f ebbc 398f 86bc 2b6d 603c
000002d0: 31d0 fa3b a40b 94bd 32de 103d 52b5 083d
000002e0: e7c4 a03c e656 5abb 67fb a6bd aeaf c83b
000002f0: fe5c 44bd
