inventory/model.pth (torch, 464721 bytes, 16 tensors)

conv.0.weight f4 [32, 3, 5, 5]
-0.01576377 0.05874536 0.10104824 0.08992069 -0.008389033 -0.008843339 0.067285635 -0.013314309
0.012307518 0.05748405 0.10244073 -0.0057687 0.08086456 -0.062584944 -0.06769212 -0.06805621
-0.07158911 0.122609355 0.0125419265 0.06583415 0.0111727435 0.09244 -0.05946034 0.10020744
0.11418072 -0.02962793 -0.019930445 -0.058244016 0.10587115 -0.0035848438 -0.053737223 0.029720984
-0.030180704 -0.047880102 -0.054702718 -0.012385719 -0.101733245 0.030154422 -0.10923457 0.060997244
-0.083240144 0.019862717 -0.066352166 -0.08881709 -0.0807991 0.12440151 0.01617004 -0.013605957
-0.118390664 -0.01450913 0.057409864 0.02944704 -0.044381168 0.053361174 0.041058924 0.039414823
-0.042795468 0.02503978 0.091583475 0.11569282 -0.043804962 -0.025893366 0.0043844907 0.015075006
0.021240612 0.11309811 -0.08258577 0.08054093 0.070788786 -0.090866014 0.13046141 0.015231096
0.11018183 -0.08097335 -0.04914711 -0.020718047 0.0968731 0.08831422 0.1086311 -0.015781414
0.07288351 -0.04308859 -0.008333737 0.027486961 -0.0887678 0.05701896 -0.041690506 0.029908953
-0.0029188343 0.07053844 -0.08026324 -0.09995729 -0.0011272649 -0.13319351 -0.017637556 -0.07150994
0.07709772 -0.072955206 -0.08887531 0.057505894 -0.1330758 0.07126022 -0.09270621 -0.03366426
-0.025560016 -0.021502186 0.008992149 0.08124447 -0.025270753 0.028401822 -0.0033984869 -0.030793265
-0.027388401 -0.046323035 -0.036075395 -0.07070758 0.020461043 -0.051244885 -0.08024544 -0.007014552
-0.032572158 0.041893058 -0.0092888735 -0.10703485 -0.1421286 0.10414478 0.0013088858 0.10139444
0.079224706 -0.07092167 -0.029656604 -0.020001486 -0.005956561 0.09230556 -0.026267756 0.012313162
-0.09346966 -0.036532998 -0.07518458 0.021847535 0.00137913 0.029636571 0.01587468 -0.010882378
-0.016482415 0.044150814 0.08677704 0.0018030638 0.010296135 0.06732999 0.054224446 0.023320304
-0.012983006 -0.08328676 -0.0089065805 -0.012661681 -0.09199621 0.006044448 0.104976155 -0.0625595
0.06558365 0.02978976 0.055943064 0.123458356 0.05164609 -0.116285995 -0.048369717 0.05050999
0.103402175 0.023855701 -0.14510015 -0.12526105 0.01739232 0.026625648 -0.04816299 0.073524125
0.03584839 -0.08672449 0.06819216 0.100292504 -0.10522305 0.10039532 0.017541517 0.012929933
0.005051855 0.07986512 -0.012673144 -0.045553017 -0.10606369 -0.12237926 0.01396576 0.027525786
0.07435862 0.06333306 0.09461928 -0.07177008 0.027466243 -0.0015688223 -0.0039896737 0.018882552
0.030952841 -0.04577616 0.04612965 -0.08641779 -0.017008174 0.05313818 0.097148344 -0.037115555
0.10225956 -0.043788683 -0.017904585 0.07578232 -0.0646407 0.10549923 0.03136572 -0.112036765
-0.111798786 0.053577848 -0.03570988 0.048271023 0.0028791165 -0.0625014 0.011378774 -0.02092814
-0.06628206 0.09557786 -0.04690234 0.05992439 -0.11580644 0.003955136 -0.095889926 0.0806532
0.08305604 -0.022655206 -0.12521638 -0.030421892 -0.015882457 -0.08112911 0.10824497 -0.100190036
0.09996941 0.08185917 0.013591781 -0.09588779 0.09278563 0.07904632 -0.08977646 0.046264745
0.041877378 -0.053925373 0.019429307 0.04535758 0.13718334 0.15199435 0.13794394 0.12662171
00000000: 0623 81bc f99e 703d 61f2 ce3d 5728 b83d
00000010: 2872 09bc a7e3 10bc 0dcd 893d 4224 5abc
00000020: 79a5 493c 6574 6b3d 72cc d13d 5d07 bdbb
00000030: 529c a53d 892c 80bd 2ba2 8abd 0e61 8bbd
00000040: 509d 92bd 9d1a fb3d a77c 4d3c 0ed4 863d
00000050: e20d 373c 2f51 bd3d af8c 73bd 8f39 cd3d
00000060: 95d7 e93d 46b6 f2bc 2c45 a3bc 4791 6ebd
00000070: f9d2 d83d b3ef 6abb 901b 5cbd 6c79 f33c
00000080: 863d f7bc ed1d 44bd f50f 60bd 79ed 4abc
00000090: 8559 d0bd 6806 f73c 60b6 dfbd 3fd8 793d
000000a0: cf79 aabd 23b7 a23c a5e3 87bd bce5 b5bd
000000b0: 007a a5bd 38c6 fe3d 0877 843c 85eb 5ebc
000000c0: ce76 f2bd b4b7 6dbc 9b26 6b3d eb3a f13c
000000d0: 07c9 35bd 3f91 5a3d 672d 283d 7071 213d
000000e0: 4d4a 2fbd 3a20 cd3c 1e90 bb3d 5bf0 ec3d
000000f0: d56c 33bd 531e d4bc c6ab 8f3b 28fd 763c
00000100: cb00 ae3c fb9f e73d ba22 a9bd a5f2 a43d
00000110: b6f9 903d f617 babd ad97 053e d98b 793c
00000120: 03a7 e13d 5bd5 a5bd 7b4e 49bd e5b8 a9bc
00000130: 6765 c63d 16de b43d fb79 de3d 0648 81bc
00000140: f343 953d a97d 30bd 3a8a 08bc 562c e13c
00000150: e4cb b5bd b78c 693d aac3 2abd 9f03 f53c
00000160: ea49 3fbb 7576 903d 0e61 a4bd 68b6 ccbd
00000170: bcc0 93ba e163 08be a37c 90bc ce73 92bd
00000180: 69e5 9d3d 8a69 95bd 4204 b6bd 4d8b 6b3d
00000190: 0645 08be e1f0 913d c1dc bdbd 89e3 09bd
000001a0: 3d63 d1bc 5a25 b0bc ce53 133c 8063 a63d
000001b0: 9c04 cfbc f0aa e83c 26b9 5ebb 2842 fcbc
000001c0: a45d e0bc 39bd 3dbd cbc3 13bd 23cf 90bd
000001d0: eb9d a73c 28e6 51bd b957 a4bd 54da e5bb
000001e0: 626a 05bd 0e98 2b3d 5c30 18bc 1635 dbbd
000001f0: 298a 11be dc49 d53d eb8e ab3a e3a7 cf3d
00000200: 9040 a23d 613f 91bd 68f2 f2bc 28da a3bc
00000210: 412f c3bb b30a bd3d 7a2f d7bc 25bd 493c
00000220: 056d bfbd a0a3 15bd 60fa 99bd 9af9 b23c
00000230: ecc3 b43a 65c8 f23c 9e0b 823c 004c 32bc
00000240: 2106 87bc 7cd7 343d 29b8 b13d c854 ec3a
00000250: 1fb1 283c 4ee4 893d 741a 5e3d 390a bf3c
00000260: adb6 54bc 4092 aabd e8ec 11bc f072 4fbc
00000270: 8268 bcbd 8110 c63b bdfd d63d 321f 80bd
00000280: b850 863d a809 f43c 8e24 653d bcd7 fc3d
00000290: da8a 533d 5a27 eebd 531f 46bd 90e3 4e3d
000002a0: 85c4 d33d 086d c33c 2295 14be 6f44 00be
000002b0: 577a 8e3c 081e da3c 8e46 45bd d193 963d
000002c0: c3d5 123d 9c9c b1bd 55a8 8b3d 2866 cd3d
000002d0: 2f7f d7bd 109c cd3d 3ab3 8f3c 12d8 533c
000002e0: 088a a53b 5390 a33d 05a3 4fbc cd95 3abd
000002f0: eb37 d9bd faa1 fabd a5d0 643c c27d e13c
00000300: 5549 983d c3b4 813d c1c7 c13d 31fc 92bd
00000310: e300 e13c f1a0 cdba cfbb 82bb 95af 9a3c
00000320: d090 fd3c c87f 3bbd 72f2 3c3d cffb b0bd
00000330: ba54 8bbc 6ca7 593d b6f5 c63d 7b06 18bd
00000340: 766d d13d c35b 33bd a3ac 92bc c333 9b3d
00000350: 5862 84bd fb0f d83d 5779 003d 8873 e5bd
00000360: c3f6 e4bd 7274 5b3d 8644 12bd d6b7 453d
00000370: 8faf 3c3b bc00 80bd 0a6e 3a3c 7e71 abbc
00000380: e4be 87bd 53be c33d ab1c 40bd 4773 753d
00000390: ed2b edbd 169a 813b f061 c4bd 812d a53d
000003a0: 4919 aa3d 6997 b9bc b938 00be 5537 f9bc
000003b0: ed1b 82bc 0527 a6bd 8aaf dd3d 6f30 cdbd
000003c0: c3bc cc3d c8a5 a73d 10b0 5e3c d160 c4bd
000003d0: 6406 be3d 09e3 a13d b8dc b7bd 1a80 3d3d
000003e0: 9d87 2b3d dae0 5cbd 362a 9f3c dfc8 393d
000003f0: ca79 0c3e 68a4 1b3e 2d41 0d3e 1fa9 013e

conv.0.bias f4 [32]
-0.0035910432 -0.0033413016 0.10418596 0.10513385 -0.013224811 0.09538097 -0.05918601 0.0687303
0.08476447 0.10177878 -0.04832581 0.018280398 -0.08879129 -0.11053484 0.014100795 -0.1039896
-0.10320897 -0.012763147 0.058316987 -0.033258144 -0.13177335 0.09815639 0.040887237 0.01862049
-0.111485496 -0.05056005 -0.1167918 0.09211695 -0.100449115 0.041101124 0.09037408 -0.07953703
00000000: b557 6bbb bdf9 5abb 735f d53d 6a50 d73d
00000010: e1ac 58bc 1957 c33d 086d 72bd 79c2 8c3d
00000020: ff98 ad3d 6571 d03d 49f1 45bd c6c0 953c
00000030: 35d8 b5bd 1760 e2bd 0507 673c 80f8 d4bd
00000040: 395f d3bd 851c 51bc cbdd 6e3d b139 08bd
00000050: 98ef 06be 3806 c93d 6079 273d ff89 983c
00000060: 8252 e4bd 0e18 4fbd 8a30 efbd d0a7 bc3d
00000070: 44b8 cdbd a759 283d 0c16 b93d 4fe4 a2bd

conv.1.weight f4 [32]
0.98904663 1.005057 0.9875127 1.0166556 1.0363522 0.9908798 1.029598 1.0186164
0.98448 1.0104692 0.95358986 0.96559745 0.9853762 0.9802448 1.0368832 1.0331953
0.9762714 1.0047696 1.0192771 0.9860524 1.0172511 0.9829612 0.9827472 1.0170507
0.9901969 0.98317343 0.9840448 0.98055387 0.9844602 0.9830849 1.0278355 1.0210278
00000000: 2932 7d3f b5a5 803f a2cd 7c3f c521 823f
00000010: 30a7 843f 4caa 7d3f dec9 833f 0662 823f
00000020: e206 7c3f 0e57 813f 771e 743f 6531 773f
00000030: 9d41 7c3f 53f1 7a3f 97b8 843f be3f 843f
00000040: ecec 793f 4a9c 803f ac77 823f ee6d 7c3f
00000050: 4935 823f 58a3 7b3f 5295 7b3f b82e 823f
00000060: 8b7d 7d3f 41b1 7b3f 5cea 7b3f 9405 7b3f
00000070: 9505 7c3f 74ab 7b3f 1d90 833f 0ab1 823f

conv.1.bias f4 [32]
-0.016143044 -0.023830332 -0.012367577 -0.053796835 -0.04353987 -0.055173554 -0.016938154 -0.042606413
0.07435078 -0.002985003 -0.03664384 -0.04872581 0.0001259056 -0.042834133 -0.0798576 0.02471236
0.020575842 -0.08266824 -0.02627335 -0.018598568 -0.058506846 -0.010899157 -0.036387596 -0.045662332
-0.073445775 -0.03572321 -0.034204174 -0.018109744 -0.0007959574 -0.07548431 -0.0007596474 0.006317118
00000000: 6b3e 84bc d437 c3bc 61a1 4abc 125a 5cbd
00000010: dd56 32bd aafd 61bd e2c1 8abc 1084 2ebd
00000020: 3945 983d 0aa0 43bb da17 16bd b794 47bd
00000030: 8705 0439 d872 2fbd 628c a3bd 9371 ca3c
00000040: ab8e a83c f74d a9bd 353b d7bc 065c 98bc
00000050: e0a4 6fbd 6192 32bc 290b 15bd 6d08 3bbd
00000060: bd6a 96bd 8052 12bd ad19 0cbd e35a 94bc
00000070: cca7 50ba 8597 9abd 1323 47ba d4ff ce3b

conv.1.running_mean f4 [32]
0.27029192 -0.24867287 0.18511069 -0.018210411 0.062697455 0.117614314 -0.032535788 -0.06767324
-0.2685738 -0.16379485 0.32062206 0.31643513 -0.09820604 0.07672151 -0.12635288 -0.11430958
-0.30412525 -0.008851776 0.004047768 -0.20575772 -0.42256802 -0.3019976 -0.41998535 -0.00830722
-0.079277046 0.097604014 0.33402362 -0.29426557 -0.94124764 0.5550237 0.0904342 -0.056640096
00000000: b463 8a3e 1aa4 7ebe a88d 3d3e 002e 95bc
00000010: 8667 803d c6df f03d 3f44 05bd 4598 8abd
00000020: 8182 89be d6b9 27be 9328 a43e c903 a23e
00000030: 4020 c9bd 2b20 9d3d a662 01be 241b eabd
00000040: 4eb6 9bbe 0a07 11bc 24a3 843b 27b2 52be
00000050: d65a d8be 6e9f 9abe 5208 d7be 021b 08bc
00000060: 015c a2bd 9de4 c73d 2505 ab3e faa9 96be
00000070: 9bf5 70bf 0916 0e3f 9135 b93d 72ff 67bd

conv.1.running_var f4 [32]
0.028282084 0.028747374 0.013466836 0.02309754 0.03548234 0.012011931 0.025616609 0.019267587
0.054443344 0.026452577 0.064404115 0.03132981 0.035590716 0.030926952 0.015110878 0.007074677
0.016582694 0.00720737 0.03137469 0.02544783 0.03056345 0.045889247 0.05954693 0.043155387
0.018428626 0.025930416 0.102957465 0.041866746 0.19480965 0.060201555 0.010145063 0.011842176
00000000: d4af e73c 9d7f eb3c 01a4 5c3c 0d37 bd3c
00000010: ee55 113d b1cd 443c ecd9 d13c 0fd7 9d3c
00000020: fcff 5e3d 13b3 d83c 4ee6 833d b053 003d
00000030: 92c7 113d 855a fd3c 9e93 773c b1d2 e73b
00000040: 6ed8 873c cd2b ec3b bf82 003d f877 d03c
00000050: 3360 fa3c 5df6 3b3d 7be7 733d b4c3 303d
00000060: a1f7 963c 066c d43c 5ddb d23d 777c 2b3d
00000070: 2e7c 473e e895 763d 7a37 263c b005 423c

conv.4.weight f4 [32, 32, 3, 3]
-0.016589245 -0.030099723 0.009991946 0.03152914 -0.01967768 -0.014022602 -0.05928389 0.02065679
-0.031735837 -0.018653698 -0.014480813 -0.017683802 -0.049172018 0.062117293 0.053957455 -0.07433681
-0.070378765 -0.016051387 0.012113905 -0.041955233 -0.019094318 0.0055723647 0.0010214843 -0.11324151
0.022187587 -0.018518081 0.00993259 0.054010745 0.007676262 -0.0074763843 0.05381375 -0.048253905
-0.022632083 0.02422455 -0.043847505 -0.040929306 -0.035677064 -0.051740758 -0.037843317 -0.03958851
-0.017886246 -0.022305747 0.008237637 0.015452687 0.054061443 -0.044204365 -0.021457542 0.014798135
-0.064168915 -0.004304152 0.046545632 0.048479278 0.045832623 0.014854135 -0.048649877 -0.036159676
0.022894224 -0.02973343 0.0020891163 -0.060835417 0.038268104 -0.006155372 -0.00016211922 0.047270656
0.04739439 -0.059831735 -0.035805818 0.003105163 0.023884319 0.005194646 -0.014852003 -0.036464766
0.04277971 -0.041747496 -0.07176816 -0.0059284423 0.05558541 -0.025674645 0.056951042 -0.03546623
0.0033444911 0.005544879 0.005094755 0.04602195 0.03137654 0.016255477 0.0358767 -0.0180364
0.06634475 0.045352623 -0.01697305 -0.013563171 -0.0061762505 -0.0179085 0.019110797 -0.04202124
0.010414726 -0.038525674 0.046795096 9.457415e-05 -0.016554855 0.038490638 0.05326893 0.04432724
0.02333922 0.008599537 0.058768257 0.056039613 0.011967974 -0.011841033 0.03760543 0.038099676
-0.08357844 -0.037806395 0.02089979 -0.051785823 0.021210665 -0.03678858 -0.05689612 -0.023598375
-0.0058918917 -0.00021080712 -0.06991361 -0.0067053856 -0.0033026405 -0.00660976 -0.012190292 -0.04609151
0.012636567 -0.052889425 0.036192387 -0.0160762 0.012237442 -0.0112757925 -0.068720885 0.024921305
-0.017082453 0.012946714 0.029249128 -0.0669509 0.03097104 -0.034595937 0.05489384 0.041782755
-0.02006675 0.029342199 0.0007333124 0.04812885 0.058094125 -0.006642398 -0.013404125 0.00536147
0.05370367 0.025606975 0.03183106 0.0214155 0.0030134304 -0.024323491 -0.05999774 -0.029260537
0.023490384 0.019505197 -0.0046467427 0.009937792 0.026430907 -0.030517727 0.028955566 -0.004367878
0.106989816 -0.02996026 0.0014369208 0.009219902 0.01357641 -0.0031934257 -0.019131899 0.047723018
0.019066306 -0.02730851 -0.07773914 -0.012461398 -0.015924374 0.0373146 0.04072213 0.017859414
0.014739864 0.03412791 0.046126448 -0.04851736 -0.07167248 0.0086888615 -0.046380136 0.06005148
-0.03241718 0.03872483 -0.009752535 0.012707974 -0.046030294 -0.0047964486 -0.044204533 0.03165389
0.040894892 0.055972997 0.012812049 0.024989009 -0.08591574 0.010490097 0.047886014 0.030009164
0.0074184695 0.055158034 -0.035416294 -0.015772985 0.036656596 0.05322006 -0.026946053 0.0718762
0.007950822 -0.0075689764 -0.047200717 0.05697404 0.02603744 -0.05271769 -0.044820223 0.04531645
0.029747436 0.015634645 0.027147159 -0.026949802 0.05298063 -0.011495061 0.020005098 -0.040726952
-0.06233157 -0.036724474 -0.009853241 0.024245257 -0.057680596 0.0073497435 -0.05167611 0.009898502
-0.046593975 -0.048134774 0.012446139 0.06411073 0.02011421 0.04019298 -0.040369574 0.011972719
-0.0035429492 -0.029270874 -0.015159235 0.05766535 0.008973773 -0.076180965 -0.014911742 -0.015373372
00000000: 2be6 87bc b293 f6bc 42b5 233c b324 013d
00000010: 1633 a1bc 0ebf 65bc aad3 72bd 6e38 a93c
00000020: 70fd 01bd a4cf 98bc ef40 6dbc 9fdd 90bc
00000030: 9968 49bd b46e 7e3d 7e02 5d3d e63d 98bd
00000040: be22 90bd 337e 83bc 6679 463c 40d9 2bbd
00000050: b06b 9cbc 6298 b63b 53e3 853a 2aeb e7bd
00000060: bec2 b53c 3bb3 97bc 4dbc 223c 5f3a 5d3d
00000070: 2789 fb3b 75fc f4bb cf6b 5c3d e3a5 45bd
00000080: eb66 b9bc 9072 c63c 7199 33bd 7da5 27bd
00000090: 1d22 12bd 1eee 53bd 9801 1bbd 9027 22bd
000000a0: 2d86 92bc 8bba b6bc 27f7 063c 442d 7d3c
000000b0: 886f 5d3d a30f 35bd bac7 afbc e073 723c
000000c0: fe6a 83bd d809 8dbb a2a6 3e3d 3592 463d
000000d0: fdba 3b3d c25e 733c 1845 47bd 2b1c 14bd
000000e0: ab8c bb3c 8693 f3bc 8ee9 083b 8f2e 79bd
000000f0: 04bf 1c3d 01b3 c9bb 8cfe 29b9 e09e 413d
00000100: 9f20 423d 1f12 75bd 1fa9 12bd fe7f 4b3b
00000110: 0ca9 c33c d937 aa3b d155 73bc 145c 15bd
00000120: c739 2f3d 6cff 2abd 2ffb 92bd 6143 c2bb
00000130: 87ad 633d a253 d2bc 7f45 693d 0a45 11bd
00000140: 402f 5b3b d1b1 b53b e7f1 a63b 8381 3c3d
00000150: b084 003d 352a 853c 72f3 123d 13c1 93bc
00000160: c2df 873d acc3 393d 110b 8bbc 1038 5ebc
00000170: 2562 cabb d9b4 92bc 3f8e 9c3c 771e 2cbd
00000180: 87a2 2a3c 19cd 1dbd 37ac 3f3d 1c56 c638
00000190: 0c9e 87bc 5ca8 1d3d 8630 5a3d 7b90 353d
000001a0: e431 bf3c 13e5 0c3c fcb6 703d cb89 653d
000001b0: 5215 443c e400 42bc 2708 1a3d 680e 1c3d
000001c0: 2c2b abbd e1da 1abd 0936 ab3c 5f1d 54bd
000001d0: fdc1 ad3c 9faf 16bd e80b 69bd 6151 c1bc
000001e0: c510 c1bb 1b0c 5db9 de2e 8fbd dab8 dbbb
000001f0: 1d71 58bb b096 d8bb cab9 47bc 74ca 3cbd
00000200: 9a09 4f3c 95a2 58bd 783e 143d 3cb2 83bc
00000210: 8d7f 483c 1abe 38bc 89bd 8cbd c427 cc3c
00000220: 80f0 8bbc 741e 543c de9b ef3c 8e1d 89bd
00000230: fab6 fd3c 78b4 0dbd 5dd8 603d 6524 2b3d
00000240: 0663 a4bc 0d5f f03c c33b 403a c222 453d
00000250: 1bf4 6d3d 79a8 d9bb fa9c 5bbc 45af af3b
00000260: 61f8 5b3d b8c5 d13c 4961 023d 8f6f af3c
00000270: f97c 453b 0f42 c7bc 31c0 75bd cbb3 efbc
00000280: e86e c03c 5dc9 9f3c b443 98bb 1fd2 223c
00000290: a185 d83c 5000 fabc 3934 ed3c 6b20 8fbb
000002a0: 7a1d db3d 386f f5bc 1057 bc3a 120f 173c
000002b0: 976f 5e3c cb48 51bb 80ba 9cbc 3679 433d
000002c0: f130 9c3c 19b6 dfbc b335 9fbd e42a 4cbc
000002d0: d573 82bc 32d7 183d 40cc 263d e84d 923c
000002e0: 787f 713c b5c9 0b3d 16ef 3c3d 24ba 46bd
000002f0: 05c9 92bd ba5b 0e3c 19f9 3dbd 8af8 753d
00000300: e0c7 04bd ed9d 1e3d 19c9 1fbc 1b35 503c
00000310: 438a 3cbd 872b 9dbb d00f 35bd 82a7 013d
00000320: 6781 273d f143 653d a1e9 513c c0b5 cc3c
00000330: 97f4 afbd a8de 2b3c 2024 443d c7d5 f53c
00000340: a216 f33b 64ed 613d ad10 11bd 5936 81bc
00000350: 3a25 163d 47fd 593d f8bd dcbc d433 933d
00000360: 2a44 023c 2d05 f8bb 8a55 41bd 9c5d 693d
00000370: 784c d53c 81ee 57bd 6995 37bd be9d 393d
00000380: e5b0 f33c 3a14 803c b863 de3c d5c5 dcbc
00000390: 3802 593d c855 3cbc bbe1 a33c 4ed1 26bd
000003a0: 634f 7fbd 676c 16bd 7d6f 21bc fd9d c63c
000003b0: 7d42 6cbd 1ed6 f03b 54aa 53bd 542d 223c
000003c0: 53d9 3ebd f828 45bd e4ea 4b3c 7d4c 833d
000003d0: 8ec6 a43c 65a1 243d 915a 25bd 3929 443c
000003e0: d330 68bb 79c9 efbc 715e 78bc 8132 6c3d
000003f0: bb06 133c c404 9cbd 6150 74bc 98e0 7bbc

conv.4.bias f4 [32]
0.055873495 -0.007871451 0.045619573 0.05941008 -0.020210404 -0.014879432 -0.003933824 -0.0374621
-0.037428014 -0.011283719 -0.011930364 -0.018150466 -0.032335352 -0.0437866 0.008409443 0.041139606
0.010304868 0.035258316 0.03607205 0.011039004 -0.0078013907 -0.03922765 -0.02247151 -0.009554865
0.030064583 0.050899673 0.03544034 -0.046201397 0.017520465 -0.0614853 0.019978479 0.044578873
00000000: 9bdb 643d 42f7 00bc 97db 3a3d fc57 733d
00000010: 4a90 a5bc dcc8 73bc 4fe7 80bb dc71 19bd
00000020: 1e4e 19bd 59df 38bc 9377 43bc 49b0 94bc
00000030: 1372 04bd 9459 33bd c3c7 093c 0182 283d
00000040: c0d5 283c 066b 103d 49c0 133d f0dc 343c
00000050: cfa2 ffbb 2cad 20bd 2c16 b8bc 028c 1cbc
00000060: 004a f63c 2d7c 503d e429 113d ad3d 3dbd
00000070: 1487 8f3c 03d8 7bbd e8a9 a33c 5698 363d

conv.5.weight f4 [32]
1.0976022 1.0996978 1.1168126 1.1195318 1.1189781 1.1001401 1.1313223 1.1067039
1.1068047 1.1080116 1.0899968 1.1190497 1.0941657 1.1122398 1.1205621 1.0781025
1.0983888 1.1093754 1.1156751 1.1199561 1.0955336 1.1055171 1.112163 1.0865397
1.1145834 1.1116244 1.0928835 1.104198 1.1086872 1.1004256 1.1188631 1.1165133
00000000: 3b7e 8c3f e6c2 8c3f b7f3 8e3f d14c 8f3f
00000010: ad3a 8f3f 64d1 8c3f 2bcf 903f 79a8 8d3f
00000020: c7ab 8d3f 53d3 8d3f 0485 8b3f 053d 8f3f
00000030: 9f0d 8c3f e05d 8e3f 946e 8f3f 43ff 893f
00000040: 0198 8c3f 0300 8e3f 71ce 8e3f b95a 8f3f
00000050: 723a 8c3f 9681 8d3f 5b5b 8e3f bc13 8b3f
00000060: abaa 8e3f b549 8e3f 9be3 8b3f 5c56 8d3f
00000070: 76e9 8d3f bfda 8c3f e836 8f3f e8e9 8e3f

conv.5.bias f4 [32]
0.09053406 0.086974844 0.07779911 0.10317316 0.096722275 0.08750773 0.10213249 0.09716264
0.08831026 0.09317853 0.081205174 0.09231852 0.08191349 0.102180414 0.09632647 0.06632012
0.0935356 0.08560523 0.08931757 0.09399008 0.08270584 0.09485236 0.089876495 0.081767894
0.096638724 0.09425286 0.082041405 0.092855096 0.08933921 0.08229172 0.097871035 0.09298197
00000000: ec69 b93d de1f b23d 2455 9f3d 734c d33d
00000010: 5416 c63d 4137 b33d d72a d13d 35fd c63d
00000020: 02dc b43d 63d4 be3d e64e a63d 7e11 bd3d
00000030: 43c2 a73d f743 d13d d046 c53d d8d2 873d
00000040: 988f bf3d cb51 af3d 21ec b63d df7d c03d
00000050: ae61 a93d f441 c23d 2b11 b83d ed75 a73d
00000060: 86ea c53d a507 c13d 5305 a83d d02a be3d
00000070: 7af7 b63d 9088 a83d 9c70 c83d 556d be3d

conv.5.running_mean f4 [32]
0.08686475 0.17380106 0.16505104 0.04873368 -0.009295984 0.1695188 -0.10170749 -0.5638394
-0.3119924 -0.69720215 0.018750865 -0.46732232 0.1489907 -0.012645707 -0.41471958 0.45704454
0.11745095 0.05915982 -0.15994583 -0.040065512 -0.13002926 -0.19814081 0.11636397 0.35857606
0.04600508 0.22151719 0.019888379 0.13682516 0.00539547 -0.02664731 -0.060229216 -0.00052029395
00000000: 25e6 b13d e8f8 313e 2403 293e f89c 473d
00000010: 2f4e 18bc 5696 2d3e 044c d0bd c757 10bf
00000020: 78bd 9fbe d77b 32bf 6a9b 993c df44 efbe
00000030: 0591 183e f02f 4fbc 2056 d4be be01 ea3e
00000040: 208a f03d 9151 723d d7c8 23be bc1b 24bd
00000050: 6426 05be 6de5 4abe 3c50 ee3d 4897 b73e
00000060: d36f 3c3d 67d5 623e f4ec a23c e51b 0c3e
00000070: 7ccc b03b 764b dabc e9b2 76bd 5664 08ba

conv.5.running_var f4 [32]
0.028269045 0.025499836 0.009224816 0.012129509 0.012588214 0.026020987 0.0113361785 0.06387909
0.031156868 0.044921417 0.022736829 0.014736038 0.016718837 0.01254073 0.018290656 0.04316534
0.050172467 0.01604777 0.013922014 0.0117458515 0.020660095 0.020207692 0.013468505 0.044206835
0.019119581 0.020574657 0.03235326 0.023224756 0.011874252 0.015061081 0.013071023 0.027468685
00000000: 7c94 e73c 08e5 d03c af23 173c d9ba 463c
00000010: cc3e 4e3c f729 d53c 61bb 393c 0ad3 823d
00000020: b03c ff3c 85ff 373d 9642 ba3c 6c6f 713c
00000030: f1f5 883c a277 4d3c 49d6 953c 24ce 303d
00000040: a581 4d3d 9d76 833c 2919 643c ac71 403c
00000050: 5c3f a93c 9a8a a53c 01ab 5c3c 3a12 353d
00000060: aba0 9c3c 2f8c a83c da84 043d d841 be3c
00000070: 398c 423c c1c2 763c d827 563c 0206 e13c

fc.0.weight f4 [342, 128]
-0.14241745 -0.1627631 -0.01807432 0.01201566 -0.04552037 -0.07491722 0.13745672 -0.13045417
0.026836982 -0.09351265 0.1831184 0.098395266 -0.109203875 0.14824894 0.15444222 -0.09859565
-0.055782303 -0.027515694 0.160748 -0.067020096 -0.003003631 0.09632477 0.024132352 0.048426665
0.17623839 0.13199893 0.12671947 0.1737182 0.03534466 0.09290497 -0.08765496 0.1026159
0.03233117 0.09506073 0.07429948 -0.19813949 -0.15040533 0.08678392 -0.061665334 -0.009255451
0.018222785 0.13595937 -0.061542667 0.035722744 0.095540695 0.034272823 -0.044007044 0.0044314777
-0.1452015 0.0061595975 0.15526102 -0.001961017 0.18761542 -0.0117330635 0.097407386 0.06567832
0.08987514 0.03455502 0.027072867 -0.06685576 -0.026676325 0.12337177 -0.030915856 0.12481167
-0.0032206215 -0.09449192 0.0021220976 0.031185323 -0.13677782 -0.11552812 0.002187978 0.033579387
0.05185254 0.021174395 0.04164555 -0.017745035 -0.05091216 -0.051263794 -0.14840126 0.03557915
0.1389812 0.17261112 0.06222904 -0.06789039 0.17470615 -0.025039477 0.073386386 -0.13659886
0.08906682 -0.0022405507 0.16976482 -0.07533016 0.009853263 -0.1661902 0.09601286 0.117392525
-0.059322294 -0.14369446 0.07447997 0.16399723 -0.0681796 -0.14719902 0.17059052 0.12482479
0.06479089 0.05256032 0.16403902 0.01691747 0.0037938068 0.09588008 0.04624113 0.19461806
0.07601231 0.1191218 0.12023249 -0.07270167 -0.108495764 -0.034948785 0.06945691 0.015004154
0.026623482 -0.0014474939 0.18586326 0.015981644 0.02503336 -0.20187162 0.041728687 0.14334461
-0.027736953 0.050622556 -0.088653244 -0.04654794 0.0256076 -0.022302167 -0.015125293 -0.019222457
0.13044119 -0.07119541 0.07544919 0.13105457 -0.021994224 -0.035561856 0.10565701 0.08623344
-0.010816868 -0.08659424 -0.076721944 -0.026216045 0.103024594 -0.03625062 0.13285832 -0.07708546
-0.0838209 0.13300486 -0.09157177 0.04288582 0.035384513 0.030877022 0.0321631 -0.097768046
0.120434135 -0.07125987 -0.04137277 -0.009395054 -0.050571173 -0.064092375 0.01916668 0.06033179
0.12644261 0.059456836 0.010747962 -0.06741291 0.12244786 0.006827862 0.021544823 0.06825831
0.07332038 0.03628722 0.11172331 -0.06078362 0.060299054 -0.15335898 -0.12791693 0.11695176
-0.06262117 0.03146093 0.06106791 0.08125281 -0.037842914 0.072322294 0.011966172 -0.087408245
-0.07047644 -0.03835531 -0.047976468 0.012893532 0.058549825 0.046121426 0.03484296 -0.034305062
0.0018142848 -0.09532691 0.096065976 0.077662766 0.014976938 0.0904096 0.10363509 0.0986687
0.067548975 0.05271653 0.085457206 0.009536926 0.1167006 -0.0061136144 -0.08978509 -0.021220587
0.13765691 -0.1053688 0.074829005 0.07908233 -0.07760796 0.111649334 -0.018380167 0.045067534
-0.033400435 -0.046245527 0.106029384 0.029058782 -0.13187172 -0.12938394 0.07510899 -0.047785938
-0.07218234 -0.056042884 0.06897064 0.019405035 -0.01932899 0.009993756 -0.026636334 0.022569505
0.06280346 -0.15189369 0.067714356 0.014388583 -0.02530518 0.055376653 -0.017543074 0.09378282
0.061287094 -0.12065489 0.011294428 0.09923562 0.047138825 0.121140875 0.12793352 -0.013827099
00000000: e1d5 11be 5fab 26be 9910 94bc 55dd 443c
00000010: 9173 3abd 336e 99bd 74c1 0c3e c795 05be
00000020: 3bd9 db3c 8f83 bfbd 6483 3b3e 7583 c93d
00000030: 48a6 dfbd 92ce 173e 1a26 1e3e 84ec c9bd
00000040: fc7b 64bd 9868 e1bc 209b 243e d541 89bd
00000050: 91d8 44bb ec45 c53d 36b1 c53c 0a5b 463d
00000060: d677 343e ba2a 073e c0c2 013e 2fe3 313e
00000070: 90c5 103d f644 be3d 7284 b3bd 4928 d23d
00000080: b06d 043d 33af c23d 532a 983d 14e5 4abe
00000090: db03 1abe c5bb b13d ca94 7cbd 2da4 17bc
000000a0: f347 953c ef38 0b3e 2a14 7cbd 0352 123d
000000b0: d7aa c33d a961 0c3d bb40 34bd ee35 913b
000000c0: b4af 14be 73d6 c93b bffc 1e3e 6884 00bb
000000d0: 421e 403e 093c 40bc 867d c73d 5b82 863d
000000e0: 7510 b83d 9189 0d3d ebc7 dd3c aceb 88bd
000000f0: 4f88 dabc 57aa fc3d 4043 fdbc 439d ff3d
00000100: 1011 53bb fb84 c1bd e412 0b3b 5d78 ff3c
00000110: 7c0f 0cbe 029a ecbd 2e64 0f3b 8a8a 093d
00000120: 5463 543d ed75 ad3c 8694 2a3d 095e 91bc
00000130: 4589 50bd fcf9 51bd 80f6 17be 71bb 113d
00000140: 1651 0e3e f8c0 303e e1e3 7e3d 1e0a 8bbd
00000150: 2be6 323e 971f cdbc 9a4b 963d 92e0 0bbe
00000160: aa68 b63d 34d6 12bb d4d6 2d3e b346 9abd
00000170: 956f 213c c42d 2abe 64a2 c43d 7e6b f03d
00000180: effb 72bd a424 13be f488 983d e4ee 273e
00000190: bfa1 8bbd 57bb 16be 48af 2e3e 24a4 ff3d
000001a0: 16b1 843d 7d49 573d d8f9 273e 8296 8a3c
000001b0: 84a1 783b c65c c43d 5767 3d3d f549 473e
000001c0: 58ac 9b3d 21f6 f33d 743c f63d 9de4 94bd
000001d0: 0733 debd 7526 0fbd 6d3f 8e3d fcd3 753c
000001e0: 7d19 da3c d6b9 bdba f052 3e3e f0eb 823c
000001f0: c312 cd3c 6fb7 4ebe b3eb 2a3d eec8 123e
00000200: 9b38 e3bc 9959 4f3d d58f b5bd 0da9 3ebd
00000210: 08c7 d13c 09b3 b6bc 14d0 77bc 6a78 9dbc
00000220: 6092 053e e6ce 91bd 1b85 9a3d 2b33 063e
00000230: 3b2d b4bc 4fa9 11bd b462 d83d 289b b03d
00000240: 3c39 31bc 5258 b1bd 6520 9dbd 08c3 d6bc
00000250: 8ffe d23d 887b 14bd 030c 083e fbde 9dbd
00000260: 4baa abbd 6d32 083e fb89 bbbd 0ba9 2f3d
00000270: 5aef 103d cff1 fc3c 74bd 033d 9d3a c8bd
00000280: 2ca6 f63d b2f0 91bd 7e76 29bd b6ed 19bc
00000290: b823 4fbd dd42 83bd 7103 9d3c 781e 773d
000002a0: 2c7a 013e 0389 733d 3818 303c c80f 8abd
000002b0: f2c5 fa3d 42bc df3b c57e b03c 03cb 8b3d
000002c0: ff28 963d e8a1 143d 31cf e43d 3ff8 78bd
000002d0: 24fc 763d 230a 1dbe a8fc 02be 6884 ef3d
000002e0: 873f 80bd 2ddd 003d 5822 7a3d e067 a63d
000002f0: 2c01 1bbd b61d 943d c30d 443c 1803 b3bd
00000300: f455 90bd 751a 1dbd f982 44bd 653f 533c
00000310: f1d1 6f3d d2e9 3c3d 7eb7 0e3d 7783 0cbd
00000320: 4ccd ed3a c13a c3bd 3dbe c43d a80d 9f3d
00000330: d561 753c ab28 b93d a23e d43d d112 ca3d
00000340: 1e57 8a3d 4aed 573d 3004 af3d c440 1c3c
00000350: b900 ef3d b754 c8bb 3fe1 b7bd ccd6 adbc
00000360: eff5 0c3e 99cb d7bd f33f 993d ebf5 a13d
00000370: ecf0 9ebd 68a8 e43d 0192 96bc bc98 383d
00000380: e5ce 08bd f36b 3dbd ef25 d93d af0c ee3c
00000390: 6109 07be 397d 04be bed2 993d 30bb 43bd
000003a0: 56d4 93bd 398d 65bd 7b40 8d3d 4ff7 9e3c
000003b0: d457 9ebc dabc 233c 7134 dabc afe3 b83c
000003c0: 1a9f 803d 058a 1bbe d3ad 8a3d 17be 6b3c
000003d0: cf4c cfbc a1d2 623d 7eb6 8fbc 3511 c03d
000003e0: 2d08 7b3d e919 f7bd 440c 393c 0b3c cb3d
000003f0: a414 413d b518 f83d 0101 033e 0f8b 62bc

fc.0.bias f4 [342]
-0.024990471 0.094982386 0.10475791 -0.0016785735 0.08610357 -0.057384603 -0.012441062 0.0547707
-0.0050745364 -0.0042514056 -0.0017797411 0.07654347 0.010710786 -0.030999448 0.08217194 0.14426994
0.09302064 0.09134289 -0.02199358 0.13109079 0.010596613 -0.0048351604 0.056809235 -0.027657794
0.11182097 0.040889457 0.08822895 0.033891 0.1016913 0.06092537 0.0501492 -0.0008920093
-0.061586875 0.01844564 -0.0077309874 0.06678671 0.03934674 0.08572819 -0.010885833 0.09502737
0.015812606 0.027713712 0.00330334 -0.00493143 0.016082305 0.10788024 -0.04058229 0.10815071
-0.055570386 0.057388738 0.08822358 0.059947934 0.073324785 0.06732638 0.028204223 -0.01479261
0.007795947 -0.007815409 0.12218206 0.020518638 0.008678205 0.0632707 0.081226066 0.05400525
0.061361376 -0.016900314 -0.053937092 0.049750637 0.08293845 -0.03940623 0.054634377 0.02140113
0.054246105 0.052733053 0.1415812 0.052180048 0.13040037 0.013434467 -0.010082647 0.034356453
-0.012963795 0.01558163 -0.0056422125 0.13195108 0.028916633 0.006418605 0.034702685 0.07270514
0.0021294244 0.058725867 0.10194756 0.075532384 0.106515795 0.14491291 0.07046026 0.114254326
-0.021410992 0.048534837 0.116604164 0.026956849 0.043153353 -0.065205075 -0.015481707 -0.07559526
0.03489623 0.10562424 -0.010081089 0.006511709 0.06016909 0.08548778 0.04543036 -0.0003535936
-0.051071197 0.07666653 -0.016371 0.028164294 -0.0188929 0.04914764 -0.036508933 0.09848713
0.12357841 0.03231504 0.10226545 0.048526015 0.052105863 -0.027738383 -0.027811496 -0.075345606
0.050267845 0.104544535 0.038973503 -0.04459284 0.12662843 -0.047702305 0.028379845 0.02658532
-0.005504696 0.004306001 0.09030534 -0.0041780863 0.0026430548 -0.04047355 -0.0058036624 0.061942138
0.06175668 0.041754954 0.061687946 0.09091516 -0.058495127 0.0866295 0.029610757 0.018402154
0.023960035 0.06666482 0.021614628 -0.09202278 0.08467663 0.12224937 0.071548246 0.14448446
0.06788605 0.00849232 0.098694466 -0.012290066 -0.0030234745 -0.04713979 0.06483104 -0.05896536
-0.033194534 0.112774186 0.033147223 0.1273164 0.024394581 0.015711559 -0.035612706 0.1275861
-0.03267763 -0.0688027 -0.061793502 0.10343989 -0.047787342 -0.05792589 -0.013488378 0.014608916
0.021567682 0.006590944 0.06790562 0.09826057 -0.03489905 -0.046309736 0.05848373 -0.0016809439
-0.042188402 0.10306508 0.051658526 0.0009027362 0.08360292 0.084823385 0.045457054 0.092330344
-0.073379844 0.057342526 0.07553609 -0.031646088 0.08394474 0.08264964 -0.020735333 -0.034651656
-0.06261709 0.006472566 0.10730918 -0.040133893 0.08971104 0.06998432 0.1255919 0.028222572
0.031598344 0.10867528 0.011006196 0.041811027 -0.011124367 0.012013023 0.07487806 0.061089568
0.002742877 -0.04165516 -0.06409037 -0.045591965 0.06556228 0.07024615 -0.02435665 0.06780209
0.020555094 0.051068183 0.042878795 0.13163556 0.10008906 0.015796654 0.019093808 0.020496685
0.06505938 0.02074758 0.054043494 0.13397814 -0.0076268115 0.118853934 -0.0052782027 0.086670175
0.09931635 -0.036658015 0.07007032 -0.05050876 0.04080325 0.1146573 0.12422371 0.01012042
00000000: d1b8 ccbc 2086 c23d 518b d63d 9503 dcba
00000010: 1257 b03d 1e0c 6bbd 99d5 4bbc 3e57 603d
00000020: 4c48 a6bb 604f 8bbb 3446 e9ba d3c2 9c3d
00000030: 4b7c 2f3c 8ef2 fdbc c349 a83d 80bb 133e
00000040: 9b81 be3d fb11 bb3d e12b b4bc aa3c 063e
00000050: 6b9d 2d3c 4470 9ebb cdb0 683d 9992 e2bc
00000060: 6502 e53d b47b 273d 61b1 b43d 4ad1 0a3d
00000070: 8743 d03d e18c 793d 3f69 4d3d bbd5 69ba
00000080: 8542 7cbd 501b 973c 3954 fdbb 78c7 883d
00000090: 0c2a 213d 4392 af3d 7e5a 32bc b69d c23d
000000a0: 7089 813c de07 e33c d97c 583b d597 a1bb
000000b0: 0abf 833c 51f0 dc3d 9e39 26bd 1f7e dd3d
000000c0: c69d 63bd 7410 6b3d 90ae b43d f78b 753d
000000d0: 4e2b 963d 6ae2 893d 8b0c e73c b45c 72bc
000000e0: 2575 ff3b 340c 00bc 963a fa3d b416 a83c
000000f0: 082f 0e3c 1294 813d da59 a63d 9c34 5d3d
00000100: 1156 7b3d 8772 8abc 24ed 5cbd 53c7 4b3d
00000110: a2db a93d 6d68 21bd 4cc8 5f3d 6c51 af3c
00000120: 2a31 5e3d 9dfe 573d a9fa 103e bfba 553d
00000130: ad87 053e 3d1c 5c3c b031 25bc 5ab9 0c3d
00000140: 1966 54bc 184a 7f3c 4fe2 b8bb 2f1e 073e
00000150: 93e2 ec3c 2953 d23b 6724 0e3d 6fe6 943d
00000160: d08d 0b3b 898a 703d e2c9 d03d b9b0 9a3d
00000170: f424 da3d 0d64 143e 784d 903d 2cfe e93d
00000180: 1b66 afbc 77cc 463d 2ace ee3d 9cd4 dc3c
00000190: 92c1 303d 3d8a 85bd fca6 7dbc b0d1 9abd
000001a0: 59ef 0e3d 8651 d83d 272b 25bc 2d60 d53b
000001b0: dd73 763d 3814 af3d 2f15 3a3d 8862 b9b9
000001c0: 0830 51bd 5703 9d3d 7a1c 86bc ceb8 e63c
000001d0: 48c5 9abc 094f 493d 648a 15bd 9fb3 c93d
000001e0: ad16 fd3d c65c 043d 8c70 d13d 37c3 463d
000001f0: f56c 553d 9b3b e3bc efd4 e3bc cc4e 9abd
00000200: a8e5 4d3d 721b d63d aea2 1f3d fba6 36bd
00000210: e2aa 013e 7e63 43bd d97c e83c 75c9 d93c
00000220: bd60 b4bb 5b19 8d3b 02f2 b83d 54e8 88bb
00000230: 1a37 2d3b 98c7 25bd a62c bebb 0ab7 7d3d
00000240: 93f4 7c3d 3e07 2b3d 80ac 7c3d ba31 ba3d
00000250: 9698 6fbd cf6a b13d 4292 f23c 1dc0 963c
00000260: d647 c43c 9187 883d 2911 b13c 7076 bcbd
00000270: f16a ad3d e15d fa3d e387 923d bcf3 133e
00000280: d707 8b3d 5f23 0b3c 5320 ca3d 465c 49bc
00000290: 7c25 46bb a715 41bd 23c6 843d a985 71bd
000002a0: fef6 07bd 27f6 e63d 62c5 073d 3b5f 023e
000002b0: 25d7 c73c 87b5 803c a1de 11bd eea5 023e
000002c0: fbd8 05bd 6ee8 8cbd 2f1b 7dbd 4bd8 d33d
000002d0: a9bc 43bd b343 6dbd 5cfe 5cbc 3c5a 6f3c
000002e0: b5ae b03c d8f8 d73b 1a12 8b3d d63c c93d
000002f0: 4ef2 0ebd 47af 3dbd a38c 6f3d 1e53 dcba
00000300: bfcd 2cbd c913 d33d e497 533d 9aa5 6c3a
00000310: 0238 ab3d e2b7 ad3d 2d31 3a3d b117 bd3d
00000320: 2c48 96bd ffdf 6a3d aab2 9a3d 549f 01bd
00000330: 38eb ab3d 3744 a93d 25dd a9bc e5ee 0dbd
00000340: 643d 80bd d217 d43b eac4 db3d 7063 24bd
00000350: 6cba b73d f053 8f3d 2a9b 003e 0633 e73c
00000360: 446d 013d 2591 de3d 5553 343c 0a42 2b3d
00000370: fa42 36bc 45d2 443c ab59 993d 0e39 7a3d
00000380: d7c1 333b 9a9e 2abd d041 83bd a4be 3abd
00000390: 8445 863d 37dd 8f3d 9987 c7bc d2db 8a3d
000003a0: 2863 a83c df2c 513d ada1 2f3d 79cb 063e
000003b0: 7efb cc3d fc67 813c 9e6a 9c3c aae8 a73c
000003c0: da3d 853d d4f6 a93c b65c 5d3d 9131 093e
000003d0: 55ea f9bb b169 f33d c6f4 acbb 2280 b13d
000003e0: 5f66 cb3d b726 16bd 0781 8f3d 46e2 4ebd
000003f0: 4f21 273d 72d1 ea3d 0069 fe3d 1ed0 253c

fc.2.weight f4 [171, 342]
-0.08183338 -0.035255976 -0.10665825 -0.11345608 -0.0003850283 -0.05010862 0.062236927 0.028331045
-0.14489895 0.035283457 -0.10163141 -0.08910525 -0.1272391 -0.023765244 -0.033459615 0.102683395
0.11347766 0.06796526 0.032342058 0.03608631 -0.06842243 0.058934443 -0.014953734 0.012217424
-0.07206487 -0.03425323 0.09591272 -0.07872009 0.065640874 0.04605108 0.017311001 -0.043689247
-0.09703674 -0.045308556 0.06575165 -0.16658852 -0.06795473 0.026296606 -0.031611957 0.043167636
-0.013054188 -0.01964291 -0.21988751 0.12805355 0.0081974 0.13134487 0.012062204 -0.06581675
0.07416712 -0.015378786 -0.002551966 -0.036079984 0.017335327 0.033621907 0.021672273 -0.36266178
-0.07521809 -0.16025694 0.06750617 0.0080426065 0.07446247 0.015077485 -0.025450582 -0.087412864
0.08028071 0.06111578 -0.026623871 -0.03482419 0.004904509 0.18103422 0.0142770745 0.027952122
0.020032892 -0.07188692 -0.098821595 0.09569257 -0.017218646 -0.015489233 0.010101182 0.10667586
0.03157088 0.017914768 0.04345177 -0.11029235 -0.055408746 -0.059321642 -0.0463983 0.035831556
-0.04038328 0.033207197 0.022244439 -0.122375295 0.076022275 0.08631387 -0.05560036 0.0030763363
-0.05785142 0.04085541 -0.04294991 -0.12806477 0.000113105474 0.033176534 -0.04751712 0.0019020048
-0.020657146 -0.025423424 0.06965141 0.08377196 -0.123998076 0.026653595 0.016048495 0.007103541
0.03353354 -0.09924149 0.02092356 0.0341439 -0.074223794 0.076638035 2.6765687e-05 0.10427731
0.038631402 -0.04647653 -0.11072032 -0.016054334 -0.023994604 0.10113891 -0.07816683 -0.05180932
-0.0549241 0.032283973 -0.04629515 -0.035390656 0.06747071 0.050965257 0.015237212 -0.08365761
0.039356355 -0.0649867 0.04472903 -0.12307501 0.0354876 -0.019294273 -0.0060710106 -0.10555929
-0.11913532 -0.08771473 -0.032908954 0.051959924 0.02458094 0.08669523 0.06279502 0.053314492
-0.0419389 0.08233544 -0.03989121 0.1804861 -0.066227004 -0.14429517 0.035340257 -0.049020074
-0.033707663 -0.09464369 -0.054949336 -0.109070465 0.012169515 0.10523582 0.08834421 -0.06556438
0.027970504 0.014706051 0.06438767 0.09075921 -0.10300188 -0.10961143 -0.049055852 -0.0008175141
-0.09851265 -0.23722106 0.0004184128 0.0040744264 0.07245049 -0.03814744 -0.13213326 -0.06276334
-0.03709765 -0.06718161 0.0011499862 -0.022542205 -0.12243632 0.01363988 -0.05352543 -0.09435468
0.056608383 0.067360364 0.09381759 -0.009304402 0.04526994 0.008061983 0.029468162 -0.15712726
-0.06926978 -0.03979959 -0.11449849 -0.03928288 -0.039795775 -0.009126995 0.08575855 0.041626323
-0.034184083 -0.07184422 0.009553255 -0.10934573 -0.01712934 -0.033471256 -0.051484797 0.09742788
0.1254465 -0.05551806 -0.024656018 -0.08422263 -0.11459653 -0.02618292 0.003581311 -0.09451983
-0.03393001 -0.12734963 -0.06951259 -0.037302468 0.06802087 0.014531061 -0.016518239 0.030453278
-0.020324446 0.06031426 -0.09863148 0.10266035 -0.020004168 -0.011892828 -0.088066444 0.11383316
-0.020109013 -0.15100826 0.060229074 0.04942031 0.093182266 -0.12275822 0.037197974 -0.07151605
-0.08175145 -0.035232846 -0.08047548 -0.09026572 0.019668864 -0.11566533 0.009831486 0.016771829
00000000: 4298 a7bd 9268 10bd a46f dabd a95b e8bd
00000010: a0dd c9b9 b23e 4dbd 26ec 7e3d 8216 e83c
00000020: 6460 14be 6385 103d 2124 d0bd d07c b6bd
00000030: f74a 02be 54af c2bc f30c 09bd ac4b d23d
00000040: fa66 e83d 5f31 8b3d 1b79 043d 3dcf 133d
00000050: 0f21 8cbd 3e65 713d 8200 75bc 972b 483c
00000060: bf96 93bd 1d4d 0cbd e36d c43d 0038 a1bd
00000070: b96e 863d 0fa0 3c3d cdcf 8d3c 7ff3 32bd
00000080: 33bb c6bd 7795 39bd cda8 863d 2e96 2abe
00000090: d92b 8bbd fb6b d73c 8a7b 01bd 8cd0 303d
000000a0: 3ce1 55bc 2bea a0bc 312a 61be 7820 033e
000000b0: 634e 063c 457f 063e 8da0 453c efca 86bd
000000c0: eee4 973d 4ef7 7bbc e33e 27bb 9bc8 13bd
000000d0: d102 8e3c 20b7 093d 0d8a b13c ceae b9be
000000e0: f10b 9abd 651a 24be ad40 8a3d 23c5 033c
000000f0: c87f 983d 8e07 773c bd7d d0bc 8405 b3bd
00000100: 366a a43d 8a54 7a3d 4e1a dabc cfa3 0ebd
00000110: 01b6 a03b 0961 393e 64ea 693c d9fb e43c
00000120: 051c a43c 7339 93bd fa62 cabd 77fa c33d
00000130: 1e0e 8dbc 8dc6 7dbc 6e7f 253c e078 da3d
00000140: 7850 013d fec1 923c 7cfa 313d f5e0 e1bd
00000150: 48f4 62bd 40fb 72bd 250c 3ebd 1cc4 123d
00000160: f068 25bd 4504 083d f839 b63c e69f fabd
00000170: 91b1 9b3d 54c5 b03d 34bd 63bd 5c9c 493b
00000180: 9cf5 6cbd 0158 273d 3fec 2fbd 6923 03be
00000190: 0a33 ed38 1ee4 073d 50a1 42bd b14c f93a
000001a0: 2d39 a9bc c944 d0bc 66a5 8e3d a290 ab3d
000001b0: b4f2 fdbd a458 da3c 2278 833c d2c4 e83b
000001c0: 775a 093d 1f3f cbbd e367 ab3c 79da 0b3d
000001d0: a502 98bd 67f4 9c3d e086 e037 588f d53d
000001e0: f63b 1e3d 2d5e 3ebd 56c1 e2bd 6184 83bc
000001f0: 5590 c4bc eb21 cf3d ee15 a0bd 0236 54bd
00000200: 18f8 60bd 333c 043d fc9f 3dbd cbf5 10bd
00000210: 152e 8a3d f2c0 503d 80a5 793c ae54 abbd
00000220: 2134 213d bf17 85bd ca35 373d c00e fcbd
00000230: 725b 113d 060f 9ebc 54ef c6bb 782f d8bd
00000240: 38fd f3bd c8a3 b3bd 8acb 06bd eed3 543d
00000250: f85d c93c 458d b13d ad9a 803d 4c60 5a3d
00000260: 20c8 2bbd 7c9f a83d f764 23bd 59d1 383e
00000270: 06a2 87bd 1dc2 13be f2c0 103d 46c9 48bd
00000280: 0c11 0abd 8dd4 c1bd 8e12 61bd 5660 dfbd
00000290: a562 473c e185 d73d cfed b43d 9e46 86bd
000002a0: 6622 e53c a6f1 703c afdd 833d f7df b93d
000002b0: a6f2 d2bd f57b e0bd caee 48bd 714e 56ba
000002c0: 00c1 c9bd 14ea 72be 6a5e db39 c482 853b
000002d0: ec60 943d 7d40 1cbd f14d 07be 118a 80bd
000002e0: b5f3 17bd 8396 89bd 22bb 963a 6eaa b8bc
000002f0: e5bf fabd ce79 5f3c 7b3d 5bbd 073d c1bd
00000300: 31de 673d 3bf4 893d 7023 c03d 7e71 18bc
00000310: f96c 393d 6816 043c 3767 f13c f8e5 20be
00000320: 50dd 8dbd e504 23bd 2f7e eabd 16e7 20bd
00000330: e500 23bd 6489 15bc 2ea2 af3d 5d80 2a3d
00000340: 9c04 0cbd 1023 93bd 4185 1c3c a7f0 dfbd
00000350: d452 8cbc 2819 09bd b9e1 52bd 4588 c73d
00000360: 0c75 003e e866 63bd 6bfb c9bc ea7c acbd
00000370: 96b1 eabd 907d d6bc 6eb4 6a3b 9d93 c1bd
00000380: 32fa 0abd f167 02be 9e5c 8ebd 79ca 18bd
00000390: 874e 8b3d b013 6e3c 4251 87bc 2779 f93c
000003a0: 747f a6bc 160c 773d 4dff c9bd 973f d23d
000003b0: c8df a3bc 23da 42bc 2e5c b4bd 5c21 e93d
000003c0: a8bb a4bc e9a1 1abe c3b2 763d f36c 4a3d
000003d0: 58d6 be3d a968 fbbd e75c 183d 0277 92bd
000003e0: 4e6d a7bd 5150 10bd 54d0 a4bd 3cdd b8bd
000003f0: 9920 a13c f2e1 ecbd 3e14 213c 1365 893c

fc.2.bias f4 [171]
0.006611303 -0.025150837 -0.051837325 -0.00015212843 0.008789986 0.054799024 -0.014381632 0.025707318
-0.011281414 0.007503582 -0.03661184 -0.0596241 0.015271749 0.027467469 -0.03549795 0.027061641
0.035682283 -0.01137537 -0.048023574 -0.023591317 0.04257754 0.023940118 -0.005485896 0.048326567
0.054717887 0.024508664 0.02308169 -0.016904917 -0.05629175 -0.022349484 0.043178655 -0.026735153
0.015324947 -0.02357292 -0.024304032 0.030509483 -0.050250977 -0.02125675 0.011081862 -0.054514483
-0.06872046 -0.058454484 -0.08514294 -0.015285584 0.037011452 -0.023899158 -0.07973966 -0.05127109
-0.01609395 0.051931776 -0.060421154 -0.037477005 0.028052429 -0.024841363 -0.037106402 -0.0024006686
0.0762395 0.03426611 0.0649547 0.06984446 0.0026296773 0.0020487576 -0.056507263 -0.041416306
-0.025408696 -0.029062197 0.027850224 -0.0028188236 -0.05964374 -0.050904784 -0.011296449 -0.059765093
-0.04741229 -0.062445052 -0.00065581035 0.05598333 -0.056633282 -0.006939306 0.0030255977 0.0028795563
-0.016622443 0.013584848 -0.016765548 0.008334337 -0.0756048 -0.0077036903 -0.041431334 0.025137601
-0.073261976 -0.0755209 -0.041632026 -0.054952674 0.029258894 0.014816587 0.00987605 -0.051553663
0.06432971 -0.05697615 -0.055476416 -0.03879781 0.08005999 0.0052686846 -0.025416708 -0.023668678
-0.00967444 -0.029644886 -0.015539694 0.00331853 -0.002903964 -0.023177125 -0.00066768064 -0.046958793
-0.036830094 0.001200285 0.055972226 0.052125573 0.031066332 -0.042751778 -0.03541987 -0.008193916
-0.04523121 -0.066152886 0.029564125 -0.05881254 -0.02761262 -0.06387503 0.007387715 -0.020050392
-0.069498405 0.06576668 -0.017158717 0.0073709465 -0.02739093 0.049965475 0.053197652 0.0012867608
-0.03987488 -0.042386603 -0.00018753651 -0.026601935 -0.0048011965 -0.047303304 -0.03725148 0.019082477
-0.04330653 0.0031997631 -0.012737383 -0.02289994 -0.06288387 0.023817526 -0.027857913 0.01603983
-0.07101932 -0.0021729474 -0.027504912 -0.059237912 0.0037427128 0.06320352 0.0014183174 0.05048867
-0.06981709 0.065610535 0.027633198 0.00365529 -0.03279094 0.060585327 -0.0026291222 -0.00883013
-0.007673014 -0.0452336 -0.0029672906
00000000: a1a3 d83b 2109 cebc 6053 54bd aa84 1fb9
00000010: e003 103c f174 603d f0a0 6bbc 2798 d23c
00000020: aed5 38bc 9ce0 f53b 4cf6 15bd 6638 74bd
00000030: 5c36 7a3c 7503 e13c 4c66 11bd 60b0 dd3c
00000040: 9627 123d c35f 3abc 5eb4 44bd 9442 c1bc
00000050: c965 2e3d 111e c43c 08c3 b3bb 14f2 453d
00000060: dd1f 603d 65c6 c83c d015 bd3c 2e7c 8abc
00000070: 2e92 66bd 4416 b7bc 1adc 303d ae03 dbbc
00000080: 7d15 7b3c ff1b c1bc 4019 c7bc 06ef f93c
00000090: f8d3 4dbd a322 aebc b390 353c 944a 5fbd
000000a0: 50bd 8cbd f86d 6fbd 6c5f aebd 6370 7abc
000000b0: 5299 173d 2bc8 c3bc 8c4e a3bd a201 52bd
000000c0: 76d7 83bc 6ab6 543d 2c7c 77bd 7d81 19bd
000000d0: 35ce e53c 1d80 cbbc e2fc 17bd 8954 1dbb
000000e0: 7423 9c3d 9f5a 0c3d f806 853d 9d0a 8f3d
000000f0: aa56 2c3b 7344 063b 2974 67bd 25a4 29bd
00000100: e625 d0bc d813 eebc 2726 e43c 03bc 38bb
00000110: ff4c 74bd 8981 50bd be14 39bc 3ecc 74bd
00000120: 6433 42bd 62c6 7fbd b0ea 2bba c74e 653d
00000130: 4df8 67bd 1e63 e3bb 1b49 463b f0b6 3c3b
00000140: ca2b 88bc fb92 5e3c e757 89bc be8c 083c
00000150: b0d6 9abd 3d6f fcbb e7b3 29bd 5fed cd3c
00000160: 600a 96bd b4aa 9abd 5886 2abd 0e16 61bd
00000170: 59b0 ef3c 45c1 723c 28cf 213c ef29 53bd
00000180: 4cbf 833d d35f 69bd 3d3b 63bd 74ea 1ebd
00000190: 7ef6 a33d eea4 ac3b b336 d0bc d1e4 c1bc
000001a0: 8b81 1ebc d5d9 f2bc 339a 7ebc b27b 593b
000001b0: 6e50 3ebb f4dd bdbc 4a07 2fba dd57 40bd
000001c0: 27db 16bd e252 9d3a 2243 653d a081 553d
000001d0: d27e fe3c 7d1c 2fbd 6d14 11bd c63f 06bc
000001e0: 5c44 39bd 2a7b 87bd 7730 f23c 6be5 70bd
000001f0: dc33 e2bc e9d0 82bd a514 f23b b840 a4bc
00000200: 2e55 8ebd aeb0 863d 7090 8cbc fb87 f13b
00000210: f262 e0bc 99a8 4c3d c8e5 593d 87a8 a83a
00000220: d853 23bd 939d 2dbd 73a5 44b9 4dec d9bc
00000230: 5b53 9dbb 1cc1 41bd 0295 18bd db52 9c3c
00000240: 3062 31bd 1eb3 513b 75b0 50bc a898 bbbc
00000250: 42c9 80bd f91c c33c 4736 e4bc f665 833c
00000260: 9472 91bd 0268 0ebb fb51 e1bc 74a3 72bd
00000270: 4d48 753b d970 813d d6e6 b93a 35cd 4e3d
00000280: 43fc 8ebd d15e 863d 045f e23c 978d 6f3b
00000290: cb4f 06bd 5228 783d 5a4d 2cbb 40ac 10bc
000002a0: e86d fbbb de46 39bd e076 42bb
